logs/M3D30_r04/score.pt (torch, 732745 bytes, 10 tensors)

embed.0.W f4 [64]
000000 d3 5d 9b c1 46 a3 a4 41 11 8b 68 40 de 07 89 41
       -19.420813 20.579723 3.633488 17.128841
000010 00 9e 45 41 a1 d9 ad 41 71 2c 2f c2 88 bb 46 41
       12.351074 21.731264 -43.7934 12.420784
000020 f2 f1 7a c1 f6 3d 8c 41 0a bd 19 41 5c bd e1 41
       -15.684069 17.530254 9.608652 28.21746
000030 05 f6 d0 c1 3d 32 0b c1 eb fb d4 41 b7 cb 99 41
       -26.120127 -8.699765 26.623007 19.22447
000040 41 30 b7 41 54 7b 39 42 8a 65 16 c2 93 bd ac 41
       22.898561 46.370438 -37.59916 21.592566
000050 42 17 3f c2 1d 78 63 40 a7 65 02 c1 0e 51 34 41
       -47.772713 3.5542061 -8.149817 11.269789
000060 a0 5e d8 41 05 f1 97 41 f0 c8 8a c1 0f 07 15 c1
       27.046204 18.992685 -17.348114 -9.314223
000070 76 55 6f 41 c3 e0 cf c0 74 33 17 c1 16 3b 08 c2
       14.9583645 -6.4961867 -9.450062 -34.0577
000080 03 f4 23 41 ab f5 3d c1 32 da 67 c1 f9 ae 02 42
       10.247073 -11.872478 -14.49077 32.67087
000090 98 aa 0a 41 25 0c 13 c2 8b 99 06 c1 81 d0 e7 c0
       8.666649 -36.76186 -8.412486 -7.244202
0000a0 18 46 19 41 db e9 8a c1 d0 28 7e c2 46 c5 96 42
       9.579613 -17.364187 -63.539856 75.3853
0000b0 63 e5 21 c2 f8 7d 3d c2 38 30 cb c1 f5 96 e6 c0
       -40.47401 -47.373016 -25.398544 -7.2059274
0000c0 31 13 8e 40 e1 9b 53 42 8b a5 77 40 f7 6b 21 c0
       4.4398427 52.902225 3.869479 -2.5222147
0000d0 37 28 83 c1 d1 7b 05 c1 14 10 6d 42 82 e9 0e 42
       -16.394636 -8.342729 59.2657 35.728035
0000e0 62 f7 8d c1 e4 7c 41 c2 70 b8 b0 c2 cb 66 08 41
       -17.745792 -48.371964 -88.36023 8.525096
0000f0 03 55 1a c2 96 31 33 c1 d1 30 6e 3d 1c 0f 37 c1
       -38.58302 -11.199606 0.058152024 -11.441189

embed.1.weight f4 [128, 128]
000000 57 f5 60 3d 6e 59 ae 3d 46 b8 32 3d 73 10 a2 bd
       0.054921474 0.08513151 0.043632768 -0.07913294
000010 81 45 8c bd 91 3b 0c bd 61 ff 06 bd a2 56 a7 3d
       -0.06849194 -0.034236494 -0.032958392 0.08170821
000020 a3 39 81 ba f0 e2 aa bd 8f 5e b0 bd 50 ce 58 3d
       -0.0009859096 -0.08344066 -0.086117856 0.05293113
000030 0c 27 22 bd 97 a4 80 3d 6c 1f 9d bd 36 f4 a7 bd
       -0.03958802 0.06281393 -0.07672009 -0.082008764
000040 f3 b0 60 bd f7 e0 4d 3d 40 b0 9f bd 8f 30 52 bd
       -0.054856252 0.05026337 -0.07797289 -0.05131584
000050 32 77 b1 bd 06 83 b1 bd 2c 1b 80 3b a4 62 86 3d
       -0.08665313 -0.08667569 0.003909489 0.06561783
000060 24 8e 65 3c 82 c8 5d bd 49 bb 13 bd 18 bf 81 3d
       0.01401094 -0.054146297 -0.03606728 0.06335276
000070 23 ba 61 3d 88 ad 86 3c 7f 8e e9 bc 8a 94 45 3c
       0.055109154 0.016440168 -0.02851033 0.01205934
000080 88 a0 aa bd 8b f7 b7 3c fe c2 2d 3d ca 3f dc bc
       -0.083314 0.022456905 0.042422287 -0.026885886
000090 00 5c 0f 3d b7 74 82 3d ca c0 5a 3d c6 0e ae 3b
       0.034999847 0.06369918 0.053406514 0.0053118197
0000a0 e7 5c 2b ba 1b 5b 07 3c fa cb b1 bc 94 08 98 bd
       -0.0006536976 0.008261467 -0.021703709 -0.07423511
0000b0 43 9a 61 bd ff 1e 58 bc fa 90 14 3c 12 6f af 3c
       -0.055078756 -0.013190984 0.009067768 0.021415267
0000c0 d5 d2 5a bd c4 f3 00 bc 61 f7 c5 bc ca bb 07 bd
       -0.05342372 -0.007870618 -0.024165811 -0.033138074
0000d0 8a fb 9a 3c 1d a2 84 bd 7f b6 60 bd c1 39 15 bc
       0.018918771 -0.06476233 -0.05486154 -0.009108008
0000e0 78 6d 8a bd 16 85 60 bd 13 81 6f 3d 8b 0f 6a 3d
       -0.06759161 -0.05481442 0.058472704 0.05714373
0000f0 d5 04 b0 3d 5f 85 9b bd 77 cc 3f bd f0 22 93 bd
       0.08594672 -0.07593798 -0.046825852 -0.07184398
000100 5e a6 db bc 34 75 5b 3d 5e f9 15 bd 64 7e 4d bd
       -0.026812728 0.05357857 -0.03661477 -0.050169364
000110 ed 72 83 bc 82 d8 2a 3d 2f 98 04 bd 3d ae 6b 3d
       -0.016046012 0.041710384 -0.032371696 0.057539213
000120 52 71 2b bd e2 b3 13 bd ef 6e 25 3d a4 b6 7b 3b
       -0.041856118 -0.03606022 0.040388998 0.0038408423
000130 b7 d8 85 bc a5 77 5f 3d d7 87 22 bc 03 3f 4c bd
       -0.01633869 0.05455746 -0.009920082 -0.04986478
000140 68 bd 99 3c a4 02 a4 bd dc 32 d4 bc d9 08 f2 3b
       0.018767074 -0.08008316 -0.025903158 0.0073863086
000150 4d 5b ae 3d 1b 57 ca 3c be a4 1c 3d 9b bf 8f 3b
       0.08513508 0.024699738 0.038243048 0.004386855
000160 d7 e1 4d bd 95 76 3e bd bb 1d 4a bd 40 a7 3e bc
       -0.050264206 -0.046499807 -0.04934476 -0.011636555
000170 5f 2b 73 3d d5 aa 8e bd 07 4b bc bc fd 2f e9 3b
       0.059367534 -0.069661774 -0.022984995 0.0071163164
000180 63 cd 9e bd d4 ef 7b bd f1 34 86 3d 78 ba e5 bc
       -0.07754018 -0.061508015 0.065530665 -0.028043017
000190 ad ac 96 3c 9b 1d 29 bd be 82 99 3c d5 0e 34 3d
       0.018392885 -0.041288 0.0187391 0.043959457
0001a0 e4 4f ea 3c b6 22 44 bd 48 14 2f bd 24 4f 28 3d
       0.028602548 -0.047884665 -0.04274395 0.0410911
0001b0 bd 5f 08 3d 91 59 fb 3c 4b c0 82 3d 8d 98 8c bd
       0.03329443 0.030682357 0.06384333 -0.06865034
0001c0 fe 79 8c 3d f5 26 24 bc 64 11 a6 bd eb f2 90 bd
       0.06859206 -0.010019054 -0.08108786 -0.07077583
0001d0 d3 3c 6d 3d ee 25 4a bd 5d 48 29 3d e6 c4 1d 3d
       0.057919335 -0.04935258 0.041328777 0.038517855
0001e0 9c 05 81 bd 00 86 d2 bc 6b 55 ae bd 28 94 4b bc
       -0.06299898 -0.025698662 -0.08512386 -0.01242546
0001f0 fa ed a6 bd 84 b4 b2 3d 9e bf 99 bc 90 56 97 bd
       -0.08150859 0.08725837 -0.018768128 -0.07389557
000200 a8 d2 73 bd 60 36 b1 3d 44 94 36 bd 0f 99 d0 3a
       -0.05952707 0.08652949 -0.04457499 0.0015914756
000210 06 f3 8e 3d bd 53 c3 3c 79 10 a6 bd 90 9d a5 bd
       0.06979947 0.02384364 -0.08108611 -0.08086693
000220 5a d3 4b bb 12 fd b0 bd 40 d7 96 bd 60 a0 0c 3d
       -0.0031101317 -0.08642019 -0.073652744 0.034332633
000230 a8 c9 7f 3d b5 c3 ad bd c4 a0 cc 3c 78 3e ce bc
       0.062448174 -0.08484594 0.024979003 -0.025176272
000240 6b 2b b1 bc 1f b6 1e bd 2c 73 74 3d 85 1f ea 3c
       -0.021627149 -0.038747903 0.05968015 0.028579483
000250 9b 30 5c 3c 55 3e 36 bc 43 7e ec bc 4f 45 4a 3d
       0.013439323 -0.01112326 -0.0288688 0.049382504
000260 66 cd 3c 3b b3 51 12 bc 7a 24 62 3d d9 19 9b bd
       0.002880895 -0.008930611 0.055210568 -0.075732894
000270 1b 5d b2 bd 84 9c 52 bd bb d1 66 bb 72 a3 ae 3b
       -0.08709165 -0.051418796 -0.0035220224 0.005329543
000280 c8 e1 90 3c a9 54 66 bc 37 15 28 3c 95 f3 d1 3c
       0.017685786 -0.0140582705 0.010258964 0.025628844
000290 f6 df 10 bd d3 db 19 3d f9 9a 62 3d 5e 25 84 bd
       -0.035369836 0.037563156 0.055323575 -0.0645244
0002a0 17 94 83 3b b6 3f 5e bd a1 f3 a8 bd e1 ff 8b 3d
       0.0040154564 -0.05425998 -0.082495935 0.068359144
0002b0 b0 01 ff bb aa ee ba 3c 1e 34 80 3c 4c 7d b4 3d
       -0.0077821836 0.022818882 0.015649851 0.08812961
0002c0 32 7a 48 bd 0e f9 53 3d bf 5b 1c bd af dc 5f 3d
       -0.04894466 0.05175119 -0.038173433 0.05465382
0002d0 1b df 2c bd 5f 8a db 3c 0d 4f 9a bb e7 ac 45 3d
       -0.042204957 0.026799379 -0.0047091306 0.048260596
0002e0 3b 01 bf 3c ae ba 8a 3d 4a da e9 3c ee 4f b8 3c
       0.023316016 0.067738876 0.028546471 0.022499051
0002f0 19 14 a1 bd 89 8d 85 3d 6c 53 ef 3c 4f 2a 82 3d
       -0.078651614 0.06521136 0.029214583 0.06355726
000300 bf 66 34 bd db 40 52 3d a2 36 2d bd f4 7f 95 3d
       -0.0440433 0.051331382 -0.04228843 0.07299796
000310 40 51 39 3c 9e b1 02 bd 70 60 92 bd 03 6c 94 3d
       0.011310875 -0.03190767 -0.071473 0.07247164
000320 48 45 77 bd 35 d0 aa bd ee de 00 bd 6d 38 24 bd
       -0.060368806 -0.083404936 -0.031462602 -0.040092874
000330 f3 9e a3 bc f8 e9 60 3d 4c 13 ab bc 01 b0 8a bd
       -0.019973254 0.05491063 -0.020883225 -0.06771851
000340 16 7d a1 3d 3f 83 b7 3c c4 fa ff 3c 73 a5 7b bc
       0.078851864 0.02240145 0.031247504 -0.01535927
000350 87 7b 8a 3c eb 5a a5 bd 36 95 48 bb c6 a5 fc 3c
       0.016904606 -0.08073982 -0.0030606515 0.030840766
000360 1d da 88 bc cf 7b 5d bd 69 31 84 3d 24 13 98 bd
       -0.016705567 -0.05407315 0.06454737 -0.07425526
000370 2c 31 66 bd fa e1 26 3a 15 1d 56 bd 51 bb 6c 3d
       -0.056199238 0.00063660706 -0.05227383 0.057795826
000380 80 c5 2d 3a f1 ea b8 bc 8d 2e ae 3c ee 86 1b 3d
       0.0006628856 -0.022572966 0.021262432 0.037970476
000390 0c 7f d9 3c ce 42 8b bd d3 f9 91 3d eb 18 88 3b
       0.026549838 -0.06799851 0.07127728 0.004153361
0003a0 11 7b 51 bd 90 45 a4 3c 4b a5 23 3d a4 b6 68 3d
       -0.051142756 0.020052701 0.039952558 0.056814805
0003b0 87 4f 74 3d e9 db 15 bd 4f f8 eb bb ae eb 5c bd
       0.059646156 -0.036586676 -0.0072012316 -0.0539357
0003c0 bf 2e 1e bd 9c 14 9d bc d5 48 f8 3c 0a f7 a1 3c
       -0.0386188 -0.019174866 0.030308167 0.019771118
0003d0 fc 35 8e bd 0f ac 89 bd cb 05 af bd 29 2a 98 3c
       -0.069438905 -0.06722271 -0.08546027 0.018574791
0003e0 f9 73 82 3d 74 7b 3e 3c 4a 8a cd ba 60 3d 3d 3d
       0.06369776 0.011626113 -0.0015681472 0.04620111
0003f0 bf 98 33 3c 2f 42 04 3d 84 1e a1 bd d0 f9 4b bd
       0.0109617105 0.03228968 -0.078671485 -0.049798787

embed.1.bias f4 [128]
000000 52 88 96 3d fd aa 72 bd 3f a2 46 3d f7 66 8b bd
       0.0735022 -0.0592451 0.048494574 -0.06806748
000010 8a 28 0f bd 60 3a 9d 3c be e5 70 3d cf c7 38 bd
       -0.03495077 0.019192874 0.05881285 -0.045112427
000020 a4 71 5c bd 82 5c ea bb 79 ce 42 3b 37 b6 52 bd
       -0.053819314 -0.007152141 0.0029725118 -0.051443305
000030 6a e7 45 3d 85 0f 16 bb b4 19 9f bb d3 67 93 bd
       0.048316397 -0.0022897434 -0.004855359 -0.07197537
000040 88 69 36 bd 5a 63 5a 3d 2d 15 62 bd ae 01 22 3d
       -0.044534236 0.053317405 -0.055195976 0.039552383
000050 5e 0c 8e 3d c1 26 01 3d ac 63 0c bd 75 0a 8c 3d
       0.069359526 0.0315311 -0.034274742 0.06837932
000060 74 a1 b3 3d a9 de f6 3c 0c b9 68 bd be 34 93 3d
       0.08771029 0.03013547 -0.0568171 0.07187794
000070 02 d2 89 3d 31 47 9d 3b 96 79 4d bc 2b bc 4c bd
       0.06729509 0.0047997464 -0.012541195 -0.04998414
000080 96 a2 3e 3d 69 5a 76 bc cc 75 46 3d 2d 10 8d bd
       0.046541773 -0.015036204 0.048452184 -0.06887851
000090 97 67 18 bc 37 c2 ef bc 15 41 3c bd de 43 a3 bd
       -0.0093020415 -0.029267414 -0.045960505 -0.07971929
0000a0 37 29 3f bd f7 1d 83 bd c2 99 e6 3c 5a 52 ab bd
       -0.046670165 -0.064022 0.02814949 -0.08365317
0000b0 be e8 32 bd 27 65 83 3d 24 42 eb bc f5 4f 33 bb
       -0.04367899 0.06415778 -0.028718062 -0.002736089
0000c0 48 0c 53 3d a3 b0 08 3c 4e 75 99 bd ae 08 40 3d
       0.051525384 0.008342895 -0.07493077 0.046883278
0000d0 f2 8b a1 3d f1 28 80 3d 75 43 93 3d b8 db 12 bc
       0.078880206 0.06257809 0.07190601 -0.008963518
0000e0 e4 f2 b9 3c 2b 7e 10 3a b4 78 14 3d 55 aa 6a bc
       0.022698827 0.00055119646 0.036247924 -0.014322837
0000f0 75 b1 ac bd 90 40 c7 ba 4d 7a 19 bc 89 0d 82 3d
       -0.08432285 -0.0015201736 -0.009367538 0.06350238
000100 3e 7e 5f bd 88 d3 60 bc 25 c2 a0 bc 01 b5 34 3d
       -0.054563753 -0.013722308 -0.019623825 0.04411793
000110 49 44 9f 3d 5b f6 a4 3d 4c 16 aa 3d 31 98 9a 3c
       0.07776696 0.08054801 0.08305034 0.018871399
000120 20 b5 14 bc 5a 41 63 bd da 58 31 3c 7b 22 85 3d
       -0.009076387 -0.055482246 0.0108244065 0.06500717
000130 f6 dd 91 3d f8 79 8c 3c 95 d1 11 bc 3b 8e 17 3d
       0.07122414 0.017148003 -0.008900066 0.037000876
000140 cc 22 b0 3d 2a a9 72 bd 3d e3 65 bd 04 a7 92 bd
       0.08600387 -0.05924336 -0.056124914 -0.07160762
000150 e4 80 9c bd c0 aa 62 3d 09 f8 6a 3d 21 cc 83 bb
       -0.076417714 0.05533862 0.05736545 -0.004022137
000160 90 c9 69 3d 21 76 9c bc 2c d7 00 3d 0f 9e 89 bd
       0.05707699 -0.019099297 0.031455204 -0.067196004
000170 7b b1 79 3c 6b c6 98 bd 02 4b 31 bd 8b 0a 9b 3c
       0.015240069 -0.0745972 -0.043284424 0.018925926
000180 e0 84 14 3d 8b 6e f6 3c a9 de 48 bd d1 f1 31 bd
       0.036259532 0.030082008 -0.04904047 -0.043443505
000190 e9 4b 01 bd 60 8c 88 bd 8a 7a dd 3c a0 08 af 3c
       -0.031566534 -0.066673994 0.02703597 0.021366417
0001a0 ae 1a c4 bc 4e 9d a4 bd ac e7 3c 3d 96 83 53 bb
       -0.023938503 -0.08037816 0.046119377 -0.0032274476
0001b0 66 f0 6d 3d 8b c8 20 bd 2a c5 95 3c 6b 15 aa 3d
       0.05809059 -0.039253753 0.018282492 0.083048664
0001c0 17 fd 2c bd dc ab 8d 3c 05 b5 50 bd ff 49 75 bd
       -0.042233553 0.017293863 -0.050953884 -0.05988502
0001d0 ff 57 a7 bd 86 78 8a 3d 0e 35 a8 3c 8f 1d 52 bd
       -0.08171081 0.06761269 0.020533111 -0.05129772
0001e0 4c 8d 81 3c e5 4a af bd 50 53 ab 3d df 5d 89 3d
       0.015814446 -0.08559207 0.083655 0.067073576
0001f0 fb 68 87 3c 0f d2 ab bd 30 da 93 bc f8 ab 2b bd
       0.01652955 -0.08389675 -0.018048376 -0.04191205

embed.3.weight f4 [256, 128]
000000 4e 9d a9 3c c4 f1 7e bd a8 ec 3a 3d 50 ce fa 3c
       0.020704892 -0.062242284 0.04563585 0.030615956
000010 97 cb 40 3d 25 03 92 3d cf 09 59 bd 21 20 bd bc
       0.04706916 0.07129506 -0.05298787 -0.02308661
000020 1b 6c a3 3d 94 f4 a5 3d f2 8b 2c 3d c3 30 c3 3a
       0.07979604 0.0810329 0.04212565 0.0014891851
000030 ca f8 9b 3d 58 9d 6b bd e0 79 87 3d 43 14 99 3d
       0.07615812 -0.0575231 0.06615043 0.07474568
000040 da de 93 3c 6e 41 95 3d 97 b1 25 bd 6e d0 84 3d
       0.0180506 0.0728787 -0.040452566 0.06485067
000050 5c dd b7 bb 7a 58 90 bd 56 c3 ad 3d 26 29 ae bd
       -0.005611105 -0.070481256 0.08484523 -0.08503942
000060 8e f8 f3 3c d8 77 a5 bd 28 c8 78 bd 58 a7 96 bd
       0.029781606 -0.08079499 -0.06073776 -0.07356137
000070 ae 0e a9 3d 9d 36 91 bd 08 e9 2d 3d 41 0b 98 bd
       0.08254753 -0.07090495 0.042458564 -0.074240215
000080 c1 c7 1a 3d fe f4 83 3d 0b e3 8c bc 2a e0 8f 3d
       0.037788156 0.06443213 -0.017198106 0.07025178
000090 20 7e a5 3b 2f 1c af 3c a0 78 7b 3d a9 e8 95 bd
       0.0050504357 0.021375744 0.061394334 -0.07319767
0000a0 4b c7 78 3c c1 6f ad bd 56 3a 4a 3c f2 53 c6 3c
       0.015184234 -0.08468581 0.01234301 0.02420995
0000b0 59 00 08 3c 1b ba 7c 3c 0e 85 51 3d 52 24 8d bd
       0.008300864 0.01542523 0.05115228 -0.06891693
0000c0 87 eb 8d bd 69 ad 17 bd e3 88 8b bd 1a 02 a8 bd
       -0.06929689 -0.03703061 -0.068132184 -0.08203526
0000d0 88 fc f7 bc 93 55 b0 bd f9 ae 77 bb 23 37 19 bd
       -0.030271783 -0.08610072 -0.00377935 -0.037406098
0000e0 e5 45 17 bd d5 fb b2 3d f0 86 99 bd 67 34 9c bd
       -0.03693189 0.087394394 -0.074964404 -0.076271825
0000f0 4b 4d 2d 3b 2d a5 3b bd 13 c0 a4 bd 00 e0 bd 3c
       0.0026443775 -0.04581182 -0.08044448 0.0231781
000100 1a 7e 56 bd ed 20 26 bd 4d 92 05 bd 64 5f ac 3d
       -0.052366354 -0.040558744 -0.032610226 0.08416632
000110 99 a3 af bd 63 bb 84 bd 0c f1 8d 3c d3 31 b3 bd
       -0.08576126 -0.06481054 0.017326854 -0.087497376
000120 b8 50 42 3d 73 12 40 bd f5 dd 1d bd d4 04 a8 3d
       0.04744026 -0.046892595 -0.038541753 0.08204046
000130 bc c7 87 3d ef 78 4f bd 0b 52 68 3c a0 6b 65 3c
       0.06629893 -0.05065244 0.014179717 0.014002711
000140 38 4f 78 3d 71 10 99 bd c5 a2 69 3d d6 73 56 3d
       0.060622424 -0.07473839 0.057039995 0.052356564
000150 96 10 aa bd 89 a6 02 3d 52 86 b2 3d 56 f3 30 bc
       -0.08303945 0.0318971 0.08717026 -0.010800203
000160 07 9e a5 bd 64 6b 05 bd 17 e8 88 bd e4 f5 25 bc
       -0.08086782 -0.03257312 -0.066848926 -0.010129426
000170 89 48 78 3d 46 9f 3e bd 83 bb 77 bd b8 ea 30 3c
       0.06061605 -0.046538614 -0.06048156 0.010798149
000180 bc 86 fb 3c c8 f4 a5 3d b5 9b 92 3d 09 5c 67 bd
       0.030703895 0.08103329 0.07158605 -0.056484256
000190 6b 99 c2 3c 47 39 43 3d 13 10 4a bd 39 a2 55 bd
       0.023754796 0.047662046 -0.049331736 -0.05215666
0001a0 ff e9 37 3a a6 01 e5 bc 95 e4 a1 bd d7 00 4e bd
       0.0007015764 -0.027954888 -0.07904927 -0.05029377
0001b0 70 48 3f 3d ed 8b 7f 3d 57 20 a7 bd 9c aa f9 bc
       0.04669994 0.062389303 -0.08160465 -0.03047686
0001c0 43 54 f3 bc 68 f3 ae 3d 80 8a 55 bd e9 e5 f2 ba
       -0.029703265 0.0854252 -0.052134037 -0.0018531653
0001d0 25 15 b3 3d 80 43 d8 3c 90 0c a0 3d 53 04 1b 3d
       0.087442674 0.026399374 0.07814896 0.03784592
0001e0 ba dc 89 bd e0 38 81 3d b4 4a dc bc 00 ac 3a 3c
       -0.067315534 0.06309676 -0.02689109 0.011393547
0001f0 df 13 10 3d 63 7d 42 3d d7 8d 1e bd 0a 97 73 3d
       0.0351752 0.04748286 -0.038709488 0.059470214
000200 d3 6b 3b 3d 51 50 9b 3d 2e 11 59 3d db 33 3a bd
       0.045757126 0.075836785 0.0529949 -0.04545961
000210 6f 20 a9 bc 7d 7f a1 bd c5 d7 11 bd 4b 8d 9b 3c
       -0.020645348 -0.078856446 -0.035606164 0.018988272
000220 c2 a0 67 3d 11 1e aa bc 13 8f e8 bc 46 91 60 bd
       0.056549795 -0.02076629 -0.028388536 -0.054826044
000230 43 47 24 3d 59 49 6a 3d be 3b 06 3d 7f 61 85 bd
       0.040107023 0.057198856 0.03277182 -0.065127365
000240 b2 36 89 bd c2 a9 93 3d 87 c0 21 3d 61 15 7a bd
       -0.066998854 0.07210113 0.03949025 -0.061055545
000250 4d 98 b1 3d b1 9e fe bc 24 84 e3 bc 92 62 95 3d
       0.08671627 -0.03108153 -0.02777297 0.072941914
000260 51 6c 10 3c 88 3e 77 bd e2 71 62 3d 6d 0f 3f bd
       0.008814887 -0.06036237 0.05528439 -0.04664557
000270 36 4c f4 bc 82 9b 4c 3c 54 5a 91 3d 71 15 aa 3d
       -0.029821496 0.012488248 0.07097307 0.08304871
000280 1c a7 8e bd 0e f5 b5 bc 1b a1 a9 3c d9 f6 98 bd
       -0.06965467 -0.022211578 0.020706704 -0.074689575
000290 27 3c 97 3d 16 0a 7d 3d 0d 1a b4 3d a4 19 fb bc
       0.0738452 0.061777197 0.08794031 -0.030651875
0002a0 9c 75 1e bc 02 63 99 bd 45 22 a9 3d 36 c8 33 3c
       -0.009671595 -0.07489587 0.082584895 0.010973027
0002b0 03 a9 6b 3d 6c 93 a6 bd eb 60 90 3d a2 61 a7 3c
       0.05753423 -0.08133587 0.07049736 0.020432297
0002c0 56 e1 e9 3c 9e ed 12 3c dd 01 ff bb 0a 65 52 bd
       0.028549831 0.008967785 -0.0077822045 -0.05136589
0002d0 82 56 fd bb 64 48 b4 bd c3 2d df bc 8a 2a 26 3d
       -0.00773126 -0.0880287 -0.0272435 0.040567912
0002e0 a6 f6 4c bd e0 9c 89 3c 82 49 a4 3d 16 c1 06 3c
       -0.05003991 0.016798437 0.08021833 0.008224746
0002f0 e8 35 0d 3d 2a 53 a2 3d 9c af 82 3c 86 71 76 bd
       0.034475237 0.079260185 0.015952878 -0.060166858
000300 89 71 4a bc 60 33 9a bd 42 f2 92 3c e3 a0 6a 3d
       -0.01235617 -0.0752933 0.017937783 0.05728234
000310 d8 1d 41 bd e2 31 5d bd e0 0a 97 bc 7b 71 e9 bb
       -0.0471476 -0.05400265 -0.018437803 -0.0071241236
000320 b1 1b 5e bb 62 25 8e 3d c3 29 05 bd f5 80 a0 bd
       -0.0033891017 0.06940724 -0.03251053 -0.078370966
000330 20 5d a6 bd d9 48 b6 bc 19 47 52 bd e2 a3 28 bd
       -0.08123231 -0.022251533 -0.051337335 -0.041171916
000340 6a 71 11 b8 7b 09 69 bd 95 ab 3e 3c b0 01 7d 3d
       -3.467632e-05 -0.056893807 0.011637588 0.061769187
000350 66 6b ac 3d a1 8f aa 3d 58 d0 04 bc 5f 47 a9 3d
       0.08418922 0.08328176 -0.008106314 0.08265566
000360 26 11 aa bd 49 08 ca 3c 80 df 46 3d 80 c2 00 3d
       -0.08304052 0.024662154 0.04855299 0.03143549
000370 59 a6 67 bc a7 47 6f 3d 49 5c 4d bc 05 c3 61 bc
       -0.014138781 0.058417942 -0.0125342095 -0.013779406
000380 c7 17 a0 3d 51 3f 96 3c 6e 21 92 bd 96 9f bd bc
       0.07817035 0.018340738 -0.071352825 -0.023147386
000390 53 a9 9e 3d ac 52 cd bc f0 aa 73 3d 15 2f 8a 3d
       0.0774714 -0.025063835 0.05948919 0.067472614
0003a0 eb 86 4b bd f7 4a fa 3c 19 73 60 bc b4 a8 fa 3c
       -0.049689215 0.030553324 -0.013699316 0.030598022
0003b0 40 43 9a bc 2d cc 86 3d 63 e0 78 bd f2 ea ab 3c
       -0.018830895 0.06581912 -0.060760867 0.020986054
0003c0 d2 bd 27 bd 31 7b 63 ba 04 dc 4d 3d 1c ae 4b 3d
       -0.04095251 -0.000867772 0.05025865 0.04972659
0003d0 24 ef 3c 3d b2 3c 47 bd ea df 49 bc f4 85 20 bd
       0.0461265 -0.048641868 -0.012321452 -0.039190248
0003e0 4a 51 8a bd ef a7 a7 bd 93 d7 4b bd d0 29 a2 bd
       -0.06753786 -0.08186328 -0.049766134 -0.07918131
0003f0 68 8f 95 3d e7 6b 82 3b cc 4e df 3c 36 2a 7b 3d
       0.07302743 0.003980148 0.027259253 0.061319552

embed.3.bias f4 [256]
000000 54 d3 2a 3d e2 a6 de bc 6c b7 0c 3d 41 41 2a 3d
       0.041705444 -0.027179185 0.034354612 0.041566137
000010 b5 a1 a0 3d 73 42 5c 3d 1e 19 81 bd df 49 9e bd
       0.07843343 0.05377431 -0.06303619 -0.077289335
000020 e5 5b 86 3d f7 41 60 bd df 48 01 bd ec e9 93 bb
       0.06560496 -0.05475041 -0.031563636 -0.0045139696
000030 ff af 84 bb aa 0f 84 3d db b7 4f 3d c5 04 10 3c
       -0.0040493007 0.064483 0.050712448 0.0087902
000040 97 16 18 3d 8d 6e b9 ba fa 6f 24 bd 68 76 9e 3d
       0.03713092 -0.0014147327 -0.04014585 0.07737428
000050 ca a2 6e bd e4 a2 bf 3c 93 9c 5a 3d 68 10 a0 3d
       -0.058260716 0.023393102 0.053371977 0.07815629
000060 cf 8e 9e 3d a8 5e 0a bd c4 4e 5f 3d 5d df 94 3d
       0.07742082 -0.033781677 0.054518476 0.07269166
000070 9b 3d db 3c cb 81 16 bd 7c 41 b3 3c b8 ea c9 3c
       0.026762774 -0.036744874 0.021881811 0.024648055
000080 5b f6 e8 3c ea 60 57 3d 7f e6 97 bd 1e 2c 20 bd
       0.028437784 0.05258266 -0.074170105 -0.039104573
000090 6c a0 a9 bd ed 16 22 3c fe 70 6e bc ad 5c 72 bd
       -0.08282551 0.009893161 -0.014553307 -0.059170414
0000a0 21 12 72 3a d2 b2 b3 3c 9f 62 56 3b 2f 35 93 bd
       0.0009234269 0.021935854 0.0032712591 -0.07187878
0000b0 dd 44 d9 bc d1 fd 44 3d d0 f3 0e 3d a6 fb 38 3d
       -0.026522094 0.04809362 0.034900486 0.045161866
0000c0 4d f4 dc 3b e8 fc 08 bd 74 57 8e bd e8 22 75 bd
       0.00674299 -0.033444315 -0.06950274 -0.059847742
0000d0 7e f8 0f 3d 6a 2d 77 bd e7 5f 28 3c 5a 00 8d bd
       0.03514909 -0.060346045 0.010276771 -0.06884833
0000e0 cc 1d 88 bd 7b 26 ee 3b 4d 14 99 3b ab 9f 8c 3c
       -0.06646308 0.007267771 0.0046716095 0.01716598
0000f0 1a 51 23 bc 03 ac 9b bd d6 62 ae 3d 96 09 68 3d
       -0.009968067 -0.07601168 0.08514945 0.056649767
000100 d8 33 b0 3d df c9 45 3d a5 d7 0f 3c 92 6a fd bc
       0.086036384 0.048288222 0.008779441 -0.030934606
000110 e7 b9 9b bd b5 30 34 3d a5 07 c2 bc 2a 3a a5 3d
       -0.076038174 0.043991763 -0.023685286 0.080677345
000120 f7 4a 3b 3c ea ca a9 3b 1d f4 7f 3d 53 bc 91 3d
       0.011431447 0.00518166 0.062488664 0.07115998
000130 c7 1d 97 bd 2c 07 24 bd aa 86 ae bd 33 3f 92 bd
       -0.073787265 -0.040045902 -0.08521779 -0.071409605
000140 98 86 95 3d 6e 43 5d bd 1d b4 31 3d c5 67 28 3b
       0.07301062 -0.054019384 0.04338466 0.0025696617
000150 73 67 b0 3d c6 ac 12 3d ac d8 37 bc df fb 20 3d
       0.086134814 0.0358093 -0.011221092 0.039302703
000160 e2 98 9d 3c 25 18 1d 3d ce a6 ae 3d a6 d0 92 3c
       0.01923794 0.038353104 0.08527909 0.017921757
000170 91 f2 49 3d ce 27 10 bd 2d b5 54 bd fa 5b a0 bd
       0.049303595 -0.03519421 -0.051930595 -0.07830043
000180 87 89 95 3d 27 d8 4a 3c 10 98 7e bc 8f 4d 48 bd
       0.07301622 0.012380636 -0.015539184 -0.04890209
000190 78 b0 ab 3d 4d 14 87 3d b8 66 80 bc 95 2a 0f 3d
       0.08383268 0.06595669 -0.01567398 0.03495272
0001a0 0b 72 ca 3c 62 96 aa bc 54 92 b9 bc 86 82 91 3d
       0.024712583 -0.020823661 -0.022652782 0.071049735
0001b0 b3 8c 42 bd 92 b8 e0 3c cc 98 5e bd 29 7f 04 3d
       -0.047497462 0.02743176 -0.054344937 0.032347832
0001c0 ef 26 59 3d ef 10 10 bd 12 26 8a bd e3 fd 00 bd
       0.053015646 -0.0351724 -0.067455426 -0.031492125
0001d0 78 b6 08 bc 26 bf 89 bd 22 a5 fc 3c 42 f1 bd 3a
       -0.008344285 -0.06725912 0.03084046 0.0014491456
0001e0 d6 f2 a3 3d 88 d4 f4 3c e6 70 a5 bd 3a 97 dc 3b
       0.08005302 0.029886499 -0.08078174 0.006731895
0001f0 6b ab 09 bd d9 72 a2 bc f6 22 da bc 13 7c 5b bc
       -0.033610743 -0.019830154 -0.026627999 -0.013396281
000200 db 42 b4 3d ef 8a e6 bc 72 23 fc bc e3 6a 02 bd
       0.08801814 -0.02814242 -0.03077862 -0.031840216
000210 86 9f 1d bd 47 c1 25 bd 47 79 93 3d 58 a7 8a 3a
       -0.03848221 -0.040467527 0.07200866 0.0010578437
000220 bc 4e 19 3d c2 52 73 bd 87 33 51 3d 04 61 2d 3d
       0.037428603 -0.059405096 0.05107453 0.04232885
000230 0b 8e 19 3d 62 03 8f bc b6 08 43 3d 19 db 38 bd
       0.03748898 -0.017457668 0.04761573 -0.045130823
000240 a7 f5 46 bc 37 e5 9b 3d a4 db fd bc 20 ba ab bd
       -0.012143529 0.07612079 -0.030988522 -0.0838511
000250 c8 6b fe bb 58 4f 1d 3d c0 b3 99 bb 16 39 57 bd
       -0.0077643134 0.038405746 -0.0046906173 -0.052544676
000260 25 d6 8e 3d 4f af aa bc 2f 92 50 3d 5f 0a 82 3d
       0.069744386 -0.020835547 0.05092066 0.063496344
000270 92 76 5d 3d 22 b2 2d 3d be 4d 8a 3d c5 94 65 3b
       0.054068156 0.04240621 0.067531094 0.00350313
000280 6b d3 b0 3d f1 9b 02 bd 2b 76 5c bd a3 ac 9c bd
       0.08634075 -0.031887 -0.05382363 -0.07650115
000290 54 63 b0 3c ad 16 56 3d 8a 10 c4 bc 28 5f e6 bc
       0.021531738 0.05226772 -0.023933668 -0.028121546
0002a0 f2 50 9d bd f4 d4 17 3a 33 e0 67 bd 35 03 c5 3c
       -0.07681455 0.00057919254 -0.056610297 0.02404938
0002b0 b5 d1 de 3c ba 52 3e 3d 09 a8 8d bc f4 60 b0 bd
       0.027199605 0.046465613 -0.01729204 -0.08612242
0002c0 5c 36 ce bc eb f7 61 3c 04 8e 5b bd 42 49 aa 3d
       -0.025172405 0.013792018 -0.053602234 0.08314754
0002d0 68 4a c9 bb 1e 74 f0 bb 35 38 9d 3d f3 86 43 3d
       -0.006142903 -0.007338061 0.07676736 0.04773612
0002e0 00 62 0f bd 7f 10 26 3b 0d 7a 1c 3d a3 d5 a6 3d
       -0.03500557 0.0025339422 0.038202334 0.08146217
0002f0 71 16 76 bc 20 9e 33 3d 11 d1 82 bd b0 ff 88 bd
       -0.015019999 0.04385197 -0.063875325 -0.066893935
000300 a1 7d 4b bd 7e ec 8a bd 30 89 53 bd 28 b0 37 3d
       -0.049680356 -0.067833886 -0.051644504 0.04484573
000310 af 3e a8 3d 72 12 27 3d bd 8d 77 bc 7a 64 96 bd
       0.08215081 0.040789075 -0.015109477 -0.07343383
000320 74 85 7b 3d f8 79 99 bd a0 cd b3 bc 3d 0e ab bb
       0.061406568 -0.07493967 -0.021948636 -0.005220203
000330 63 08 24 bd 13 6d 78 3d 1f ba 29 bb 74 3c 0e 3d
       -0.04004706 0.060650896 -0.002589829 0.03472562
000340 fe e6 ee 3c a0 26 1a 3d e4 0e a9 bc 80 1f 2a 3c
       0.02916288 0.037634492 -0.020636983 0.010383487
000350 89 6f 90 bd 7e 2b 86 bc f7 64 ac 3d 14 b8 cc 3c
       -0.07052524 -0.01637816 0.08417695 0.024990119
000360 3e d5 32 3d 6b 54 68 bd d6 f0 8f 3d 20 4e 11 bd
       0.043660395 -0.056721132 0.07028358 -0.035474896
000370 13 fc a5 bd 11 ca 8f bd c0 af a5 bd 7a ce 24 bd
       -0.0810472 -0.07020963 -0.08090162 -0.040235974
000380 85 b3 b4 3c 99 6d 03 bd b7 98 2c 3d fd 57 db bc
       0.022058258 -0.032086942 0.042137828 -0.026775355
000390 11 21 20 bd bf 85 dc 3c dc 32 9d ba 28 ec 4b bd
       -0.039094035 0.026919244 -0.0011993307 -0.049785763
0003a0 f7 02 c9 bc 9a 89 41 3d 71 2f 37 3d 00 4e 42 bc
       -0.024537547 0.047250368 0.044722978 -0.011859417
0003b0 90 02 9d 3d f8 20 35 3d a0 b7 1e bd 36 2c b2 bc
       0.076665044 0.044220895 -0.038749337 -0.021749597
0003c0 d4 7d fb bc b1 0f ae 3d 09 63 6c bd ee 60 7a 3b
       -0.030699648 0.08499087 -0.057711635 0.0038204747
0003d0 50 f5 6d 3d 82 e6 3f 3c ef f8 31 bd cb 71 71 bd
       0.058095276 0.011712672 -0.043450292 -0.058946412
0003e0 46 37 84 3d ce 97 6a bd 5b a6 16 3c b4 f7 71 bc
       0.06455855 -0.05727368 0.009194936 -0.01476853
0003f0 1f 4c 9c bd 0a 50 97 bd 9a 35 71 3d 71 31 87 bd
       -0.076317064 -0.07388313 0.05888901 -0.06601227

conv_spatial.mlp.0.weight f4 [256, 2]
000000 5d 72 c0 3d a4 2e 8b be 7b 8c 07 3e f7 6d 15 3e
       0.09396813 -0.2718402 0.13237183 0.1459273
000010 dc cc 80 3e 2a 3e 78 3e 3d 3e 0b be 9c e5 94 bd
       0.25156295 0.24242464 -0.13597961 -0.07270357
000020 ea 68 df bd 5a 85 83 be 5c e5 3c bd 96 12 a2 3e
       -0.10908683 -0.25687677 -0.04611717 0.31654805
000030 1f 01 38 be f9 63 29 3d d9 92 85 3e eb 7d 4f 3e
       -0.17969178 0.041355107 0.26088598 0.20262878
000040 a7 a4 91 be 04 bf 0d 3e de 69 38 3e ab cc 24 bd
       -0.28445932 0.13842398 0.18009135 -0.04023425
000050 9e cc fe 3c 26 fe 3b 3e cc 0e 8a be 9c dd 76 bd
       0.031103428 0.18358669 -0.26964414 -0.060269937
000060 25 9f 5f 3f ce 45 e0 bf 25 7d fd bd 2f 09 0e 3e
       0.8735221 -1.7521303 -0.12377385 0.13870691
000070 00 e7 7d 3e 2b ba 0b bd a4 97 0e 3e 5f d0 55 be
       0.24795151 -0.03411309 0.13925034 -0.20880269
000080 81 8f 78 bd 58 e8 4f 3e 11 44 97 be c0 60 2f 3c
       -0.06068373 0.20303476 -0.29544118 0.010704219
000090 c1 5e 8a 3e 84 53 2d be 5b 3b 64 3e e0 ad 54 be
       0.27025416 -0.1692639 0.22288267 -0.20769453
0000a0 39 74 84 3d a7 35 94 be dc a7 98 3e de d9 63 bd
       0.0646748 -0.28947183 0.29815567 -0.055627696
0000b0 3c d9 cd 3f 2d 6c 1e 3f 26 58 35 c0 0c 81 8a 3f
       1.608192 0.61883813 -2.8335052 1.0820632
0000c0 9e 7f da bd 31 3d 07 3e c2 cc 4c be 40 be 94 3d
       -0.10668872 0.13206936 -0.19999984 0.0726285
0000d0 00 6c 78 3e bb 7d 70 3e 48 08 16 ba 34 50 11 bb
       0.24259949 0.23485462 -0.000572328 -0.002217305
0000e0 63 01 cf 3d 98 bc 4c be 4b f0 78 be ce a8 7f 3e
       0.10107686 -0.19993818 -0.24310414 0.24966738
0000f0 b5 fe a0 be c7 03 af 3c de fe 69 3e 9c cd 69 be
       -0.31444326 0.021364106 0.2285113 -0.2283234
000100 c8 b2 4d be 63 70 96 be c0 14 09 be 42 f4 86 be
       -0.20087731 -0.2938262 -0.13386822 -0.2635823
000110 41 13 92 be 98 6d 36 be 6a 86 9a 3e 39 d6 0e be
       -0.28530315 -0.17815244 0.30180675 -0.13948907
000120 d1 91 2d be c3 c7 4d bd 49 c2 32 3e 88 90 86 be
       -0.16950156 -0.050239336 0.17456926 -0.26282144
000130 6b 1e c7 be b9 3c 8a bf b9 03 5a be 36 be 96 be
       -0.38890395 -1.0799781 -0.21290483 -0.29441994
000140 70 09 52 3e ca ad 43 be c4 60 cf bd 35 1a 86 3e
       0.20511413 -0.19109264 -0.101258785 0.2619187
000150 7d 3c ff bd 4f d7 6a 3e 25 12 9d be 58 1a 8a 3d
       -0.12462709 0.22933696 -0.30677906 0.06743306
000160 1f c8 91 3d 15 12 91 be ed 2c ed 3d 3f 85 91 3d
       0.07118248 -0.28334108 0.115808345 0.07105493
000170 11 36 a8 3f cf 43 09 40 21 c2 2b b9 dd 85 99 38
       1.31415 2.1447637 -0.0001638015 7.3205425e-05
000180 a5 4f e9 bd 1e 44 8b be 22 35 39 3e be 92 8a 3e
       -0.11392144 -0.27200407 0.18086675 0.2706508
000190 e5 62 f7 3a b9 90 e1 bb ac 7d 73 be 33 65 e8 bd
       0.0018874077 -0.0068837074 -0.23778409 -0.11347427
0001a0 7d ae 43 3e d7 50 8d be 38 c3 18 3e a3 2d 77 be
       0.19109531 -0.27600738 0.1491822 -0.24138503
0001b0 17 35 07 be 60 6f 79 be 1d f0 4c 3e b3 00 6c 3e
       -0.13203846 -0.24358892 0.20013471 0.23047142
0001c0 d0 58 41 3f 90 19 1c 3f 66 a7 83 3e 34 f2 38 3e
       0.7552614 0.60976505 0.25713652 0.18061143
0001d0 f7 36 0f 40 b1 a2 fe 3f e9 7a 89 be de 92 b0 3d
       2.2377298 1.98934 -0.26851586 0.08621763
0001e0 e5 83 0a be 6d a4 9b bd a7 90 3c 3e de 57 8a 3d
       -0.13526876 -0.07599721 0.18414555 0.067550406
0001f0 6c 35 2a be 57 b9 98 be ac f0 d7 3d 23 f2 24 3e
       -0.16621941 -0.29828903 0.105439514 0.16107993
000200 9c bc c7 3d 31 d7 ee bd ae ae 18 3e 71 56 99 3e
       0.09752771 -0.11662138 0.14910385 0.29948762
000210 f2 f3 1f be 87 e8 9a be f8 81 d4 3d a7 e1 5c 3d
       -0.15620402 -0.3025553 0.10376352 0.053926136
000220 9a 70 3c 3e b7 b3 da bd fa 6d 45 3e 4e 1c 44 be
       0.18402329 -0.10678809 0.19280234 -0.19151422
000230 ed 2f 35 c0 4c 11 96 3f 69 03 d2 3d bc 2e 93 3e
       -2.8310502 1.1724029 0.10254557 0.28746593
000240 56 96 a2 3f 71 c2 86 c0 df 0c 6c be 65 b1 23 3e
       1.2702129 -4.2112355 -0.23051785 0.1598564
000250 b7 43 a8 be d9 b4 5c 3d 16 5d 5a 3e 69 00 68 be
       -0.32864162 0.053883407 0.21324572 -0.22656406
000260 5a 5d 9a 3e 75 da 69 3d 61 16 dd bd b9 d3 a1 bc
       0.30149347 0.057093102 -0.10795284 -0.019754278
000270 9a a1 89 be 65 b6 77 be 34 a9 9a be e9 aa 94 bc
       -0.26881105 -0.24190672 -0.30207217 -0.018147903
000280 10 20 2d bd 4b 75 43 be c4 85 15 be 37 74 92 be
       -0.042266905 -0.19087712 -0.14601809 -0.2860429
000290 f0 82 84 bb dc 3e 97 be ee 71 32 be cc 20 8f 3e
       -0.0040439293 -0.29540145 -0.17426273 0.2795471
0002a0 ce 29 9e bd 8f a3 99 3e 16 f2 34 be 1c f6 7e 3e
       -0.07722817 0.30007598 -0.17670473 0.24898571
0002b0 1f dd 7d 3f 51 88 0f 40 b6 bb 89 bd 3d 2e 89 be
       0.9916553 2.242695 -0.06725256 -0.2679309
0002c0 4b 86 96 be 4c 7a f4 bd 94 f6 a1 3f 97 e8 2f 3f
       -0.29399332 -0.11937389 1.2653375 0.6871428
0002d0 18 bc 84 be 95 de 33 bd b0 70 8f be c4 ca 5b 3e
       -0.25924754 -0.043913443 -0.2801566 0.21464068
0002e0 d8 07 cd 3b 5d 42 96 3e 0e 76 a3 3a d5 85 5f 3a
       0.0062570386 0.29347506 0.0012471096 0.00085267174
0002f0 f8 b7 a8 bc d4 d5 96 be 37 46 29 bd 9c 3e 91 be
       -0.020595536 -0.29460013 -0.041326728 -0.2836808
000300 fd ec c8 3c ab a3 4a be bb 47 78 be e6 d7 ae 3d
       0.024527067 -0.19788997 -0.24246113 0.08537273
000310 9c a0 6c 3e d8 25 c6 3d fd 76 50 3d 13 5c 8c be
       0.23108143 0.09675187 0.050894726 -0.27413997
000320 fd 6e 81 bd f0 06 8f be 28 4c 61 b9 fd 4d ad 3a
       -0.063199975 -0.2793498 -0.00021486043 0.0013222095
000330 6b b2 91 be 47 72 4d be 3b 15 cb 3a d1 44 9c 38
       -0.28456435 -0.20063125 0.0015493998 7.451478e-05
000340 96 0c 9c be 2b 87 d0 3d ac f1 b7 3a 60 2f 0e 3a
       -0.30478352 0.10182031 0.0014033816 0.00054239295
000350 8f e2 40 3d 54 7f a5 be 8d 0e b7 bd ee d1 8e 3e
       0.047091063 -0.32323706 -0.08938322 0.2789454
000360 a2 f5 40 3e d2 a5 6d 3e bd 4a 31 be 8c 40 9d be
       0.18843701 0.23207787 -0.17313667 -0.30713308
000370 e0 c1 95 be 16 c9 9f 3d 7c d8 94 be e9 87 3b 3e
       -0.29249477 0.07802026 -0.29071414 0.18313564
000380 6a fb 31 be b5 2d 27 3e 41 68 79 be b3 93 2e bd
       -0.17381063 0.1632603 -0.24356176 -0.042621326
000390 bd 43 7b 3e 5d 61 6c 3e 4f 12 3b be 87 d9 1a be
       0.24537559 0.23084016 -0.18268703 -0.15122043
0003a0 3f 14 c3 b9 31 dd f1 b9 a7 de 7a 39 b9 0c 3a ba
       -0.00037208383 -0.00046131902 0.00023924802 -0.0007097233
0003b0 ea 03 e9 bc 6b c5 a0 be 81 bb 80 3e 68 89 5f 3d
       -0.02844425 -0.31400618 0.25143054 0.0545744
0003c0 0c 65 96 3d 4f 24 ed 3d 02 ee 0c bf 7c d8 01 bf
       0.07343492 0.11579191 -0.5505067 -0.50720954
0003d0 e6 11 0f 3e c2 ff 71 be 61 34 ca 3f 19 4b 67 3f
       0.13971671 -0.2363272 1.5797235 0.90348965
0003e0 63 c9 98 3e 7c 80 b3 bc 59 d1 9b be cd 8d 1f be
       0.29841146 -0.021911852 -0.30433157 -0.15581436
0003f0 c3 60 65 be d5 67 0a 3e 5d 17 9a 3e e4 52 5c 3c
       -0.22400193 0.13516171 0.3009595 0.013447497

conv_spatial.mlp.2.weight f4 [256, 256]
000000 7e 88 5f 3d f7 e0 a0 3c ad ee 30 3d d5 76 12 bc
       0.05457353 0.019638522 0.04319637 -0.008939465
000010 ad 90 0c be 87 6b f0 3c a1 8a 0b be 9e ca 55 3d
       -0.13727064 0.029348148 -0.13627101 0.052195184
000020 a4 db d0 bd b7 3b 12 3e 64 fd 0f 3d 56 68 a1 bd
       -0.10198143 0.14280592 0.03515376 -0.078812286
000030 0d aa a9 3e 87 ae cf be 4a 0b 00 3e 68 f1 3a 3e
       0.3313755 -0.4056284 0.12504306 0.18256152
000040 92 f8 47 bd 3b 36 12 be c1 3a 30 3e 51 a0 83 3e
       -0.04882104 -0.142785 0.17209913 0.2570825
000050 b7 57 42 bc 1a 56 e7 3d 72 54 bc bb 5c dc c9 bc
       -0.011861733 0.112957194 -0.0057473714 -0.024641208
000060 71 1b 59 be 89 5a 28 be 89 ad 6d 3d 78 af a1 3e
       -0.21201874 -0.16440786 0.058026824 0.31579185
000070 d1 b8 d4 3d 8e ed 8a be c2 47 a6 bd 0b ab 7c 3e
       0.103868134 -0.27134365 -0.081191555 0.24674623
000080 d9 74 1b bd 77 7b 9a bd 36 48 b8 bd 10 82 03 3e
       -0.03795323 -0.0754308 -0.08998148 0.12842584
000090 a7 d4 c7 bc 2b 9d 49 3e 3f 3c 0e 3e de 10 ec bd
       -0.024393393 0.19688861 0.1389017 -0.11526655
0000a0 0b ba 36 3e bb 6b 96 bd 04 ed 5b be 73 52 c5 bd
       0.17844407 -0.07344767 -0.21477133 -0.096348666
0000b0 55 8d 0d 3b e6 69 09 bd 2c 82 47 be 11 48 87 bd
       0.0021599133 -0.03354826 -0.1948325 -0.066055425
0000c0 3e 5d 7e bd a9 dc b9 3d 83 ba 59 3e 57 8b 05 be
       -0.06210064 0.09075291 0.21262555 -0.13041435
0000d0 8a af 71 3e 0b 4a 61 3e 20 93 dc 3d 1c a0 35 3d
       0.23602119 0.22000901 0.10770249 0.044342145
0000e0 45 4f ff bd ee 2a db 3d ec 15 10 be 73 49 44 be
       -0.12466291 0.107015476 -0.14070863 -0.19168644
0000f0 93 f9 6e bd 74 53 cf 3d 2f 68 85 bd d6 89 42 3d
       -0.05834348 0.10123339 -0.06514012 0.04749473
000100 f4 01 55 3e 69 61 87 3d 7f 7c a3 bd 2b 06 8e 3d
       0.20801526 0.066103764 -0.0798273 0.0693477
000110 17 d7 02 3e 5c 65 7d 3e 8d d4 f7 bd ac 9a 6b 3d
       0.12777363 0.24745697 -0.12101088 0.057520553
000120 a1 34 57 3e e0 eb f9 bd 30 88 fa bd 16 77 72 3e
       0.2101617 -0.12203193 -0.12233007 0.2367824
000130 c4 71 05 3e 20 77 0e bd 3b 64 5d bd 6c eb 91 bd
       0.1303168 -0.034781575 -0.054050665 -0.07124981
000140 db 96 25 3d 11 b1 9d bd 52 ab 67 3a 40 18 67 be
       0.04042707 -0.07699788 0.00088374794 -0.22567844
000150 d0 cb c7 bd 0a a8 8e be 6f a7 d5 bd d4 9d d0 bd
       -0.09755671 -0.2786258 -0.10432326 -0.10186353
000160 bd 8b e9 bd be 9d 16 bd e3 39 23 be dc 68 20 be
       -0.11403606 -0.03677153 -0.15940051 -0.15665
000170 d5 8f d1 b9 6f 37 9d 3c 6a 0d a2 bc 8d d4 3a bd
       -0.0003997075 0.019191472 -0.019781787 -0.04561286
000180 6f a4 93 3c 16 46 06 be ad 35 78 3c 7d 50 71 3d
       0.018022744 -0.13112673 0.015149516 0.05891465
000190 c6 0c 8f bd 0c 1d 4e be af d2 ec bd 71 81 b7 bd
       -0.06984858 -0.20128268 -0.11563622 -0.08960236
0001a0 c2 4b 32 be 21 c3 3f 3c 4c 7a 98 3d 46 e8 bb bd
       -0.17411712 0.011704237 0.07445201 -0.09175162
0001b0 00 cf 0a 3d 79 59 5a bd 17 d0 30 be 18 05 16 be
       0.033888817 -0.053307984 -0.1726688 -0.1465038
0001c0 df 8f 36 be 98 d2 17 bd 24 d0 ce 3d 6e 3e 92 bd
       -0.1782832 -0.037066072 0.100982934 -0.07140814
0001d0 ff 7a 63 3e 50 6d a2 3e 5d 92 98 bd 5e 48 89 3d
       0.22214888 0.31724024 -0.074497916 0.06703256
0001e0 05 27 e7 bc 3f 26 89 3c 51 bf 34 3e 8a e1 64 bd
       -0.028216848 0.01674187 0.17651106 -0.055879153
0001f0 60 12 01 3e 9b 5a e8 bc cc 7d 42 be 36 24 d1 3d
       0.12604666 -0.028363517 -0.189933 0.10211985
000200 2d 79 d4 3d af 5c bb 3d 7c 32 16 bd 42 d1 77 3d
       0.10374675 0.09148537 -0.03666924 0.0605023
000210 00 c6 a7 bd 52 51 b1 3c da a1 7b 3e 5a f5 44 3e
       -0.081920624 0.021645222 0.2457346 0.19234219
000220 77 7d 8d 3e 06 1c 4b be 84 d7 cd 3d 33 93 06 3d
       0.27634785 -0.19834909 0.10050872 0.032855224
000230 0f 94 2e be c3 70 9e bd 43 a0 f8 3d c0 43 81 3d
       -0.17048667 -0.07736351 0.121399425 0.063117504
000240 aa 4a 6c 3e dc c6 74 3d 67 e0 e4 3c dd e4 24 bd
       0.23075357 0.05975996 0.027939035 -0.040257324
000250 3b 37 14 be 90 1b cf bd 10 35 b7 3c 6b 42 8e be
       -0.14474194 -0.10112679 0.02236417 -0.27785048
000260 33 c2 41 3d d4 53 80 3d 01 5f 3f bd d2 40 44 be
       0.047304343 0.06265989 -0.046721462 -0.19165352
000270 6b c3 4f 3e 45 91 28 be 5c f2 09 bc 1a 3e ad 3d
       0.2028939 -0.16461666 -0.008419599 0.084591106
000280 75 4b 3c be 23 e2 e5 3d 9f 1d c5 bd 67 a9 02 3e
       -0.1838816 0.11224773 -0.096247904 0.12759934
000290 dd 13 6c bd fa 3d 39 3d 65 4a 54 3e 5c 6f d3 3c
       -0.05763613 0.04522512 0.20731504 0.025809936
0002a0 74 2b b0 3d 48 38 22 3e 53 df 46 3e b9 8f 7a 3d
       0.08602038 0.15841782 0.19421129 0.06117222
0002b0 35 58 2d 3d 81 77 cd 3d bb 8d 95 3e 69 15 37 be
       0.04232045 0.10032559 0.29209694 -0.17879261
0002c0 e9 26 aa 3d 44 d6 01 be e6 e0 45 3e c6 b6 56 3e
       0.08308203 -0.12679392 0.19324073 0.2096816
0002d0 e0 7e 8c bd 29 94 c5 bc af 29 53 be b3 d8 d2 bc
       -0.06860137 -0.0241185 -0.2062137 -0.025738096
0002e0 07 e5 a8 3d fe 8f 17 3d 8a 45 51 be ea 8d 55 bb
       0.082468085 0.037002556 -0.20436683 -0.0032585808
0002f0 64 62 43 3e a6 b5 d4 3d dd 6f 35 be 7e 21 c9 3e
       0.19080502 0.10386209 -0.17718454 0.39283365
000300 20 2f 52 bd 31 c4 2d be d3 42 c5 3d 7e 9b af bd
       -0.051314473 -0.16969372 0.09631886 -0.0857458
000310 7d 91 88 bd d7 7e 72 bd 88 5d 89 bc 15 dd 82 3e
       -0.06668375 -0.059202995 -0.016768232 0.25559297
000320 9a e2 03 be 03 ff 09 3e f6 42 68 bc b8 ce 95 bd
       -0.1287941 0.13476186 -0.014176121 -0.07314819
000330 31 e6 8b 3d 67 de 07 3e 7c a8 f7 3d dc 97 e1 3c
       0.06831015 0.13268434 0.12092683 0.027538233
000340 20 ad a2 be 86 d4 79 bb 1d da 68 bc 66 45 e9 bd
       -0.3177271 -0.0038121059 -0.0142121585 -0.1139019
000350 8c c8 c1 3b 3a 93 cb 3d 5f 1c 14 be 8f 5d e5 bd
       0.0059137996 0.099401906 -0.14463948 -0.111994855
000360 13 76 16 be 6b 4a 0e 3e 14 fe 11 3e 4b b2 38 3e
       -0.14693479 0.13895576 0.1425708 0.18036763
000370 60 ca 8c be 31 ce c9 3d 7e f5 c7 3d 0c 6f a3 3e
       -0.2749815 0.09853781 0.09763621 0.3192066
000380 ea cf 3d 3e 6e de 16 bd 7b d9 22 3b ee 62 bb bd
       0.18536344 -0.03683322 0.0024848867 -0.09149729
000390 33 28 95 3d b2 ee d8 3d 7d b5 01 3e fb 81 0f 3e
       0.07283058 0.105924025 0.12666889 0.14014427
0003a0 68 bd b1 be 0b d0 33 be 0c 9a 81 be b1 f3 c8 3d
       -0.34714818 -0.17559831 -0.2531284 0.098121054
0003b0 a1 45 02 be 63 ea 0a be a0 5e 56 3e 6e 0c ad bd
       -0.12721874 -0.13565974 0.20934534 -0.084496364
0003c0 61 95 17 3e 1c 28 44 be 94 f6 62 3e 58 2e 9c 3d
       0.14803077 -0.19155926 0.22164375 0.07626027
0003d0 38 cf 18 be 98 ea 74 bd 80 8a cf 3d 9a f7 dd bd
       -0.14922798 -0.05979404 0.10133839 -0.10838242
0003e0 e4 f1 22 be a8 9b 1a 3c 05 eb b2 bd ef 74 ad bd
       -0.15912586 0.009436525 -0.08736233 -0.08469569
0003f0 f0 e5 46 be b1 74 83 3c 4f 38 b9 bd 6e cd 3b 3e
       -0.19423652 0.016046854 -0.09043943 0.18340084

conv_spatial.mlp.4.weight f4 [2, 256]
000000 33 9e eb bc 3e c6 56 3e bd 64 58 3e 43 67 ce be
       -0.028761959 0.20974061 0.21132179 -0.40313157
000010 a5 36 d5 3e 65 b8 d2 3e f9 b5 b4 be bb 89 4c 3e
       0.41643253 0.41156307 -0.35295084 0.19974415
000020 3f ad 27 be 90 51 22 3f 7b 7d 82 39 f4 75 42 bf
       -0.16374682 0.63405704 0.00024889022 -0.7596123
000030 31 71 45 bf 65 e7 0d 3f 43 37 9a 3e 92 b3 b7 3c
       -0.7712584 0.55431205 0.30120286 0.022424493
000040 c1 e4 c4 3e c7 08 fe bc 55 38 0c 3e 26 d0 b2 bd
       0.38455775 -0.031010045 0.13693364 -0.087311074
000050 5e 20 85 bd 14 00 63 3e d4 17 da 3d c5 d2 77 3e
       -0.06500314 0.22167999 0.10649076 0.24201496
000060 d7 e6 ae be 8a b0 bf be 45 8c f4 bb 43 ee 8c be
       -0.34160492 -0.37439376 -0.0074630105 -0.2752553
000070 c6 60 ef 3e 0b d5 a3 3e 5a 10 e7 3c 71 f1 91 be
       0.4675352 0.31998476 0.02820604 -0.28504518
000080 f4 af 94 bd 4f eb ce 3d 4f 3c 22 be 85 93 ab be
       -0.07260123 0.10103475 -0.15843318 -0.33510986
000090 07 28 c5 3c 26 7d 1d be d3 24 0d b9 5c 9c 95 3e
       0.024066938 -0.15379772 -0.00013460526 0.29220855
0000a0 bd 1c 9d 3e 57 b7 dc bd fd ec ae bd 64 2b 84 3e
       0.30685988 -0.10777157 -0.08541296 0.25814354
0000b0 d0 02 b1 be 9c 64 d0 be 34 cf 96 3d 70 5d 09 ba
       -0.34572458 -0.4070176 0.073637396 -0.00052400585
0000c0 d5 aa a5 3e 40 5e 0c be d3 bf 89 be 1a 27 cd 3e
       0.32356897 -0.13707829 -0.26904163 0.40068895
0000d0 b9 53 61 3e b8 77 41 be 38 ea aa be 26 10 38 3f
       0.22004594 -0.18893325 -0.3338182 0.7189964
0000e0 a8 af 18 bf 14 6b c6 be 60 e5 b3 be a7 e1 8d be
       -0.5964303 -0.3875357 -0.35135937 -0.27711222
0000f0 ab 08 38 3d 4e f9 41 be 8a fc 7b 3e e2 8f 3f 3e
       0.04493014 -0.18942758 0.24608055 0.1870723
000100 55 85 12 be fd ae 9a 3e 06 cd 93 3e 97 e9 11 be
       -0.14308675 0.3021163 0.28867358 -0.14249264
000110 75 11 4d 3e db b9 bf be 35 fb e9 3d ac ef b7 3e
       0.2002619 -0.37446484 0.11424867 0.35925043
000120 23 b2 a9 3e 90 7f 24 bc ec c0 f1 3e b0 0d 83 3c
       0.3314372 -0.010040179 0.472175 0.015997738
000130 9b 23 87 3e 5b 60 43 bd 5c 0d c0 be d1 51 96 bc
       0.26394352 -0.047699314 -0.37510192 -0.01834956
000140 43 2f 49 bf a0 49 5b 3f aa 8c 29 3f 13 c7 7f be
       -0.7858774 0.8565922 0.6623026 -0.24978285
000150 6c 07 3d be 3b 0e bc 3e dc 91 fc be df 88 0c b8
       -0.18459862 0.36729607 -0.49330032 -3.3506072e-05
000160 c0 de ee bd 19 b3 87 be 55 96 ba 3e e7 17 88 3e
       -0.1166358 -0.26503828 0.3644282 0.26580736
000170 20 f7 2b be dc de ed 3b 4c 10 88 be 05 72 8d be
       -0.1679349 0.007259233 -0.26574934 -0.27626052
000180 ac c1 dd b9 e5 79 f1 39 1c 8f 1f 3e 11 1d 85 3e
       -0.00042296702 0.0004605792 0.15581936 0.25998738
000190 a0 e8 a2 3e a5 55 4f 39 e0 c8 0a be a8 40 1d ba
       0.31818104 0.00019772963 -0.1355319 -0.0005998709
0001a0 50 5c 1a 3e e0 ca 10 3d e3 a8 59 be cf 4e 85 3e
       0.15074277 0.035349727 -0.21255831 0.2603669
0001b0 ba 66 13 3e a1 61 56 bf 84 81 33 bf 21 70 49 be
       0.14394656 -0.8374272 -0.701195 -0.1967168
0001c0 d6 92 04 bf 26 53 c4 be 56 2b 01 3d 47 cb 47 be
       -0.51786554 -0.38344687 0.03153547 -0.19511138
0001d0 50 69 84 bc c1 b5 e7 be 76 3b ab bd 91 fa 21 bd
       -0.016163498 -0.45255855 -0.08360951 -0.0395456
0001e0 67 2f 92 3d 25 c5 e0 3d 1d d5 a0 bc af bd a3 be
       0.071379475 0.10975102 -0.01963287 -0.31980655
0001f0 8b b3 39 be d2 0c 95 3e db 03 cd 3e 40 16 67 be
       -0.18134896 0.29111344 0.40042004 -0.22567081
000200 bd 25 85 3e dc 79 cd bd a4 73 fa 3d 66 ba be be
       0.26005355 -0.100330085 0.12229088 -0.37251586
000210 29 95 47 3d 51 d5 c5 be 03 44 7a be f5 e5 a3 bd
       0.048726235 -0.3863931 -0.24440007 -0.08002845
000220 1d ff 92 3e cb 6e c6 be 6b a6 59 bf 3e a0 4b 3f
       0.2871026 -0.38756403 -0.8501956 0.79541385
000230 1e 60 06 3a e6 5f ca 3d cd 31 fb 3d 3b 11 cf 3d
       0.0005126017 0.098815724 0.12265358 0.10110708
000240 22 58 a9 3c 9a ca ab 3d db ad 9d bd f4 d9 94 be
       0.020671908 0.083882526 -0.07699176 -0.29072535
000250 48 be 25 3e 6e 88 d9 3d 8d d3 cf be 62 85 3e bd
       0.16185868 0.10621725 -0.40591088 -0.046513923
000260 a1 7a 10 be 01 97 d3 be 63 64 67 be dd f3 34 be
       -0.14109279 -0.41326144 -0.22596888 -0.17671151
000270 af ad 80 3e ca 7a 17 3f ed 4b 38 3e b9 de 4b 3e
       0.2513251 0.59171736 0.17997713 0.1990918
000280 e6 2d 96 3e 20 c6 3f 39 5d 2a 00 be c9 19 55 3c
       0.29331893 0.00018288987 -0.1251616 0.013006636
000290 97 80 b7 3e 8a dc 10 3f 45 f0 d4 3d 53 e8 4b 3f
       0.35840294 0.56586516 0.1039739 0.79651374
0002a0 ff 9b 68 be 7c e3 9b bd 3d d2 0f 3e c2 99 2d bd
       -0.22715758 -0.076117486 0.14045043 -0.042382963
0002b0 35 47 6b bf 9a 35 cf be 2d eb 08 3e 62 97 33 3e
       -0.9190553 -0.40470582 0.13370962 0.17538217
0002c0 62 d4 34 be 7d ca a6 be 52 4a a1 bd 38 2d 11 be
       -0.17659143 -0.3257636 -0.078755036 -0.14177406
0002d0 e4 f3 9f 3e c6 52 35 bc d4 ab 94 3e ea e6 e5 3d
       0.3124076 -0.011067098 0.29037344 0.11225684
0002e0 0a 0a 0d 3e 9f 56 94 3e 29 ea 11 ba 18 bb 49 3e
       0.13773361 0.28972337 -0.00055662036 0.19700277
0002f0 ee c0 08 be f2 d5 11 3d 9f e7 cc 3d e6 2e 63 3e
       -0.13354847 0.035604425 0.10005116 0.22185859
000300 fd a3 a3 3e d9 4f 5d 3c 63 04 10 bf 84 80 bd 3e
       0.3196105 0.013507807 -0.56256694 0.37012112
000310 74 fd 9a b9 d6 9f 4b be 01 8b b6 3e bc b8 4f be
       -0.00029562006 -0.19885191 0.35652927 -0.20285314
000320 8c f0 a7 be e0 4a a5 3e 6b 5a 3f be d3 21 a6 be
       -0.3280071 0.32283688 -0.18686835 -0.3244768
000330 7e d7 81 3e 5e 01 d5 bd a4 ca 62 3d 54 71 cf b9
       0.2535972 -0.104006514 0.055369034 -0.00039566553
000340 d7 c2 30 3e 70 75 4f bf 25 23 0b be 25 5d d1 3e
       0.17261826 -0.8103857 -0.13587625 0.40891376
000350 93 7e 30 3d 03 79 32 be 43 fd a3 bd ea f0 53 3e
       0.04308946 -0.17428975 -0.0800729 0.2069737
000360 b6 63 3f bf 8d 2d be 3e 7a a1 2d 3e 79 2d b3 be
       -0.7476152 0.37144127 0.1695613 -0.3499563
000370 b4 d2 cf 3e 44 ca 9f 3e b7 47 b7 37 eb 4e 9b 3e
       0.4059044 0.31209004 2.1848695e-05 0.30333647
000380 62 00 ff bd e7 4a 80 3e ca bf 26 ba 34 22 42 bd
       -0.12451245 0.25057146 -0.0006360976 -0.0473959
000390 d0 8d bc be 48 df 45 3e ca 3c 10 bf af 39 64 ba
       -0.36826944 0.19323456 -0.56342757 -0.0008706105
0003a0 fb c3 f1 3d 04 91 80 3e 4c e2 2e 3e c5 0e cc 3e
       0.118049584 0.25110638 0.17078513 0.39855018
0003b0 e7 a0 d5 be 3d e5 f0 bc 63 bd 97 be 8b 0d 07 3e
       -0.4172432 -0.029406184 -0.29636678 0.1318876
0003c0 a6 14 5e be 94 7c a8 3e 2d cf 2d be 80 b2 a1 3d
       -0.21687564 0.32907546 -0.16973563 0.07895374
0003d0 80 04 9b 3e c4 63 49 bf 97 35 99 bd 6a 14 bf be
       0.3027687 -0.78667855 -0.074809246 -0.37320262
0003e0 05 7e ba bd 5e 09 9f be 1c bd 0d 3e 94 26 c4 bc
       -0.091060676 -0.31061834 0.13841671 -0.023944177
0003f0 4c 5c 4d 3e 7f 14 9d be e2 91 9e be 82 af 34 bf
       0.2005474 -0.306797 -0.30970675 -0.70580304
