logs/M3D26_wmd_debug_lr2e5_bs1024_tscale10_r08/score.pt (torch, 799590 bytes, 13 tensors)

embed.0.W f4 [64]
000000 82 21 6c 3f 9b a4 65 c2 a3 aa 94 c1 09 21 9a 40
       0.9223863 -57.410748 -18.583319 4.8165326
000010 5f fb 84 c0 57 f9 0a c2 bb 9e 0f 41 90 b4 23 c2
       -4.155685 -34.743496 8.976253 -40.92633
000020 a2 66 b7 41 07 b0 f1 c1 6f cb 04 c2 c6 c4 40 c0
       22.925114 -30.21095 -33.198666 -3.01201
000030 c4 da 14 42 60 85 a6 c0 7e f3 24 c2 58 e4 4b 41
       37.21364 -5.203781 -41.237785 12.743248
000040 64 fe 7c 42 a8 7f 04 c2 33 3d d9 c1 69 79 47 42
       63.24843 -33.124664 -27.154882 49.868565
000050 fc 8b 76 41 9e 22 41 41 e6 e6 1c c2 e8 7b c1 40
       15.409176 12.070951 -39.225487 6.0463753
000060 e9 13 68 c2 5b 4e 5e 42 b7 9a b8 bf 83 ad 79 c0
       -58.019444 55.57652 -1.4422215 -3.9012153
000070 00 61 ff c1 89 76 3a c2 a4 e8 4b c0 a7 07 f4 41
       -31.922363 -46.615757 -3.1860743 30.503736
000080 e4 65 90 c2 e4 49 85 c1 c8 52 ba 41 46 3c 19 c2
       -72.199005 -16.66108 23.29042 -38.30886
000090 4c c2 3e 41 81 fd 07 41 c7 49 60 41 e1 dc 73 42
       11.922436 8.499391 14.018012 60.965702
0000a0 03 fa 4a c1 aa 5e 78 c1 d9 41 dd c1 c8 1f 2d c2
       -12.686038 -15.523111 -27.657152 -43.281036
0000b0 a5 be ab c0 f9 51 31 42 94 ce c2 c1 3d 15 0d c1
       -5.367022 44.33005 -24.350868 -8.817685
0000c0 22 ad 36 c1 74 6b 6b 42 bd 06 a8 c1 75 98 b5 c1
       -11.417269 58.854935 -21.00329 -22.699442
0000d0 bc 76 2b c2 9e c6 65 40 bf 4c 30 3f a0 3b 16 42
       -42.86595 3.5902476 0.68867105 37.558228
0000e0 ff 34 1c c2 fd fd 82 c1 d8 f1 11 c2 99 0a b4 41
       -39.051754 -16.374018 -36.486176 22.505175
0000f0 a4 42 b7 41 82 e7 07 42 08 d5 38 c2 b2 ef 35 41
       22.90754 33.97608 -46.20804 11.371019

embed.1.weight f4 [128, 128]
000000 fd f8 a6 bd 19 3c 7a 3d 57 a8 5a bd 12 4b 1f bd
       -0.081529595 0.06109247 -0.053383198 -0.038889952
000010 b2 2b 79 3d 5b 2b ee bc 6d e5 70 bc 61 c8 8d bc
       0.060832687 -0.029073408 -0.014703137 -0.017307462
000020 07 6b dc bc ec d6 2f bd e0 1b 5f 3d a6 03 4e bb
       -0.026906503 -0.042929575 0.054469943 -0.003143528
000030 d4 fe c8 bc cd ed 08 3e 65 f3 e7 3c 4c 91 54 3d
       -0.024535574 0.13371964 0.028314302 0.05189638
000040 ee 0e 0a bd 80 80 08 bd f0 b6 23 bd b4 b5 f1 bc
       -0.033705644 -0.033325672 -0.039969385 -0.029505588
000050 ad a5 10 3d b2 52 93 bc ca a9 a8 bc cf 97 a7 3c
       0.03531425 -0.017983768 -0.020588774 0.02045813
000060 74 37 1c bd 28 a2 23 bc 80 70 6d 3e c3 46 31 bd
       -0.03813882 -0.0099873915 0.23187447 -0.043280374
000070 fe 2f 19 bd 69 04 4f bd 3a 34 e9 3d a4 fe 2d bc
       -0.037399285 -0.050541315 0.113869146 -0.010619793
000080 06 93 3e 3d b4 bd c3 bb 87 ec 24 3d 67 fe af 3a
       0.04652693 -0.005973542 0.040264633 0.0013427258
000090 6b 3c 92 3c 23 94 a5 bc 4a f6 42 bc 6f 99 94 bc
       0.017851075 -0.020212239 -0.01189954 -0.01813957
0000a0 4f 23 14 3d f1 c6 e4 3c 2d 43 6f 3c 96 f3 38 3d
       0.036166485 0.027926894 0.014603418 0.045154177
0000b0 29 d8 cf bc d0 57 e7 bc 8e 71 88 3b 06 ba d3 bc
       -0.025371628 -0.028240114 0.0041639274 -0.025845539
0000c0 d3 b6 3a 3d 13 b4 83 bc db 34 a3 bc 09 1f f1 3a
       0.04558451 -0.016077077 -0.019922664 0.001839609
0000d0 bc a5 46 3c 01 7a 26 bd 20 16 95 be 23 b8 7f 3c
       0.012124475 -0.040643696 -0.29118443 0.015607866
0000e0 6f e2 64 3d 29 32 8b 3d 14 b5 cc 3b ec e2 6e 3d
       0.055880006 0.06796677 0.006247172 0.05832188
0000f0 66 fc 56 bc ab fa 02 bd e6 a4 c5 ba 6c 1c d4 bd
       -0.0131217 -0.031977337 -0.0015079051 -0.103569835
000100 b9 4e f1 bb c1 f8 72 3d 45 61 97 3c 22 35 12 3b
       -0.007364121 0.05931926 0.018478999 0.0022309502
000110 b6 6f 48 bd 64 94 bf bd 68 c7 31 b9 41 b5 39 bd
       -0.04893466 -0.09354475 -0.0001695432 -0.045338873
000120 fb 0d ec 3b 22 6b f7 bc bd 3e 33 bd e0 2c fb 3a
       0.007203815 -0.030202452 -0.043761004 0.0019163154
000130 c5 dd 4c 3d ee 11 3d 3d fa 80 ff bc 6c 76 65 3d
       0.050016183 0.046159677 -0.03118943 0.05602114
000140 58 fa a2 3c 71 b2 69 3d 2d f6 01 bd de ae 9e 3d
       0.019894764 0.05705494 -0.031728912 0.07748197
000150 54 85 30 bd c0 8e 6d 3d ee e0 8d bd 73 ad 83 bd
       -0.0430959 0.057997465 -0.069276676 -0.06429567
000160 8e d9 f2 37 47 8a b2 bc 3a 9d 40 bd 73 91 2c 3c
       2.8949955e-05 -0.021794451 -0.047024943 0.010532725
000170 5e b2 42 bc e8 b6 0d bb a7 75 df bc 89 d7 88 bc
       -0.011883346 -0.0021623913 -0.02727778 -0.016704338
000180 3c 9c 12 bd 39 ca 9c 3b 89 fb 88 bd b5 6e 06 bd
       -0.035793528 0.004784849 -0.066886015 -0.032820422
000190 fa b7 e3 3b c0 6e f0 bc bd 63 25 bc a5 f5 ac bc
       0.006949422 -0.029349685 -0.01009458 -0.021113226
0001a0 08 6b 8c bd 47 1b fe 3c 27 9b c4 bb a3 98 14 ba
       -0.06856352 0.031018866 -0.005999941 -0.00056684966
0001b0 5d cc 06 be f4 74 23 ba ec 56 09 3b ce c3 76 bc
       -0.13163896 -0.0006235384 0.002095635 -0.015061332
0001c0 ac 6a 17 3d b7 dd ba 3d b6 4f 90 3c f5 22 d8 3c
       0.036966965 0.0912432 0.017616134 0.026383856
0001d0 98 0a d3 bc cb 5d bf bb 95 22 41 3e c8 f8 bc bc
       -0.025761887 -0.0058400384 0.18860848 -0.023067847
0001e0 c3 c4 25 3c 4c 9f 82 3d 90 ab 9b 3c a4 02 45 3c
       0.010117712 0.0637804 0.019002706 0.012024555
0001f0 83 76 44 3d 66 ff ab 3c 1d 0f 9b bd f5 99 a9 bd
       0.047964584 0.020995807 -0.07571242 -0.08281318
000200 af 06 c4 bb 84 b5 84 bc be 45 c7 3b 4f 08 96 3b
       -0.005982242 -0.016199835 0.006081312 0.004578627
000210 be c3 61 3c 3a a0 01 3c 96 30 14 3d 38 1c 5f bd
       0.013779579 0.007911736 0.036179148 -0.05447027
000220 b2 9c 67 bd 46 ea 14 bc 7c b5 50 bd a9 31 0c b9
       -0.05654592 -0.009089058 -0.050954327 -0.0001336994
000230 83 62 97 3b 6d 0d da bc e1 be 0f bd 1c cc df 3c
       0.004619898 -0.02661773 -0.035094146 0.027319007
000240 4e 72 87 3d f8 2f 2c 3c b6 84 14 3d 5c 7f 99 3c
       0.06613599 0.0105094835 0.036259376 0.018737487
000250 13 b2 eb 3c 61 c5 8b 3d 8f 41 6a 3d dc 70 81 bd
       0.028771436 0.068247564 0.057191428 -0.06320354
000260 aa e0 8d bd f2 a2 02 3d 43 4d e6 3d d4 1d 0a 3d
       -0.06927617 0.031893678 0.11245205 0.033719853
000270 a6 0b 4a 3c cc 82 b5 bc 8e ff e7 3c 05 68 33 bc
       0.012331879 -0.022157095 0.0283201 -0.010950093
000280 72 1b 09 bd 92 9a 8e bc 32 48 58 bd fd 0c 9a 3c
       -0.03347344 -0.01740769 -0.052803226 0.018805021
000290 28 b2 c8 bc e5 85 80 3b a3 f2 fb 3c 11 dc f4 3a
       -0.024499014 0.0039222115 0.030755347 0.0018681308
0002a0 4b 0b 33 ba c8 03 9b 3d 7a df 33 bd 64 be 1a 3c
       -0.0006829991 0.075690806 -0.043914296 0.009444807
0002b0 dd 6b aa 3c d4 45 b6 3d c6 69 be bb 60 67 56 3d
       0.020803386 0.089000374 -0.005810949 0.05234468
0002c0 e5 a9 1e 3c 28 d7 f8 3c 75 2c 2f bd 0b d4 16 3d
       0.009684061 0.030376032 -0.042767007 0.036823314
0002d0 ed 2e 93 3b 51 ee ba bd ca 4b 4b be 87 4a 69 3d
       0.004491678 -0.091274865 -0.1985313 0.05695584
0002e0 b6 d1 c0 b8 64 4d 22 3c 35 0f 04 3d 10 2f c2 bb
       -9.194335e-05 0.009906147 0.032241065 -0.0059260204
0002f0 ee 08 c3 3d 72 bd b2 bc d6 19 24 3d 0a 7b 19 3d
       0.095231876 -0.02181885 0.0400637 0.037470855
000300 b0 73 2e bd bc 36 d7 bb d7 06 a1 3c d9 df df bc
       -0.042590797 -0.006567804 0.019656582 -0.027328419
000310 07 39 3f bb 9d f8 dd bb 5a 01 2a bd 1e 74 3f bd
       -0.0029178278 -0.006774022 -0.041505195 -0.046741597
000320 41 a8 da 3c ab d3 59 bc 27 f9 e6 3c b2 4e 8e 3b
       0.026691558 -0.0132950945 0.028194977 0.0043428773
000330 b4 64 e9 bc 1b 9d d7 3c 84 aa 01 3d 61 5e 5c bd
       -0.028490402 0.02632003 0.031656757 -0.053800944
000340 de 9c 17 bd f7 f3 4b bc 31 b1 a8 bb 8e 3f 7e bc
       -0.037014835 -0.0124483025 -0.005148076 -0.015518082
000350 4d c2 bd 3c ef 4b 1a bd 0f 1e 36 bd c1 81 90 bc
       0.023163939 -0.037670072 -0.04446226 -0.017639996
000360 b3 6c 30 bc 57 01 fa bc 60 10 12 bc 69 fd f3 bc
       -0.010768103 -0.030518217 -0.008915037 -0.029783921
000370 44 49 61 3c 46 64 3e bd b6 93 68 bc 27 fc 1a ba
       0.013750378 -0.046482347 -0.014195373 -0.00059122074
000380 61 53 57 3c 73 0e eb bc 01 db 0f bd 46 2f 2c 3d
       0.013142438 -0.028693413 -0.035120968 0.04203727
000390 00 37 dc 3c a9 4a 88 3d c0 66 31 3d 89 f9 04 3d
       0.026881695 0.06654865 0.04331088 0.032464538
0003a0 ba 73 95 3d bc b3 b7 3c 7f 30 5a 39 b1 b0 c0 ba
       0.07297464 0.022424571 0.00020808166 -0.0014701096
0003b0 47 21 9e bd f6 66 f8 bb f9 9f ab bc 88 7d 5e bd
       -0.07721191 -0.0075806333 -0.020950304 -0.054318935
0003c0 0b 15 17 bd ce a1 04 bc 74 6d 96 bc ec aa 9d bd
       -0.036885303 -0.008095218 -0.018362738 -0.076986164
0003d0 1c ca 8d 3b 4c 8d 42 bc 8b 4b ad 3d eb 3e 5e bd
       0.004327072 -0.011874508 0.08461674 -0.054259222
0003e0 08 42 46 3b 31 5b 82 bd 60 88 65 bd 4c 76 94 3c
       0.003025176 -0.0636505 -0.05603826 0.018122815
0003f0 e9 0b 8f bc 6c a5 86 bd d6 dd 96 3c 79 9a 94 3c
       -0.017461734 -0.065745205 0.018416326 0.018140065

embed.1.bias f4 [128]
000000 68 59 e2 be 56 2c bb be 4a 00 1a be bf cf 39 bf
       -0.44208837 -0.36557263 -0.15039173 -0.7258262
000010 f5 05 ad be 67 d3 12 bf bf 9d e1 be 36 7d 57 be
       -0.33793607 -0.57353824 -0.44065663 -0.21043858
000020 e3 54 64 be 85 46 ce be 63 fc c9 be 7c 40 c3 be
       -0.22298007 -0.40288177 -0.39450368 -0.38135135
000030 25 86 d8 be f4 91 10 bf 36 27 ac be 48 5c 1a bf
       -0.42289844 -0.56472707 -0.33623666 -0.6029706
000040 7a ef 28 3e c9 70 41 bf fe 76 1b 3f ec cb 0f bf
       0.16497603 -0.7556272 0.6072844 -0.56170535
000050 24 c0 29 bf 15 4d e5 be 15 c7 a7 bd 79 3f ed be
       -0.6630881 -0.4478537 -0.08192269 -0.46337488
000060 90 2c 00 bf 14 b2 ec be 21 06 0e bf 2a 80 07 bf
       -0.50067997 -0.46229613 -0.554781 -0.5292994
000070 ea a3 b5 3e 83 70 a6 be fb 8a d3 be b4 f5 a2 be
       0.3547662 -0.32507715 -0.4131697 -0.31828082
000080 b4 17 0f bf 03 d4 00 be 1e 4f 01 bf b0 49 00 3f
       -0.55895543 -0.12580876 -0.5051135 0.5011244
000090 f3 c5 0c bf 07 d4 3b bf 59 9e 21 bf b7 f2 7f be
       -0.54989547 -0.73370403 -0.63132244 -0.24994932
0000a0 cf 5a f8 be 21 d4 0a bf 45 aa bf be cc f8 39 bf
       -0.4850678 -0.54229933 -0.37434593 -0.7264526
0000b0 74 0e 5a be df 73 05 bf 43 47 70 3e 0d 00 24 bf
       -0.21294576 -0.5212993 0.23464684 -0.6406258
0000c0 28 13 49 3e 14 40 57 be 92 dd 99 bc f7 b5 c7 be
       0.19636214 -0.21020538 -0.01878241 -0.39006016
0000d0 2f 63 1c bf be 2e 19 bf 32 49 e3 be ce 99 49 bf
       -0.6108884 -0.5983695 -0.4439178 -0.7875031
0000e0 b7 c6 3f bf 19 95 3f bf a5 2f 40 bf 46 c1 f2 be
       -0.7491259 -0.7483688 -0.750727 -0.4741308
0000f0 b5 1b 27 bf 31 28 fb be 71 ee 36 bf c8 03 43 bf
       -0.6527665 -0.490541 -0.7145758 -0.76177645
000100 e3 87 16 bf 18 89 38 bf bf 5d 64 be 5a 58 ea be
       -0.58801097 -0.7208419 -0.22301386 -0.45770532
000110 4a 69 b3 be 98 57 fd be 90 05 09 bf f0 46 37 bf
       -0.35041267 -0.4948089 -0.5352411 -0.7159262
000120 0c 10 df bd a4 e5 32 bf 99 e8 1a bf 11 1b 3a bf
       -0.108917326 -0.69881654 -0.60511166 -0.7269755
000130 6a c1 9d be 49 c7 e5 be 46 37 69 bf 37 bf c6 be
       -0.30811626 -0.44878605 -0.91099966 -0.3881776
000140 23 cd e5 be 78 0a 37 bf d4 ff 4b bf b8 41 a4 be
       -0.4488307 -0.7150035 -0.7968724 -0.3208139
000150 e6 3f 03 bf e0 9a fd 3d 40 22 3d bf ad b0 df be
       -0.51269376 0.12383056 -0.73880386 -0.4368948
000160 77 85 52 bf 74 82 a8 bd 03 26 04 bf 21 1d 09 bf
       -0.822349 -0.08228007 -0.516205 -0.5356007
000170 06 1d 0e bf 63 2c 96 3e 66 19 d9 3e bc e0 2a bf
       -0.55513036 0.2933074 0.4240219 -0.6674917
000180 0b 68 47 bf ed e5 cd bc 5d f0 4a bf ba 26 ea be
       -0.7789313 -0.025134051 -0.79273015 -0.4573267
000190 5c ba 5e bf a0 04 28 bf 4c ae f3 be 00 8f e5 be
       -0.8700311 -0.6563206 -0.47593915 -0.44835663
0001a0 8d d7 42 bf 23 97 09 bf bd a0 5f be 0b 98 0e bf
       -0.76110154 -0.5374624 -0.2183866 -0.5570075
0001b0 55 05 3e bf e9 00 15 bd 4c 4a ad be 95 05 2b 3e
       -0.74226886 -0.03637782 -0.33845747 0.16701348
0001c0 a2 f6 2e bf e6 ef eb be 99 45 03 bf 7d 59 b6 bd
       -0.6834508 -0.46081465 -0.5127807 -0.08903787
0001d0 42 bf 4c bf 70 9f 2a bf 97 39 49 bf df b3 7a 3e
       -0.79979336 -0.6664953 -0.786035 0.24482678
0001e0 57 82 a3 3d cb fb 31 bc 8e 53 47 bf 89 88 b9 be
       0.07983845 -0.010863255 -0.7786187 -0.3623698
0001f0 0a 80 13 bf 5e 63 1b be b5 e9 54 bf 16 0c 5b bf
       -0.5761725 -0.15174624 -0.8316911 -0.85565317

embed.3.weight f4 [128, 128]
000000 0a 3e de bd 39 f4 a1 3c 7e 89 8d bc b1 b3 26 3c
       -0.10851677 0.019769775 -0.017277475 0.010174678
000010 f3 f2 2f 3c 96 22 b2 bc 1c 4a 4e bd c8 d6 a7 3c
       0.010739076 -0.021745007 -0.050363645 0.020488158
000020 75 2b a4 bd a6 7b e3 bd 11 fe 84 bd 9f c8 bf bc
       -0.08016101 -0.111075684 -0.06493772 -0.023411093
000030 ff 67 02 be d5 c1 e2 bd 0e 09 24 bc 7a ba 09 bd
       -0.12734984 -0.11072127 -0.010011924 -0.033625104
000040 c4 0d 2f 3d 2c 6b fe bc f3 f6 b4 bd 57 68 6d bd
       0.042737737 -0.031056963 -0.08836164 -0.057960834
000050 97 bd 34 bd 78 72 25 3d f2 e0 88 bd 59 62 ba 3a
       -0.04412612 0.04039237 -0.0668353 0.0014219984
000060 d3 88 d2 3c 46 33 57 bd 9c 4e 9a bd 36 d4 5c 3d
       0.025700008 -0.052539133 -0.07534525 0.053913318
000070 7b 12 95 bd 0a 83 5d bd 78 f2 50 ba dd 85 99 bd
       -0.072789155 -0.054080047 -0.0007970701 -0.074962355
000080 c4 55 66 bb 19 eb 8a 3c 90 d3 05 3d 46 45 c5 b9
       -0.0035146335 0.016957806 0.032672465 -0.0003762638
000090 49 e2 67 3c 77 19 69 bb ee 64 fc bd 75 01 8b bd
       0.014153072 -0.0035568157 -0.12323938 -0.06787387
0000a0 ef ff e2 bc 28 c2 24 bc b9 13 0f bd 04 0e ab 3b
       -0.02770993 -0.010056056 -0.03493092 0.0052201767
0000b0 81 2d fa bd 1e 4c bf 3c b0 5d fa 3c 7b 4d 0b 3d
       -0.122157104 0.023351725 0.030562252 0.034009438
0000c0 52 67 a5 bc fd b0 24 bc 2d 36 eb bd 75 0a 03 bc
       -0.020190869 -0.010051963 -0.114849426 -0.007998099
0000d0 b1 29 14 bd d9 4c d7 3c 1c 51 2d 3d 24 26 43 3d
       -0.036172573 0.026281761 0.04231368 0.047643796
0000e0 29 ea 95 bd 07 45 52 bd b2 26 a5 bd a3 f8 cd bd
       -0.07320053 -0.05133536 -0.08064021 -0.10057189
0000f0 15 0c a9 bd b6 6a 11 bb c9 cb 71 bd 7b 16 3c 3d
       -0.082542576 -0.0022188849 -0.059032235 0.045919877
000100 a2 80 d3 3c d9 46 bb bd 3a 53 91 bd f0 d4 4f 3d
       0.025818173 -0.091443725 -0.07095952 0.050740182
000110 34 be bd bb 2e 42 31 3d fa d6 32 3d 53 69 d5 bd
       -0.0057904962 0.043276004 0.04366205 -0.104204796
000120 f3 11 eb 3c f4 bf ac bd a5 92 0c 3d 18 f8 02 bc
       0.028695082 -0.0843505 0.03431954 -0.0079937205
000130 ac 22 b0 bc 31 9d a9 b9 72 3e a3 bc 94 e8 50 3a
       -0.021500908 -0.0003235131 -0.019927237 0.0007969227
000140 c9 19 9c 3c b2 cd 63 bc bb 7d 3c bd dc 9b 2c bc
       0.019055264 -0.013904022 -0.046018343 -0.010535207
000150 77 6c f2 bd e4 3d ce bd b6 2b 63 bd 9a dd 70 bd
       -0.11837094 -0.100703984 -0.055461608 -0.058805086
000160 03 c2 7c 3d 83 03 91 b7 06 f3 4a 3c 85 a1 78 bc
       0.06170846 -1.7286982e-05 0.012387043 -0.015175228
000170 bd c4 f1 bd 5d 35 61 bd b5 d5 34 3c 6e d2 81 3d
       -0.11805103 -0.05498253 0.01103728 0.063389644
000180 9c de 53 3d 35 3d ee 3c a3 2c f4 3c 5d c9 cb bd
       0.05172597 0.02908192 0.02980644 -0.099505164
000190 f1 e5 b6 bd 0c 88 d5 bd 5a 17 e7 bd e5 7f 17 be
       -0.089305766 -0.104263395 -0.11283751 -0.14794882
0001a0 4c 5a 98 3c 01 b0 0e 3d de 46 48 bd bc 65 3d bd
       0.018597744 0.03483582 -0.04889571 -0.0462396
0001b0 c6 2e 71 bd 8a a8 be bd cc 87 03 bd 46 cf b3 bd
       -0.058882497 -0.0930949 -0.032111928 -0.08779769
0001c0 af 15 50 bd ea a2 a7 bd 52 15 e3 bc 63 b7 99 3c
       -0.05080193 -0.0818537 -0.027720127 0.018764203
0001d0 51 80 c4 bd b3 f8 bb bd 54 2e c5 37 ce 4b 51 bd
       -0.09594787 -0.09178295 2.3505803e-05 -0.051097684
0001e0 00 64 1c 3d 65 a2 da 3c 4e 6a c0 bd f0 2f 85 bd
       0.038181305 0.026688764 -0.09395276 -0.06503284
0001f0 58 37 eb bc a0 76 37 3b 9c ea e0 bd 5e 1a 73 3d
       -0.028712913 0.002799429 -0.10982248 0.059351318
000200 01 c8 df bd 2c 10 65 3d b9 c5 62 bc 61 db 47 bd
       -0.109268196 0.055923626 -0.013841086 -0.0487932
000210 2b 6f 83 3c f3 3e 53 bd 26 62 d6 bd 37 70 9a b9
       0.01604422 -0.051573705 -0.10467939 -0.00029456776
000220 0d 8b 68 bd 86 53 9f 3c 18 1d 6e 3b ba f7 7a 3c
       -0.056773234 0.019449007 0.003633326 0.015317852
000230 b8 58 9d bd 47 cc be 3c 76 64 d2 bd 51 e1 66 3b
       -0.076829374 0.023290766 -0.10273068 0.0035229514
000240 70 66 cf bd 12 58 0c bd d7 5e 36 3c c3 69 44 bd
       -0.1012696 -0.034263678 0.01113101 -0.047952425
000250 08 14 52 bd 66 cf 03 3d 47 f1 03 3b 58 53 c5 bc
       -0.051288635 0.032180212 0.0020132826 -0.024087593
000260 9e b9 c7 bd df 6f 0b bd de f4 9f bd de ae a5 3c
       -0.097522005 -0.034042235 -0.078103766 0.020224985
000270 36 b8 81 bd b8 8c 29 3d 8d 91 d2 bd 9d f4 7e 3c
       -0.063339636 0.041393965 -0.10281668 0.01556125
000280 64 42 73 3c cf 1e e2 bd 44 f6 d1 bb 2c ab db bc
       0.014847372 -0.110410325 -0.006407531 -0.02681502
000290 a3 12 ca 3c 24 8b 1e bd f6 e1 24 3d 0b e1 d3 bc
       0.02466709 -0.038706914 0.040254556 -0.025864145
0002a0 4d 7a ee 3c ab 55 4b bc d4 2b 9c bc d0 f3 fe bd
       0.029111052 -0.012410562 -0.019063868 -0.12448847
0002b0 dc 6e 91 bc 4a 34 b7 bd c9 f9 f6 bb 06 88 12 be
       -0.017753057 -0.0894552 -0.007537101 -0.14309701
0002c0 d3 69 fc bd 3a 61 99 bd f3 08 16 3c fa c4 79 3c
       -0.12324872 -0.074892476 0.009157407 0.015244717
0002d0 61 e6 83 bd 02 12 5e bc 8b e3 97 bd e4 e3 8d 3c
       -0.06440426 -0.013554098 -0.07416447 0.01732058
0002e0 0c 64 77 bd 0e 52 88 bd c1 22 1e bd fb 92 12 bd
       -0.060398147 -0.06656276 -0.038607363 -0.035784703
0002f0 75 73 66 3d 49 3c 4f 3c b7 ed 54 3d 08 cc 56 bd
       0.056262452 0.01264865 0.051984515 -0.052440673
000300 7d af 8a bd 76 9e 0d be 55 48 48 3d 06 ce 9f 3c
       -0.06771753 -0.1382998 0.048897106 0.01950742
000310 19 a8 45 3c 9f fb d5 bd 72 7e 04 3c ec f8 af bd
       0.012064003 -0.104483835 0.008086788 -0.085924
000320 49 cb f1 bb 82 dc 93 3c 08 94 de bd 66 00 5a 3d
       -0.00737897 0.018049482 -0.108680785 0.053223036
000330 6c 7d bb bd ba ac 78 3a 2c 3c b9 bd ba ce 8a 3c
       -0.09154782 0.00094861875 -0.0904468 0.016944278
000340 04 1e 4c bd 79 38 d3 bd cb 47 5b 3c 09 18 34 3d
       -0.049833313 -0.10313506 0.013383816 0.043968234
000350 23 5b d3 bc 0c e1 2c bd cc 17 9a bc c4 5c d9 bd
       -0.025800293 -0.04220681 -0.018810175 -0.10613397
000360 15 2d 5e bd 24 9f 9f 3c 42 7a e6 bd 84 06 ba bd
       -0.054242212 0.019485064 -0.112537876 -0.09083274
000370 e2 4e 23 bd 21 cc fc bd e8 6a 7c bd 32 a0 07 3d
       -0.03987015 -0.12343622 -0.06162539 0.03311176
000380 95 7c 42 3d e8 e7 a3 3c 7e 30 dc bd 19 91 67 3d
       0.047482092 0.020008042 -0.10751437 0.05653486
000390 b0 c4 94 bd 13 49 b9 3c 68 41 53 bc c8 e6 8f bc
       -0.07264078 0.022617852 -0.012894012 -0.0175661
0003a0 67 a5 f8 3b 76 23 9c bd eb f7 26 bd ce 7b 0c bd
       0.007588077 -0.07623951 -0.040763777 -0.034297757
0003b0 7b e7 cf bb d5 3d 96 bd b2 b3 84 bd b9 a1 6f bd
       -0.0063447333 -0.07336012 -0.06479587 -0.05850384
0003c0 13 4e e1 bb 9c b1 1d 3d 91 12 01 bd ad c5 8b bd
       -0.0068757623 0.03849946 -0.031511847 -0.06824813
0003d0 d5 d2 a4 bd 9f 5f ce bc 32 21 85 bd ac d3 01 be
       -0.080480255 -0.02519208 -0.06500472 -0.12678403
0003e0 af 67 bb bc 06 50 e8 bd 2d 44 61 bd a8 df 7f bd
       -0.022876589 -0.11343388 -0.054996658 -0.062469155
0003f0 d2 8e 85 bd 5e ee e2 bd ba f0 56 bd 00 43 9a bd
       -0.065213814 -0.11080621 -0.05247567 -0.075323105

embed.3.bias f4 [128]
000000 dc 8e d9 bd e8 ae 06 bd 30 17 06 bd 6a 07 33 3e
       -0.106229514 -0.032881647 -0.032736957 0.17483297
000010 41 f2 46 be 59 37 26 bd b4 21 06 bd 40 4d 13 bd
       -0.1942835 -0.040580127 -0.032746986 -0.035962343
000020 03 4b 02 bb 63 98 e0 bd 21 6f 4c bd 5f 9b e7 bd
       -0.0019881136 -0.109665655 -0.04991067 -0.113089316
000030 03 3f 48 bd 93 a8 7c 3d 23 6f 02 bb 8c 13 88 bd
       -0.048888218 0.061684202 -0.0019902668 -0.06644353
000040 c3 31 45 be 1f 4b 0e be 94 4f 09 be d0 3f 2a bd
       -0.19257264 -0.13895844 -0.13409263 -0.041564763
000050 4d 59 e0 bd 51 f1 00 be 20 b4 be 3d d7 e1 23 be
       -0.10954533 -0.12592055 0.093117 -0.1600412
000060 b9 a4 e6 bd b8 d0 c5 bc d7 65 70 3e 38 c8 a8 bd
       -0.11261887 -0.024147376 0.23476349 -0.08241314
000070 b4 13 bb bb b6 78 55 bd 3a 9e c6 bd 8d 3c 02 be
       -0.005709136 -0.052117072 -0.09698148 -0.12718411
000080 dc 2a 6e bd 9f 12 f1 bd aa 1e d8 bd c3 e4 9d bd
       -0.058146343 -0.1177113 -0.10552724 -0.077096485
000090 05 1d 1e be dd af dd bd 7e 6f 0f bd 7f c5 19 bd
       -0.15440758 -0.10824559 -0.035018437 -0.037541863
0000a0 b4 1e c8 bd 83 0f 26 be fa 04 d1 bd 30 c6 2f be
       -0.09771481 -0.16216855 -0.10206027 -0.17165446
0000b0 9e 4d 14 bd d1 d8 a1 bd d4 58 24 be e1 9c e0 bd
       -0.036206834 -0.079026826 -0.1604951 -0.10967422
0000c0 20 90 81 bb 53 31 ee bd c0 3f 1d be d0 9c 93 3a
       -0.0039539486 -0.116305016 -0.1535635 0.0011261944
0000d0 0b 4a b0 bd 9e 33 a2 bd 47 08 99 3e 21 76 16 be
       -0.086078726 -0.079200014 0.29889128 -0.146935
0000e0 01 d8 fa bd 2f 47 f7 bd d0 0a 43 bd 3c 67 86 bc
       -0.12248231 -0.12074124 -0.047617733 -0.016406648
0000f0 b1 46 e2 bd 59 a6 81 bd 2e 06 ca bd d9 d6 06 be
       -0.110486396 -0.063305564 -0.0986446 -0.13167895
000100 13 22 bc 3c ea 57 3c be b4 50 f4 bd 75 b3 09 be
       0.022965467 -0.18392912 -0.119294554 -0.13447364
000110 8f 65 b1 3d 0f c4 47 bd 8c e4 70 bd 52 00 1d be
       0.08661949 -0.04877096 -0.05881171 -0.15332153
000120 25 a0 8b bd 4c 57 c6 bd 6a e7 c3 bd 6b c9 cd bb
       -0.068176545 -0.09684619 -0.09565623 -0.0062801144
000130 4b ba e0 bd 45 4b d1 bd 0a 92 bf bd c6 5d 2d 3a
       -0.109730326 -0.10219435 -0.093540266 0.00066133996
000140 ed f6 05 3c a6 54 83 3e aa 47 96 3d ae aa 1d be
       0.0081765475 0.2565052 0.073378876 -0.1539714
000150 3b 34 e1 bd d0 95 ac be b3 fa 54 bd dd 54 1c be
       -0.1099629 -0.33708048 -0.051996898 -0.15266748
000160 c6 5e b9 bd 36 34 84 bd 13 e2 2d 3e 36 8f a0 3e
       -0.0905128 -0.06455271 0.16980772 0.3135926
000170 34 b8 94 bd fe 97 1b be a7 8c 13 be aa bf 7e bd
       -0.072616965 -0.15194699 -0.14409123 -0.062194504
000180 b4 01 f1 bc b7 21 39 bd 78 7f 1f be 0c 36 32 bd
       -0.029419757 -0.04519817 -0.15575969 -0.043508574
000190 cf 02 1e be d5 36 a8 bd cd 3d ae bd 21 5e 72 bd
       -0.15430759 -0.082135834 -0.08507881 -0.0591718
0001a0 c1 a6 a5 3e c5 d0 1b be 2e 1f d6 bd d9 2e 00 be
       0.32353786 -0.15216358 -0.10455166 -0.12517871
0001b0 43 4f a6 bd 76 33 99 bd c0 21 94 3e 47 23 09 be
       -0.08120587 -0.074805185 0.28932 -0.13392363
0001c0 b7 12 fe bd 9a 0b 40 bd 82 98 9d bd 38 37 7a bd
       -0.12405913 -0.046886064 -0.07695104 -0.061087817
0001d0 46 53 5e be ae 6d 9a 3b 4d 2a 9c bd 52 48 0e be
       -0.21711454 0.004712782 -0.07625256 -0.13894776
0001e0 47 11 83 3e ec b0 8e 3e fd bc da bc da 35 c4 bd
       0.2559912 0.27869356 -0.026701445 -0.09580584
0001f0 61 79 b8 bd a3 d5 b7 3c a9 03 b8 3e 5d 76 f0 bd
       -0.09007526 0.022440737 0.35940292 -0.11741326

conv_spatial.mlp.0.weight f4 [256, 2]
000000 2a c4 1f 3f 89 a6 54 3f 01 7b e1 bc 8a 80 01 3e
       0.624087 0.8306661 -0.027524473 0.1264669
000010 1c a3 08 bf eb c0 ab be d4 34 a1 bd cb f9 38 be
       -0.53373885 -0.33545622 -0.07871404 -0.18064038
000020 35 a6 86 3f 3c bc 69 3c a9 e6 92 3c 28 81 bc bc
       1.0519472 0.01426607 0.017932253 -0.023010805
000030 b7 29 94 be fb 36 d2 be a1 89 f3 bb 46 05 2e 3d
       -0.28938076 -0.41057572 -0.007432178 0.042485498
000040 44 57 0c 3f da 7e 61 bf 2d 57 25 3c 43 e1 01 bd
       0.54820657 -0.88084185 0.010091585 -0.031708967
000050 1f b1 ec 3a f0 fb 8f 3d 0c 83 2a bf f1 1d cf bd
       0.0018058157 0.07030475 -0.6660621 -0.10113133
000060 e1 16 d1 bd 6e 25 f9 3e 8e c2 bb 3d bc 6e 90 be
       -0.10209442 0.4866137 0.09167968 -0.28209484
000070 bc f3 b4 be a2 42 d1 3b 70 31 0c 3f 61 9f 0b 3f
       -0.35342205 0.006386117 0.54762936 0.5454007
000080 80 4f f3 bc 1b 29 6b 3d 9d 08 3e 3e 54 32 c3 be
       -0.029700994 0.057412248 0.18557973 -0.38124335
000090 3a 8d f6 3e f3 05 f9 3e 6e af 2b bc c9 75 86 bc
       0.48154622 0.4863735 -0.010478837 -0.016413586
0000a0 ed 5d 27 3f a0 e9 bd 3e a1 7b dd 3c 1e f4 11 bc
       0.65377694 0.37092304 0.02703649 -0.0089083
0000b0 71 f3 b5 be 52 89 1f 3f e2 cc 53 3d b8 7f 8e 3b
       -0.35537294 0.6231891 0.051709063 0.0043487214
0000c0 47 15 ee 3e c7 58 86 bf 9c 3e 68 bf 45 43 26 3f
       0.46500608 -1.0495843 -0.90720534 0.64946395
0000d0 f7 fa 23 bd 6e c9 f5 bc b5 1b e4 be 14 be 39 3e
       -0.04003426 -0.030003276 -0.4455239 0.18138915
0000e0 6d 3c 0c bf ea 52 1b 3f e1 cb e3 bb 0e 18 68 bc
       -0.547797 0.6067339 -0.0069517945 -0.014165891
0000f0 98 16 2f be 83 14 f7 bd f8 13 3f be 09 fd 2c be
       -0.17098463 -0.12064459 -0.18659961 -0.168934
000100 15 f7 b4 3c 97 d9 40 3a 39 c8 ed 3c fd 24 ea 3c
       0.022090474 0.0007356642 0.029026138 0.02858209
000110 7b e0 03 bf 27 93 c4 be c2 07 32 3f c3 5c 56 bf
       -0.51514405 -0.38393518 0.6954309 -0.83735293
000120 1e 81 17 bf 63 cb 1b bf ab d6 22 3e 87 9a 01 bf
       -0.5918139 -0.6085722 0.15902202 -0.50626415
000130 ad 09 a6 be 6d 01 95 be 77 ff af 3d 9b 18 bb be
       -0.32429257 -0.2910265 0.08593648 -0.3654221
000140 07 4e a6 be 96 c4 20 bf d4 36 96 3e c5 d7 f1 bd
       -0.32481405 -0.62799966 0.29338706 -0.11808733
000150 69 db d6 bd f3 ef 48 be 04 b5 d7 3c fd 52 a3 3d
       -0.10491068 -0.19622783 0.026331432 0.07974813
000160 da c3 2d bf a3 bc d4 3e 97 a0 f4 3e 47 8f e3 3e
       -0.6787697 0.41550168 0.4777877 0.4444525
000170 f5 43 4e 3f 5d 80 6e bf 1e 22 20 3c d5 8c 91 3c
       0.80572444 -0.93164617 0.009773759 0.01776735
000180 81 da 74 3e 3e 3f d5 be 53 2d 77 3e 97 cc f7 3e
       0.23911478 -0.41649812 0.24138384 0.48398277
000190 fa f8 6e 3e 97 a7 da bd d0 53 71 bf 8c a5 81 3f
       0.23337165 -0.106764965 -0.9426851 1.0128646
0001a0 59 49 56 bf de 32 f6 3e d4 3f f8 be 69 56 65 bf
       -0.8370567 0.48085684 -0.48486197 -0.89584976
0001b0 eb 2c 05 bf ab ff 9f be 7b 1b 45 bc ab b9 6a be
       -0.52021664 -0.31249747 -0.012030478 -0.22922389
0001c0 5a 9a ac 3d 2c 65 c8 3d 11 5a de 3e 8b 09 0a bf
       0.08427878 0.09784922 0.4342809 -0.5392081
0001d0 b0 97 50 3d 1e 12 24 bc 53 01 6c 3d 70 dd c3 be
       0.05092591 -0.010014085 0.05761845 -0.3825488
0001e0 25 a1 36 3d 4f 48 02 bd f8 1a 89 be 96 f5 91 3e
       0.044587273 -0.03180724 -0.26778388 0.2850768
0001f0 7f 63 c9 be 9a 0e dc bb 44 13 48 bd e8 2c a9 bc
       -0.39333722 -0.006715608 -0.048846498 -0.020651296
000200 22 12 93 3f 11 f9 5b be f7 62 55 be cd b4 fc 3e
       1.1489909 -0.2148173 -0.20838533 0.4935669
000210 bf 98 50 3e ed 39 f7 be 00 06 dc be d0 af 26 3f
       0.20370768 -0.4828638 -0.42973328 0.6511202
000220 41 16 6a 3f 24 f4 a9 3e 92 8c 6e bd 3a e8 9a bc
       0.91440207 0.33194077 -0.058239527 -0.018909562
000230 0d e5 27 3e 1b 0e 65 3d 73 06 8a 3d e9 eb 3e 3d
       0.1639597 0.055921655 0.06739511 0.0466117
000240 81 b4 4e bf 4c d3 5c 3e 76 7e 31 be 08 de fc 3d
       -0.8074418 0.21564978 -0.17333397 0.123470366
000250 51 8f eb 3e 7b 1b 9b 3e 71 63 84 3f 9c 63 04 3f
       0.4600778 0.30294403 1.0342847 0.5171449
000260 0e 1c 1c 3c 74 a0 76 bf 2c 6f 80 3e a0 d8 e6 3e
       0.009528173 -0.9633858 0.25084817 0.45087147
000270 1a 36 d9 bc 05 34 d9 be 5a 11 1a bf 44 2a 1e bf
       -0.026515055 -0.424225 -0.60182726 -0.6178324
000280 6d 23 6c 3c 95 11 49 3d 84 e0 09 3f 5d 70 84 3f
       0.014412743 0.049089033 0.5385821 1.034679
000290 fc a2 f4 3c 38 e0 1c bc 8a 29 43 bf e8 e1 f5 3e
       0.029862873 -0.009574942 -0.7623526 0.48023915
0002a0 92 fa 3c 3f 8c 6c 04 bf 24 12 0f 3d 86 3a 9b bb
       0.7381984 -0.5172813 0.03492941 -0.004737201
0002b0 45 fa 71 3e 5b 4b 33 3f 10 f1 27 3e ad 6f 6c 3f
       0.23630626 0.7003686 0.16400552 0.92357904
0002c0 1a 95 52 3c e9 99 8c bd 6c 14 69 3d f5 ee 48 bd
       0.012852931 -0.068652935 0.05690424 -0.049056012
0002d0 9f b3 fa b9 c8 8e fd bc 47 da 6f be 09 6c 78 be
       -0.00047817544 -0.030951872 -0.2342311 -0.24259962
0002e0 bb e6 b4 be bd 0e 04 be f5 f9 15 3f b7 9f c9 3e
       -0.35332283 -0.12896247 0.5858453 0.39379665
0002f0 b1 e1 a1 bb e4 a9 75 3d 4f d2 6f bd e8 81 25 3f
       -0.0049402346 0.059976473 -0.058550175 0.64651346
000300 9c 8e 26 3e f3 65 9e be 99 d6 00 ba f7 2f 7c 3d
       0.16265339 -0.30937156 -0.000491479 0.06156918
000310 ea e4 80 bf b3 11 73 be 7c c5 fc 3c 4c 3d 1f 3c
       -1.0069859 -0.2373722 0.030855887 0.009719204
000320 2a 42 8a bd bf c2 1d bd e1 6d dc be 28 ba bd 3d
       -0.06750901 -0.038515802 -0.4305258 0.09264022
000330 41 62 8f 3e 3a 99 8e bd b4 1f dd bd a4 14 46 3f
       0.2800465 -0.069628194 -0.107970625 0.77375245
000340 fc 03 3f 3c 27 12 1f 3d 3c 4c 28 bc b8 9f 70 bd
       0.011658665 0.03883567 -0.010272082 -0.05874607
000350 92 40 ae 3c 99 e1 36 bd 7b d1 77 3d dd 52 88 bd
       0.021271024 -0.04464874 0.06050251 -0.0665643
000360 7e fe b9 3e 2b ef 72 bf 19 8e 9d 3e 26 39 d8 be
       0.36326975 -0.9489619 0.30772474 -0.422311
000370 cd 8f 77 3f 5d a7 a0 be 41 11 7d 3e b5 0b a3 be
       0.967038 -0.31377688 0.24713613 -0.3184487
000380 62 86 1c 3e a1 6e 31 be 75 18 29 3f 19 19 cc bb
       0.15285638 -0.17327358 0.66052943 -0.006228578
000390 3c 7e f1 be 32 7d 54 3e db 1b 04 3e 6c d4 02 be
       -0.47166622 0.20750883 0.12901251 -0.12776345
0003a0 b8 f7 a3 3a 99 2d c3 bc db 7b f1 3e ff 11 d1 be
       0.0012509739 -0.023825454 0.47164807 -0.40834042
0003b0 4a 0d 04 3d c5 e3 b4 bb 5d ea 0e bc 5d d2 74 3d
       0.032239236 -0.0055203163 -0.008722869 0.05977093
0003c0 b8 ed d7 bc ef 69 74 be e2 0e 20 3f 7c b6 16 be
       -0.02635847 -0.23868535 0.6252271 -0.1471805
0003d0 32 18 cb 3e 0a 46 d2 be f2 06 5f be 82 4e 53 3c
       0.39666897 -0.4106906 -0.21779993 0.012897136
0003e0 a4 ae 88 bf f1 64 64 3f c2 a5 5d 3e 62 38 8a 3e
       -1.0678296 0.89216524 0.21645263 0.26996142
0003f0 c4 a3 40 bd 25 f4 c0 bc 75 4f ea be 78 11 5d bd
       -0.04703118 -0.023553917 -0.45763746 -0.053971738

conv_spatial.mlp.0.bias f4 [256]
000000 ec 0a 17 be 3d 95 3c 3c 9e 0b 8b 3d 05 39 02 bf
       -0.1475026 0.011510191 0.06789325 -0.50868255
000010 f0 4e 8a be 0b 39 bf bc cc 55 2f bf 58 76 0d bd
       -0.2701335 -0.02334263 -0.6849029 -0.03453669
000020 97 62 b5 be 55 88 da bc f0 88 66 bd 12 00 a6 bd
       -0.3542678 -0.026676336 -0.056282938 -0.08105482
000030 aa d9 04 bf 35 34 1a bf 7f 48 1f 3e ca cd 2e bf
       -0.5189463 -0.6023591 0.15554999 -0.6828276
000040 7e ee 53 bd 32 15 eb be 0e 59 99 bc f3 f0 7f bc
       -0.051741116 -0.45914608 -0.018719222 -0.015621412
000050 bd 92 32 bf fb 24 d1 bc 2a 8c 2a bf d8 40 58 bd
       -0.69755155 -0.025530329 -0.66620123 -0.052796215
000060 24 43 01 bf 84 5f 05 bf 33 2d 24 bd 61 3b 31 bf
       -0.50493073 -0.5209887 -0.040082168 -0.6923123
000070 fa df 2d 3e fc 18 4f bc 7e 2b c7 be 8a 5c 2d bf
       0.16979972 -0.012640234 -0.3890037 -0.6771933
000080 e6 c8 ef bc c6 86 05 bd ea 9a 27 bf 8b c8 80 bd
       -0.0292706 -0.032599233 -0.65470755 -0.062882505
000090 fd e9 2d bf cf c6 09 bd e3 e2 4e 3e 7e 52 37 3d
       -0.6793516 -0.033636864 0.20203738 0.044756405
0000a0 a2 85 c6 bd 67 33 e2 bd 05 a3 ba 3b 38 af 89 bd
       -0.09693457 -0.110449605 0.005695703 -0.067228734
0000b0 2d c3 4f bd a9 7f 30 bf 1e 59 a2 be 82 c5 c2 bc
       -0.050723244 -0.68944794 -0.31708616 -0.02377582
0000c0 31 97 42 3e 9c c1 c7 3c 28 93 91 be 7a e7 b0 be
       0.19002987 0.024384312 -0.28432584 -0.34551603
0000d0 7b d4 36 be 12 0a a6 be 71 e6 71 3d 4f 06 d1 3d
       -0.17854492 -0.32429558 0.059057657 0.102062814
0000e0 03 46 e4 be c4 7b e8 3d 71 86 2b bd 91 bf 12 bf
       -0.44584665 0.113517314 -0.04187626 -0.5732356
0000f0 5f 90 33 bd ce 56 2c 3e d8 01 0f 3e be 92 4c bd
       -0.043838855 0.16829988 0.13965547 -0.04994463
000100 01 64 bc be 76 e7 db be fa 61 00 3e 69 97 57 3d
       -0.36795047 -0.42950028 0.12537375 0.05263463
000110 58 06 5c be 8a d3 48 bd 4a 15 a4 3d 91 52 96 bd
       -0.21486795 -0.049029864 0.08011873 -0.07339967
000120 78 24 4d be 91 81 a5 3d 43 44 a4 3c 1e 0d b9 be
       -0.20033443 0.080813535 0.020052081 -0.3614282
000130 e1 38 ab be 40 35 c3 ba 7a 10 5e 3d 95 af 00 be
       -0.33441833 -0.0014893189 0.054214932 -0.12566979
000140 62 dd 27 bd 74 46 d9 be c1 9a cd bc d3 20 ed bd
       -0.04098261 -0.42436564 -0.025098206 -0.11578526
000150 65 ac cf be 81 3f e7 bc 48 5f 9e bd 2b 7b b9 be
       -0.40561214 -0.028228523 -0.07733017 -0.36226782
000160 41 ff 64 bd 4d a2 78 bd 5d e9 ca bc 26 62 ae be
       -0.05590749 -0.060701657 -0.02476948 -0.34059256
000170 50 1a 9a be ad 06 5b 3d 7a 41 45 bd 1b 33 2e bd
       -0.300982 0.053473163 -0.048158146 -0.042529207
000180 62 87 30 3e 02 e1 49 bd 58 da 6b be de 25 d4 bc
       0.17239144 -0.04928685 -0.2303251 -0.025896963
000190 5a bc 7e bd ab 02 17 3d 42 3b e0 be 1b e3 5d be
       -0.062191345 0.03686778 -0.4379521 -0.21668665
0001a0 00 f3 04 bd d9 e4 75 bd 44 6a 22 bd 86 fb ae bd
       -0.032458305 -0.0600327 -0.039652124 -0.08544068
0001b0 0f 77 96 be 7e c9 d9 be 82 68 56 be 7f 8d fd be
       -0.2938771 -0.4253654 -0.20938304 -0.49522015
0001c0 55 70 3d be 28 8e c6 3c ec a1 00 bf d4 aa e2 be
       -0.18499883 0.024237707 -0.50247073 -0.44270957
0001d0 16 d2 9c bc a2 53 ce bd 87 1c d8 bc 76 08 46 bd
       -0.019143146 -0.100745454 -0.02638079 -0.048347913
0001e0 2f 6d 04 bf 92 e5 22 bf 60 15 cc 3d cb f2 91 3d
       -0.517291 -0.63631546 0.099650145 0.07126387
0001f0 26 cb eb be 71 fe 40 3e f1 89 2c bd b7 b6 23 bf
       -0.46053427 0.18847062 -0.04212374 -0.63950676
000200 3a c1 e3 3d 24 5f 8f be c5 fe 90 bd cc 8e 38 bd
       0.111208394 -0.28002274 -0.070798434 -0.045058057
000210 f1 39 fc be ee 7b ae bc 7f 2e 7c be 8b 9f 2e bd
       -0.49262956 -0.021299329 -0.24627112 -0.04263262
000220 6b a9 00 be f2 63 9e be 31 61 7b 3d 50 0e a5 be
       -0.12564628 -0.30935627 0.061371986 -0.32237482
000230 96 5d 23 be 3d 79 e3 be 26 c5 e0 be a6 24 a2 be
       -0.15953669 -0.44428435 -0.43900412 -0.31668586
000240 08 fb c9 bc db c2 a3 bb 29 e3 c9 be 0c fb bc be
       -0.024655834 -0.004997594 -0.39431122 -0.36910284
000250 d7 25 f5 bd 7b 02 7c 3d 93 61 18 bd f3 ba 8b bd
       -0.11970108 0.061525803 -0.03720243 -0.06822767
000260 9b 8a 31 3e ab 62 5c be 49 e1 0a bd 79 53 59 3d
       0.1733803 -0.21522014 -0.033906255 0.05305812
000270 66 b2 e9 3c d9 4a 03 bd d6 62 cd be 4b 21 30 bf
       0.02852745 -0.032053802 -0.40114468 -0.688008
000280 f3 d1 cf be af 04 22 bf 9c 8b 0b bd de a7 17 bf
       -0.40589866 -0.63288397 -0.03406869 -0.5924052
000290 a8 4a c4 3c 9a 24 93 bd 88 3b 23 bf 38 4f e2 bd
       0.02396138 -0.071847156 -0.6376271 -0.11050266
0002a0 93 10 90 bd 9d 8a d8 3d 16 70 ab bd 64 c5 de bc
       -0.07034411 0.105733134 -0.08370988 -0.027193733
0002b0 74 5c ad be 93 01 bb bc d8 37 ac be b8 95 22 bf
       -0.338596 -0.0228279 -0.33636355 -0.635097
0002c0 ee fa b3 bd a1 ef 92 3d 96 f1 f3 bc 5c 13 04 be
       -0.087880954 0.07174612 -0.029778283 -0.1289801
0002d0 67 2d c3 3d 7e c2 04 bd e3 19 f0 be 39 bd 0a bd
       0.09530144 -0.032412045 -0.4689475 -0.033871863
0002e0 87 cb 84 bc f8 01 2d bf f7 e0 37 be ff 8e cd be
       -0.01621033 -0.6758113 -0.17956911 -0.4014816
0002f0 61 c1 39 3e 0b e4 04 3e b4 41 54 be 58 d4 8a 3e
       0.18140174 0.12977616 -0.20728189 0.2711513
000300 92 f4 f1 bc 24 1b 0d bf 52 90 1f 3e 22 03 ec 3d
       -0.029535566 -0.5511954 0.15582398 0.11524035
000310 82 ac 7d bd 21 ac 2b bf c1 1a 1a bf 8d e2 f4 bc
       -0.061932094 -0.6705952 -0.60197073 -0.029893184
000320 21 01 13 bf c4 09 ef bc 1e ad 67 3e 26 ff 06 bf
       -0.574236 -0.029179461 0.22624633 -0.52733076
000330 ea 96 be 3b f8 8f b6 bb 21 d6 e5 3c be 25 3d bd
       0.00581633 -0.0055713616 0.028056206 -0.046178572
000340 b0 b4 75 bd 2a 92 fa be 8e b3 2a 3e 1c bb 03 3e
       -0.05998677 -0.4893964 0.16670057 0.12864345
000350 5d e8 27 bf 76 08 11 bd 6a ee c4 be d8 c3 d2 bc
       -0.65588933 -0.03540846 -0.38463145 -0.025728151
000360 61 5c 83 3d 77 6c fb 3d b6 c9 85 be a7 e7 0d 3e
       0.06414104 0.122765474 -0.26130456 0.138579
000370 1d 9d bd 3d 9a ca 2f bf 23 fe c4 bd 6f d0 16 3e
       0.092584826 -0.6866852 -0.09618785 0.14727949
000380 87 30 f6 be 92 9b 49 bd 2f 2a ca be 17 04 b5 3d
       -0.48083898 -0.04922063 -0.3948531 0.08838671
000390 ed 4f 70 be a9 d4 21 bf fd 55 71 bc 81 31 d4 bc
       -0.2346799 -0.6321512 -0.014729974 -0.025902512
0003a0 91 af cd be da 12 9d be 47 82 86 bd b8 bc 14 3e
       -0.4017301 -0.30678445 -0.06567817 0.14525115
0003b0 3e ff ef bd e9 ca 8f 3d 37 44 81 3d 86 b0 92 bd
       -0.117186055 0.07021124 0.06311839 -0.071625754
0003c0 52 c0 2e bd 46 db c0 3c 9a 56 35 3e da c1 33 bf
       -0.04266388 0.023542058 0.17708817 -0.7021767
0003d0 56 7d 6d 3d cd 52 10 bd 4e d2 e2 bc 26 64 08 bd
       0.057980858 -0.035235215 -0.027688172 -0.033298634
0003e0 16 75 3f 3b cd 5a d0 3b 6c c0 f0 be fc 62 6a bd
       0.0029214076 0.0063584805 -0.47021806 -0.057223305
0003f0 f1 8d bf bc 52 28 24 bf 09 6e 2a 3c f3 e6 5e be
       -0.023383113 -0.64124024 0.010402211 -0.21767788

conv_spatial.mlp.2.weight f4 [256, 256]
000000 ba f1 0a bd a9 b6 b9 bc 0a dc 71 bc 28 2a 38 bc
       -0.033921935 -0.022670107 -0.014761934 -0.01124052
000010 67 cc 71 3b 01 0a 1c 3d cc 68 9f bc 26 dc c1 bc
       0.0036895515 0.038095478 -0.01945915 -0.023664545
000020 ee 5d 0f bd f2 e2 15 3c c8 68 2c 3c 2a c0 c5 3c
       -0.035001688 0.009148346 0.010523029 0.024139483
000030 28 7e 55 3d 96 a3 02 bd db 7c 9f bc 80 22 a6 3c
       0.052122265 -0.03189429 -0.019468715 0.020280123
000040 c2 26 45 bd 08 c5 3f 3c c4 1b 53 bd d3 54 3a 3c
       -0.048132665 0.011704691 -0.05154015 0.011372763
000050 90 79 34 3d d8 74 9d 3c 28 f2 34 3d 27 a0 85 bc
       0.044061244 0.019220755 0.04417625 -0.016311718
000060 4c 96 64 bc 1e db 3b bd 4e 56 44 3d c0 4f 8d ba
       -0.013951849 -0.045863263 0.04793387 -0.0010781214
000070 10 a9 24 bd ef 74 32 bd 70 13 41 bd 00 5c 2b 3a
       -0.040200293 -0.043568548 -0.047137678 0.00065368414
000080 98 39 9a 3c a5 40 72 bd 20 ab 6f 3b 80 eb 15 3d
       0.018826291 -0.05914368 0.0036570504 0.036601543
000090 0d 97 92 bc 6e 7f d4 bc 08 9b 2f 3d 5a 17 ff bc
       -0.017894292 -0.02593967 0.04287246 -0.031139065
0000a0 56 1c 06 bd 3d df 05 3d f7 de 66 3d 88 01 c5 bc
       -0.032741867 0.0326836 0.05636498 -0.024048582
0000b0 34 3a 9b bc 88 36 0a bc 4b d0 7e bc c4 1a 08 3b
       -0.018948652 -0.008435853 -0.015552591 0.0020767907
0000c0 fe 4f 3e bc 49 01 99 3b 60 3d 32 bc b4 9f 0a 3c
       -0.011615751 0.0046693427 -0.010878891 0.008460928
0000d0 95 5c 1b 3d 42 e3 b3 bc 59 96 94 3b 6b 0b ff bc
       0.03793009 -0.02195895 0.0045345244 -0.031133374
0000e0 6c ca 52 3d c4 00 4a bc d4 7d 3a bd a0 32 4f bb
       0.051462576 -0.012329284 -0.045530155 -0.0031615868
0000f0 ad 4c 57 3d 57 b6 1f bd 0c b5 ec 3c c5 92 80 ba
       0.052563358 -0.038992252 0.028894924 -0.0009809366
000100 ed 67 80 b9 14 f2 ed bc d2 c8 35 bd 52 06 8d 3c
       -0.00024491493 -0.029046096 -0.04438097 0.017214928
000110 fe bf 30 bd b3 d6 87 bc 87 66 42 bc 31 cf 8a bc
       -0.043151848 -0.016581869 -0.011865265 -0.0169445
000120 16 70 aa bc 51 35 5d bd d7 d1 21 bb c8 98 af 3c
       -0.0208054 -0.054005925 -0.0024691725 0.021435156
000130 fb 4b 3e bc 15 b0 33 bd 0a 13 dd bc 49 bb f3 3c
       -0.011614795 -0.043869097 -0.026986618 0.02975239
000140 c1 b9 b5 3c 45 0e 7b bd 52 08 c6 bc a7 c1 7e bc
       0.0221833 -0.061292905 -0.02417389 -0.0155491
000150 91 2e 1d bd 02 37 53 3d 47 6f 07 bd 12 fd 05 bd
       -0.038374487 0.05156613 -0.033065107 -0.03271205
000160 1e 11 05 bb c4 d2 9c bc b0 6f b2 bb e0 6d e9 3b
       -0.0020304392 -0.01914347 -0.005445443 0.007123694
000170 fc e4 ac bc 88 51 6e bc cf f7 12 bd 83 00 4c bd
       -0.021105282 -0.014545806 -0.03588086 -0.049805176
000180 ad 8a 59 bc 9b 1e da 3c fc 27 42 3c ea 28 15 bd
       -0.013277692 0.026625922 0.011850353 -0.03641597
000190 00 81 ff 3a d1 18 17 bc ec c4 c4 3c 00 39 23 3b
       0.0019493401 -0.009222225 0.02401968 0.00249058
0001a0 a7 59 57 bb c9 6e dd bb 58 48 fc 3c 3b c5 52 3d
       -0.0032859833 -0.0067575914 0.030796215 0.051457625
0001b0 e0 4f 2b 3c 92 53 75 3d 76 77 0e 3d 94 64 e8 3c
       0.010456055 0.059894152 0.034781896 0.028368272
0001c0 2f 0a 7d 3c 28 4f 8b 3c 58 99 d1 3c 8c 3c 6d bd
       0.0154443225 0.017005518 0.025585815 -0.05791907
0001d0 77 84 4a bc cf 7e 32 3b a3 05 e6 bc 42 f1 3f 3d
       -0.012360684 0.0027236228 -0.02807886 0.04686094
0001e0 00 d7 21 3c e0 ed e7 bb 8c 0d 5c bd 57 b5 ac 3c
       0.00987792 -0.0070779175 -0.053723857 0.021082563
0001f0 bf ef 09 bb 22 8b 41 bc e9 74 57 bd 30 33 45 bc
       -0.002104744 -0.011812957 -0.05260173 -0.01203613
000200 56 59 5f bd 97 e6 b1 3c 2c 5f 1b bd 34 76 6a 3d
       -0.054528557 0.0217164 -0.03793256 0.057241634
000210 98 80 49 bd 5c b3 8d bb 08 98 ea 3c e5 b3 5c 3d
       -0.049194902 -0.00432436 0.028636947 0.0538825
000220 4b 02 69 3b e8 cc 84 3c 26 09 0b bd 48 e4 2e 3d
       0.0035554345 0.016210988 -0.03394427 0.042698175
000230 8e 03 4f bc ac 74 cc 3c 7f b5 99 bd 30 51 6b 3d
       -0.012635125 0.024957977 -0.07505321 0.057450473
000240 0f e4 79 bb 8b d7 02 bd b6 b8 e6 bc 92 6f 07 3d
       -0.0038130318 -0.03194384 -0.028164249 0.033065386
000250 bc 54 57 bc 7b 48 42 bd 23 ea 78 3c 66 eb d7 bc
       -0.013142761 -0.047432404 0.015192541 -0.026357364
000260 df 99 c2 ba 30 44 ae 3c d0 05 48 bd 6c 69 25 3c
       -0.0014846883 0.021272749 -0.04883367 0.010095935
000270 e5 ea 2d bd 16 d1 76 3c 00 dc a0 bb 18 1c 18 3c
       -0.04246034 0.015064498 -0.0049090385 0.009284042
000280 98 5d b7 bc 40 55 62 bb 9b ad 51 bd 50 9a 8e bb
       -0.022383496 -0.0034535676 -0.051190954 -0.0043518916
000290 09 4f 3e 3d 69 22 dc 3c d2 1f 13 bd 2d 8b 30 3d
       0.046462093 0.026871877 -0.035919018 0.04310148
0002a0 00 1d 2e bd 1b 3c ae 3c d6 73 12 bd a9 8d fb bc
       -0.042508125 0.021268895 -0.035755 -0.030707197
0002b0 29 17 a3 3c 39 21 6d bd 60 53 80 3c 28 b2 ac bc
       0.019908505 -0.05789301 0.015664756 -0.021081045
0002c0 fb 15 59 bc 90 f3 05 bc 57 1d 5f bd d5 23 d2 bc
       -0.013249869 -0.008175746 -0.05447134 -0.025651852
0002d0 90 76 4a bd 20 22 eb bc 70 c2 bc bc d2 ae 62 3d
       -0.049429476 -0.028702796 -0.023041934 0.055342503
0002e0 c7 a5 08 3d 16 b0 47 3d ca 1a 22 3d 0a ba 2d bd
       0.033361223 0.048751913 0.03957633 -0.04241375
0002f0 3a 56 c3 3c 9c 65 07 bd d4 2e 87 bd 6e eb a3 bb
       0.023844827 -0.033055887 -0.06600729 -0.0050024306
000300 a6 0c 07 3d 14 ac 30 bd b9 11 42 bd 84 ec aa bc
       0.032971047 -0.043132856 -0.047380183 -0.020864733
000310 78 c3 4d bd a0 69 80 bb 42 3d 5f 3c 9f d8 8c 3b
       -0.05023524 -0.0039188415 0.013625445 0.004298284
000320 26 73 41 3d fd b8 1e 3d a1 37 6a 3b 0e ea 5b bd
       0.047228955 0.038750637 0.0035738724 -0.05369001
000330 cf 31 4f 3d 0b b3 f1 bb f8 17 6d bd 9a 87 7c 3d
       0.05058461 -0.00737608 -0.057884187 0.061652757
000340 b1 fb 54 3d fc 05 cc 3c ee 25 0d bc 7a a8 51 bd
       0.051997844 0.024905197 -0.008615 -0.051186062
000350 60 a2 39 3c 34 22 46 3d 24 a4 8d bc 53 9d 43 3d
       0.011330217 0.048372462 -0.017290182 0.047757458
000360 bd f2 f3 bc c1 70 4c 3d f0 bd 46 3c d6 04 50 3c
       -0.029778833 0.049912218 0.012130246 0.0126964655
000370 dd b0 11 bd 50 ca f5 3c 2d 66 53 3c 0c ef 5e bd
       -0.03556906 0.030003697 0.012902779 -0.05442719
000380 94 03 6a bd ae a9 2a bd c0 8b 9e bb 9b 20 9d b9
       -0.05713232 -0.041665725 -0.004838437 -0.00029969667
000390 e8 39 8c 3c 14 86 56 3d dd fa 65 bd 1d 65 62 bd
       0.017117456 0.05237396 -0.056147445 -0.05527221
0003a0 3a 7a 28 bd a8 29 a9 bb 0c 0a e1 3c 99 d6 5e bd
       -0.04113219 -0.0051624365 0.027470611 -0.054403875
0003b0 8e 7d 13 bd 99 31 3b bd 08 38 e4 3c 46 39 2d 3d
       -0.03600841 -0.045701597 0.027858749 0.04229095
0003c0 58 9e 4d bc 60 e8 1a bd 3a 24 07 bc 40 0f a9 bc
       -0.012549959 -0.037819266 -0.008248383 -0.020637155
0003d0 1e 46 5f bd 27 4d 15 3d a0 24 b3 3a 7d db a3 bc
       -0.05451023 0.03645053 0.0013667531 -0.020002121
0003e0 b8 ae f2 bc af 82 9e bc 80 ef 60 3d e9 7d 67 3c
       -0.029624328 -0.019349424 0.054915905 0.01412914
0003f0 48 f5 4b 3d 30 1c 61 bc 47 ad 5f 3d 84 51 1a 3d
       0.049794465 -0.013739631 0.05460861 0.037675396
