logs/M5D6_r08_scale015/score.pt (torch, 731911 bytes, 10 tensors)

embed.0.W f4 [64]
0.91594976 -18.3138 -8.026041 38.725685 18.581137 -10.245088 49.47406 -19.911535
-20.167324 18.359539 -10.00954 -35.094105 40.61293 -6.087519 72.09387 31.654512
33.702854 -12.360578 -13.839932 -13.662356 -11.934479 8.555281 4.4871764 39.150528
0.24998245 13.223508 -15.282019 -28.353455 64.14107 4.7571125 9.820835 21.97627
-26.202644 -6.5102854 -32.54596 -23.59451 -39.407753 -60.36837 22.569082 -11.892836
-11.505157 -55.490852 61.8286 -2.8642333 8.094561 48.25437 5.6384335 -27.136934
-47.571243 0.1022014 37.629383 -19.41654 17.623198 50.28415 31.747416 8.526834
0.7313885 -11.024973 -8.832962 -28.080582 8.480637 -9.995628 82.222565 -20.62764
00000000: af7b 6a3f aa82 92c1 aa6a 00c1 1ae7 1a42
00000010: 2ba6 9441 e1eb 23c1 70e5 4542 d34a 9fc1
00000020: ae56 a1c1 56e0 9241 1327 20c1 5d60 0cc2
00000030: a473 2242 f5cc c2c0 1030 9042 713c fd41
00000040: b9cf 0642 edc4 45c1 5d70 5dc1 0399 5ac1
00000050: a0f3 3ec1 6ee2 0841 f396 8f40 249a 1c42
00000060: 66fb 7f3e 7d93 5341 2683 74c1 e0d3 e2c1
00000070: 3a48 8042 443a 9840 2422 1d41 67cf af41
00000080: 049f d1c1 4254 d0c0 102f 02c2 8ec1 bcc1
00000090: 8aa1 1dc2 3679 71c2 7b8d b441 0e49 3ec1
000000a0: 2015 38c1 a2f6 5dc2 7d50 7742 994f 37c0
000000b0: 5283 0141 7a04 4142 0c6e b440 7118 d9c1
000000c0: f448 3ec2 f84e d13d 7d84 1642 1355 9bc1
000000d0: 4ffc 8c41 f822 4942 b5fa fd41 e96d 0841
000000e0: 473c 3b3f 4a66 30c1 d053 0dc1 08a5 e0c1
000000f0: b0b0 0741 18ee 1fc1 f471 a442 6805 a5c1

embed.1.weight f4 [128, 128]
-0.039474327 -0.03885144 0.01247748 -0.080010146 -0.040534973 -0.033101596 0.07112442 0.035455026
0.010397269 0.07683899 -0.08194715 -0.028134443 0.016453097 -0.057095483 -0.084498 -0.07499681
0.08791737 0.06743818 0.0023779778 -0.008620042 -0.05819621 0.08773554 -0.04425146 -0.0036160203
0.044071168 0.015847772 0.0009581032 0.06879798 -0.06732937 0.046887852 0.059811845 -0.070650384
-0.0023198468 -0.066910535 -0.07629665 0.0530605 0.060943805 -0.03138409 0.046962883 0.07195553
-0.0024986232 -0.03595542 -0.022014521 -0.037008114 -0.022010695 -0.019999249 0.00578083 -0.07072649
0.07164572 0.022826238 0.041395623 0.02669536 -0.020301325 -0.06391727 0.012003548 0.02476945
-0.015266757 0.035627205 -0.030359175 0.03308283 0.074118435 -0.07426926 0.064131506 -0.04369389
0.088279516 -0.028652966 0.06821823 -0.031889338 0.021308562 0.06133067 0.011370882 0.05254028
0.046100855 0.011688058 -0.035210267 0.02741743 -0.012876357 0.07584465 -0.03272649 -0.067158185
-0.030081164 -0.06435556 0.068014294 0.04581197 0.04784511 -0.01384801 0.0010184259 0.052151065
0.07960861 -0.06258069 0.01297143 0.0724214 -0.021140449 0.076329954 -0.088209815 0.01959526
0.070896044 -0.03493372 -0.021710273 0.029461363 -0.061097935 -0.08454988 0.007884516 0.031358793
-0.026849555 0.036485072 -0.02497067 0.00012241551 -0.084757924 -0.026312329 0.00058407104 -0.01856773
-0.044143092 0.06644482 -0.05301948 -0.03208183 -0.087935954 -0.06190431 0.046516635 0.0734405
0.07237925 -0.0017897448 0.036902346 -0.06444243 -0.04692197 -0.004862703 -0.01648241 0.02756231
-0.06348484 -0.053688258 -0.046314307 0.085858576 -0.029000781 -0.055845626 0.009914761 -0.0032819328
-0.0063511403 -0.0015184666 0.02386699 0.056697246 0.03157154 0.059120964 -0.073483534 0.056843884
-0.04579493 -0.04997157 0.006008286 -0.009859897 0.055657063 0.056648083 -0.08349911 0.0009155349
-0.08813486 0.050923593 -0.07425772 0.0029995912 0.063505724 0.029250514 -0.017673828 0.067757666
0.019213177 -0.03141761 0.074699216 0.044444453 -0.05736111 -0.07833097 -0.061575416 -0.0760564
0.08095487 0.0033770374 -0.05229622 -0.002747595 -0.03670586 -0.004874978 0.041639157 -0.062868536
-0.053662736 0.06598322 0.006065532 0.08008158 -0.008637986 -0.002598311 -0.06211284 -0.033132058
-0.058150038 -0.032290198 -0.04498448 -0.0073691234 -0.0725725 0.012628481 -0.04346239 0.030876338
0.033965565 -0.07697274 0.03400372 -0.08005156 0.018714454 0.04511056 -0.0511277 -0.07017926
0.08556452 -0.081224106 -0.0851567 -0.08557522 -0.019382935 -0.058695648 0.023148714 0.06301755
0.07548098 0.025867881 -0.06860768 0.07121129 0.06290456 0.01972975 -0.08339012 -0.08687084
0.051054236 -0.05079441 -0.02383811 0.01980807 0.04874694 -0.06311274 0.042683925 0.060263567
0.055446886 -0.06304883 -0.051821616 -0.07048359 -0.010608351 -0.07312404 -0.078356765 -0.033755135
-0.014349611 0.008564977 -0.067524716 -0.05813986 -0.046382416 -0.0070934515 -0.01040671 -0.013909798
0.054742675 0.05623969 0.05244169 0.075567655 -0.072054006 -0.061065167 0.06597477 -0.03321276
0.039349668 -0.051785517 0.06987641 0.04016703 0.08128843 -0.059269678 -0.05219786 -0.046982586
00000000: d5af 21bd b022 1fbd 586e 4c3c 5cdc a3bd
00000010: 0008 26bd 8a95 07bd aea9 913d 4a39 113d
00000020: 4f59 2a3c c35d 9d3d e8d3 a7bd 347a e6bc
00000030: a5c8 863c f4dc 69bd 4a0d adbd ed97 99bd
00000040: 060e b43d 071d 8a3d d9d7 1b3b 143b 0dbc
00000050: 265f 6ebd b1ae b33d 0541 35bd c1fa 6cbb
00000060: f883 343d 30d3 813c 3829 7b3a f5e5 8c3d
00000070: fbe3 89bd 7a0d 403d 44fd 743d 26b1 90bd
00000080: 9208 18bb 6408 89bd 6b41 9cbd f855 593d
00000090: 36a0 793d 9b8c 00bd 275c 403d 6c5d 933d
000000a0: f1bf 23bb fe45 13bd cc57 b4bc d295 17bd
000000b0: c64f b4bc 77d5 a3bc 1e6d bd3b 0dd9 90bd
000000c0: feba 923d 17fe ba3c 758e 293d 3ab0 da3c
000000d0: f74e a6bc 0fe7 82bd 88aa 443c 4de9 ca3c
000000e0: 6c21 7abc d5ed 113d ceb3 f8bc dd81 073d
000000f0: 68cb 973d 7b1a 98bd 6157 833d 5df8 32bd
00000100: e4cb b43d a0b9 eabc 00b6 8b3d 659e 02bd
00000110: 4b8f ae3c de35 7b3d f04c 3a3c 7a34 573d
00000120: 40d4 3c3d 457f 3f3c a438 10bd 859a e03c
00000130: 5bf7 52bc 7154 9b3d 360c 06bd 3b8a 89bd
00000140: c66c f6bc d9cc 83bd 144b 8b3d 55a5 3b3d
00000150: 3cf9 433d c4e2 62bc b47c 853a 5b9c 553d
00000160: d709 a33d 4e2a 80bd 1f86 543c ac51 943d
00000170: bc2e adbc e152 9c3d 59a7 b4bd 3d86 a03c
00000180: f231 913d a916 0fbd bed9 b1bc f558 f13c
00000190: d441 7abd 7d28 adbd 0f2e 013c 1472 003d
000001a0: 99f3 dbbc 5f71 153d 4a8f ccbc aa5c 0039
000001b0: 9095 adbd f48c d7bc 581c 193a 5a1b 98bc
000001c0: 63cf 34bd 3914 883d f42a 59bd 3d68 03bd
000001d0: c417 b4bd 608f 7dbd 3a88 3e3d f967 963d
000001e0: 923b 943d df95 eaba ea26 173d 65fa 83bd
000001f0: 4031 40bd 4f57 9fbb 1e06 87bc 5bca e13c
00000200: 5704 82bd 38e8 5bbd 12b4 3dbd 9fd6 af3d
00000210: 0c93 edbc 62be 64bd 8671 223c b215 57bb
00000220: 3a1d d0bb 4907 c7ba b584 c33c 5f3b 683d
00000230: 2951 013d d328 723d 897e 96bd 22d5 683d
00000240: 7793 3bbd fdae 4cbd 28e1 c43b 688b 21bc
00000250: a9f8 633d d207 683d 9501 abbd 8200 703a
00000260: 0d80 b4bd 4295 503d 6e14 98bd ca94 443b
00000270: 4a0f 823d c69e ef3c b4c8 90bc 88c4 8a3d
00000280: f464 9d3c c0af 00bd e7fb 983d 630b 363d
00000290: 7cf3 6abd fd6b a0bd 8136 7cbd 75c3 9bbd
000002a0: abcb a53d 4951 5d3b 9034 56bd ff10 34bb
000002b0: e258 16bd 48be 9fbb d28d 2a3d 38c1 80bd
000002c0: 75cd 5bbd 3622 873d 5fc1 c63b d001 a43d
000002d0: 5786 0dbc 6d48 2abb 096a 7ebd 7bb5 07bd
000002e0: bc2e 6ebd ba42 04bd a541 38bd b078 f1bb
000002f0: e4a0 94bd b0e7 4e3c 9e05 32bd 60f0 fc3c
00000300: 7a1f 0b3d e2a3 9dbd 7c47 0b3d 13f2 a3bd
00000310: 0e4f 993c dac5 383d 476b 51bd 25ba 8fbd
00000320: 733c af3d d358 a6bd a366 aebd 1042 afbd
00000330: f6c8 9ebc d96a 70bd 5fa2 bd3c 580f 813d
00000340: c695 9a3d e1e8 d33c 2f82 8cbd 3ad7 913d
00000350: 1bd4 803d 49a0 a13c 70c8 aabd 57e9 b1bd
00000360: 3f1e 513d cd0d 50bd 2448 c3bc 8944 a23c
00000370: dfaa 473d 4141 81bd 57d5 2e3d eed6 763d
00000380: 461c 633d bf1f 81bd e742 54bd b359 90bd
00000390: a6ce 2dbc 0fc2 95bd 8379 a0bd d342 0abd
000003a0: a11a 6bbc 1e54 0c3c 664a 8abd 1024 6ebd
000003b0: 7dfb 3dbd 2f70 e8bb e880 2abc ece5 63bc
000003c0: db39 603d 975b 663d 19cd 563d 37c3 9a3d
000003d0: 0d91 93bd 781f 7abd c81d 873d 1a0a 08bd
000003e0: 1e2d 213d 0d1d 54bd 5d1b 8f3d 2f86 243d
000003f0: 8c7a a63d c3c4 72bd 6ccd 55bd d070 40bd

embed.1.bias f4 [128]
-0.038573787 -0.008762393 0.0038564575 -0.01732597 0.0013594676 -0.080739714 -0.013071265 -0.065325275
0.017997347 -0.018957883 -0.039274003 0.01733481 0.08517255 0.02997605 0.05349435 0.06500813
0.06006715 -0.03414609 -0.02657283 -0.022537911 0.025549345 -0.028704384 -0.004336447 -0.006120038
0.05138769 0.054497823 0.06063686 -0.028238567 0.053111106 0.075909905 -0.02253786 0.047121167
0.044115275 0.07284606 0.064416565 0.08269352 0.00637352 0.03462761 -0.07156343 -0.0073066093
-0.04247082 -0.0568962 0.028149026 0.05698177 0.06318203 0.049127135 0.054307267 -0.04483013
-0.061668552 -0.0274818 0.063815154 -0.0321782 -0.011604682 0.016566798 -0.08044023 0.07405552
-0.0370025 -0.03630322 0.08205477 0.03672086 0.08813461 0.013126162 -0.037237752 -0.051245973
-0.04409361 0.021321543 0.07930242 0.081400685 -0.083021134 -0.08705319 0.032621324 -0.07171346
0.0861128 -0.06114889 0.052248962 -0.0059374585 0.0879937 -0.057562374 -0.0762278 -0.06015672
-0.018938623 -0.049785122 0.022100227 -0.07850403 0.030704748 0.086350664 0.046019595 0.07053023
-0.07381392 -0.045251604 -0.06836123 0.033981316 0.027675347 -0.019954793 0.06851491 0.07583486
-0.020581191 0.027539508 -0.06680052 0.009121231 -0.044334218 0.0709835 -0.019816605 -0.058740187
-0.029920364 -0.084203504 -0.039688494 -0.053131793 -0.03651743 0.06677223 0.07330547 -0.02199703
-0.03618543 -0.005988772 0.010373782 -0.020205105 0.039537538 -0.0004611708 -0.08339678 0.07696046
-0.060614523 -0.06244365 -0.019090151 -0.0855394 0.0768175 0.0003618623 0.0022114662 -0.05080303
00000000: 8cff 1dbd 2490 0fbc 9fbc 7c3b 31ef 8dbc
00000010: 2a30 b23a dd5a a5bd dc28 56bc 42c9 85bd
00000020: 2c6f 933c 904d 9bbc c7dd 20bd bb01 8e3c
00000030: f26e ae3d 5590 f53c e41c 5b3d fc22 853d
00000040: f908 763d c5dc 0bbd 43af d9bc 6da1 b8bc
00000050: dc4c d13c 7525 ebbc c118 8ebb 9a8a c8bb
00000060: e67b 523d 1c39 5f3d 5b5e 783d 9154 e7bc
00000070: 088b 593d a776 9b3d 51a1 b8bc 2002 413d
00000080: 38b2 343d 5130 953d d5ec 833d 385b a93d
00000090: f6d8 d03b aed5 0d3d d98f 92bd 486c efbb
000000a0: e2f5 2dbd fd0b 69bd c998 e63c b765 693d
000000b0: 9565 813d 8939 493d 4c71 5e3d cc9f 37bd
000000c0: 2a98 7cbd 8321 e1bc 85b1 823d 4acd 03bd
000000d0: 9021 3ebc 18b7 873c d9bd a4bd 6caa 973d
000000e0: ef8f 17bd afb2 14bd 550c a83d 9d68 163d
000000f0: eb7f b43d 1d0f 573c 9d86 18bd 4ce7 51bd
00000100: 809b 34bd 84aa ae3c 4f69 a23d 67b5 a63d
00000110: fc06 aabd f148 b2bd f09d 053d 82de 92bd
00000120: e85b b03d 4277 7abd 0203 563d 038f c2bb
00000130: 0a36 b43d 86c6 6bbd 521d 9cbd e566 76bd
00000140: 2c25 9bbc 7ceb 4bbd 890b b53c b9c6 a0bd
00000150: 8688 fb3c 9ed8 b03d 0b7f 3c3d 2772 903d
00000160: c12b 97bd bf59 39bd f900 8cbd fe2f 0b3d
00000170: 69b7 e23c 3c78 a3bc 8c51 8c3d 4f4f 9b3d
00000180: e399 a8bc 899a e13c b6ce 88bd 3771 153c
00000190: cc97 35bd cc5f 913d 6f56 a2bc 8d99 70bd
000001a0: 8d1b f5bc e372 acbd 6790 22bd b9a0 59bd
000001b0: 4d93 15bd e1bf 883d 2e21 963d 1e33 b4bc
000001c0: 2c37 14bd 763d c4bb ccf6 293c 2d85 a5bc
000001d0: 1df2 213d 4cc9 f1b9 eecb aabd 729d 9d3d
000001e0: ef46 78bd eac4 7fbd f362 9cbc 482f afbd
000001f0: 7e52 9d3d 56b8 bd39 3fee 103b d716 50bd

embed.3.weight f4 [256, 128]
0.0612469 0.043392994 -0.061758704 0.08712669 -0.023614142 0.06167367 0.009831637 0.04619723
0.045177627 0.058407366 0.010078565 0.005872415 -0.02050047 0.003368376 -0.07601116 0.0056229797
-0.076437786 0.050338592 -0.07943541 0.061490122 0.0168709 0.05611117 0.057153054 -0.049521852
-0.020690657 0.0866716 -0.016344348 -0.08718621 -0.041459676 -0.04231239 0.051403593 -0.027198004
-0.025842119 0.02956498 -0.05511026 -0.020262845 0.048479002 -0.059179813 -0.0844833 -0.055244192
-0.046361238 0.046597797 0.0124151865 0.02702773 0.08117367 0.0682548 0.086041264 0.048089754
0.06459687 -0.045740373 0.042835485 0.025900988 0.043628596 -0.08714759 -0.020922327 0.0044980696
0.08122333 0.085220486 -0.055099342 -0.051899746 -0.014376574 0.029653752 -0.079762354 -0.00747821
0.0065862667 0.01368799 -0.008377065 -0.051345408 -0.04800404 0.08667154 0.042368993 -0.038460243
-0.03091838 -0.050118662 -0.0863161 0.044349242 0.056149516 0.0061029056 0.044106014 0.03861528
-0.043918237 0.083535835 -0.07209016 -0.06638581 -0.08224778 0.0811659 0.0057398947 0.0035889412
-0.08018286 0.058809437 0.029300489 0.04818296 0.010675564 -0.057015434 -0.002163482 0.067352556
-0.043120798 -0.049193654 0.08633563 0.075197354 -0.014753789 -0.018131658 0.022783458 -0.049927346
0.076526925 -0.001493031 -0.06667481 -0.06270606 0.020880064 0.02226499 0.012735618 -0.010439911
-0.0027890466 0.060998734 -0.06142739 -0.07273358 0.0048538735 -0.01602988 -0.080968834 -0.0015969547
-0.026022991 -0.08826106 -0.05004584 0.0077928468 0.05441511 -0.06743305 -0.042093586 -0.04721347
0.02364965 0.057230026 0.02000498 -0.051339485 0.052853115 -0.08137855 -0.048930805 0.04875831
-0.00630068 -0.0015937726 -0.07456591 -0.08470044 0.047207672 0.049217433 0.025423074 -0.048546214
-0.016365137 -0.005835937 0.0039053375 -0.078862414 0.045403376 -0.08260936 0.0139582455 0.019275028
-0.037045013 -0.03136617 -0.059449308 -0.077553265 0.0475019 -0.053393472 -0.08065173 -0.052697532
0.012073692 0.013876449 -0.04867289 0.058738735 -0.0059910268 -0.019564303 0.07396013 -0.002330373
0.07051906 0.06031666 -0.03607314 0.008758695 -0.0018471594 -0.029208092 -0.03456012 0.07169481
-0.06875609 -0.009404395 0.054050952 0.009127985 0.010293904 -0.051815692 0.04159602 0.02414652
-0.05194423 -0.06398732 0.0109889265 0.06381647 -0.08585981 -0.03636511 -0.017093286 0.078096695
0.05595662 0.033177514 -0.057170197 -0.07981843 -0.06596252 0.051356725 0.054801587 0.0029183214
-0.061529078 -0.021098249 -0.031382404 -0.08015067 -0.07142011 0.011365804 0.016134877 -0.08604575
0.0626337 0.003937759 0.010436919 0.023591308 0.053529035 -0.08214584 0.088138014 -0.08207889
-0.014386953 0.015305512 0.035454698 -0.07873104 -0.06896661 0.084179185 0.072554536 0.055944387
0.063572295 -0.06491563 -0.00660733 0.063934125 -0.001822514 0.08325406 -0.070950456 0.0025588195
-0.060884397 -0.015149748 -0.07284618 0.03933556 0.034501724 -0.068981096 -0.047471922 -0.037529122
-0.00834417 -0.04701383 -0.05901274 0.063341275 0.0047974284 0.08224436 -0.085568555 0.07455769
0.054760758 0.017955348 0.017427374 -0.016665475 -0.014313386 0.021474134 -0.062394045 0.012948365
00000000: 08de 7a3d dabc 313d b2f6 7cbd 7a6f b23d
00000010: 7272 c1bc 889d 7c3d e014 213c 4f39 3d3d
00000020: 2d0c 393d 903c 6f3d 9120 253c 636d c03b
00000030: 9af0 a7bc f9bf 5c3b bdab 9bbd f940 b83b
00000040: 6a8b 9cbd d72f 4e3d 08af a2bd 11dd 7b3d
00000050: d734 8a3c d4d4 653d 5219 6a3d 6dd7 4abd
00000060: 747f a9bc e180 b13d 95e4 85bc af8e b2bd
00000070: 9fd1 29bd c24f 2dbd 938c 523d 59ce debc
00000080: dab2 d3bc 4232 f23c 4cbb 61bd 44fe a5bc
00000090: eb91 463d 8866 72bd 9505 adbd bc47 62bd
000000a0: 48e5 3dbd 55dd 3e3d 1169 4b3c 4269 dd3c
000000b0: 623e a63d 2cc9 8b3d 6736 b03d c3f9 443d
000000c0: 5d4b 843d 425a 3bbd 4374 2f3d 4f2e d43c
000000d0: e6b3 323d 707a b2bd 4d65 abbc 8b64 933b
000000e0: 6b58 a63d 1488 ae3d d9af 61bd d494 54bd
000000f0: b98b 6bbc 6dec f23c 725a a3bd c60b f5bb
00000100: 9cd1 d73b 9743 603c f53f 09bc 904f 52bd
00000110: e29f 44bd d980 b13d 1c8b 2d3d 7d88 1dbd
00000120: 8b48 fdbc 3a49 4dbd 7fc6 b0bd 8da7 353d
00000130: 09fd 653d e2fa c73b 82a8 343d 0e2b 1e3d
00000140: 9ce3 33bd d614 ab3d 01a4 93bd 49f5 87bd
00000150: 8671 a8bd 4f3a a63d ba15 bc3b 7134 6b3b
00000160: e936 a4bd 2ae2 703d 9407 f03c 7f5b 453d
00000170: 90e8 2e3c 0489 69bd 34c9 0dbb 23f0 893d
00000180: 6f9f 30bd 497f 49bd bcd0 b03d 1201 9a3d
00000190: e0b9 71bc d888 94bc 60a4 ba3c 9e80 4cbd
000001a0: 26ba 9c3d cfb1 c3ba ce8c 88bd 096c 80bd
000001b0: ab0c ab3c 1165 b63c 0ea9 503c 290c 2bbc
000001c0: 70c8 36bb cfd9 793d 499b 7bbd 58f5 94bd
000001d0: 3e0d 9f3b 1851 83bc fdd2 a5bd e850 d1ba
000001e0: 2b2e d5bc 37c2 b4bd defc 4cbd 235b ff3b
000001f0: 61e2 5e3d 571a 8abd 536a 2cbd e962 41bd
00000200: e9bc c13c 086a 6a3d 7ce1 a33c 5a49 52bd
00000210: 827c 583d cca9 a6bd ab6b 48bd cbb6 473d
00000220: ef75 cebb 22e6 d0ba 03b6 98bd 6d77 adbd
00000230: d55c 413d 3898 493d 0d44 d03c 65d8 46bd
00000240: 2e10 86bc 633b bfbb b1f0 7f3b 9e82 a1bd
00000250: e4f8 393d 192f a9bd 20b1 643c aae6 9d3c
00000260: 83bc 17bd d079 00bd 1e81 73bd 3fd4 9ebd
00000270: 5a91 423d 1db3 5abd bc2c a5bd 5ed9 57bd
00000280: bcd0 453c 0c5a 633c 395d 47bd 0798 703d
00000290: 6050 c4bb 5145 a0bc 6978 973d 2cb9 18bb
000002a0: 4c6c 903d 9a0e 773d 6ec1 13bd a180 0f3c
000002b0: 621c f2ba cf45 efbc ea8e 0dbd bbd4 923d
000002c0: fecf 8cbd e414 1abc 8864 5d3d 8b8d 153c
000002d0: c3a7 283c b13c 54bd 9760 2a3d ecce c53c
000002e0: 79c3 54bd c90b 83bd e60a 343c 36b2 823d
000002f0: 45d7 afbd 95f3 14bd 3807 8cbc 29f1 9f3d
00000300: c532 653d 25e5 073d 4c2b 6abd d877 a3bd
00000310: 5c17 87bd 6e5b 523d a177 603d 4f41 3f3b
00000320: ea05 7cbd 3cd6 acbc d68a 00bd 0926 a4bd
00000330: b544 92bd a337 3a3c 4a2d 843c c138 b0bd
00000340: 1946 803d 5108 813b 9cff 2a3c 8f42 c13c
00000350: 4341 5b3d 143c a8bd b481 b43d fa18 a8bd
00000360: 41b7 6bbc f8c3 7a3c f238 113d bd3d a1bd
00000370: 5e3e 8dbd 2366 ac3d 7997 943d f125 653d
00000380: 3132 823d 7cf2 84bd 4d82 d8bb e5ef 823d
00000390: 6ce1 eeba 1b81 aa3d 794e 91bd deb1 273b
000003a0: eb61 79bd a636 78bc 6130 95bd 531e 213d
000003b0: ae51 0d3d f645 8dbd eb71 42bd 23b8 19bd
000003c0: fcb5 08bc 9391 40bd 58b7 71bd 12b9 813d
000003d0: bf33 9d3b bb6f a83d 913e afbd b4b1 983d
000003e0: d14c 603d 1817 933c dac3 8e3c 0986 88bc
000003f0: b182 6abc 86ea af3c e690 7fbd 6125 543c

embed.3.bias f4 [256]
0.0734324 0.03651763 0.044066247 -0.040969886 0.052536488 -0.04800745 0.033002593 0.037794985
-0.054150775 0.022443492 -0.042398665 0.022860661 0.004133742 -0.043138817 0.032807622 -0.08214108
0.06548065 -0.023700448 0.056421913 0.058693867 0.017291388 -0.01504477 0.06828527 -0.061878454
0.05513484 0.063066825 -0.024251508 -0.0037109351 -0.040395793 0.04567319 0.0009957615 0.025323806
0.059270807 0.08396122 -0.07722209 -0.072960146 0.05456077 0.06835044 -0.028362468 -0.059953015
-0.026604502 -0.071670875 0.03799509 -0.02678055 -0.066995144 0.004103417 -0.04001724 -0.04547496
0.08807609 0.011955944 0.046746712 -0.054205302 0.014375089 -0.049266957 0.002094161 -0.033874094
0.050188363 0.0785603 0.0060858154 -0.04837062 0.021894665 0.01209506 0.043632872 -0.06730534
0.043790523 -0.08107646 -0.085235074 -0.040698122 0.083933204 -0.009599672 -0.043597616 -0.052553788
0.04393149 -0.07613872 -0.062851086 -0.06402398 -0.037132163 -0.059689187 -0.06832742 -0.004670229
0.055293165 -0.05027979 -0.022347618 0.05441802 0.016930662 0.01702445 0.05937351 -0.043834787
0.060329355 0.01452766 -0.02551389 -0.027147796 -0.022321487 0.08369117 0.05159717 -0.05565349
0.08263937 0.0636653 -0.027278947 -0.04604582 -0.06253225 0.086350545 -0.026827449 -0.025151964
0.08322466 0.00679286 0.049304288 -0.029325387 0.029316451 0.009988255 0.0011221598 -0.045142792
-0.04484241 0.063244715 0.0320476 0.041861724 -0.06428362 -0.042318955 -0.02017165 -0.059989747
0.03151478 -0.031145645 -0.07586676 -0.08742085 0.037570503 -0.08481419 0.03902339 0.032474462
-0.08830022 0.015000084 -0.05481877 -0.05881565 0.06693572 -0.030490147 -0.071454994 -0.07542167
0.022458948 0.0043333494 0.07139905 0.087996066 0.06810039 -0.087620474 -0.04023378 0.019435829
0.06470598 -0.044831045 0.07065042 -0.0287086 -0.010319561 0.046634845 -0.07275 0.02666002
0.08785034 0.03481611 0.043349404 -0.076365255 0.043513417 0.01706687 0.027606143 0.019820789
0.007903882 0.014277013 -0.076523535 -0.07493097 -0.0704931 -0.03666057 0.010221275 0.00064378255
-0.0026722155 -0.049274914 0.023089519 -0.07334747 0.08349369 -0.02075237 -0.05861456 -0.0030389037
0.033749722 0.0844907 -0.0051719663 -0.0500755 -0.006463556 0.042037603 0.06556212 -0.08550644
-0.053280696 -0.0665873 -0.0034449568 0.08421697 -0.012507193 -0.059202548 -0.08288677 -0.083790645
-0.04319116 -0.013839592 -0.06373145 0.05812905 -0.061509658 0.017652722 -0.052868575 0.05010193
0.03747176 -0.07480846 0.07232281 -0.06826703 -0.0071510556 0.08316371 0.03153036 0.034075085
-0.03892197 -0.008397833 -0.05904784 0.04007615 0.060653422 0.025772998 0.07499175 0.061804727
0.08240413 -0.08825508 0.016166372 -0.05355438 0.0047812015 -0.009582097 0.056707066 0.00036783662
0.038578715 0.026000844 -0.08443579 0.07639408 0.06078095 -0.084011905 0.019902237 -0.017123612
0.009813472 -0.07376121 0.032970097 -0.07160675 0.072114035 0.03761468 -0.067885004 -0.034951538
-0.03923978 -0.06796069 -0.08638755 0.020885807 0.040216796 0.029844657 0.07361889 -0.005565955
0.024898134 0.04399446 0.012831576 -0.06561722 0.035409052 -0.0072233058 0.054906964 0.08563259
00000000: ba63 963d 8393 153d cf7e 343d 0ad0 27bd
00000010: 8030 573d 76a3 44bd ba2d 073d eace 1a3d
00000020: 34cd 5dbd 6adb b73c 39aa 2dbd 4846 bb3c
00000030: 5774 873b 54b2 30bd 4961 063d 9539 a8bd
00000040: b81a 863d 7127 c2bc aa1a 673d fb68 703d
00000050: aba6 8d3c 577e 76bc 26d9 8b3d 4374 7dbd
00000060: 12d5 613d 2e29 813d 19ab c6bc 2933 73bb
00000070: 0f76 25bd d013 3b3d 3684 823a df73 cf3c
00000080: f2c5 723d dcf3 ab3d 9d26 9ebd 216c 95bd
00000090: 1d7b 5f3d 51fb 8b3d 6858 e8bc 4b91 75bd
000000a0: aff1 d9bc 2ec8 92bd bda0 1b3d e262 dbbc
000000b0: c034 89bd f575 863b 1ee9 23bd f443 3abd
000000c0: 3d61 b43d dde2 433c 7b79 3f3d 6106 5ebd
000000d0: 7e85 6b3c 26cc 49bd 313e 093b 90bf 0abd
000000e0: 5092 4d3d 39e4 a03d 856b c73b 4520 46bd
000000f0: 715c b33c 5c2a 463c 62b8 323d 62d7 89bd
00000100: b15d 333d 6a0b a6bd ba8f aebd 13b3 26bd
00000110: 2ce5 ab3d f147 1dbc 6a93 32bd a442 57bd
00000120: 82f1 333d 9eee 9bbd 12b8 80bd 011f 83bd
00000130: e517 18bd a67c 74bd 3fef 8bbd b808 99bb
00000140: 167b 623d 2ef2 4dbd 5a12 b7bc 6ee5 5e3d
00000150: 2cb2 8a3c dc76 8b3c a331 733d 1b8c 33bd
00000160: ea1b 773d 6c05 6e3c 8102 d1bc 0e65 debc
00000170: 8ddb b6bc 4766 ab3d 8e57 533d eaf4 63bd
00000180: d43e a93d f462 823d 1978 dfbc 8b9a 3cbd
00000190: e910 80bd 8ed8 b03d 3dc5 dbbc 7e0b cebc
000001a0: b171 aa3d a496 de3b 4bf3 493d cb3b f0bc
000001b0: 0e29 f03c c7a5 233c 6f15 933a a6e7 38bd
000001c0: adac 37bd 7286 813d 5844 033d 3377 2b3d
000001d0: 21a7 83bd a456 2dbd 043f a5bc cfb7 75bd
000001e0: a415 013d 2725 ffbc 0860 9bbd b409 b3bd
000001f0: 87e3 193d 10b3 adbd fdd6 1f3d f103 053d
00000200: bfd6 b4bd eac2 753c a689 60bd aee8 70bd
00000210: 9815 893d 79c6 f9bc ff56 92bd ad76 9abd
00000220: d4fb b73c c5fe 8d3b aa39 923d 4837 b43d
00000230: 3878 8b3d 5d72 b3bd 2dcc 24bd e337 9f3c
00000240: 9284 843d c2a0 37bd 2bb1 903d 4c2e ebbc
00000250: 6013 29bc 2e04 3f3d f4fd 94bd 1d66 da3c
00000260: e1ea b33d 569b 0e3d 258f 313d 6365 9cbd
00000270: 203b 323d d2cf 8b3c 4726 e23c 355f a23c
00000280: 497f 013c 22ea 693c 5fb8 9cbd 6975 99bd
00000290: b05e 90bd 6529 16bd 2277 273c 84c3 283a
000002a0: 5620 2fbb 7ed4 49bd 3b26 bd3c 3337 96bd
000002b0: bdfe aa3d e000 aabc d215 70bd 5828 47bb
000002c0: 263d 0a3d 7609 ad3d 9979 a9bb f81b 4dbd
000002d0: 3dcc d3bb 9f2f 2c3d 6f45 863d 001e afbd
000002e0: dc3c 5abd ec5e 88bd c9c4 61bb f279 ac3d
000002f0: f8ea 4cbc 5f7e 72bd 8ac0 a9bd 6e9a abbd
00000300: 37e9 30bd 75bf 62bc a285 82bd ba18 6e3d
00000310: 8df1 7bbd 719c 903c b88c 58bd ae37 4d3d
00000320: fd7b 193d 2e35 99bd fb1d 943d 96cf 8bbd
00000330: 6753 eabb bc51 aa3d fb25 013d 5192 0b3d
00000340: a56c 1fbd 1197 09bc 26dc 71bd e426 243d
00000350: b96f 783d e521 d33c 4695 993d f426 7d3d
00000360: 7fc3 a83d 14bf b4bd 576f 843c d65b 5bbd
00000370: a0ab 9c3b 3afe 1cbc ab45 683d 32da c039
00000380: b704 1e3d b9ff d43c acec acbd 8074 9c3d
00000390: 72f5 783d 6f0e acbd 040a a33c d146 8cbc
000003a0: afc8 203c 1e10 97bd a70b 073d 8fa6 92bd
000003b0: 86b0 933d da11 1a3d 4b07 8bbd 5829 0fbd
000003c0: e4b9 20bd f92e 8bbd f5eb b0bd b618 ab3c
000003d0: 5eba 243d c87c f43c 80c5 963d 9d62 b6bb
000003e0: 2cf7 cb3c 8933 343d 883b 523c 5262 86bd
000003f0: 1509 113d 7bb1 ecbb 20e6 603d 2460 af3d

conv_spatial.mlp.0.weight f4 [256, 2]
2.858948e-05 -4.474696e-05 4.6271118e-05 -2.9087605e-05 5.094333e-05 -4.017257e-06 8.044764e-05 -3.2925866e-05
-5.6992485e-05 -2.6492944e-06 0.00010366924 -3.9466697e-05 6.1765684e-05 5.9751113e-05 2.4976973e-05 -0.00011913265
0.00011757598 0.00013833305 0.0013069178 0.20179546 0.6867852 -0.73636645 0.14654838 -0.08060958
-0.026229544 0.014391725 -3.1772677e-05 -9.428547e-05 0.00044420466 -0.00041690454 2.7620496e-05 0.00011306198
-1.6186204e-05 -1.3743274e-05 -8.08147e-05 -7.492613e-05 9.45616e-05 7.307979e-05 1.5287123e-05 4.4620396e-05
0.18315412 -0.039451446 -0.00014786694 1.775854e-05 0.1314448 0.10099979 -2.1358812e-05 3.5369427e-05
-0.009072204 0.002285397 0.053909443 0.036281455 0.13196361 0.10969274 -7.5299664e-05 4.4211578e-05
0.13607495 -0.13757138 5.9175516e-05 -2.5031082e-05 -5.0408784e-05 8.413737e-05 -4.7803842e-05 7.364037e-05
-7.316501e-05 -3.5495737e-05 2.1753292e-05 1.7040203e-06 0.00012269741 -4.4279932e-05 -2.9760102e-05 0.0001287254
-5.9218502e-05 -9.706753e-05 -7.33716e-06 -0.00015519172 1.0515017e-05 -0.00010602846 2.7666887e-05 -6.440844e-06
5.690323e-05 -4.4423185e-05 1.0522173e-05 1.680048e-05 -0.017414527 0.12336689 1.0386882e-05 7.678138e-05
-6.639627e-05 -9.587775e-05 1.7589704e-05 6.200933e-05 6.297505e-05 -6.942066e-05 3.5465968e-07 -0.000107682186
5.0421782e-05 -2.76291e-05 -4.3714776e-06 -0.00014343066 5.053999e-05 -4.7156933e-05 1.2760786e-05 -4.579296e-05
-0.00010173123 0.00016445335 -5.9084712e-05 -7.1626084e-05 -0.08050786 -0.018835044 0.029153403 -0.00022454861
-3.7635076e-05 -1.8879966e-05 9.488196e-05 -3.941654e-05 -4.0906885e-05 -1.976803e-05 2.6102442e-05 0.00010015636
4.660664e-05 -0.0001470758 -0.20685615 0.021527946 -5.2635834e-05 9.522869e-05 -0.22454226 0.008134462
-0.07711693 -0.16566586 4.2011623e-05 -0.00015021309 -0.12256882 0.06564949 1.1065393e-06 -1.6533077e-05
-3.525861e-05 -5.5933317e-05 -0.00013695288 -3.7378613e-05 -7.427171e-05 -1.5071009e-05 3.253222e-05 -4.3965898e-05
-4.1139636e-05 -2.0853364e-05 4.647399e-05 1.0639818e-05 8.475704e-05 8.8678265e-05 -6.0447765e-05 3.3656048e-05
2.4344412e-05 9.53018e-05 9.9135e-05 -6.022221e-05 -0.056333974 0.10588288 -6.579931e-05 9.659987e-06
-9.94383e-05 -6.8373716e-05 -0.000114548195 0.000109548935 0.05131885 -0.029263476 -4.1148254e-05 7.05525e-05
-0.028525658 -0.036757007 0.00016520807 0.00011833151 -3.1734588e-05 -6.992538e-05 -1.4211947e-05 5.9726557e-05
-3.9552026e-05 2.3089948e-05 3.9262337e-05 7.528465e-05 -3.0080264e-05 -9.6523116e-05 -2.425788e-05 -2.837503e-05
-3.8833856e-05 2.4860024e-05 4.060132e-05 0.00014393825 -7.5655895e-05 -2.3994155e-05 2.931805e-05 5.078115e-05
6.536095e-05 9.6138036e-05 -1.5981828e-05 3.0168014e-05 0.00010781532 1.2666545e-05 9.111425e-05 -1.9284238e-05
-1.7306716e-05 2.6182579e-05 -8.97253e-05 7.3318283e-06 0.00010333546 -1.8480276e-05 9.258548e-05 8.6902925e-05
0.023950439 0.1666737 4.7718877e-05 5.4471304e-05 -5.2192954e-05 3.3774122e-05 -7.51736e-05 -1.0893852e-05
-3.966504e-05 5.6261156e-06 8.3465915e-05 -3.3604197e-06 0.000112032765 -1.44909245e-05 2.5958761e-05 -0.000119445715
-2.3925288e-05 -4.1236595e-05 0.1377941 0.058433566 -0.000107637505 -7.9481935e-05 3.237451e-05 5.8948408e-05
-4.959178e-05 -6.0360442e-05 -0.008483146 -0.18240258 -1.568461e-05 -2.9949068e-05 -0.015084531 0.09891127
7.4482195e-05 4.2665022e-05 -5.0335575e-06 6.863629e-05 -3.56649e-05 -5.059387e-06 3.8112685e-05 -0.00015028617
-2.8366276e-05 -0.00016805441 -6.244058e-05 0.00010945277 -8.2845945e-05 8.6176995e-05 -0.14257485 0.036987938
00000000: 71d3 ef37 afae 3bb8 3c13 4238 2801 f4b7
00000010: fcab 5538 facb 86b6 ffb5 a838 e119 0ab8
00000020: 370b 6fb8 88ca 31b6 0069 d938 0b89 25b8
00000030: 3388 8138 459d 7a38 a485 d137 dbd6 f9b8
00000040: 2093 f638 7f0d 1139 e24c ab3a 78a3 4e3e
00000050: 28d1 2f3f 8382 3cbf c710 163e a316 a5bd
00000060: 57df d6bc 45cb 6b3c a743 05b8 20bb c5b8
00000070: 24e4 e839 fb93 dab9 90b2 e737 b01b ed38
00000080: 9cc7 87b7 ea92 66b7 107b a9b8 a921 9db8
00000090: 5f4f c638 6a42 9938 d93c 8037 c926 3b38
000000a0: c18c 3b3e d797 21bd bb0c 1bb9 2df8 9437
000000b0: 7799 063e fad8 ce3d b32b b3b7 a259 1438
000000c0: 95a3 14bc 99c6 153b 26d0 5c3d dd9b 143d
000000d0: 7821 073e 96a6 e03d 33ea 9db8 d26f 3938
000000e0: 3b57 0b3e 83df 0cbe 3a33 7838 d7f9 d1b7
000000f0: 056e 53b8 e872 b038 fc80 48b8 5f6f 9a38
00000100: 2a70 99b8 42e1 14b8 d77a b637 b1b5 e435
00000110: 56a8 0039 37b9 39b8 55a5 f9b7 76fa 0639
00000120: 6261 78b8 bc90 cbb8 b931 f6b6 f6ba 22b9
00000130: a769 3037 995b deb8 3016 e837 6e1e d8b6
00000140: 61ab 6e38 0853 3ab8 6488 3037 c2ee 8c37
00000150: e9a8 8ebc c8a7 fc3d 5243 2e37 b105 a138
00000160: 3a3e 8bb8 fa11 c9b8 9a8d 9337 010b 8238
00000170: 7911 8438 ef95 91b8 0e68 be34 6fd3 e1b8
00000180: fa7b 5338 0ac5 e7b7 b5ae 92b6 e065 16b9
00000190: e7fa 5338 5fca 45b8 2917 5637 d111 40b8
000001a0: 8a58 d5b8 1c71 2c39 bad1 77b8 f635 96b8
000001b0: 4ee1 a4bd f34b 9abc 1ed3 ee3c cf74 6bb9
000001c0: 5bda 1db8 6b60 9eb7 5dfb c638 3053 25b8
000001d0: 6f93 2bb8 85d3 a5b7 91f6 da37 090b d238
000001e0: 807b 4338 5c38 1ab9 19d2 53be 605b b03c
000001f0: 4cc5 5cb8 83b5 c738 68ee 65be 6846 053c
00000200: 7bef 9dbd 50a4 29be a335 3038 8582 1db9
00000210: 5d05 fbbd 3d73 863d 6784 9435 83b0 8ab7
00000220: a5e2 13b8 f199 6ab8 029b 0fb9 fbc6 1cb8
00000230: 52c2 9bb8 7ed9 7cb7 3573 0838 0668 38b8
00000240: 598d 2cb8 42ee aeb7 11ed 4238 ac81 3237
00000250: 97bf b138 c8f8 b938 4b89 7db8 e829 0d38
00000260: 3a37 cc37 c4dc c738 b3e6 cf38 1b97 7cb8
00000270: 74be 66bd 20d9 d83d bcfd 89b8 5411 2237
00000280: 8889 d0b8 dc63 8fb8 9839 f0b8 a3bd e538
00000290: b733 523d f5b9 efbc 9a96 2cb8 96f5 9338
000002a0: a4ae e9bc 848e 16bd b43b 2d39 bf28 f838
000002b0: c11a 05b8 e7a4 92b8 d96f 6eb7 e782 7a38
000002c0: aae4 25b8 49b1 c137 9dad 2438 24e2 9d38
000002d0: e054 fcb7 746c cab8 677d cbb7 ea06 eeb7
000002e0: 89e1 22b8 7f8a d037 564b 2a38 21ee 1639
000002f0: 73a9 9eb8 0e47 c9b7 08f0 f537 d8fd 5438
00000300: 6512 8938 b79d c938 b710 86b7 5111 fd37
00000310: e91a e238 6682 5437 9714 bf38 96c4 a1b7
00000320: e42d 91b7 a9a2 db37 e72a bcb8 ed03 f636
00000330: cdb5 d838 1706 9bb7 732a c238 a73f b638
00000340: b633 c43c 83ac 2a3e c125 4838 1e78 6438
00000350: c2e9 5ab8 b0a8 0d38 85a6 9db8 bdc4 36b7
00000360: 035e 26b8 f7c7 bc36 6c0a af38 9283 61b6
00000370: 22f3 ea38 0c1e 73b7 04c2 d937 ee7e fab8
00000380: 2ab3 c8b7 75f5 2cb8 e619 0d3e 0958 6f3d
00000390: 72bb e1b8 8aaf a6b8 dec9 0738 5f3f 7738
000003a0: c500 50b8 882b 7db8 e5fc 0abc bec7 3abe
000003b0: 7292 83b7 223b fbb7 1c25 77bc fe91 ca3d
000003c0: 5333 9c38 38f3 3238 eee5 a8b6 d4f0 8f38
000003d0: e596 15b8 cec3 a9b6 2fdb 1f38 2396 1db9
000003e0: 1df4 edb7 c337 30b9 88f2 82b8 028a e538
000003f0: 94bd adb8 ecb9 b438 24ff 11be aa80 173d

conv_spatial.mlp.2.weight f4 [256, 256]
-0.012568776 -0.010786297 0.039203897 0.010260137 -0.004192693 -0.00519574 0.03767506 -0.0012940214
0.01939912 0.050700452 0.01469772 -0.088988274 0.04046114 0.010383205 -0.021042887 0.009904841
0.045879334 -0.012435152 -0.008698861 0.028768696 -0.21822691 -0.048234228 -0.04498093 -0.037734177
0.07101038 -0.058192756 -0.031899262 0.00963384 -0.16325814 0.066563666 0.031392485 0.047483653
-0.029925825 0.019268386 0.0029792052 -0.051435042 0.022563048 0.05353366 0.0027436882 -0.030995388
0.04789025 -0.005032549 0.10752333 -0.018574283 -0.0036916644 0.05698859 0.068293035 -0.041441437
-0.021819197 0.02116335 -0.03654094 -0.023686815 -0.025596961 -0.05033501 0.106007695 -0.01457051
-0.05043413 0.0080504455 0.029599804 -0.002925539 0.0050662314 0.18030187 -0.015445808 0.19752477
0.046634153 -0.018344933 0.10988278 -0.023604672 -0.021886768 0.02711102 0.043050617 0.020172657
0.0046488815 -0.023140453 -0.041278593 -0.08857751 -0.007881132 -0.02785283 0.056297496 0.008265396
0.05201003 -0.030194838 -0.10029698 -0.014301507 0.028170448 0.022754733 0.016733373 0.039178953
-0.019480301 -0.048761215 -0.0018284023 -0.023867156 0.0009167303 -0.04184203 0.013650038 0.0103530595
0.0044482355 0.049631957 0.0056188935 -0.012623276 -0.024989909 -0.024113396 0.02031606 0.04705267
0.07408488 -0.016294945 -0.0003649457 -0.047281403 -0.029768651 -0.05340516 0.027637424 0.015603186
-0.049151253 -0.11275036 -0.043006986 -0.020754961 0.030876378 -0.121878 -0.029507896 0.0023673647
-0.0050262725 -0.006273277 -0.0029802069 0.031796683 0.0006005516 -0.026255481 0.0013324042 0.1622076
0.1077391 0.040947262 0.004391334 -0.008047094 0.0136707565 -0.014106206 -0.028867688 -0.017128823
-0.0067043807 0.05328298 -0.03384594 -0.056496598 -0.02900239 -0.02374483 0.103488915 -0.05381632
-0.013642389 0.05964976 -0.030087166 -0.052553605 -0.019214768 -0.04155629 -0.00971752 0.007424117
-0.031684324 -0.0037105887 -0.023219183 0.028983092 -0.008622725 0.010114851 -0.018580543 0.0334738
-0.082531914 0.05888869 0.1772007 -0.12050142 0.016780382 0.057452537 0.0030914587 -0.015999548
0.0035928725 -0.1278216 0.04515913 0.039954938 0.035919145 -0.120935656 0.032533012 -0.030274253
0.006932239 0.01647762 0.12475116 0.014707497 0.03503966 -0.037727732 -0.023651019 -0.023604447
-0.02278896 0.010319966 0.1069917 0.026527083 0.11903942 -0.004147376 -0.07571172 0.11595937
0.012312629 -0.030247545 0.05043368 -0.040505398 -0.04238116 -0.10675339 0.015335164 0.01657077
0.011430642 0.042520184 0.10629434 0.002435321 0.022821007 -0.013434838 -0.068928614 0.027015725
-0.028825438 -0.01860727 -0.04151759 0.0033313916 -0.022651128 -0.1940081 -0.057901677 -0.014374042
0.036348883 0.002509403 -0.0067378245 -0.031333335 -0.034949824 0.017892625 0.14145698 0.030935282
0.022797827 0.022186209 0.0019305836 0.003985625 0.0057236226 -0.034565013 -0.024068575 -0.02136596
0.1303011 -0.032643273 -0.019131903 0.14101666 0.019978628 -0.020906074 -0.16080217 -3.9674534e-05
0.02295561 -0.065934256 0.090780996 0.033202417 -0.114865474 -0.04317088 0.11250015 -0.020954093
-0.06659374 -0.16694726 0.018746113 -0.032880027 -0.051263772 0.21905649 0.03182014 -0.042633373
00000000: 44ed 4dbc 02b9 30bc 4494 203d 221a 283c
00000010: dc62 89bb 0741 aabb 2a51 1a3d 279c a9ba
00000020: e7ea 9e3c 47ab 4f3d b5ce 703c 7c3f b6bd
00000030: 95ba 253d 511e 2a3c 2262 acbc ea47 223c
00000040: f8eb 3b3d cfbc 4bbc ab85 0ebc 54ac eb3c
00000050: e076 5fbe 4191 45bd ec3d 38bd 278f 1abd
00000060: e46d 913d 875b 6ebd cda8 02bd 41d7 1d3c
00000070: 242d 27be 8852 883d 6895 003d 387e 423d
00000080: 0127 f5bc bcd8 9d3c c53e 433b 8dad 52bd
00000090: 24d6 b83c 1c46 5b3d 73cf 333b 0aea fdbc
000000a0: 9128 443d 15e8 a4bb 3135 dc3d 1829 98bc
000000b0: daef 71bb de6c 693d 38dd 8b3d 7fbe 29bd
000000c0: 2cbe b2bc c35e ad3c f4ab 15bd da0a c2bc
000000d0: b8b0 d1bc 152c 4ebd 901a d93d 26b9 6ebc
000000e0: 0594 4ebd 04e6 033c 4a7b f23c 66ba 3fbb
000000f0: a102 a63b 0ea1 383e 6a10 7dbc ef43 4a3e
00000100: 7403 3f3d 1d48 96bc 390a e13d 965e c1bc
00000110: e14b b3bc ee17 de3c d855 303d 2141 a53c
00000120: a555 983b 0c91 bdbc be13 29bd 2068 b5bd
00000130: dd1f 01bc 9e2b e4bc 3498 663d 956b 073c
00000140: 7808 553d 2a5b f7bc 8168 cdbd de50 6abc
00000150: b6c5 e63c 2268 ba3c 6d14 893c 1c7a 203d
00000160: 2795 9fbc d7b9 47bd 00a7 efba 0e85 c3bc
00000170: bb50 703a 8c62 2bbd 69a4 5f3c e19f 293c
00000180: 81c2 913b e14a 4b3d b21e b83b dbd1 4ebc
00000190: a3b7 ccbc 7589 c5bc de6d a63c 4dba 403d
000001a0: d0b9 973d fa7c 85bc 2f56 bfb9 25aa 41bd
000001b0: 63dd f3bc 5ebf 5abd e167 e23c 81a4 7f3c
000001c0: d352 49bd a9e9 e6bd 1828 30bd 4f06 aabc
000001d0: 75f0 fc3c 2c9b f9bd 8bba f1bc ca25 1b3b
000001e0: 6eb3 a4bb 1090 cdbb 934f 43bb 3d3d 023d
000001f0: 566e 1d3a bc15 d7bc 11a4 ae3a c019 263e
00000200: 51a6 dc3d 51b8 273d 2ee5 8f3b f5d7 03bc
00000210: 4ffb 5f3c b71d 67bc ee7b ecbc bf51 8cbc
00000220: 6cb0 dbbb 413f 5a3d 0aa2 0abd fa68 67bd
00000230: 6c96 edbc 8584 c2bc fff1 d33d 806e 5cbd
00000240: 5484 5fbc 4f53 743d 5c79 f6bc 7342 57bd
00000250: 4a68 9dbc ee36 2abd 3c36 1fbc 0246 f33b
00000260: 6cc7 01bd 592d 73bb 2836 bebc f36d ed3c
00000270: 5446 0dbc c3b8 253c 3936 98bc d31b 093d
00000280: 7e06 a9bd 4435 713d 1a74 353e 73c9 f6bd
00000290: 0377 893c 5a53 6b3d 129a 4a3b 7c11 83bc
000002a0: 6676 6b3b aae3 02be c8f8 383d caa7 233d
000002b0: f41f 133d 1dad f7bd 5641 053d b601 f8bc
000002c0: d627 e33b 13fc 863c 897d ff3d b7f7 703c
000002d0: bf85 0f3d 6588 1abd c8bf c1bc 1d5e c1bc
000002e0: eaaf babc 1315 293c 771e db3d 534f d93c
000002f0: f0ca f33d b6e6 87bb bf0e 9bbd 1b7c ed3d
00000300: e9ba 493c b3c9 f7bc 8c93 4e3d fde8 25bd
00000310: de97 2dbd 85a1 dabd 5740 7b3c 6cbf 873c
00000320: 9647 3b3c a529 2e3d d9b0 d93d e899 1f3b
00000330: 1ff3 ba3c cb1d 5cbc 722a 8dbd 1550 dd3c
00000340: 5323 ecbc 466e 98bc 590e 2abd 7a53 5a3b
00000350: dc8e b9bc 0faa 46be 4f2a 6dbd 1a81 6bbc
00000360: 91e2 143d cc74 243b f8c8 dcbb 6257 00bd
00000370: 8c27 0fbd 8e93 923c 19da 103e fd6b fd3c
00000380: 82c2 ba3c dabf b53c a30b fd3a d999 823b
00000390: 3a8d bb3b 0b94 0dbd 762b c5bc aa07 afbc
000003a0: a76d 053e f4b4 05bd 82ba 9cbc ac66 103e
000003b0: 38aa a33c 3743 abbc 53a9 24be 3568 26b8
000003c0: 670d bc3c 8a08 87bd 63eb b93d 42ff 073d
000003d0: 973e ebbd f3d3 30bd 7b66 e63d eba7 abbc
000003e0: 4c62 88bd 39f4 2abe 7391 993c 35ad 06bd
000003f0: f6f9 51bd 5850 603e d655 023d 55a0 2ebd

conv_spatial.mlp.4.weight f4 [2, 256]
-0.1564696 5.9616345e-05 0.0002045373 0.056909405 0.053730775 8.915661e-05 2.438821e-05 0.11822176
-6.8328496e-05 7.8733996e-05 -7.604123e-05 -4.1673855e-05 0.048857827 8.7548455e-05 -0.00014381368 -0.00011773602
3.20551e-05 5.7676156e-05 0.00010800843 6.595034e-05 0.00027249474 -4.917455e-05 2.1450322e-05 0.13184398
-0.00014519379 -0.12700067 7.86484e-05 -0.00013674708 -8.432066e-05 -6.363399e-05 -9.8429744e-05 -0.0002789434
5.590681e-05 -9.986728e-05 -7.4044954e-05 0.0003352741 5.2049716e-05 -0.00017860427 5.7930047e-05 -0.00015799486
0.00020081001 0.00020230896 -0.00029220703 -6.846657e-05 0.00010162476 0.00010926337 8.69682e-05 -0.0002587739
7.3827956e-05 -0.000106750245 -4.382606e-05 -0.07066001 -0.00017498242 0.00026808056 0.0003277536 0.0001836326
-0.1258702 0.00022584459 5.881922e-05 -8.622778e-05 0.00012317664 0.00020065012 7.8393154e-05 -0.00018339034
0.0002830384 -0.00017671996 6.549295e-05 8.6467306e-05 0.12528454 -4.6070283e-05 0.00021855663 -9.195863e-05
-7.442525e-05 0.00012773598 0.00013285044 -0.00023454873 -7.1530917e-06 0.00020689347 0.00013812704 -6.853707e-05
-0.00018732161 0.00031891614 -0.00014863489 -9.6292075e-05 -0.00013539288 0.0002931671 -8.4428044e-05 -0.047225546
-0.00020692029 -5.9643306e-05 0.00022843316 0.036512915 -0.00012604665 8.9286295e-05 3.9679122e-05 0.063924536
0.12698069 5.8086072e-05 0.10464104 -0.00012551651 -0.000108504384 1.4894378e-05 0.00013534425 -6.8730275e-05
6.0138966e-05 8.3852785e-05 -0.095016785 -0.11565134 0.111382484 -9.635987e-05 0.00018025804 0.000109857654
0.1479847 0.0003275399 -0.00014450784 -0.0001468876 -0.00020208192 -0.0003372749 3.6197092e-05 -8.151146e-05
4.542185e-05 -9.7822856e-05 -0.08065269 0.00010197607 6.7187946e-05 0.00013019942 0.00012087717 -9.5771604e-05
0.16123033 3.2686585e-05 9.82969e-05 0.02486306 1.4466624e-05 0.00026837745 5.6637877e-05 -0.00027552442
0.00020856794 -0.00016343512 -7.409277e-05 7.38239e-05 -0.00015068552 0.00018224369 -0.00011159585 -0.10516292
0.08239821 0.00012224329 -0.0001448172 -6.600369e-05 -0.0002829781 5.9007587e-05 0.00010167754 -0.14533082
0.026202258 -5.580817e-05 -0.020543514 -7.565601e-05 0.00011477873 -0.00012123652 0.00014337189 -0.000177457
-0.0003121272 -0.047221623 -0.00013010624 0.14787766 -0.00010170343 7.148862e-05 -0.00012875885 -6.99072e-05
0.00018089122 7.279408e-05 -3.8068056e-06 -0.0001568819 0.00011387127 -4.4028216e-06 0.00016036812 0.00014818081
-0.00026438502 8.072284e-05 -8.7196044e-05 0.06114306 -0.11223236 -0.00012198857 0.05483795 -0.00010720132
0.00016222215 -7.153866e-05 0.06438567 0.0001167075 -0.00021807068 -0.00012682106 0.00022465811 0.00029276707
0.00016688033 6.742042e-05 -0.0002914862 5.0623963e-05 -9.553745e-05 -0.00026212825 -0.010345971 0.00018531685
6.385407e-05 0.00015249022 0.00013763549 6.3405816e-05 0.00016560232 0.04921823 -0.0002702628 0.00015126858
-0.00024290975 -0.00021919346 -9.826651e-05 4.8945258e-05 -9.331394e-05 -9.25623e-05 -0.1104746 -0.12352986
0.00034298765 7.935423e-05 6.298807e-05 -7.936783e-06 -0.00028346948 -0.060889147 0.13175185 -7.0746675e-05
2.886964e-05 -0.00014011862 -0.061623186 0.00021770244 0.000113825314 -8.68622e-05 -0.00021004195 0.00012161923
0.16310965 0.00010276164 -0.000112287125 0.00013529582 -0.00010560458 -0.00014180143 -0.00031063342 -0.00011613013
-7.533447e-05 0.029284585 -6.713164e-05 -7.9231235e-05 -8.561664e-05 -0.12989552 0.00010628606 -0.0001932042
6.8587346e-05 -0.00019129307 -0.00017274857 -0.056595635 0.00013232324 -7.319834e-05 -0.04392698 -0.00027342094
00000000: 9139 20be 900c 7a38 1079 5639 d619 693d
00000010: cd14 5c3d 97f9 ba38 4895 cc37 401e f23d
00000020: 954b 8fb8 fe1d a538 5378 9fb8 f6ca 2eb8
00000030: 251f 483d 389a b738 b1cc 16b9 0be9 f6b8
00000040: e772 0638 4de9 7138 9682 e238 d24e 8a38
00000050: a0dd 8e39 c540 4eb8 37f0 b337 1c02 073e
00000060: 293f 18b9 770c 02be 0af0 a438 c463 0fb9
00000070: 4fd5 b0b8 3d73 85b8 116c ceb8 263f 92b9
00000080: 7b7d 6a38 d66f d1b8 9548 9bb8 bac7 af39
00000090: f54f 5a38 b847 3bb9 eaf9 7238 6cab 25b9
000000a0: 8790 5239 e622 5439 5d33 99b9 b695 8fb8
000000b0: 611f d538 5324 e538 b262 b638 0cac 87b9
000000c0: 15d4 9a38 1adf dfb8 e0d1 37b8 32b6 90bd
000000d0: 7c7b 37b9 2a8d 8c39 58d6 ab39 808d 4039
000000e0: 1ee4 00be b2d0 6c39 a8b4 7638 30d5 b4b8
000000f0: fa28 0139 9b65 5239 0167 a438 784c 40b9
00000100: c564 9439 e74d 39b9 4359 8938 c855 b538
00000110: 974a 003e 973b 41b8 592c 6539 ead9 c0b8
00000120: c014 9cb8 def0 0539 c54d 0b39 32f1 75b9
00000130: 9704 f0b6 8bf1 5839 32d6 1039 8fbb 8fb8
00000140: c36b 44b9 3334 a739 e0da 1bb9 6af0 c9b8
00000150: 40f8 0db9 39b4 9939 f60e b1b8 936f 41bd
00000160: bef8 58b9 8329 7ab8 8f87 6f39 918e 153d
00000170: 642b 04b9 373f bb38 226d 2638 deea 823d
00000180: 3a07 023e 72a1 7338 0b4e d63d 159d 03b9
00000190: d98c e3b8 dee2 7937 32eb 0d39 4923 90b8
000001a0: b93d 7c38 1fda af38 2998 c2bd 9cda ecbd
000001b0: 801c e43d d014 cab8 a603 3d39 6163 e638
000001c0: 4d89 173e a9b9 ab39 0787 17b9 d705 1ab9
000001d0: f4e5 53b9 45d4 b0b9 55d2 1738 22f1 aab8
000001e0: 5783 3e38 3f26 cdb8 3d2d a5bd fcdb d538
000001f0: 41e7 8c38 2486 0839 707f fd38 fdd8 c8b8
00000200: 9019 253e f418 0938 bf24 ce38 9ead cb3c
00000210: adb5 7237 03b5 8c39 758e 6d38 4374 90b9
00000220: 08b3 5a39 c85f 2bb9 4162 9bb8 e8d1 9a38
00000230: 5601 1eb9 ab18 3f39 9108 eab8 a85f d7bd
00000240: 65c0 a83d 6f2e 0039 12da 17b9 766b 8ab8
00000250: ad5c 94b9 ea7e 7738 b73b d538 9ad1 14be
00000260: 1ea6 d63c 9113 6ab8 df4a a8bc 83a9 9eb8
00000270: 5db5 f038 5c40 feb8 1956 1639 c013 3ab9
00000280: 01a5 a3b9 766b 41bd 216d 08b9 3e6d 173e
00000290: 9d49 d5b8 29ec 9538 7103 07b9 249b 92b8
000002a0: 9ead 3d39 06a9 9838 6c78 7fb6 aa80 24b9
000002b0: 2cce ee38 f3bb 93b6 7d28 2839 fc60 1b39
000002c0: 289d 8ab9 bf49 a938 05dd b6b8 2571 7a3d
000002d0: 14da e5bd 1dd4 ffb8 c29d 603d 45d1 e0b8
000002e0: 2d1a 2a39 0707 96b8 a2dc 833d ddc0 f438
000002f0: e7a9 64b9 45fb 04b9 3492 6b39 887e 9939
00000300: 99fc 2e39 1064 8d38 9ed2 98b9 1155 5438
00000310: 475b c8b8 426e 89b9 2682 29bc 9d51 4239
00000320: 65e9 8538 c8e5 1f39 3f52 1039 bdf8 8438
00000330: 89a5 2d39 0e99 493d 0fb2 8db9 da9d 1e39
00000340: 97b5 7eb9 4cd7 65b9 6e14 ceb8 924a 4d38
00000350: 8ab1 c3b8 021e c2b8 8240 e2bd 39fd fcbd
00000360: 06d3 b339 fa6a a638 7618 8438 3928 05b7
00000370: a19e 94b9 e666 79bd f5e9 063e d55d 94b8
00000380: 142d f237 ceec 12b9 9868 7cbd 0e47 6439
00000390: 80b5 ee38 ca29 b6b8 b53e 5cb9 d40d ff38
000003a0: 3706 273e bc81 d738 b17b ebb8 32de 0d39
000003b0: 0778 ddb8 88b0 14b9 83dc a2b9 e48a f3b8
000003c0: e3fc 9db8 3ae6 ef3c 06c9 8cb8 f228 a6b8
000003d0: 158d b3b8 5503 05be e5e5 de38 dc96 4ab9
000003e0: 8dd6 8f38 d895 48b9 d723 35b9 d3d0 67bd
000003f0: 40c0 0a39 0f82 99b8 c7ec 33bd f059 8fb9

tail.0.weight f4 [256, 256]
-0.020316549 0.017425612 0.011976868 -0.016268976 0.026535086 -0.058702454 -0.024933882 0.04134886
0.047741495 -0.0447333 -0.027571842 -0.03208132 0.013302609 -0.024483807 -0.03420578 0.016470663
-0.014728181 0.025862217 -0.00035181642 0.038374 -0.040330917 -0.041253716 -0.01124642 0.04648274
0.059159912 -0.05824723 -0.020751141 -0.053400718 -0.060793184 0.038146414 0.044330582 -0.05111169
-0.019235432 -0.032548323 0.022850826 -0.01815316 0.038422957 -0.03065645 0.055747338 0.003985919
-0.027779423 0.007835969 -0.03731025 -0.06027001 -0.052768655 -0.01569423 0.044984795 -0.042596176
0.029725194 0.054535642 0.027893893 0.0024262667 0.033782728 0.024947561 -0.04901596 0.057411343
-0.060790733 -0.053143337 0.04454679 0.015929855 0.04256384 0.06118565 0.0623108 -0.03776127
-0.023449793 0.03726185 -0.010715671 -0.006804593 -0.017472312 0.0045296177 0.051468626 -0.046075054
0.054105185 -0.013296902 0.027726337 -0.013307422 -0.056759812 0.011879742 0.03176672 0.015822083
0.0188374 -0.002594754 -0.059629127 -0.059657305 -0.05186718 -0.051842466 0.0179355 0.020662248
0.03140962 -0.028995603 0.0114512 -0.025659174 0.023591943 0.026949897 0.054214768 0.0042160675
0.000733532 -0.04116424 0.011546724 -0.03494923 0.015471414 -0.05373992 -0.04027172 -0.026728444
-0.0052473173 -0.03731198 -0.058758684 0.006256357 -0.047864072 0.051136047 0.014968641 0.025949009
-0.015464999 0.008411869 0.035433777 0.036340505 0.06242805 0.030316755 -0.006619081 0.018940218
0.04611996 0.040142976 0.034960017 0.02403155 -0.039178982 -0.044469677 -0.0059136897 0.014366455
-0.012031108 -0.046287164 -0.055412114 0.01601258 -0.005268596 -0.035824426 0.0051456764 -0.050080635
-0.042764865 0.0037385896 0.039686926 -0.040968165 -0.010655381 0.03783612 -0.042106465 0.050057665
0.050749533 0.005321376 0.023821086 0.044711202 0.053060114 0.016201012 -0.0251133 0.027170569
0.013036683 -0.016206615 -0.01737795 -0.016439505 0.008210838 0.051586866 0.052450918 0.009728707
0.0047645196 -0.004945919 -0.041599914 -0.0025536567 0.037468553 -0.004981838 0.038306847 -0.00254374
-0.0591107 -0.024484448 -0.038210496 -0.037976243 0.05318021 0.056235865 0.05041507 0.029285923
-0.048413895 -0.050765447 0.012317121 -0.020699777 -0.011572175 0.04575807 0.03607223 0.026102073
-0.029493243 -0.01729118 0.021902569 -0.062148586 0.054936618 -0.055957146 -0.0548665 0.042085797
-0.011161394 0.045119047 0.029699571 0.018991478 -0.02947677 0.042124465 0.021391183 0.0064066797
0.012751088 -0.04515928 -0.0017321035 -0.037975937 -0.046444356 0.053340398 -0.02549614 -0.026383929
-0.05165326 -0.034789726 -0.023829691 -0.041484408 -0.024254203 0.020091385 0.05568091 -0.0067858994
0.03901338 -0.004469402 0.048859008 -0.0013209209 -0.055478603 -0.004729897 -0.0380089 -0.019663341
0.0541906 0.038281277 0.05088976 0.02842898 -0.039435565 -0.0450956 0.056324005 0.03728748
-0.032521993 0.0005795583 0.016075492 0.03239292 0.013886288 0.012444131 -0.053432688 -0.050405055
-0.03130375 -0.01319807 0.039370276 -0.00087304413 -0.040005237 -0.030138068 0.034292214 -0.013072446
-0.01645144 0.061509795 -0.028442405 -0.04563445 0.016261585 0.061045878 0.044042565 -0.0073195696
00000000: e46e a6bc 28c0 8e3c a03a 443c 8446 85bc
00000010: 1c60 d93c fc71 70bd 2442 ccbc 6c5d 293d
00000020: 968c 433d 443a 37bd 58de e1bc b467 03bd
00000030: 30f3 593c 4492 c8bc 5c1b 0cbd 7ced 863c
00000040: 784e 71bc 00dd d33c 0074 b8b9 0e2e 1d3d
00000050: 0832 25bd a8f9 28bd e842 38bc b064 3e3d
00000060: aa51 723d a694 6ebd 4cfe a9bc b6ba 5abd
00000070: 4602 79bd 6a3f 1c3d fc93 353d 7e5a 51bd
00000080: a093 9dbc 6451 05bd a831 bb3c f0b5 94bc
00000090: 6461 1d3d 3c23 fbbc 5257 643d 509c 823b
000000a0: ac91 e3bc 7062 003c a2d2 18bd b0dd 76bd
000000b0: f223 58bd 3091 80bc fa41 383d 5479 2ebd
000000c0: 4082 f33c c460 5f3d bc81 e43c 0002 1f3b
000000d0: c25f 0a3d d45e cc3c f6c4 48bd 2828 6b3d
000000e0: b4ff 78bd d4ac 59bd b276 363d 547f 823c
000000f0: 6c57 2e3d ce9d 7a3d 9c39 7f3d 90ab 1abd
00000100: c819 c0bc e29f 183d c890 2fbc 10f9 debb
00000110: 1822 8fbc 306d 943b c4d0 523d 32b9 3cbd
00000120: 669d 5d3d 40db 59bc 5822 e33c 6007 5abc
00000130: fa7c 68bd 40a3 423c d21d 023d 509d 813c
00000140: e450 9a3c c00c 2abb ac3d 74bd 385b 74bd
00000150: ae72 54bd c458 54bd 78ed 923c e043 a93c
00000160: 60a7 003d 3088 edbc d09d 3b3c 3033 d2bc
00000170: e443 c13c 08c6 dc3c 4e10 5e3d f026 8a3b
00000180: 804a 403a d69b 28bd 782e 3d3c ec26 0fbd
00000190: d07b 7d3c 641e 5cbd f6f3 24bd 9cf5 dabc
000001a0: b0f1 abbb 72d4 18bd f2ac 70bd 2002 cd3b
000001b0: 1e0d 44bd 0874 513d 083f 753c 0493 d43c
000001c0: e860 7dbc f0d1 093c 0223 113d c8d9 143d
000001d0: 8eb4 7f3d d85a f83c e0e4 d8bb 8428 9b3c
000001e0: 48e8 3c3d f66c 243d 3c32 0f3d d0dd c43c
000001f0: 247a 20bd d625 36bd a0c7 c1bb 4861 6b3c
00000200: 201e 45bc 9c97 3dbd d0f7 62bd d02c 833c
00000210: 30a4 acbb a2bc 12bd 109d a83b 5a21 4dbd
00000220: 362a 2fbd 2003 753b c28e 223d 3cce 27bd
00000230: e893 2ebc 0cfa 1a3d d477 2cbd 4409 4d3d
00000240: bede 4f3d f05e ae3b 7024 c33c 1823 373d
00000250: 9055 593d fcb7 843c 68ba cdbc d094 de3c
00000260: d097 553c bcc3 84bc 345c 8ebc 24ac 86bc
00000270: c086 063c c04c 533d c6d6 563d 2865 1f3c
00000280: b01f 9c3b 6011 a2bb ac64 2abd 405b 27bb
00000290: a078 193d b03e a3bb a4e7 1c3d e0b4 26bb
000002a0: 101e 72bd 9c93 c8bc 9c82 1cbd fa8c 1bbd
000002b0: 7ed3 593d 9457 663d 0880 4e3d 08e9 ef3c
000002c0: a64d 46bd 6eef 4fbd c0cd 493c 9492 a9bc
000002d0: 3899 3dbc d06c 3b3d 7ac0 133d 04d4 d53c
000002e0: d09b f1bc 3ca6 8dbc 046d b33c 848f 7ebd
000002f0: 3805 613d 5233 65bd b2bb 60bd 2862 2c3d
00000300: 48de 36bc c0ce 383d 844c f33c 0494 9b3c
00000310: 4479 f1bc b48a 2c3d 903c af3c 20ef d13b
00000320: f0e9 503c f0f8 38bd c007 e3ba a88c 1bbd
00000330: 703c 3ebd 767b 5a3d 48dd d0bc 1c23 d8bc
00000340: 5e92 53bd ac7f 0ebd 7c36 c3bc 8eeb 29bd
00000350: c0b0 c6bc b096 a43c aa11 643d 405c debb
00000360: 7ecc 1f3d 1074 92bb 6220 483d c022 adba
00000370: 883d 63bd 40fd 9abb 38af 1bbd 0415 a1bc
00000380: f6f6 5d3d d4cc 1c3d c871 503d e4e3 e83c
00000390: 3087 21bd 2ab6 38bd 00b4 663d c2ba 183d
000003a0: c835 05bd 80ed 173a c0b0 833c 70ae 043d
000003b0: 5083 633c 78e2 4b3c 3cdc 5abd 8875 4ebd
000003c0: 5c38 00bd b83c 58bc ba42 213d 00dd 64ba
000003d0: 88dc 23bd 1ce4 f6bc fe75 0c3d d02d 56bc
000003e0: 2cc5 86bc b2f1 7b3d 0c00 e9bc 30eb 3abd
000003f0: 0437 853c 3e0b 7a3d fa65 343d 00d9 efbb
