logs/M3D30_r06/score.pt (torch, 732745 bytes, 10 tensors)

embed.0.W f4 [64]
5.2062507 -55.23808 -3.9713967 -14.254889 44.35194 12.423573 20.012754 -30.404106
-37.698383 27.46763 -12.371424 -16.939623 6.7945457 -29.820581 21.598038 -2.4243047
11.188756 2.8023295 -9.627754 -5.9533997 1.0380095 -27.620474 -26.157755 34.143326
-17.236221 -6.999742 26.974312 -56.586563 -37.912987 -5.6177526 5.065385 -50.889996
35.451405 -35.98317 -28.28476 -3.0706098 6.2583547 -7.8665338 49.028057 -53.932327
31.391151 51.426342 -24.838675 6.032666 22.298656 -34.685017 -58.358475 -15.357164
17.26532 -34.5525 -65.75209 18.887993 -12.3186 -32.255013 -1.4771087 8.3257265
-35.421673 -45.039513 9.525055 28.819298 15.959264 -6.286994 6.936391 -49.798664
00000000: 9b99 a640 cbf3 5cc2 5d2b 7ec0 0614 64c1
00000010: 6368 3142 f4c6 4641 1f1a a041 9c3b f3c1
00000020: 25cb 16c2 b5bd db41 5af1 45c1 5984 87c1
00000030: eb6c d940 8d90 eec1 c8c8 ac41 cf27 1bc0
00000040: 2505 3341 5e59 3340 480b 1ac1 4082 bec0
00000050: 7fdd 843f bbf6 dcc1 1543 d1c1 c492 0842
00000060: c8e3 89c1 e3fd dfc0 64cb d741 a458 62c2
00000070: e6a6 17c2 a1c4 b3c0 a217 a240 5b8f 4bc2
00000080: 3dce 0d42 c4ee 0fc2 3047 e2c1 df84 44c0
00000090: 7144 c840 a5ba fbc0 bb1c 4442 b4ba 57c2
000000a0: 1421 fb41 93b4 4d42 9bb5 c6c1 9a0b c140
000000b0: a663 b241 75bd 0ac2 146f 69c2 f2b6 75c1
000000c0: 601f 8a41 c335 0ac2 1281 83c2 9c1a 9741
000000d0: fc18 45c1 2205 01c2 e611 bdbf 2d36 0541
000000e0: cbaf 0dc2 7628 34c2 a066 1841 ec8d e641
000000f0: 2559 7f41 0e2f c9c0 eaf6 dd40 d531 47c2

embed.1.weight f4 [128, 128]
0.012656951 0.010391295 -0.0795237 0.008417473 0.08606694 0.034938134 0.007710239 -0.020337982
0.004983591 -0.017923547 -0.0008794256 -0.048391376 0.06908491 -0.077821866 -0.0026245369 -0.012795962
0.019809091 -0.051231023 0.035208285 -0.082745455 -0.023072375 0.002778847 -0.07004425 -0.06075998
-0.010081579 -0.07664341 -0.051403392 -0.029593756 -0.0060585146 0.016351871 -0.088387996 0.07272681
-0.0013540518 0.07290683 0.080234155 -0.023185529 0.04997361 -0.061781716 0.06616343 -0.081302986
0.054814316 -0.02744804 -0.0152888745 -0.050872173 0.021436382 0.030582627 -0.067738466 -0.04480918
-0.05519311 -0.01873262 -0.061852016 0.050622422 -0.041440215 -0.06495419 0.017692879 -0.086580075
0.069287404 -0.04483881 0.048969265 -0.065057084 -0.027210215 -0.005765162 -0.08729885 0.016377496
-0.06163514 -0.08343973 -0.07961684 -0.01549669 0.030901521 0.010147454 0.041692548 0.07923038
-0.08295174 -0.04729618 0.084587716 0.04861351 -0.039013114 0.04234244 0.07121343 0.014982003
-0.0441892 0.079901844 -0.00086134457 0.034906693 0.009005538 -0.024916817 0.069527745 0.07630996
-0.005275363 0.044712074 0.07719868 0.059816156 -0.07735462 0.032712728 -0.086390406 0.0780648
-0.050667632 -0.010846891 -0.05452991 0.0736018 -0.08620632 -0.04640862 0.08422302 -0.05546006
0.06520859 -0.02815637 0.042762928 0.08645344 -0.07137359 0.0354634 0.042513724 -0.043878198
-0.03507427 0.0038697761 -0.055949382 0.054202028 0.085632965 0.087328605 0.0107775815 -0.0680464
-0.008939842 0.034412395 -0.008256841 -0.08371044 -0.04399328 -0.03898672 0.0037779487 -0.019974139
0.03202009 -0.04593507 0.026197702 -0.034017447 -0.0349239 -0.04813992 -0.084692165 0.078181855
0.0879308 -0.03789955 0.0012081921 -0.012376833 0.06710694 0.012720657 0.069006 -0.011354751
-0.0850398 0.056706138 -0.04859564 -0.046313107 0.085069 -0.018044097 0.02584058 0.03642597
0.021938551 0.004544073 -0.030486079 -0.026249584 -0.08080441 -0.03023557 0.065138206 -0.043928523
-0.020188361 -0.046674505 0.06501257 0.013298257 -0.028511373 -0.05368265 -0.05938219 -0.011550502
0.04837222 0.06654007 0.07240071 0.0114079295 -0.0769711 0.005535251 0.055405878 -0.05534878
-0.019969082 0.041978735 -0.0073208967 0.068452805 -0.020622158 -0.00074076245 -0.08697598 -0.07504237
-0.060169987 0.039205693 0.007841568 -0.06533145 0.030866623 -0.06854659 0.06734639 -0.07512213
0.07532465 -0.038667023 -0.0024840194 0.06411443 0.054423865 0.057795394 0.01732484 0.030993339
0.042968903 0.06096515 0.06466237 -0.06397032 -0.034229532 0.063977554 -0.06281932 -0.05680955
0.040953398 0.049327977 0.0563946 0.03321673 -0.007415485 0.05914661 0.057857737 0.011027312
0.08769095 -0.023277894 0.08828899 0.008851228 -0.084967084 -0.06555758 0.0770761 0.06391212
0.007549712 0.0732037 0.0047554076 -0.063740656 0.04817961 -0.034373682 0.0054028784 -0.03101259
0.045070965 0.08573282 0.026823929 -0.054066766 0.02193478 0.030330883 0.034588855 0.086756
0.0684537 -0.026513793 -0.07801353 -0.06797847 0.049251333 0.0044680294 -0.031998582 0.041654266
0.0052988175 -0.04514747 0.08069061 -0.019819207 0.019914566 -0.035934824 -0.075336576 0.046548244
00000000: 1a5f 4f3c 4040 2a3c 52dd a2bd 71e9 093c
00000010: dd43 b03d 4a1b 0f3d 2ca6 fc3b d79b a6bc
00000020: 644d a33b 67d4 92bc 4189 66ba 0936 46bd
00000030: 647c 8d3d 1261 9fbd 6c00 2cbb 28a6 51bc
00000040: ad46 a23c 9fd7 51bd 9036 103d 7376 a9bd
00000050: 4702 bdbc 511d 363b 5c73 8fbd 75df 78bd
00000060: 352d 25bc 38f7 9cbd 5d8c 52bd 9b6e f2bc
00000070: 8186 c6bb 5cf4 853c c404 b5bd cbf1 943d
00000080: 707a b1ba 2d50 953d ce51 a43d 94ef bdbc
00000090: 21b1 4c3d d30e 7dbd b180 873d 2e82 a6bd
000000a0: fa84 603d b6da e0bc 307e 7abc 575f 50bd
000000b0: 5a9b af3c 6b88 fa3c 77ba 8abd d589 37bd
000000c0: 2c12 62bd 2775 99bc 8a58 7dbd 7559 4f3d
000000d0: 37bd 29bd b406 85bd a8f0 903c e550 b1bd
000000e0: 8ee6 8d3d e6a8 37bd ff93 483d a63c 85bd
000000f0: f5e7 debc afe9 bcbb bdc9 b2bd 192a 863c
00000100: 2175 7cbd 73e2 aabd 270e a3bd d4e5 7dbc
00000110: 3025 fd3c 8241 263c cec5 2a3d 8a43 a23d
00000120: 9ae2 a9bd a4b9 41bd 533c ad3d f61e 473d
00000130: 37cc 1fbd 446f 2d3d 59d8 913d 1377 753c
00000140: bcff 34bd 94a3 a33d dbcb 61ba 52fa 0e3d
00000150: f78b 133c 5a1e ccbc 9064 8e3d 6548 9c3d
00000160: f4dc acbb 0224 373d 571a 9e3d c901 753d
00000170: 196c 9ebd c8fd 053d 74ed b0bd 70e0 9f3d
00000180: dd88 4fbd 29b7 31bc c15a 5fbd 8abc 963d
00000190: f08c b0bd f716 3ebd 1e7d ac3d 162a 63bd
000001a0: 158c 853d 30a8 e6bc 2e28 2f3d 800e b13d
000001b0: 512c 92bd 1242 113d df22 2e3d a0b9 33bd
000001c0: 0aaa 0fbd 129c 7d3b 2e2b 65bd f202 5e3d
000001d0: 5660 af3d 57d9 b23d 7494 303c e95b 8bbd
000001e0: 6a78 12bc 03f4 0c3d b447 07bc 6170 abbd
000001f0: 4c32 34bd 8ab0 1fbd 7697 773b cea0 a3bc
00000200: 7f27 033d 6926 3cbd 909c d63c e155 0bbd
00000210: 5d0c 0fbd 5d2e 45bd 1673 adbd cf1d a03d
00000220: 1015 b43d 8f3c 1bbd 335c 9e3a 33c8 4abc
00000230: 5d6f 893d 4d6a 503c 0553 8d3d 4709 3abc
00000240: 5929 aebd b244 683d 390c 47bd d0b2 3dbd
00000250: a838 ae3d 37d1 93bc a0af d33c 6633 153d
00000260: 7ab8 b33c 72e6 943b f1bd f9bc 5e09 d7bc
00000270: c87c a5bd 96b0 f7bc 2e67 853d 65ee 33bd
00000280: 1062 a5bc c42d 3fbd 4f25 853d efe0 593c
00000290: af90 e9bc 57e2 5bbd bd3a 73bd 513e 3dbc
000002a0: f321 463d 2946 883d d346 943d 53e8 3a3c
000002b0: 06a3 9dbd 0d61 b53b 46f1 623d 67b5 62bd
000002c0: 3396 a3bc e5f1 2b3d 22e4 efbb fc30 8c3d
000002d0: cdef a8bc ba2f 42ba 7620 b2bd d0af 99bd
000002e0: ce74 76bd 2696 203d ec79 003c 7fcc 85bd
000002f0: 00dc fc3c 2862 8cbd e7ec 893d a2d9 99bd
00000300: cf43 9a3d 5061 1ebd eeca 22bb 6d4e 833d
00000310: 8feb 5e3d ddba 6c3d d3ec 8d3c bee5 fd3c
00000320: 2900 303d 98b6 793d b46d 843d df02 83bd
00000330: 4434 0cbd aa06 833d 6aa7 80bd 21b1 68bd
00000340: c0be 273d 220c 4a3d 06fe 663d 440e 083d
00000350: 99fd f2bb b743 723d 3cfc 6c3d e6ab 343c
00000360: 5097 b33d 48b1 bebc dcd0 b43d be04 113c
00000370: 3903 aebd 0d43 86bd 13da 9d3d 5ce4 823d
00000380: 9363 f73b d2eb 953d 40d3 9b3b 768a 82bd
00000390: fc57 453d 6bcb 0cbd a10a b13b 1d0e febc
000003a0: 559c 383d b094 af3d dbbd db3c 1d75 5dbd
000003b0: 91b0 b33c 7978 f83c 0bad 0d3d 21ad b13d
000003c0: 7431 8c3d 7433 d9bc 8fc5 9fbd 4c38 8bbd
000003d0: c4bb 493d 8c68 923b f210 03bd aa9d 2a3d
000003e0: b4a1 ad3b 8eec 38bd 1e41 a53d e45b a2bc
000003f0: df23 a33c 6530 13bd 104a 9abd 5fa9 3e3d

embed.1.bias f4 [128]
0.008985181 -0.007167029 0.0013214828 0.05277292 -0.082348384 0.06324155 -0.069064535 -0.075569384
-0.044100735 -0.059930436 -0.08368745 -0.012671165 0.04993564 -0.07577467 -0.008099571 0.010670939
0.06183049 -0.008610707 0.022693085 -0.077161156 -0.06633257 0.034998607 0.04612708 -0.075450905
-0.07356769 0.08814127 -0.038718887 0.014495144 -0.0038824307 -0.08435562 0.07477903 -0.08222627
-0.03362719 -0.073852286 -0.04071731 -0.04362443 0.01046855 -0.02421859 0.013133569 -0.055127803
0.07379973 0.03723599 0.042095944 0.012769758 0.008869319 -0.08075803 -0.057802 -0.026452783
-0.06466675 0.016860815 -0.063586414 -0.02964409 -0.052235316 0.05375037 0.06807376 -0.08305739
-0.029434483 0.00022370493 0.070848756 -0.0028605699 0.08061326 -0.0853455 0.030208943 -0.059419017
0.057915997 -0.039529983 0.062597394 -0.007180611 -0.07009754 -0.023031324 0.03463414 0.022044593
0.06807405 0.08787348 -0.0025635082 -0.058504596 -0.0025677546 -0.007338251 -0.029847112 -0.0019284185
0.040404107 -0.027788933 -0.005069739 -0.0093608145 -0.013175884 -0.029242147 -0.05888475 -0.056676943
0.08090861 0.053517953 -0.029649274 -0.016186412 0.0381239 -0.013075954 0.0005278893 0.04792164
-0.009200341 -0.08565645 0.0192992 -0.071212284 0.050521236 -0.084243216 0.05668599 0.025084466
-0.012580718 -0.079198 -0.08305043 0.051322922 0.066997185 0.00085126096 -0.014354837 -0.031113572
0.08642167 -0.013416859 -0.020481756 -0.06967965 0.059091672 -0.015624532 0.0037755463 0.029637864
-0.0654569 0.00038507467 -0.0880167 0.035100855 0.042591456 0.022630665 0.016471915 -0.055842698
00000000: 9536 133c 66d9 eabb 9b35 ad3a 6b28 583d
00000010: 45a6 a8bd c984 813d b571 8dbd 1fc4 9abd
00000020: f9a2 34bd 9e79 75bd 5364 abbd b89a 4fbc
00000030: 5089 4c3d c02f 9bbd 10b4 04bc 2ad5 2e3c
00000040: f841 7d3d ec13 0dbc d9e6 b93c ab06 9ebd
00000050: 5fd9 87bd b35a 0f3d c0ef 3c3d 0186 9abd
00000060: a8aa 96bd 6983 b43d b297 1ebd 0a7d 6d3c
00000070: 6170 7ebb a4c2 acbd c025 993d 3f66 a8bd
00000080: aabc 09bd de3f 97bd 32c7 26bd 88af 32bd
00000090: 4884 2b3c 1166 c6bc 2e2e 573c b1cd 61bd
000000a0: 5024 973d c484 183d cc6c 2c3d 3f38 513c
000000b0: 9f50 113c 7764 a5bd cac1 6cbd 82b3 d8bc
000000c0: 0070 84bd b11f 8a3c 9839 82bd 2ad8 f2bc
000000d0: b3f4 55bd 5929 5c3d 416a 8b3d fe19 aabd
000000e0: 9620 f1bc 5692 6a39 2719 913d 6678 3bbb
000000f0: 9118 a53d 9fc9 aebd bf78 f73c 5b61 73bd
00000100: 5339 6d3d 31ea 21bd 1033 803d 554b ebbb
00000110: 4d8f 8fbd 30ac bcbc 87dc 0d3d dd96 b43c
00000120: 686a 8b3d 03f7 b33d 8800 28bb 84a2 6fbd
00000130: c647 28bb b675 f0bb ee81 f4bc fdc2 fcba
00000140: c77e 253d 9ea5 e3bc 0e20 a6bb 1a5e 19bc
00000150: aadf 57bc 3a8d efbc 2331 71bd 1526 68bd
00000160: 6ab3 a53d a435 5b3d 09e3 f2bc 5e99 84bc
00000170: ce27 1c3d 873c 56bc 0d62 0a3a 7b49 443d
00000180: 07bd 16bc a66c afbd 5b19 9e3c bfd7 91bd
00000190: 5bef 4e3d b587 acbd 922f 683d f07d cd3c
000001a0: 5b1f 4ebc 9032 a2bd 5816 aabd fc37 523d
000001b0: d235 893d 2827 5f3a 8d30 6bbc e4e1 febc
000001c0: d8fd b03d 63d2 5bbc 5bc9 a7bc 34b4 8ebd
000001d0: 1c0a 723d 09fe 7fbc 286f 773b 1bcb f23c
000001e0: 440e 86bd d9e3 c939 1a42 b4bd eac5 0f3d
000001f0: 6174 2e3d f263 b93c 1cf0 863c 50bb 64bd

embed.3.weight f4 [256, 128]
-0.07292022 -0.007357175 0.06732354 -0.050866663 -0.07948193 -0.045152202 -0.0792126 -0.05633963
0.019005068 -0.07449654 -0.038221784 -0.06520786 0.06519788 0.031829458 0.033911586 0.070501395
-0.043317866 -0.004481316 0.027369447 0.064656645 0.04939853 -0.085218586 -0.010733949 -0.08585944
-0.024707103 0.019668965 -0.079047784 -0.066026896 -0.07229707 0.048996963 0.0053158873 -0.085106865
-0.04031566 0.018651487 0.06595272 -0.08731166 -0.025221696 0.023943614 -0.05569433 -0.022043012
0.0013376777 0.031447787 -0.016724523 0.031846516 -0.07025929 0.060466323 -0.030434145 -0.048836175
-0.0097924825 -0.064317554 0.0020909577 0.06304845 -0.021631785 0.07607921 0.052250247 0.08192878
-0.00017249651 -0.014948465 0.06696291 0.022690188 0.05930916 -0.037220504 0.052426632 0.005067937
-0.06301082 0.036092676 0.0139352335 0.028408546 0.003046037 0.04575505 -0.020660236 -0.013559905
0.025180444 0.043628458 0.0866765 -0.030177154 -0.022988398 0.013705807 0.028704036 0.047204398
-0.021532634 0.0035538434 0.035730865 -0.016308228 0.0524315 -0.03602077 -0.08236475 0.08079241
0.05018636 -0.039216734 0.06542357 0.059765484 -0.07350045 -0.074626535 -0.053761475 0.0053027794
-0.0013739978 0.013289575 -0.010492058 -0.0030488397 0.08037684 -0.009500932 0.08017728 -0.06256981
0.037439995 -0.04373513 0.031249613 0.022974236 -0.053288557 0.07525376 -0.08142839 -0.07151874
0.034674253 0.049258284 0.0009127743 0.0861941 0.07696397 0.013257723 0.021822404 0.024666464
-0.06511336 -0.07615341 -0.06027309 0.06997674 -0.07319564 0.017738817 -0.05932882 0.0467368
0.010611523 -0.04321643 -0.00468321 -0.04210865 -0.0256529 -0.009160712 -0.040444538 -0.047161363
-0.06926819 0.037281204 0.025489107 -0.077359825 0.011356289 -0.055090483 0.077745795 -0.026613427
0.010434358 -0.0037103135 0.07831956 0.01670228 -0.05386537 -0.056105524 0.038489744 -0.076487966
-0.07058786 -0.014483427 0.00076712534 0.06375367 0.034642242 -0.00086709764 0.037672687 0.07232576
0.057963315 0.04451764 0.06710951 -0.056490526 -0.06008657 -0.01395401 0.02510734 -0.0697739
-0.049878612 -0.055902567 0.024311071 -0.026158484 -0.049359944 0.07165238 -0.0447381 -0.031604573
0.08169372 -0.08252505 -0.08096929 -0.036308423 -0.068563856 0.024583772 -0.028953662 -0.021535048
0.038198058 0.038903575 -0.039606385 0.018164765 -0.020897377 -0.053629283 0.008217455 -0.06266038
-0.015815036 -0.026078679 0.022201432 0.04707314 -0.06958264 0.06454838 -0.0034788956 0.053629305
0.059335966 0.06455901 -0.05837308 0.084335744 0.03155796 -0.053077012 -0.011443375 -0.043943703
0.04369193 -0.03508427 -0.038004972 -0.0059287446 -0.082961656 0.015858836 -0.063271806 0.011769908
0.027588073 0.046481304 0.02739465 0.04389942 0.016555872 0.034389857 -0.060528617 0.08208515
0.0072097243 0.055169404 -0.084137455 0.061732255 -0.033023592 -0.039697357 0.067517936 -0.057350133
0.072146386 0.051255763 0.07762087 0.035341945 0.070936725 -0.036588404 -0.045666922 0.06008561
-0.05293268 0.00019647807 -0.03127194 0.013543637 -0.020888137 -0.04684794 0.03476133 -0.04747713
-0.054212574 0.013107332 0.013591937 0.05617256 -0.07330999 -0.0057772477 -0.010447751 0.023662494
00000000: 3257 95bd 7514 f1bb ede0 893d 9059 50bd
00000010: 6cc7 a2bd 84f1 38bd 373a a2bd 62c4 66bd
00000020: 84b0 9b3c a491 98bd 728e 1cbd b38b 85bd
00000030: 7786 853d 9b5f 023d e0e6 0a3d 0963 903d
00000040: 136e 31bd 01d8 92bb e435 e03c b46a 843d
00000050: 1d56 4a3d 1587 aebd 72dd 2fbc 13d7 afbd
00000060: 8d66 cabc cf20 a13c cee3 a1bd 1c39 87bd
00000070: 7c10 94bd 0ab1 483d e530 ae3b 824c aebd
00000080: 0922 25bd 01cb 983c 3812 873d 75d0 b2bd
00000090: bb9d cebc 6625 c43c bd1f 64bd 8c93 b4bc
000000a0: 0455 af3a 65cf 003d de01 89bc 7e71 023d
000000b0: 1ae4 8fbd 89ab 773d 0751 f9bc 7108 48bd
000000c0: a670 20bc ecb8 83bd 7308 093b 8c1f 813d
000000d0: 2435 b1bc 6bcf 9b3d 5b04 563d 47ca a73d
000000e0: 2ee0 34b9 68ea 74bc da23 893d c6e0 b93c
000000f0: 29ee 723d 8774 18bd 4fbd 563d f010 a63b
00000100: d10b 81bd ead5 133d 9b50 643c 0ab9 e83c
00000110: 05a0 473b a669 3b3d a83f a9bc 5d2a 5ebc
00000120: 3847 ce3c c1b3 323d 7383 b13d 1436 f7bc
00000130: 2a52 bcbc 528e 603c ba24 eb3c 6659 413d
00000140: 3565 b0bc 99e7 683b 875a 123d d598 85bc
00000150: 6ac2 563d 848a 13bd daae a8bd 7e76 a53d
00000160: 3690 4d3d baa1 20bd cbfc 853d a7cc 743d
00000170: 6787 96bd ccd5 98bd fe34 5cbd f0c2 ad3b
00000180: b717 b4ba 85bc 593c e1e6 2bbc 0bcf 47bb
00000190: 9d9c a43d cca9 1bbc fc33 a43d 9a24 80bd
000001a0: ae5a 193d 9c23 33bd 30ff ff3c 7734 bc3c
000001b0: 1a45 5abd a51e 9a3d eec3 a6bd 6b78 92bd
000001c0: 9706 0e3d 0ec3 493d 3f47 6f3a 8886 b03d
000001d0: 499f 9d3d ec36 593c e6c4 b23c 5311 ca3c
000001e0: 275a 85bd 52f6 9bbd eae0 76bd f74f 8f3d
000001f0: 99e7 95bd ff50 913c c702 73bd 166f 3f3d
00000200: f4db 2d3c b603 31bd 9d75 99bb 1f7a 2cbd
00000210: 0826 d2bc d016 16bc 2ca9 25bd 462c 41bd
00000220: 7bdc 8dbd 2db4 183d 88ce d03c d46e 9ebd
00000230: ba0f 3a3c 8fa6 61bd 3039 9f3d 6704 dabc
00000240: dff4 2a3c bb28 73bb 0166 a03d 38d3 883c
00000250: efa1 5cbd e8ce 65bd 6ca7 1d3d b9a5 9cbd
00000260: 5e90 90bd e54b 6dbc e918 493a 4991 823d
00000270: 06e5 0d3d f04d 63ba ad4e 1a3d 871f 943d
00000280: f16a 6d3d 2158 363d b670 893d 9c62 67bd
00000290: 561d 76bd 5c9f 64bc e9ad cd3c 9ee5 8ebd
000002a0: 844d 4cbd 17fa 64bd 0328 c73c 514a d6bc
000002b0: a72d 4abd 7cbe 923d 4c3f 37bd cc73 01bd
000002c0: 094f a73d e502 a9bd 3ad3 a5bd 24b8 14bd
000002d0: 356b 8cbd e863 c93c 3b30 edbc 456a b0bc
000002e0: 9175 1c3d 5b59 1f3d 4e3a 22bd 46ce 943c
000002f0: fa30 abbc 61aa 5bbd 81a2 063c 1654 80bd
00000300: 898e 81bc f4a2 d5bc c7df b53c c4cf 403d
00000310: 5881 8ebd f131 843d 2ffe 63bb 67aa 5b3d
00000320: 450a 733d 8437 843d 9c18 6fbd 38b8 ac3d
00000330: eb42 013d 4867 59bd fe7c 3bbc 50fe 33bd
00000340: 4ff6 323d 86b4 0fbd 1aab 1bbd ea45 c2bb
00000350: cde7 a9bd 64ea 813c a694 81bd 92d6 403c
00000360: 6200 e23c 2e63 3e3d bf6a e03c e1cf 333d
00000370: 2ea0 873c 61dc 0c3d dbec 77bd 421c a83d
00000380: 8d3f ec3b 50f9 613d 4250 acbd f6da 7c3d
00000390: bf43 07bd b299 22bd d846 8a3d f9e7 6abd
000003a0: 7cc1 933d 90f1 513d b1f7 9e3d b7c2 103d
000003b0: 4647 913d b9dd 15bd 3d0d 3bbd 541c 763d
000003c0: f0cf 58bd ae05 4e39 0117 00bd 21e6 5d3c
000003d0: 991d abbc a0e3 3fbd e561 0e3d 6177 42bd
000003e0: 010e 5ebd 23c0 563c b7b0 5e3c 3315 663d
000003f0: 8c23 96bd 114f bdbb 0b2d 2bbc d9d7 c13c

embed.3.bias f4 [256]
-0.030803751 0.044588227 0.03166598 -0.060009252 0.018088015 -0.021794884 0.07394895 -0.07261325
0.03987939 -0.015093693 -0.027366538 0.060836174 -0.082829185 -0.06575935 0.087238096 -0.055238534
0.05782357 0.07490599 -0.011467947 -0.06714213 -0.08494845 -0.009441632 0.050048802 -0.020266227
0.05789721 0.082870685 0.019668976 -0.03545626 -0.08823901 -0.060510322 0.0731011 -0.0663474
0.060775574 0.051487263 0.061835937 -0.047235962 -0.031851575 -0.08098406 -0.0046512736 -0.04431364
0.06485183 -0.04973365 0.012484908 -0.059831843 0.080154 0.053410593 -0.032051034 0.02574653
-0.048762616 -0.050602652 -0.07070895 0.07865156 -0.0796513 0.084033124 0.043475833 0.024699412
-0.005683871 -0.08152791 0.057983894 -0.061258018 0.009953958 -0.020588629 0.0082810335 -0.02199369
-0.027648386 0.04280438 -0.04395833 0.0068337847 0.07712753 0.011329578 0.08664863 0.06809291
-0.052085888 -0.049103312 0.0727597 -0.08696642 0.07295554 0.08354653 -0.08684643 0.08533975
0.063982844 0.059655387 0.030974267 0.0015413313 -0.04641101 0.05235985 -0.04682323 -0.06633941
-0.05170155 0.033409458 0.06977843 0.08188757 0.07105773 -0.049270887 -0.03109117 -0.040359683
0.07286475 0.08026392 0.002420367 -0.04859325 0.03967681 -0.016023284 0.047343995 0.025697818
0.06117025 -0.030341452 0.02212701 -0.019854147 0.04095756 -0.033278085 0.00748881 0.026285313
-0.00086349406 -0.06030174 0.008430402 -0.065446965 -0.08412252 -0.08292538 0.024667433 0.07278941
-0.034322254 -0.065387115 0.06296447 -0.07716142 0.03832002 0.05760821 0.048141066 0.065819845
0.040191256 -0.03919328 -0.07181911 0.02468778 -0.0074403514 0.04812715 -0.007562957 0.04989325
0.024575436 0.029882831 -0.01883454 -0.014597118 -0.07454557 -0.0041871103 0.00561592 0.05554881
0.073877506 0.0795689 0.04548062 0.07414937 0.07462058 0.032405373 -0.009308332 0.07877385
-0.0138464095 -0.015675467 0.063676395 0.07411966 0.06285295 0.010133714 0.056931257 -0.03681214
0.031137196 0.02864306 -0.04690937 0.07011108 0.044817608 0.08182173 0.0138986185 -0.0663282
-0.063645825 -0.08710905 -0.020505464 -0.08401838 -0.02288853 0.06460581 0.018997744 -0.043797307
0.01660886 0.03665484 0.034997635 -0.037665933 -0.086418845 -0.08339969 -0.038240984 0.07731051
0.06368907 0.025791332 0.029850557 -0.040894527 -0.030098718 0.07769556 0.049689543 0.07880771
0.06389073 0.08129719 -0.00076145655 -0.039151333 -0.031272583 0.023606839 0.015780296 0.039487477
0.012981809 0.057096988 -0.013768659 -0.06341711 0.0471911 0.011352116 -0.07090502 0.004852356
-0.022552736 0.029412294 0.026031736 0.08325076 0.027800176 -0.078648716 0.0569083 0.03772521
0.027869646 0.07965474 0.08154401 0.036871042 0.0060411184 -0.08780009 -0.018695405 -0.056852136
0.04635063 0.040840656 -0.08820878 0.08092791 -0.07478401 0.06454251 0.021459384 -0.016567495
0.08747352 0.048094347 -0.0069723213 -0.07301072 0.07790461 -0.0063100257 0.08834114 -0.008539425
-0.05362296 -0.03937074 -0.037116896 0.078148484 -0.08489402 0.05303415 0.034999352 0.029070357
-0.07748855 0.0037085328 -0.082653806 0.050466195 0.033491656 -0.013291472 0.02067932 -0.055221666
00000000: 2658 fcbc 25a2 363d 30b4 013d 43cc 75bd
00000010: 512d 943c 2f8b b2bc 8c72 973d 41b6 94bd
00000020: 9258 233d 894b 77bc ca2f e0bc 5a2f 793d
00000030: 59a2 a9bd d7ac 86bd e3a9 b23d cd41 62bd
00000040: 68d8 6c3d 5068 993d 0ee4 3bbc d081 89bd
00000050: 74f9 adbd 13b1 1abc f9ff 4c3d 5c05 a6bc
00000060: a025 6d3d 1bb8 a93d d520 a13c 953a 11bd
00000070: a7b6 b4bd acd9 77bd 08b6 953d 25e1 87bd
00000080: cfef 783d 4fe4 523d ae47 7d3d 7f7a 41bd
00000090: cc76 02bd f9da a5bd b669 98bb 3882 35bd
000000a0: 09d1 843d 83b5 4bbd 808d 4c3c 3c12 75bd
000000b0: c827 a43d 11c5 5a3d f247 03bd 63ea d23c
000000c0: 4fbb 47bd ba44 4fbd dbcf 90bd 1214 a13d
000000d0: 3920 a3bd 8f19 ac3d b713 323d 6c56 ca3c
000000e0: c43f babb 1bf8 a6bd 8580 6d3d b0e9 7abd
000000f0: ed15 233c 7ca9 a8bc 2cad 073c 1c2c b4bc
00000100: de7e e2bc a553 2f3d a60d 34bd f1ed df3b
00000110: 0af5 9d3d b29f 393c d674 b13d 4c74 8b3d
00000120: 0358 55bd 8e20 49bd 0a03 953d 731b b2bd
00000130: b769 953d 711a ab3d 8bdc b1bd 9bc6 ae3d
00000140: 7009 833d 3559 743d bfbd fd3c 7f06 ca3a
00000150: 7919 3ebd 4877 563d b7c9 3fbd f5dc 87bd
00000160: 01c5 53bd 5bd8 083d fee7 8e3d acb4 a73d
00000170: b786 913d 45d0 49bd e9b2 febc 3250 25bd
00000180: 1d3a 953d 6961 a43d 059f 1e3b b709 47bd
00000190: 2784 223d 4343 83bc c7eb 413d 3b84 d23c
000001a0: a88d 7a3d a38e f8bc b443 b53c 2aa5 a2bc
000001b0: 1dc3 273d 9a4e 08bd b164 f53b 4c54 d73c
000001c0: 1b5c 62ba f5fe 76bd ab1f 0a3c 0f09 86bd
000001d0: 6e48 acbd c8d4 a9bd 5b13 ca3c 9d12 953d
000001e0: 7e95 0cbd aee9 85bd 84f3 803d ce06 9ebd
000001f0: 74f5 1c3d 96f6 6b3d 912f 453d 8ecc 863d
00000200: 969f 243d 2289 20bd e615 93bd 073e ca3c
00000210: 31ce f3bb f920 453d aed2 f7bb dd5c 4c3d
00000220: 6d52 c93c d7cc f43c e54a 9abc c028 6fbc
00000230: 59ab 98bd 0734 89bb c005 b83b 2687 633d
00000240: 174d 973d 05f5 a23d e349 3a3d a0db 973d
00000250: add2 983d 7fbb 043d f981 18bc 2f54 a13d
00000260: 0ddc 62bc d669 80bc c568 823d 0ccc 973d
00000270: 0cb9 803d e107 263c c030 693d 54c8 16bd
00000280: 6f13 ff3c daa4 ea3c 0a24 40bd 6696 8f3d
00000290: ab92 373d 2792 a73d 08b7 633c 14d7 87bd
000002a0: be58 82bd 3b66 b2bd 13fb a7bc d411 acbd
000002b0: ba80 bbbc 0d50 843d 28a1 9b3c ce64 33bd
000002c0: 4e0f 883c 6323 163d ae59 0f3d 9847 1abd
000002d0: 5dfc b0bd 75cd aabd 94a2 1cbd f954 9e3d
000002e0: 6a6f 823d 5848 d33c 2889 f43c 0581 27bd
000002f0: 9691 f6bc da1e 9f3d 4387 4b3d f065 a13d
00000300: 25d9 823d 247f a63d 7c9c 47ba 265d 20bd
00000310: ae17 00bd 2163 c13c ae45 813c 9fbd 213d
00000320: a7b1 543c 88de 693d f195 61bc d4e0 81bd
00000330: 744b 413d 3afe 393c a736 91bd 8300 9f3b
00000340: 84c0 b8bc 0df2 f03c 8240 d53c 607f aa3d
00000350: 32bd e33c 9412 a1bd ad18 693d c085 1a3d
00000360: e24e e43c 0622 a33d 8c00 a73d 1706 173d
00000370: 93f4 c53b 89d0 b3bd 1b27 99bc c9dd 68bd
00000380: 28da 3d3d 8848 273d cea6 b4bd 88bd a53d
00000390: 5c28 99bd dd2e 843d 97cb af3c 8eb8 87bc
000003a0: 5125 b33d 94fe 443d 1278 e4bb a586 95bd
000003b0: 748c 9f3d 55c4 cebb 33ec b43d f2e8 0bbc
000003c0: c0a3 5bbd 3743 21bd e307 18bd 500c a03d
000003d0: eadc adbd 563a 593d 7b5b 0f3d f524 ee3c
000003e0: 51b2 9ebd db0a 733b 6646 a9bd a4b5 4e3d
000003f0: 8c2e 093d 79c4 59bc ad67 a93c 1d30 62bd

conv_spatial.mlp.0.weight f4 [256, 2]
-2.6358464 1.1614034 -0.015588257 -0.11074425 -0.23243646 -0.2583716 2.273402 0.4569447
0.21000044 0.2714549 -0.2565724 -0.18751195 -3.013121 -1.0571406 0.17365281 0.24856628
-0.25999376 0.26242563 0.27692643 0.1413609 0.0007227986 3.263061e-05 -0.27608487 -0.13781545
-0.06646586 0.31139153 0.28524354 -0.17475492 0.05183956 -0.12687826 0.23385303 -0.2043089
-0.0028178266 -0.31173396 -0.050832056 0.026905926 -0.024024663 0.11702413 0.26316106 -0.08160076
2.848552 1.0149683 -0.34131542 0.024824573 -0.24697828 0.084477186 0.20867974 -0.2236465
-0.2803115 -0.108220026 0.09841756 -0.25140166 -0.046006054 -0.24627937 0.19628638 -0.2653204
0.2011308 0.55216426 -0.053087443 -0.19596073 -0.19450912 -0.23581776 -0.059104268 0.31178117
-0.07061672 -0.27151933 -0.300345 0.19419608 0.13305396 0.24493952 -0.24328008 -0.10085158
-0.180409 0.21121936 0.033540692 -0.23613353 -0.1760623 -0.09513358 -0.11732649 0.25670797
0.2676254 -0.14182495 0.11328083 -0.12504263 1.8802999 -1.8192688 -2.4059854 -2.9570541
-2.0023587 -1.815619 0.19346023 -0.14721967 0.0029939201 0.053110562 -0.10662057 0.29809293
0.29320946 -0.075672716 -0.0013796565 0.0010516933 -0.21306174 0.24006441 0.20390357 0.2718259
0.002354579 0.09450788 0.2728144 0.1889518 -0.26453453 0.14269969 0.016406735 -0.2961935
0.10666409 -0.050429232 0.77673733 2.6313872 0.0007107299 0.0005386719 1.6098095 0.95606685
0.25219393 0.19762473 -2.2547786 2.5320396 0.44336 0.5235308 2.4562337 1.2067446
-0.30241054 0.1324309 0.24428499 0.16641565 -0.25359672 -0.023681413 0.0003721661 0.000498632
-0.16939558 -0.1951299 -0.00086782285 2.7448905e-05 -0.19305153 -0.14482385 0.10083335 0.23068635
-2.143894 1.0793396 0.23648225 -0.09496701 -0.22380808 -0.22452168 -0.063591965 -0.02873402
0.14146033 -0.0055307066 -0.6352117 -1.0040847 -0.27797028 0.11393102 -0.27916697 0.18448505
-0.13084345 -0.03146136 -0.03753419 -0.30508825 0.0011022445 0.0003208136 -0.020009032 -0.30035296
-0.039800916 0.17047475 -0.015378915 -0.33064422 -0.0011087571 -0.0002855962 -0.027504835 0.08128738
0.24094047 -0.017102668 0.0009386205 -0.0009022132 0.17345111 0.007986464 -0.0051810215 0.20487699
0.11134383 -0.29723307 0.054246187 0.1930891 -0.3114459 -0.005697641 0.25043902 0.0132682435
0.31853762 0.02665129 -0.0006361524 -0.16884659 -0.23852302 -0.18604288 0.27981022 0.09326489
-0.20251401 -0.23028089 -0.074066535 -0.27579618 -0.2259045 0.16991243 -0.25233245 0.2582085
0.049327046 0.28832275 0.24355268 0.06493688 -0.08972468 -0.021048054 0.2020369 -0.18998514
0.26128638 0.17482294 0.16173683 0.2783212 -0.7472765 2.7260425 -0.1210749 -0.012229129
-0.00091229175 0.000119446915 -0.00094772776 -0.0016114425 -0.26569152 0.12850505 -0.2409467 -0.170521
0.22586568 0.18838304 -0.79727817 -2.1079552 0.28459048 0.06404597 -0.21010073 -0.10952354
0.24586831 -0.10302198 -0.26156 0.18739298 0.063528076 -0.07133162 -0.19278796 0.2956453
0.27268016 0.13928288 -0.0011535138 0.0017145931 -0.0004592979 0.0004897882 0.15601087 -0.28496626
00000000: b5b1 28c0 dea8 943f e465 7fbc e2cd e2bd
00000010: d303 6ebe 4849 84be 6b7f 1140 a8f4 e93e
00000020: 5b0a 573e 23fc 8a3e 755d 83be 2203 40be
00000030: f9d6 40c0 6250 87bf 0bd2 313e 2988 7e3e
00000040: e71d 85be a75c 863e 4dc9 8d3e e9c0 103e
00000050: 317a 3d3a dadc 0838 ff5a 8dbe 7e1f 0dbe
00000060: 411f 88bd b66e 9f3e 710b 923e f4f2 32be
00000070: b855 543d 60ec 01be 2b77 6f3e 5a36 51be
00000080: 49ab 38bb 989b 9fbe 4635 50bd d169 dc3c
00000090: 5fcf c4bc 59aa ef3d 0cbd 863e 4d1e a7bd
000000a0: ad4e 3640 7bea 813f e5c0 aebe e75c cb3c
000000b0: e0e7 7cbe 6002 ad3d 24b0 553e 9703 65be
000000c0: fd84 8fbe 76a2 ddbd 258f c93d b8b7 80be
000000d0: d870 3cbd a930 7cbe 4cff 483e 13d8 87be
000000e0: 3cf5 4d3e a35a 0d3f 3872 59bd eea9 48be
000000f0: 662d 47be 367a 71be 5117 72bd c8a1 9f3e
00000100: 809f 90bd 9504 8bbe d2c6 99be 56db 463e
00000110: 4c3f 083e 6dd1 7a3e 6a1e 79be 468b cebd
00000120: 23bd 38be e349 583e f761 093d fdcc 71be
00000130: ad49 34be 65d5 c2bd df48 f0bd 3a6f 833e
00000140: 3206 893e 8f3a 11be c8ff e73d 2d0b 00be
00000150: abad f03f cddd e8bf aafb 19c0 6040 3dc0
00000160: a526 00c0 3466 e8bf 701a 463e c1c0 16be
00000170: a535 443b 768a 593d e35b dabd a39f 983e
00000180: 8d1f 963e 4cfa 9abd 97d5 b4ba f9d8 893a
00000190: db2c 5abe 72d3 753e 19cc 503e c42c 8b3e
000001a0: 484f 1a3b 598d c13d 54ae 8b3e 957c 413e
000001b0: 1271 87be de1f 123e 6b67 863c ada6 97be
000001c0: b472 da3d e28e 4ebd 42d8 463f a668 2840
000001d0: 4750 3a3a a935 0d3a 3d0e ce3f ccc0 743f
000001e0: 901f 813e 235e 4a3e 4b4e 10c0 f00c 2240
000001f0: 1500 e33e 1d06 063f ef32 1d40 9b76 9a3f
00000200: 8ed5 9abe f79b 073e d825 7a3e dd68 2a3e
00000210: 6ed7 81be 86ff c1bc 4a1f c339 a1b6 023a
00000220: 0976 2dbe 22d0 47be 9b7e 63ba 1342 e637
00000230: 4daf 45be b44c 14be b781 ce3d 0b39 6c3e
00000240: 8f35 09c0 cd27 8a3f 6728 723e 107e c2bd
00000250: f22d 65be 03e9 65be 813c 82bd 9c63 ebbc
00000260: fada 103e ee3a b5bb 3c9d 22bf d985 80bf
00000270: 1f52 8ebe ab54 e93d f9ee 8ebe a6e9 3c3e
00000280: d3fb 05be a1dd 00bd 73bd 19bd 8734 9cbe
00000290: 3079 903a df32 a839 fbe9 a3bc ddc7 99be
000002a0: 4906 23bd ef90 2e3e d8f7 7bbc 334a a9be
000002b0: b753 91ba 13bc 95b9 d251 e1bc ff79 a63d
000002c0: 19b9 763e e51a 8cbc c10d 763a 8182 6cba
000002d0: 2b9d 313e a8d9 023c 8fc5 a9bb 46cb 513e
000002e0: 3c08 e43d ef2e 98be 4031 5e3d 26b9 453e
000002f0: d675 9fbe 47b3 babb 8b39 803e 0c63 593c
00000300: 5d17 a33e ce53 da3c 77c3 26ba 1fe6 2cbe
00000310: 613f 74be 0682 3ebe 4943 8f3e aa01 bf3d
00000320: d55f 4fbe c1ce 6bbe 32b0 97bd 2835 8dbe
00000330: 8253 67be 86fd 2d3e b831 81be e833 843e
00000340: 280b 4a3d 0a9f 933e e065 793e a0fd 843d
00000350: 93c1 b7bd f86c acbc c3e2 4e3e 778b 42be
00000360: 54c7 853e c904 333e 579e 253e 1e80 8e3e
00000370: 834d 3fbf 7b77 2e40 1ef6 f7bd af5c 48bc
00000380: dd26 6fba 937f fa38 ef70 78ba 0a37 d3ba
00000390: b808 88be d496 033e bbba 76be 0f9d 2ebe
000003a0: 5549 673e 7ce7 403e 6c1a 4cbf bde8 06c0
000003b0: d8b5 913e 892a 833d a524 57be e14d e0bd
000003c0: e7c4 7b3e 30fd d2bd 31eb 85be f2e3 3f3e
000003d0: 021b 823d 5016 92bd 356a 45be d25e 973e
000003e0: bc9c 8b3e 2ca0 0e3e 8031 97ba 33bc e03a
000003f0: eccd f0b9 2165 003a 50c1 1f3e 19e7 91be

conv_spatial.mlp.2.weight f4 [256, 256]
0.3150939 -0.09774085 -0.31416845 -0.01412499 0.24113819 -0.27377385 0.009971563 0.19403775
-0.10066144 0.3587443 -0.01305246 -0.3223023 0.065591685 0.065957256 0.021191416 0.058867835
-0.06475261 -0.10682563 0.07241499 0.16460209 -0.21130648 -0.28860477 -0.1873814 0.039747186
-0.3963012 -0.04900307 -0.07620365 0.035879742 0.11399935 -0.15337868 -0.29758388 -0.007290499
-0.16518955 -0.13489087 0.12522383 -0.27395824 -0.124996506 -0.03285548 -0.24835005 -0.04776048
0.07515328 0.05220891 -0.14879052 0.036983024 0.11074141 0.12270122 0.05188103 -0.03554131
0.19348241 -0.09958934 -0.06052555 0.19744849 0.100663394 0.3365991 -0.062795945 -0.057177566
-0.02888184 -0.128182 0.0030774598 0.011736751 0.3391574 0.25660986 0.093979195 -0.05658866
-0.19315146 0.33590537 -0.28419337 -0.039081994 -0.18247575 -0.027811375 -0.29552928 0.17756316
0.10363327 0.080717206 -0.21833956 -0.2788358 0.1463785 -0.041486166 -0.15547776 -0.0592514
-0.273529 -0.11217876 0.060414523 -0.03384587 0.04387236 -0.058125824 -0.049593918 0.03838419
0.21360274 0.014995721 0.23835084 0.01151689 0.013139288 0.10370857 -0.32194257 0.18839571
0.30636993 -0.10427609 -0.26685616 0.32699516 -0.27652478 -0.16756801 -0.037588734 -0.06459402
0.075294875 0.278581 -0.20676987 0.107519306 0.36139432 0.14500171 -0.050438717 -0.20059323
0.0060217064 0.023036078 -0.08936056 -0.30110484 0.30229747 0.055818733 0.25797725 -0.26108825
0.1552937 -0.06320912 -0.013475775 -0.06413484 0.4341349 -0.052519485 -0.023293598 0.07219882
-0.037532695 -0.045225866 -0.096732415 0.21271901 -0.07164953 -0.135036 0.03395576 -0.009348022
0.2973704 -0.40149006 -0.25584346 0.039562076 0.22527099 -0.07686333 -0.14106196 -0.3563099
-0.110868104 0.046992715 -0.18753262 -0.010007544 -0.034411687 -0.10774194 0.16202556 0.26355526
0.027170202 0.045458015 -0.052012216 0.07391125 0.19121084 -0.0024520846 -0.14653148 0.014623793
-0.34989926 0.12548077 0.23601747 -0.050409313 -0.022587437 0.0874986 -0.13431375 -0.06438622
-0.039167948 0.12023672 0.3609443 0.17802134 0.08504825 -0.028598722 0.08924303 0.012484435
-0.098239206 -0.24660191 -0.18230887 -0.25234708 0.041800223 -0.16642939 -0.051589295 0.12512226
-0.19499153 -0.28263652 0.28828648 0.068022035 0.17918988 0.097971186 -0.033950992 -0.3619383
0.13748443 -0.16722041 0.24858828 -0.0960772 -0.018385457 -0.34462452 0.14479795 0.11121781
-0.030116607 -0.04734892 0.085685514 0.007946931 -0.101800635 -0.38215947 0.0036029909 0.26314986
-0.005746576 -0.05697589 -0.33226907 -0.07557901 -0.3800903 0.18614636 -0.14177202 0.26508954
0.1935841 -0.2627189 -0.07588464 0.09872054 0.082453236 0.073301144 0.27129418 -0.2662089
0.06155714 -0.03809789 0.3967632 -0.022833778 -0.3294047 0.17434245 0.02184403 0.09096268
0.11106046 0.08574126 -0.26137498 -0.039503217 0.30284458 0.098494306 -0.22144285 -0.14770678
-0.35818502 -0.011406418 -0.20471051 -0.24040584 -0.26636454 -0.017189404 -0.33124053 0.23031741
0.16805406 0.14813447 -0.21414718 -0.143171 0.14529487 0.015974017 0.2753752 -0.13546492
00000000: fd53 a13e 5b2c c8bd b0da a0be 816c 67bc
00000010: eeec 763e 162c 8cbe c45f 233c d5b1 463e
00000020: 9627 cebd 55ad b73e fcd9 55bc cf04 a5be
00000030: ef54 863d 9914 873d 9f99 ad3c 661f 713d
00000040: 049d 84bd 65c7 dabd 4f4e 943d 738d 283e
00000050: ba60 58be 01c4 93be e9e0 3fbe f2cd 223d
00000060: fee7 cabe 71b7 48bd a910 9cbd a3f6 123d
00000070: 7e78 e93d 4d0f 1dbe ea5c 98be 23e5 eebb
00000080: 7327 29be d520 0abe ad3a 003e 4144 8cbe
00000090: 2bfe ffbd 7893 06bd 7a4f 7ebe 7ea0 43bd
000000a0: f6e9 993d 03d9 553d 8b5c 18be 837b 173d
000000b0: 64cc e23d c74a fb3d 3481 543d c493 11bd
000000c0: 4120 463e 7ff5 cbbd a4e9 77bd f02f 4a3e
000000d0: 9c28 ce3d b856 ac3e 299b 80bd 0633 6abd
000000e0: 9c99 ecbc 2442 03be 35af 493b 804b 403c
000000f0: 0aa6 ad3e 5e62 833e 2a78 c03d 83c9 67bd
00000100: 7fc9 45be cafb ab3e cb81 91be 7114 20bd
00000110: ecda 3abe aed4 e3bc 9d4f 97be 1ed3 353e
00000120: ae3d d43d 104f a53d 6894 5fbe 91c3 8ebe
00000130: 3fe4 153e 66ed 29bd 9035 1fbe 99b1 72bd
00000140: fe0b 8cbe fabd e5bd 3875 773d f8a1 0abd
00000150: 81b3 333d 5815 6ebd fe22 4bbd be38 1d3d
00000160: adba 5a3e 9db0 753c 3e12 743e 56b1 3c3c
00000170: 2b46 573c 2965 d43d a8d5 a4be ceea 403e
00000180: 85dc 9c3e b48e d5bd 5fa1 88be e96b a73e
00000190: a894 8dbe f396 2bbe a5f6 19bd df49 84bd
000001a0: 3334 9a3d 2ba2 8e3e 7bbb 53be 1533 dc3d
000001b0: ad08 b93e 547b 143e d498 4ebd 5068 4dbe
000001c0: bc51 c53b 28b6 bc3c ab02 b7bd 6a2a 9abe
000001d0: bcc6 9a3e 2fa2 643d 9815 843e 5cad 85be
000001e0: 5005 1f3e c873 81bd 7fc9 5cbc 2159 83bd
000001f0: ee46 de3e ac1e 57bd 37d2 bebc fadc 933d
00000200: e2bb 19bd c23e 39bd a51b c6bd 03d3 593e
00000210: fdbc 92bd e146 0abe 3215 0b3d 7228 19bc
00000220: ef40 983e 1b90 cdbe eafd 82be d80b 223d
00000230: 70ad 663e 866a 9dbd 8c72 10be 406e b6be
00000240: d10e e3bd 6f7b 403d 8d08 40be aff6 23bc
00000250: 45f3 0cbd cea7 dcbd 07ea 253e b7f0 863e
00000260: 0b94 de3c 2f32 3a3d c30a 55bd c85e 973d
00000270: c6cc 433e 27b3 20bb 590c 16be a298 6f3c
00000280: ff25 b3be 087e 003e 90ae 713e ff79 4ebd
00000290: 4a09 b9bc 7732 b33d 8b89 09be ecdc 83bd
000002a0: 926e 20bd ab3e f63d b1cd b83e 3a4b 363e
000002b0: c72d ae3d de47 eabc 0dc5 b63d 848b 4c3c
000002c0: a331 c9bd 3685 7cbe 2daf 3abe a333 81be
000002d0: b636 2b3d 776c 2abe 4c4f 53bd 0d20 003e
000002e0: dcab 47be bcb5 90be 499a 933e 234f 8b3d
000002f0: 8d7d 373e 1ea5 c83d 3210 0bbd fa4f b9be
00000300: b8c8 0c3e d43b 2bbe ed8d 7e3e 1fc4 c4bd
00000310: 199d 96bc a072 b0be ea45 143e 2ac6 e33d
00000320: 1ab7 f6bc f1f0 41bd e37b af3d d833 023c
00000330: da7c d0bd 68aa c3be 2820 6c3b 94bb 863e
00000340: c64d bcbb 8d5f 69bd 2c1f aabe 2bc9 9abd
00000350: 329b c2be 279d 3e3e af2c 11be d1b9 873e
00000360: e93a 463e 1783 86be 6869 9bbd ff2d ca3d
00000370: 3edd a83d e91e 963d 12e7 8a3e 884c 88be
00000380: 5723 7c3d 880c 1cbd 8c24 cb3e e70d bbbc
00000390: bca7 a8be d486 323e 40f2 b23c a44a ba3d
000003a0: ab73 e33d 1d99 af3d f1d2 85be 20ce 21bd
000003b0: 720e 9b3e 62b7 c93d eac1 62be 7240 17be
000003c0: 0764 b7be fce1 3abc a29f 51be f32c 76be
000003d0: ef60 88be cbd0 8cbc 5c98 a9be 54d8 6b3e
000003e0: 5d16 2c3e 90b0 173e 6649 5bbe 6b9b 12be
000003f0: 2ec8 143e f1db 823c fafd 8c3e 51b7 0abe

conv_spatial.mlp.4.weight f4 [2, 256]
0.34944552 -0.13574618 -0.10200273 0.00779537 0.8372959 -0.017666588 0.04936755 0.0752349
-0.08199245 0.09111375 -0.6392928 -0.12739006 -0.111034155 -0.32170337 0.21224476 -0.0006058088
-0.67261404 -0.3069998 -0.306796 -0.1102661 0.2895106 0.13771002 -0.06890533 0.1414805
-0.40143695 -0.3776261 -0.13341366 -0.17171071 -0.18975586 -0.113906 -7.283086e-05 -0.4978923
0.35544583 -0.2249039 -0.17026871 0.46098074 0.39163917 0.23561369 -0.3344701 -0.17127466
-0.2432991 0.21041712 0.22668268 0.0357458 0.068258606 -0.27774602 0.43890277 0.21166092
-0.49025849 0.09141715 4.4087727e-05 0.08929189 -0.16886845 -0.28763402 0.37020844 -0.24433105
-0.24751653 0.017148504 0.40574193 -0.37567863 0.16817643 0.50450957 -0.21889088 -0.11012074
0.11122435 0.4706761 0.17758663 -0.15246102 -0.31429836 0.13811244 -0.51935536 -0.0014415674
-0.083927445 -0.01880867 -0.22944818 0.27426904 0.1664555 -0.028817166 -0.37843403 0.45482433
0.33349556 0.00015213051 -0.21598905 4.429275e-05 0.076323085 0.030144481 0.22537114 0.34893557
-0.1639966 -0.52744174 0.115855955 -0.043812655 0.21942711 0.13311434 -0.031819977 -0.19031131
0.42685872 0.7118183 0.115252346 -0.15297534 -0.000108883905 0.25840518 -0.09985818 0.27930206
0.28139448 -0.22415586 -0.089364134 -0.11519822 0.309381 0.28855136 -0.4481243 0.55800647
-0.042048555 -0.24323049 0.2516168 0.82566196 0.5113148 0.23638584 0.13590653 0.24189906
0.18053441 -0.3171598 0.06550634 -0.10307284 -0.20371397 -0.31940088 0.013007513 -0.25749886
0.045452856 0.14477667 -0.7527258 0.10578382 -0.28534135 -0.2962933 0.53549415 0.26259878
0.2020313 0.13812567 -0.29652652 0.20040518 0.36353362 -0.196563 0.23303108 -0.42493275
0.090551004 -0.28978845 -0.23303461 -0.29045102 -0.019694703 0.2132391 0.21216203 0.16871576
0.3828669 0.10873022 0.28212243 -0.41649026 0.0942879 -0.14412 -4.3209253e-05 0.18505137
-0.01727449 0.04667474 0.5106175 -0.33398318 0.32255614 0.89020973 0.5687501 -0.03687618
0.41706443 -0.09019775 0.1650294 -0.45121527 -0.30719694 -0.8148992 0.056940317 -0.0011770253
0.30456612 0.21901928 0.13439183 0.333959 0.214185 -0.37631044 0.1332233 0.82140493
0.1871403 0.015165048 0.21155052 -0.37977475 -6.4205145e-05 -0.057515636 -0.74192244 -0.035966612
0.0025028249 -0.05032866 -0.7924198 0.22508062 -0.0011098864 0.41386247 0.12234198 -0.09230804
-0.340179 0.053449184 -0.24661544 0.3064152 -0.44970992 0.18698135 0.085905395 0.29590818
-0.12396906 0.12699778 -0.16322465 -0.045904905 -0.22060992 0.050999444 0.7367918 -0.54707205
-0.10529077 0.4051857 -0.046905022 -0.74876624 -0.1909391 -0.19479547 -0.25111607 -0.22314595
0.074239895 -0.19623275 0.27146226 0.073820315 0.039233096 0.09115013 -0.7814321 0.36643055
-0.33589828 -0.06150476 0.59605664 0.5736069 -0.2648282 -0.20737033 -0.09043409 -0.13983849
0.00085618097 -0.79479 0.10067017 0.22255348 0.15436031 0.3587206 -0.42580876 1.1556029
0.8520937 -0.04086691 -0.7150503 0.26870444 -0.25849888 0.08385088 -0.35714772 0.10974784
00000000: 86ea b23e 0c01 0bbe cfe6 d0bd 4e70 ff3b
00000010: 0659 563f 85b9 90bc a135 4a3d c114 9a3d
00000020: a8eb a7bd d999 ba3d b1a8 23bf 8a72 02be
00000030: e065 e3bd 4eb6 a4be b156 593e 24cf 1eba
00000040: 6f30 2cbf 142f 9dbe 5e14 9dbe 31d3 e1bd
00000050: bc3a 943e db03 0d3e 3d1e 8dbd 44e0 103e
00000060: 2589 cdbe 3558 c1be 979d 08be efd4 2fbe
00000070: 5c4f 42be 8d47 e9bd c5bc 98b8 bdeb febe
00000080: fffc b53e 354d 66be ec5a 2ebe ab05 ec3e
00000090: ee84 c83e b744 713e aa3f abbe a062 2fbe
000000a0: 6623 79be 9677 573e 811f 683e 306a 123d
000000b0: 2bcb 8b3d ba34 8ebe ddb7 e03e a4bd 583e
000000c0: 2903 fbbe ea38 bb3d d6ea 3838 abde b63d
000000d0: daeb 2cbe c444 93be f68b bd3e eb31 7abe
000000e0: f974 7dbe 057b 8c3c 68bd cf3e f358 c0be
000000f0: 7136 2c3e 8a27 013f ee24 60be fc86 e1bd
00000100: 98c9 e33d 75fc f03e 45d9 353e be1e 1cbe
00000110: b7eb a0be 596d 0d3e 79f4 04bf faf2 bcba
00000120: 27e2 abbd a414 9abc 77f4 6abe fe6c 8c3e
00000130: 5073 2a3e fa11 ecbc 1bc2 c1be bcde e83e
00000140: eebf aa3e 3985 1f39 3c2c 5dbe fac6 3938
00000150: 474f 9c3d 8ff1 f63c b1c7 663e afa7 b23e
00000160: baee 27be 6c06 07bf e345 ed3d e674 33bd
00000170: 80b1 603e 204f 083e aa55 02bd f8e0 42be
00000180: 3a8d da3e b939 363f 6c09 ec3d 91a5 1cbe
00000190: 9a58 e4b8 af4d 843e 7282 ccbd ae00 8f3e
000001a0: f012 903e 1d89 65be 8b04 b7bd 0bed ebbd
000001b0: 3067 9e3e 01bd 933e 8c70 e5be 83d9 0e3f
000001c0: 1b3b 2cbd 6a11 79be ebd3 803e 955e 533f
000001d0: 87e5 023f 210f 723e 152b 0b3e 63b4 773e
000001e0: 03de 383e c562 a2be 3028 863d da17 d3bd
000001f0: 659a 50be 8388 a3be 771d 553c e4d6 83be
00000200: c62c 3a3d 5640 143e a3b2 40bf 30a5 d83d
00000210: 4318 92be c1b3 97be 2516 093f 5973 863e
00000220: 4be1 4e3e d170 0d3e 53d2 97be 0437 4d3e
00000230: 1421 ba3e d047 49be b39f 6e3e c990 d9be
00000240: ce72 b93d 275f 94be a0a0 6ebe ffb5 94be
00000250: c956 a1bc 5a5b 5a3e 0141 593e d3c3 2c3e
00000260: 2107 c43e f3ad de3d 5a72 903e 363e d5be
00000270: 041a c13d 3194 13be 953b 35b8 1b7e 3d3e
00000280: 3b83 8dbc 032e 3f3d d4b7 023f d8ff aabe
00000290: 1426 a53e c9e4 633f 9b99 113f 7a0b 17bd
000002a0: 7889 d53e 99b9 b8bd 78fd 283e b005 e7be
000002b0: eb48 9dbe 3c9d 50bf 403a 693d 6a46 9aba
000002c0: 17f0 9b3e 9746 603e 039e 093e adfc aa3e
000002d0: 5053 5b3e c3ab c0be b06b 083e 9847 523f
000002e0: b5a1 3f3e d276 783c b3a0 583e d671 c2be
000002f0: e0a5 86b8 8495 6bbd a1ee 3dbf ba51 13bd
00000300: 6f06 243b 6d25 4ebd 06dc 4abf 897b 663e
00000310: 9c79 91ba c8e5 d33e 6f8e fa3d ff0b bdbd
00000320: f12b aebe 88ed 5a3d c288 7cbe 74e2 9c3e
00000330: 6140 e6be 0a78 3f3e 2bef af3d 4781 973e
00000340: 7ee3 fdbd b50b 023e 5d24 27be c806 3cbd
00000350: 91e7 61be cbe4 503d 639e 3c3f ea0c 0cbf
00000360: b0a2 d7bd 8074 cf3e 7b1f 40bd 25af 3fbf
00000370: 8a85 43be 7778 47be 4992 80be 5f80 64be
00000380: 160b 983d 3df1 48be 1afd 8a3e 1b2f 973d
00000390: e2b2 203d ebac ba3d ef0b 48bf c99c bb3e
000003a0: dcfa abbe 6aec 7bbd 2b97 183f e7d7 123f
000003b0: 9097 87be e358 54be 8235 b9bd d231 0fbe
000003c0: 5571 603a 5c77 4bbf 292c ce3d 0fe5 633e
000003d0: a110 1e3e 3aaa b73e 9b03 dabe ccea 933f
000003e0: d022 5a3f 1064 27bd 890d 37bf a193 893e
000003f0: f759 84be 03ba ab3d 11dc b6be 7ac3 e03d

tail.0.weight f4 [256, 256]
-0.036006026 -0.049087167 -0.04949981 0.04969707 0.0022938028 0.046966262 0.024529204 0.058310926
-0.014915846 0.051273078 -0.016241297 -0.024941497 0.01090885 0.008037001 0.04939551 -0.037962236
-0.0030893236 0.01038719 0.0016628876 -0.007910453 0.0034140795 -0.034498796 -0.007744238 -0.0050434396
0.0038082674 -0.06188059 0.021472871 0.023095109 -0.002221346 0.0455695 -0.056649633 0.060778245
-0.0011433065 0.037004687 0.033127703 0.03369516 0.054368928 -0.012662195 0.013492227 -0.050541833
0.004961364 -0.018458575 -0.043079503 -0.023250937 -0.047619566 -0.02674362 -0.04283736 -0.036116548
-0.039263435 0.009823047 0.006985575 -0.028313696 0.06073811 0.019343257 0.0126680285 -0.020905122
-0.015201539 0.04883439 0.00048044324 -0.047213227 -0.010586165 -0.008974932 -0.030791916 -0.019457243
0.018993028 -0.04218118 -0.036420606 -0.03792371 0.009468824 0.026608594 0.058363914 0.04744824
0.044859752 -0.017370112 0.040127195 0.008192778 -0.01531744 0.026900984 0.0058957636 -0.023322925
-0.056464404 0.011114083 -0.058479726 -0.035978287 -0.045755237 -0.047170937 0.032720916 -0.038036667
-0.02294717 0.018255316 0.024576545 -0.01640223 -0.015009053 -0.054691494 0.051932402 -0.05065623
-0.018082067 -0.056572303 -0.0028574169 -0.0489038 -0.014985375 0.019436434 -0.03245552 0.056759074
0.056610078 0.05792226 0.009813346 0.0422348 -0.023780473 0.017721653 -0.026707321 -0.03141646
-0.054182455 -0.057474293 0.027357906 0.054387823 0.038336903 -0.028215483 0.0032855198 -0.025928728
-0.005651526 0.03151974 0.039276317 0.055078834 -0.029585563 0.037064247 -0.04806637 -0.009272426
0.013302386 -0.042015307 -0.009920143 -0.034717843 0.026910424 -0.026704341 0.03799274 -0.038440235
-0.039638355 -0.034567326 -0.031201407 -0.03272344 0.039315462 -0.0055058897 0.039609507 0.05422224
-0.00037553906 0.02440922 -0.032110944 0.04567846 0.050569363 0.034074537 -0.018980943 0.011059672
-0.014071174 0.04723627 0.05011476 -0.03927909 -0.05144745 -0.037419252 -0.04088749 0.05579991
-0.047079675 -0.00029244274 -0.01683928 0.048283495 -0.026253067 0.00012595952 0.05883971 0.03563796
-0.04646691 -0.057359524 0.03364235 -0.0414996 -0.0053956807 -0.043855593 -0.053698845 -0.027043253
-0.020500682 -0.0042534247 -0.04873216 -0.054062992 -0.031455018 0.03779433 -0.0019635484 0.022687107
-0.007936627 0.013799772 0.025037348 -0.04164742 -0.005976036 -0.025722206 0.044905715 0.028421536
-0.051977865 -0.05301652 0.0040511116 0.05060053 -0.020885587 0.049670853 -0.017104983 -0.0508817
0.035161175 0.044344574 0.035054095 -0.060451053 0.03381385 0.059907302 0.005062878 0.008678168
-0.03249444 -0.056825235 -0.017977051 0.049672723 0.025174923 -0.06239444 -0.004599072 -0.036267824
-0.02689059 -0.0070775896 0.024160929 0.040801734 0.003940664 0.029361121 0.04885053 -0.036011674
0.05656176 0.033826478 -0.027381115 0.023919791 -0.044610932 0.024860702 0.0075165257 -0.034305215
-0.046007127 0.01695092 0.05175993 0.030312046 -0.04545217 0.0212688 0.05919882 0.043220505
-0.00092387944 0.029283382 0.028911121 0.03477738 -0.045927778 -0.037282273 0.052001275 -0.019304313
0.010196134 0.014565051 0.04147227 -0.052312456 0.020742416 -0.0009925663 0.03135687 -0.044931643
00000000: 0e7b 13bd a00f 49bd 50c0 4abd 288f 4b3d
00000010: a053 163b b25f 403d 78f1 c83c 70d7 6e3d
00000020: 9861 74bc b803 523d 780c 85bc 1c52 ccbc
00000030: 08bb 323c a0ad 033c f252 4a3d 4a7e 1bbd
00000040: 4076 4abb 082f 2a3c 40f5 d93a d89a 01bc
00000050: c0be 5f3b 9c4e 0dbd 60c3 fdbb 7043 a5bb
00000060: 2094 793b 8076 7dbd e0e7 af3c f431 bd3c
00000070: 0094 11bb 16a7 3a3d 7209 68bd 9cf2 783d
00000080: 00db 95ba 3a92 173d eab0 073d f003 0a3d
00000090: f4b1 5e3d 1875 4fbc 800e 5d3c f404 4fbd
000000a0: f092 a23b 7036 97bc 2274 30bd c078 bebc
000000b0: bc0c 43bd 7015 dbbc 3a76 2fbd f2ee 13bd
000000c0: b2d2 20bd d8f0 203c 40e7 e43b 20f2 e7bc
000000d0: 86c8 783d c075 9e3c 908d 4f3c 3841 abbc
000000e0: e00f 79bc 9206 483d 00e4 fb39 a862 41bd
000000f0: 9871 2dbc 980b 13bc 543f fcbc cc64 9fbc
00000100: 4497 9b3c 2cc6 2cbd c62d 15bd e455 1bbd
00000110: 2023 1b3c 44fa d93c 000f 6f3d 1659 423d
00000120: dcbe 373d c44b 8ebc 6a5c 243d 003b 063c
00000130: 00f6 7abc 745f dc3c 4031 c13b b80f bfbc
00000140: 3847 67bd d817 363c 7088 6fbd f85d 13bd
00000150: d869 3bbd 5036 41bd 5e06 063d 56cc 1bbd
00000160: b4fb bbbc 2c8c 953c c054 c93c f85d 86bc
00000170: 88e8 75bc 3004 60bd 12b7 543d e87c 4fbd
00000180: d820 94bc 5cb8 67bd 8043 3bbb 5a4f 48bd
00000190: 3885 75bc 2839 9f3c 14f0 04bd 347c 683d
000001a0: f8df 673d e43f 6d3d 28c8 203c 66fe 2c3d
000001b0: 44cf c2bc 002d 913c 50c9 dabc 8cae 00bd
000001c0: 6cee 5dbd 2a6a 6bbd b01d e03c c4c5 5e3d
000001d0: 2807 1d3d 2824 e7bc e051 573b 7c68 d4bc
000001e0: 7030 b9bb d81a 013d 34e0 203d 589a 613d
000001f0: 6c5d f2bc aed0 173d 3ee1 44bd 60eb 17bc
00000200: 40f2 593c 3e18 2cbd 1888 22bc 4c34 0ebd
00000210: 4073 dc3c 10c3 dabc 469e 1b3d 8273 1dbd
00000220: d45b 22bd 7896 0dbd 189a ffbc 0409 06bd
00000230: 4009 213d c06a b4bb 943d 223d 2418 5e3d
00000240: 00e4 c4b9 d8f5 c73c c486 03bd 5619 3b3d
00000250: d221 4f3d be91 0b3d ec7d 9bbc a033 353c
00000260: c88a 66bc d27a 413d 2245 4d3d 1ce3 20bd
00000270: 90ba 52bd ee44 19bd a479 27bd 728e 643d
00000280: 9ed6 40bd 0053 99b9 88f2 89bc eac4 453d
00000290: ac10 d7bc 0014 0439 e801 713d 1cf9 113d
000002a0: 1654 3ebd d2f1 6abd 90cc 093d 7cfb 29bd
000002b0: 40ce b0bb eca1 33bd 52f3 5bbd d089 ddbc
000002c0: 0cf1 a7bc 5060 8bbb 609b 47bd 2871 5dbd
000002d0: fad6 00bd 3ace 1a3d e0ae 00bb 50da b93c
000002e0: a008 02bc 7018 623c 201b cd3c 7c96 2abd
000002f0: a0d2 c3bb 60b7 d2bc 0eef 373d 48d4 e83c
00000300: bee6 54bd da27 59bd 30bf 843b 8042 4f3d
00000310: 4018 abbc aa73 4b3d c01f 8cbc 5469 50bd
00000320: 2a05 103d a8a2 353d e294 0f3d 869b 77bd
00000330: 6480 0a3d 5c61 753d 80e6 a53b e02e 0e3c
00000340: e418 05bd 94c1 68bd 9c44 93bc a075 4b3d
00000350: a43b ce3c 5091 7fbd d0b3 96bb 928d 14bd
00000360: a849 dcbc 20eb e7bb 24ed c53c b81f 273d
00000370: b020 813b bc86 f03c 7e17 483d fa80 13bd
00000380: 4ead 673d a28d 0a3d 5c4e e0bc 70f3 c33c
00000390: f4b9 36bd aca8 cb3c 304d f63b a083 0cbd
000003a0: f871 3cbd a8dc 8a3c 3802 543d f850 f83c
000003b0: 0e2c 3abd e83b ae3c 767a 723d fc07 313d
000003c0: 8030 72ba b4e3 ef3c 04d7 ec3c ba72 0e3d
000003d0: c41e 3cbd 4cb5 18bd 4aff 543d 1424 9ebc
000003e0: b00d 273c 40a2 6e3c d4de 293d 9645 56bd
000003f0: 00ec a93c 0019 82ba 1070 003d 3e0a 38bd
