logs/M5D7_r04_scale0001/score.pt (torch, 731911 bytes, 10 tensors)

embed.0.W f4 [64]
0	0xc0335d99	-2.8025877
1	0x41ee97bb	29.824087
2	0x413b58b8	11.70916
3	0xc16b62ca	-14.711618
4	0x3ffa1872	1.953871
5	0xc0b9bdf8	-5.8044395
6	0x41b22513	22.268103
7	0xc1de6d87	-27.80348
8	0x41c587c1	24.691286
9	0xc20e99f4	-35.650345
10	0x412a0285	10.625615
11	0xc1e35686	-28.417248
12	0xc14c433a	-12.766413
13	0xc256e60a	-53.724648
14	0x416b6b47	14.713691
15	0x419305e1	18.37787
16	0x408725f6	4.223384
17	0x405761b2	3.3653378
18	0x4195b25e	18.712093
19	0x41e3f2f6	28.493633
20	0x41455335	12.332814
21	0xc1bb98d9	-23.449633
22	0xc12e6deb	-10.901835
23	0x40c112b1	6.0335317
24	0xc23c485e	-47.07067
25	0xc1c54980	-24.660889
26	0x41c9b1bd	25.211786
27	0xc0433f93	-3.0507553
28	0x41f261fa	30.29784
29	0xc0cb2a0c	-6.3488827
30	0x42118607	36.380886
31	0x42118a05	36.384785
32	0xbf8510ca	-1.0395749
33	0x4133843a	11.219782
34	0xc18c01aa	-17.500813
35	0xc159cd3a	-13.612604
36	0xc15bda9f	-13.740874
37	0xc10d7357	-8.840659
38	0x41524e8f	13.144179
39	0x41a688a8	20.816727
40	0xc0bcf3f1	-5.904778
41	0xc1dae679	-27.362535
42	0x414d862c	12.845257
43	0x418814f5	17.010233
44	0xc26bc7ef	-58.945248
45	0x414067bf	12.025329
46	0x41b79071	22.945528
47	0xbf7bf782	-0.9842454
48	0xc2226320	-40.5968
49	0xc048c3ea	-3.1369576
50	0x422831c8	42.048615
51	0x4141942c	12.098675
52	0x420d612c	35.344894
53	0xc1c73fa5	-24.906076
54	0x4159bda9	13.608804
55	0x4209ef6f	34.48382
56	0xc055c994	-3.3404284
57	0x41541c8e	13.256971
58	0xc2341c46	-45.02761
59	0x41929819	18.324266
60	0xc130de39	-11.054254
61	0x4195f7aa	18.74593
62	0x4268f8ed	58.24309
63	0x41b37054	22.429848

embed.1.weight f4 [128, 128]
0	0xbdab487c	-0.08363435
1	0x3ada4339	0.0016652114
2	0x3c4844f4	0.012223471
3	0x3c5cbd80	0.013472915
4	0x3d97eb8c	0.07417974
5	0x3cf08402	0.029359821
6	0x3cef3ac3	0.029202824
7	0xbcc3e5de	-0.02391332
8	0xbc8dd74d	-0.017314577
9	0x3d519116	0.051163755
10	0xbd10d73b	-0.03536151
11	0x3d9a28ba	0.07527299
12	0xbd930940	-0.07179499
13	0x3d8e6cf3	0.06954374
14	0x3d12c281	0.035830025
15	0xbcc9abc4	-0.024618037
16	0xbd8fadc0	-0.07015562
17	0x3d45752f	0.048207458
18	0x3d6ac9c4	0.057321325
19	0xbd64927d	-0.055803765
20	0xbd3e8e34	-0.046522334
21	0x3c48d99f	0.012258916
22	0xbc244420	-0.010026008
23	0x3d189e0f	0.03726011
24	0xbd995133	-0.07486191
25	0xbbf3933d	-0.0074333237
26	0x3d13f59f	0.036122914
27	0x3c160ae1	0.009157867
28	0x3c9c483c	0.019077413
29	0x3db26929	0.08711464
30	0x3d690c30	0.05689639
31	0xbd86c2b2	-0.06580104
32	0xbcd3ff81	-0.02587867
33	0xbd149a8b	-0.036280196
34	0xbceaf1e8	-0.028679803
35	0xbda03b12	-0.07823767
36	0xbd127ff0	-0.035766542
37	0xbd5564af	-0.052097972
38	0xbd61186b	-0.054954927
39	0x3d7e5bd9	0.06209931
40	0x3d7d6d3f	0.061871763
41	0x3d4ac8ff	0.04950809
42	0xbd3f800b	-0.04675297
43	0xbd84ca3e	-0.06483887
44	0xbd0c1f02	-0.03420926
45	0x3ca5d848	0.020244732
46	0x3da99601	0.08280564
47	0x3d757634	0.05992718
48	0xbbbc6164	-0.0057489146
49	0xbd8a5bd0	-0.06755793
50	0x3d935626	0.07194166
51	0xbda89c92	-0.082329884
52	0x3d9c6804	0.07637027
53	0x3c24e90f	0.010065331
54	0x3d408a89	0.047007117
55	0x3db37349	0.08762223
56	0xbc84252e	-0.01613101
57	0xbce6d413	-0.028177297
58	0x3cac9f9c	0.021072201
59	0x3d7ee9ef	0.062234815
60	0x3d95b852	0.07310547
61	0xbda12d07	-0.078699164
62	0xbd817559	-0.063212104
63	0x3da888ff	0.08229255
64	0xbd093618	-0.033498853
65	0xbd546b81	-0.051860336
66	0x3d7f6fc4	0.062362447
67	0xbd423ee6	-0.047423266
68	0xbc81f642	-0.015864495
69	0xbd2eda5b	-0.04268871
70	0x3d15746e	0.03648799
71	0xbcd3ce02	-0.025855068
72	0xbd05586b	-0.032555025
73	0xbce13a26	-0.027493548
74	0xbc4bc3cc	-0.012436818
75	0x3d2c1d1e	0.042019956
76	0x3d33e84b	0.043922704
77	0x3d737d2f	0.059445556
78	0x3d9967cf	0.07490503
79	0xbaf72516	-0.0018855657
80	0xb7c72392	-2.3739212e-05
81	0xbd8a06f1	-0.06739605
82	0x3d4b264d	0.049597073
83	0xbc903710	-0.01760438
84	0x3c89a3d6	0.016801756
85	0xbcd0bae3	-0.02547974
86	0x3d83e42f	0.06440007
87	0x3c4a2591	0.012338058
88	0xbd56d072	-0.052444883
89	0xbc9403c6	-0.018068206
90	0x3d0551d6	0.032548748
91	0x3d2091e2	0.039201625
92	0xbc1fc68c	-0.009751927
93	0xbd68687c	-0.05674027
94	0x3cc65611	0.024210962
95	0x3ba6d6ee	0.0050915396
96	0x3d40a80e	0.04703527
97	0x3c994911	0.018711599
98	0x3da5ee7c	0.08102128
99	0xbcf0d274	-0.029397227
100	0xbd35da60	-0.04439771
101	0x3ce2bad6	0.027676981
102	0x3bb04777	0.005379613
103	0xbd6dc930	-0.058053195
104	0xbd9d37ec	-0.07676682
105	0xbc0689d8	-0.008211575
106	0x3d641e5e	0.055693023
107	0x3dab14bc	0.08353564
108	0x3d826927	0.063677125
109	0xbbfce88d	-0.007718152
110	0xbc5c4703	-0.013444665
111	0xbda9bd3f	-0.08288049
112	0xbc853ef7	-0.016265376
113	0xbd2a9016	-0.041641317
114	0x3c75405d	0.014968959
115	0xbd846b06	-0.064657256
116	0xbc8a08cd	-0.0168499
117	0xbc7d45b7	-0.015458516
118	0x3d2e4818	0.042549223
119	0x3d49f532	0.049306102
120	0xbd347fe1	-0.044067267
121	0x3d2f142c	0.042743847
122	0x3d8a6fea	0.06759627
123	0x3d8df13f	0.0693078
124	0xbd9749b1	-0.073871024
125	0xbd97c9a2	-0.07411505
126	0x3b3117cc	0.002702224
127	0xbb81605a	-0.0039482536
128	0x3dab756f	0.08372008
129	0x3d5f82cb	0.054568093
130	0x3d68728f	0.056749877
131	0x3c50bbb4	0.012740064
132	0x3d201840	0.039085627
133	0xbd45ce07	-0.048292186
134	0x3d99bfe1	0.07507301
135	0x3a1ca406	0.0005975369
136	0xbc94988e	-0.01813915
137	0x3d756c40	0.05991769
138	0xbdaaf1ed	-0.08346925
139	0x3d7cd25e	0.06172406
140	0x3d8ddbdb	0.069267
141	0x3d3d66f4	0.046240762
142	0xbd9ae33e	-0.07562874
143	0xbcfcf723	-0.030879563
144	0x3a81a6e2	0.0009891654
145	0x3d937144	0.07199338
146	0x3d2b8996	0.04187926
147	0xbd95fb08	-0.07323271
148	0x3da9d35b	0.08292266
149	0xbcde1df2	-0.027113888
150	0x3d49f337	0.049304213
151	0xbd6156f1	-0.055014554
152	0xbd484ce8	-0.04890147
153	0x3d3efa6c	0.04662554
154	0xbd0ca13c	-0.034333453
155	0xbcc4fb9b	-0.024045756
156	0x3c65848d	0.014008653
157	0x3d9e3b0c	0.07726106
158	0xbd90d7db	-0.07072421
159	0x3c2e6d7c	0.01064622
160	0x3d119254	0.03553994
161	0xbd1bab66	-0.038005255
162	0x3caa1f86	0.020766985
163	0x3cef39ec	0.029202424
164	0x3dae47cf	0.0850979
165	0x3cce6c03	0.025197988
166	0xbd68c265	-0.056826014
167	0xbca7735a	-0.020440746
168	0xbd369de1	-0.04458416
169	0x3cfdb937	0.030972106
170	0x3da851dc	0.082187384
171	0x3d72eaa9	0.05930582
172	0xbc976bbf	-0.018483995
173	0x3d62dd4f	0.055386838
174	0xbd5b01fa	-0.053468682
175	0x3cb22ba8	0.021749333
176	0xbd80f9f4	-0.06297675
177	0xbd471f5f	-0.048613902
178	0xbbb96f2c	-0.0056590047
179	0xbd6b47cc	-0.057441518
180	0x3d7acb5a	0.061229087
181	0xbbe94f03	-0.0071200146
182	0xbb8a4306	-0.0042194156
183	0xbd031af2	-0.03200812
184	0x3d9bb3e8	0.07602674
185	0xbd9982ab	-0.07495626
186	0xbcc8061c	-0.024416976
187	0x3d5234fb	0.051320057
188	0xbd9df615	-0.07712952
189	0xbd25edf8	-0.040510148
190	0x3c600cec	0.013674956
191	0x3c79eacd	0.015253735
192	0x3cccb5b7	0.024988992
193	0x3cd98d6e	0.026556697
194	0x3da54f4a	0.08071764
195	0x3dabf2f0	0.08395946
196	0xbd093fcb	-0.033508103
197	0xbc9f296a	-0.019428927
198	0x3c1e1763	0.0096491305
199	0x3d00af88	0.0314174
200	0x3c574eb5	0.013141324
201	0x3d2fcc30	0.042919338
202	0xbd7277f7	-0.05919644
203	0x3cd7bf07	0.026336206
204	0xbc32037c	-0.010865089
205	0xbc3a70c7	-0.011379427
206	0xbcbdace4	-0.02315373
207	0x3d3964cf	0.045262154
208	0xbd1e3d05	-0.03863241
209	0xbd9c5ad1	-0.07634509
210	0x3ab1461d	0.0013524924
211	0xbd6e43ea	-0.058170237
212	0xbd68aaf6	-0.056803666
213	0x3ccffad7	0.025388164
214	0xbbb8e834	-0.005642915
215	0x3cbfbf93	0.02340678
216	0x3d9830fd	0.07431219
217	0x3c137797	0.00900068
218	0xbbb10909	-0.0054026884
219	0xbd8d168e	-0.068890676
220	0xbbb72b6f	-0.0055898945
221	0xbd9ef4f3	-0.07761564
222	0x3d6d795a	0.057977058
223	0xbcb6936d	-0.022287095
224	0x3da61bdc	0.081107825
225	0x3d818c72	0.06325616
226	0xbd82aef5	-0.06381027
227	0xbd661032	-0.05616779
228	0x3d7cd0f1	0.0617227
229	0xbb75afbc	-0.003748878
230	0xbdaf1172	-0.08548249
231	0xbda2179f	-0.079146616
232	0x3d9627fb	0.073318444
233	0x3d0c09ba	0.034188963
234	0x3d6baa0d	0.05753522
235	0xbd925b65	-0.071463384
236	0x3ca115b7	0.019663675
237	0x3da9c3a9	0.08289272
238	0x3c8f319c	0.01747971
239	0xbd9a7d29	-0.07543404
240	0xbb576840	-0.0032868534
241	0x3d6ac709	0.05731872
242	0xbd0e200c	-0.03469853
243	0x3d30250a	0.043004073
244	0xbd7b6c3d	-0.06138252
245	0x3d32f3d0	0.04368955
246	0xbd97e417	-0.074165516
247	0xbd82d517	-0.063883
248	0x3dacaa54	0.08430925
249	0xbc39698f	-0.011316671
250	0xbd6f4cbf	-0.0584228
251	0xbcc5ffbc	-0.024169795
252	0x3d237242	0.039903887
253	0x3d33215e	0.043732993
254	0x3d3b52d5	0.04573329
255	0x3cf5f146	0.030022275

embed.1.bias f4 [128]
0	0xbc307a11	-0.01077129
1	0xbd7a020c	-0.06103711
2	0xbd644bd2	-0.05573637
3	0x3dadd86d	0.084885456
4	0xbd3b6735	-0.045752723
5	0x3db3c11e	0.087770686
6	0xbd9d8022	-0.07690455
7	0x3cae8039	0.021301376
8	0x3bf17cee	0.007369629
9	0xbd911223	-0.070835374
10	0x3d36f02b	0.044662636
11	0xbc8467bd	-0.016162748
12	0xbc9367e1	-0.01799387
13	0xbd257631	-0.04039592
14	0xbd1d0f08	-0.038344413
15	0x3d710da3	0.058850896
16	0xbd0a45b3	-0.033757877
17	0x3da5bf42	0.0809312
18	0xbd9d6320	-0.07684922
19	0x3dae5772	0.085127726
20	0xbd470590	-0.04858929
21	0xbd23b002	-0.039962776
22	0x3da26406	0.07929234
23	0x3d48283d	0.0488665
24	0xbb91c76a	-0.004448821
25	0xbd582f59	-0.05277953
26	0xbcb8e4e3	-0.02257008
27	0xbd504336	-0.050845347
28	0x3b8e45a8	0.0043417998
29	0xbc830b0c	-0.015996478
30	0x3c9b140c	0.018930458
31	0x3ce6bee7	0.028167201
32	0xbd059078	-0.03260848
33	0x3d3d4b1f	0.04621422
34	0x3daac88b	0.08339032
35	0x3b480d9f	0.0030525697
36	0xbcf773e8	-0.030206636
37	0x3d5a8fef	0.053359922
38	0x3d65f005	0.056137104
39	0x3d5b4538	0.05353281
40	0xbc83f464	-0.016107745
41	0xba500ed1	-0.0007936778
42	0x3cca70df	0.024712024
43	0xbd3863eb	-0.045017164
44	0x3d6814d6	0.056660496
45	0x3d36370a	0.044486083
46	0x3d3877fe	0.04503631
47	0x3d77ca68	0.060495764
48	0x3ce78ad7	0.028264446
49	0xbda43b56	-0.0801913
50	0xbcf775a7	-0.030207468
51	0xbd9ae9d0	-0.075641274
52	0x3cfb1a42	0.03065217
53	0xbd7fa6c6	-0.062414907
54	0x3d539705	0.051657695
55	0xbd817ae9	-0.063222714
56	0xbd78e9fa	-0.060770012
57	0xbd72fcf2	-0.05932326
58	0x3cdb3913	0.026760614
59	0xbd677f1b	-0.0565177
60	0x3da391a3	0.079867624
61	0xbb8957d3	-0.0041913777
62	0x3d32e7ed	0.043678213
63	0x3c6e6005	0.01454926
64	0x3d041b70	0.03225273
65	0x3d61bd7c	0.055112347
66	0xbda9aa88	-0.082844794
67	0x3cedf200	0.029046059
68	0xbca03e3f	-0.019560931
69	0x3d84ecab	0.06490453
70	0xbd57c200	-0.052675247
71	0xbd96c880	-0.07362461
72	0x3d232dd3	0.039838623
73	0x3cea6e84	0.028617151
74	0xbd53513f	-0.051591154
75	0xbd01e3f6	-0.03171154
76	0x3d045fe2	0.032318003
77	0xbd4d2e4f	-0.05009299
78	0xbcb8caca	-0.022557635
79	0xbd35eb6f	-0.04441398
80	0xb929fb5a	-0.00016210732
81	0x3daea199	0.08526916
82	0xbc0c9f56	-0.0085829105
83	0x3ba25dc5	0.004955026
84	0x3ce6ad73	0.028158879
85	0xbda1f954	-0.07908884
86	0x3d32758a	0.043569125
87	0x3c6b0a53	0.014345723
88	0xbc82bb3b	-0.01595842
89	0x3d3c642f	0.04599398
90	0xbd90b194	-0.0706512
91	0x3d5d52da	0.05403409
92	0x3da94818	0.08265704
93	0x3bf92f05	0.007604482
94	0xbda0deb9	-0.07854981
95	0xba02d587	-0.00049909245
96	0x3d0a239d	0.03372537
97	0xbbe7bfd9	-0.0070724306
98	0x3d6288b6	0.05530616
99	0x3d847e21	0.0646937
100	0x3c111649	0.008855411
101	0xbd5d1bda	-0.05398164
102	0xbc81662a	-0.015795786
103	0x3d86c3c1	0.06580306
104	0x3d345229	0.044023667
105	0x3d66c2f3	0.05633826
106	0xbd5852de	-0.052813403
107	0xbdaec314	-0.08533302
108	0xbd6b9fd8	-0.057525486
109	0x3d8f5e5f	0.07000422
110	0xbd94280b	-0.072342
111	0x3d90c706	0.07069211
112	0xbc626da7	-0.0138200885
113	0xbd9ea435	-0.07746164
114	0x3cc0d38b	0.023538372
115	0x3c9f3613	0.019434964
116	0xbc8be0af	-0.01707491
117	0x3d542bcf	0.05179959
118	0xbd845837	-0.06462138
119	0x3c90125c	0.01758688
120	0xbcd735a1	-0.02627069
121	0x3d53e300	0.051730156
122	0xbda808b9	-0.08204789
123	0x3da12d51	0.078699715
124	0xbd826091	-0.06366075
125	0xbd4f8a58	-0.050669044
126	0xbd247485	-0.040150184
127	0x3b16867e	0.0022968347

embed.3.weight f4 [256, 128]
0	0xbd54c716	-0.051947676
1	0x3d28f5aa	0.04124991
2	0x3d20bd0a	0.03924278
3	0xbb744694	-0.0037273513
4	0xbd0922e7	-0.03348055
5	0xbbf0f5c9	-0.0073535186
6	0xbcedcd13	-0.029028451
7	0x3d27a00b	0.040924113
8	0x3b8051f9	0.003916022
9	0x3d70ab43	0.058757078
10	0xbb99a9c4	-0.004689427
11	0x3d2036fd	0.03911494
12	0x3d9f0616	0.07764833
13	0x3db12b0b	0.08650788
14	0xbd3ac42a	-0.045597233
15	0x3d1f95db	0.038961273
16	0x3ce6ddff	0.028182028
17	0xbbe8212a	-0.0070840316
18	0x3d88ca15	0.06679169
19	0x3d7ab336	0.061206065
20	0xbc9bafeb	-0.019004783
21	0xbca47c6e	-0.020078864
22	0x3cfa1b53	0.030530607
23	0xbcc3417d	-0.023834938
24	0xbd14f461	-0.03636587
25	0x3c551a7b	0.013006802
26	0x3d103956	0.03521093
27	0xbc55d2f2	-0.013050782
28	0x3d3472f4	0.04405494
29	0xbd9a8162	-0.07544209
30	0xbd9f9d82	-0.07793714
31	0xbd9dcbdc	-0.07704899
32	0x3ceb3251	0.028710516
33	0xbd43a99c	-0.047769174
34	0xbd48193f	-0.0488522
35	0xbcb9bec9	-0.022673981
36	0x3d511045	0.051040906
37	0x3d1dcb1c	0.03852378
38	0x3dad390c	0.084581465
39	0xbd752713	-0.059851717
40	0x3c86bc3a	0.016447175
41	0x3b790fd1	0.0038003812
42	0xbdb325d1	-0.08747447
43	0x3da63466	0.08115463
44	0x3d6c7e54	0.057737663
45	0x3d2d5000	0.042312622
46	0x3cb62c69	0.022237973
47	0x3d3192cd	0.04335289
48	0xbcb0f8aa	-0.021602947
49	0xbd42c8f0	-0.04755491
50	0x3d98db58	0.074637115
51	0xbb0e8b7b	-0.0021750617
52	0xbc693ae7	-0.014235235
53	0x3c8820da	0.016617227
54	0xbd9af793	-0.07566752
55	0x3d229e0a	0.0397015
56	0x3da471f6	0.08029549
57	0x3d3d1fbe	0.04617285
58	0x3d8da2c9	0.069158144
59	0x3cedb40a	0.029016513
60	0xbcdfdcd1	-0.027326973
61	0xbd14e1d4	-0.03634818
62	0xbd881032	-0.06643714
63	0x3d0814bb	0.033222895
64	0xbd840900	-0.06447029
65	0x3d781b2e	0.060572796
66	0x3cbdbb35	0.023160556
67	0x3cbe939b	0.023263743
68	0xbba4c647	-0.0050285193
69	0x3c18e9a7	0.009333051
70	0x3d8804f6	0.06641571
71	0x3d653076	0.05595442
72	0x3d2f2130	0.04275626
73	0xbd263760	-0.040580153
74	0x3d87b6f6	0.06626694
75	0xbd9a18e5	-0.075242795
76	0xbcee16ba	-0.029063571
77	0xbc9119f4	-0.01771257
78	0xbd5f0d15	-0.054455835
79	0xbc30f53d	-0.010800657
80	0xbd064777	-0.032782998
81	0x3d2f6290	0.042818606
82	0xbdac16b6	-0.08402769
83	0x3a86ef94	0.0010294789
84	0x3ca65aa7	0.020306898
85	0xbc112199	-0.008858108
86	0x3d86d9ee	0.065845355
87	0x3d7ff6f4	0.062491372
88	0x3d3001c5	0.042970438
89	0x3d1b1d23	0.037869584
90	0x3d8436af	0.064557426
91	0xbd426b91	-0.047465865
92	0x3d2e2991	0.04252011
93	0x3d715100	0.05891514
94	0xbd566d68	-0.05235043
95	0xbda1c8a3	-0.078995965
96	0xbd17a227	-0.037019875
97	0x3d2fe990	0.042947352
98	0xbd8e6ba0	-0.069541216
99	0x3d1b0e9f	0.03785574
100	0xba0445ee	-0.0005045821
101	0x3d2fbf53	0.04290707
102	0xbc1544d8	-0.009110652
103	0xbd567ff2	-0.052368112
104	0x3c2818a9	0.010259786
105	0xbcd3fea5	-0.02587826
106	0x3d526a4d	0.051370908
107	0xbd194cb4	-0.037426665
108	0xbdaece87	-0.08535486
109	0x3da25973	0.07927217
110	0x3d9d216e	0.07672392
111	0x3d5c1cee	0.053738527
112	0xbb467dee	-0.0030287462
113	0xbc94fd8f	-0.018187312
114	0x3d1fe4b8	0.039036483
115	0xbd548f9a	-0.05189476
116	0xbc116d2c	-0.008876126
117	0x3da46bb2	0.08028354
118	0x3c27053e	0.010194121
119	0x3d72d3bf	0.059283968
120	0xbdafe61d	-0.085888125
121	0xbd88364f	-0.066509835
122	0xbda941ee	-0.08264528
123	0xbd373906	-0.044732116
124	0x3b522fa5	0.0032071855
125	0xbd5e9660	-0.054342628
126	0x3db21b93	0.086966656
127	0xbd46fa89	-0.048578773
128	0xbd715566	-0.058919333
129	0x3ca73a7a	0.020413626
130	0xbd9af780	-0.07566738
131	0xbcd4cc47	-0.025976313
132	0xbc595e90	-0.013267174
133	0x3c4257a2	0.011861714
134	0x3b7dce19	0.003872758
135	0xbd8fad54	-0.070154816
136	0x3d08b5eb	0.033376615
137	0xbd1d52a3	-0.038408887
138	0xbda9e87b	-0.08296295
139	0xbce3f0a3	-0.027824705
140	0xbdaf7c8f	-0.085686795
141	0xbd351e0d	-0.04421811
142	0xbbe353c5	-0.0069374763
143	0xbbe5e5a5	-0.007015901
144	0x3d71f044	0.059067026
145	0xbc010db5	-0.007876803
146	0xbd943fb2	-0.072387114
147	0xbd134a7b	-0.035959702
148	0xbca39f1b	-0.019973328
149	0x3c996d7c	0.018728964
150	0x3cd68764	0.026187606
151	0x3da5b1e5	0.08090571
152	0x3d8eaf19	0.06966991
153	0xbda86400	-0.082221985
154	0x3d447123	0.047959458
155	0xbd89dcf7	-0.06731599
156	0xbd972927	-0.07380896
157	0xbd5e1f32	-0.05422897
158	0x3da746ba	0.08167787
159	0x3d9fd804	0.078048736
160	0xbd7db7f2	-0.061943002
161	0x3d93d934	0.072191626
162	0x3c40116c	0.011722904
163	0x3cf9ce46	0.030493867
164	0x3cb707ec	0.022342645
165	0x3cd7b340	0.02633059
166	0x3da7e56e	0.08198057
167	0xbcb6907d	-0.022285694
168	0xbd865c7f	-0.06560611
169	0xbd80db1c	-0.06291792
170	0x3d83756c	0.06418881
171	0xbcdbe098	-0.026840493
172	0x3d3c5e24	0.045988217
173	0x3d4b39a8	0.049615532
174	0xbd4f4044	-0.050598398
175	0xbd0f5913	-0.034997057
176	0x3da325e1	0.07966209
177	0x3c8c989e	0.017162617
178	0xbd84e422	-0.064888254
179	0x3d176264	0.036959067
180	0xbda1fa1a	-0.07909031
181	0x3a550413	0.0008125912
182	0x3d5f8221	0.05456746
183	0xbd849745	-0.06474165
184	0x3ac56ffe	0.0015063283
185	0x3d9525e3	0.07282617
186	0x3d5025bb	0.050817233
187	0xbbb1d783	-0.0054273023
188	0x3d8d47e2	0.06898476
189	0xbdab76d9	-0.08372278
190	0xbdae61ce	-0.085147485
191	0x3ceff6fc	0.029292576
192	0xbc8c71a9	-0.017144041
193	0xbd985615	-0.07438294
194	0xbc8c4f25	-0.017127583
195	0xbd7d93d1	-0.061908547
196	0x3c3b0ef3	0.011417138
197	0x3ccc973e	0.024974462
198	0x3ccba9e0	0.024861276
199	0x3cded82e	0.027202692
200	0xbdb334b6	-0.08750288
201	0xbd52b6cd	-0.051443864
202	0xbd965e02	-0.07342149
203	0x3c223ca0	0.009902149
204	0x3cf1bb06	0.029508125
205	0xbd3462b4	-0.044039443
206	0x3d4b1751	0.049582783
207	0xbce2ba1c	-0.027676634
208	0x3cc5c9cb	0.024144074
209	0xbc717bd3	-0.014738995
210	0xbda3bff8	-0.079955995
211	0x3c9a5608	0.018839851
212	0xbd20770c	-0.039176032
213	0x3c7fd7e6	0.015615439
214	0xbcf89ff1	-0.030349704
215	0xbdafbedf	-0.08581328
216	0xbd27d8fa	-0.04097841
217	0x3d4bafca	0.049728192
218	0x3b46b324	0.0030319178
219	0xbd06d30d	-0.032916117
220	0xbbb4b05d	-0.005514188
221	0x3d145b17	0.036219683
222	0xbcdfd7fa	-0.027324665
223	0x3d57a3b1	0.052646343
224	0x3c00258e	0.007821454
225	0xbda77529	-0.081766434
226	0x3d2c54b9	0.042072985
227	0x3d046795	0.032325346
228	0xbd538987	-0.05164483
229	0xbc149844	-0.009069506
230	0x3c1990ed	0.009372932
231	0x3c81fd6b	0.01586791
232	0xbd11f7c6	-0.035636686
233	0xbcb55014	-0.02213291
234	0xbd79e30e	-0.06100755
235	0xbb8b50c9	-0.0042515737
236	0xbd916c4e	-0.071007356
237	0xbd18703a	-0.037216403
238	0xbd866604	-0.06562427
239	0x3c2ab716	0.010419628
240	0xbd995155	-0.07486216
241	0x3c86acbc	0.016439788
242	0x3c479937	0.012182525
243	0xbc5ae970	-0.01336132
244	0x3cdf6436	0.027269464
245	0x3b9ef5e8	0.0048510917
246	0x3d6d9361	0.05800188
247	0xbd59d704	-0.05318357
248	0xbd2c4333	-0.042056274
249	0x3dad5a04	0.08464435
250	0xbda1dd72	-0.079035655
251	0xbcfb27e5	-0.030658672
252	0xbc9c87d4	-0.019107737
253	0xbcb37a1e	-0.021908816
254	0x3cda8639	0.02667533
255	0xbd01f59b	-0.03172837

embed.3.bias f4 [256]
0	0xbc8570c5	-0.016289124
1	0x3d2c5fd4	0.042083576
2	0xbc85fefd	-0.01635694
3	0x3d162743	0.036658537
4	0x3d238212	0.039918967
5	0x3d984cd8	0.07436532
6	0xbc9b7e55	-0.018981138
7	0xbd3fb20d	-0.04680066
8	0xbd635b84	-0.055507198
9	0xbca3167a	-0.019908179
10	0xbdb3d44c	-0.08780727
11	0x3d66a7c8	0.056312352
12	0xbd00ab41	-0.03141332
13	0xbd9ce6b0	-0.07661188
14	0xbc8912af	-0.016732542
15	0x3d898535	0.0671486
16	0x3d8fd3e4	0.07022837
17	0x3d687a95	0.05675753
18	0xbc83c1d5	-0.016083637
19	0xbc68b931	-0.014204309
20	0xbb6f5070	-0.003651645
21	0x3cafab16	0.021443885
22	0xbd28174b	-0.04103784
23	0xbd057807	-0.03258517
24	0x3dab8fcf	0.08377039
25	0x3c61abe8	0.013773896
26	0x3d87cae9	0.06630499
27	0xbcf3fbb1	-0.029783102
28	0x3d14cfd7	0.036331024
29	0x3c5ca4d6	0.013467034
30	0x3d160fe5	0.036636252
31	0xbd4856ee	-0.048911028
32	0xbbb47b6b	-0.0055078766
33	0x3d628a9c	0.05530797
34	0x3c0a77b4	0.008451391
35	0x3d95b38d	0.07309637
36	0xbb426b4d	-0.0029666007
37	0xbca5b734	-0.02022896
38	0x3c16cbeb	0.009203891
39	0xbc9f8173	-0.019470906
40	0x3d24e8e2	0.040261157
41	0x3da43ae1	0.08019043
42	0xbd5aa38e	-0.053378634
43	0xbdb1d54d	-0.08683262
44	0x3daf8082	0.08569433
45	0xbbd05be4	-0.0063586105
46	0xbcbe2aee	-0.02321383
47	0x3c8c9252	0.017159615
48	0x3da0022a	0.07812913
49	0xbc9561fe	-0.018235203
50	0x3d90493a	0.07045217
51	0x3d47213d	0.048615683
52	0x3d8e1590	0.069377065
53	0xbd8d60b5	-0.06903211
54	0x3d9fe23f	0.07806825
55	0xbda0b979	-0.07847876
56	0x3c28bdba	0.010299141
57	0xbda47405	-0.080299415
58	0xbd8f4304	-0.06995204
59	0x3cc49d84	0.02400089
60	0xbdb1c920	-0.0868094
61	0x3ca625cc	0.020281695
62	0x3d5457ba	0.051841475
63	0xbc57ddda	-0.013175452
64	0x3d740c11	0.05958182
65	0xbd931a4d	-0.07182751
66	0xbcbfd37b	-0.023416271
67	0x3da396eb	0.0798777
68	0xbc477c9f	-0.012175708
69	0xbc98c04f	-0.018646387
70	0x3cabbaf3	0.020963168
71	0xbd7589dc	-0.059945926
72	0xbda65c50	-0.08123076
73	0x3d68b5ec	0.05681412
74	0x3d054882	0.032539852
75	0xbd4a0477	-0.049320664
76	0x3cdec747	0.027194632
77	0x3d7efce5	0.062252898
78	0xbd8ff3c4	-0.070289165
79	0xbc8a8ae2	-0.016911928
80	0xbcd192aa	-0.02558263
81	0x3d92db89	0.07170779
82	0xbc78bc12	-0.015181558
83	0xbd9f1051	-0.07766784
84	0xbc17783c	-0.009244975
85	0xbdb2b75e	-0.08726381
86	0x3d338d63	0.04383601
87	0x39a41937	0.00031299304
88	0xbd87b9c3	-0.06627228
89	0xbd8432c5	-0.06454996
90	0xbd71d5fb	-0.05904196
91	0xbdafc566	-0.08582573
92	0x3d7a98b1	0.061180774
93	0x3d9c6927	0.07637244
94	0xbd1f055d	-0.038823474
95	0xbda2d6de	-0.07951139
96	0x3d584985	0.05280449
97	0xbcc21415	-0.023691216
98	0xbd809ef9	-0.06280322
99	0xbb2cfcaf	-0.0026395728
100	0xbd919a47	-0.07109504
101	0xbd95d82b	-0.073166214
102	0xbd76936c	-0.060199186
103	0x3cf2cbb4	0.029638149
104	0x3cb3c677	0.021945221
105	0x3d1290a2	0.035782464
106	0xbc87d1ad	-0.016579473
107	0xbd06765b	-0.032827716
108	0xbc045949	-0.008077928
109	0x3d621fcb	0.0552061
110	0x3d15d1a0	0.036576867
111	0xbd956105	-0.07293896
112	0x3b5a5d08	0.003331961
113	0xbd872622	-0.0659907
114	0x3da5c17e	0.08093546
115	0xbd59e5b5	-0.05319758
116	0xbd0ee25e	-0.03488385
117	0x3d74a3e8	0.059726626
118	0x3d5c07dc	0.053718433
119	0x3d9325f1	0.07184971
120	0x3c4715ea	0.012151221
121	0x3dad455c	0.08460495
122	0xbdb333f2	-0.08750142
123	0xbd64b9f1	-0.05584139
124	0x3ca15325	0.019692967
125	0xbc918d58	-0.017767593
126	0xbd85ecae	-0.06539284
127	0x3d809050	0.062775254
128	0x3d4fedd9	0.05076394
129	0x3dac7f56	0.08422725
130	0x3d825754	0.06364313
131	0xbdb08cb9	-0.08620591
132	0xbdb4bd4d	-0.08825169
133	0xbd8f309a	-0.06991692
134	0x3befc358	0.007316988
135	0x3cb9bc01	0.022672655
136	0xbb9059c1	-0.0044052307
137	0xbd8b3515	-0.06797234
138	0xbca9c164	-0.020722099
139	0x3d1a1c1b	0.03762446
140	0xbd4071a7	-0.046983387
141	0x3d27f8c4	0.041008726
142	0x3ce584b5	0.028017381
143	0x3c2bd533	0.010487842
144	0x3d729c29	0.059230957
145	0xbd1e1854	-0.03859742
146	0x3d8c48f5	0.06849853
147	0xbcf5031c	-0.02990871
148	0x3dab5fa2	0.0836785
149	0x3be264ae	0.0069089746
150	0xbd6623ac	-0.056186363
151	0x3ca25cf9	0.019819723
152	0x3d64e453	0.05588181
153	0xbd5709fc	-0.052499756
154	0x3d1760f1	0.036957685
155	0x3d90a971	0.070635684
156	0xbd18488b	-0.037178557
157	0xbd103a55	-0.03521188
158	0xbdaed71d	-0.08537123
159	0xbd1bbd66	-0.03802242
160	0xbc801331	-0.015634151
161	0x3d03e29d	0.032198537
162	0xbd13a418	-0.036045164
163	0x3d48fa5f	0.049066897
164	0xbc7bca21	-0.0153680155
165	0x3da05b1e	0.07829879
166	0xbda4069d	-0.08009074
167	0x3be57eac	0.007003626
168	0xbd8e4013	-0.06945815
169	0xbc8f1ca3	-0.01746971
170	0x3d6e10fb	0.058121663
171	0xbd71706f	-0.058945116
172	0x3d8dbd8a	0.06920917
173	0x3cad85e2	0.021182004
174	0x3b566f2c	0.0032720072
175	0xbd639c98	-0.05556926
176	0x3dafeb9a	0.08589859
177	0xbc0af570	-0.008481368
178	0x3cdf03de	0.027223524
179	0x3d0bf6d6	0.034170948
180	0x3d56211e	0.052277677
181	0xbc97fb50	-0.018552452
182	0x3d9f2b71	0.07771958
183	0xbb8010a7	-0.003908235
184	0xbda49970	-0.080370784
185	0xbd3f73de	-0.04674136
186	0x3c1ddf65	0.009635781
187	0xbd54303b	-0.05180381
188	0xbd112b44	-0.035441652
189	0x3d8f3b14	0.0699369
190	0x3d87a603	0.06623461
191	0xbd6cf229	-0.05784813
192	0x3c9f7316	0.019464057
193	0xbd1ce298	-0.038302034
194	0x3c3466bc	0.011010822
195	0xbd93abf3	-0.07210531
196	0x3b7ca0de	0.0038548033
197	0x3d844a5b	0.06459495
198	0x3d444f59	0.047927234
199	0xbd30f4c9	-0.043202195
200	0xbcc8e616	-0.024523776
201	0x3d0a89e4	0.03382291
202	0x3d0cac35	0.034343917
203	0xbc27255f	-0.010201781
204	0xbcaaed94	-0.02086524
205	0xbcc89037	-0.02448283
206	0xbd8e4510	-0.069467664
207	0xbd75f439	-0.060047362
208	0x3ca2d50d	0.019876981
209	0xbc7ee847	-0.015558309
210	0xbd696bbd	-0.056987513
211	0xbc7eddef	-0.015555843
212	0xbd92ff3a	-0.07177587
213	0xbd5bc8ce	-0.0536583
214	0x3a198ee5	0.000585778
215	0x3dad8e04	0.08474353
216	0x3975991b	0.00023422057
217	0x3d597580	0.053090572
218	0xbc9a616a	-0.018845279
219	0xbd8b05f9	-0.067882486
220	0x3bc9d2b3	0.0061591505
221	0x3d10a30f	0.035311755
222	0xbd94e478	-0.072701395
223	0xbd3af685	-0.045645256
224	0x3d532bdc	0.0515555
225	0xbd56394d	-0.05230074
226	0xbd45e8da	-0.048317768
227	0x3d8bff11	0.068357594
228	0x3d45ef8f	0.048324164
229	0x3caf0dbb	0.021368852
230	0xbd2f2064	-0.0427555
231	0xbd115535	-0.03548165
232	0xbda15411	-0.078773625
233	0xbd0adfa0	-0.03390467
234	0x3d81c520	0.06336427
235	0x3d8b447f	0.06800174
236	0x3bf67e08	0.0075223483
237	0x3d343c1c	0.044002637
238	0xbc2bdda4	-0.010489855
239	0x3cb6e16e	0.02232429
240	0xbd2a758c	-0.041616008
241	0xbd4ec519	-0.050480936
242	0x3beca84a	0.00722221
243	0xbd9ff921	-0.078111894
244	0xbd6cbd29	-0.057797585
245	0xbd89bcc5	-0.06725458
246	0xbdb0ce2e	-0.08633076
247	0x3d0a1f29	0.033721123
248	0x3d62ce04	0.055372253
249	0x3c17e6da	0.009271348
250	0xbc4b5b8b	-0.012411962
251	0xbcf3e773	-0.02977345
252	0xbda39343	-0.07987072
253	0x3da28b0f	0.079366796
254	0xbd9abe2f	-0.07555806
255	0x3d8600f3	0.0654315

conv_spatial.mlp.0.weight f4 [256, 2]
0	0xbd16fb74	-0.036860898
1	0xbf24ae12	-0.6432811
2	0x3f23cb7b	0.6398236
3	0x3e269d75	0.16271003
4	0x3f0c5891	0.5482264
5	0xbedbc3fd	-0.42922965
6	0xbed30663	-0.4121581
7	0x3f0ac444	0.5420573
8	0xbeb2ad05	-0.34897628
9	0xbf0a3f1f	-0.54002565
10	0xc00c195e	-2.1890483
11	0xc0237fc4	-2.5546732
12	0xbf2147b9	-0.63000065
13	0xbd040503	-0.032231342
14	0x3ee8ddb9	0.4548166
15	0x3f0cafe5	0.54955894
16	0xbe5a939e	-0.21345374
17	0xbf147893	-0.5799648
18	0xbfab192d	-1.3367058
19	0xbfcd0707	-1.601777
20	0x3fabfb72	1.343611
21	0xbf0ac9fa	-0.5421444
22	0xbee81a30	-0.4533248
23	0x3f03c900	0.51478577
24	0xbf0628f5	-0.52406245
25	0x3f68ab2c	0.9088619
26	0x3dec908c	0.11551008
27	0xbf256d1e	-0.64619625
28	0x3f1b7b84	0.60735345
29	0xbe785706	-0.24251947
30	0x3db9b3e0	0.090675116
31	0x3f21ff34	0.63280034
32	0xbe108d32	-0.14116362
33	0x3f24e5a9	0.64412934
34	0x3f11e581	0.5699082
35	0xbec17258	-0.3778255
36	0xbf1c86de	-0.6114329
37	0xbfc7f89d	-1.5622746
38	0xbe83b2d6	-0.25722378
39	0x3f14bb03	0.5809786
40	0xbe69ebc2	-0.2284384
41	0x3f1f8847	0.6231732
42	0xbf9d3e98	-1.2284727
43	0x4004ef65	2.0771115
44	0xc052e5e4	-3.2952814
45	0xbf2b66a6	-0.66953504
46	0xbfd90bad	-1.6956688
47	0x3f8b782a	1.0896046
48	0x3f1a1f0d	0.6020363
49	0x3ed3598b	0.41279253
50	0x3c51ddfb	0.012809272
51	0xbf1e221c	-0.61770797
52	0x3ef6ccb8	0.48203063
53	0xbe76d632	-0.24105147
54	0x3ec528dc	0.38507736
55	0xbf13f1fa	-0.577911
56	0xbed53aa4	-0.41646302
57	0xbf126e83	-0.5719988
58	0x3f187d0a	0.59565794
59	0x3ed739dd	0.42036334
60	0xbe600701	-0.21877672
61	0x3f201813	0.62536734
62	0x3eaa2122	0.33228403
63	0x4035faff	2.8434446
64	0x3f1ae295	0.60501987
65	0xbe80ea85	-0.25178924
66	0x3f2653ee	0.64971817
67	0x3e456de7	0.19280206
68	0xbe9ea4f5	-0.30985227
69	0xbf1b4414	-0.60650754
70	0x3fc2f086	1.5229652
71	0x3f3c2599	0.7349487
72	0x3fc1121d	1.5083653
73	0xc014bfcf	-2.324207
74	0x3ed91b0a	0.42403442
75	0xbf00b14f	-0.5027055
76	0xbf03590c	-0.5130775
77	0x3eed5f86	0.4636194
78	0x3eec1155	0.46106973
79	0x3f03d4ba	0.5149647
80	0x3ec8086c	0.39068925
81	0x3f0421da	0.51614153
82	0xbf1640a5	-0.5869239
83	0x3e9083ab	0.28225455
84	0xbf15b9a4	-0.5848639
85	0x3e79cd3e	0.243947
86	0x3f04b497	0.5183806
87	0x3eed5534	0.46354067
88	0xbea34db4	-0.3189522
89	0x3f1ddf7c	0.61669135
90	0xbf1f2ead	-0.62180597
91	0xbebb89a8	-0.3662846
92	0xbe994dd0	-0.2994218
93	0x3f1f3f94	0.6220639
94	0xbf1532d0	-0.5828066
95	0xbee0515b	-0.4381207
96	0x3f1f345b	0.62189263
97	0x3ebc9d2b	0.3683866
98	0x3c7ff4ed	0.01562236
99	0xbf1a9735	-0.60386974
100	0x3ed4396a	0.41450053
101	0xbf129ae1	-0.57267576
102	0x3f20a4d6	0.6275152
103	0xbd4b82c4	-0.049685255
104	0xbe31fd29	-0.17381729
105	0xbf1f8145	-0.62306625
106	0xbe4b0c25	-0.19828852
107	0x3f2389fe	0.63882434
108	0xbf0f3730	-0.55943584
109	0x3ecfc607	0.4058077
110	0x3e9b9ad7	0.3039157
111	0xbf1ee587	-0.6206898
112	0xbe01efaa	-0.12689081
113	0x3f23e136	0.6401552
114	0x3e7025ca	0.23451915
115	0x3f1e7665	0.61899406
116	0x4011dd73	2.2791412
117	0xc0507ead	-3.2577317
118	0x3f1ab074	0.60425496
119	0x3ecece15	0.40391603
120	0xbf139b5a	-0.5765892
121	0x3ebe9bc6	0.3722822
122	0xbf0f2751	-0.5591937
123	0x3ed7f288	0.42177224
124	0x3f232008	0.6372075
125	0x3e8e531c	0.27797782
126	0xbf197fe7	-0.5996079
127	0xbe1e7461	-0.15474083
128	0x3f136812	0.57580674
129	0xbeb05d9b	-0.34446415
130	0x3f032a66	0.5123657
131	0x3f03fd5c	0.5155847
132	0xbd422f2c	-0.047408268
133	0x3f1e7f53	0.6191303
134	0x3f174295	0.5908597
135	0xbe9fb639	-0.31193712
136	0xbf227c80	-0.6347122
137	0x3e113bfa	0.14183035
138	0xbf22778b	-0.6346366
139	0xbe8183aa	-0.25295764
140	0x3f11f9f9	0.57022053
141	0x3ea7017d	0.32618323
142	0xbefac1cd	-0.48975983
143	0xbee01399	-0.43764952
144	0xbe9aba23	-0.30220136
145	0x3f1a4384	0.6025927
146	0x3f107aa8	0.5643716
147	0x3eed1c7a	0.46310788
148	0xbe2e040b	-0.1699373
149	0x3f23b19d	0.6394289
150	0x3ea18f89	0.3155482
151	0xbf0d06ae	-0.5508832
152	0xbec4d195	-0.38441148
153	0xbf134a4f	-0.5753526
154	0x3f00b474	0.5027535
155	0xbd463b43	-0.04839636
156	0x3f43c1ad	0.764674
157	0xbff01657	-1.8756818
158	0xbecab6b6	-0.39592522
159	0x3ec52f52	0.38512665
160	0xbf14edcc	-0.5817535
161	0xbee3e324	-0.44509232
162	0xbf0c8969	-0.5489717
163	0x3ed8c9d1	0.42341474
164	0xbf246a96	-0.6422514
165	0xbe7f532b	-0.2493407
166	0x4007c214	2.1212206
167	0x401b9959	2.4312346
168	0xbef05b7e	-0.46944803
169	0xbf0e370d	-0.5555275
170	0x3f250aa3	0.64469355
171	0x3ddbe684	0.10737327
172	0xbdff1a91	-0.12456239
173	0xbf2152aa	-0.6301676
174	0x3f0b7f5e	0.5449122
175	0xbebc7d9d	-0.36814585
176	0xbf081b08	-0.53166246
177	0xbe0e19e0	-0.13877058
178	0x3ee07b9a	0.438443
179	0xbf0f8064	-0.56055284
180	0x3f0a54a3	0.54035395
181	0x3efc8ddd	0.49326983
182	0xbf0ac1dd	-0.5420206
183	0x3ee23881	0.44183734
184	0x401eb756	2.47994
185	0xbf1b9534	-0.6077454
186	0x3ededaba	0.4352625
187	0x3f0e3c5c	0.5556085
188	0xbf216d05	-0.63056976
189	0xbcbff4c4	-0.023432143
190	0x3f0530d5	0.52027637
191	0x3f01e40f	0.50738615
192	0xbf0ae096	-0.5424894
193	0x3ee36e52	0.44420105
194	0xbea76d55	-0.327006
195	0xbf1b9da5	-0.6078742
196	0x3ec304b4	0.38089526
197	0x3f122623	0.5708944
198	0x3d75bc09	0.059993777
199	0x3f1b943a	0.6077305
200	0x3f090acc	0.535321
201	0xbec50e1c	-0.38487327
202	0xbf019a22	-0.50625813
203	0xbf0711b9	-0.5276142
204	0x3f187589	0.59554344
205	0xbe733c64	-0.23753506
206	0x3ed8a834	0.4231583
207	0x3f08aebf	0.5339164
208	0x3f106acc	0.5641296
209	0xbec1b9a4	-0.37836945
210	0x3ec98d28	0.39365506
211	0xbf1711ca	-0.5901152
212	0x3f3c0336	0.734424
213	0x3fb53578	1.4156942
214	0x3ea01d3f	0.31272313
215	0x3f14c379	0.5811077
216	0xbf098653	-0.5372059
217	0xbeed8e88	-0.46397805
218	0xbff2d6e8	-1.8971834
219	0xc0226ab1	-2.537762
220	0x3f0e5b31	0.556079
221	0xbed43053	-0.41443118
222	0x40001bb1	2.0016901
223	0x3f09730b	0.53691167
224	0xc077afb3	-3.8700988
225	0xbf27e25d	-0.6557978
226	0x3dac02af	0.08398949
227	0xbf24c658	-0.6436515
228	0xbf0352af	-0.5129804
229	0x3ee9adc2	0.4564038
230	0x401af3cc	2.4211302
231	0x3f9facd1	1.2474614
232	0x3eb36240	0.35035896
233	0xbf08720d	-0.5329903
234	0xbeb8966f	-0.36052272
235	0xbf185261	-0.595007
236	0xbf1c222b	-0.60989636
237	0x3e5255ef	0.20540594
238	0x3f0a59f6	0.5404352
239	0x3efa5611	0.48893788
240	0x3ef4b9b8	0.47797942
241	0xbf07d72d	-0.5306271
242	0x3f1231cd	0.5710724
243	0x3eeac937	0.4585664
244	0x3e8b66b1	0.27226785
245	0xbf1e4919	-0.6183029
246	0xbef0ed3e	-0.47056
247	0xbf07abb0	-0.5299635
248	0x3fa1a60b	1.2628797
249	0xc0161ab5	-2.34538
250	0x3f6e0b0e	0.9298562
251	0xbf96d52d	-1.1783806
252	0x3e201b53	0.15635423
253	0x3f1c1827	0.60974354
254	0xbe3e0107	-0.1855508
255	0xbf1c7982	-0.61122906

conv_spatial.mlp.2.weight f4 [256, 256]
0	0x3eff5717	0.49871132
1	0xbd340d9d	-0.043958295
2	0x3e3e64c6	0.1859313
3	0xbeda56f3	-0.42644462
4	0x3e94592d	0.28974286
5	0xbd0510e4	-0.03248681
6	0xbb430fcc	-0.0029764054
7	0xbe3ec849	-0.1863109
8	0x3e931772	0.28728825
9	0x3ddeb575	0.10874454
10	0x3e918f16	0.28429478
11	0xbea3ffb2	-0.32031018
12	0xbee249a3	-0.44196805
13	0x3f54632f	0.8296384
14	0x3e3a1fd0	0.18176198
15	0xbee16228	-0.440202
16	0xbf6671eb	-0.90017575
17	0x3e8f7f0e	0.28026623
18	0x3e721cfd	0.2364387
19	0xbfaff397	-1.3746213
20	0xc0079fdc	-2.119132
21	0xbec7c5fd	-0.3901824
22	0xbd362488	-0.044468433
23	0xbea1183d	-0.31463805
24	0xbe2382a7	-0.15967809
25	0x3ef3d62f	0.47624347
26	0x3e5a0c65	0.2129379
27	0x3f0a2a2d	0.53970605
28	0x3e78e381	0.24305536
29	0xbe4d9c6e	-0.20079204
30	0xbff9c81e	-1.9514196
31	0xbe8c17d0	-0.27361917
32	0x3e25ed08	0.16203701
33	0xbce2cb92	-0.02768496
34	0x3eb3f8e3	0.35150823
35	0x3d1f57af	0.03890198
36	0x3ec1137e	0.37710184
37	0x3eca71d8	0.3953998
38	0xbe9f8f02	-0.31163794
39	0xbe5361d5	-0.20642789
40	0xbe449cf2	-0.19200495
41	0xbdfb0cc7	-0.122582965
42	0xbe46273f	-0.19350909
43	0xbe643f23	-0.2228971
44	0xbf6126d0	-0.8794985
45	0x3e0ed1bf	0.139472
46	0xbf8138d9	-1.0095474
47	0x3dba8507	0.09107404
48	0xbde12b83	-0.10994627
49	0x3f124f4c	0.5715225
50	0x3ee7851e	0.45218748
51	0x3d6aaf7e	0.05729627
52	0x3ebac696	0.36479634
53	0xbfb410af	-1.4067591
54	0xbe9172cd	-0.284079
55	0x3f8a6b65	1.0814024
56	0xbf422404	-0.75836205
57	0xbea98a62	-0.3311339
58	0x3ea5fb2c	0.3241819
59	0xbd967db9	-0.073481984
60	0xbe5572fa	-0.20844641
61	0xbe6b58c9	-0.22983088
62	0xbddee21a	-0.10882969
63	0x3d85c0de	0.06530927
64	0x3e836964	0.25666344
65	0xbe4e2f2f	-0.20135187
66	0xbf14fca1	-0.5819798
67	0x3e58c801	0.21170045
68	0xbdea04ad	-0.11426673
69	0x3d90c732	0.070692435
70	0xbd6ea31d	-0.058261026
71	0x3e8381f1	0.25685075
72	0xbf80523c	-1.0025096
73	0xbe3ffbef	-0.18748449
74	0xbf8e866f	-1.1134776
75	0x3f2eeada	0.68327105
76	0x3e6874c7	0.22700797
77	0x3cf58940	0.029972672
78	0x3f210ef9	0.6291347
79	0xbeae7d36	-0.34079903
80	0x3dbc9004	0.09207156
81	0xbe86f21d	-0.26356593
82	0x3d7332a9	0.059374485
83	0x3dca2078	0.09869474
84	0x3e48d1d6	0.19611296
85	0x3b196570	0.0023406409
86	0x3eb8fdff	0.36131284
87	0x3e4d3cdf	0.20042752
88	0xbd38c18e	-0.045106463
89	0x3ec2adee	0.38023323
90	0xbe46a908	-0.19400418
91	0xbe7abcf4	-0.24486142
92	0x3e9a4acb	0.30135188
93	0xbe4b49d7	-0.19852386
94	0xbdc50e9e	-0.09621929
95	0xbe190277	-0.14942347
96	0xbe9d21b0	-0.30689764
97	0x3eafe652	0.34355408
98	0xbe5d4124	-0.2160688
99	0xbeea5937	-0.4577119
100	0x3e89e479	0.26932123
101	0x3e1f97b0	0.15585208
102	0x3e5924f3	0.21205501
103	0xbe60448f	-0.21901153
104	0x3e75e331	0.24012448
105	0x3f0f785a	0.56043017
106	0xbe3d92dc	-0.18513054
107	0xbe88bf80	-0.26708603
108	0x3e1bf0cd	0.15228577
109	0xbd89e332	-0.06732787
110	0x3e75b8e6	0.23996314
111	0x3d846ae4	0.064657
112	0xbe4e1aad	-0.20127364
113	0x3f2fe518	0.68708944
114	0xbe82c5bf	-0.25541493
115	0x3c68aa0f	0.014200701
116	0x3f098a3b	0.5372655
117	0x3e93ed80	0.28892136
118	0xbe3a0de0	-0.18169355
119	0xbe6f35fb	-0.23360436
120	0x3eb03fed	0.34423772
121	0xbe25be67	-0.16185914
122	0x3fb373c3	1.4019703
123	0x3e4ac639	0.19802178
124	0x3ebe32e0	0.3714819
125	0x3eaa545c	0.33267486
126	0xbee0461a	-0.43803483
127	0x3ed5c011	0.41748098
128	0xbec3ee5b	-0.38267788
129	0xbfaca780	-1.3488617
130	0x3e96ed3a	0.29477865
131	0x3e7239f2	0.23654917
132	0x3e622e27	0.22087918
133	0xbdd0b2a9	-0.10190327
134	0x3f371f02	0.7153169
135	0xbea1476a	-0.31499797
136	0x3b570777	0.0032810846
137	0x3e76141b	0.24031107
138	0x3e981cbc	0.29709423
139	0x3d06b75d	0.032889713
140	0x3e7a2fd6	0.2443231
141	0x3c596723	0.013269219
142	0x3daccc5c	0.08437416
143	0x400af590	2.171238
144	0x3dd14c1e	0.10219596
145	0x3d86f2ee	0.06589304
146	0xbdc98fee	-0.098419055
147	0xbe5f4d42	-0.21806815
148	0x3e1116e1	0.14168884
149	0xbf17acbf	-0.59247965
150	0xbedfe0e2	-0.4372626
151	0xbd42e816	-0.047584616
152	0xbddc32c9	-0.10751874
153	0xbea53a5a	-0.3227108
154	0x3f386410	0.72027683
155	0xbc6034c8	-0.013684459
156	0xbf0de115	-0.5542157
157	0x3d6134e1	0.05498207
158	0xbef23911	-0.47309163
159	0x3e15dd14	0.14635116
160	0xbe149d54	-0.14513141
161	0xbe5cf637	-0.21578299
162	0xbf719830	-0.94372845
163	0xbea2e32f	-0.31813952
164	0xbf300f71	-0.6877356
165	0x3e17b65f	0.14815663
166	0xbe8c99cf	-0.27461097
167	0xbd90dd91	-0.070735104
168	0x3d56ffb5	0.052489955
169	0xbc5e0c0b	-0.013552676
170	0x3df7894e	0.12086736
171	0x3bb1dcfe	0.0054279556
172	0xbd472848	-0.0486224
173	0xbee1954c	-0.44059217
174	0xbeb6b6f8	-0.3568647
175	0x3e225207	0.15851603
176	0x3d2c9311	0.04213244
177	0x3e1cb3a9	0.1530291
178	0xbdad11e2	-0.084506765
179	0x3e91272a	0.28350192
180	0x3f3f5aab	0.74747723
181	0x3e8299c4	0.2550794
182	0x3f22a076	0.63526094
183	0xbe5cb9cd	-0.21555252
184	0x3ec89721	0.39177802
185	0xbe5a8ef6	-0.21343598
186	0x3e81c652	0.2534662
187	0x3e49e39f	0.19715737
188	0x3e838ef7	0.2569501
189	0xbe369211	-0.17829157
190	0xbfc84052	-1.5644629
191	0xbc86b259	-0.016442465
192	0xbde81781	-0.11332608
193	0x3e8834c3	0.26602754
194	0x3d98f7a2	0.07469107
195	0xbf036b18	-0.5133529
196	0x3e6c7cd8	0.23094499
197	0xbf43d8a3	-0.76502436
198	0xbf03ac3f	-0.514347
199	0x3ece5899	0.4030197
200	0xbe1f0ef5	-0.1553305
201	0x3d863874	0.06553736
202	0x3f0f2ef4	0.5593102
203	0xbe83c3a1	-0.2573519
204	0x3e94508f	0.2896771
205	0x3d777732	0.060416408
206	0x3ec121dc	0.37721145
207	0xbebd47d4	-0.36968863
208	0xbea71122	-0.3263026
209	0x3e2a17b2	0.16610602
210	0xbea87069	-0.32898262
211	0xbe14b37c	-0.14521593
212	0x3d7734b2	0.06035299
213	0xbef51418	-0.47866893
214	0x3e59aa6c	0.21256417
215	0xbec3d75e	-0.3825025
216	0xbc6fefba	-0.014644558
217	0x3b98d24d	0.0046637417
218	0x3e6fa59c	0.23403019
219	0xbe80363a	-0.25041372
220	0x3f1e11e2	0.61746037
221	0x3eb9555c	0.36197937
222	0xbe2d030b	-0.16895692
223	0x3f69e4f1	0.9136496
224	0xbe2628f4	-0.1622656
225	0xbe833d28	-0.25632596
226	0x3f155616	0.5833448
227	0xbd22c704	-0.039740577
228	0x3f1b616e	0.6069554
229	0x3e77ad2e	0.24187157
230	0x3e315154	0.1731618
231	0xbdde312c	-0.108492225
232	0xbe7a4c7c	-0.24443239
233	0x3e1d4e3c	0.15361875
234	0x3d8dd35d	0.0692508
235	0xbe8a6020	-0.27026463
236	0x3e23e829	0.16006531
237	0x3eb05c11	0.3444524
238	0xbefeefc7	-0.4979231
239	0x3e007a30	0.12546611
240	0xbe92b8d4	-0.28656638
241	0xbf68ac52	-0.9088794
242	0x3e76a06e	0.24084637
243	0x3de47519	0.11155147
244	0x3e4734e8	0.19453776
245	0xbd8f9a70	-0.070118785
246	0xbf18d6fe	-0.5970305
247	0x3e810b48	0.2520392
248	0xbe05dbd4	-0.13072139
249	0x3eef1a93	0.46699962
250	0xbf4ee65d	-0.80820256
251	0xbe867145	-0.26258293
252	0x3f296e29	0.66183716
253	0x3fe79b8e	1.8094347
254	0x3eb0a0a1	0.3449755
255	0x3e49c434	0.19703752

conv_spatial.mlp.4.weight f4 [2, 256]
0	0xbf3ed7f9	-0.745483
1	0xbff433fd	-1.9078366
2	0xbf325e02	-0.69674695
3	0x3febc1fa	1.8418572
4	0x3f8f4044	1.1191487
5	0xbc801b40	-0.015637994
6	0xc0037304	-2.053895
7	0xbfb65708	-1.424531
8	0x402d8307	2.7111223
9	0xbf8aeb32	-1.0853026
10	0x3f7d8d31	0.99043566
11	0x402a1752	2.6576734
12	0xbfc7ba9e	-1.5603826
13	0x403ce7e2	2.951653
14	0x3db71f0d	0.08941469
15	0x3f945cd8	1.1590834
16	0x3ffb7df6	1.9647815
17	0x3fbdbfd0	1.4824162
18	0xbff23418	-1.8922148
19	0xbe6587ec	-0.22415131
20	0xbfbcc1b4	-1.4746614
21	0x3fff0017	1.9921902
22	0xc003e971	-2.0611231
23	0xc016cd29	-2.356272
24	0x3fe3c8d6	1.7795665
25	0xc0368b02	-2.8522344
26	0x3f66ea53	0.902013
27	0xbffe9606	-1.9889534
28	0x3fa16905	1.2610174
29	0x3f8aac60	1.0833855
30	0x4038c543	2.88704
31	0xc005349c	-2.081336
32	0x3fe0fdbb	1.7577432
33	0xc0046af6	-2.0690284
34	0xc02bc682	-2.683991
35	0xc026e382	-2.607636
36	0xc031bfd2	-2.7773328
37	0x40014a46	2.0201583
38	0x3f2f9bea	0.6859728
39	0x3e93078a	0.2871669
40	0x3d323214	0.04350479
41	0xbf6c9be4	-0.9242537
42	0x404481b8	3.0704174
43	0xbfa32ed7	-1.2748669
44	0xbec0df1c	-0.3767022
45	0xbfeb059b	-1.8361086
46	0x3f11630f	0.56791776
47	0xbe52db9a	-0.20591584
48	0x40012ed9	2.0184844
49	0x3f2a14dc	0.6643808
50	0x3f85938a	1.043565
51	0xbf6ad67e	-0.9173354
52	0xc0048b4f	-2.0710027
53	0x3fc4cedb	1.5375627
54	0xc0021dfd	-2.0330803
55	0xbfd833d8	-1.6890821
56	0x40280c18	2.6257381
57	0xbfdbe668	-1.717969
58	0x3f8788ed	1.0588661
59	0x4031fe25	2.7811368
60	0x3fec8db7	1.8480748
61	0xbfb5156b	-1.4147161
62	0xbfa9d6b7	-1.3268651
63	0xbf7f53a7	-0.9973702
64	0xbf4e7f71	-0.8066321
65	0xbf9018a6	-1.1257522
66	0xc03379ed	-2.8043168
67	0xbf824d90	-1.017992
68	0x3ff15aaf	1.88558
69	0x3fb21d46	1.3915184
70	0x3f2351ea	0.63796866
71	0xbfb9c26d	-1.4512459
72	0xbe87608e	-0.26440853
73	0x40296a26	2.6471038
74	0xbf9a5d99	-1.2059814
75	0x4001641d	2.0217354
76	0x3fd1ce4e	1.6391084
77	0x4033e672	2.8109403
78	0xc03b2bc5	-2.9245465
79	0x4012d25c	2.2940893
80	0x3fca785d	1.5817982
81	0xbfc55aa5	-1.5418288
82	0xbffaa536	-1.9581668
83	0xbf4474ae	-0.7674054
84	0xbfc6a200	-1.5518188
85	0xbf402530	-0.75056744
86	0x3fbef9d5	1.4919993
87	0xbff4a5ea	-1.9113133
88	0x3ead8ae0	0.33895016
89	0x3f79203f	0.9731483
90	0xbff2d1c4	-1.8970265
91	0x3ff60d67	1.922284
92	0xbfce3ca9	-1.6112262
93	0xbf0b4cee	-0.5441426
94	0x3ff327a7	1.8996476
95	0x3ff30579	1.8986045
96	0x3f960e8d	1.172319
97	0x40065049	2.0986502
98	0xc034b6b1	-2.8236506
99	0x4039d3ef	2.9035604
100	0xbfba9482	-1.4576571
101	0xc01ffa22	-2.499642
102	0xc005e51e	-2.0921092
103	0x3ed915f7	0.4239957
104	0xbf2bfbea	-0.67181265
105	0x4032df6c	2.7948866
106	0x4039d562	2.9036489
107	0xc0014864	-2.0200434
108	0xbec4a3b2	-0.3840614
109	0x3fbc6731	1.4718992
110	0xbf5ba699	-0.8580108
111	0xbfdcda2b	-1.725408
112	0xc0015111	-2.020573
113	0x4000ca17	2.0123346
114	0x3f472932	0.77797234
115	0x3fc91b33	1.5711426
116	0xc001d117	-2.0283868
117	0xbf3921ef	-0.72317404
118	0xc004c505	-2.074525
119	0xbfdcb1c5	-1.7241751
120	0x40279ba5	2.6188748
121	0xbff13d3e	-1.8846815
122	0xc0047a87	-2.0699785
123	0x400ea6bf	2.2289274
124	0x4002ee1f	2.0457838
125	0xbf2d78f6	-0.67762697
126	0xbf912102	-1.1338198
127	0x3f68f4e1	0.90998656
128	0xbf12fc30	-0.5741606
129	0xbffb0005	-1.9609381
130	0xc009fa32	-2.1558957
131	0x4029a1a4	2.6504908
132	0x400e404a	2.222674
133	0xbf540070	-0.8281317
134	0x3ffadbe5	1.9598356
135	0x3f929049	1.1450282
136	0x4012be8c	2.29288
137	0x3dfd5434	0.12369576
138	0x3de4b404	0.11167148
139	0xbfa61513	-1.2975181
140	0xc0430b3a	-3.0475602
141	0xbf1f43c0	-0.62212753
142	0xc039462c	-2.894908
143	0x3d892b94	0.06697765
144	0xc02b5edf	-2.6776655
145	0xbfe13bb9	-1.7596351
146	0xbf8498f4	-1.0359178
147	0x40030758	2.0473232
148	0x3ff41c54	1.9071145
149	0xc01e3386	-2.4718947
150	0xc03b894c	-2.930255
151	0xbe43c31e	-0.191174
152	0xbffcbffc	-1.9746089
153	0x3f770dea	0.96505606
154	0xc02e8102	-2.726624
155	0x403c0efd	2.9384148
156	0xbffc41f9	-1.9707633
157	0xbfaad265	-1.3345457
158	0x400119e7	2.017206
159	0xbf50c39b	-0.8154847
160	0xbfcc1b6c	-1.5945868
161	0x400571e5	2.0850766
162	0xbf36e50b	-0.7144324
163	0xc0197d35	-2.398267
164	0x3fe92709	1.8215038
165	0xbeb0e0ce	-0.34546512
166	0x4034cf36	2.8251472
167	0x3f014bc4	0.50506234
168	0x4026775f	2.6010358
169	0x4005af7c	2.0888357
170	0xbf8e7fe8	-1.1132784
171	0x3f3f3008	0.74682665
172	0xbefa7d75	-0.4892384
173	0x3fcaf00f	1.585451
174	0x3fd941df	1.6973227
175	0x3ff68c28	1.9261522
176	0xc0008a3f	-2.0084379
177	0xbf9ff7b3	-1.2497467
178	0x3e5d840f	0.21632408
179	0xbff56598	-1.9171629
180	0x3fc99eff	1.5751647
181	0x3ff0b19e	1.8804204
182	0x3ecad8a2	0.39618403
183	0x40048555	2.070638
184	0xbf587f4c	-0.8456924
185	0xbffae46a	-1.9600956
186	0x4038e0fb	2.8887317
187	0xbf85afbe	-1.0444257
188	0x40112df8	2.2684307
189	0x40048835	2.0708134
190	0x3f5e58a4	0.86854005
191	0xc0017779	-2.022917
192	0x3fcf5b15	1.6199671
193	0xbffc2913	-1.9700035
194	0x3fea269f	1.8293036
195	0xbf6eef6b	-0.9333407
196	0x3fc3c3ce	1.529413
197	0x3fafe90b	1.3742994
198	0xbf9e7921	-1.2380716
199	0xbfb09cbf	-1.3797835
200	0x401f93f7	2.493406
201	0xbeaee424	-0.34158432
202	0x3fd6a28a	1.6768353
203	0x3faf53bc	1.3697429
204	0x3ead9853	0.33905277
205	0x3fc5c31a	1.5450165
206	0xbf94c761	-1.1623346
207	0x3dc2e02b	0.09515413
208	0xbd15ee0b	-0.03660397
209	0xbfd3cee6	-1.6547515
210	0x3da79644	0.08182958
211	0x3ff8b29b	1.9429506
212	0x3e3a00f8	0.18164432
213	0xbf8e67f3	-1.1125473
214	0x3fd9d655	1.7018534
215	0xbfb9af9c	-1.4506717
216	0xc00c5953	-2.192952
217	0x3f92dfe1	1.1474572
218	0x40103249	2.2530692
219	0x3efc1ead	0.49242154
220	0x3f5d16c0	0.8636284
221	0x3f30f81d	0.6912859
222	0xbfab4333	-1.3379883
223	0xbdcb698a	-0.09932239
224	0xc0044128	-2.0664768
225	0x403d1c48	2.9548512
226	0xc0431a0d	-3.048465
227	0x3fde5077	1.7368306
228	0x3f9d757a	1.2301476
229	0x3c88426d	0.016633237
230	0x3fb2a3f1	1.3956281
231	0xbf1e909b	-0.619394
232	0xbe3589ae	-0.17728302
233	0x3f82d838	1.0222235
234	0xbff1d56a	-1.8893254
235	0x3fadf8e8	1.3591585
236	0x403df72d	2.9682114
237	0x4003f7f1	2.0620081
238	0xbff95faa	-1.9482319
239	0x3e90e1ca	0.28297263
240	0xbe8967d9	-0.26837042
241	0x3fc247c1	1.5178148
242	0x3ffd71e1	1.9800378
243	0x3f9e4b76	1.2366779
244	0xc028a35a	-2.6349702
245	0x4036cc53	2.856221
246	0x3fe551b7	1.7915562
247	0x3f9bb3f9	1.2164298
248	0xbff1a3a3	-1.8878063
249	0xc031da9d	-2.778968
250	0x40074f3f	2.1142118
251	0x40046b3a	2.0690446
252	0xbed1e3a4	-0.4099399
253	0xc0199796	-2.399877
254	0x3fc512cb	1.539636
255	0xbfe7f696	-1.8122127
