logs/M5D1_r08_scale015/score.pt (torch, 731911 bytes, 10 tensors)

embed.0.W f4 [64]
000000 66 96 4b c1 27 e3 80 41 a9 48 c6 41 ea 80 85 40
       -12.724218 16.110914 24.785479 4.1719866
000010 2b 07 22 c1 e4 26 19 40 ee 61 ce 41 4c 92 89 41
       -10.12675 2.3929987 25.797817 17.196434
000020 f3 83 c3 c1 02 0b a8 c1 06 d6 cf c1 47 81 f4 c1
       -24.439428 -21.005375 -25.979504 -30.563124
000030 e1 8c 5c 42 50 88 4b c2 13 ae fb 41 2d 51 14 c2
       55.137577 -50.883118 31.459997 -37.079273
000040 90 34 7c c1 61 1d c6 41 ae 70 16 42 f3 f6 9b c1
       -15.762833 24.764345 37.61004 -19.49558
000050 7f 9d d4 c1 f0 52 f2 41 0f c3 a6 41 cc 32 b7 3e
       -26.576902 30.290497 20.845243 0.35780942
000060 13 e1 65 c1 07 7b e8 41 e7 0d 88 c2 6f 99 18 c0
       -14.36745 29.060072 -68.02715 -2.3843648
000070 df e3 f0 3f b4 24 7f c2 59 51 1e c2 18 e8 5c 3e
       1.8819541 -63.785843 -39.57944 0.21572912
000080 34 73 87 be c0 04 11 41 ab 4a 37 41 d8 96 f1 3d
       -0.2645508 9.06366 11.4557295 0.11796349
000090 ed aa 95 41 28 df a1 c1 a0 a8 6b c2 ef 97 9a c1
       18.70846 -20.233963 -58.914673 -19.324186
0000a0 bb d4 64 c2 28 66 97 42 f7 3c 2c 42 0a 32 59 c2
       -57.207745 75.699524 43.059536 -54.298866
0000b0 6c 04 18 42 ab 9e 05 c1 6a ea 04 42 b7 a6 bf 41
       38.00432 -8.351237 33.22892 23.956404
0000c0 10 25 21 c2 1b 71 1f 42 d2 fa 28 41 72 3d 18 c1
       -40.286194 39.860455 10.561235 -9.515001
0000d0 5b 66 1f 42 dd 8b 21 c1 08 bc ed 41 db 57 08 42
       39.849957 -10.096646 29.716812 34.085796
0000e0 7c 11 ee c0 45 2c cc 40 58 d8 2d 40 80 8c 0d c1
       -7.4396343 6.380404 2.7163296 -8.846802
0000f0 b7 30 79 41 9e 44 21 c2 58 33 75 c2 2b e3 a1 40
       15.574393 -40.31701 -61.30014 5.0589805

embed.1.weight f4 [128, 128]
000000 f9 44 84 3d 7a 2a 3e 3d a5 2a 98 bc a5 55 75 bd
       0.06458468 0.046427228 -0.018575022 -0.05989613
000010 d1 91 1e bd 35 66 98 bd 7b 85 dc bc 94 df 4a 3b
       -0.03871328 -0.074413694 -0.026919117 0.0030956017
000020 d3 ab 42 bc 79 b4 8d bd 4f e5 27 bb 9d 84 18 3d
       -0.011881786 -0.06919188 -0.0025618856 0.037235845
000030 1f 78 a8 3d 32 9b 83 3d 8c 5d 5b 3d ab ae 94 bd
       0.08226036 0.064260855 0.05355601 -0.07259878
000040 b0 fb 02 bd ff 74 43 bd a9 56 8f 3d 55 2a 8f bd
       -0.03197831 -0.047718998 0.06998951 -0.06990496
000050 79 21 99 3d be c1 5e 3d 6d 82 dd bb 56 37 5c bd
       0.074770875 0.054383986 -0.0067599327 -0.05376371
000060 d2 c5 2f 3d 28 62 5f 3d 15 08 21 3d 5a b7 8d 3b
       0.042913266 0.05453697 0.03931435 0.0043248357
000070 36 9c a3 3c 67 d3 0f 3c e2 73 4d bc 95 6a 25 bd
       0.019971948 0.00877843 -0.012539836 -0.040384848
000080 9b 9d 55 bc 75 cc 36 3d 48 df 82 3d 5c 99 6d 3d
       -0.013038064 0.04462858 0.06390244 0.058007583
000090 26 91 6d bd d1 e5 2d bd 1a 8b 46 3d ca 4a bb 3c
       -0.057999752 -0.042455498 0.0484725 0.02286281
0000a0 87 04 9b bd 00 ab 15 3d ea 1a 09 3d 54 b8 3a 3c
       -0.07569223 0.03654003 0.033472933 0.011396486
0000b0 83 4b d1 3c fc 39 a8 ba 27 a6 6f 3d a6 03 17 3c
       0.025548702 -0.0012834664 0.058508065 0.009217178
0000c0 82 c2 72 3c 16 56 4f bc 25 dd ec 3c cb 2f 31 3c
       0.014816882 -0.012654802 0.028914044 0.010814617
0000d0 98 01 9d bd a3 58 9c 3d b0 86 38 bd 0a ef 86 3d
       -0.076663196 0.076340936 -0.045050323 0.06588562
0000e0 55 8c a1 bd 52 b4 27 3d 76 ac 21 bd da 11 55 3d
       -0.07888094 0.04094345 -0.039471112 0.052018978
0000f0 96 71 12 bd d9 1b ef bb 03 bc cc 3c 12 c2 43 3b
       -0.035752855 -0.007297021 0.024991995 0.0029870314
000100 21 ce 60 bd d1 cb b2 3d 9b 5e f7 3c d5 3c 8a 3d
       -0.05488408 0.08730281 0.030196479 0.06749884
000110 47 84 97 3c d7 9c 92 bd 34 bd c0 3c f2 b4 84 bc
       0.018495692 -0.07158821 0.02352772 -0.016199563
000120 74 4a e6 3c 69 4f 54 3d db b0 76 3c a2 7f a8 ba
       0.028111674 0.051833544 0.015056814 -0.001285542
000130 58 62 63 bd 0c 97 7a 3d 14 cf 18 bd 6b c4 59 bd
       -0.05551371 0.061179206 -0.03730686 -0.053165834
000140 6a 97 10 3d 86 60 fc 3c 97 f5 7c bc 57 db 56 3d
       0.03530065 0.030807745 -0.015439413 0.052455273
000150 82 e4 00 bd e1 4e 5e bd 7b a9 99 3d 49 f2 a2 bc
       -0.031467922 -0.054274444 0.07503029 -0.019890921
000160 8d 3e 90 bc a8 5b 51 bd b4 fe 67 bd ef 84 88 bd
       -0.017607952 -0.0511128 -0.05663939 -0.0666598
000170 ee 42 98 bd bf a7 ae bd b0 c4 4e bd 0f 2a d9 3c
       -0.07434641 -0.08528089 -0.050480545 0.026509313
000180 61 28 75 3d ce f5 ad bc 4c 7a dd ba 9a 9a d9 3c
       0.05985296 -0.021235373 -0.0016897409 0.026562978
000190 f7 f2 6c 3d b9 71 26 bb 92 8c b1 3d 92 5c 51 ba
       0.057848897 -0.0025397374 0.0866939 -0.00079865113
0001a0 b0 18 12 bc 11 c9 1d bd 4e e6 18 bd 93 b9 1b 3d
       -0.008917019 -0.03852183 -0.03732901 0.038018774
0001b0 14 2c 88 3c 14 43 fe bc 64 d2 1d bd a6 1e 70 3d
       0.01662258 -0.031037845 -0.038530722 0.05862298
0001c0 be 6f 8b bc 95 0f c1 3b 41 87 1a 3d d0 ef f5 bc
       -0.017021056 0.00589175 0.037726644 -0.030021578
0001d0 f6 01 a6 3d 6e 3a 6b bd a5 ca 65 bc 0e 33 af 3d
       0.08105843 -0.05742877 -0.014025365 0.0855466
0001e0 25 ba 83 bc 73 1a 98 3c b8 4f 84 3d ab bf 7f 3d
       -0.016079972 0.0185673 0.06460518 0.06243865
0001f0 3f cc 26 bd 79 10 9b bd 3b ff 96 3b fc 97 df 3c
       -0.040722128 -0.07571501 0.0046080626 0.027294151
000200 85 fe c5 bc 38 32 99 3d f3 db 1d bd 2d 3c b0 bd
       -0.024169216 0.074802816 -0.038539838 -0.086052276
000210 27 63 19 3d d9 5d 2c 3c ab c5 9a 3d 5c 8b 8f bd
       0.037448075 0.010520422 0.075572334 -0.070090026
000220 f8 a4 d4 3b 65 6d b2 3c 26 b8 d4 3c 27 fd 01 3d
       0.0064893924 0.021780679 0.025966715 0.031735566
000230 cb 3a 19 bd e0 b8 e1 bc 08 7a e1 3c 0a 44 84 3d
       -0.037409585 -0.027553976 0.02752401 0.0645829
000240 9e a3 1e 3b 0f 11 74 3d 6b 4f 96 bd 62 d5 7e bd
       0.002420641 0.05958658 -0.073393665 -0.062215216
000250 8f 54 8c ba cc fa a0 3d be e1 ab bd 2f 6a 18 bd
       -0.0010706353 0.07860336 -0.08392666 -0.03721064
000260 18 53 9e 3b 41 de aa bd 51 54 62 3d d9 ba 36 bd
       0.004831683 -0.08343173 0.05525619 -0.044611786
000270 d4 6a 90 bd 47 c2 28 bd ac 98 0c bd 01 fd 89 3d
       -0.07051626 -0.041200902 -0.034325287 0.0673771
000280 9b 93 db 3c bb e1 6e 3c 1a 2b 2c bd 8d a0 71 3d
       0.026803782 0.0145801855 -0.042033292 0.058991004
000290 a2 ef 0f 3d 11 9b 0d 3c 2b 0d 4a bd d1 16 ae 3c
       0.03514064 0.008642928 -0.049328964 0.021251114
0002a0 17 3e 29 bd a5 2d a7 3d 50 62 93 3d d8 24 ea bc
       -0.04131898 0.08163003 0.07196486 -0.028582022
0002b0 0c af 1d bd 95 af 0b bd fe ba f7 bb b2 ea 52 3d
       -0.038497016 -0.034102995 -0.007560133 0.051493354
0002c0 f7 97 89 bd 6b 76 a5 bd 5c 5d 91 3d e7 d8 a9 3c
       -0.06718438 -0.08079227 0.07097885 0.02073331
0002d0 93 4e 94 3c 4f d4 7a 3d 19 59 99 3d 02 25 80 bd
       0.018103873 0.06123763 0.07487697 -0.06257059
0002e0 0c e4 6b 3d 2d 25 0b 3d 8a a3 ad 3d f7 59 9a bd
       0.05759053 0.033971 0.08478458 -0.07536691
0002f0 09 73 a1 bd 8f 6d 37 3d 43 da 0b bd 06 3b c5 3c
       -0.07883269 0.044782218 -0.034143697 0.024075996
000300 1f dc 4c 3d 1b 8c 46 3d c6 cb b1 bd 1a c7 c9 bc
       0.05001461 0.04847346 -0.08681445 -0.024631072
000310 8e 2a 03 3c 50 d2 aa 3c f0 9d 18 3d ad b5 a3 bd
       0.008005751 0.020852238 0.037259996 -0.07993636
000320 ff 51 a5 3c 53 e8 a0 3d 7b b6 17 3d 3b a2 9f bd
       0.0201807 0.07856812 0.03703926 -0.07794615
000330 05 27 a8 3d a5 58 9d 3d f4 a0 7b 3d 04 f0 7d bd
       0.082105674 0.07682923 0.061432794 -0.061996475
000340 b3 d9 df bb d1 78 8d bd 0c c0 d2 3c e8 ab 95 bd
       -0.0068313717 -0.069078095 0.02572634 -0.07308179
000350 7c f4 69 3d 3c b9 9f bd 9f e2 0c bd 17 da 9d bc
       0.057117924 -0.077990025 -0.03439581 -0.019269032
000360 f2 5a cf bc 7a 0c 98 3d 06 83 4c bc e5 14 84 3c
       -0.02531192 0.07424255 -0.01248241 0.016123245
000370 de be 96 bd 29 81 7e 3d 48 83 8a ba 3a b4 54 bd
       -0.07360624 0.062134895 -0.0010567689 -0.05192969
000380 cc 20 a6 3d 5c 0b 37 3d 4c e0 00 3d 5c b8 96 bd
       0.08111724 0.044688568 0.031463906 -0.073593825
000390 90 a7 3b 3d 76 d6 aa bd 7d 69 83 3b 8a 21 90 3b
       0.045814097 -0.083416864 0.004010378 0.0043985294
0003a0 63 cc 8f bd 34 7e 27 3d 00 13 3c bd c2 e6 ad bc
       -0.070214055 0.04089184 -0.045916557 -0.021228198
0003b0 42 96 9e bd 71 e3 83 bd e7 bd 0f bd e1 24 05 3d
       -0.07743503 -0.064398654 -0.035093214 0.032505874
0003c0 6b cc 9c 3b 5f 90 2f bc 31 c3 af bd f9 46 79 bd
       0.0047851107 -0.010715573 -0.08582152 -0.0608587
0003d0 b1 f2 87 bc 3a 6e 68 bd 00 74 8d 3c b5 5c 44 3c
       -0.016595216 -0.056745745 0.017267227 0.011984994
0003e0 d1 e4 5d bd 51 e5 c3 bc ff d5 9e bb c4 54 ac 3d
       -0.054173294 -0.023913058 -0.0048472877 0.08414605
0003f0 69 57 b3 3d 8d 97 14 3d 16 cc f9 3c 09 68 92 3d
       0.087569065 0.036277343 0.030492824 0.071487494

embed.1.bias f4 [128]
000000 58 75 ab 3d f1 81 74 3d 21 72 3e 3c 24 e7 30 bc
       0.08371991 0.059694234 0.01162389 -0.010797296
000010 7d 7c 30 3d ed 71 1b bd 22 30 9f 3c e5 04 a3 3d
       0.04308747 -0.037950445 0.019432131 0.07959918
000020 b2 4a 18 bd 9f 90 14 bc 2c ed de bb 7f 07 b8 bc
       -0.03718061 -0.0090676835 -0.0068031754 -0.022464512
000030 e3 2e 25 bc 14 8f 8f bd 4f a3 a4 bd b3 ee a1 bd
       -0.010081979 -0.07009712 -0.08038961 -0.079068564
000040 3c fc 05 3d f7 5b b1 3d 91 50 78 bd b0 57 64 3d
       0.032711253 0.08660119 -0.06062371 0.055747688
000050 04 24 9d 3d c1 f5 fe 3c 3c 71 ff 39 a8 bb 79 bd
       0.07672885 0.031123044 0.00048721756 -0.06096998
000060 bc 93 98 bd eb bb 6f bd f6 75 7f bc dc f4 84 3d
       -0.07450053 -0.058528822 -0.015592089 0.06492016
000070 13 6a 83 bd 76 33 e8 3b 0f 51 83 bd 5c 1b 6d bd
       -0.064167164 0.0070862127 -0.06411945 -0.05788742
000080 1c 61 6d 3d 99 69 60 ba 7b 55 2b bb 59 a9 60 3d
       0.05795394 -0.0008560657 -0.002614348 0.054849003
000090 1e 24 4a 3d 32 46 aa 3c fd 70 8a bb db 5d 22 3d
       0.04935085 0.020785425 -0.004224895 0.03964029
0000a0 16 b6 a7 3c 38 aa 34 3c 10 1a 76 3d 82 44 05 3d
       0.020472568 0.011026911 0.06008345 0.032536037
0000b0 27 99 e8 3c 28 87 4c 3d 49 86 e7 bc fb e6 87 3b
       0.028393341 0.049933583 -0.028262274 0.004147408
0000c0 28 6c 80 3c aa 1b 96 3d be 1b 2f 3a ca 41 7b bd
       0.015676573 0.07329495 0.0006679854 -0.06134204
0000d0 fe 89 7b 3d 05 f6 8e bd e4 a3 75 3c 5f 33 2b 3d
       0.061410896 -0.06980518 0.014992688 0.04179704
0000e0 9c ca 98 3d 31 3b dc bc b0 3b 17 bc 64 a1 88 ba
       0.0746052 -0.026883693 -0.009230539 -0.0010424075
0000f0 01 b0 df bc 6c 65 f5 3c db 42 35 3d 92 52 56 bd
       -0.027305605 0.029955588 0.04425321 -0.05232484
000100 b8 72 a8 bd 58 d7 31 3d e7 84 b4 bd f7 be 74 3d
       -0.08225006 0.04341826 -0.088144116 0.05975243
000110 8d b6 51 bd 60 b3 61 3d 62 7b 36 3d 2b 04 50 3c
       -0.051199485 0.055102706 0.04455126 0.012696306
000120 93 f6 9e 3d 52 2e 9b 3a 46 cf ef 3c af 35 c4 3b
       0.07761874 0.0011839366 0.02927364 0.005987845
000130 c0 13 8e 3d f3 13 25 3d ca 31 38 3d 22 de d8 3c
       0.06937361 0.04030223 0.044969358 0.026473109
000140 70 dd 17 bc d5 1e a7 3d 95 0a 94 bd e2 08 8b bd
       -0.009269103 0.081601776 -0.07228581 -0.06788804
000150 3c eb 5d 3d 9d 48 17 bd e6 15 67 3d ed 1e 0f 3d
       0.054179415 -0.036934484 0.05641737 0.034941602
000160 58 9c 94 bd de 7f ed b8 97 1b fe bc 5c ee ad bd
       -0.07256383 -0.00011324858 -0.031019015 -0.08492729
000170 aa 96 83 bd 1d 9a 07 bd e1 0e 27 bd 71 5b a1 3d
       -0.06425221 -0.03310596 -0.040785674 0.07878769
000180 50 4a 0b 3d 8b 96 62 3d a4 1d fb 3c 3d 7c bc bc
       0.034006417 0.05531935 0.030653782 -0.02300846
000190 97 87 9a 3d ce 31 b1 bc 7d be 11 3c e7 5e 5e bd
       0.07545393 -0.021630194 0.008895514 -0.054289725
0001a0 9d 09 0f 3d d7 57 9f bc 56 07 df bb c4 2b e5 bc
       0.034921277 -0.019451065 -0.0068062944 -0.02797497
0001b0 dc b2 36 bd 4a b1 9b 3c 58 51 49 3d 81 7b 5e 3b
       -0.044604167 0.019005436 0.04914984 0.0033948126
0001c0 26 d7 5d 3c b0 50 ee bc 6f 75 55 3c e4 fd 68 bd
       0.013540065 -0.02909121 0.013028487 -0.056882754
0001d0 b3 b6 f4 bc 53 89 98 3d 7c 46 3c 3d 12 80 71 bd
       -0.029872274 0.074480675 0.045965657 -0.058960028
0001e0 13 02 66 3d a0 63 94 bd e2 71 8e 3d 84 88 35 bd
       0.056154322 -0.072455645 0.06955315 -0.044319645
0001f0 4b 2e 93 3c 7e 5f 0f bd d0 1a ee bc 94 a2 b7 3c
       0.01796641 -0.035003178 -0.02906552 0.02241639

embed.3.weight f4 [256, 128]
000000 64 2c 94 ba ad fa 75 bd f9 59 1b bd af 26 99 3d
       -0.0011304733 -0.060053516 -0.0379276 0.074780814
000010 ae fa 9e 3d fd 76 f5 3b 72 c8 94 bd 1d 9c 70 bd
       0.07762657 0.007490991 -0.072647944 -0.05874263
000020 db 87 3f bd f4 78 49 bd a8 f5 f8 ba f1 74 43 3d
       -0.04676042 -0.049187616 -0.001899411 0.047718946
000030 7e 95 9c 3d c6 3f ad 3d 0a d2 c0 3c e4 ce 62 bd
       0.07645701 0.084594294 0.023537654 -0.055373088
000040 be e0 43 bd 86 f8 6a bd 0e 68 93 3c dc 20 aa 3d
       -0.047821753 -0.057365917 0.017993953 0.08307049
000050 73 6a 75 3d 4a 1d ee bc 04 52 98 3d 25 37 3f 3c
       0.05991597 -0.0290667 0.07437518 0.011670862
000060 6e 18 a9 3d b7 a0 9d 3d 53 9c 09 3c 30 c6 ae 3d
       0.08256613 0.076966695 0.008399087 0.08533895
000070 f3 b5 bd bc 75 10 0c bc 60 bd 52 bd 9b c0 81 bd
       -0.02315805 -0.008548846 -0.051450133 -0.06335565
000080 4d 46 af bd b0 de ac bd af 5a a9 bd 8c b4 b3 3d
       -0.08558331 -0.08440912 -0.0826925 0.08774671
000090 62 d8 f7 bc 9b 97 c2 bc 4e 79 81 bd 87 98 e5 3c
       -0.030254547 -0.023753932 -0.06321965 0.028026832
0000a0 34 2c 70 3d d7 72 2a bd 6f 43 ac bd 9e 1f 83 bc
       0.058635905 -0.041613426 -0.084112994 -0.016006287
0000b0 e0 7a a1 bc 5c e3 ab 3d 21 8e 81 3d 13 97 38 3d
       -0.019711912 0.08392975 0.06325937 0.04506595
0000c0 03 ed 85 3d 25 b9 85 bd 41 43 98 3d 3d 42 04 bd
       0.06539347 -0.06529454 0.07434703 -0.032289732
0000d0 02 b8 8d 3d fa e2 14 3d 55 54 5d 3d 00 d1 cd bc
       0.06919862 0.036349274 0.054035503 -0.025124073
0000e0 e1 0b 81 bd 58 e7 3e 3d ac 53 35 3d ee 83 55 3c
       -0.06301094 0.046607345 0.04426925 0.013031943
0000f0 b0 64 a4 bd 41 12 a5 bd 2a c6 99 3d 77 0c 3d 3d
       -0.08027017 -0.08060122 0.075085 0.046154466
000100 3e bb 54 3d 57 a9 33 3d 1e 68 f9 3b e1 2a 6e bd
       0.05193638 0.043862667 0.0076112887 -0.05814636
000110 44 1e b3 bd 41 c5 e9 bc 81 86 a0 bd 6e 63 36 bd
       -0.08746007 -0.02853644 -0.078381546 -0.044528417
000120 98 b8 12 3d 64 64 ab bd 77 18 86 bd 95 df 86 3b
       0.035820574 -0.08368757 -0.06547635 0.0041160085
000130 f8 4a 0c bc fd 46 8e 3d 11 cc bd 3c 55 9f 82 3d
       -0.008562796 0.06947134 0.023168596 0.063780464
000140 88 fd aa 3c 3d 41 9a 3c 89 36 a7 3d 7a 8f 31 3b
       0.020872846 0.018829936 0.08164699 0.0027093575
000150 66 58 a6 bd 43 b6 f7 bc 25 46 af bd e3 a0 87 bd
       -0.081223294 -0.030238276 -0.08558301 -0.066224836
000160 47 d2 02 3d 99 d3 d7 bc b5 e2 67 bd 11 af 43 3c
       0.031938817 -0.026346015 -0.05661269 0.011943595
000170 4a 07 82 3d 28 22 9c 3d c1 db a0 3c a1 70 31 3c
       0.063490465 0.07623702 0.019636037 0.0108300755
000180 bd a3 20 bd 77 bd f3 bc 30 58 82 bd e2 76 7c bd
       -0.039218653 -0.02975343 -0.06364477 -0.061636813
000190 c1 44 76 3b 3e cc 59 bd a8 cd 2f 3d 42 fd 17 ba
       0.0037577602 -0.053173296 0.04292074 -0.0005797931
0001a0 65 46 0e 3d d1 6e 0f bc 86 a0 8f bd 28 81 72 bd
       0.034735102 -0.008754448 -0.07013039 -0.059205204
0001b0 34 04 47 3d b1 30 a3 bd bc 39 b2 bd 9d ce 9e bd
       0.048587993 -0.079682715 -0.08702418 -0.07754252
0001c0 08 92 d8 3c 04 8a 77 3d 67 b1 98 bd 38 25 79 bd
       0.02643682 0.060434356 -0.07455712 -0.06082651
0001d0 2b 63 68 bd 2e 9a 29 3d b4 1d f7 3c d1 c4 29 3d
       -0.0567352 0.041406803 0.03016553 0.041447464
0001e0 f4 ed 28 3d 2e 78 73 3d c5 89 8e bd 20 df 59 3d
       0.041242555 0.059440784 -0.06959871 0.053191304
0001f0 1b db 00 bc ea 2a 97 3c f5 34 37 bd 0c c4 26 bd
       -0.007864739 0.01845308 -0.044728238 -0.04071431
000200 a7 78 24 bd ea 23 96 bc bc c7 5f bd 56 fb c5 bc
       -0.040154126 -0.018327672 -0.05463384 -0.024167698
000210 f0 e4 39 3d 73 b6 9f bd 5f 63 5b bb 7f e3 05 bd
       0.045384347 -0.07798471 -0.0033475978 -0.03268766
000220 0b 64 b3 3d 9f a3 ed bc 57 20 8a bd 9f 1e a8 bd
       0.08759316 -0.029008685 -0.067444496 -0.082089655
000230 82 3a 21 bd 9e 58 77 bd 96 55 c5 bc 72 d0 95 bd
       -0.039362438 -0.060387246 -0.024088662 -0.073151484
000240 58 75 b3 bc 3d 34 ab bd 91 be 7c 3b 08 d6 03 3c
       -0.02190654 -0.08359573 0.0038565735 0.0080466345
000250 87 c7 ae 3c 97 35 b4 bc cd 43 03 bd a0 60 3e 3d
       0.021335376 -0.02199821 -0.03204708 0.046478868
000260 e4 5c 8c bc 34 5f 89 3c 47 dc a8 3d a5 ab 71 3d
       -0.017134137 0.01676903 0.082451396 0.059001584
000270 77 02 8d 3c 54 c3 bf bc 83 c1 99 bd 7e 32 ab 3d
       0.01721309 -0.02340857 -0.075076126 0.0835924
000280 87 61 99 bd 82 09 de bc 44 99 67 bd eb f4 c7 3c
       -0.07489305 -0.027104143 -0.05654265 0.024408778
000290 88 4d 3f bd 0e 81 3e 3d 62 42 56 bd 1a a4 79 3d
       -0.0467048 0.046509795 -0.0523094 0.060947515
0002a0 92 f3 10 bd 50 80 4f 3d 1e 49 4a 3d 69 e0 3f bd
       -0.035388537 0.050659478 0.049386136 -0.046844874
0002b0 a0 9c 0d 3d 58 9b f4 bc 5c 57 82 bd 07 af 2d bd
       0.034573197 -0.02985923 -0.06364319 -0.042403247
0002c0 c5 b5 9c bc e6 e1 4a 3d c8 0b 7c bd f0 4c fd bc
       -0.019129643 0.04953184 -0.061534673 -0.030920476
0002d0 61 c7 a5 3d 43 cd 43 3d 23 b3 25 bd f3 ba a7 3d
       0.08094669 0.047803175 -0.04045404 0.081899546
0002e0 ae 04 9e bd f6 db a5 3d a1 7b 60 3d 17 a4 4f bc
       -0.07715736 0.08098595 0.0548054 -0.012673399
0002f0 37 e2 a7 bb 77 d3 a4 bd 05 31 57 bd 04 29 6b bd
       -0.0051234025 -0.08048146 -0.052536983 -0.057412162
000300 40 67 ab bd 62 a7 01 3d df 3b 86 bd c3 36 b1 bd
       -0.08369303 0.03165377 -0.06554388 -0.08653023
000310 2d 32 b2 bc 99 a8 6c bd dd bc 46 bc 0b 98 b3 bd
       -0.021752441 -0.057777975 -0.012129989 -0.08769234
000320 38 43 ca bb 9a bc 02 3d 20 0f a5 3d d7 6e 8b 3b
       -0.006172564 0.031918146 0.080595255 0.0042551565
000330 80 32 3a bd 3e 31 61 bd 3f fb 7e bd 2a 8f 1c 3d
       -0.045458317 -0.0549786 -0.062251326 0.03822247
000340 b0 06 9f 3d 95 b6 1f 3d 2d 75 49 3d e7 6a 18 3d
       0.077649474 0.038992483 0.049184013 0.037211325
000350 02 fc 0d bd 74 a7 b9 3c 0d 38 a9 bd 58 80 c5 3c
       -0.03466416 0.022662856 -0.08262644 0.02410905
000360 c0 4f 2c bd 1a 3e 46 bd 77 55 86 3d fc ad 54 bd
       -0.042068243 -0.04839907 0.0655927 -0.051923737
000370 84 29 fd bc a6 bc 73 bd d0 a9 92 3d b3 59 bc bb
       -0.030903585 -0.05950608 0.071612954 -0.0057479977
000380 a2 5c 3d bd 73 44 8b bd a3 52 8b 3d b5 58 9f bd
       -0.04623092 -0.06800165 0.06802871 -0.077805914
000390 08 a3 9f bd d3 96 b2 3d b0 49 b1 3d 80 40 f4 bc
       -0.077947676 0.08720174 0.08656633 -0.029815912
0003a0 6b cf 9d 3d fe 5b b0 3c bd 8e 9a bd f9 86 c5 3a
       0.077055775 0.02152824 -0.075467564 0.0015070132
0003b0 e1 ca da bc 94 e4 0c bd 25 4a ae 3d 42 8c 81 3c
       -0.026708068 -0.034397677 0.08510236 0.01581395
0003c0 7a 26 73 3d c8 1a 28 3c 0f df ee 3c c8 2a df bc
       0.059362866 0.010260291 0.029159097 -0.02724208
0003d0 52 9d 74 3d 4b 67 e1 3c 29 35 1d bd 9e 5c 93 3d
       0.059720345 0.027515074 -0.038380776 0.071954
0003e0 70 09 ac 3b f2 bd a4 bc c8 6d fc 3a 9a 18 42 3d
       0.0052501485 -0.020110104 0.0019258792 0.047386743
0003f0 0f 11 a8 3d 66 7e ef ba 78 1d aa 3b 68 a8 98 bd
       0.08206379 -0.0018271923 0.005191501 -0.07453996

embed.3.bias f4 [256]
000000 02 07 ef bc 80 16 0e 3d 06 7c c7 3c 2b 07 97 3d
       -0.029178146 0.034689426 0.024351131 0.07374414
000010 6f 69 4f bd 56 8b 87 bd 77 6c 82 bd 87 23 40 bd
       -0.05063766 -0.06618373 -0.06368344 -0.04690888
000020 68 90 2e 3d c2 21 87 bd 5e 75 2b bd c1 62 30 bd
       0.042618185 -0.06598236 -0.041859977 -0.04306293
000030 55 73 bc 3b cf 8b 8f bd 2c 34 17 3d 84 67 28 bd
       0.0057510533 -0.07009088 0.03691499 -0.041114345
000040 88 e5 51 3d dc 22 54 3c 8e cc 3b 3d 13 ce cf bc
       0.05124429 0.012947764 0.045849375 -0.025366819
000050 db 01 9b bd 20 de e2 bc 12 b6 aa 3d 3d a8 85 bd
       -0.07568713 -0.027693808 0.083355084 -0.065262295
000060 b3 56 3f bb b6 33 02 3d 73 0a 14 3d 0e b0 a6 3d
       -0.0029195964 0.031787597 0.036142778 0.081390485
000070 4c ab 5d bd ab 10 2b 3c b5 96 43 3d 9f a2 b1 3d
       -0.05411844 0.010440986 0.047751147 0.08673596
000080 0f 69 33 bd 94 71 ec 3b 5c f9 88 bd 5b 5a a4 3d
       -0.043801364 0.007215688 -0.066881865 0.080250464
000090 fe ff 94 3d 1e 97 94 3d 83 8f 04 bc 98 41 d9 3c
       0.07275389 0.07255386 -0.0080908565 0.026520535
0000a0 09 92 b4 3d ba c1 39 3c a3 8c 8f bd c1 65 03 3d
       0.088169165 0.011337692 -0.07009246 0.032079462
0000b0 b4 17 02 bd 21 ca 84 3d 81 9f 79 3d 57 5f 63 3d
       -0.031760886 0.064838655 0.06094313 0.055510845
0000c0 14 59 1d bd 47 b9 a5 bd 53 c5 12 3d d7 9d 5b 3c
       -0.03841503 -0.080919795 0.035832714 0.013404331
0000d0 80 1d 92 bd 48 5b 86 bd 4a 91 ab bd 65 b1 87 bd
       -0.07134533 -0.06560379 -0.08377321 -0.06625632
0000e0 7a 03 a6 3d ee 03 ae bd 30 aa 53 3d 42 d1 87 3d
       0.08106132 -0.08496843 0.051675975 0.0663171
0000f0 f7 78 60 3d ef a7 97 bd c3 73 8a bd 25 af 02 3d
       0.05480286 -0.07405078 -0.06760361 0.031905312
000100 76 73 58 3d b0 91 ce b9 e8 91 4a 3d 0f 2a af bc
       0.052844487 -0.00039399927 0.049455553 -0.02138236
000110 c6 7a 28 bc b9 0b a6 bc 9e 86 00 bd ac 13 5a 3d
       -0.010283178 -0.020269262 -0.03137838 0.053241417
000120 e7 17 5a bd 40 04 7d 3d 35 98 fc bb 7b 47 3a bd
       -0.05324545 0.06177163 -0.007708574 -0.045478325
000130 20 e8 aa 3d 5f cb 8d bd a9 60 b1 3d bf 47 77 bd
       0.083450556 -0.069235556 0.086610146 -0.060371157
000140 11 18 2c 3d c4 21 ad 3d 2b 5b 18 bc 24 4e 0c 3d
       0.04201514 0.08453706 -0.00929908 0.03425421
000150 ed 8a 0f bb d4 d9 2b bd 59 47 4b bd 8d 1c 28 3d
       -0.0021902875 -0.041955784 -0.04962859 0.041042853
000160 25 ab e3 3c 6b 62 a0 3d 7a de 85 bd 0d 00 b8 3c
       0.027791569 0.07831272 -0.06536575 0.022460962
000170 aa cb be bb f1 6d af bb 6c 2d ab bd 33 81 79 3d
       -0.0058226185 -0.005353682 -0.08358273 0.06091423
000180 06 88 9d bd 65 5d 3f bd 33 27 57 bb df 82 ac 3d
       -0.0769196 -0.046719927 -0.003282976 0.08423399
000190 01 3c 11 bd 01 a5 36 3d dd d2 ae 3d 7c d5 ef 3c
       -0.035457615 0.044590954 0.08536313 0.029276602
0001a0 24 0b 3f bd 83 00 9d 3d a1 42 92 bd b1 0e 07 3b
       -0.046641484 0.07666113 -0.07141615 0.0020608122
0001b0 08 20 c3 bc 3b 21 75 bd 9f 47 43 3d 24 24 4c 3a
       -0.023818985 -0.059846144 0.047675725 0.0007787368
0001c0 da 03 98 bd e9 84 96 3d 4d 9a 77 bd 7a b9 47 3b
       -0.074226096 0.07349569 -0.060449887 0.0030475543
0001d0 a6 67 58 bd 2c a9 a9 bc 09 c7 ff bc e6 18 be bc
       -0.05283322 -0.02071055 -0.031222837 -0.023205232
0001e0 b7 57 8d bb 7d 10 67 3b c2 1b 9e bd 46 77 32 bc
       -0.004313435 0.003525763 -0.07720138 -0.010892695
0001f0 30 21 ad 3c f0 5b ed bc b5 6b 1f 3d 1d 64 95 3c
       0.02113399 -0.028974503 0.038921077 0.018236214
000200 58 35 a8 bc 05 d7 88 bd 34 e0 4d bc d7 e4 5a 3c
       -0.020533249 -0.06681637 -0.012565661 0.013360224
000210 d4 4c ac 3d 61 94 83 bc 61 65 f9 ba 5e a6 b2 bd
       0.08413091 -0.016061964 -0.0019027406 -0.08723138
000220 ff 60 35 3d 81 49 ea ba a2 50 94 3d 62 93 d3 3c
       0.044281956 -0.0017874689 0.07241942 0.025827114
000230 13 ad b2 3d 0a a9 9c 3d 18 ac 2a bd d8 a3 a5 bc
       0.087244175 0.07649429 -0.041668028 -0.020219728
000240 4a c3 77 bd 9c ee 8f bd 31 82 27 3d 93 af 61 bb
       -0.060488977 -0.07027933 0.040895645 -0.0034436926
000250 79 15 36 3d 1b 61 dd 3c f0 3e 71 bd da 44 b3 3d
       0.04445407 0.027023843 -0.058897913 0.08753367
000260 f0 c2 18 3d e5 b9 1d bd bf 33 82 bd cc cb 38 bd
       0.037295282 -0.03850736 -0.06357526 -0.04511623
000270 e8 d9 7b bd 7f d8 89 bc 46 d2 16 3d 09 20 6d 3d
       -0.06148711 -0.016826866 0.036821626 0.05789188
000280 10 e7 85 3d 5d de 8f 3d 7d 76 7e bd 89 73 1e bc
       0.06538212 0.07024834 -0.062124718 -0.0096711
000290 f2 0e 2b bd 23 da b2 3c fb c9 11 bc 60 dd 79 bd
       -0.0417623 0.021832531 -0.008898254 -0.061002135
0002a0 83 89 a2 3d 52 71 62 bd ac 88 a4 bd 60 95 df 3c
       0.079363845 -0.055283852 -0.080338806 0.027292907
0002b0 0d ba e0 3c 4a 00 97 bc f1 18 64 3d 21 de 20 3d
       0.027432466 -0.018432755 0.05568785 0.03927434
0002c0 d5 06 73 3d a3 bd 20 bd 49 2e 94 3d 70 23 b2 bd
       0.059332687 -0.03924335 0.07235391 -0.086981654
0002d0 12 d7 13 bd a2 c9 3a bd 96 e0 ab bd e7 f9 fb 3b
       -0.03609378 -0.04560245 -0.08392446 0.007689703
0002e0 82 9e b0 bc 46 96 83 3d 98 6c ea bc 3d 18 b1 3d
       -0.021559957 0.06425147 -0.028616235 0.08647201
0002f0 e8 9b aa 3d 7d 79 6c bd be ea 45 bd 6a 29 5a 3c
       0.08330518 -0.057733048 -0.04831957 0.013315538
000300 99 be 61 3c 0d e8 7d bd 4c 7c aa 3d d7 b0 9b 3d
       0.013778352 -0.06198888 0.08324489 0.07602089
000310 4d 88 5e 3d 57 c8 ab 3c 8d 77 a3 3d a8 10 03 bd
       0.054329205 0.020969553 0.07981787 -0.031998307
000320 1b 64 92 3c 9e 2f 7d 3c 5b 83 f2 bb 4c fb 87 3d
       0.01787 0.015453247 -0.0074009127 0.06639728
000330 2f 36 b9 bc 23 22 a4 3d 98 b5 00 bd 77 72 15 3d
       -0.022608845 0.080143236 -0.03142318 0.036486115
000340 b3 0e 3a 3d ca c4 5c bd 9a c5 0f 3d 07 ef b2 bd
       0.045424175 -0.05389861 0.035100557 -0.08736997
000350 4a 22 cf bb 99 39 95 3d ab a6 24 bd b5 3f 35 3d
       -0.0063212262 0.072863765 -0.04019801 0.04425021
000360 f6 2e 9f bd 26 a2 9c bc 09 0a 41 bd ee a9 8a bc
       -0.07772629 -0.019120287 -0.04712871 -0.016926732
000370 e1 e5 56 3d af 4b 95 bd 63 05 d3 bc 59 a5 96 3d
       0.052465323 -0.07289826 -0.025759405 0.07355756
000380 bb 32 f9 bc 8d 5a e4 3b 81 28 07 bc ca 62 2e bc
       -0.030419698 0.0069688023 -0.008249403 -0.01064367
000390 9a fb ab 3d d7 bf 0a bd c8 37 ff bb 7b a5 6a 3d
       0.083975986 -0.03387436 -0.007788632 0.05728672
0003a0 dc 74 59 bd 0a 43 9c 3d d4 40 71 3d 76 cc 85 bd
       -0.05308996 0.07629974 0.058899716 -0.065331385
0003b0 70 da 87 bd 41 bb 41 3d e5 2a af 3d af 8e ab bd
       -0.066334605 0.04729772 0.08553103 -0.08376824
0003c0 63 29 b4 bd 51 e4 55 3d 68 41 b0 bd 97 4b 3e 3c
       -0.087969564 0.052219693 -0.08606225 0.011614702
0003d0 43 c1 74 bc bf 4a 97 bd 04 7b 7e 3d d4 43 67 bd
       -0.014938655 -0.073873036 0.062129036 -0.05646117
0003e0 b2 f1 48 3d a1 79 e2 3b 08 ed a1 bd b7 68 51 bd
       0.049058624 0.006911472 -0.07906538 -0.051125254
0003f0 dc 4a c7 bc e1 02 9f 3c 1b 62 dc bb 56 82 29 bd
       -0.024327688 0.019410552 -0.0067255623 -0.041384064

conv_spatial.mlp.0.weight f4 [256, 2]
000000 1c 34 14 bd 72 fd 15 3f d1 ce 27 3e 64 d4 2d bf
       -0.036182508 0.5858985 0.16387488 -0.6790221
000010 a4 5b 5b 3e c2 ad bc 3d 08 ed 26 bf a8 9b 0f 3f
       0.21421677 0.09212829 -0.6520543 0.5609689
000020 e9 61 8c 3e a2 63 20 3f 89 5e a9 3d 37 be f3 3e
       0.2741845 0.6265203 0.08269984 0.4760606
000030 ca b8 b0 be 0e 6c f5 be dc f0 c5 bd ca 8b 05 3f
       -0.34515983 -0.47934002 -0.09665081 0.52166426
000040 6e 16 ef 3e 21 65 5e be 85 c4 ea bd 24 f0 25 3e
       0.466968 -0.21718265 -0.114632644 0.16204888
000050 e1 47 25 bf 57 13 d7 3e 0a b9 18 3e 2c 7b a0 bd
       -0.64562804 0.42006943 0.14914337 -0.07835993
000060 50 15 2d 3d 12 f8 1a bf ae 27 ce 3c 1f cd d2 3e
       0.042256653 -0.60534775 0.025165405 0.4117212
000070 46 ee e2 3e 7f 6a a8 be be 75 f5 be 63 16 ba be
       0.44322413 -0.3289375 -0.47941393 -0.36345205
000080 57 1a 01 be 48 3a 43 3d e5 9c d6 be 89 0a 09 bf
       -0.12607704 0.047663003 -0.41916576 -0.535317
000090 3a de 2e bf 6b 43 85 3e dc d1 f6 be ea 0a fc 3e
       -0.6830784 0.26027998 -0.48206985 0.49227077
0000a0 03 08 f6 3e 5f 27 3e 3e 0a 97 83 3e 22 1d 0d 3f
       0.48052987 0.18569706 0.2570117 0.5512258
0000b0 cb 3b 9e be a3 f3 b2 be 1e 40 39 bd f7 70 43 3e
       -0.30904993 -0.34951505 -0.045227163 0.19086061
0000c0 11 41 b5 be cc 4c 72 be e2 3f 0d 3f 91 80 af be
       -0.35401204 -0.23662108 0.551756 -0.34277776
0000d0 e3 14 f4 3e e3 c7 55 bd 43 5c b6 3e 52 ec c0 be
       0.47672185 -0.05219258 0.35617265 -0.37680298
0000e0 ea e2 5a be 08 16 b0 be 57 97 89 be 39 4c dd 3a
       -0.21375623 -0.34391809 -0.26873276 0.0016883678
0000f0 13 a3 d8 3e 7e 57 6a be 09 b9 11 be 80 39 20 bd
       0.42311916 -0.22884938 -0.14230742 -0.039117336
000100 ee b8 ef be 0e 43 15 3f ed 34 3c be 3e cc 28 3f
       -0.46820778 0.5830544 -0.18379565 0.6593665
000110 64 d4 11 3f 50 93 02 bf 96 4c dc be 82 f3 78 3e
       0.5696471 -0.5100603 -0.4302718 0.24311641
000120 8e 2c 11 3e e3 f5 a6 3e 8a 8c df 3e f6 6d b2 be
       0.14177153 0.32609472 0.4366191 -0.3484952
000130 33 d1 f2 bc 8a 69 5c be 1f 41 86 bd 59 de 16 3e
       -0.02964077 -0.21524635 -0.065553896 0.14733256
000140 e8 75 b6 bd cf 35 7a 3e 01 6b eb be f4 17 86 be
       -0.089092076 0.24434589 -0.45980075 -0.2619015
000150 24 20 8b bd bb a4 02 3f d5 d1 0d 3f cf 24 4b 3e
       -0.0679324 0.5103261 0.55398303 0.1983826
000160 dd 48 9d 3e 2d 54 26 3f cb 60 ad be ac d8 15 3e
       0.30719653 0.6497219 -0.3386291 0.14633435
000170 64 eb 3b bd 03 1a 1d 3f 0d 7b 20 bf ba 0e 91 3c
       -0.045878783 0.61367816 -0.6268776 0.017707217
000180 37 08 7f 3d e0 75 1f 3e 51 f6 06 bf b1 9c 01 bf
       0.062263694 0.1557231 -0.527196 -0.5062972
000190 8d b4 ad 3e 7c 5c bd 3e a1 6c 2a 3f 38 26 18 bf
       0.33926812 0.36984622 0.66572005 -0.5943332
0001a0 df 7d f1 3e 94 5d f7 3e a6 fb 9f 3e b0 7d 03 bd
       0.47166345 0.48313582 0.3124668 -0.032102287
0001b0 29 c9 85 be 27 59 3f bc 1f 6b 11 bf 11 4a fc be
       -0.26130036 -0.01167897 -0.5680408 -0.49275258
0001c0 c8 64 24 bf cd 4b ca be c8 bb a1 3e ba 21 e6 bd
       -0.6421628 -0.39510956 0.31588578 -0.112369016
0001d0 83 7f ce be 82 09 01 bf 3c 07 94 3e d7 a2 09 3f
       -0.4033166 -0.5040513 0.2891177 0.537641
0001e0 9b 51 07 be 7e 56 1d bf 1f be 06 3f fb d0 46 3e
       -0.13214724 -0.614601 0.5263385 0.19415657
0001f0 0d 79 4b 3e bb f7 0b 3f 65 9d 1f bf 91 c1 11 3f
       0.19870396 0.5467488 -0.6234954 0.56935984
000200 ef d4 32 3e 70 2e c2 3e a9 e3 46 3e 41 61 a2 bd
       0.1746404 0.37926054 0.19422783 -0.07928706
000210 87 cc 83 3d ae 27 18 3f f4 8d 91 be 6b a2 9d 3e
       0.06435495 0.59435546 -0.28428614 0.30787978
000220 9d a1 9a bd 7f 89 0f 3f e7 7e 74 be bd 33 12 be
       -0.075503565 0.5606918 -0.23876534 -0.14277549
000230 b0 70 e3 3d 4c 63 21 3f 89 7a a1 be 9a 20 bb 3e
       0.11105478 0.6304214 -0.315388 0.3654831
000240 b3 7b 6d 3d 1c 68 c5 be 31 40 cf 3c 6a 3d 88 3e
       0.057979297 -0.38555992 0.025299164 0.26609355
000250 7f 45 5c 3e 22 cc 12 bc 6f ea 1c bf 4c 51 14 3e
       0.21510886 -0.008959802 -0.6129522 0.14484137
000260 33 49 6c be ff 4c 94 be df 97 20 3f 1a ac 05 be
       -0.23074798 -0.28964993 0.62731737 -0.13053933
000270 8f 93 83 3e bd c3 1c bf e9 b9 8e be 8e 0c ee be
       0.25698516 -0.6123617 -0.27876213 -0.46493953
000280 d2 89 90 39 19 c3 71 b9 f2 17 25 be 4e 0c 01 bf
       0.00027568504 -0.0002305623 -0.16122416 -0.504094
000290 be 29 ef be 22 fb c4 3e 3b 91 23 bd ea 86 89 bd
       -0.46711534 0.3847285 -0.039933424 -0.06715186
0002a0 fc 06 e7 3e e0 ff de bc 33 e7 7a be 0e 6d 82 3e
       0.45122516 -0.02722162 -0.24502258 0.25473827
0002b0 cd 24 19 3f 5b 27 97 3e ad f3 04 bf b6 fd ee be
       0.5982178 0.29522213 -0.5193432 -0.4667794
0002c0 5a 8d 53 bd b4 ae a5 3e 21 d2 1b 3f bd 92 90 3d
       -0.051648475 0.3235985 0.60867506 0.07059238
0002d0 c4 62 fb 3e 06 59 f0 be 1f 5d 4b 3e 1e 34 b2 be
       0.4909879 -0.4694292 0.19859742 -0.34805387
0002e0 df f3 9b 3e 18 da 0a bf f7 5b 20 3f e5 ea 5f be
       0.30459496 -0.54239035 0.6264033 -0.21866949
0002f0 fd eb c5 bc bd e1 8d 3c 26 8d 01 bf 83 ac 25 bf
       -0.02416038 0.017319554 -0.50606 -0.64716357
000300 bf 62 db be 46 53 6b 3e 3e 42 1c bf 55 18 ef 3e
       -0.42848775 0.22980985 -0.6103858 0.4669825
000310 df 28 69 bc 4f 42 d2 be 77 73 9a 3e 3f 93 34 3d
       -0.014230936 -0.41066214 0.30166218 0.044085737
000320 bc 77 06 bf b0 0f 01 bf b8 a5 28 3e a8 1d fa 3d
       -0.5252645 -0.5041456 0.16469467 0.12212688
000330 a2 13 92 bd 5a dd 66 bd 3e 0a f4 be 99 1a 19 bf
       -0.07132651 -0.05636344 -0.47664064 -0.5980621
000340 a4 fc f8 3e af d2 89 be 75 41 b4 be 32 3d ea be
       0.4863025 -0.2691855 -0.3520619 -0.45749813
000350 60 e4 d3 bd 78 16 bc bd 3e dc 07 be e7 2c a4 be
       -0.103462934 -0.09183973 -0.1326761 -0.32065508
000360 75 6e 87 be a5 f9 65 be 44 6c b8 be 42 ea 1d 3e
       -0.2645146 -0.22458513 -0.360201 0.15421394
000370 f3 a6 ac be 85 4d fa be 3b 75 01 bf ec 7c 10 3f
       -0.33721122 -0.48887268 -0.50569504 0.56440616
000380 f1 ad 7a bd 78 05 eb 3e 19 d4 7d be 2d 13 cf bd
       -0.06120104 0.4590261 -0.2478794 -0.10111079
000390 39 c4 fd 3e d1 7c 45 be f6 51 1f 3f e2 8c 8f be
       0.49563769 -0.19285895 0.6223444 -0.28037173
0003a0 f6 2c 21 3f 0a 2a 04 bf 1d 22 24 bf f5 e7 98 be
       0.6295923 -0.51626647 -0.6411455 -0.2986447
0003b0 79 d4 29 3f 3c f9 a9 3e 4d 0d fe be 31 b4 90 3e
       0.6633983 0.33197963 -0.49619523 0.28262475
0003c0 a6 12 a0 be 5a be dd 3e 09 34 e3 3e e5 07 e1 3e
       -0.31264228 0.4330929 0.44375637 0.43951336
0003d0 31 12 19 3e a4 c3 53 be e2 44 94 3e cc 90 99 3e
       0.14948346 -0.206801 0.28958803 0.29993284
0003e0 f5 d2 3c be 5d 8a e5 3e 4e b7 a3 be fb c5 07 bf
       -0.18439849 0.44832125 -0.31975788 -0.5303647
0003f0 62 4a 1b bf c4 b5 93 3e 28 f5 1d bf c6 d6 ae 3d
       -0.60660374 0.28849614 -0.61702204 0.085370585

conv_spatial.mlp.2.weight f4 [256, 256]
000000 60 cd 1a 3c 85 79 f8 3c 03 3c 28 bd e1 47 85 bc
       0.009448379 0.030331383 -0.041072857 -0.016269626
000010 c2 68 a9 3c d6 9a 4f bd bf 1e 47 3d 43 f3 02 bd
       0.020679835 -0.050684772 0.048613306 -0.031970274
000020 cd a8 41 3c 33 1b 14 bd 98 cd 5b 3d 81 27 ae 3c
       0.01182003 -0.03615875 0.053662866 0.021259071
000030 df ef b1 bc da cf 4c bd 99 1b cc 3b 96 ec 3f bd
       -0.021720825 -0.05000291 0.006228876 -0.046856485
000040 a3 41 95 bc f2 d4 dc bb 69 15 09 bd 46 e5 6a 3d
       -0.018219775 -0.0067392522 -0.033467684 0.05734756
000050 9e 71 58 bd 44 13 0d 3d c6 2e 53 bc a6 8b dc 3c
       -0.05284273 0.0344422 -0.01288957 0.026922058
000060 a2 81 61 3c 86 f2 08 3c 84 3d 26 3d ee dc 0f 36
       0.013763817 0.008358603 0.04058601 2.1437259e-06
000070 7d 9f 45 3d df 90 33 3d fd f2 1f bd c9 86 4d bd
       0.048247803 0.04383933 -0.03905009 -0.05017737
000080 32 0b b6 bc 9b 8b 52 bd 44 49 83 bd 24 b6 e8 3c
       -0.022222135 -0.05140267 -0.06410459 0.028407164
000090 4b ca 18 bc 35 ab 5c 3d 08 d7 28 3d 75 08 fe bc
       -0.009325574 0.053874213 0.041220695 -0.031009892
0000a0 e8 26 83 3d ff f3 5a 3c 21 52 41 bd 71 49 29 bd
       0.06403905 0.013363837 -0.047197465 -0.041329805
0000b0 07 81 a2 bc 16 da 4d bd 43 a6 ed 3c 9f 2d 14 3d
       -0.019836916 -0.05025681 0.029009944 0.03617632
0000c0 61 5d 0d bd ad 0b 88 bb dc 99 f4 bc 84 65 25 3d
       -0.03451288 -0.0041517825 -0.029858522 0.040380016
0000d0 3b 05 dc bc 41 17 5a bd 08 15 01 3c cf e8 31 bc
       -0.026857963 -0.053244833 0.007878549 -0.010858729
0000e0 5c 19 d0 3c c9 1a 77 3d 37 cf a5 38 88 76 89 bc
       0.025402717 0.06032828 7.90641e-05 -0.016780153
0000f0 b2 bc 07 3d 86 43 e2 3b e8 4a 81 bb 95 13 8d 3c
       0.03313894 0.006905022 -0.003945697 0.017221252
000100 34 bb c5 bc 6f 98 35 3d 23 7d 2d bc 2a 03 8a bc
       -0.024137117 0.044334825 -0.010588917 -0.016847212
000110 64 81 ae bc 1f 45 0e bd dd ad 17 3d 92 4e 46 3d
       -0.021301933 -0.034733888 0.037031043 0.048414774
000120 72 57 fa bc 0e ca c6 bc 4d 33 ad 3c 0e 72 68 bd
       -0.030559275 -0.024266269 0.021142626 -0.056749396
000130 67 f5 33 3b 01 3c 89 3b fb 40 48 3d 34 0b 0b bd
       0.0027459504 0.004188061 0.048890095 -0.03394623
000140 ff b3 cf bb cd 78 53 3d 02 e8 ba bc 5d 21 03 bd
       -0.006338596 0.051628876 -0.022815708 -0.03201424
000150 de 35 07 bd 0d 5a 34 bd bb cf 5e 3d de 71 fa 3c
       -0.033010356 -0.04403119 0.054397326 0.030571874
000160 ee 50 44 3d ea 7e 18 bd 98 a9 b7 bc 66 73 29 3d
       0.047928743 -0.03723041 -0.022419736 0.04136982
000170 c8 e3 42 bc b6 55 fe 3c 64 da 05 3d f7 ef 1e bd
       -0.011895128 0.03104673 0.032678977 -0.038803067
000180 5e 5e 43 bd 7a 4b bb 3c 34 51 df bc 96 86 42 bd
       -0.047697417 0.022863138 -0.0272604 -0.047491632
000190 74 a9 8c bc 41 63 69 3d 3d 94 62 bc f2 dc 78 bc
       -0.017170645 0.05697942 -0.013829288 -0.015189396
0001a0 37 f9 33 bd bc 9e 4e bd 6f cb e7 3c 8e d6 c2 3c
       -0.04393884 -0.05044435 0.028295247 0.023783948
0001b0 14 f7 24 3d 89 f9 c1 3b ee 26 2f bc aa 16 4a bb
       0.040274695 0.0059196395 -0.010690434 -0.0030836263
0001c0 34 36 86 3d 13 46 2e 3d 35 fc 31 bd 9d a7 5d 3d
       0.06553307 0.042547297 -0.043453414 0.054114927
0001d0 be 8d 30 bd 1a 65 04 3c f0 0e fb bc 95 dc 34 3d
       -0.043103926 0.008080745 -0.030646771 0.044155676
0001e0 25 2f 84 3b d8 08 cf bc 60 6a 7d bd c7 6c 8f 3b
       0.0040339404 -0.025272772 -0.061869025 0.004376981
0001f0 74 2b e7 bc 50 2f 79 bd 84 74 09 bd 90 b9 2b bd
       -0.028218962 -0.060836136 -0.033558384 -0.041925013
000200 1c 21 98 3c 10 94 38 bd 0c 75 c3 3c 3d 49 1a 3d
       0.018570475 -0.04506308 0.023859523 0.0376675
000210 d7 33 47 3c 22 80 62 bd c2 14 04 bd 90 df b7 bb
       0.012158356 -0.05529798 -0.03224636 -0.0056113675
000220 ca 0b 10 3c 71 0d 15 3d 35 56 00 bc 0e b4 57 bd
       0.008791873 0.03638977 -0.007833053 -0.052661948
000230 b3 c2 58 bd b0 d3 41 3d 19 9f 26 bd 0e 29 a3 bc
       -0.052920055 0.04732102 -0.04067907 -0.019917037
000240 a1 bb 3b 3d 27 7e 38 3d 93 28 44 bc cf f5 7a 3d
       0.045833234 0.045042183 -0.011972564 0.061269578
000250 b3 94 1c bd 05 97 14 3d d7 f1 ff bc 8b 81 c9 3c
       -0.038227748 0.036276836 -0.031243248 0.024597904
000260 b2 9b 2a bd 15 a8 ac 3c fe da 09 3d ca b6 8a 3c
       -0.04165239 0.021076242 0.033656113 0.016932864
000270 57 b0 4d 3d 11 dd 7e 3d de d9 1f bd eb 0a 84 bd
       0.050217 0.062222544 -0.039026134 -0.06447395
000280 4f 03 44 3d b9 5e 55 3d 1c 85 d8 bc 5c 32 5d bd
       0.047854718 0.052092288 -0.026430659 -0.054003105
000290 e4 7a 2b 3c d0 86 13 3c 24 03 69 bd 5e da e3 3c
       0.010466311 0.00900431 -0.05688776 0.027814087
0002a0 fc 9c 22 bd f5 6f 1a 3d f9 1b bb bb 87 a7 57 3d
       -0.039700493 0.037704427 -0.0057101217 0.05265
0002b0 8c 93 47 3d 95 e3 66 3d 24 c8 2d bc bf 60 82 bd
       0.048724696 0.056369383 -0.010606799 -0.06366109
0002c0 c4 5a 05 39 2d 85 a8 bc 14 2b d1 3c 55 79 24 bc
       0.00012717681 -0.020571316 0.025533237 -0.010038693
0002d0 29 25 70 bd 2b 2f a5 bc c1 8c 2e 3d 42 65 60 3c
       -0.05862919 -0.020164093 0.042614702 0.013696017
0002e0 4d 3e 4c 3d a6 d9 78 3c 7f 3b b2 bc e6 94 5a bd
       0.049864102 0.01518861 -0.021756886 -0.053364657
0002f0 74 b9 e3 3c a9 6a 69 bc 74 c7 a2 bc 68 10 6c bd
       0.027798392 -0.014246621 -0.019870497 -0.057632834
000300 78 7f 0e 3d 16 d0 02 3d 1d 41 ce 3c 9c d5 61 3d
       0.034789532 0.031936727 0.025177533 0.055135354
000310 93 55 f7 ba ba 99 b1 bc 1d 0d 6a bd 9e 54 c7 bc
       -0.0018870108 -0.021679748 -0.057141412 -0.02433234
000320 a8 ec 01 bd 6a 09 1e bd b9 06 cd bc 9b 25 0e bd
       -0.031719834 -0.038583197 -0.02502762 -0.034703832
000330 e1 a1 31 bc 58 fb 5d bd 55 f6 af bb bd bc a4 bc
       -0.010841818 -0.05419478 -0.0053699412 -0.020109529
000340 31 eb df bc ec c2 29 3d f9 27 e0 3c 27 b3 82 3d
       -0.027333828 0.041445658 0.02736281 0.06381827
000350 d4 ec 8b 3c 24 7b 8f 3b db 5d 32 3b 81 dd e3 bb
       0.017080702 0.004378693 0.0027216587 -0.0069538956
000360 21 26 0e 3d 19 be b9 3b f9 34 0c bc e8 d1 27 bd
       0.03470433 0.0056684134 -0.008557552 -0.040971667
000370 70 65 d3 3c ce 5a 1f 3d 04 a2 09 bc 7f 79 18 3d
       0.025805205 0.038904957 -0.008400444 0.037225243
000380 ae 7c 6a bd 7a 00 52 3c 54 f4 23 bd 26 b7 b2 bb
       -0.05724781 0.012817496 -0.04002793 -0.005453962
000390 e5 b2 90 3c 4a b3 89 3c 3f a8 b8 3c 0a 45 2e 3d
       0.017663429 0.016809124 0.022541163 0.04254631
0003a0 fd d4 b6 bb c8 63 5c 3d ff f4 0a 3c 14 fe 72 3b
       -0.0055795894 0.053806096 0.008481263 0.0037077712
0003b0 48 53 ae 3c ac 77 46 bd de fb 51 bd ac 2e d2 bc
       0.021279946 -0.04845397 -0.05126559 -0.02565702
0003c0 88 1e a1 3c 57 38 68 3d 83 d3 d7 bb 94 85 04 bc
       0.019667879 0.056694355 -0.0065864935 -0.008088488
0003d0 bc 8f 20 bc ff 99 4a bd 8a d8 21 3c 9d 22 e1 3c
       -0.009799894 -0.04946327 0.009878287 0.027482325
0003e0 87 bd 94 3c 94 2e 3a bd 7f d8 5b 3d d3 98 17 bd
       0.01815678 -0.045454577 0.053673264 -0.03701098
0003f0 3c fb 95 3a 9a de 81 3b a8 f1 36 bd af 13 07 3c
       0.0011442672 0.0039633038 -0.044664055 0.008244439

conv_spatial.mlp.4.weight f4 [2, 256]
000000 18 bb 94 b6 bc 64 a8 bc 9d 19 fd 3a 94 fb 29 bc
       -4.4325243e-06 -0.020555846 0.0019310002 -0.010374922
000010 59 28 b4 38 e5 b7 73 3c 38 79 9c bb 2e 4f b9 bc
       8.590584e-05 0.014875387 -0.0047751926 -0.022620764
000020 82 b0 87 3c 2c bc c8 bc f5 a4 7b bc 6e 6c 55 bd
       0.016563658 -0.02450379 -0.015359153 -0.05210536
000030 af d1 27 3d 00 8e c7 bb b0 ef b4 bc 86 7a 13 3d
       0.040971454 -0.0060899258 -0.022086948 0.03600552
000040 db 84 cd bb cf ad 72 bc 48 00 1f 3c 82 e9 24 bb
       -0.006271941 -0.014811947 0.009704657 -0.0025163596
000050 f1 7e 17 3d a5 61 19 3d 49 fb 8c 37 71 99 2f 3c
       0.036986295 0.037446637 1.6806314e-05 0.010717736
000060 5f 34 bb bc 70 eb a0 39 34 68 ca b8 75 52 a2 3c
       -0.02285212 0.00030692993 -9.65152e-05 0.01981471
000070 80 14 12 bd 3b 64 79 3c 73 67 86 3c 71 b0 e4 37
       -0.03566408 0.015221651 0.01640675 2.726188e-05
000080 81 ba eb ba d8 b5 98 3c cf 65 4d b6 32 e8 54 39
       -0.001798466 0.018641397 -3.060664e-06 0.00020304395
000090 f1 4e 2a 3d 8c 06 cb bc ad 14 81 3c 88 99 91 3c
       0.04157919 -0.024783395 0.01575693 0.017773405
0000a0 f2 97 17 b8 5a 26 d3 3b 95 18 0b 3d b1 ba 8f bc
       -3.6142716e-05 0.006443781 0.03395899 -0.017545076
0000b0 da 78 cc bb 78 d0 5d 3c 65 53 19 bd 15 8a 20 3c
       -0.0062399926 0.013538472 -0.037433047 0.009798546
0000c0 b5 6a ae b9 25 be 8c 3c a0 50 3a bd df ae 90 bc
       -0.0003326737 0.017180512 -0.045487046 -0.01766151
0000d0 51 56 6b 3a 56 c5 1c 39 e9 f5 f6 3c 7f 0b 9b b7
       0.0008977401 0.00014950833 0.030146556 -1.8482793e-05
0000e0 1b 10 9c 3c b1 04 22 bd 0e bd 8b b7 7f bc de 3c
       0.019050648 -0.039555255 -1.6658127e-05 0.027189491
0000f0 0f 33 57 3c 62 78 12 39 10 a2 6f b7 0c e3 43 b9
       0.013134732 0.00013968491 -1.4283243e-05 -0.0001868123
000100 ad fc ab b8 f8 c7 de 3b 27 6b 0a bd 73 c4 d1 3c
       -8.20098e-05 0.0067987405 -0.033793595 0.02560637
000110 1f 49 67 bc 44 70 11 bd 18 f7 98 b7 ba 08 f9 bc
       -0.0141165545 -0.035507455 -1.8234874e-05 -0.030399669
000120 c0 a1 e5 bc f3 5b 55 b8 56 5c d5 3b 8c 13 6e bb
       -0.02803123 -5.086879e-05 0.0065112514 -0.0036327569
000130 aa 2c d4 3c d7 68 c1 b8 9f c7 c3 3a 38 ea 13 3d
       0.025900204 -9.222485e-05 0.0014936811 0.03611204
000140 61 c1 df bc b4 85 fa 3c d2 b9 df bc 11 3f 52 bc
       -0.02731389 0.030581333 -0.027310286 -0.012832419
000150 67 89 bf 38 39 96 dd 3b 6e 88 c6 bc 67 87 96 bc
       9.133183e-05 0.0067622927 -0.024234977 -0.018375112
000160 18 09 cb bb 63 e4 12 3c 38 35 b4 b8 b4 8a 1e 3d
       -0.0061961524 0.008965584 -8.5929816e-05 0.038706496
000170 54 1c e6 3c b9 98 17 38 aa 08 ed b9 87 c7 aa 3c
       0.02808968 3.614344e-05 -0.00045210618 0.020847095
000180 bc 3b 2e bc 47 f5 ad 3b fd 43 de 3c 3b 70 9c 3b
       -0.010634359 0.0053087804 0.027132029 0.004774121
000190 ae cd 82 38 07 af a7 bc 3a 21 07 39 bf ef 7a ba
       6.237194e-05 -0.020469202 0.00012886981 -0.0009572468
0001a0 80 be 45 bc 25 79 52 3d c4 09 1f 3d 47 c9 37 bd
       -0.0120693445 0.051385064 0.038827673 -0.044869687
0001b0 87 3c ee 39 b1 73 80 3b e8 06 8e 38 a9 cd 78 bc
       0.00045439994 0.0039200415 6.772374e-05 -0.015185752
0001c0 98 ae 56 bc 2a 62 72 3c c5 00 ac 39 8f 40 d5 3c
       -0.01310315 0.014793912 0.0003280697 0.02603176
0001d0 fd d1 40 39 44 33 9c ba 75 11 34 38 80 ed 06 bd
       0.00018388774 -0.0011917134 4.2931602e-05 -0.03294134
0001e0 ff bd 81 ba 14 10 71 3c 51 76 39 39 1c 7b d2 39
       -0.0009898542 0.014713306 0.00017687051 0.00040146045
0001f0 d3 61 d8 37 08 c2 52 3c e2 19 d6 3c 97 b3 58 37
       2.579476e-05 0.0128636435 0.026135389 1.2916417e-05
000200 45 69 29 bb 84 5b 86 3b 98 2a 34 3a e2 60 e7 3c
       -0.00258501 0.004100265 0.0006872802 0.02824444
000210 b8 6a d1 3c 43 71 38 bb f1 8d e1 3a 7f 1d eb bb
       0.025563583 -0.002814368 0.001720844 -0.007175147
000220 ae 4f d7 b9 a7 9f 0f bd 28 15 4f bd a1 6b b8 b8
       -0.00041067362 -0.035064366 -0.050557286 -8.793851e-05
000230 ae 65 06 3d cb 70 91 b7 3a 87 10 3c f2 8c e5 39
       0.032811813 -1.733787e-05 0.008821303 0.00043783296
000240 47 8a 0a bd 45 17 18 bb c9 c3 3e b9 51 cb 0d 3d
       -0.033823278 -0.002320723 -0.00018192748 0.034617726
000250 88 f6 15 bc 8b df 31 3b 49 7d 1c bd 6b b7 39 bd
       -0.009153016 0.0027141299 -0.03820542 -0.045340937
000260 b8 44 20 bd f5 8a 2c bd af 38 cc 39 a7 0b bb 38
       -0.039128035 -0.042124707 0.00038952145 8.919025e-05
000270 94 b5 1b 38 2f e6 e5 b8 6b 32 31 3b 33 56 6c bc
       3.7123988e-05 -0.00010962446 0.0027038108 -0.014424848
000280 a9 94 c3 3c c7 79 91 bc 63 7c c8 3c 55 6a 28 3d
       0.023874598 -0.017758263 0.024473375 0.04111703
000290 66 35 d4 b7 8c 08 4b 3c fe b3 c8 ba 03 65 b0 34
       -2.5297235e-05 0.012392174 -0.0015312431 3.285605e-07
0002a0 8e 98 c7 3c 77 fa af 3c a1 9d 48 b7 d0 b1 d8 3c
       0.024364736 0.021481736 -1.195763e-05 0.026451975
0002b0 6a 76 1b 3c df f3 b4 3b f9 5e a8 b9 40 70 0e bd
       0.009488681 0.0055222358 -0.00032114217 -0.03477502
0002c0 1f f9 3a 3d c9 81 8e 3b e0 75 62 3c ba 8a b3 39
       0.045647737 0.0043489677 0.013822049 0.000342449
0002d0 f5 a8 25 bc 2d b7 21 bd 53 bc 36 b9 c9 79 a0 b9
       -0.010111083 -0.03948133 -0.00017427029 -0.00030608315
0002e0 e9 0e f4 bb 42 65 77 bc 65 5e 36 3c aa 6e 89 bc
       -0.0074480665 -0.015099825 0.011130904 -0.016776402
0002f0 4b 9c 18 bc 9a 86 ec b9 40 ca 2f 3d 1c db 27 3d
       -0.009314607 -0.00045113714 0.04291749 0.040980443
000300 42 ce ab 39 8a e1 ce 39 72 d4 1f bd 4b ca fb 3a
       0.00032769336 0.00039459422 -0.039020963 0.0019210068
000310 43 32 4a bd ea d7 fc 3c c8 4f af bc 97 69 6b bc
       -0.04936434 0.030864675 -0.021400347 -0.014368436
000320 95 88 09 39 68 f6 50 36 9c 0b 55 bc 06 11 31 b8
       0.00013116219 3.1137843e-06 -0.013003256 -4.2215943e-05
000330 0f 7d 39 3b 52 28 1e 39 fc 2b 12 bd fe dc 14 bc
       0.00283033 0.00015083075 -0.035686478 -0.009085892
000340 56 54 00 3c b3 aa 28 bb 2e d6 ed bc 22 71 2b bd
       0.007832607 -0.002573651 -0.029032793 -0.04185594
000350 5c b9 d9 38 62 40 16 3d fd 35 39 3d df 3a 9d 3c
       0.00010381892 0.036682494 0.045217503 0.019193111
000360 b9 9d cf bc e5 8c 5a b9 1e 71 02 bc b8 1a 46 3d
       -0.025343763 -0.00020842587 -0.00796154 0.048365325
000370 da fe 41 3c f0 8f 36 bd 8a f7 da 3c 93 5d 10 37
       0.0118405465 -0.044570863 0.026729364 8.604856e-06
000380 35 11 1c 3b 4e d9 90 36 62 2e a5 b9 88 f4 9f 3c
       0.0023813967 4.316832e-06 -0.0003150581 0.019525781
000390 a6 b0 ca 38 74 3b 6a bc 8f a6 0d bd e6 f3 b1 bb
       9.665014e-05 -0.014296401 -0.03458267 -0.0054306863
0003a0 e0 4a fa bc 97 1a 05 bd eb 83 04 b8 15 3f bb b9
       -0.030553281 -0.03249606 -3.159411e-05 -0.0003571442
0003b0 a5 d8 16 bd b1 24 e2 3c 30 f1 b5 bc 86 b3 d3 3c
       -0.036827702 0.027605386 -0.022209734 0.02584244
0003c0 85 ec 3b bd 3b 62 ce bc 27 ff 01 3d a4 db 8d bc
       -0.04587986 -0.025193324 0.031737473 -0.017316647
0003d0 1f dc 2b b8 cf 97 32 bc c7 01 9d 3c 57 68 de b9
       -4.097458e-05 -0.010900452 0.019165887 -0.0004242088
0003e0 de 18 1e 3d 5f bf 99 bb 37 02 59 38 99 c1 59 b9
       0.038597934 -0.0046920027 5.1738894e-05 -0.00020766853
0003f0 2e ad 04 39 15 ac e6 3b d3 93 91 b8 04 c7 5f bd
       0.00012653015 0.0070395567 -6.941673e-05 -0.054633155
