logs/M5D1_r06/score.pt (torch, 732745 bytes, 10 tensors)

embed.0.W f4 [64]
000000 fb 93 eb c1 53 46 d9 41 3e 93 c6 40 31 30 83 42
       -29.447256 27.159338 6.205474 65.594124
000010 b3 bc 78 41 2a 2c a0 c1 73 da bf c1 f4 d6 d1 40
       15.546069 -20.021564 -23.981665 6.5574894
000020 e3 cb 12 c2 63 e6 e8 40 bd 37 fb 40 7a f6 56 41
       -36.69911 7.2781234 7.850554 13.435175
000030 32 f0 41 c1 36 6e e4 c1 d0 17 0f c1 3f 6d f6 c0
       -12.121141 -28.553814 -8.943314 -7.7008357
000040 a1 3e b0 41 de b5 02 42 42 bd 44 c1 3b c7 27 c2
       22.03058 32.677605 -12.2962055 -41.94456
000050 57 2c a9 c1 ee 76 2c 42 e3 24 0f 42 68 82 da 40
       -21.14665 43.116142 35.786022 6.8284187
000060 97 ac 03 41 69 3c be c1 d6 38 ca 40 26 59 17 c2
       8.229636 -23.779497 6.319438 -37.83706
000070 0e e0 b7 c1 35 54 ac 41 de 58 57 41 c5 6c 33 40
       -22.984402 21.541117 13.459196 2.8035138
000080 13 ff 84 42 39 fd 7b c1 bc ce 36 42 fe d0 9b 3f
       66.49819 -15.749322 45.70189 1.2173154
000090 36 89 00 c2 e2 eb 4a 41 ba 47 77 c1 1c 2e 30 41
       -32.133995 12.682589 -15.455011 11.011257
0000a0 6f ca 2c 42 81 64 b2 41 d4 19 41 c0 a9 d7 0f 41
       43.19769 22.299074 -3.0172014 8.990151
0000b0 19 bc 37 42 a8 03 41 c2 e2 e6 73 c1 42 f3 c4 c0
       45.93369 -48.25357 -15.243868 -6.1546946
0000c0 67 b3 2e 42 2c b4 0c c2 8d 69 69 c1 6a cc 10 c2
       43.675198 -35.17595 -14.588269 -36.199623
0000d0 ed e9 65 c0 c2 9f 54 c0 fe 7b 18 c2 98 15 24 c2
       -3.5924027 -3.3222508 -38.121086 -41.021088
0000e0 cd ff 03 40 6b 03 95 42 02 37 0f c2 85 67 02 42
       2.0624878 74.506676 -35.80372 32.601093
0000f0 58 56 b2 42 b7 f6 98 40 10 f5 9c 41 85 b7 11 41
       89.16864 4.7801166 19.61966 9.107305

embed.1.weight f4 [128, 128]
000000 e6 89 e9 bc b7 1d 9d 3d 70 96 ce 3c 3e dc 17 3d
       -0.028508138 0.07671683 0.025218219 0.037075274
000010 f7 c5 89 bd fe 03 a1 bd bb 33 a8 bc 0c c5 12 3c
       -0.06727212 -0.078620896 -0.02053248 0.008958112
000020 b8 c1 ed bc 76 ad 2d ba ed 2e 82 bd df 7d ab 3b
       -0.029023036 -0.0006625274 -0.06356607 0.005233511
000030 33 ea c3 bb 64 e4 8c bd 0c 76 0e bc 83 75 35 bd
       -0.0059788465 -0.068794996 -0.008695137 -0.04430152
000040 11 de e1 bc 86 36 46 bd 48 42 bb bc 12 01 ab 3b
       -0.02757171 -0.04839184 -0.022858754 0.0052186335
000050 57 4c a9 bd f0 88 d2 bc 40 54 5c bd 1e 1c 2b 3d
       -0.08266514 -0.025700063 -0.053791285 0.04177486
000060 0c 57 66 3a 33 80 30 bd 67 cc 9f bd 4b 09 72 3c
       0.00087867747 -0.04309101 -0.078026585 0.014772723
000070 45 6d 48 bd ff 27 22 3d 28 57 0e bb 7f 96 4b bd
       -0.048932333 0.039588924 -0.002171943 -0.04970407
000080 59 76 49 3d 56 6f a4 3d bd 43 90 bd c7 5c 81 bd
       0.04918513 0.08029048 -0.0704417 -0.06316524
000090 8c b5 33 3d 17 45 95 3c 48 10 3c bd 5d 87 f9 3c
       0.04387431 0.018221421 -0.045913965 0.030460054
0000a0 9f 3b 5e bd 8d b9 e7 3c 0f 44 f0 3c 7c 85 d3 3c
       -0.054256078 0.02828672 0.029329328 0.025820486
0000b0 76 cc b0 bd 2b 54 67 3d e0 af 0a 3c f4 12 36 bd
       -0.08632748 0.056476753 0.008464783 -0.04445167
0000c0 c2 56 b2 3d 62 ea b9 3b 69 b3 5c bd 1e 8b ba bc
       0.08707954 0.0056736926 -0.053882036 -0.022771414
0000d0 ad 27 f2 3c f9 17 87 3b d3 32 ac 3c ab 4b a7 3d
       0.029559935 0.004122731 0.021020329 0.081687294
0000e0 89 01 9a bd 58 e9 6e 3d c9 f5 9a bd f5 6e 10 bd
       -0.07519824 0.058328003 -0.07566411 -0.035262067
0000f0 f2 f4 4e 3c c3 f8 88 3c dd a7 86 bd 7b bd 8b 3c
       0.012631642 0.016720181 -0.06574986 0.017058125
000100 fa 40 0b bd 3d 5f 90 bd f9 44 7b bc 26 59 95 3d
       -0.033997513 -0.07049415 -0.015336269 0.07292394
000110 ee cb 10 3d b2 a4 45 3d 5f 15 2a bd 5f b8 a1 3c
       0.035350733 0.04825277 -0.041524287 0.019741235
000120 64 b1 25 3d 07 59 89 bd 38 31 96 bc 35 c4 f3 bb
       0.040452376 -0.06706434 -0.018334016 -0.007439161
000130 7a 27 20 bd ae 4e 49 3d f9 00 df bc ae d1 65 3d
       -0.039100148 0.0491473 -0.027222143 0.05610817
000140 15 69 57 3d e8 75 66 bd f5 70 3a 3c 66 72 1b bd
       0.05259045 -0.056264788 0.01137947 -0.037950896
000150 36 c7 12 bc 60 5b 8a bd 13 5d 78 3d 26 5b b1 3d
       -0.008958628 -0.0675571 0.060635637 0.08659963
000160 36 b1 aa bd 59 50 63 3d af ef 3a 3d a0 eb 3f bd
       -0.083345816 0.055496547 0.045638736 -0.04685557
000170 3a 11 a5 bd e3 57 3c bd 5d b3 b5 bc 5e f7 99 3b
       -0.08059926 -0.045982253 -0.022180254 0.004698678
000180 20 7e ab 3d 55 97 61 3d 24 cb ce 3b 93 24 9f 3c
       0.08373666 0.055075962 0.0063108373 0.01942662
000190 4e 50 49 3d 19 1e a8 3c 6a f2 94 3d ed ff a6 3d
       0.04914885 0.020522164 0.07272799 0.08154283
0001a0 fd c6 5e bd 10 b1 83 bd 4b c2 98 3d 90 2a 7a 3d
       -0.05438899 -0.06430256 0.074589334 0.061075747
0001b0 b1 e6 81 3d 3b db 51 bd bc ba 96 bd 04 f9 a0 bd
       0.06342829 -0.051234465 -0.073598355 -0.07859996
0001c0 ed 38 06 bc 70 c7 a3 3d 1f bb 1d bd 86 95 2c 3d
       -0.008192283 0.07997024 -0.03850853 0.042134784
0001d0 fa 72 8d bd c0 29 ae 3d 23 ae 26 bd d1 b7 98 3d
       -0.06906696 0.08504057 -0.040693413 0.07456935
0001e0 33 55 9f 3d 0c ba c8 bc 7c c9 28 3c 8f c1 0b bd
       0.07779922 -0.024502777 0.010301944 -0.03412014
0001f0 8c 7a 60 3d a1 e5 a2 3d fc 12 8c 3d 7a a4 9a bc
       0.05480437 0.079539545 0.068395585 -0.018877257
000200 ed 30 b3 3d 1e c3 9c bd 2c 0a af bd 65 c9 86 bd
       0.08749566 -0.07654403 -0.08546862 -0.06581382
000210 bc 85 9b 3d 4d 13 84 bd a9 3f 18 3d 66 e6 1b bd
       0.07593867 -0.06448994 0.037170086 -0.038061522
000220 d1 f3 3a bd 1d b3 47 bc 24 31 94 bc 09 73 0b 3c
       -0.045642678 -0.0121887 -0.018089838 0.008511313
000230 c6 37 8e bd 74 07 80 3d 41 ea 4e 3c 9a 2d 89 bd
       -0.06944232 0.062514216 0.012629093 -0.06698151
000240 4b 0c ac 3d 58 49 56 b9 41 85 8a 3d 28 57 b2 3d
       0.08400782 -0.00020435953 0.067636974 0.0870803
000250 23 45 5e 3d dc d1 86 bc 14 09 90 bc 90 e7 57 3d
       0.054265153 -0.01645749 -0.017582454 0.05271107
000260 f0 68 ae bd 0d ed 25 3c ef cc b1 3d 3d 7a ec 3a
       -0.08516109 0.010127318 0.08681666 0.0018041801
000270 f8 79 96 bd ee ab 67 bd df 3e 4b bd 13 fc 15 bd
       -0.073474824 -0.05656045 -0.049620505 -0.03661735
000280 03 ee 02 3c 16 a8 89 3d 76 23 ab bd be f3 89 b9
       0.007991317 0.06721513 -0.08356373 -0.00026312278
000290 87 c3 a9 bd a4 52 8c bd 50 86 a6 bd a5 7e 8c 3d
       -0.08289247 -0.068517 -0.08131087 0.06860093
0002a0 ce 1d 10 3d 09 ae 8d 3d fb d8 37 bd fa 77 cc bc
       0.035184674 0.0691796 -0.044884663 -0.024959553
0002b0 7a 91 22 bb cb 6f 5a 3d 79 ba 10 3d 08 6b 8b bd
       -0.002480595 0.05332927 0.035334084 -0.06807524
0002c0 68 0d 23 bd 8a 2e a7 bd 91 e6 90 3d 49 82 ca 3c
       -0.039807707 -0.081631735 0.07075227 0.024720328
0002d0 ec 16 93 bd 47 c2 91 3d 7d d8 1d 3d 11 ba 05 3d
       -0.071821064 0.071171336 0.038536537 0.03264815
0002e0 16 14 93 bd 1f d5 34 bd 48 8f 9b bb 00 a9 f8 3c
       -0.071815655 -0.04414856 -0.004747305 0.030354023
0002f0 6f e5 76 3d 16 a2 b3 bd 12 19 4e 3d fd 73 78 3d
       0.0602774 -0.0877115 0.050316878 0.06065749
000300 c7 c4 41 bb 02 26 7e 3d b3 14 d8 3b 97 5a a9 bd
       -0.0029566751 0.062047966 0.0065942644 -0.08269232
000310 01 77 61 3d 12 ad 4d bd 42 d8 0c bd be 87 9d 3d
       0.05504513 -0.05021388 -0.034385927 0.076919064
000320 9b f8 e9 bc 84 ad 01 3c d1 7d a9 3d a6 2a 13 b8
       -0.028560927 0.0079149045 0.08275951 -3.508725e-05
000330 45 e0 97 bd 46 79 8c 3d 5e 87 5f bc a1 0d ab 3d
       -0.07415823 0.068590686 -0.013643114 0.08352209
000340 f0 63 06 3d 84 d5 69 3d 25 65 36 bd 60 d6 9e 3d
       0.03281015 0.05708839 -0.044530053 0.077557325
000350 3a 8f 41 3d 4e 25 43 3d bb da 7c 3d b6 11 a2 bc
       0.047255732 0.047643 0.061732035 -0.019783836
000360 85 8e 38 3d 5c bb 20 3d 80 fb cc 3c 20 e6 16 3c
       0.045057792 0.03924118 0.025022268 0.0092101395
000370 ef 88 a1 3d 7c 4e 3c bd 40 e2 8d 3d 23 84 a8 bd
       0.07887446 -0.045973286 0.069279194 -0.08228328
000380 a9 93 ad 3d 32 df 7c bd 34 e4 8b 3d 5a 39 89 bd
       0.084754296 -0.061736293 0.06830636 -0.06700392
000390 af ad 50 3d fa 94 35 bc b0 dc 4b bd af f7 68 3b
       0.050946888 -0.011082882 -0.04977101 0.0035548022
0003a0 69 3c 3e bd 91 18 08 bb 41 6c 02 3c cf e4 f1 3c
       -0.04644433 -0.0020766596 0.00796038 0.02952805
0003b0 18 a1 3a 3d 79 5e 1c bd 21 43 2b bd 0e 36 da 3c
       0.045563787 -0.038176034 -0.041812066 0.026637103
0003c0 13 e1 69 3d 3c 85 90 bd ce 76 78 3d f4 1d c8 bc
       0.057099413 -0.070566624 0.060660176 -0.024428345
0003d0 d5 db 37 bd 6d 85 ef bc ba 33 3e 3d d4 be 2f bd
       -0.044887383 -0.029238427 0.04643605 -0.042906597
0003e0 9e cd c5 bc 86 6a 08 bd e1 11 41 bb ab a5 9f 3d
       -0.024145897 -0.033304714 -0.002946012 0.077952705
0003f0 6a 9d 3a 3c 54 1f 88 3c 19 ac 32 bd a2 a2 8c bd
       0.0113900695 0.0166165 -0.043621156 -0.06866957

embed.1.bias f4 [128]
000000 6e 69 2c 3b 4e 05 35 bd 4b d0 8c bd 92 4c 5e 3d
       0.0026307958 -0.044194512 -0.06875666 0.054272242
000010 2d 1a 90 bd 08 01 7e 3d 7d b1 b8 bc 9b a8 77 bb
       -0.07036243 0.062012702 -0.02254557 -0.0037789706
000020 5a 10 ec 3c 4d a8 b1 bd 63 69 27 3b 27 f9 57 bd
       0.02881639 -0.08674679 0.0025544993 -0.052727845
000030 6f 2e a4 3d 32 2c ac 3d 17 f1 74 bd 58 90 88 3d
       0.08016669 0.08406867 -0.059800234 0.066681564
000040 52 05 e8 bb 46 e1 a5 bd 67 be c3 bc fa 93 82 bd
       -0.0070807124 -0.08099608 -0.023894502 -0.063758805
000050 a9 63 9b 3d 64 ee 97 bd b6 15 4c 3d bb af dc 3c
       0.07587368 -0.07418516 0.049825393 0.026939264
000060 55 fe 6f 3d bd 2c d0 bc 17 da 08 3c cd 25 ae bd
       0.05859216 -0.025411958 0.008352778 -0.08503304
000070 59 c2 54 3d 98 80 e1 3c 68 25 be 3b 2e af 62 bd
       0.051943157 0.027527139 0.005802799 -0.055342846
000080 1f c7 1f 3d db 40 d2 3c c6 64 3b bb 68 0d 84 3c
       0.039008256 0.025665691 -0.0028594001 0.016119674
000090 c8 70 16 3d e8 c3 19 3d 8f 47 af bd d4 e1 64 bc
       0.03672865 0.037540346 -0.085585706 -0.013969857
0000a0 85 e8 6d 3a ca a2 5d 3d 5b 5a 20 3d 79 2e a7 bd
       0.00090754806 0.054110326 0.03914867 -0.08163161
0000b0 8c f2 b3 3c 63 2f 91 3d 74 62 28 3d 4c ca af bd
       0.021966241 0.070891164 0.041109517 -0.08583507
0000c0 25 ef a5 3d 42 08 8e bd de e4 89 3c e7 a8 54 bc
       0.08102254 -0.06935169 0.016832765 -0.012979723
0000d0 e5 d2 df bc 71 13 03 3c da 27 a1 3d 22 38 8e 3d
       -0.027322242 0.008000241 0.07868929 0.069443
0000e0 56 1c 38 3c e1 bf e1 3c c5 fd 66 3d b5 40 81 ba
       0.011237225 0.027557315 0.056394357 -0.0009861203
0000f0 05 72 8b bb 3a 72 27 bd a1 e0 fe 3c df 2f fb 3c
       -0.0042555355 -0.04088042 0.03111297 0.030662475
000100 1e ad 6e bd 9b ae 12 3d 52 40 ba bc 54 50 b8 bc
       -0.058270566 0.035811048 -0.022735748 -0.022499241
000110 2b 85 50 bc 8e 08 2c 3d 4c ae 9f bd 92 d9 63 3d
       -0.012727062 0.042000346 -0.07796916 0.055627413
000120 65 f4 b9 bc 57 06 05 3d 9f 4d 21 bd 5b 41 5c bc
       -0.022699544 0.03247675 -0.039380666 -0.013443316
000130 43 ff ad bc 5e b0 b3 bc 3a af 98 3d f8 bb b7 3c
       -0.021239882 -0.021934684 0.07455297 0.022428498
000140 55 ac d3 3c da 1b 89 3d 63 01 1d bd 80 de 60 3d
       0.02583901 0.066947654 -0.0383314 0.054899693
000150 55 40 14 3d ae c2 d6 3c 1d 10 2e bd 3f 4a f4 bc
       0.036194164 0.026215877 -0.042495836 -0.02982056
000160 8e e1 ff bc 23 e0 91 3d e1 c2 19 3d 26 90 31 bd
       -0.031235483 0.07122829 0.037539367 -0.04335036
000170 24 e7 b2 bd d1 18 06 3d 74 ee 0c 3d 36 69 29 3d
       -0.08735493 0.03273851 0.034407094 0.041360103
000180 a5 c7 46 3c 6e d5 49 bd be 8c b4 ba 05 3a aa 3b
       0.01213256 -0.049275808 -0.0013774855 0.0051949047
000190 6a 5d 4c 3d 89 8c 72 bd b2 65 87 bd f3 f0 82 bd
       0.049893774 -0.059216056 -0.06611194 -0.06393614
0001a0 5d d9 14 3d a7 41 9b 3c cc 9d 8f bd 9a 78 98 bc
       0.036340106 0.018952204 -0.07012519 -0.018612195
0001b0 0f 31 d2 3b 21 8d 21 bc af a8 9d 3c b8 16 1d bd
       0.0064145396 -0.009860308 0.019245474 -0.038351744
0001c0 47 c1 f9 bc b6 b5 77 3d e5 e0 2a bc a0 56 ad 3d
       -0.03048767 0.060476027 -0.010429596 0.08463788
0001d0 90 d0 90 3d 9f 97 96 bd a0 12 79 3d df d5 b6 bc
       0.0707103 -0.07353138 0.060808778 -0.022318779
0001e0 96 ab fc 3c aa 57 25 3d 76 4f 8f 3c 30 25 59 3d
       0.030843537 0.040366806 0.017493945 0.05301398
0001f0 d7 dd f3 3b d8 c3 1c 3a eb 9f b5 bc c2 07 22 3d
       0.007442217 0.0005980111 -0.022170981 0.03955818

embed.3.weight f4 [256, 128]
000000 57 b7 a4 bd 1f 84 93 3c 97 3b f9 bc c4 61 3e bd
       -0.08042782 0.018007336 -0.030423922 -0.046479955
000010 b6 d1 44 3d d6 5d 9e 3c 95 9f 25 bd 3a 74 a6 3d
       0.04805156 0.019331854 -0.040435392 0.08127637
000020 9a 53 a7 3d e9 7b 8e bd dc ba 60 bd a2 80 12 bd
       0.081702426 -0.06957228 -0.054865703 -0.035767205
000030 67 1f a7 3d aa b9 9a bd 0f e9 db 3c 54 e1 1f 3d
       0.081602864 -0.07554944 0.02684453 0.03903325
000040 b6 74 71 bd 3b 14 78 3d 16 79 a3 3d 25 6c 00 3d
       -0.058949195 0.06056617 0.0798208 0.031353135
000050 41 ef 0d bc 5a 98 0c 3c a9 04 31 3d b4 52 a1 3d
       -0.008663 0.008581245 0.043217335 0.078771025
000060 74 99 1e bd 22 7f b3 3c 63 9e 4b bd d6 ff 3e bd
       -0.038720563 0.021911208 -0.049711596 -0.046630703
000070 82 96 98 3d 33 70 d4 3b 1d 95 15 3d a7 44 4f 3d
       0.07450582 0.0064831018 0.03651916 0.05060258
000080 5a 85 4f bd c8 75 52 3d 5d f0 ac 3d 7c 04 c6 3a
       -0.050664283 0.051381856 0.08444283 0.0015107538
000090 37 b3 ae bd e6 73 9c 3d 45 26 7f 3d ab e9 c3 bb
       -0.08530276 0.076392934 0.062292356 -0.005978783
0000a0 49 ab 6c bd 79 40 8b 3d 72 01 82 bd 2c a6 a6 bd
       -0.057780538 0.067994066 -0.06347932 -0.081371635
0000b0 11 9b 0f 3d c4 29 da 3c 47 3c 05 3d ae 28 c6 3c
       0.035059992 0.026631244 0.032528188 0.02418932
0000c0 52 40 53 3c 1e 72 62 bd 3c f3 d4 bc b4 83 3a 3d
       0.012893753 -0.055284612 -0.02599489 0.04553576
0000d0 5b b2 0d 3c c2 e8 af 3c 61 8b 95 bd d0 7e 46 3a
       0.00864848 0.021473292 -0.07301975 0.0007571997
0000e0 6e ea 61 bd 3b a6 8c 3c a6 da a0 bc fe 3f 5b bd
       -0.05515521 0.017169109 -0.01963551 -0.053527825
0000f0 0d 9c 91 3d 11 99 9c 3a 88 6c 02 bd 7b 7a b0 3d
       0.071098424 0.0011947473 -0.031841785 0.08617111
000100 64 63 2f 3d 23 61 7b 3d dd 1f 89 bd a3 6b 93 3d
       0.042819396 0.061371934 -0.066955306 0.071982644
000110 7a f0 e4 3c d8 a9 49 3d f3 84 19 3c 36 01 80 3d
       0.0279467 0.04923424 0.0093700765 0.06250231
000120 27 10 0f 3c 8a 39 8b bb e7 83 0a bd 31 1c 36 3d
       0.008731878 -0.0042488026 -0.033817198 0.04446048
000130 d7 d8 17 bc 42 1d df 38 60 ad 93 3c ca f4 a7 3d
       -0.009268007 0.00010638918 0.018027008 0.08200987
000140 b7 69 86 bc cf 33 3b 3c 06 57 08 bd 50 01 66 3b
       -0.01640783 0.011425926 -0.033286117 0.0035095997
000150 f6 59 e7 3c 76 c7 43 bd 2d 84 86 bd 45 50 b7 bc
       0.028241139 -0.047797643 -0.06568179 -0.022377143
000160 f9 1a 84 bc ea 22 48 bd fc 66 3b bc 3a e7 3d bc
       -0.016126143 -0.04886142 -0.011438128 -0.011590773
000170 e4 ba 7e 3d 1c 6d 88 bc d8 29 d8 3c 89 b6 84 3b
       0.06218995 -0.01665359 0.02638714 0.00405008
000180 88 ca 2a 3b f5 4a 8e bd 8b fe 96 3d b4 ed 60 bd
       0.002606066 -0.06947891 0.07372769 -0.05491419
000190 7b dc 42 3d 9c 39 ac bd 11 5e a4 3d 27 b5 92 bd
       0.047573548 -0.084094256 0.08025754 -0.07163458
0001a0 32 e7 9d 3d 7f c0 82 3d ab 2d b0 bd f4 b5 a2 3d
       0.07710113 0.06384372 -0.086024605 0.07944861
0001b0 d8 11 a8 bd 0b 5c 3c bc e6 55 ad 3d a6 04 d1 bc
       -0.082065284 -0.011496554 0.084636495 -0.025514912
0001c0 5a e2 37 bd 73 78 7f bd a2 68 fc bc 57 99 89 bc
       -0.0448936 -0.06237073 -0.030811612 -0.016796751
0001d0 13 09 81 3d 20 8e c2 ba 24 16 6e bd 9d 03 09 3d
       0.06300559 -0.0014843382 -0.058126584 0.03345071
0001e0 de 98 93 bc cb ed a7 bd 19 42 25 bd e7 0c 9c 3d
       -0.018017229 -0.08199652 -0.04034624 0.076196484
0001f0 70 ce 38 bd 1e 38 04 3d 10 59 90 3d f0 26 95 bd
       -0.04511875 0.03228008 0.07048237 -0.07282817
000200 16 57 d2 bc 95 84 a8 3b 93 6c 5d 3d 8c 1f 6b 3d
       -0.025676291 0.005142758 0.054058623 0.057403132
000210 8c f4 87 bd a4 0d 95 bd f7 12 10 3d 5e 1c e4 3c
       -0.066384405 -0.07277992 0.035174336 0.027845558
000220 53 ff fe 3c cf a7 17 bd de 2b 75 bd 7e 86 0b 3d
       0.031127607 -0.03702527 -0.059856288 0.03406381
000230 78 28 8c bd 9c 55 1f bd 3a b1 96 3d 0a 54 06 bd
       -0.06843656 -0.038900003 0.07358022 -0.03279499
000240 fa 4d 0e bd d3 86 55 3d 72 be a6 bd 27 4a 88 bc
       -0.034742333 0.05213053 -0.08141793 -0.016636921
000250 9b f5 53 bb 4b 23 17 3c 00 cc 00 bd f5 46 1d bd
       -0.0032342437 0.009224723 -0.03144455 -0.038397748
000260 c1 9d 3f 3d 85 40 a4 bd 89 2e 83 bb 56 7b a1 3d
       0.046781305 -0.080201186 -0.00400335 0.078848526
000270 ed 5d aa bd 07 51 68 bc 91 5a 3b 3c 26 80 9a 3d
       -0.08318696 -0.014179475 0.011435167 0.075439736
000280 b9 41 1d bd 3d 46 19 3c 0f bb 94 3d 4f 77 80 3d
       -0.038392756 0.009355125 0.07262241 0.06272756
000290 c8 58 cb bc 2d a7 95 3d aa 56 9d 3d a6 ad a2 bd
       -0.024822608 0.07307277 0.076825455 -0.07943277
0002a0 df 4d 5f 3b 71 97 48 bd 4f df a9 3d 32 fd a3 bd
       0.0034073514 -0.04897255 0.08294546 -0.080072775
0002b0 53 41 8b 3d 81 21 b2 3d 43 bb 80 bc 45 68 f1 bc
       0.06799569 0.086977966 -0.015714293 -0.029468665
0002c0 7e d4 73 bd b9 ce 10 3d bd 38 7e 3d 95 8c e7 3b
       -0.05952882 0.035353396 0.06206583 0.007066319
0002d0 9c 4e 05 3c 0a b0 2a bd 6f e7 4c 3c 79 59 0f bd
       0.008136418 -0.04167179 0.01250635 -0.034997437
0002e0 6d 7d a8 3c b4 d9 fc 3c 14 60 7a bd 93 8c ed bc
       0.02056762 0.030865528 -0.061126783 -0.028997695
0002f0 f7 10 8a 3d 88 30 0c bd 1f b3 2e 3d a8 05 4a bc
       0.06741517 -0.03422597 0.042651292 -0.01233045
000300 cc 7a 56 bd e7 64 6a bb c2 61 5f bc 81 b1 07 bd
       -0.052363202 -0.003576571 -0.013634147 -0.033128265
000310 71 81 86 3d c6 02 37 bd d8 21 5a 3d 0e 63 38 bd
       0.06567658 -0.04468038 0.053254932 -0.04501634
000320 04 69 8c 3d c0 bb 7a 3d 21 5f 83 bd 5d d0 76 3d
       0.06855968 0.06121421 -0.06414629 0.060257304
000330 9f 9e 80 3d c4 75 8d 39 38 a1 35 bb e4 d6 a6 3d
       0.062802546 0.00026981358 -0.0027714502 0.08146456
000340 87 dc 2d bd e1 16 92 3d 53 68 1d 3d 89 84 92 bd
       -0.04244664 0.0713327 0.03842957 -0.07154185
000350 ac 67 2a bc 19 db 1f bd 5a 7f 16 3d d9 8f 79 3c
       -0.010400694 -0.039027307 0.036742546 0.01523205
000360 b0 0d 9d bd ec 05 a9 bd 80 6c ab 3d 30 b5 aa 3d
       -0.07668626 -0.08253083 0.08370304 0.0833534
000370 60 2d 8d bc 37 50 a8 3d 47 51 eb 3c 1f 0f 96 bc
       -0.01723355 0.08218425 0.02872528 -0.018317757
000380 80 ed 50 bd 28 d8 13 bd 2f 08 40 3b c6 9b 80 bc
       -0.051007748 -0.036094815 0.0029301753 -0.015699279
000390 d5 17 e1 3c d8 46 8d bd 56 aa 65 3b 4b 5e 6d bd
       0.027477184 -0.06898278 0.0035044155 -0.057951253
0003a0 5e 78 eb 3c 7a 1a 23 bc 87 50 0e 3c 8c de 2b bd
       0.028743919 -0.009955043 0.008686191 -0.041960284
0003b0 48 0e 8b 3d 55 0c b0 3d cb 27 16 bd 65 28 48 3d
       0.06789833 0.08596102 -0.036659043 0.04886665
0003c0 80 b6 67 bd 65 ba 92 3b 2a be 16 bd 2c 77 c1 39
       -0.05657053 0.0044777864 -0.03680245 0.0003690062
0003d0 b6 46 67 3c 8b cc 95 3c b4 15 99 3d f7 78 25 3d
       0.01411598 0.01828601 0.07474843 0.040398564
0003e0 b2 ff dd bc 51 71 1b bd 6f e1 7f bd f7 4e aa 3b
       -0.027099464 -0.037949864 -0.06247085 0.0051974016
0003f0 5f e3 88 3d 9c 73 2f 3d b7 fe 3f 3d fa 51 29 bd
       0.066839926 0.042834863 0.046873774 -0.041337945

embed.3.bias f4 [256]
000000 59 b5 6c 3d 04 01 0b 3d ff 7e 1d bd 55 a0 64 3d
       0.057790134 0.033936515 -0.03845119 0.055816967
000010 05 aa 1b 3c 60 fe 47 bd aa 4b ad bd bd 34 8e bd
       0.009500985 -0.048826575 -0.084616974 -0.06943653
000020 46 5c a5 3c 8d b9 8e 3d c3 c7 82 bc f4 76 4d 3d
       0.020185601 0.06968985 -0.015964394 0.05016227
000030 7f 25 3c bd 1c 48 01 bd cc 47 9b bc 49 93 fb 39
       -0.045934197 -0.03156291 -0.018955134 0.00047984187
000040 b8 2b 11 bc c5 f3 8c bc ed 02 ad 3d ff af a0 bd
       -0.008860521 -0.017206082 0.08447824 -0.078460686
000050 6a a5 34 3d b1 1b 84 3d a7 5d 06 bd 00 8f 9f bd
       0.044103064 0.06450594 -0.032804158 -0.07790947
000060 3f df 0f bc 79 43 89 3d c9 bd e9 bc e0 ab 82 3c
       -0.008781253 0.067023225 -0.02853288 0.015951097
000070 a2 f3 80 3c 60 23 46 bd 7a 38 10 bd df be 01 bd
       0.015741173 -0.04837358 -0.03521011 -0.03167617
000080 3f 6d 03 3d b1 ec 18 bd c1 b2 0f bd 0d ee ca 3c
       0.032086607 -0.0373351 -0.035082582 0.024771715
000090 3f e2 a2 bd ff 32 42 bd f5 0c 97 bd fa ff b4 3c
       -0.07953309 -0.047411915 -0.07375518 0.022094715
0000a0 1e 16 db 3b c0 36 56 bd 29 17 a7 3d 43 76 6c bc
       0.006685986 -0.052298307 0.08158714 -0.014432493
0000b0 65 2c eb 3c cc b1 8e bd d7 e6 91 3c 65 c6 40 b9
       0.028707692 -0.06967506 0.017810268 -0.00018384455
0000c0 2f 90 8b 3c c0 61 84 3d 85 e9 42 bc 9b cd ad bd
       0.017036526 0.06463957 -0.011896496 -0.08486482
0000d0 83 75 4a 3b 3c e2 83 3d f9 b8 ac bd e6 98 9e bd
       0.0030892796 0.06439635 -0.08433718 -0.07744007
0000e0 41 6c 4e bd 76 ef a0 bd 75 6a ae 3c 5e 5a 0d bd
       -0.050396208 -0.078581735 0.021290997 -0.03451001
0000f0 fb 50 8e bd 49 6d 08 bc 48 38 8a bd 21 63 35 3d
       -0.069490395 -0.008326837 -0.06749016 0.04428399
000100 26 83 39 bd 64 ea 60 3d 81 d6 2d 3d 8a db 6d bd
       -0.04529109 0.054911032 0.042440895 -0.058070697
000110 9f e8 da bc 28 bb 12 bd 97 1f 56 bd 39 59 64 3a
       -0.02672225 -0.035823017 -0.05227622 0.0008710805
000120 f4 f3 95 3d 86 da da 3c fa 19 7c 3d fb f2 a3 bd
       0.07321921 0.026715528 0.06154821 -0.08005329
000130 30 0c bb 3c 6a 79 78 bd d6 21 38 3d a8 8e c2 bc
       0.02283296 -0.060662664 0.044954143 -0.023749664
000140 ee 15 01 bb b0 95 28 3d a1 1f e6 bc 8b a0 57 bd
       -0.001969691 0.041158378 -0.028091254 -0.05264334
000150 d4 02 88 bd 82 55 8c 3c fc 07 c4 3b ad 30 d7 bc
       -0.066411644 0.017130617 0.005982397 -0.026268328
000160 6e 0a 65 bd 18 8e e1 3c c5 da ea bc 09 e9 f8 3c
       -0.05591815 0.027533576 -0.02866877 0.030384557
000170 3f 34 9c 3d 7a c5 0c 3c 05 5e 68 3c c4 85 95 bc
       0.07627153 0.008592004 0.014182572 -0.018252261
000180 d7 7a da 3c 18 1a 85 bd f5 6a a6 3d 1e 37 ea 3b
       0.026669903 -0.064991176 0.08125869 0.0071476838
000190 97 dc 0a bd e3 57 96 bd 28 aa a8 bd 8a 25 91 3d
       -0.033901777 -0.07340982 -0.0823558 0.07087238
0001a0 cb db 04 3d cb 67 97 bc c2 71 9a bd ec 78 b8 bc
       0.032436173 -0.01848211 -0.07541229 -0.022518598
0001b0 a9 78 5f bd 93 97 85 3a 37 62 84 bd 16 db 84 3c
       -0.05455843 0.0010192267 -0.064640455 0.01621775
0001c0 6a 27 8c 3d df ce f4 3b 00 71 51 3d 6b 22 4e 3d
       0.06843455 0.00747095 0.051133156 0.050325792
0001d0 e1 33 71 bc ce e1 e0 38 4b d9 81 3d bc 0b a6 bd
       -0.014721842 0.00010723212 0.063402735 -0.08107707
0001e0 ae 7d f6 bc 34 2c 70 bd c9 5e e5 3c 82 7d 59 bd
       -0.030089226 -0.058635905 0.027999299 -0.05309821
0001f0 02 33 3a 3d a1 d4 78 bd 62 89 4f bd e6 9c 8c 3d
       0.0454588 -0.060749654 -0.050668128 0.068658635
000200 4b 35 32 bc 9a 96 76 3d f8 04 93 3d 17 77 72 bd
       -0.010876964 0.06020222 0.07178682 -0.059195604
000210 db 8b da bc 24 90 41 bc 1b 47 be bc eb 8b ce bc
       -0.026678016 -0.011814151 -0.023227265 -0.025213202
000220 12 74 36 bd 1a d9 9d bd 49 1d 8e bd 21 98 50 bc
       -0.044544287 -0.077074245 -0.069391795 -0.012731583
000230 fb 4f b0 bd c2 3f 6e bc 7e 16 03 3d f1 f7 91 3d
       -0.08609005 -0.014541568 0.032003872 0.07127369
000240 f1 ea 38 bd 61 c1 a7 bc 6a b4 d0 3c e1 ab 29 3d
       -0.045145933 -0.020477952 0.025476653 0.041423682
000250 bb 41 32 bd 61 b1 0a 3d 17 6a 78 3c 3c 2f 86 bd
       -0.043519717 0.033860568 0.015162013 -0.06551978
000260 48 9e 9c bc 11 fb df 3c 21 e9 b8 bc c4 2c 44 bd
       -0.019118443 0.027341397 -0.022572102 -0.047894254
000270 b6 15 8c bd d7 d5 66 bd 78 81 17 bc b4 28 3d 3c
       -0.068400785 -0.056356277 -0.009247176 0.011545349
000280 55 7f 1e 3c ae 8a df 3c 8c bc 43 3c 31 0b 26 3d
       0.009673913 0.027287807 0.011946809 0.040538017
000290 21 ba f3 bc 9b b7 97 3c f1 07 79 bd 03 a4 af bd
       -0.02975184 0.018520167 -0.06079859 -0.08576205
0002a0 a2 b4 dd 3c c3 ce a0 3c c0 72 63 3c 6c f0 9d bd
       0.027063671 0.019629842 0.013882339 -0.077118725
0002b0 de 0c 94 bd 6d c5 72 bc 33 59 6d bc 23 d3 24 3c
       -0.07229017 -0.014817578 -0.014486599 0.010060105
0002c0 b8 2b 8c 3d d0 0c 82 bd 9f 11 9d bd f5 ee ad 3c
       0.06844276 -0.063501 -0.076693766 0.021232108
0002d0 cb 15 60 3d 86 a4 8d bd 59 00 a0 bd bd d5 75 bd
       0.054708283 -0.06916146 -0.07812566 -0.06001829
0002e0 20 0e 73 bd d3 eb 1b bc 23 4d 8c bc 60 f7 1c bd
       -0.059339643 -0.009516674 -0.017126625 -0.038321853
0002f0 f5 f2 39 3d 47 9c ab bb 9f 43 d6 bc 52 25 07 ba
       0.045397718 -0.0052371356 -0.026155291 -0.00051554025
000300 1c 55 4e 3d 6f a1 c7 bc c6 5f d6 bc 9b b6 0e bd
       0.050374135 -0.02436897 -0.026168715 -0.034842115
000310 09 a8 9a 3c c8 c9 e9 3c fd f2 93 bd e2 ab b3 bb
       0.018878954 0.0285386 -0.07224081 -0.0054831365
000320 76 65 5a 3d 4b b6 9d bc 84 01 45 3d a5 00 ac 3d
       0.053319417 -0.019251963 0.04809715 0.083985604
000330 f1 21 11 3d 46 c6 83 bc b6 c4 0a 3d 60 83 fb bb
       0.03543276 -0.016085755 0.033879004 -0.007675573
000340 16 f8 24 bc f3 14 5f bc 8d a6 9a bd ce 3c 41 3d
       -0.010068914 -0.0136158345 -0.07551298 0.04717713
000350 8d fc 65 3d 6f e7 e1 3a a4 c9 36 bd 61 63 fb bc
       0.056149054 0.001723511 -0.044625893 -0.030687036
000360 7a d1 90 bd f5 a5 6c 3d 42 d9 46 bd 08 c3 63 3d
       -0.070712045 0.057775456 -0.048547037 0.05560592
000370 d4 91 b2 3d e6 45 8b bd 5a c0 93 bd 26 a0 f6 bc
       0.08719221 -0.068004414 -0.072144225 -0.030105662
000380 0b 91 9c 3c 8d e1 ef bc 29 be 5c bd 7c 4d 41 bd
       0.01911213 -0.029282356 -0.05389229 -0.047193035
000390 31 43 0c 3c c3 01 58 3d 0b 8a 58 3d e7 df ac bd
       0.008560942 0.052736055 0.052866023 -0.084411435
0003a0 27 cf 82 3d ee b0 be bc 78 11 80 bc b4 31 81 bc
       0.063871674 -0.023277726 -0.01563333 -0.01577077
0003b0 2e 02 87 bd ab 65 c2 3c 38 8b ff bb 9d da 3c 3c
       -0.065922126 0.02373012 -0.0077985786 0.011526731
0003c0 ea d7 8c bd 58 29 24 3c ff 4a 83 bd 91 a8 1c bd
       -0.0687712 0.010019623 -0.06410789 -0.038246695
0003d0 7e fb 47 bd 2f e2 3e 3d c0 ef 3a bd 1d b5 a1 3d
       -0.048823826 0.046602424 -0.0456388 0.07895873
0003e0 b3 42 bb bc a3 89 92 3d 5b 7d 98 3d a4 06 bb 3c
       -0.022858953 0.07155158 0.07445785 0.022830315
0003f0 f2 bb b2 3d 86 69 2f 3a 04 30 1c bc 65 0c 1c bc
       0.08727254 0.00066914444 -0.009532932 -0.009524439

conv_spatial.mlp.0.weight f4 [256, 2]
000000 ad 3e 8b bf 9d 7f 08 40 32 75 39 3e 68 4a 35 3e
       -1.0878502 2.132789 0.18111113 0.17704165
000010 fe 61 8f 3c bf ba ea 3d 7c 29 32 3e 84 ce 03 3e
       0.017502781 0.114614 0.17398638 0.12871748
000020 68 b6 d6 bd dc f7 85 be e9 d1 25 bf 93 fa 04 3f
       -0.1048401 -0.26165664 -0.6477342 0.51944846
000030 2e 95 f4 ba fc 61 e9 b8 8f 1e b2 bd 26 a8 86 3e
       -0.0018660182 -0.00011128557 -0.08697235 0.26300162
000040 1b ac 27 3e 8d f2 7d 3e d6 1c 26 be 8f 6b 54 3d
       0.16374247 0.24799557 -0.16221938 0.05186039
000050 9d f0 e2 bd 86 5b 5a bd 47 c7 54 bd 2f 18 2e be
       -0.110810496 -0.05330994 -0.05194786 -0.17001413
000060 b5 60 3e bd f1 80 4c bc cd 6f a5 ba ac 80 1c ba
       -0.046478946 -0.012481914 -0.001262182 -0.00059701013
000070 46 7a 64 be 0a 63 a7 3d d7 5f 81 bd 9e 53 df bc
       -0.22312269 0.08173187 -0.06317108 -0.027261551
000080 4d 4b 79 be 7f 10 b7 bd 52 e2 1f 3d 0b 1b 97 bd
       -0.24345131 -0.08938693 0.039034195 -0.07378205
000090 3c d1 81 b9 2a b1 57 3a ae 0c f7 3f 30 04 4c bf
       -0.0002476069 0.00082279986 1.9300745 -0.7969389
0000a0 ef 4c 55 b9 c5 0f 01 39 2a 28 26 3d 8e e4 88 3e
       -0.00020341923 0.00012308273 0.040565647 0.26736873
0000b0 cb b2 58 3e ec 0b 6b 3e 89 8c 30 be 51 43 74 be
       0.21161954 0.22953767 -0.1724111 -0.23853804
0000c0 33 83 a9 3d b3 6f 83 be 3f 09 58 b9 98 87 b4 b9
       0.082769774 -0.25671157 -0.0002060281 -0.000344333
0000d0 bb 60 6d be 51 83 1b be 71 11 56 3e d0 92 50 bd
       -0.23181431 -0.15186812 0.20905091 -0.05092126
0000e0 f3 5a 8d 3e 4f 18 2b 3c ca d1 36 be 54 bf 37 3e
       0.2760845 0.010442807 -0.17853466 0.1794408
0000f0 9c 83 5a 3e c7 71 63 3e 36 ba 83 ba ac 73 55 b9
       0.21339267 0.22211371 -0.0010050002 -0.00020356354
000100 0b c7 cf 3d 63 ff 57 3e 62 91 b0 3d f0 61 2e be
       0.10145386 0.21093516 0.086214796 -0.17029548
000110 7b b9 4d bd fb f4 0e be 10 3d db bc 7e d8 cf bc
       -0.050225716 -0.1396064 -0.026762515 -0.025371786
000120 8b ef 4c be 47 ff 4f be 62 9d 53 3e f3 18 7c 3b
       -0.20013253 -0.20312224 0.20665506 0.003846702
000130 57 c0 7d be 30 4b 9b bd 30 e4 c5 3e 7b 22 3a 40
       -0.24780403 -0.075827 0.38650656 2.9083545
000140 59 84 da 3d 97 4f 5f 3e 02 05 51 be 21 bc fb bd
       0.106697746 0.21807705 -0.20412067 -0.12291742
000150 1f 64 10 3d 8b 19 79 3e f8 ce 4f be 8a 01 4d be
       0.035251733 0.2432615 -0.20293796 -0.20020118
000160 8d 04 72 be 6a a5 82 3d 86 14 99 bf 8d 87 95 be
       -0.23634548 0.063792065 -1.1959388 -0.2920498
000170 eb e6 d4 bf d2 1a a0 bf af 54 b5 39 5a 11 b1 b8
       -1.663297 -1.2508185 0.00034586104 -8.44325e-05
000180 6a 53 6e 3e df a9 dd 3f 5b 6d 90 38 4d dd bc b9
       0.23274007 1.7317466 6.886824e-05 -0.00036023036
000190 bd d0 70 3f c7 37 8f 3f d9 fe d9 3d ef 44 1e bd
       0.9406851 1.1188897 0.106443115 -0.03863996
0001a0 51 f4 86 b8 f2 8d 83 ba 07 a8 86 b8 42 01 21 39
       -6.4351254e-05 -0.001003681 -6.4209155e-05 0.00015354625
0001b0 0c c0 43 be da aa 84 3e ca a0 82 3b a9 52 af b8
       -0.19116229 0.259116 0.0039864527 -8.360047e-05
0001c0 82 a4 20 3e a0 8f 4e be e2 81 42 3e 36 7c cf bd
       0.15687755 -0.20171976 0.18994859 -0.10131113
0001d0 e0 63 cb 3d 92 3b 31 3d c3 f5 ca 3f 2c 20 06 40
       0.09931159 0.0432697 1.585625 2.0957136
0001e0 24 76 8b 3e 60 a1 c1 3d dd a9 73 b8 1b 45 59 3a
       0.27238572 0.09454608 -5.8093912e-05 0.00082881906
0001f0 0c 63 00 3e 61 a3 6c be 31 13 97 bd 68 48 90 be
       0.12537783 -0.23109199 -0.07376707 -0.28180242
000200 80 d8 3e bf 12 e9 01 3f 3d 63 7d 3e d7 de 2c 3e
       -0.745491 0.5074626 0.24744888 0.16881882
000210 13 d4 5c be e4 e7 3d 3e e0 bb 83 be 48 e7 e7 bd
       -0.21565275 0.1854549 -0.25729275 -0.1132341
000220 a7 d9 45 b9 46 e2 0f 3a fe 93 64 be 12 3f 6e be
       -0.00018868466 0.00054887345 -0.2232208 -0.23266247
000230 40 9e 12 3a 9f 6a c4 3a 00 46 6f 3c 39 94 4f 3d
       0.0005593039 0.0014985389 0.014604092 0.050678466
000240 98 f1 6d be 4f d1 b1 3d e0 ea 81 be 8d 8b e2 3c
       -0.23236692 0.086825006 -0.25374508 0.027654434
000250 ec e1 6c be 2a 8f 12 3e 1d a6 6b be fa 95 15 3e
       -0.23133057 0.14312425 -0.23012586 0.14607993
000260 ca 80 45 ba 71 26 4e 3a db 80 9d 3d 8b 56 47 3e
       -0.00075341447 0.00078640046 0.07690593 0.19466607
000270 2d f6 fb bd 15 18 79 be 0d 5e 22 3e ed 5f 7f 3e
       -0.12302814 -0.24325593 0.1585619 0.24938937
000280 35 f7 0f 3d f0 5a 36 be 3a 1e 43 be 1c e3 77 be
       0.035147864 -0.17808127 -0.190545 -0.24207729
000290 74 59 61 3e 39 e5 18 be e9 12 58 3e f8 6c 24 be
       0.2200678 -0.14931192 0.21100964 -0.16057193
0002a0 2e a8 9d be 17 4b 3b c0 2c 82 db 3d 30 76 c0 bc
       -0.30792373 -2.9264581 0.10718188 -0.023493856
0002b0 29 9d fe 39 af fe 47 b9 18 73 fc bc b4 7d 9e bd
       0.0004856375 -0.00019072996 -0.0308166 -0.0773882
0002c0 87 2b 60 3e b1 5c 5c be 7b ec dc 3d 73 f9 08 3d
       0.21891604 -0.21519734 0.107872926 0.03344102
0002d0 4d a2 56 3e b3 30 47 be 90 48 8a 3f c6 b0 d9 be
       0.2096035 -0.19452171 1.0803394 -0.4251768
0002e0 41 1e 9b 39 b4 8d 40 bb 1c 92 3d be 3a 73 56 be
       0.00029586445 -0.0029381337 -0.18512768 -0.20942393
0002f0 31 69 83 3e e3 b7 29 bd 1a 49 7f be 8e 70 f8 bd
       0.25666192 -0.041435134 -0.2493023 -0.12130843
000300 7d 67 26 be 7a 9a 89 3e d0 4a 09 ba 5b 44 61 3a
       -0.16250415 0.2687567 -0.0005237283 0.00085932546
000310 6f 29 d6 bd 1c 9e 3b bd 5c 45 72 be b6 0f 76 3c
       -0.104571216 -0.04580508 -0.23659271 0.015018394
000320 a7 18 92 bf 08 eb d9 3f cb df 63 3e 88 5d 2d be
       -1.1413773 1.7024851 0.22253339 -0.1693021
000330 7b 83 ce bf ef 79 4a 3f 1e 4a 9e bf 19 50 fc 3f
       -1.6133875 0.79092306 -1.2366369 1.9711944
000340 c5 1f bb bd 48 d6 43 3e e4 1e b5 3f 4f 13 a8 3f
       -0.09136919 0.1912471 1.4150052 1.3130893
000350 ea f5 dd 3d 5f b4 a7 3c e1 b2 6c be d0 c7 4d be
       0.1083792 0.02047175 -0.23115112 -0.20095754
000360 56 c0 a8 ba 3a e2 8e 3a cf 75 96 b9 00 18 72 3a
       -0.0012874703 0.0010901161 -0.00028698004 0.00092351437
000370 ec 63 cb bc c6 02 7e 3e d7 87 30 be c4 01 1f be
       -0.02482792 0.24805745 -0.17239319 -0.15528017
000380 8a 35 b1 ba ca b9 f0 bc 77 5e 24 be 43 58 62 3e
       -0.0013519984 -0.029385466 -0.1605166 0.22103982
000390 1f 9c 56 c0 e7 c4 a7 be 55 67 c5 bf b0 7e 73 bf
       -3.3532789 -0.32767412 -1.542216 -0.95115185
0003a0 1a 17 da bd ac d3 3a 3e 76 ef 50 b9 6a 83 e4 38
       -0.106489375 0.18244809 -0.00019925632 0.00010896365
0003b0 99 96 0f be ae a1 89 3d 78 49 0c be 17 0c 3e 3e
       -0.14022292 0.06720291 -0.13699901 0.185593
0003c0 80 29 c3 bd f6 b1 50 be 08 6d 66 bd fa 72 71 3e
       -0.095294 -0.20380387 -0.056256324 0.23579016
0003d0 83 b8 cb 3e e8 80 e5 be 2e 7e 8a bd 1c 35 87 be
       0.3978921 -0.4482491 -0.06762348 -0.26407707
0003e0 c4 46 cb bd 23 4f 3d 3e 62 dd a5 bd a3 1f 12 be
       -0.09925607 0.1848722 -0.08098866 -0.14269881
0003f0 1c 6a 55 be 82 8a 08 3e 3a a3 49 3e 95 76 15 be
       -0.20841259 0.13334087 0.19691172 -0.14596017

conv_spatial.mlp.2.weight f4 [256, 256]
000000 94 31 c9 bd b5 5c 9c 3d 13 b8 58 3e 24 d0 cd 3b
       -0.098239094 0.0763487 0.21163969 0.006280916
000010 d3 ea e9 bd cc 8d 9d 3d 70 2b 23 bc 99 c9 91 3e
       -0.11421742 0.07693061 -0.009959087 0.2847412
000020 06 7f 2b 3e 88 02 0b 3e e8 ba ad 3c ef 5c 55 be
       0.16747674 0.13575184 0.021207288 -0.20836233
000030 7e 23 4b bd e7 40 20 bd 63 a2 c4 3d ad 93 30 3d
       -0.049594395 -0.039124396 0.09601285 0.043109585
000040 42 09 71 bd e0 61 72 be 84 7a 5b 3d 4a 13 ee 3d
       -0.05884672 -0.23670149 0.053583637 0.11624773
000050 9a 23 6f 3d c1 5f 2a 3e ba f3 42 3d 27 d7 2b be
       0.05838356 0.1663809 0.047595717 -0.16781293
000060 be af 78 be f6 13 7a 3c 62 51 9b bd 3b 4d 0d be
       -0.2428579 0.015263548 -0.07583882 -0.13798992
000070 c3 f8 67 bc 58 9c 0c 3e 26 8b 45 3d a2 a5 31 3c
       -0.0141584305 0.13731515 0.048228405 0.010842713
000080 bb 6f 05 3e d9 b5 82 be 89 a8 39 be a3 0e 17 3c
       0.13030903 -0.25529364 -0.18130697 0.009219798
000090 77 0d 5f bd 81 e3 a8 bd 34 8f b2 3c cb 80 4e be
       -0.0544562 -0.08246518 0.0217968 -0.20166318
0000a0 9c 93 31 3e 3a fa 8d bc 7c 2a 66 3e c5 52 ea bc
       0.17341465 -0.017331231 0.22477144 -0.02860392
0000b0 9b d5 f3 3d 7d 46 f4 bc 1f bf 3d 3d 56 82 76 3c
       0.119059764 -0.029818768 0.046324845 0.015045723
0000c0 89 b8 81 3c 79 11 82 3d 40 23 21 3d c7 b6 92 bd
       0.015835064 0.06350989 0.039340258 -0.07163768
0000d0 09 f7 ee bc e4 0c 4b 3d 90 d7 7b 3e a1 82 ac ba
       -0.02917053 0.04957284 0.2459395 -0.0013161489
0000e0 9a ec 31 be 06 87 e2 bd 31 92 0d 3d 81 48 a1 bd
       -0.17375413 -0.1106091 0.034563247 -0.07875157
0000f0 41 2f 1f 3b 35 bb fd bc 76 26 7b be 05 7c 5b be
       0.002428964 -0.030973056 -0.2452639 -0.21434028
000100 9a 3b b0 3d 69 ef 89 b9 dd 6b 7c 3e 16 67 21 3d
       0.08605118 -0.0002630905 0.24650522 0.03940495
000110 f2 9e 22 bd 46 bd f4 bd ba 08 c4 bc db aa cd 3d
       -0.039702363 -0.119501635 -0.023929942 0.10042354
000120 5f 42 01 3e 37 c3 29 3d 7c 2e f1 3d 72 b9 65 3e
       0.12622975 0.041445937 0.11776444 0.22434023
000130 13 53 b8 bc 62 c5 23 3e 53 5a 1a be 78 54 be 3d
       -0.02250055 0.15993264 -0.15073518 0.09293455
000140 35 d2 8b be 59 df 30 be b6 56 5c be 12 29 1f be
       -0.27308813 -0.172727 -0.21517453 -0.15543011
000150 45 60 dd 3d d5 a9 64 bd 7e 62 b1 bc 9f e6 b4 bd
       0.108093776 -0.055826027 -0.02165341 -0.0883305
000160 82 75 83 be 97 c7 25 3b ea 44 8a be 81 ad 28 3d
       -0.2567559 0.0025295967 -0.27005702 0.04118109
000170 8e ce 42 bd 23 d3 9a bd bb ef ad bd f8 6b 99 bd
       -0.047560267 -0.075598024 -0.084929906 -0.074912965
000180 01 38 88 3e fe e4 6a bb d7 04 b2 3c 93 66 ad 3d
       0.26605228 -0.0035842056 0.021730823 0.0846683
000190 34 bd fa ba 48 41 1d be 63 9d d1 bc ca 1e ee bd
       -0.0019129873 -0.15356934 -0.025587743 -0.11626966
0001a0 93 2b 7c 3e 8c a1 1f bd 88 35 81 bd 49 31 d8 bb
       0.24625997 -0.038972422 -0.063090384 -0.006597672
0001b0 70 76 51 bd da c0 05 3d 41 53 a3 3e 3f ba c4 bd
       -0.05113834 0.03265462 0.31899455 -0.09605836
0001c0 13 26 40 be 3a 73 40 3e c4 85 38 bd 0a f0 26 bd
       -0.18764524 0.18793955 -0.045049444 -0.040756263
0001d0 89 6d 90 3e f3 9d 58 3c 75 ee d2 3d de f7 7d 3e
       0.2820857 0.013221252 0.10299388 0.24801585
0001e0 f7 64 20 be a2 43 83 3e 31 79 56 bd 6e 95 0e be
       -0.15663515 0.25637537 -0.05236167 -0.1392419
0001f0 98 b9 78 3e 5c 7d f3 bd 60 97 02 3e ab c8 57 be
       0.24289548 -0.11889145 0.12753057 -0.21072643
000200 f2 dd 51 3e 0e 8d 10 3e d9 53 58 3e 62 e4 98 3e
       0.20494822 0.14116308 0.21125735 0.29861742
000210 4d 9b 35 be c0 1f 1f be c5 8f 0f 3d 71 8c 39 3c
       -0.17735024 -0.15539455 0.03504922 0.011324988
000220 c1 2d a8 be d9 0a 1e 3e e2 e1 41 3e c0 9d fc 3c
       -0.32847407 0.15433826 0.18933824 0.03083694
000230 df c9 18 be 2b b0 89 bd 97 40 51 3c 77 6e 16 be
       -0.14920758 -0.067230545 0.012771747 -0.14690576
000240 43 dd ad 3d f5 7f 86 bd 90 4b 6d bd c6 98 50 be
       0.08489468 -0.065673746 -0.05793339 -0.20370778
000250 af f6 42 bb 0d 49 d7 3c 34 9d 31 3d 03 e9 06 be
       -0.0029749086 0.02627995 0.04336281 -0.13174824
000260 80 c8 8c 3e 7c 59 2c 3e f9 3f eb bd a7 32 bf 3b
       0.2749672 0.1683101 -0.11486811 0.0058348957
000270 33 2c 88 3d 38 14 8a be 68 55 86 bd a7 dd ad 3c
       0.06649055 -0.2696855 -0.06559259 0.021223856
000280 71 d1 2a be ca 1a 8d bd ad 8a d3 bd f7 7b 0a 3e
       -0.16681458 -0.06889875 -0.10329185 0.13523851
000290 19 68 f3 3d 18 be b5 bd bd 9c 85 bc 82 ff 7c be
       0.118850894 -0.08874148 -0.01631009 -0.24706843
0002a0 ac a0 7f bd 41 2d 7c bc 18 88 1a be 37 6a 38 3e
       -0.062409088 -0.015391649 -0.15090978 0.18009268
0002b0 61 fa 8f 3d d7 25 3c bc a8 f8 34 3d 06 f9 99 3c
       0.07030178 -0.011483631 0.04418245 0.018795501
0002c0 65 a6 11 3e 21 05 cc 3d f1 8b 9e 3e c5 49 ca bd
       0.1422363 0.09961916 0.30966142 -0.09877352
0002d0 82 f3 8d be 82 09 3b bd 7f ed 3f 3e ab d1 28 3e
       -0.27724844 -0.045663364 0.18742941 0.16486232
0002e0 8a c1 14 3e 90 e3 98 3d fe d8 6c 3d 64 c0 44 3e
       0.14526954 0.07465279 0.057824127 0.19214016
0002f0 ce 7f 20 3e 38 03 98 bd 1f 0f 9a 3b 3e 4d 27 3d
       0.15673754 -0.07422489 0.0047015096 0.04084515
000300 de 69 51 bb 30 a0 88 3d e1 c0 25 3d 23 ce 0c be
       -0.003195397 0.06671178 0.040467147 -0.1375051
000310 b8 b9 08 bd e4 a9 7a be 24 a5 e0 bc 2a 3d 52 be
       -0.03338024 -0.2447887 -0.027422495 -0.20531145
000320 3f 51 84 3d e4 b3 92 be 24 36 16 3e 99 0d 8c bd
       0.06460809 -0.2865287 0.1466909 -0.06838531
000330 ae 9d a8 3d 85 da 4c 3e 4c 54 36 3e 47 85 7a 3e
       0.082332 0.20005234 0.17805594 0.24464904
000340 16 08 12 be 80 5c 9d 3c bc 86 7c 3d 73 aa 25 3e
       -0.14260897 0.019209146 0.06165193 0.16178302
000350 6a 77 a0 be 13 c9 94 bd 4b c8 a7 3d 4f 85 97 3d
       -0.31341106 -0.07264914 0.081925 0.073984735
000360 07 03 2f 3d 45 c9 38 3d 97 d5 9c bc 39 27 aa 3e
       0.042727496 0.04511382 -0.019144816 0.3323305
000370 41 8f a0 be c3 4d 16 3e f0 9a 8d 3d 47 41 28 be
       -0.31359294 0.14678101 0.069143176 -0.16431151
000380 9d 99 4c 3c a6 f5 a8 bc 1a 25 80 be 78 43 a2 bd
       0.012487796 -0.020624947 -0.25028306 -0.07923025
000390 00 4e 85 3d c4 87 f7 3d b1 5a d7 3d 92 1b 89 bc
       0.06509018 0.12086442 0.10515345 -0.01673678
0003a0 bc 1a 77 3e fd ab 72 bd 6f 85 0d bd 2b 20 0c bd
       0.24131292 -0.059246052 -0.03455108 -0.034210365
0003b0 e1 89 91 bd a1 23 84 bd 09 52 53 3c a9 59 84 be
       -0.071063764 -0.06452108 0.012897977 -0.25849655
0003c0 71 02 89 be 3f 16 dd bc ec cb 32 3c 1a 2a 13 3e
       -0.26759675 -0.026988147 0.010912877 0.14371529
0003d0 3e 54 99 3d 2a b2 7a be 5c 03 32 3c e9 d1 6f be
       0.07486771 -0.24482027 0.010865059 -0.23419918
0003e0 6d 60 7c 3c d4 7e ac bd 85 59 90 3c 65 e5 94 3e
       0.015403849 -0.08422628 0.017620811 0.29081264
0003f0 3a 79 84 be 52 5d 81 3e 84 37 d9 3d 3f fd 1c 3e
       -0.2587374 0.2526651 0.10606292 0.1533098

conv_spatial.mlp.4.weight f4 [2, 256]
000000 03 5a 87 bc 22 a7 71 bd 33 f0 01 3d 93 8c 8c be
       -0.016522413 -0.05899728 0.031723212 -0.27451
000010 93 7d c3 be bc 3b 5f be 49 5b f7 3c c7 31 87 bd
       -0.38181743 -0.2180013 0.030194895 -0.06601291
000020 f7 93 a0 be c5 20 81 3e 11 43 bd 3d 24 a8 71 be
       -0.31362888 0.25220314 0.092413075 -0.23599297
000030 2b 48 ab 3e 7d b9 60 3d da 9d 9c 3e 19 e1 27 bf
       0.33453497 0.054864395 0.3058918 -0.65577847
000040 e3 dd 4a be 87 40 68 be 0c 89 63 3d 6c 4c b0 3e
       -0.19811206 -0.22680865 0.05555062 0.34433305
000050 c5 4a b7 3e ad c7 7d 3e 31 c8 de bd b9 dd c6 3c
       0.35799232 0.24783202 -0.10878027 0.024275647
000060 cc 70 62 3e c0 08 3d be 77 02 ad 3d 03 f2 a3 39
       0.22113341 -0.18460369 0.08447736 0.00031270095
000070 e0 26 6a 3e 95 41 07 3d b1 e1 58 be f4 c0 33 bd
       0.22866392 0.03302153 -0.21179844 -0.043885186
000080 85 dd 5e 3d d7 f4 ad 3e 7d 94 93 be da 50 97 bf
       0.054410476 0.3397586 -0.28824225 -1.1821549
000090 75 08 01 3d 1d 20 b4 3e 1f 87 3a bf 76 d5 19 3f
       0.031502206 0.3518075 -0.7286243 0.6009134
0000a0 97 82 83 3e e1 b9 c4 3e 19 a4 09 3d 5b 0f f5 bc
       0.2568557 0.38423064 0.03360376 -0.029914549
0000b0 43 17 07 3e f1 c5 c4 bf e5 59 a4 3e 35 a2 80 be
       0.13192467 -1.5372907 0.32099834 -0.25123754
0000c0 8b 85 9f bc ff bb aa 3d fc ce 9e bd ce 21 4f be
       -0.019472858 0.08336639 -0.07754323 -0.20227739
0000d0 c9 26 bf be 26 1e c9 bc 12 13 90 3e ca f9 ee bd
       -0.37334278 -0.024550509 0.2813955 -0.11668737
0000e0 ab bb c5 bd a5 e6 90 3d 92 83 94 3e 3a da 8f bd
       -0.096549354 0.07075242 0.2900663 -0.07024045
0000f0 6c a2 99 be ae 1a a0 39 09 a9 2b 3e 49 a1 4e be
       -0.3000673 0.00030537456 0.167637 -0.20178713
000100 ef 51 55 3e 7a 56 a9 3d c4 ad 36 3e 22 20 20 be
       0.20832036 0.08268447 0.17839724 -0.15637258
000110 a6 34 96 be d7 c2 9a 3e bc c5 06 39 f9 04 49 be
       -0.29337043 0.30226776 0.00012852898 -0.19630803
000120 8c 2e 12 3e 94 50 55 3e df b7 78 3e e7 78 5f 3e
       0.14275569 0.2083152 0.24288891 0.21823464
000130 d3 0b b0 3f e4 af 05 3e cf ea c8 bb ce 6d 82 3d
       1.3753608 0.13055378 -0.006131507 0.063686
000140 40 27 96 3e 2d 5e 84 be 45 66 46 3e 67 6c fa bc
       0.2932682 -0.258531 0.1937495 -0.030569268
000150 a1 54 fd bd 5d bd 65 3e 1c df 9d 3e de 5d f8 b9
       -0.12369657 0.22435518 0.3083428 -0.00047372183
000160 19 12 a2 3d 56 de 1e 3e 64 eb 75 bd 92 b9 c2 be
       0.07913608 0.15514502 -0.06003894 -0.38032204
000170 ac fe 29 3e e6 55 8e be 55 fe d9 be 56 86 93 3e
       0.16601056 -0.2779991 -0.42576852 0.28813428
000180 ba 84 18 be 43 31 2b 3e 4a 37 80 bd 91 46 ad bd
       -0.14894381 0.1671801 -0.062605456 -0.08460725
000190 fd 9e 9a 3e 54 3e 53 bd 7c 16 a5 be e1 d7 9b 3e
       0.30199423 -0.051573113 -0.32243717 0.3043814
0001a0 49 e7 8e 3e 9d 4f 6c 3e ee 51 96 be 79 ee 6a be
       0.27910832 0.23077245 -0.29359382 -0.22942533
0001b0 7e 1b e7 3e a4 86 6c 3e f0 ec c2 3d 36 a6 8b 3e
       0.45138162 0.23098236 0.095178485 0.27275246
0001c0 af de bb be 34 f7 5d 3e 8c ff 58 3c b2 39 7c 3e
       -0.36693332 0.21676332 0.013244521 0.24631384
0001d0 c0 7a 1b 3e 04 62 02 bd ad a3 7e be 9f 9f 2c 3f
       0.15183544 -0.031831756 -0.24867125 0.6743106
0001e0 47 8a 73 3d c1 13 6f 3e 26 9e f0 bd 75 e6 b8 3d
       0.059458043 0.2334738 -0.117489144 0.09028331
0001f0 2e 21 22 3e 48 2e cb 38 56 bb 5a 3e 0c 4f aa 3d
       0.1583297 9.688415e-05 0.21360525 0.08315858
000200 1c 8b 91 3e 86 fe 21 be a3 67 50 bd 95 86 9f be
       0.28426445 -0.15819749 -0.050880086 -0.31157365
000210 e9 a7 82 3e 2e bf 2b bf f1 f7 08 bd 12 3d 46 be
       0.2551873 -0.6708859 -0.03343958 -0.19359234
000220 16 45 38 3e 0f e5 45 bd 02 45 eb 3d 88 da 94 bd
       0.17995104 -0.04831415 0.114877716 -0.07268244
000230 4f c5 cc bd 2c 1f 1c 3e 53 b5 2e be 1c c3 92 3e
       -0.09998571 0.15246266 -0.17061357 0.28664482
000240 59 ac a4 be f8 71 9b be 09 a0 87 be 65 42 09 bd
       -0.3216274 -0.3036039 -0.26489285 -0.033510584
000250 49 21 5d be eb 95 cb 3e 2b 58 1a bd ec 40 33 3e
       -0.21594729 0.39762816 -0.03768174 0.17505234
000260 6c 9b 2c bf 7c 8f 19 3d 5e 4d 87 be 0b e7 1f be
       -0.67424655 0.037490353 -0.26426214 -0.1561548
000270 3f 18 7b 3a ef e8 15 3e 2b e6 a0 3e 4b ce 04 3e
       0.0009578503 0.14639638 0.31425604 0.1296932
000280 d1 5a 06 be ea 36 5b 3e 27 d1 82 bd 26 ad a9 be
       -0.13120581 0.21407667 -0.06387549 -0.33139914
000290 66 48 2b bd ef 7a 83 b9 83 fb c3 3d 39 bd 20 3d
       -0.04181709 -0.0002507786 0.095694564 0.039242957
0002a0 ee 9e d9 b8 4d 60 d2 3e 04 25 64 bf 44 ee 9c be
       -0.00010376969 0.41089097 -0.8911898 -0.30650532
0002b0 18 88 bf bd f5 6c 5e 3e 7e 46 8f 3e fa f5 41 3e
       -0.0935213 0.21721251 0.2798347 0.18941489
0002c0 b7 08 88 be a8 bb 17 3e 6e 62 3e bd 1e d4 5f bc
       -0.2656915 0.14817679 -0.04648059 -0.0136614125
0002d0 26 45 42 3d 6b 93 7d be 70 ca 34 3d a3 60 bb 3e
       0.047429226 -0.24763267 0.044138372 0.36597165
0002e0 a4 96 02 3e 13 e3 95 bd b6 f9 96 3e 7b d2 0e 3e
       0.12752777 -0.073187016 0.2948739 0.1394748
0002f0 3a 76 12 3e af 69 1e 3d 46 0a 41 be ad dd 6e be
       0.14302912 0.038675006 -0.18851575 -0.2332675
000300 3c 3c 71 3d 6a f2 72 be fc 68 f7 bd 2c a0 51 be
       0.058895335 -0.23725286 -0.12080571 -0.20471257
000310 7f df 5c 3d 7a 1c 36 bd 0c a6 43 40 7c 77 c1 3e
       0.05392408 -0.04446075 3.0570097 0.37786472
000320 ae 10 e5 3d 4d 4d a5 be f4 e1 9e be 08 7c c8 bd
       0.11184822 -0.32285538 -0.31031764 -0.09789282
000330 34 fa b9 3e 9f 59 5a bf 8d 2c b8 bd fa 05 cc be
       0.36323702 -0.85293 -0.089928724 -0.3984831
000340 73 4b 98 3d 4b da a7 3e 17 a7 76 be 63 60 83 3e
       0.07436266 0.32783732 -0.24087177 0.25659475
000350 13 ad 47 3e 72 38 92 bd 6c 62 aa 3d ae 7c 41 3f
       0.19499616 -0.07139672 0.08319554 0.7558087
000360 eb 87 1e 3e 56 67 27 ba 2f fa a3 3e e3 f4 37 3e
       0.15481536 -0.00063859427 0.32026812 0.1796451
000370 2f b6 22 bf 09 3d 7d bd 02 32 ba be 35 8d 3a 3d
       -0.6355924 -0.061825786 -0.36366278 0.04554482
000380 40 96 d8 be ec cd 62 be 91 02 3a 3f bd 24 22 3d
       -0.42302132 -0.22148865 0.72660166 0.039585818
000390 5a 88 97 39 ee 76 c6 3d c2 be 02 be e7 78 a7 be
       0.00028902554 0.09690653 -0.12768081 -0.3270943
0003a0 41 e3 98 3e f8 e4 3f 3e 32 9e b2 be 07 33 00 3f
       0.2986088 0.18739688 -0.34886318 0.5007786
0003b0 e9 95 7c 3d 18 55 b6 3d 5d 54 28 be c9 b7 61 be
       0.061666403 0.08902949 -0.16438432 -0.22042765
0003c0 96 38 e2 3b e9 cb c8 be d9 77 fc b9 0d b0 85 3d
       0.006903718 -0.3921807 -0.0004815448 0.0652772
0003d0 1f 8e 5f 3e a1 70 28 bf e3 af 19 be 4d 70 fc bc
       0.21831559 -0.6579686 -0.15008502 -0.030815268
0003e0 12 45 ac bd da 69 97 3d 22 43 b9 be ba e3 bc be
       -0.084116116 0.073932365 -0.3618403 -0.36892492
0003f0 7e cf a2 bd 3a f7 d0 3e be 36 d1 bd ed d3 b5 be
       -0.07949732 0.4081362 -0.10215519 -0.3551325
