logs/M3D30_r08/score.pt (torch, 732745 bytes, 10 tensors)

embed.0.W f4 [64]
16.027306 -20.971443 7.616414 -0.48806396 -16.077227 19.112865 -21.719992 3.7014296
15.867437 26.802317 26.556114 -0.6972344 30.871357 -9.01674 1.9394865 -39.62586
57.8143 15.02487 -42.704292 -38.57289 54.401554 9.233697 -30.985634 49.258575
-13.477487 -17.600687 -24.994102 22.163363 27.459532 19.23433 21.419907 -2.0744128
-55.679035 -36.653107 -15.418582 1.1822084 -28.28951 0.41381368 19.946728 41.19129
-12.931878 -12.505429 29.401085 -2.0195415 8.609438 19.297958 14.820068 -48.949783
-73.24895 43.46692 -19.99029 33.820698 64.36383 -65.32058 -12.576646 -3.2978437
-17.32324 -24.555708 -2.3117394 1.4712573 -11.450295 -5.7356553 -25.292692 -16.004795
00000000: ec37 8041 84c5 a7c1 aab9 f340 85e3 f9be
00000010: 299e 80c1 26e7 9841 8bc2 adc1 39e4 6c40
00000020: 06e1 7d41 256b d641 ec72 d441 f47d 32bf
00000030: 8af8 f641 9144 10c1 1841 f83f e180 1ec2
00000040: d841 6742 de65 7041 32d1 2ac2 a44a 1ac2
00000050: 319b 5942 39bd 1341 94e2 f7c1 c808 4542
00000060: c9a3 57c1 35ce 8cc1 ecf3 c7c1 914e b141
00000070: 1fad db41 e8df 9941 f85b ab41 2ec3 04c0
00000080: 55b7 5ec2 c89c 12c2 83b2 76c1 9b52 973f
00000090: eb50 e2c1 63df d33e e692 9f41 e2c3 2442
000000a0: f9e8 4ec1 3d16 48c1 6c35 eb41 2b40 01c0
000000b0: 42c0 0941 3862 9a41 001f 6d41 94cc 43c2
000000c0: 767f 92c2 20de 2d42 1dec 9fc1 6548 0742
000000d0: 48ba 8042 23a4 82c2 f139 49c1 df0f 53c0
000000e0: ff95 8ac1 1772 c4c1 8af3 13c0 2952 bc3f
000000f0: 6934 37c1 7d8a b7c0 6f57 cac1 d209 80c1

embed.1.weight f4 [128, 128]
-0.088067554 0.04687682 0.06346455 -0.01836179 -0.026242314 -0.06592671 -0.011697099 0.00800533
-0.01018233 -0.06956491 -0.08820075 -0.06082454 -0.004856845 0.029761955 -0.015920486 0.06333037
0.061384365 0.07422581 -0.05279392 -0.059656367 0.04439676 0.080889925 -0.08090992 0.04603799
0.086065546 -0.033530105 0.06677677 0.019576536 0.0681839 -0.00759914 0.00499732 -0.07630235
-0.019073829 -0.019044928 -0.07621679 -0.062110104 -0.013559199 -0.015591826 -0.028811974 0.05477932
0.08615233 -0.07323991 -0.03659145 0.047125865 -0.024267059 0.044630982 -0.053395577 0.044867657
0.06282038 -0.076185435 -0.004589128 0.0034773995 -0.06237976 -0.024434667 0.066655956 0.0484975
-0.08303823 0.024531921 0.04563354 -0.08746834 -0.019551195 0.019831387 -0.0597053 -0.04455377
-0.055983238 0.040493418 0.060324542 0.062026337 0.060244095 -0.03380212 0.051955882 -0.014043993
0.065612614 0.08767228 0.04305331 -0.03944589 0.00626594 -0.083252445 0.0024853153 -0.026937399
-0.03329951 0.03399941 0.0266408 -0.0823921 -0.08230002 -0.07729659 0.057024717 -0.08821923
-0.057075188 0.038187098 -0.07846428 0.016997065 0.046265323 -0.08758039 -0.052460603 -0.058504175
-0.07569479 0.07038315 0.0068614227 0.085949 0.020861415 0.016258726 -0.008637986 0.051310003
0.0635102 0.05383851 -0.018180454 -0.014703539 -0.01537674 -0.051802985 0.03633463 -0.018371137
0.06679558 0.088003315 -0.03948837 0.04633658 -0.06246718 -0.0335066 0.033437844 -0.008493043
-0.085964456 -0.06437861 0.08299089 -0.03375128 -0.06221548 -0.08040106 -0.008826329 -0.014100713
-0.025614578 -0.07020803 -0.079038724 0.009800185 -0.039710224 -0.057330206 -0.08025137 0.016848002
-0.064624555 0.061212514 0.032818474 0.08761547 -0.0009956455 -0.0868912 0.030571248 -0.00059643056
0.07058662 -0.061245397 -0.06067851 -0.051383205 0.070402086 -0.028565984 0.053626236 0.019378942
0.067477226 -0.056061283 0.06630302 0.07244237 -0.007058754 0.029974038 0.0005297964 -0.05009762
-0.062502354 0.038452793 -0.08655651 0.02584605 0.037329126 0.022791287 0.0032743674 -0.020459112
-0.044841506 -0.015742363 0.07311662 -0.07445012 0.037910193 -0.026851978 0.064376235 -0.021689516
-0.052969106 -0.08030557 -0.05655089 0.00582265 0.03649684 0.0054644546 0.039666515 0.07573547
0.03470301 0.019992314 0.05544578 -0.028151281 0.08730429 -0.0688782 -0.0145087885 -0.002775138
-0.0552591 -0.018195627 -0.050485656 -0.084843785 -0.031483494 -0.084431976 -0.03534345 -0.051835015
-0.0064845453 0.04421199 -0.026112247 -0.036139995 0.07823307 0.040426243 0.03400811 0.054341048
0.031102825 0.07765726 0.08530856 0.009790576 -0.0031768607 0.056073304 0.039515093 0.044731386
0.066955745 -0.0601751 0.04736841 -0.029564139 -0.082367204 -0.0029161298 0.02802366 0.001983631
0.044917382 -0.031264614 0.041935954 -0.010149045 -0.036914907 -0.008656045 -0.064909264 0.0029476136
-0.034372702 0.0016974116 0.023497647 0.0134804165 -0.058823418 0.07909396 -0.07968696 -0.032643966
-0.061097242 -0.07376726 0.03471523 0.077322796 -0.08238462 -0.087337665 0.029342962 -0.034738086
0.0792872 0.015390016 -0.06812631 -0.0802698 -0.059366647 0.03689219 0.08023762 -0.01828166
00000000: c35c b4bd e901 403d b4f9 813d 776b 96bc
00000010: 1ffa d6bc 9504 87bd 30a5 3fbc ca28 033c
00000020: cad3 26bc 0c78 8ebd 98a2 b4bd 2723 79bd
00000030: 2b26 9fbb 58cf f33c ae6b 82bc 5ab3 813d
00000040: 2c6e 7b3d b403 983d 703e 58bd 3c5a 74bd
00000050: 61d9 353d 9ea9 a53d 1ab4 a5bd 5592 3c3d
00000060: 2243 b03d dd56 09bd 42c2 883d f95e a03c
00000070: 00a4 8b3d 3502 f9bb 8fc0 a33b 6844 9cbd
00000080: b840 9cbc 1c04 9cbc 8c17 9cbd 2a67 7ebd
00000090: 6727 5ebc dc74 7fbc 1707 ecbc 4860 603d
000000a0: a270 b03d cefe 95bd ebe0 15bd 0d07 413d
000000b0: b6cb c6bc face 363d 52b5 5abd 26c7 373d
000000c0: f9a7 803d 1c07 9cbd 6560 96bb 15e5 633b
000000d0: eb81 7fbd 362b c8bc eb82 883d 51a5 463d
000000e0: f30f aabd 2bf7 c83c 3cea 3a3d 9a22 b3bd
000000f0: d429 a0bc 6f75 a23c 8b8d 74bd 047e 36bd
00000100: ae4e 65bd 6ddc 253d de16 773d 540f 7e3d
00000110: 83c2 763d 1774 0abd b1cf 543d c718 66bc
00000120: e85f 863d 868d b33d ab58 303d 0392 21bd
00000130: 8452 cd3b 4280 aabd ace0 223b d2ab dcbc
00000140: 1165 08bd f742 0b3d cf3d da3c 30bd a8bd
00000150: ea8c a8bd ad4d 9ebd c092 693d 49ac b4bd
00000160: acc7 69bd 136a 1c3d e1b1 a0bd 6e3d 8b3c
00000170: b580 3d3d 595d b3bd eee0 56bd 13a2 6fbd
00000180: df05 9bbd 0a25 903d c9d5 e03b 0806 b03d
00000190: 8fe5 aa3c 0531 853c 5786 0dbc 702a 523d
000001a0: a311 823d c585 5c3d 2def 94bc 1de7 70bc
000001b0: b9ee 7bbc 5e2f 54bd 9fd3 143d 117f 96bc
000001c0: 1fcc 883d 153b b43d 8fbe 21bd 6dcb 3d3d
000001d0: 96dd 7fbd 373e 09bd 1ff6 083d 6726 0bbc
000001e0: 220e b0bd efd8 83bd 21f7 a93d c83e 0abd
000001f0: a9d5 7ebd 50a9 a4bd 4f9c 10bc ad06 67bc
00000200: aad5 d1bc 3ac9 8fbd 0edf a1bd f590 203c
00000210: 30a7 22bd 14d3 6abd d55a a4bd d204 8a3c
00000220: e159 84bd f9b9 7a3d aa6c 063d bd6f b33d
00000230: 5280 82ba 03f4 b1bd 8e70 fa3c c759 1cba
00000240: b88f 903d 74dc 7abd 088a 78bd 3277 52bd
00000250: f82e 903d 3603 eabc 2fa7 5b3d 96c0 9e3c
00000260: 8031 8a3d 84a0 65bd e1c9 873d aa5c 943d
00000270: 1f4d e7bb 1d8c f53c 09e2 0a3a 2933 4dbd
00000280: 3c01 80bd ad80 1d3d 8a44 b1bd 18bb d33c
00000290: 6de6 183d cbb4 ba3c c596 563b de99 a7bc
000002a0: baab 37bd 21f6 80bc 2bbe 953d 4e79 98bd
000002b0: b847 1b3d aef8 dbbc b0d7 833d 36ae b1bc
000002c0: 22f6 58bd 3f77 a4bd e8a1 67bd eecb be3b
000002d0: b67d 153d 2b0f b33b 5b79 223d 331b 9b3d
000002e0: be24 0e3d ecc6 a33c 1d1b 633d 849d e6bc
000002f0: 97cc b23d 0410 8dbd 45b6 6dbc 17df 35bb
00000300: 5e57 62bd ff0e 95bc 0cca 4ebd 94c2 adbd
00000310: d6f4 00bd acea acbd 4bc4 10bd f450 54bd
00000320: 4f7c d4bb a217 353d 5ae9 d5bc 8807 14bd
00000330: a938 a03d fd95 253d 174c 0b3d b894 5e3d
00000340: 5acb fe3c c50a 9f3d 41b6 ae3d a768 203c
00000350: e132 50bb 1fad 653d 94da 213d 4238 373d
00000360: 1820 893d 2a7a 76bd 6105 423d 7e30 f2bc
00000370: 23b0 a8bd 8a1c 3fbb e091 e53c ceff 013b
00000380: 4afb 373d 530f 00bd 09c5 2b3d 2e48 26bc
00000390: 1634 17bd 16d2 0dbc 26ef 84bd c02c 413b
000003a0: 64ca 0cbd af7b de3a 237e c03c f7dc 5c3c
000003b0: d3f0 70bd 04fc a13d eb32 a3bd aeb5 05bd
000003c0: 1a41 7abd 4a13 97bd 8f31 0e3d 6a5b 9e3d
000003d0: 45b9 a8bd 17de b2bd a760 f03c 8649 0ebd
000003e0: 5461 a23d 6826 7c3c cf85 8bbd 7e64 a4bd
000003f0: 712a 73bd 441c 173d 9f53 a43d 6bc3 95bc

embed.1.bias f4 [128]
0.06307456 -0.015849184 0.014491962 0.07339429 -0.037711494 0.007365973 0.051510338 0.05350613
0.0017925054 0.031774573 -0.054294 -0.046296153 0.060899403 -0.0759365 0.063137256 0.04148841
-0.06199405 0.0530352 -0.061114993 0.057607092 0.02593581 -0.041361123 -0.026689723 0.07610231
0.055651814 0.07467219 -0.059574213 -0.013201468 -0.06446202 -0.08720189 -0.0013804463 -0.07076059
-0.018905759 0.02754463 -0.085086256 -0.038529478 -0.08579669 -0.070919454 0.045414515 -0.025580619
-0.0822283 0.037342772 -0.070280544 0.036548417 0.061060246 0.08285625 0.07299133 0.010231685
0.06520508 -0.024841426 -0.08787615 -0.019559003 -0.0865366 0.0037904452 0.06710966 -0.00048130646
0.0061082477 -0.014311869 0.050030183 0.005812124 -0.015820904 -0.074828 -0.022134703 0.03703468
-0.05716197 -0.044487685 -0.08236025 0.0015480748 -0.037160855 -0.07060819 0.036808487 -0.05575258
0.07364804 0.009222657 0.03957691 0.0677509 -0.08232942 0.085498266 -0.07609206 0.085950024
-0.02428218 -0.024311576 -0.033912957 -0.084448576 0.08626604 -0.085212715 0.07487337 0.050752886
0.06378487 -0.015495963 -0.04222462 0.026547393 0.06771635 0.066681266 0.042740896 -0.03413588
0.0648665 0.04332229 -0.057745438 -0.07187342 -0.057276398 -0.057370752 -0.04190951 -0.04822852
0.03866001 0.053346507 0.002810373 -0.057725396 -0.05130126 -0.024023471 -0.084181145 -0.044326946
-0.005636561 -0.03476704 -0.039027 -0.051198337 -0.020362059 0.016897546 0.03286938 -0.08833564
0.004402744 0.08651754 -0.08618372 0.009910189 -0.0077995905 0.009540255 0.0038020988 -0.02809492
00000000: 3c2d 813d 26d6 81bc b26f 6d3c bf4f 963d
00000010: 5e77 1abd 435e f13b 81fc 523d 3e29 5b3d
00000020: 80f2 ea3a 0e26 023d 6363 5ebd 09a1 3dbd
00000030: a771 793d 9984 9bbd 1b4e 813d c0ef 293d
00000040: 79ed 7dbd 703b 593d b753 7abd 6af5 6b3d
00000050: 5677 d43c 486a 29bd 68a4 dabc 87db 9b3d
00000060: 28f3 633d bced 983d 1704 74bd f84a 58bc
00000070: aa04 84bd e896 b2bd 17f0 b4ba eeea 90bd
00000080: 40e0 9abc 47a5 e13c b441 aebd 16d1 1dbd
00000090: 2db6 afbd 383e 91bd 9204 3a3d 728e d1bc
000000a0: 5067 a8bd bcf4 183d 3fef 8fbd cbb3 153d
000000b0: 4f1a 7a3d 8ab0 a93d 7a7c 953d cca2 273c
000000c0: 3e8a 853d 3f80 cbbc 69f8 b3bd 343a a0bc
000000d0: 1a3a b1bd 1e69 783b ca70 893d dc57 fcb9
000000e0: b227 c83b 547c 6abc 73ec 4c3d a173 be3b
000000f0: d79a 81bc 6c3f 99bd d653 b5bc adb1 173d
00000100: ab22 6abd b838 36bd 7eac a8bd c5e8 ca3a
00000110: fb35 18bd 079b 90bd 7fc4 163d d15c 64bd
00000120: c9d4 963d a11a 173c 661b 223d fcc0 8a3d
00000130: 549c a8bd b719 af3d 27d6 9bbd 9106 b03d
00000140: 6ceb c6bc 1229 c7bc 50e8 0abd 60f3 acbd
00000150: 40ac b03d 0184 aebd 3657 993d 42e2 4f3d
00000160: a4a1 823d c8e2 7dbc b9f3 2cbd eb79 d93c
00000170: dfae 8a3d 3090 883d 1411 2f3d 11d2 0bbd
00000180: bad8 843d b772 313d 7b86 6cbd 5f32 93bd
00000190: a89a 6abd 98fd 6abd 4ea9 2bbd 458b 45bd
000001a0: f559 1e3d de81 5a3d 3c2e 383b 7771 6cbd
000001b0: 4521 52bd dfcc c4bc 2a67 acbd 2c90 35bd
000001c0: e7b2 b8bb e267 0ebd c7da 1fbd 59b5 51bd
000001d0: 55ce a6bc b96c 8a3c 0ba2 063d 51e9 b4bd
000001e0: e544 903b 1c30 b13d 1781 b0bd 585e 223c
000001f0: b593 ffbb bb4e 1c3c a22c 793b 5127 e6bc

embed.3.weight f4 [256, 128]
-0.07445324 0.05306913 0.04737999 -0.060368143 0.05408095 -0.024592865 -0.0037075633 -0.0158328
0.04124132 -0.020349119 0.021849042 -0.05800891 -0.016786858 0.04071629 -0.058016833 0.024019679
-0.025956685 -0.0791025 0.07305723 0.030315194 0.053153243 0.08351804 -0.03769144 0.051069357
0.07688621 -0.052258678 0.047014747 0.052108034 -0.062461935 -0.028457193 -0.048508734 0.02678527
0.05993229 -0.038967386 -0.0423762 0.014313428 -0.029905908 0.041138116 0.050134752 0.04782112
-0.0413522 -0.016481146 -0.08091197 -0.050447658 -0.05575517 -0.014078817 -0.058872603 0.022421764
-0.07157432 0.016103804 0.022885801 0.050486583 0.059313502 -0.0065789437 0.08260339 -0.07352823
-0.027451664 0.028889935 0.07715984 -0.031046348 0.071438946 -0.032796223 -0.019814687 -0.06467191
-0.071024455 0.02853014 -0.03597404 -0.05592246 -0.075843655 -0.016585438 0.013920451 0.083831295
0.005644464 0.059314385 -0.071162716 -0.05165268 0.04296355 -0.05984999 0.048083484 0.011032981
-0.026457831 -0.016585069 0.04130405 -0.07114482 0.05519099 -0.080097534 0.010661856 -0.009195462
-0.08209259 0.01456378 0.0371272 -0.03751574 -0.08376568 -0.052424874 0.07365592 0.07050435
0.015148473 -0.058733813 -0.07344749 0.03276084 0.07770375 -0.07977098 -0.04347244 0.02218608
0.073972926 0.032562256 -0.066769935 -0.0058882833 0.047246397 0.025470447 0.07178298 0.040262092
0.07776983 0.0045049503 0.05460143 -0.065063596 -0.063325316 -0.058428504 -0.07161135 -0.008105271
0.08675262 -0.068330474 -0.047330383 -0.049602963 -0.014153733 0.04234698 -0.01948688 -0.012240667
0.019597452 0.0068309186 0.014888563 -0.037826806 0.07621584 0.003285157 -0.08214388 -0.016121011
-0.047208145 -0.06084022 0.0625703 0.07020914 -0.050366506 -0.066121966 0.029449204 -0.02253534
0.072081216 -0.076957844 0.063516244 0.055256803 0.06977217 0.022391208 -0.003223001 0.045547307
0.030859152 0.03474431 0.049342874 0.05814654 0.029460087 0.031702805 -0.03628031 0.037836615
0.006120713 -0.085143924 0.0039056747 -0.05630468 -0.046289273 -0.02246998 0.0037062778 0.0065408535
0.01087886 0.048477843 0.03808538 0.08015827 0.029179769 0.04310692 0.0028905256 0.025921227
0.06367254 0.016916059 0.018270586 0.053741444 -0.04527583 0.031527653 0.043601144 -0.018359177
0.0026094273 0.059300624 0.06179967 -0.085436 -0.034506574 0.055124264 0.015887644 -0.0038836633
-0.018625682 -0.034453973 0.04502438 0.07116571 0.028177148 -0.0510814 -0.03246285 0.05747146
0.028253077 0.08694228 0.02984863 0.019975645 -0.0015609402 -0.0799692 0.048740175 0.03726366
-0.055218544 0.058857683 -0.047701117 -0.08205005 0.048572842 -0.05356938 -0.014053624 0.046124615
0.08236141 0.056200262 -0.018885877 0.011470539 0.03988154 0.014951879 0.06775526 -0.0030798703
0.045335636 -0.016369836 0.0040844404 0.02084993 0.030699363 0.054097198 0.08442534 0.042108208
0.009278798 -0.046705473 0.0671576 0.03530432 -0.039761893 0.051804703 0.0009216462 -0.07826494
0.081527226 -0.016616942 0.071801834 0.035018668 -0.03438191 0.048055023 0.075943016 0.04723706
-0.0302664 0.073166505 -0.06966309 0.06957048 0.048958927 0.028495304 0.08249391 0.04640503
00000000: f17a 98bd 045f 593d 8511 423d 9644 77bd
00000010: fc83 5d3d fa76 c9bc 97fa 72bb cab3 81bc
00000020: a9ec 283d 32b3 a6bc c3fc b23c c09a 6dbd
00000030: 9884 89bc 20c6 263d 0fa3 6dbd ebc4 c43c
00000040: 1da3 d4bc 7e00 a2bd 079f 953d 9257 f83c
00000050: 37b7 593d 820b ab3d 5762 1abd 1a2e 513d
00000060: 8476 9d3d 320d 56bd 8992 403d 3c6f 553d
00000070: 16d8 7fbd 0f1f e9bc 18b1 46bd c86c db3c
00000080: 907b 753d 449c 1fbd ab92 2dbd de82 6a3c
00000090: 3cfd f4bc 7180 283d 195a 4d3d 14e0 433d
000000a0: ed60 29bd 7803 87bc 2db5 a5bd 34a2 4ebd
000000b0: 885f 64bd d7aa 66bc 6624 71bd d9ad b73c
000000c0: 8f95 92bd 20ec 833c 017b bb3c 05cb 4e3d
000000d0: b7f2 723d 2e94 d7bb f72b a93d f895 96bd
000000e0: 50e2 e0bc 96aa ec3c fa05 9e3d e954 febc
000000f0: 954e 923d 5555 06bd 6952 a2bc b572 84bd
00000100: 4575 91bd 0ab8 e93c 8459 13bd f30e 65bd
00000110: eb53 9bbd 2fde 87bc 9a12 643c beaf ab3d
00000120: 32f5 b83b a4f3 723d c2bd 91bd c391 53bd
00000130: 8cfa 2f3d 4325 75bd 30f3 443d adc3 343c
00000140: 18be d8bc 69dd 87bc 6f2e 293d 60b4 91bd
00000150: f30f 623d 2d0a a4bd 11af 2e3c 90a8 16bc
00000160: 2920 a8bd ec9c 6e3c b112 183d 1baa 19bd
00000170: 578d abbd 77bb 56bd ead8 963d 9664 903d
00000180: 4d31 783c de92 70bd a36b 96bd 3b30 063d
00000190: 2523 9f3d f85e a3bd 2810 32bd 95bf b53c
000001a0: 1e7f 973d 0060 053d adbe 88bd 80f2 c0bb
000001b0: 7085 413d 66a7 d03c f402 933d dde9 243d
000001c0: ca45 9f3d 439e 933b c0a5 5f3d 1040 85bd
000001d0: b4b0 81bd ba52 6fbd f9a8 92bd f8cb 04bc
000001e0: 5cab b13d d9f0 8bbd 81dd 41bd 7a2c 4bbd
000001f0: 0fe5 67bc 0774 2d3d f3a2 9fbc 148d 48bc
00000200: d68a a03c e6d5 df3b 29ef 733c 48f0 1abd
00000210: 0d17 9c3d ca4b 573b 0d3b a8bd 3610 84bc
00000220: 545d 41bd 9833 79bd dc24 803d cfc9 8f3d
00000230: 1c4d 4ebd f46a 87bd 753f f13c 099c b8bc
00000240: 519f 933d 139c 9dbd ce14 823d f554 623d
00000250: b6e4 8e3d c46d b73c fc38 53bb d08f 3a3d
00000260: 55cc fc3c 0d50 0e3d c11b 4a3d 112b 6e3d
00000270: 4856 f13c cdda 013d aa9a 14bd 91fa 1a3d
00000280: 4390 c83b f05f aebd 59f6 7f3b bc9f 66bd
00000290: d299 3dbd f712 b8bc 06e5 723b a854 d63b
000002a0: 3f3d 323c b490 463d 6aff 1b3d 052a a43d
000002b0: 690a ef3c e290 303d f96e 3d3b c158 d43c
000002c0: c066 823d 8c93 8a3c 32ac 953c fd1f 5c3d
000002d0: 2673 39bd 2423 013d 1d97 323d fc65 96bc
000002e0: ed02 2b3b 36e5 723d a721 7d3d 12f9 aebd
000002f0: c456 0dbd fbc9 613d ce26 823c 0f85 7ebb
00000300: e394 98bc 9c1f 0dbd 7c6b 383d 54bf 913d
00000310: c3d3 e63c bb3a 51bd c4f7 04bd 3267 6b3d
00000320: ff72 e73c cb0e b23d 1d85 f43c f7a3 a33c
00000330: 7698 ccba e4c6 a3bd c7a3 473d c8a1 183d
00000340: d72c 62bd c114 713d 3f62 43bd db09 a8bd
00000350: 51f4 463d 916b 5bbd 2c41 66bc 2aed 3c3d
00000360: 19ad a83d 3f32 663d 8eb6 9abc edee 3b3c
00000370: d35a 233d baf8 743c 45c3 8a3d a6d7 49bb
00000380: dcb1 393d 091a 86bc c5d6 853b 79cd aa3c
00000390: 3b7d fb3c 0695 5d3d 31e7 ac3d a879 2c3d
000003a0: 1906 183c 3d4e 3fbd ec89 893d 439b 103d
000003b0: 5edd 22bd 2b31 543d a19a 713a 5e49 a0bd
000003c0: bff7 a63d 4120 88bc d70c 933d bc6f 0f3d
000003d0: 0cd4 0cbd 58d5 443d 0388 9b3d a67b 413d
000003e0: 3ef1 f7bc 52d8 953d 86ab 8ebd f87a 8e3d
000003f0: 2889 483d fc6e e93c 91f2 a83d 3313 3e3d

embed.3.bias f4 [256]
-0.08668663 0.06773534 -0.020317795 -0.016916376 0.04713852 0.0529272 0.04688035 0.003961582
-0.0067340336 -0.014699778 -0.07715663 -0.027044822 0.018697679 -0.038750052 0.03025993 -0.02662252
-0.02558044 0.08402221 -0.05123846 -0.010924315 0.08707154 -0.06657833 0.07129475 -0.027650945
-0.016196812 -0.07054161 -0.010658727 -0.005950313 -0.024421211 -0.08053766 0.08639144 -0.08207701
0.06823453 -0.03669 0.037305154 -0.08381998 -0.026149875 -0.019396791 -0.06879084 -0.0036208252
-0.021359654 0.081509694 -0.06118732 0.028571043 -0.00864945 -0.0225736 -0.05570708 -0.020801725
-0.026642498 -0.04007082 -0.07370991 -0.017086638 0.059724327 0.047069293 0.08040705 0.08107967
-0.06518249 0.004654287 -0.0010149382 0.013248882 0.020174831 0.06666138 0.008337437 0.04884546
-0.08446555 -0.05305795 -0.05904357 -0.03699607 -0.07025824 -0.032709096 -0.02007408 0.04495955
0.043137234 -0.0012844884 0.000315996 -0.037701104 -0.038474265 -0.061037622 0.01132902 -0.012148713
-0.010463208 -0.0015945522 0.03663166 0.008789925 -0.01178332 0.05273422 0.009812345 0.010147581
0.018039484 0.012050848 0.060313813 -0.013452684 0.08202397 -0.017022828 0.024782969 -0.07010488
0.05311643 0.0002749555 0.01304701 -0.080016084 0.01907756 -0.041888498 -0.0051837144 -0.013782104
-0.008973528 -0.035163336 0.08815439 0.068874374 0.054468174 -0.070842035 0.054478817 0.060391176
0.032822963 -0.03950681 -0.007334858 -0.010199389 0.031553447 0.068602644 -0.030051777 -0.073438436
0.075327195 0.043187708 -0.052745167 -0.03814668 -0.018555256 0.08344841 0.015982432 0.00043186822
0.0147074275 0.08543045 -0.0021015787 -0.027121982 0.008160083 -0.028024945 -0.022877246 0.068022884
0.03523487 -0.0023493075 -0.065315194 0.049773753 -0.0449849 0.012563543 0.049917325 0.008997372
0.07185438 0.05563483 -0.0670477 -0.079556614 0.034199953 0.004006437 0.08119939 0.0796836
-0.045049217 0.07676782 -0.024917932 -0.08561873 0.021822795 -0.011611288 0.08803994 -0.037334688
0.082937464 0.068534054 -0.023754269 -0.061039258 0.0059236553 -0.0339086 0.05626859 0.004034749
-0.083760925 0.051419258 -0.01875991 -0.07066409 -0.02986748 -0.027369436 0.08150766 0.038505666
0.022895558 0.06580228 0.0861533 0.0194763 0.036819287 -0.06199281 0.07789575 0.0011446873
0.056079205 0.06338377 0.040193826 -0.014819137 -0.028268775 -0.007512349 -0.03602784 -0.035673227
-0.08564925 0.027841607 -0.05651372 0.0103220055 -0.027620273 0.059590913 0.0623356 -0.004982042
-0.003643342 0.01907323 0.06751393 0.07531821 -0.0011505773 0.0008254249 0.040822983 0.08218964
-0.03739673 -0.047581863 -0.0877144 0.009553985 -0.081755675 0.05299376 0.04847079 -0.07168181
0.01972817 0.03375581 -0.046343874 0.048970252 0.02427591 0.04893779 -0.079353824 0.051648095
0.00254391 -0.07387453 0.08376122 0.059876848 -0.08106999 -0.030117821 -0.031240128 0.0057335203
-0.051112115 -0.042315256 0.030353822 0.019494245 -0.08025662 -0.08571843 -0.071179114 -0.028855387
0.04660982 0.08124409 0.06483244 0.045079183 -0.023992356 -0.046222534 0.028594898 0.07935657
-0.069558516 0.027383545 -0.03830369 -0.0064846193 0.05079769 -0.015236296 -0.03890386 0.009245185
00000000: c388 b1bd d3b8 8a3d 8171 a6bc 3694 8abc
00000010: 5214 413d 31ca 583d 9c05 403d 29d0 813b
00000020: 2ba9 dcbb 56d7 70bc 4c04 9ebd 1a8d ddbc
00000030: e02b 993c 60b8 1ebd ace3 f73c 7917 dabc
00000040: 128e d1bc d613 ac3d 6bdf 51bd e6fb 32bc
00000050: 9052 b23d 385a 88bd fb02 923d 3c84 e2bc
00000060: 2daf 84bc 1f78 90bd f1a1 2ebc d8fa c2bb
00000070: fe0e c8bc eef0 a4bd ffed b03d fe17 a8bd
00000080: 8cbe 8b3d 4148 16bd 4acd 183d cfa9 abbd
00000090: 4338 d6bc 05e6 9ebc 36e2 8cbd 5e4b 6dbb
000000a0: 71fa aebc 8eee a63d 8e9f 7abd d20d ea3c
000000b0: 6cb6 0dbc 45ec b8bc 1b2d 64bd 6168 aabc
000000c0: 5e41 dabc 4d21 24bd 39f5 96bd 47f9 8bbc
000000d0: 7fa1 743d bbcb 403d 74ac a43d 190d a63d
000000e0: 667e 85bd fd82 983b ad07 85ba d711 593c
000000f0: b045 a53c c385 883d bf99 083c 2d12 483d
00000100: 46fc acbd 4b53 59bd acd7 71bd 3189 17bd
00000110: 8de3 8fbd f9f9 05bd 6672 a4bc 8127 383d
00000120: abb0 303d 475c a8ba 44ac a539 796c 1abd
00000130: 3197 1dbd 9602 7abd 5b9d 393c 650b 47bc
00000140: e06d 2bbc 4b00 d1ba 140b 163d 9e03 103c
00000150: d40e 41bc d6ff 573d f5c3 203c 0a42 263c
00000160: 8ac7 933c ec70 453c 9e0b 773d a568 5cbc
00000170: 2ffc a73d 7573 8bbc a705 cb3c 2693 8fbd
00000180: 9d90 593d e727 9039 20c3 553c 79df a3bd
00000190: 8b48 9c3c 4693 2bbd 26dc a9bb 55ce 61bc
000001a0: b405 13bc 6e07 10bd 4a8a b43d 020e 8d3d
000001b0: 051a 5f3d a115 91bd 2e25 5f3d bd5c 773d
000001c0: 5f71 063d e5d1 21bd 4059 f0bb 571b 27bc
000001d0: 303e 013d 8b7f 8c3d 252f f6bc e466 96bd
000001e0: 2545 9a3d 98e5 303d 510b 58bd b13f 1cbd
000001f0: 3101 98bc 00e7 aa3d 97ed 823c 5f6c e239
00000200: 6cf7 703c 29f6 ae3d a4ba 09bb eb2e debc
00000210: deb1 053c 9294 e5bc 1069 bbbc 954f 8b3d
00000220: 7052 103d d7f6 19bb f9c3 85bd 90df 4b3d
00000230: 1642 38bd 52d7 4d3c 1c76 4c3d b769 133c
00000240: 6428 933d 59e1 633d 4e50 89bd 94ee a2bd
00000250: 4015 0c3d 6e48 833b de4b a63d 2831 a33d
00000260: 8785 38bd 7238 9d3d b120 ccbc df58 afbd
00000270: b8c5 b23c 463d 3ebc 494e b43d 42ec 18bd
00000280: 1edb a93d 955b 8c3d 5098 c2bc 4d04 7abd
00000290: 391b c23b bfe3 0abd e579 663d ee35 843b
000002a0: d98a abbd 009d 523d 62ae 99bc 56b8 90bd
000002b0: a5ac f4bc de35 e0bc 7ded a63d 1eb8 1d3d
000002c0: 778f bb3c 59c3 863d 2471 b03d c38c 9f3c
000002d0: d2cf 163d 2cec 7dbd cf87 9f3d 5509 963a
000002e0: 4fb3 653d 5acf 813d 48a2 243d f7cb 72bc
000002f0: eb93 e7bc 272a f6bb ee91 13bd 171e 12bd
00000300: e068 afbd 1514 e43c ee7a 67bd a11d 293c
00000310: e943 e2bc 9a15 743d 9d53 7f3d 6640 a3bb
00000320: 23c5 6ebb 763f 9c3c be44 8a3d 6f40 9a3d
00000330: f8ce 96ba 5461 583a 0036 273d 0b53 a83d
00000340: 502d 19bd 33e5 42bd 9ba3 b3bd 5188 1c3c
00000350: 856f a7bd fc0f 593d 4f89 463d eacd 92bd
00000360: f99c a13c 8843 0a3d 13d3 3dbd 0895 483d
00000370: 46de c63c fe72 483d 4284 a2bd f48c 533d
00000380: bab7 263b 884b 97bd 018b ab3d 6d41 753d
00000390: 0608 a6bd a6b9 f6bc 4ceb ffbc 41e0 bb3b
000003a0: f05a 51bd c352 2dbd 94a8 f83c 65b2 9f3c
000003b0: 955d a4bd 258d afbd 5bc6 91bd 2262 ecbc
000003c0: f0e9 3e3d 4d63 a63d dfc6 843d f3a4 383d
000003d0: 9e8b c4bc d753 3dbd d93f ea3c b385 a23d
000003e0: b274 8ebd 7553 e03c 54e4 1cbd ee7c d4bb
000003f0: 3d11 503d a8a1 79bc a759 1fbd 1e79 173c

conv_spatial.mlp.0.weight f4 [256, 2]
-0.0010917361 -0.0008545513 -0.07444729 -0.30138457 0.20066588 0.20927665 -0.3173315 -0.12524419
-0.53592527 0.36688763 0.02547855 0.33598804 0.0004138592 0.027978018 0.26028135 0.0315025
-0.46371558 0.1435852 -0.40023044 0.5346627 -0.2828187 0.07769872 0.13519655 -0.23206909
-0.27725163 0.1444196 0.31312296 0.08600885 -0.12104849 0.16943245 0.20260127 0.26836067
0.3169747 0.04489553 0.16735259 0.2764535 -0.24970777 -0.21884897 -0.27671677 -0.15151168
-0.21535857 1.4251732 -0.19900258 0.20869821 0.2520857 0.051835667 0.0007358807 -0.0010258793
-1.4119136 0.92825663 0.20001487 -0.21344507 -0.14110485 -0.22683693 -0.0011130543 0.00068740564
2.5300252 -1.2443213 -0.17505117 0.25657007 0.0660626 0.10252984 0.28667733 -0.109698236
0.29413614 -0.15397397 0.3011995 0.07061319 -0.29622513 -0.030199636 -1.8552843 -1.2801701
0.091780946 -0.23596543 -0.31102112 0.03682823 -0.23319079 0.021812 -0.26641265 0.12525335
-0.25542057 -0.17696536 0.27747723 -0.20999369 -0.21244729 -0.261792 -0.24938391 -0.27906814
3.73689 -0.07740109 -0.28615123 -0.24403653 -0.1665159 0.20124394 -0.1756367 -0.09017528
0.2834178 -0.07724787 -0.0019148734 -0.0006007851 0.009984089 0.10917456 -0.36667144 -0.24555697
0.00021628544 5.3806107e-05 -0.07434652 0.3113932 -0.18586776 0.29412687 0.2676843 -0.16156936
0.3017747 -3.8571677 0.24356209 0.26795685 -0.060405307 0.25849277 -0.16440123 0.1318061
0.23409344 -0.14152579 -0.28417996 0.066731595 0.0003055503 0.00012071854 -0.010363967 -0.32103992
-0.09741455 -0.29342735 0.21484935 -0.008930029 -0.095547326 -0.31075644 -0.020327698 0.11494387
-0.1833524 0.24614963 0.23630098 0.30188304 0.07687051 0.18872797 0.12266721 0.23527099
-0.16722617 -0.22054979 -0.30256274 0.06030984 -0.2564631 0.104423836 0.26772836 -0.17337702
-0.10480597 0.2698045 0.1400789 0.27338117 0.16192457 -0.30568683 -0.27313638 0.24148782
-0.1786944 0.12026823 0.19590928 0.02606341 -2.4894495 2.1165996 0.25897694 0.21710125
0.03686909 0.23693547 0.011156806 -0.2971349 -0.27353337 0.1337173 0.0023790102 0.0006611529
0.28965017 -0.0773517 0.1266623 0.24839929 0.06653991 -0.3224466 0.18053111 -0.26893997
0.116293795 -0.20062235 0.21275902 -0.17246065 1.2413945 1.4143384 0.1700641 0.23697925
0.12187903 -0.019561501 -0.23966452 -0.18869786 -0.22622412 -0.19403642 0.4136465 -2.8213015
-0.20383911 0.11108063 -0.038168583 -0.14473745 0.28935415 0.21949808 -0.22849064 0.25205463
0.015517893 -0.15472664 1.5974492 -2.2223976 0.054292332 -0.31162968 0.0134207625 -0.035553984
0.23759723 0.1506902 0.0007661319 0.00064747187 -1.2270725 -1.5802906 0.0013221462 -0.00042818981
-0.12724839 -0.25313902 -0.27988088 0.011303749 0.074659206 -0.2213139 0.09548191 0.29350346
1.8269899 1.2099359 -0.06258281 -0.26383308 -0.2916069 0.095271 -0.2304014 -0.18000552
-0.3132637 0.23903735 -0.13956279 0.30956888 -0.24100916 -0.19002752 1.0005963 1.2476537
0.20999259 0.18379329 0.19879737 -0.19154869 0.2954803 -0.12681806 -0.2667866 0.16300677
00000000: 9618 8fba f803 60ba d277 98bd 144f 9abe
00000010: 5b7b 4d3e 9e4c 563e 4679 a2be 0340 00be
00000020: 6632 09bf b2d8 bb3e 64b8 d03c a006 ac3e
00000030: 3efb d839 2832 e53c 9943 853e c408 013d
00000040: 216c edbe 0008 133e 01eb ccbe a8df 083f
00000050: 9dcd 90be 8220 9f3d f770 0a3e 85a3 6dbe
00000060: edf3 8dbe bbe2 133e a751 a03e 6825 b03d
00000070: 45e8 f7bd b37f 2d3e b576 4f3e 9266 893e
00000080: 824a a23e 60e4 373d 7a5e 2b3e 508b 8d3e
00000090: 65b3 7fbe f219 60be d2ad 8dbe e125 1bbe
000000a0: f586 5cbe 136c b63f 55c7 4bbe fcb4 553e
000000b0: 6011 813e a351 543d 1ee8 403a cc76 86ba
000000c0: 96b9 b4bf 3aa2 6d3f b3d0 4c3e 5891 5abe
000000d0: ca7d 10be f147 68be e8e3 91ba 0333 343a
000000e0: efeb 2140 ec45 9fbf 9d40 33be 275d 833e
000000f0: d44b 873d 2afb d13d 5fc7 923e 78a9 e0bd
00000100: 0399 963e 5aab 1dbe d236 9a3e a69d 903d
00000110: d2aa 97be 3a65 f7bc f579 edbf 9ddc a3bf
00000120: a6f7 bb3d eca0 71be 293e 9fbe 33d9 163d
00000130: 91c9 6ebe 14af b23c 3d67 88be 6a42 003e
00000140: 7cc6 82be 6836 35be 7f11 8e3e 9608 57be
00000150: c88b 59be 9a09 86be 7f5e 7fbe 05e2 8ebe
00000160: 3529 6f40 7684 9ebd 6a82 92be b6e4 79be
00000170: 2583 2abe e412 4e3e 1bda 33be d1ad b8bd
00000180: 231c 913e 2234 9ebd 7dfc faba 017e 1dba
00000190: 4e94 233c e996 df3d 5cbc bbbe 4973 7bbe
000001a0: aeca 6239 dead 6138 fd42 98bd ee6e 9f3e
000001b0: 1e54 3ebe cc97 963e eb0d 893e 7072 25be
000001c0: 3782 9a3e d6db 76c0 5768 793e a431 893e
000001d0: 8e6b 77bd 2a59 843e cc58 28be 2ef8 063e
000001e0: 31b6 6f3e 23ec 10be 0980 91be 93aa 883d
000001f0: 4432 a039 462a fd38 a1cd 29bc 585f a4be
00000200: 4881 c7bd 1c3c 96be 7801 5c3e 424f 12bc
00000210: 51ae c3bd 781b 9fbe 4686 a6bc b167 eb3d
00000220: bbc0 3bbe a60e 7c3e e2f8 713e 6a90 9a3e
00000230: 496e 9d3d e841 413e f238 fb3d e1ea 703e
00000240: 563d 2bbe ced7 61be 81e9 9abe 7307 773d
00000250: 224f 83be 2adc d53d b113 893e bf89 31be
00000260: 83a4 d6bd d123 8a3e d870 0f3e 9ef8 8b3e
00000270: 8ecf 253e fc82 9cbe 88d8 8bbe 9548 773e
00000280: aafb 36be 314f f63d 719c 483e ef82 d53c
00000290: 2453 1fc0 5e76 0740 a098 843e ca4f 5e3e
000002a0: 0b04 173d 369f 723e 09cb 363c 1122 98be
000002b0: 910c 8cbe 30ed 083e 2be9 1b3b 3851 2d3a
000002c0: 074d 943e 916a 9ebd c3b3 013e 625c 7e3e
000002d0: 1446 883d b917 a5be 26dd 383e 80b2 89be
000002e0: 712b ee3d f26f 4dbe 80dd 593e 8699 30be
000002f0: 04e6 9e3f 0a09 b53f 4925 2e3e b0aa 723e
00000300: b69b f93d 713f a0bc 9e6a 75be 033a 41be
00000310: 4ca7 67be 7cb1 46be 79c9 d33e 3490 34c0
00000320: 33bb 50be 3e7e e33d a956 1cbd 0e36 14be
00000330: 3a26 943e 1bc4 603e 73f9 69be 4e0d 813e
00000340: c33e 7e3c a970 1ebe 3779 cc3f c33b 0ec0
00000350: a361 5e3d ed8d 9fbe c2e2 5b3c 0ea1 11bd
00000360: b04c 733e 884e 1a3e 3ed6 483a 1abb 293a
00000370: b610 9dbf f646 cabf dd4b ad3a aa7e e0b9
00000380: 674d 02be 709b 81be 8c4c 8fbe 5c33 393c
00000390: ede6 983d 1ca0 62be 058c c33d 1646 963e
000003a0: ceda e93f 2edf 9a3f 6b2b 80bd 2115 87be
000003b0: 804d 95be 711d c33d 58ee 6bbe 5e53 38be
000003c0: 1a64 a0be 35c6 743e 8ce9 0ebe d07f 9e3e
000003d0: 1bcb 76be 9396 42be 8a13 803f 1eb3 9f3f
000003e0: 4c08 573e 4f34 3c3e 8a91 4b3e 5725 44be
000003f0: 3249 973e 98dc 01be 4198 88be 3feb 263e

conv_spatial.mlp.2.weight f4 [256, 256]
-0.00035642096 -0.3240965 0.13013834 -0.088823766 0.10210272 0.46784633 0.27885538 0.002197076
0.0074206013 0.07632176 0.12512842 -0.26460075 0.12017022 0.034276653 0.233333 0.16055065
-0.052652664 0.27939513 -0.09001051 -0.122793995 0.13424765 0.13828312 -0.024564099 -0.030070847
-0.089021765 -0.24008738 -0.17122734 -0.078050055 0.20101412 0.1808668 0.17184356 -0.08973954
-0.06858397 -0.0070849047 -0.018519996 0.19318154 -0.3374845 0.018037565 0.04909058 0.05904117
-0.058929827 -0.1176313 -0.14045377 -0.1905442 -0.050721973 -0.19688465 0.22332084 -0.08576395
-0.03483581 0.040961586 0.24199146 -0.027983822 0.017738415 0.38660434 0.25855207 -0.12077164
0.21275768 0.19582473 0.31045237 0.037041333 -0.07412717 0.013782026 0.07532233 -0.45858353
-0.34873748 -0.01808355 -0.3304917 0.26487938 0.24173824 0.2183862 0.26996535 0.2580265
-0.17523296 0.029307771 0.165876 -0.1549103 0.32561758 0.29196224 -0.3333434 0.10499667
0.09903022 0.0320726 -0.37693137 0.17070897 0.3555173 -0.47254917 0.1277052 0.03630857
-0.0045277355 0.24286866 -0.3481289 -0.19184154 -0.20034407 -0.089543976 -0.03332992 0.21291988
-0.04455124 -0.11138027 -0.17926297 0.05954948 0.14580576 -0.24877888 0.14056508 0.20761485
-0.31185293 0.27824616 -0.35957563 -0.21982926 0.12784721 0.008178624 0.10891328 -0.20962487
-0.2637978 0.07958087 -0.31452078 0.3908734 -0.16653802 -0.35366452 0.046835594 -0.0855254
0.082178116 0.33317262 -0.0041525494 0.009712922 0.09981572 -0.17308655 -0.12359671 0.15281197
-0.092407614 0.036936704 0.031630613 -0.17702137 -0.036920633 0.11031738 -0.084138915 0.18935807
-0.095306806 -0.13261548 0.21614797 0.015583096 -0.11911784 -0.017830307 0.17402555 0.14313911
-0.17633389 0.10152439 -0.019884843 0.0003472861 -0.15527388 -0.3155058 0.036079485 -0.059607945
0.25341895 0.23745438 -0.15741436 -0.29074773 0.2738102 0.10938395 0.35378695 -0.3466522
0.2741045 -0.30901232 0.06299128 -0.28497905 -0.45114622 0.108109966 -0.1389082 0.042080503
0.37312853 -0.17454007 0.1492465 -0.34503955 0.05536744 -0.37270832 -0.12055251 0.14086686
0.22329141 0.15595816 -0.12522641 -0.3649385 0.15382175 -0.33884102 -0.21054572 0.05508409
0.39749938 -0.2934036 0.15032461 0.21803713 -0.18472433 0.06777461 0.012934115 -0.090187624
-0.2629513 -0.091102496 0.12883668 0.29239887 -0.004736131 0.060507044 0.13014792 0.023456775
0.15589911 0.39117277 -0.1820948 0.031154295 0.06403461 0.29052946 -0.14736082 0.08853692
-0.088529445 -0.0025873126 0.042353142 0.089299254 -0.4275486 -0.18925929 -0.046279155 -0.41528976
-0.06580727 0.37772855 0.14072266 0.0035166321 0.121220455 0.3064489 0.18271817 0.09038747
0.084777735 0.2501643 0.21611522 -0.014294207 -0.19038127 0.018573279 -0.15636231 0.3776026
-0.017072124 -0.27784893 0.1655989 0.027695728 -0.37571344 -0.4751069 0.2387235 -0.11621212
-0.07635201 -0.12349454 0.35923845 -0.010599888 0.018962152 0.33950037 0.14049543 -0.33661932
0.23210278 0.062254228 0.08630936 -0.2243347 0.21254654 0.040857684 -0.13163823 0.12693101
00000000: 03de bab9 faef a5be fc42 053e 3ce9 b5bd
00000010: 3b1b d13d 8e89 ef3e 22c6 8e3e d2fc 0f3b
00000020: 8428 f33b 954e 9c3d aa21 003e c079 87be
00000030: ce1b f63d ad65 0c3d d9ee 6e3e 6467 243e
00000040: 52aa 57bd e10c 8f3e 6e57 b8bd 6b7b fbbd
00000050: 3778 093e 179a 0d3e a63a c9bc 2357 f6bc
00000060: 0b51 b6bd 77d9 75be 3856 2fbe b5d8 9fbd
00000070: a5d6 4d3e 2535 393e c2f7 2f3e 5dc9 b7bd
00000080: c175 8cbd 7d28 e8bb 3fb7 97bc 62d1 453e
00000090: c5ca acbe 84c3 933c 3413 493d 27d5 713d
000000a0: 6760 71bd aee8 f0bd 1dd3 0fbe 051e 43be
000000b0: d8c1 4fbd 219c 49be 38ae 643e 03a5 afbd
000000c0: ffaf 0ebd 56c7 273d 9ccc 773e 543e e5bc
000000d0: 2750 913c 01f1 c53e f060 843e 1f57 f7bd
000000e0: 26dd 593e 4786 483e 9df3 9e3e a7b8 173d
000000f0: fccf 97bd 02ce 613c 9842 9a3d 76cb eabe
00000100: b88d b2be f423 94bc 3536 a9be 459e 873e
00000110: 3b8a 773e a2a0 5f3e e638 8a3e 0d1c 843e
00000120: 4570 33be da16 f03c 66db 293e cea0 1ebe
00000130: 59b7 a63e 137c 953e fcab aabe 7e08 d73d
00000140: 5bd0 ca3d 8f5e 033d 26fd c0be 55ce 2e3e
00000150: 5d06 b63e f7f1 f1be 27c5 023e 4cb8 143d
00000160: 665d 94bb 90b2 783e f43d b2be 1c72 44be
00000170: ff26 4dbe d562 b7bd f484 08bd ab07 5a3e
00000180: 5c7b 36bd 571b e4bd b690 37be 28ea 733d
00000190: 1b4e 153e e4bf 7ebe 4bf0 0f3e fd98 543e
000001a0: 30ab 9fbe 4876 8e3e 4c1a b8be ec1a 61be
000001b0: 61ea 023e a3ff 053c ed0d df3d e7a7 56be
000001c0: 8110 87be 4cfb a23d de08 a1be 8f20 c83e
000001d0: f188 2abe 8413 b5be aed6 3f3d f127 afbd
000001e0: 004d a83d 9a95 aa3e 1c12 88bb f322 1f3c
000001f0: 2f6c cc3d 9a3d 31be 4620 fdbd be7a 1c3e
00000200: 3440 bdbd f14a 173d 1a8f 013d 1745 35be
00000210: 173a 17bd 14ee e13d 0651 acbd 15e7 413e
00000220: 3730 c3bd 5acc 07be e555 5d3e 3e50 7f3c
00000230: 0ef4 f3bd dd10 92bc c133 323e 0f93 123e
00000240: df90 34be 05ec cf3d 8ae5 a2bc f413 b639
00000250: 1e00 1fbe fa89 a1be 15c8 133d 7627 74bd
00000260: 21c0 813e 3e27 733e 3b31 21be e3dc 94be
00000270: da30 8c3e b104 e03d 9023 b53e 667c b1be
00000280: 6d57 8c3e dd36 9ebe 9201 813d c6e8 91be
00000290: a3fc e6be c268 dd3d f43d 0ebe 9b5c 2c3d
000002a0: b40a bf3e a2ba 32be 13d4 183e 06a9 b0be
000002b0: f8c8 623d a0d3 bebe 3ce4 f6bd 673f 103e
000002c0: 81a6 643e 7fb3 1f3e 5a3b 00be 38d9 babe
000002d0: 7383 1d3e 927c adbe 4c99 57be db9f 613d
000002e0: 0a85 cb3e ff38 96be b2ee 193e 2045 5f3e
000002f0: 6028 3dbe 6acd 8a3d 9ce9 533c 4ab4 b8bd
00000300: 8ea1 86be f293 babd c3ed 033e 4eb5 953e
00000310: 8c31 9bbb 3cd6 773d 7f45 053e 6c28 c03c
00000320: 04a4 1f3e cc47 c83e 0f77 3abe 4b37 ff3c
00000330: 9424 833d 47c0 943e c1e5 16be d852 b53d
00000340: ed4e b5bd e78f 29bb 7d7a 2d3d 87e2 b63d
00000350: a6e7 dabe 30cd 41be 368f 3dbd dca0 d4be
00000360: f6c5 86bd a365 c13e 9a19 103e 4c77 663b
00000370: 6e42 f83d dfe6 9c3e 791a 3b3e 111d b93d
00000380: f39f ad3d 8915 803e 4f4d 5d3e 4032 6abc
00000390: 4ff3 42be fd26 983c 711d 20be 2155 c13e
000003a0: d7da 8bbc 3742 8ebe c292 293e 27e2 e23c
000003b0: 835d c0be 3641 f3be ef73 743e 9f00 eebd
000003c0: 715e 9cbd b5ea fcbd 1aee b73e 27ab 2dbc
000003d0: 8456 9b3c fed2 ad3e 09de 0f3e 5e59 acbe
000003e0: 5aac 6d3e 4afe 7e3d f6c2 b03d ffb7 65be
000003f0: cda5 593e 635a 273d 2ccc 06be 34fa 013e

conv_spatial.mlp.4.weight f4 [2, 256]
0.0035569011 0.078638166 -0.20866247 -0.15002954 0.16834547 0.19423436 -0.20094158 0.0004886317
-0.06830239 0.39102295 0.16398564 -0.26326382 -0.3865361 0.38697186 -0.13670525 0.32694277
0.15483317 -0.8354151 0.07084019 -0.27154243 0.25535035 -0.74270964 0.29930848 0.1545198
-0.85170853 -0.00012663858 0.09555271 -0.11240184 -0.403821 -1.37563065e-05 0.08022761 -0.33712092
0.2753699 1.0973516 -0.29847497 -0.11074968 0.32812712 0.13920802 -0.28738326 -0.16010645
0.0004504409 -0.00023088629 0.793216 -0.088266626 0.15834431 -0.2346572 -0.29679587 0.014453028
-0.21332395 0.054302845 0.83654284 -0.04092181 0.17223607 -0.2709741 0.1316131 0.11135518
0.19719389 0.082472146 -0.2462956 -0.35528862 -0.2053481 -0.6279041 0.30863297 0.44043636
-0.28543755 0.31570625 0.07596088 0.41167086 -0.8098887 0.17631501 8.920024e-05 -0.24801405
-0.22379522 -0.16062184 -0.37432748 0.18190147 -0.19326445 0.3478194 0.3354521 0.4149965
0.41623956 -0.096290514 -0.00025605064 -0.21372558 -0.06722244 0.11439723 0.15115575 0.3857808
-0.3319451 -9.6544994e-05 0.15682438 -0.00065280555 -0.000114623756 -0.27644944 -0.5548459 -0.074442476
0.28358954 -0.19194342 0.3862848 -0.4109177 0.2637281 -0.07468425 -0.06509716 0.34650344
-0.10075881 -0.003570155 -0.067281246 0.008933692 -1.2275501e-05 -2.2430568e-05 0.2082686 0.076017864
0.33929533 -0.37907442 -0.016962575 0.07599678 -0.4270141 0.13024184 0.11556648 -5.897986e-05
0.107602164 0.27066615 0.0068182508 0.21514383 -0.21017696 -0.09222312 -0.00056102034 -0.5796311
-0.19008893 0.033171415 -0.06631597 -0.013786432 0.37164783 -0.21717474 -0.3129046 -0.6566855
0.24153358 -0.41109267 -0.123723574 -0.14162813 -0.08254079 -0.15880963 0.4465191 -0.15287606
0.87225765 -0.17758434 -0.14109735 0.8454285 0.2934172 0.2079724 -0.00018395355 0.45198938
-0.38644227 0.34185448 -0.36560166 -0.16564837 -0.24213614 0.00026415932 -0.00052765064 0.2062517
0.16466722 -0.02417582 -0.31250426 -0.44217965 -0.0889168 -0.6960747 0.40148938 0.3533192
-0.24077737 -0.2681935 0.2576193 0.1578891 -0.14355223 -0.1596198 0.22047967 -0.06178724
-0.32409996 0.00036021048 0.3150677 -6.583288e-05 0.22119509 0.19917695 -0.19363303 0.01583551
-0.06795975 -0.2825682 -0.06961655 -0.2843614 -0.48949492 0.103676245 0.06008245 0.37177062
0.20339206 0.35138875 0.17543133 0.3781973 0.2818794 -0.27479446 0.06383086 0.17242518
-0.39414033 0.18039994 0.23047382 0.23558213 -0.77191556 -0.08028615 0.2722703 0.1990537
-0.51784694 0.21338041 0.884471 0.13546123 -0.03507302 -0.12394654 0.19256431 -0.19730902
-0.7517081 -5.87174e-05 -0.11257009 0.2644386 -0.31438658 -0.17027612 -0.33341914 -0.84884334
-0.4758426 -0.23371282 -0.039528064 -0.26168752 -0.16101494 0.0374108 0.51862746 0.2723323
0.07365222 -9.492166e-05 0.21830523 0.1830753 0.047149397 -0.19557884 -8.114588e-05 0.15419514
-0.43561265 0.16682033 0.24987109 0.056104228 0.27252775 0.22422081 0.462956 0.26569247
0.4364369 0.40805477 -0.20030716 0.04517348 -0.6772918 0.23729223 0.3470771 -0.49243855
00000000: e61a 693b 0c0d a13d 9dab 55be 58a1 19be
00000010: c162 2c3e 5fe5 463e a1c3 4dbe 8517 003a
00000020: 20e2 8bbd 2934 c83e daeb 273e 84ca 86be
00000030: 0fe8 c5be 2d21 c63e 76fc 0bbe 0b65 a73e
00000040: 968c 1e3e c4dd 55bf a914 913d 9c07 8bbe
00000050: 48bd 823e 3822 3ebf f63e 993e 703a 1e3e
00000060: 9209 5abf 49ca 04b9 24b1 c33d f032 e6bd
00000070: a0c1 cebe e3ca 66b7 604e a43d 1d9b acbe
00000080: 49fd 8c3e 0476 8c3f b6d1 98be bad0 e2bd
00000090: 4700 a83e 8c8c 0e3e e623 93be f2f2 23be
000000a0: 2729 ec39 111a 72b9 3410 4b3f 22c5 b4bd
000000b0: 0325 223e fa49 70be a1f5 97be 65cc 6c3c
000000c0: 9871 5abe a96c 5e3d ac27 563f a19d 27bd
000000d0: a75e 303e 1ebd 8abe 96c5 063e 2f0e e43d
000000e0: 32ed 493e 28e7 a83d ea34 7cbe 64e8 b5be
000000f0: c646 52be 53be 20bf 2405 9e3e e080 e13e
00000100: df24 92be 40a4 a13e 6191 9b3d 86c6 d23e
00000110: de54 4fbf ec8b 343e 0411 bb38 65f7 7dbe
00000120: 932a 65be 0d7a 24be daa7 bfbe 6144 3a3e
00000130: 1ee7 45be 6215 b23e 61c0 ab3e 6c7a d43e
00000140: 5a1d d53e f633 c5bd 893e 86b9 e1da 5abe
00000150: ebab 89bd 1849 ea3d 93c8 1a3e 1085 c53e
00000160: b5f4 a9be 3378 cab8 9296 203e 0a21 2bba
00000170: 2962 f0b8 c88a 8dbe 620a 0ebf 4c75 98bd
00000180: a632 913e d18c 44be 1fc7 c53e ce63 d2be
00000190: 5f07 873e 0ef4 98bd a951 85bd e668 b13e
000001a0: a35a cebd 43f9 69bb c0ca 89bd 9f5e 123c
000001b0: e0f2 4db7 4729 bcb7 5d44 553e 41af 9b3d
000001c0: 1eb8 ad3e 0b16 c2be 19f5 8abc 33a4 9b3d
000001d0: 98a1 dabe 1e5e 053e 1eae ec3d 2461 77b8
000001e0: 865e dc3d c194 8a3e a26b df3b aa4e 5c3e
000001f0: a138 57be 7adf bcbd 7011 13ba b462 14bf
00000200: aca6 42be c0de 073d abd0 87bd 7de0 61bc
00000210: a048 be3e 0e63 5ebe 0835 a0be 8a1c 28bf
00000220: 9454 773e bd7a d2be c962 fdbd f706 11be
00000230: 250b a9bd fe9e 22be 279e e43e 8b8b 1cbe
00000240: 474c 5f3f abd8 35be d37b 10be 016e 583f
00000250: c73a 963e b8f6 543e a8e3 40b9 276b e73e
00000260: c3db c5be 8d07 af3e 2430 bbbe ba9f 29be
00000270: 89f2 77be dd7e 8a39 0952 0aba a533 533e
00000280: 869e 283e 5f0c c6bc 8f00 a0be 5f65 e2be
00000290: 031a b6bd f431 32bf 0490 cd3e 41e6 b43e
000002a0: 588e 76be a950 89be ade6 833e aead 213e
000002b0: 5bff 12be 5f73 23be 6cc5 613e 9e14 7dbd
000002c0: 6ef0 a5be a2da bc39 8e50 a13e c20f 8ab8
000002d0: f780 623e 0bf5 4b3e bd47 46be 79b9 813c
000002e0: 7b2e 8bbd c7ac 90be 1f93 8ebd d197 91be
000002f0: 149f fabe 3654 d43d 0419 763d b858 be3e
00000300: 0246 503e 3ae9 b33e 45a4 333e 14a3 c13e
00000310: 7f52 903e dcb1 8cbe c1b9 823d 3a90 303e
00000320: c3cc c9be c3ba 383e 5401 6c3e 713c 713e
00000330: 429c 45bf 116d a4bd 0367 8b3e bcd4 4b3e
00000340: 9e91 04bf 6580 5a3e b16c 623f 59b6 0a3e
00000350: baa8 0fbd afd7 fdbd 942f 453e 600b 4abe
00000360: f16f 40bf 5447 76b8 268b e6bd 7f64 873e
00000370: 47f7 a0be dd5c 2ebe eab5 aabe cc4d 59bf
00000380: a4a1 f3be 6a52 6fbe 2ee8 21bd e8fb 85be
00000390: 1ae1 24be 113c 193d c5c4 043f 246f 8b3e
000003a0: fad6 963d ae10 c7b8 688b 5f3e 1778 3b3e
000003b0: ba1f 413d d245 48be dd2c aab8 55e5 1d3e
000003c0: 9f08 dfbe f3d2 2a3e 35de 7f3e 8ccd 653d
000003d0: c288 8b3e 249a 653e 9208 ed3e d808 883e
000003e0: a874 df3e 8eec d03e 521d 4dbe d407 393d
000003f0: ff62 2dbf bcfc 723e 17b4 b13e e820 fcbe

tail.0.weight f4 [256, 256]
0.021200538 -0.026989102 0.00037257373 -0.04355315 -0.04333161 0.04853555 0.05467771 0.022631444
0.032071806 0.05824057 0.0019822195 0.0065999255 -0.014949083 -0.015488371 0.05982043 -0.048719227
-0.020019412 0.06113375 0.057553485 0.0008916408 0.020664133 -0.018435784 0.03484094 -0.044079445
0.03691195 0.012756787 -0.060439907 -0.007086195 -0.013426922 0.044370897 -0.0618632 -0.0026219636
-0.05497893 0.05171088 -0.012550443 0.03211821 0.015468024 -0.0057991296 -0.046236105 0.047947496
0.01960747 -0.03177709 0.06210225 -0.05447355 -0.0289374 -0.011313185 0.05937057 -0.061521836
-0.026592895 0.038155153 -0.047154047 0.0136391595 0.031880282 0.049213015 0.03122621 -0.0014888346
-0.06027539 0.046162583 -0.03816335 -0.017084792 0.021114267 -0.024892576 0.0023462102 -0.032597773
0.032563493 -0.02640988 0.028684571 -0.005710885 -0.058452338 0.022099957 -0.051418178 -0.04796175
0.0013605133 -0.019463606 -0.047126397 -0.0052782 -0.037941426 -0.01228746 -0.04427427 -0.04058919
0.03453654 0.02148275 0.028664842 0.052827932 0.03782568 0.040244535 -0.040511385 -0.044066988
-0.02397982 0.049493685 -0.015186518 0.008423902 -0.05069408 0.037486292 -0.0009434968 -0.030926928
-0.005678691 -0.043229558 0.037008427 0.020710647 -0.003452301 -0.016701065 0.020585075 0.009454556
-0.026910149 0.050951682 0.058440074 -0.039957106 0.053454645 0.02134566 0.030818284 0.053511977
0.028436415 0.037572987 -0.007146038 -0.052605577 0.05850912 -0.061761983 -0.049887307 0.041202255
-0.011046112 -0.040438317 -0.05561711 -0.037453428 0.009784274 0.02231589 -0.01763758 -0.019879535
0.027655669 -0.03994827 -0.040488206 0.061014302 -0.025757082 0.039554335 0.03173773 -0.048949376
-0.04166729 -0.029364765 -0.02233947 0.035509385 -0.031006053 -0.003507562 0.055970386 -0.026632175
0.037699558 -0.007080063 0.058179982 -0.01786796 0.013354495 0.009372555 -0.031571455 -0.00046531856
0.0223746 -0.048471376 0.0030891374 -0.018529743 -0.030122235 0.052504413 -0.052492253 0.04509645
0.059072927 -0.04709114 0.02053725 -0.054947503 -0.03979835 -0.035161816 -0.058036976 0.01587402
0.035467014 -0.038916163 0.051311985 -0.039133288 0.005786404 -0.028859712 -0.045897454 -0.041551717
-0.050710477 -0.0022430867 0.060056604 -0.021068372 0.019030012 0.046179563 0.053720966 0.026039347
-0.036505364 -0.024103992 0.03213793 0.036600143 -0.014978021 -0.055018634 0.015560299 -0.049480796
-0.011360727 -0.04968454 -0.03045009 -0.042093076 -0.057013392 0.026549056 -0.02132906 -0.010660887
0.015997149 0.031701393 -0.020811722 0.042072915 -0.024701014 0.016573772 -0.011848643 -0.013310485
0.060941927 -0.054319084 0.056085967 0.0005896613 0.051363423 -0.060598962 -0.025807425 -0.018864065
-0.0053907186 -0.05640755 0.010769129 -0.014414087 0.054723255 0.03970121 -0.029966287 -0.045135923
0.061351314 0.054501824 0.03492266 -0.05593553 -0.00011225045 -0.060455382 -0.04264807 0.017261803
0.013762258 0.055324063 0.021871202 -0.061123908 0.047594175 0.013932236 0.050608613 0.011142701
0.04329533 0.0014754459 0.007402785 0.01998315 0.044592418 -0.010210037 0.00491973 0.0017703101
0.017007098 -0.038686 -0.027844682 0.05086852 0.038321756 -0.017896526 0.006768614 -0.008671813
00000000: c0ac ad3c 4018 ddbc 0056 c339 ca64 32bd
00000010: 7c7c 31bd 36cd 463d bcf5 5f3d 9465 b93c
00000020: ba5d 033d aa8d 6e3d 20e8 013b 3044 d83b
00000030: 00ed 74bc f0c2 7dbc 4406 753d d08d 47bd
00000040: c0ff a3bc 6267 7a3d 34bd 6b3d 00bd 693a
00000050: d447 a93c a406 97bc 60b5 0e3d a68c 34bd
00000060: fc30 173d d801 513c d68f 77bd 5033 e8bb
00000070: 98fc 5bbc 42be 353d 4464 7dbd 40d5 2bbb
00000080: 9631 61bd cace 533d 60a0 4dbc 628e 033d
00000090: 986d 7d3c a006 bebb 1262 3dbd 9864 443d
000000a0: d89f a03c b228 02bd ee5e 7e3d a81f 5fbd
000000b0: 200e edbc f05a 39bc 8e2e 733d 52fe 7bbd
000000c0: 58d9 d9bc 9448 1c3d 9a24 41bd c876 5f3c
000000d0: e694 023d 9693 493d 1cce ff3c 0025 c3ba
000000e0: 54e3 76bd fa14 3d3d 2c51 1cbd 68f5 8bbc
000000f0: d4f7 ac3c 84eb cbbc e0c2 193b 3e85 05bd
00000100: 4c61 053d 8859 d8bc e8fb ea3c 6022 bbbb
00000110: b86b 6fbd f80a b53c de9b 52bd 8a73 44bd
00000120: 4053 b23a 2472 9fbc 9c07 41bd c0f4 acbb
00000130: 7868 1bbd 5851 49bc f058 35bd da40 26bd
00000140: 3076 0d3d 98fc af3c 88d2 ea3c 1a62 583d
00000150: 1aef 1a3d 74d7 243d 44ef 25bd 967f 34bd
00000160: 5471 c4bc e4b9 4a3d e0d0 78bc 6804 0a3c
00000170: 98a4 4fbd 3a8b 193d 0055 77ba 785a fdbc
00000180: 5014 babb 7a11 31bd 2696 173d 60a9 a93c
00000190: 0040 62bb acd0 88bc 08a2 a83c 48e7 1a3c
000001a0: ac72 dcbc b6b2 503d dc5e 6f3d 10aa 23bd
000001b0: 42f3 5a3d 18dd ae3c a076 fc3c 602f 5b3d
000001c0: 7cf3 e83c 22e6 193d 5029 eabb f278 57bd
000001d0: 42a7 6f3d 22fa 7cbd a256 4cbd b2c3 283d
000001e0: c0fa 34bc a6a2 25bd c4ce 63bd c468 19bd
000001f0: 384e 203c d0cf b63c b07c 90bc 68da a2bc
00000200: 248e e23c cca0 23bd f6d6 25bd 22ea 793d
00000210: 8400 d3bc ba03 223d 6cff 013d 247f 48bd
00000220: 52ab 2abd 608e f0bc 4401 b7bc 4a72 113d
00000230: 6800 febc 20df 65bb 3441 653d b82b dabc
00000240: da6a 1a3d e0ff e7bb 224e 6e3d d45f 92bc
00000250: d0cc 5a3c 588f 193c 1251 01bd 00f6 f3b9
00000260: f04a b73c ec89 46bd 2073 4a3b b0cb 97bc
00000270: e8c2 f6bc de0e 573d 1e02 57bd 0eb7 383d
00000280: 74f6 713d a4e2 40bd bc3d a83c a210 61bd
00000290: 9803 23bd d605 10bd 2eb8 6dbd 3c0a 823c
000002a0: dc45 113d 8e66 1fbd 842c 523d 3a4a 20bd
000002b0: e09b bd3b 346b ecbc f8fe 3bbd 2232 2abd
000002c0: cab5 4fbd c000 13bb eafd 753d 9497 acbc
000002d0: d4e4 9b3c c826 3d3d 840a 5c3d 7850 d53c
000002e0: a686 15bd bc75 c5bc 10a3 033d 08ea 153d
000002f0: 6066 75bc 385b 61bd a0f0 7e3c 60ac 4abd
00000300: 5822 3abc 0482 4bbd 7872 f9bc ca69 2cbd
00000310: e086 69bd 687d d93c 48ba aebc 00ab 2ebc
00000320: 740c 833c 52d9 013d 587d aabc a654 2c3d
00000330: c859 cabc b8c5 873c d020 42bc 3814 5abc
00000340: 3e9e 793d b07d 5ebd 66ba 653d 8093 1a3a
00000350: 7462 523d 9e36 78bd 186a d3bc d088 9abc
00000360: a0a4 b0bb 9a0b 67bd 0071 303c 1029 6cbc
00000370: 7e25 603d bc9d 223d dc7b f5bc 72e0 38bd
00000380: 844b 7b3d 4e3d 5f3d 100b 0f3d a81c 65bd
00000390: 0068 ebb8 10a0 77bd beaf 2ebd a068 8d3c
000003a0: 187b 613c 7c9b 623d 3c2b b33c 105d 7abd
000003b0: 1cf2 423d 0844 643c fa4a 4f3d e08f 363c
000003c0: 7256 313d c063 c13a 1093 f23b b4b3 a33c
000003d0: 8aa6 363d 0048 27bc b035 a13b c009 e83a
000003e0: 7852 8b3c 3675 1ebd 881a e4bc 825b 503d
000003f0: 46f7 1c3d bc9b 92bc 40cb dd3b 3814 0ebc
