logs/M5D6_r08_scale013/score.pt (torch, 731911 bytes, 10 tensors)

embed.0.W f4 [64]
0	0x424a10ce	50.51641
1	0x4263715f	56.860714
2	0x41e4d139	28.60216
3	0x41a5b18e	20.711697
4	0x40e01f14	7.0037937
5	0x421b83bf	38.87866
6	0xc21bae4c	-38.92021
7	0xc116f918	-9.435814
8	0xc23e4aa3	-47.572887
9	0xc15dc25e	-13.859953
10	0xc16e9682	-14.911745
11	0xc0f765af	-7.7311625
12	0xc1d533ce	-26.650295
13	0xc0d274f2	-6.5767756
14	0xc2365ef9	-45.592747
15	0xc23df532	-47.48945
16	0x41e6a0a8	28.828445
17	0xc1a4f151	-20.61783
18	0x4211dca4	36.46547
19	0x420878da	34.11802
20	0xc236540c	-45.582077
21	0xc2005121	-32.079227
22	0x4198422e	19.032314
23	0x40d40515	6.6256204
24	0x4189dff1	17.234346
25	0x412a12cb	10.629588
26	0x416ab4b3	14.669116
27	0x4244fb59	49.245457
28	0x4094a970	4.6456833
29	0xc1f5ab8f	-30.708769
30	0xc0bb5d41	-5.8551335
31	0x41e789dd	28.942316
32	0x4177a36c	15.477398
33	0x428a7345	69.225136
34	0xc19d6188	-19.672623
35	0x41fd4276	31.657452
36	0xc0aa7f1e	-5.328017
37	0xc219cce2	-38.45008
38	0x41d9c9b9	27.223497
39	0x41911ae1	18.138124
40	0xc1637bd5	-14.217732
41	0xc11f196c	-9.9437065
42	0x427722b8	61.783905
43	0x40eac780	7.336853
44	0xc29f0ae1	-79.52125
45	0x4236a1c1	45.657963
46	0x41f166bc	30.175163
47	0xbd774c07	-0.06037524
48	0xc1776f87	-15.464728
49	0x3f52a50d	0.822831
50	0x427fc6b1	63.944035
51	0x400441fb	2.0665271
52	0xc07e5223	-3.9737632
53	0xc21c1583	-39.021008
54	0x4186eae1	16.864687
55	0x41b60b9e	22.755672
56	0x3e4a7693	0.19771795
57	0x4215c3c6	37.441185
58	0x421d3fa2	39.31214
59	0xc29e74e4	-79.2283
60	0x4114c941	9.299134
61	0xc19c8c38	-19.568466
62	0xc1897ee6	-17.186962
63	0x4101fbf4	8.124012

embed.1.weight f4 [128, 128]
0	0xbcaccec4	-0.021094687
1	0xbd07fd9b	-0.03320084
2	0xbcf437e2	-0.029811803
3	0xbd4eb86f	-0.05046886
4	0x3c250a34	0.010073233
5	0xbcd44210	-0.025910407
6	0x3cf617c4	0.03004063
7	0x3d60a863	0.054848086
8	0xbb7ffed5	-0.0039061804
9	0xbdaeb065	-0.08529738
10	0xbd6cedaf	-0.05784386
11	0x3b1f3fe3	0.0024299554
12	0xbd98f1b2	-0.07467975
13	0xbd3074d8	-0.04308018
14	0x3d9e376f	0.07725417
15	0x3d8d15d8	0.06888932
16	0x3c3e6785	0.011621361
17	0x3b100623	0.0021976314
18	0x3d8a2bce	0.06746636
19	0xbd9553f7	-0.07291406
20	0x3db117f4	0.08647147
21	0xbda2c5b7	-0.07947867
22	0xbd78b9e2	-0.060724147
23	0x3d9371e1	0.07199455
24	0xbd8182b9	-0.063237615
25	0xbd1c9086	-0.038223766
26	0xbd038e67	-0.032118227
27	0xbdad238a	-0.08454044
28	0xbd9bc17f	-0.07605266
29	0x3d81e330	0.06342161
30	0x3c2153cf	0.009846642
31	0xbdb460b9	-0.08807511
32	0x3d2e4276	0.04254385
33	0x3daeeda0	0.08541417
34	0x3bdafb9a	0.0066828253
35	0xbda56f89	-0.08077914
36	0x3cc0efe5	0.02355189
37	0x3d43f83b	0.047844153
38	0xbd5b977c	-0.053611264
39	0x3d1e7857	0.038688984
40	0xbd781559	-0.060567234
41	0x3d89762b	0.06711992
42	0xbadb4c63	-0.0016731139
43	0xbd71993d	-0.05898403
44	0xbd905280	-0.070469856
45	0x3d13c001	0.03607178
46	0xbdb504e1	-0.08838821
47	0x3d82d624	0.063885
48	0x3da5cede	0.080960974
49	0xbd12b4fe	-0.03581714
50	0x3d8380ec	0.06421074
51	0xbb3f77c2	-0.0029215668
52	0x3d1d8797	0.038459387
53	0x3d2f04d6	0.04272922
54	0x3d7cb19e	0.061692826
55	0x3d2260cc	0.039643094
56	0xbd938e19	-0.07204837
57	0xbd3f5e58	-0.046720833
58	0x3d9e02c6	0.07715373
59	0x3d0269e1	0.031839255
60	0x3caf81da	0.021424223
61	0xbd9703f7	-0.07373803
62	0xbd5cfe2d	-0.05395334
63	0xbda0621b	-0.07831212
64	0x3d8bfa52	0.06834854
65	0xbc9586ce	-0.018252756
66	0xbcf388be	-0.02972829
67	0xbd20735b	-0.03917251
68	0xbd5f9229	-0.05458275
69	0x3cafaee8	0.021445706
70	0xbc151534	-0.0090992935
71	0xbda41438	-0.08011669
72	0x3d85d440	0.06534624
73	0xbd593dc0	-0.053037405
74	0xbdad3d51	-0.08458961
75	0x3d73cdf6	0.05952259
76	0xbb850342	-0.0040592263
77	0xbd969914	-0.07353416
78	0xbd9f8122	-0.07788302
79	0xbcdddf48	-0.027084008
80	0x3d0c7c1d	0.03429805
81	0xbd1f35d0	-0.03886968
82	0x3b847d15	0.0040432313
83	0xbcc69418	-0.024240538
84	0x3b886204	0.004162075
85	0x3cfe8d64	0.03107328
86	0xbb325c89	-0.00272158
87	0x3c6a248f	0.014290943
88	0x3c70c126	0.014694488
89	0x3d05c364	0.032657042
90	0xbd94c7c9	-0.072646685
91	0x3d4be3af	0.049777683
92	0x3c005e09	0.00783492
93	0xbccf4857	-0.025303049
94	0xbd7a680f	-0.061134394
95	0xbced48c8	-0.028965369
96	0x3b0660bf	0.0020504443
97	0x3d08a5fc	0.03336142
98	0xbd7783fe	-0.060428612
99	0xbda320d2	-0.07965244
100	0x3b483bc3	0.00305532
101	0x3c68524f	0.01417978
102	0xbcb8ecff	-0.022573946
103	0x3cdedbe5	0.027204463
104	0x3d660d3e	0.056164972
105	0xbda6ffea	-0.081542805
106	0xbd9688dc	-0.073503226
107	0x3d98f290	0.0746814
108	0x3d62f60f	0.05541044
109	0xbd781074	-0.060562566
110	0xbcba0e29	-0.02271183
111	0xbcfa046f	-0.030519692
112	0xbcbbb9bd	-0.022915715
113	0x3d326294	0.043551043
114	0x3d5e7c47	0.05431774
115	0x3ca22249	0.019791739
116	0xbd663b62	-0.056208976
117	0xbd8a8f6d	-0.067656375
118	0xbc099d9b	-0.0083993925
119	0x3da6115d	0.081087805
120	0x3d092045	0.03347804
121	0xbc68de67	-0.014213181
122	0xbc6c831f	-0.014435559
123	0x3dad18e9	0.08452017
124	0x3d529ebf	0.051420923
125	0xbd158890	-0.03650719
126	0xbd6789b0	-0.056527793
127	0xba2740bb	-0.000638019
128	0xbcec7709	-0.028865354
129	0xbda95cd5	-0.082696594
130	0xbb8c6a91	-0.0042851646
131	0x3b6c29ce	0.003603566
132	0xba1e365e	-0.0006035323
133	0xbc6a8a8f	-0.0143152615
134	0x3d5f2f3b	0.0544884
135	0xbcc4629b	-0.0239728
136	0xbc8ef3ac	-0.017450176
137	0x3c81e703	0.015857225
138	0x3d94ebec	0.07271561
139	0xbd0e5ea9	-0.034758244
140	0x3c2faeb0	0.010722801
141	0xbd5f0fb9	-0.054458354
142	0xbcec4c8b	-0.028845092
143	0x3b7b7788	0.0038370807
144	0x3d4ca32a	0.049960293
145	0xbd6b4b3e	-0.057444803
146	0x3d49fec6	0.049315237
147	0x3d3d46de	0.046210162
148	0x3dabb025	0.08383206
149	0x3b159b61	0.0022828209
150	0xbda01ac8	-0.07817608
151	0x3d39addf	0.045331832
152	0xbd0285f4	-0.03186603
153	0xbc678dc7	-0.014132923
154	0x3d26f92e	0.04076498
155	0xbcf41454	-0.02979485
156	0x3d5448e9	0.051827345
157	0xbc1ec67c	-0.009690877
158	0xbcb6df10	-0.022323161
159	0x3d32ff91	0.04370076
160	0xbcea9e6c	-0.028639995
161	0xbcd592c7	-0.026070965
162	0x3cb5085a	0.022098709
163	0x3d852a38	0.06502193
164	0xbd73637a	-0.05942104
165	0xbd433e24	-0.047666684
166	0xbd3ed227	-0.046587136
167	0xbcee6d48	-0.029104844
168	0x3c597596	0.013272664
169	0x3c62300c	0.013805401
170	0xbd0f19ad	-0.034936596
171	0xbd6e89da	-0.058236934
172	0x3da55f4a	0.080748156
173	0x3d1e8ab1	0.038706485
174	0x3d9f194e	0.07768498
175	0x3da72bd6	0.08162658
176	0x3d4e7356	0.05040296
177	0xbd451a96	-0.048121057
178	0xbcd413c5	-0.025888333
179	0xbcd7a03f	-0.026321528
180	0xbd38e705	-0.045142192
181	0x3dab3b9b	0.08360978
182	0xbd00ca14	-0.031442717
183	0x3c438ece	0.011935903
184	0x3cc9021b	0.024537137
185	0xbdaa7e0b	-0.08324822
186	0xbc7aa388	-0.015297778
187	0x3c69a7e3	0.014261219
188	0x3cd1cf8b	0.02561166
189	0xbd908ffc	-0.07058713
190	0x3d7800cc	0.060547635
191	0x3b5664be	0.0032713856
192	0xbd873a92	-0.06602968
193	0x3cd73727	0.026271416
194	0x3d404be4	0.046947375
195	0xbd1ac03e	-0.037780993
196	0xbb6c469f	-0.0036052836
197	0x3d9154ea	0.07096274
198	0xbbcc7329	-0.006239314
199	0xbc9c6627	-0.019091679
200	0xbd658c1e	-0.05604183
201	0x3d087a17	0.03331956
202	0x3d19bbd1	0.03753263
203	0x3d4b17ea	0.049583353
204	0xbc102102	-0.008796932
205	0xbcc91762	-0.024547283
206	0xbcd35353	-0.025796568
207	0xbd608eb0	-0.054823577
208	0x3d57ff32	0.052733608
209	0x3d3555a9	0.044271145
210	0x3cac7b97	0.021055026
211	0xbd2aa662	-0.04166258
212	0x3d2e7c47	0.04259899
213	0x3d74da27	0.05977836
214	0xbd1058c8	-0.03524092
215	0xbdaf9e15	-0.08575074
216	0xbbde96d1	-0.006792881
217	0xbd8472b3	-0.0646719
218	0x3b9daced	0.004811874
219	0xbda6c627	-0.08143263
220	0xbd81c4f7	-0.06336396
221	0xbd9596c4	-0.07304147
222	0x3c1ac929	0.009447374
223	0xbc44c025	-0.012008701
224	0xbd951ec3	-0.07281258
225	0x3d3f1adf	0.046656486
226	0xbcd924d8	-0.026506826
227	0xbd8aa9c5	-0.06770662
228	0x3c3c2204	0.011482719
229	0x3c4c57d9	0.012472116
230	0xbd83bb3a	-0.06432195
231	0x3da67abd	0.08128879
232	0x3d5172a6	0.051134728
233	0x3d9e9021	0.07742334
234	0x3c39ce5e	0.011340706
235	0x3d1d6dba	0.03843472
236	0xbcf2d61c	-0.02964311
237	0xbc7eb33e	-0.015545664
238	0xbc52c992	-0.012865441
239	0x3c84798c	0.01617124
240	0xbda2838a	-0.07935245
241	0x3b97f7c7	0.0046376917
242	0xbc775a1e	-0.015097169
243	0xbda48465	-0.08033065
244	0x3d8e037f	0.069342606
245	0xbd2227fc	-0.039588913
246	0x3d0b3f68	0.033996016
247	0xbd40ef55	-0.047103245
248	0x3d892f7b	0.06698509
249	0xbc59c912	-0.013292568
250	0x3da24e2b	0.079250656
251	0xbc8554d1	-0.016275795
252	0x3cce0f45	0.025153765
253	0xbdb29464	-0.087197095
254	0xbc82e1db	-0.015976837
255	0xbd3fceb6	-0.046827994

embed.1.bias f4 [128]
0	0x3d894ea9	0.06704456
1	0xbd7c2a5a	-0.061563827
2	0x3d2f8e7e	0.0428605
3	0xbd315639	-0.04329512
4	0xbcaae0a7	-0.020859076
5	0x3d3720b1	0.04470891
6	0x3cc323f7	0.02382086
7	0x3d8242db	0.06360408
8	0xbd924501	-0.07142068
9	0xbda5706a	-0.08078082
10	0xbd38128c	-0.044939563
11	0xbdb333a1	-0.08750082
12	0x3cc4e2d0	0.024033934
13	0xbd9caf51	-0.076506265
14	0x3d4e3270	0.05034107
15	0xbca18ea7	-0.019721342
16	0xbd50105a	-0.050796844
17	0x3c7e1688	0.015508302
18	0xbd7125d9	-0.058873985
19	0x3d483c97	0.048885908
20	0x3d043c7e	0.032284252
21	0x3ba03749	0.004889403
22	0x3c55c495	0.013047357
23	0x3c295983	0.010336283
24	0xbd5cd354	-0.053912476
25	0xbd4aa461	-0.04947317
26	0xbd94b9c7	-0.07261997
27	0x3d2b2a42	0.041788347
28	0x3d1f3ed4	0.038878277
29	0xbd2b9579	-0.041890595
30	0x3c7f913b	0.0155985905
31	0xbd84c9a3	-0.06483772
32	0xbdaaac69	-0.08333666
33	0xbd5c7456	-0.053821884
34	0x3da848d5	0.082170166
35	0x3d6d6b0b	0.057963412
36	0x3d8538eb	0.06504997
37	0x3da0e599	0.07856292
38	0x3d9dd837	0.07707255
39	0x3d040bc8	0.032237798
40	0xbd254791	-0.040351454
41	0x3ca3c1e8	0.019989923
42	0x3bb22918	0.0054370277
43	0xbd8faaae	-0.070149764
44	0xbdaf0879	-0.08546538
45	0x3d9d62b6	0.07684843
46	0xbd1b5295	-0.037920553
47	0xba4f1e67	-0.00079009536
48	0xbd5f1290	-0.054461062
49	0xbcd2cfe4	-0.025733896
50	0xbd56c464	-0.052433386
51	0x3da60834	0.08107033
52	0xbd684dab	-0.056714695
53	0x3dab9a28	0.08379012
54	0x3cd44f85	0.025916824
55	0x3daec860	0.08534312
56	0x3d8dbcee	0.06920801
57	0xbd44e158	-0.048066467
58	0xbcb7ce82	-0.022437338
59	0x3da3affb	0.0799255
60	0xbd82827b	-0.063725434
61	0xbda8df3d	-0.08245704
62	0x3c0a96af	0.008458777
63	0x3d2947a3	0.041328084
64	0x3db1eca1	0.086877115
65	0x3d2e8fbf	0.042617556
66	0xbbe02e77	-0.0068414765
67	0xbcba7d11	-0.022764714
68	0x3d91f514	0.07126823
69	0xbd9dcabd	-0.07704685
70	0x3d8c30d5	0.068452515
71	0xbd838253	-0.06421342
72	0xbdb2b4cc	-0.087258905
73	0xbd8ca73b	-0.06867834
74	0x3baad98f	0.0052139233
75	0xbd0f7c30	-0.035030544
76	0xbce59a79	-0.02802776
77	0x3d10977b	0.035300713
78	0x3c6a1982	0.014288308
79	0x3d6ac654	0.057318047
80	0xbdb22893	-0.08699145
81	0xbc7c1b0d	-0.015387309
82	0x3d3cfc1a	0.04613886
83	0x3d55ad0d	0.052166987
84	0xbd9e57b9	-0.077315755
85	0x3cd23b06	0.02566291
86	0xbc8d165a	-0.017222572
87	0x3d497445	0.04918315
88	0x3daa4497	0.08313864
89	0xbd9e818c	-0.07739553
90	0x3d8311c3	0.06399872
91	0xbd844d94	-0.06460109
92	0xbcbea932	-0.023274038
93	0x3cd70153	0.026245749
94	0xbda89dc8	-0.082332194
95	0xbd869b26	-0.06572561
96	0x3db46607	0.08808523
97	0x3c50e5d2	0.012750106
98	0xbd282de6	-0.041059397
99	0xbd34b5da	-0.04411874
100	0x3d8391b9	0.06424279
101	0x3da56ad4	0.080770165
102	0xbd034b8c	-0.03205447
103	0x3d8cbd73	0.06872072
104	0xbc5577e8	-0.013029076
105	0x3db2d016	0.087310955
106	0xbd2827ee	-0.041053705
107	0x3c033c96	0.00801005
108	0x3d317977	0.04332873
109	0xbc84cd73	-0.016211247
110	0x3d129335	0.03578492
111	0x3d95fa23	0.073231004
112	0x3d0c9def	0.034330305
113	0x3a9b4602	0.0011846425
114	0x3ce43a1c	0.02785974
115	0xbd7b49a5	-0.06134953
116	0xbd688c8c	-0.05677466
117	0xbc088ae5	-0.008333896
118	0x3d3fa9c3	0.046792757
119	0x3d40d139	0.04707453
120	0xbc91c8ad	-0.017795885
121	0x3d94f8f3	0.07274046
122	0x3cb79152	0.022408161
123	0xbd2c0dc2	-0.042005308
124	0x3cb89a39	0.022534477
125	0xbcab2916	-0.020893615
126	0xbcd8700c	-0.026420616
127	0x3b747704	0.0037302384

embed.3.weight f4 [256, 128]
0	0xbd94dcb6	-0.0726866
1	0xbc01bfdb	-0.007919277
2	0xbd0c014c	-0.034180924
3	0xbc3f00f7	-0.011657945
4	0xbd02de74	-0.03195043
5	0x3b8f117b	0.0043660975
6	0xbce0a449	-0.027422087
7	0xbd72c1a0	-0.059266686
8	0xbcc7d8ad	-0.024395311
9	0x3c7a867f	0.015290855
10	0xbd75ace2	-0.059979327
11	0xbd5e8c28	-0.054332882
12	0xbcd71c10	-0.026258498
13	0xbcdb5a99	-0.026776599
14	0x3cb95bfe	0.022626873
15	0x3c504eb9	0.012714081
16	0x3da3eba5	0.0800393
17	0x3d5f5b92	0.054530688
18	0xbaaf3bea	-0.0013369296
19	0xbd681d2a	-0.056668438
20	0xbd115195	-0.035478193
21	0x3d98843a	0.07447095
22	0xbd811620	-0.06303048
23	0xbd9060ab	-0.07049688
24	0x3d9711a0	0.073764086
25	0xbc841a55	-0.016125837
26	0x3c1124a6	0.008858835
27	0x3d2510b9	0.04029915
28	0xbdb2235c	-0.086981505
29	0x3cb96a88	0.022633806
30	0xbd7d569b	-0.06185017
31	0x3d4c4fb7	0.04988071
32	0xbdb45729	-0.08805687
33	0xbc8aca8c	-0.016942285
34	0x3d3b5f49	0.045745168
35	0x3c935e55	0.017989317
36	0x3d6c24a8	0.057652146
37	0xbd172937	-0.03690454
38	0x3b6f3153	0.0036497905
39	0x3d94f7fa	0.0727386
40	0x3cc2e5da	0.023791242
41	0x3da12d12	0.078699246
42	0x3d0fa158	0.03506598
43	0x3cfd2f60	0.03090638
44	0xbcaab5f6	-0.020838719
45	0xbc974a89	-0.018468158
46	0xbc46e98b	-0.012140642
47	0xbd3c1b9b	-0.045924764
48	0x3c7a396c	0.0152724795
49	0x3c6eb3a3	0.014569196
50	0xbd0efc36	-0.034908496
51	0xbcfc2383	-0.030778652
52	0x3d3b7c4f	0.045772847
53	0x3da3fc22	0.08007075
54	0x3b8a138f	0.0042137573
55	0xbca4bb73	-0.020108914
56	0xbd68365e	-0.056692474
57	0xbda7b329	-0.08188469
58	0xbc0dc9e9	-0.008654096
59	0xbcad9fd3	-0.021194374
60	0xbd417047	-0.047226217
61	0x3d49de4d	0.04928427
62	0xbda4fe76	-0.08056347
63	0xbd32911b	-0.043595415
64	0xbda9616f	-0.08270537
65	0xbd807c64	-0.06273726
66	0xbd6fcba4	-0.058543816
67	0xbd439821	-0.047752503
68	0xbd9694ee	-0.07352625
69	0x3cb6ca29	0.022313194
70	0x3d9ee97a	0.07759376
71	0xbd675905	-0.05648138
72	0xbcb7c8da	-0.02243464
73	0xbd7079d5	-0.058709938
74	0xbd912ec9	-0.07089002
75	0x3d93fa53	0.0722548
76	0xbda0e691	-0.07856477
77	0xbd9782b2	-0.07397975
78	0x3c9efbf6	0.019407254
79	0xbd4b6207	-0.049654033
80	0x3da8fe1d	0.08251593
81	0x3d5db2f4	0.05412574
82	0xbabef8a8	-0.0014569955
83	0xbc158c0b	-0.009127627
84	0x3cd83999	0.026394652
85	0x3d16e903	0.03684331
86	0xbd9834dd	-0.07431958
87	0xbda77fc4	-0.08178666
88	0xbc8a1e2b	-0.016860088
89	0x3b0bd4c0	0.0021336526
90	0xbdb0bb70	-0.08629501
91	0x3d63bfd9	0.055602882
92	0x3d466ce7	0.0484437
93	0xbd3692e2	-0.044573672
94	0x3c719e4c	0.014747214
95	0x3b091dd7	0.0020922327
96	0xbd0a28e5	-0.033730406
97	0x3da7999c	0.081835955
98	0xbd880b70	-0.066428065
99	0x3d5e9444	0.054340616
100	0x3b9d6253	0.004802981
101	0xbd3aad4e	-0.045575432
102	0x3d58d95a	0.052941658
103	0x3da98633	0.082775496
104	0x3d9af8f9	0.07567019
105	0xbd6a912d	-0.057267357
106	0xbda39b25	-0.07988576
107	0x3d0ffc29	0.035152588
108	0xbd3b65d0	-0.045751393
109	0x3bbd278e	0.0057725376
110	0xbd4f77cb	-0.050651353
111	0xbc901e88	-0.017592683
112	0xba240de6	-0.00062581745
113	0xbc2048c9	-0.009782978
114	0x3d1e475c	0.038642272
115	0x3d43140c	0.04762654
116	0x3cdc3490	0.026880533
117	0xbcab78c5	-0.02093161
118	0xbd43a45d	-0.04776417
119	0xbd81591f	-0.063158266
120	0xbd2b6f5e	-0.041854255
121	0x3db410e7	0.08792286
122	0x3d797be5	0.06090917
123	0x3da07068	0.0783394
124	0xbcd0746b	-0.025446137
125	0xbcad84e4	-0.021181531
126	0xbd3ccb94	-0.046092585
127	0x3d5f4eaa	0.05451838
128	0xbd2a4029	-0.041565094
129	0xbd9c6b5d	-0.076376654
130	0x3d887beb	0.066642605
131	0xbda0c073	-0.07849207
132	0xbd8be387	-0.06830507
133	0x3d3208cf	0.04346543
134	0xbd39d71e	-0.045371167
135	0xbda96658	-0.08271474
136	0x3d70c230	0.05877894
137	0xbd23e609	-0.0400143
138	0xbd794c6b	-0.060863893
139	0xbce063eb	-0.027391395
140	0xbd9c10c1	-0.07620383
141	0xbd179640	-0.037008524
142	0x3da693e6	0.08133678
143	0xbc8610aa	-0.016365368
144	0xbc4350a0	-0.011921078
145	0x3d54f6bd	0.05199312
146	0xbd17119d	-0.03688203
147	0x3d845c68	0.064629376
148	0x3cca3ddf	0.024687706
149	0xbd3d3dd4	-0.046201542
150	0xbcd2d09f	-0.025734244
151	0x3ce99208	0.028512016
152	0xbd281227	-0.041032936
153	0xbc09082f	-0.0083637675
154	0x3ac81fa7	0.0015268222
155	0x3d8fa5e8	0.07014066
156	0xbdb135a1	-0.08652807
157	0xbbfbc7b3	-0.007683718
158	0xbd956674	-0.07294932
159	0xbc6de2dd	-0.01451942
160	0xbc966783	-0.018359905
161	0xbcaabdb7	-0.020842416
162	0x3d3363a0	0.04379618
163	0x3baf0f1a	0.0053423764
164	0xbd572f2d	-0.052535225
165	0x3d5a580a	0.053306617
166	0xbd44cb7d	-0.048045624
167	0xbc232f34	-0.009959985
168	0xbcfa566f	-0.030558793
169	0xbd13979f	-0.03603327
170	0xbcc465b9	-0.023974286
171	0x391dd9bd	0.000150538
172	0x3cc258a7	0.023723913
173	0xbbe61e20	-0.007022634
174	0x3d810718	0.06300181
175	0xbc99cba9	-0.01877387
176	0x3cc3ab39	0.023885356
177	0x3d774cbd	0.060375918
178	0xbd61fb55	-0.05517133
179	0xbd1b15a3	-0.03786243
180	0x3c9532c5	0.018212685
181	0xbcfa4bb8	-0.030553684
182	0xbd8e173e	-0.06938027
183	0x3da40cf3	0.08010282
184	0xbceddb10	-0.029035121
185	0x3d99633b	0.0748963
186	0xbce876ae	-0.028376903
187	0x3d19ecc9	0.03757933
188	0xbd82b68d	-0.06382475
189	0xbca206f9	-0.019778715
190	0xbd90a064	-0.07061842
191	0xbccd8dce	-0.025092032
192	0xbb1edb4d	-0.00242396
193	0x3d7c77db	0.06163774
194	0x3d161d08	0.03664878
195	0xbd53ebaf	-0.051738437
196	0xbd0cc9a1	-0.034371976
197	0xbc28826b	-0.010285
198	0x3be4b27f	0.006979286
199	0x3d935180	0.07193279
200	0x3d047096	0.032333933
201	0xbdabeac7	-0.083943896
202	0xbd942e8a	-0.07235439
203	0xbd2983f3	-0.041385602
204	0xbd1419c6	-0.036157392
205	0xbcb5252b	-0.02211245
206	0x3d58e46c	0.052952215
207	0x3d38e0c1	0.045136217
208	0x3d9cf6c3	0.076642536
209	0x3c90ef70	0.017692298
210	0xbcee409f	-0.029083548
211	0xbd5f7af0	-0.0545606
212	0x3d23fd2f	0.040036377
213	0xbd3f42f2	-0.046694703
214	0xbd8f598f	-0.06999504
215	0x3d27d83a	0.040977694
216	0x3dad30b3	0.08456554
217	0xbd991cff	-0.07476234
218	0x3d6f3a32	0.05840511
219	0xbabdbcef	-0.0014475862
220	0xbd58fd23	-0.052975785
221	0x3da6df93	0.08148112
222	0x3d90c2b5	0.070683874
223	0xbd74f8d9	-0.059807632
224	0xbd82e03e	-0.06390427
225	0xbb8cc00a	-0.004295354
226	0x3db4dddf	0.08831381
227	0x3d5ead1d	0.054364312
228	0x3c5dd7fd	0.013540265
229	0x3c96be00	0.018401146
230	0x3d61d5b1	0.055135433
231	0xbb3088f6	-0.0026937104
232	0xbc795eb4	-0.015220333
233	0xbd94089a	-0.07228203
234	0xbd672085	-0.056427497
235	0xbcead769	-0.028667169
236	0x3d9cdafe	0.07658957
237	0x3dab4da4	0.08364418
238	0x3d6bac37	0.057537284
239	0xbd44e5e8	-0.04807082
240	0x3c5223e3	0.012825939
241	0xbd02c26f	-0.031923708
242	0x3cf7a24a	0.030228753
243	0x3d1c50e5	0.038163085
244	0x3d4fd601	0.0507412
245	0x3d06c3ed	0.032901693
246	0xbcf9b5ec	-0.030482255
247	0xbb4f3dde	-0.003162257
248	0xbd3a481f	-0.045478936
249	0xbc57b31e	-0.013165263
250	0x3ce8c350	0.028413445
251	0x3c571a84	0.01312888
252	0xbd83573b	-0.06413122
253	0x3d3af442	0.0456431
254	0x3d7861e4	0.06064023
255	0xbd911b26	-0.07085256

embed.3.bias f4 [256]
0	0xbd25020a	-0.040285148
1	0xbd6d02f7	-0.057864156
2	0xbd9bbe77	-0.07604688
3	0x3c63e0ed	0.013908607
4	0x3d42acf6	0.04752823
5	0xbd94bc4a	-0.07262476
6	0xbcb1e98b	-0.021717807
7	0x3d605405	0.054767627
8	0x3cc68d93	0.02423743
9	0x3d55aae5	0.05216493
10	0x3ca9322e	0.02065381
11	0x3ab269cb	0.0013611851
12	0xbdb49054	-0.08816591
13	0xbd94adb5	-0.072596945
14	0xbdb141d5	-0.086551346
15	0xbcd069c5	-0.02544106
16	0x3b794561	0.0038035738
17	0x3c9d96eb	0.019237002
18	0xbcd17426	-0.02556808
19	0x3c425e43	0.011863294
20	0x3d072a42	0.032999285
21	0x3d5f2933	0.05448265
22	0x3db07f15	0.08617989
23	0x3d1913de	0.037372462
24	0x3cd26091	0.025680812
25	0xbcb2ca07	-0.02182485
26	0xbd0cfe90	-0.034422457
27	0x3d6cb3e4	0.057788745
28	0xbd8172b2	-0.063207045
29	0x3d862a00	0.065509796
30	0xbd9ad614	-0.075603634
31	0xbd9a3b40	-0.07530832
32	0xbd29142f	-0.041279014
33	0x3d1a8851	0.037727658
34	0x3da161cf	0.07879984
35	0xbd1e05b9	-0.038579676
36	0xbd0155e3	-0.03157605
37	0xbd47ff0a	-0.04882721
38	0x3d28e5de	0.041234843
39	0xbd8ace7b	-0.06777664
40	0x3ce5d2bb	0.028054586
41	0xbd90a3d3	-0.07062497
42	0xbb3f4c45	-0.0029189747
43	0x3d344583	0.044011604
44	0x3ce61dcb	0.028090378
45	0x3d493c68	0.049129874
46	0xbd07d1a5	-0.033158917
47	0x3da98637	0.082775526
48	0xbd9b39cf	-0.075793855
49	0xbcad356e	-0.021143641
50	0x3d8d52c1	0.0690055
51	0x3da21f84	0.079161674
52	0x3d06f73f	0.032950636
53	0x3d64e557	0.055882778
54	0x3d7df5d1	0.062002007
55	0xbc96ff46	-0.01843227
56	0x3d9e6c98	0.07735556
57	0xbb2a634c	-0.0025999127
58	0x3d8d087f	0.06886386
59	0xbda39284	-0.0798693
60	0x3d023295	0.03178652
61	0x3dae4ae1	0.08510376
62	0xbcdc6a5e	-0.026906189
63	0x3cdd7c3d	0.02703678
64	0xbcc0ac74	-0.023519732
65	0xbd83befd	-0.064329125
66	0x3d8e0e60	0.069363356
67	0x3c90ad4d	0.017660761
68	0x3d83acda	0.06429453
69	0x3ca7168c	0.020396493
70	0x3c282799	0.010263347
71	0x3d6d6c42	0.05796457
72	0x3cc35a70	0.023846835
73	0xbbaa46a8	-0.005196411
74	0xbd9ee584	-0.077586204
75	0xbd7cc272	-0.061708875
76	0x3d4edbde	0.05050265
77	0xbda0674f	-0.078322046
78	0x3d9157aa	0.07096799
79	0x3d125c87	0.035732772
80	0xbcad5534	-0.021158792
81	0x3db3d18c	0.08780202
82	0x3ceb5fb5	0.02873216
83	0x3d917fa1	0.071044214
84	0xbd8050ca	-0.06265409
85	0xbd39fa5c	-0.045404777
86	0xbda0b31e	-0.07846664
87	0x3d208418	0.039188474
88	0x3c7aee65	0.015315627
89	0xbb44daf8	-0.0030037742
90	0xbb7ae7a2	-0.0038285037
91	0x3d1337cc	0.035941884
92	0xbd0d38e3	-0.03447808
93	0x3d99067c	0.0747194
94	0xbcf000c0	-0.029297233
95	0xbd45917b	-0.048234444
96	0x3d7e30e2	0.062058337
97	0x3d848f7c	0.0647268
98	0x3d25d61e	0.0404874
99	0xbd117964	-0.035516158
100	0x3d69f014	0.057113722
101	0x3d45a82a	0.048256077
102	0xba186db0	-0.00058146846
103	0x3ba6848d	0.0050817193
104	0x3d051a37	0.032495704
105	0xbcae0d08	-0.021246448
106	0x3d4efb72	0.050532766
107	0xbd47053b	-0.048588973
108	0x3c58d69f	0.013234763
109	0x3d0fc4c1	0.03509975
110	0xbcecc6a7	-0.028903319
111	0xbc819f43	-0.015823012
112	0x3d373f1c	0.04473792
113	0xbc4195cd	-0.0118155
114	0xbd1093bc	-0.03529714
115	0x3d38eb62	0.045146354
116	0xbda81ad2	-0.082082406
117	0x3d30dd5c	0.043179855
118	0xbd4835a9	-0.0488793
119	0x3d723785	0.05913498
120	0x3d9179e8	0.0710333
121	0xbc0c327c	-0.008556958
122	0xbd1dd609	-0.038534198
123	0xbd4f2d29	-0.050580177
124	0x3d038cc1	0.032116655
125	0xba4afd47	-0.000774343
126	0xbd998af2	-0.07497205
127	0xbc4adc38	-0.012381606
128	0x3d63e4fe	0.055638306
129	0xbd0a2f91	-0.03373677
130	0x3db2d1d5	0.087314285
131	0xbbee68af	-0.007275663
132	0x3d6b6ea2	0.057478555
133	0xbd5b4497	-0.05353221
134	0x3d61b96b	0.05510847
135	0xbd0215d8	-0.031759113
136	0x3cf75487	0.030191673
137	0xbd012e1d	-0.031538118
138	0xbda55681	-0.0807314
139	0x3daab017	0.08334368
140	0x3d436921	0.04770768
141	0xbd8c4660	-0.068493605
142	0x3daf85a6	0.08570413
143	0x3c2fe31a	0.010735298
144	0xbd807c5a	-0.06273718
145	0x3cddd008	0.027076736
146	0x3cdde189	0.027085083
147	0xbd6e5482	-0.05818606
148	0x3cbcea5e	0.023060974
149	0xbd8d59c8	-0.0690189
150	0x3d509451	0.050922696
151	0x3d6af3ed	0.057361532
152	0x3b626df6	0.0034550405
153	0xbd8dd0a5	-0.069245614
154	0x3d99e9af	0.07515275
155	0x3c9f194e	0.019421246
156	0xbcae12b5	-0.021249155
157	0xbd89f00d	-0.06735239
158	0x3c8b78b7	0.017025335
159	0xbd2c4613	-0.042059015
160	0xbd7b70c8	-0.061386853
161	0x3af26d59	0.0018495723
162	0xbd9cf4d1	-0.076638825
163	0xbd2e3339	-0.04252932
164	0xbd977782	-0.07395841
165	0x3d1b85f5	0.03796955
166	0x3d84763c	0.06467864
167	0x3d47a408	0.048740417
168	0x3d963e4f	0.07336103
169	0xbd973016	-0.073822185
170	0x3da20144	0.07910398
171	0x3bd1975a	0.0063962163
172	0xbd838729	-0.06422264
173	0xbc56a4df	-0.013100832
174	0xb9eeeb52	-0.00045570225
175	0xbcff3b9b	-0.031156352
176	0xbd94301d	-0.072357394
177	0xbda3ce0e	-0.07998286
178	0x3d8b3329	0.067968674
179	0xbb28fb61	-0.00257846
180	0x3d8491a5	0.06473092
181	0x3baa7b9a	0.0052027227
182	0xbd12020a	-0.035646476
183	0xbd88b97b	-0.066760026
184	0x3c72a064	0.014808748
185	0xbdb4fcfa	-0.08837314
186	0x3d3749cb	0.04474811
187	0xbda4ec23	-0.08052852
188	0xbaf1e42b	-0.001845484
189	0xbd8b057f	-0.06788158
190	0x3b96d6ed	0.004603258
191	0xbd83d74d	-0.0643755
192	0x3d350835	0.04419728
193	0x3d8bef66	0.06832771
194	0x3c60ad9d	0.013713268
195	0xbd955f9c	-0.07293627
196	0xbc8c6ca0	-0.01714164
197	0xbd21b550	-0.039479554
198	0xbd666087	-0.0562444
199	0x3caffea8	0.021483734
200	0x3bd513e5	0.0065026158
201	0x3d8be08e	0.0682994
202	0xbd313404	-0.043262497
203	0x3d497eee	0.049193315
204	0xbc65a2f5	-0.014015903
205	0xbb4c047f	-0.003113061
206	0xbb7c8386	-0.0038530543
207	0xbd27857c	-0.040898785
208	0x3a722046	0.00092363765
209	0xbdafeba4	-0.08589867
210	0x3cf481dd	0.02984708
211	0xbd8c4994	-0.068499714
212	0xbd7a9d39	-0.061185095
213	0xbd437ee5	-0.047728438
214	0x3d729f05	0.059233684
215	0x3d128bdf	0.035777923
216	0x3d6beb04	0.057597175
217	0x3c974371	0.018464776
218	0xbd82129c	-0.06351206
219	0xbc861c77	-0.016370995
220	0x3af77ff3	0.0018882736
221	0x3d64e275	0.05588003
222	0x3d887d13	0.06664481
223	0xbc7a407e	-0.015274165
224	0xbd9ea950	-0.077471375
225	0xbd82763a	-0.06370206
226	0x3c8ca980	0.017170668
227	0x3d556706	0.052100204
228	0x3d174b19	0.036936853
229	0x3da246cd	0.079236604
230	0xbc45018d	-0.0120242955
231	0xbd9125cf	-0.070872895
232	0xbc8fead9	-0.017568039
233	0xbd7cb47e	-0.06169557
234	0x3da07fc8	0.07836872
235	0xbd663902	-0.05620671
236	0x3da1cdbc	0.07900569
237	0xbcf2d4c3	-0.029642468
238	0x3bdbedb2	0.006711685
239	0x3c2ce093	0.01055159
240	0x3d19ef78	0.03758189
241	0xbcdc1b38	-0.026868448
242	0xbb1ebc8b	-0.0024221267
243	0xbca04162	-0.019562427
244	0x3b723d9e	0.0036962996
245	0x3da7da21	0.08195902
246	0x3cf47f1a	0.029845763
247	0x3c9fe5b4	0.01951871
248	0x3c3fe4b2	0.01171224
249	0x3d6fb1b0	0.058519065
250	0xbd70d22d	-0.05879419
251	0xbda53152	-0.08066048
252	0xbc1316f0	-0.008977637
253	0x3d705b70	0.05868095
254	0xbcc0f1e2	-0.023552839
255	0x3d9b5ac6	0.07585673

conv_spatial.mlp.0.weight f4 [256, 2]
0	0xb887bc6f	-6.4724e-05
1	0x37aad930	2.0366715e-05
2	0x3deffe8c	0.11718473
3	0x3d5ba93b	0.053628188
4	0xb7132539	-8.770549e-06
5	0xb7003679	-7.642077e-06
6	0x3d93abca	0.072105005
7	0xbdae44f1	-0.08509243
8	0xbdb8a80c	-0.090164274
9	0xbe2f2ba1	-0.17106487
10	0x38c6f0fc	9.4862626e-05
11	0x391827fa	0.00014510742
12	0x365d04be	3.2934327e-06
13	0x3708b3d2	8.148099e-06
14	0xbda09324	-0.07840565
15	0x3d139c26	0.036037587
16	0x391933d8	0.0001461053
17	0x38a9b898	8.092931e-05
18	0x397e4f95	0.00024252974
19	0x3948e34c	0.00019158161
20	0x390ce568	0.00013436901
21	0x394364fc	0.00018634269
22	0x393e39c7	0.00018141336
23	0xb815de67	-3.5731497e-05
24	0xb8d298aa	-0.00010042016
25	0xb8e29934	-0.00010805056
26	0xbd60417b	-0.054749947
27	0xbd692daa	-0.056928314
28	0xb8cfd945	-9.910999e-05
29	0xb88f5474	-6.834502e-05
30	0xbe39e7e4	-0.18154866
31	0x3cba4e23	0.022742337
32	0xb7f01c5c	-2.8623435e-05
33	0x37ab3b63	2.0412443e-05
34	0xb85b4c5d	-5.2284788e-05
35	0xb8eb95a0	-0.00011233543
36	0x38140ffb	3.5300833e-05
37	0x386ea3ce	5.6896177e-05
38	0xb8999545	-7.323412e-05
39	0xb8b216c8	-8.491945e-05
40	0xb8af2d16	-8.353048e-05
41	0xb8e00ec0	-0.000106839
42	0x3e4e2489	0.20131125
43	0x3bdaad24	0.006673472
44	0x38635ec9	5.4209293e-05
45	0x37aafbdf	2.0382866e-05
46	0xbd9860eb	-0.07440361
47	0xbd455801	-0.04817963
48	0xb8eda385	-0.000113314985
49	0xb92f4300	-0.0001671426
50	0x3dd1b2e9	0.102392025
51	0x3db9e9c1	0.09077788
52	0xb803b755	-3.1403575e-05
53	0x3891ad6f	6.946443e-05
54	0x39085298	0.0001300074
55	0x3914e818	0.00014200842
56	0x38b47b00	8.6059794e-05
57	0x3867e363	5.5286462e-05
58	0x3686f31e	4.0218138e-06
59	0xb8ca6021	-9.650016e-05
60	0x3869a1d3	5.570224e-05
61	0x3850f2b0	4.9817085e-05
62	0xb7ace431	-2.0610258e-05
63	0xb7bfc3e8	-2.28602e-05
64	0xb837c01c	-4.3809516e-05
65	0xb7e71cce	-2.755076e-05
66	0x36404e02	2.8655636e-06
67	0xb76ac337	-1.3992939e-05
68	0x38183061	3.628468e-05
69	0x372ffe29	1.0489989e-05
70	0x388dbd36	6.758647e-05
71	0x3878fb00	5.936157e-05
72	0x39116533	0.00013865977
73	0x38861073	6.392682e-05
74	0xb809212c	-3.269424e-05
75	0x37e6c05c	2.7507711e-05
76	0xb87e6984	-6.0656588e-05
77	0xb84821a9	-4.7715064e-05
78	0xbd3e2934	-0.046426013
79	0x3d5ebaa5	0.054377217
80	0x3e079226	0.13239345
81	0x3d8d4fbc	0.06899974
82	0x38bdaabc	9.044024e-05
83	0x38f10b26	0.00011493852
84	0xb945881b	-0.00018838087
85	0xb9444203	-0.00018716608
86	0xb8bc4ca3	-8.978813e-05
87	0xb8b25ff1	-8.505572e-05
88	0x381cc7ea	3.7379483e-05
89	0x3801a0da	3.09058e-05
90	0x3a6011c4	0.0008547569
91	0xbdee86c4	-0.11646798
92	0xb8c5e651	-9.436592e-05
93	0xb944802f	-0.00018739769
94	0x383cf1aa	4.504776e-05
95	0xb8adc983	-8.286817e-05
96	0xb7a1cc90	-1.9287952e-05
97	0xb9648620	-0.0002179374
98	0x3df876de	0.12132047
99	0xbde71830	-0.1128391
100	0x371040bf	8.598144e-06
101	0xb8bb7f9e	-8.9406254e-05
102	0x3923ed2c	0.00015633245
103	0x3914737b	0.000141574
104	0xb808585b	-3.2507214e-05
105	0xb78a3e9c	-1.6480037e-05
106	0xbf769020	-0.9631367
107	0xbf5cc854	-0.86243176
108	0x3950da36	0.00019917716
109	0x38e054af	0.00010696926
110	0xbd7b8baa	-0.06141249
111	0xbd8c5e0a	-0.06853874
112	0x3852d9b6	5.027066e-05
113	0x383e7048	4.54041e-05
114	0xb7cc682c	-2.4367204e-05
115	0x38a9e249	8.100697e-05
116	0x3e3a945f	0.18220662
117	0x3bccc139	0.00624862
118	0x3d828f33	0.06374969
119	0x3e223065	0.15838774
120	0xb8410e98	-4.6028377e-05
121	0xb7c54c81	-2.3519855e-05
122	0xb7aa1170	-2.02737e-05
123	0xb9093715	-0.00013085858
124	0xbda1a870	-0.07893455
125	0xbd565f1a	-0.05233679
126	0xbd8082b0	-0.06274927
127	0x3dee16c3	0.11625435
128	0x3dd4fdf1	0.10399998
129	0xbc975116	-0.018471282
130	0x3848dfc2	4.7892107e-05
131	0x3854e854	5.076111e-05
132	0xbd6d80c9	-0.057984147
133	0xbdc4eb45	-0.096151866
134	0xbdde5415	-0.10855881
135	0xbe10d1a3	-0.1414247
136	0xbb9f1ed6	-0.004855971
137	0xbdba1509	-0.090860434
138	0xbc9f4032	-0.01943979
139	0x3dfc4a3e	0.12318848
140	0xb84acb5d	-4.834995e-05
141	0xb948637e	-0.0001911055
142	0xb86aed5d	-5.601101e-05
143	0xb8c72751	-9.496383e-05
144	0xb81279c0	-3.49225e-05
145	0xb82973ec	-4.04007e-05
146	0x3dae3658	0.08506459
147	0x3e078d1d	0.13237424
148	0x3d7df964	0.062005416
149	0xbe0a1b97	-0.13487087
150	0x3e09f31e	0.13471648
151	0x3e030d77	0.12798105
152	0x387803f8	5.9131504e-05
153	0x38b2a6de	8.518783e-05
154	0x3d946bd9	0.07247133
155	0xbb3334eb	-0.0027344774
156	0x397b7ceb	0.00023983761
157	0x392d528d	0.00016529318
158	0xb8b588e5	-8.656251e-05
159	0xb8bef71c	-9.105934e-05
160	0xb8fa4448	-0.00011933647
161	0xb7adb3f3	-2.0707002e-05
162	0x3c18959a	0.009313012
163	0x3da385a9	0.07984478
164	0xbd0f1b25	-0.034937996
165	0x3e26f80f	0.16305564
166	0x385f05a7	5.3172607e-05
167	0xb842b854	-4.6424873e-05
168	0xbe23f80a	-0.16012588
169	0xbce6a507	-0.028154863
170	0xbdbcd3f4	-0.09220114
171	0xbd62ed00	-0.055401802
172	0x38807992	6.12616e-05
173	0x38cdb45c	9.808756e-05
174	0x3e1741d2	0.14771202
175	0x3d63c9c8	0.055612355
176	0x38d10ebe	9.9686426e-05
177	0xb7a6fa08	-1.9905172e-05
178	0x37f5ea92	2.9315506e-05
179	0xb92278d2	-0.00015494533
180	0x3c076007	0.008262641
181	0xbcfe81cf	-0.031067757
182	0xbdcb426b	-0.099247776
183	0x3d8af4fb	0.067850076
184	0xb6cc1a64	-6.082746e-06
185	0xb7421f30	-1.15705625e-05
186	0x3877771e	5.9000326e-05
187	0x38db1c16	0.00010447965
188	0x3db023d3	0.08600583
189	0xbe30d020	-0.17266893
190	0x35d7fa02	1.609151e-06
191	0x3943df8e	0.0001867993
192	0xb7cfe595	-2.478323e-05
193	0x371f488b	9.494029e-06
194	0xb86e2c1c	-5.6784702e-05
195	0xb8c9628b	-9.602782e-05
196	0xb8b01b7b	-8.3974526e-05
197	0xb8c6f5b2	-9.48714e-05
198	0x352596fa	6.168699e-07
199	0x3563f538	8.492093e-07
200	0x381bd908	3.7157006e-05
201	0x3950189e	0.00019845596
202	0xbe08e527	-0.13368665
203	0x3d806c8d	0.062707044
204	0x37dee0b6	2.6569101e-05
205	0xb88cbbed	-6.710724e-05
206	0x38be9f04	9.089525e-05
207	0x380a2538	3.2936427e-05
208	0x37acb788	2.0589461e-05
209	0xb76e995d	-1.4221613e-05
210	0x38d3eb5f	0.00010105105
211	0x386eb82a	5.6915138e-05
212	0x3d4301ac	0.047609016
213	0xbe0fb22b	-0.1403281
214	0x38ff6125	0.00012177442
215	0x3902ceb6	0.00012474772
216	0xb894e14e	-7.099156e-05
217	0xb94f6f0e	-0.0001978243
218	0x38eb6f43	0.00011226397
219	0x394b8f81	0.00019413048
220	0x3d9e29b2	0.077227965
221	0x3d71dc01	0.059047703
222	0x38c244e4	9.263473e-05
223	0x38f8cf07	0.000118641234
224	0xbde44734	-0.111463934
225	0xbc103d38	-0.008803658
226	0xb6d7ee14	-6.4352153e-06
227	0x38a9e879	8.1018494e-05
228	0xbf41b811	-0.7567149
229	0x3f39518f	0.72390074
230	0x3e0bd5bf	0.13655756
231	0xbe15069b	-0.14553301
232	0x38a04f79	7.6441975e-05
233	0x38b89920	8.8023255e-05
234	0xb8a85c2d	-8.028033e-05
235	0xb89b6ce9	-7.411262e-05
236	0xbdddb221	-0.10824991
237	0xbdc11586	-0.094279334
238	0x393a1d22	0.00017749195
239	0x38e209d2	0.00010778349
240	0x3d9e7555	0.07737223
241	0x3d467006	0.048446678
242	0x392fd355	0.00016768028
243	0x390eebad	0.00013629971
244	0x3837f1c8	4.3855776e-05
245	0x391474a4	0.00014157832
246	0xbe1084d7	-0.14113174
247	0x3e10968d	0.1411993
248	0x38f6999b	0.00011758805
249	0x3905b3c9	0.00012750844
250	0x38531964	5.0329967e-05
251	0x3965b45d	0.00021906332
252	0x365dee79	3.3070376e-06
253	0x37d8a8f7	2.5827887e-05
254	0x36125847	2.180708e-06
255	0xb8d77214	-0.000102732476

conv_spatial.mlp.2.weight f4 [256, 256]
0	0x3c689c52	0.014197426
1	0xbd1027a9	-0.035194073
2	0xbccd1ed7	-0.02503912
3	0xbd31ef7d	-0.043441284
4	0x3d2aea10	0.041727126
5	0x3ccf248a	0.025285978
6	0x3cddbec7	0.027068509
7	0x3d221a29	0.03957573
8	0xbd809946	-0.062792346
9	0x3c6a611c	0.014305379
10	0x3c8caab3	0.01717124
11	0xbc85f4bb	-0.016352048
12	0xbcbc0b66	-0.022954654
13	0x3d1a36be	0.037649862
14	0x3c8afaab	0.01696523
15	0xbc6e6b69	-0.014551976
16	0xbd6567c7	-0.056007173
17	0x3aa4b811	0.0012567063
18	0xbce49669	-0.027903752
19	0xbd81c021	-0.06335474
20	0xbce4aa6a	-0.027913291
21	0x3ce20154	0.027588524
22	0xbcc8ea87	-0.024525894
23	0x3d76816c	0.06018202
24	0x3ccd1d97	0.025038524
25	0x3c8bf1f9	0.017083155
26	0xbd88338b	-0.06650456
27	0x3c66f71d	0.014097002
28	0xbd309e4a	-0.043119706
29	0xbc9f218f	-0.019425182
30	0x39f662bb	0.00046994336
31	0x3c0a4770	0.008439884
32	0x3c86f968	0.016476348
33	0xbc847c26	-0.01617248
34	0x3c171bde	0.009222953
35	0xbc1b380f	-0.009473815
36	0x3ce48fbb	0.027900567
37	0x3bc9e9fd	0.006161927
38	0xbb0630d6	-0.0020475886
39	0x3d7f7cb7	0.062374797
40	0xbc8ff50e	-0.017572906
41	0xb9d8c345	-0.00041344218
42	0xbd0e93e4	-0.03480901
43	0x3a126e56	0.00055858993
44	0x3c090a4f	0.008364274
45	0xbd98811c	-0.07446501
46	0x3cf111a1	0.029427351
47	0xbc976dda	-0.018484998
48	0xbcf06897	-0.029346747
49	0xbdc28947	-0.0949884
50	0x3cc4ab7a	0.024007548
51	0x3cc11134	0.023567773
52	0x3cdae57a	0.026720751
53	0x3c4c9d2a	0.012488643
54	0x3d174b4e	0.03693705
55	0xbd5e409d	-0.05426084
56	0xbca00bef	-0.01953694
57	0xbc648bf6	-0.013949385
58	0xbda9291d	-0.08259795
59	0x3cc2a385	0.023759613
60	0xbcedd139	-0.02903043
61	0x3caca812	0.021076236
62	0xbb2dbe25	-0.002651104
63	0xbbe84040	-0.0070877373
64	0xbd39d88e	-0.04537254
65	0x3ca3bddd	0.019987995
66	0x3d245c6f	0.040127214
67	0xbcee8bc8	-0.029119387
68	0xbb2bcd81	-0.002621502
69	0x3cfc3e9c	0.030791573
70	0x393db9ac	0.00018093613
71	0x3d48c06d	0.049011637
72	0x3cd027f8	0.025409684
73	0x3c059f23	0.008155617
74	0x3c961aff	0.01832342
75	0xbd6a249d	-0.057163823
76	0xbd1028c1	-0.035195116
77	0x3c78c070	0.015182599
78	0xbca8ed8c	-0.020621084
79	0x3d062646	0.032751344
80	0xbcf91419	-0.030405091
81	0x3c296333	0.010338592
82	0x3ccc3fe9	0.024932818
83	0xbc8e582d	-0.01737603
84	0x3d4d5fdd	0.05014025
85	0xbca499b1	-0.020092817
86	0xbcaf045a	-0.02136438
87	0x3c6dbe70	0.014510736
88	0xbcd535b5	-0.026026586
89	0xbd612626	-0.05496802
90	0xbd1c884a	-0.038215913
91	0x3da7cfb9	0.08193917
92	0xbc9a14fa	-0.01880883
93	0x3ce1d13c	0.027565591
94	0xbd83e6d0	-0.06440508
95	0xbd44b533	-0.048024368
96	0xbb274454	-0.0025522904
97	0x3c732eb1	0.014842675
98	0xbc6313ac	-0.013859671
99	0x3b55dc4a	0.0032632523
100	0xbcd6ef1f	-0.026237069
101	0xbcaabf4a	-0.020843167
102	0xbca9c838	-0.020725355
103	0x3cf07f4b	0.029357573
104	0x3cacfc57	0.021116419
105	0xbd2bc6b9	-0.041937564
106	0x3c9908cf	0.018680958
107	0xbcc444ce	-0.02395859
108	0xbd196fa9	-0.037460003
109	0xbd6e681f	-0.058204766
110	0xbd26c543	-0.040715467
111	0xbca049f6	-0.019566517
112	0x3d6e85ce	0.058233075
113	0xbcd54b22	-0.026036803
114	0xbdfe3940	-0.12413263
115	0xbd9ae296	-0.07562749
116	0x3ca20795	0.019779006
117	0x3c07e7f2	0.008295046
118	0xbb991cb3	-0.0046726107
119	0xbc18e860	-0.009332746
120	0xbc835b0c	-0.016034625
121	0xbc87bdef	-0.01657006
122	0x3d15d238	0.036577433
123	0x3d861d77	0.06548589
124	0xbb937e03	-0.0045011058
125	0x3b1dd44a	0.0024082833
126	0xbd231a67	-0.0398201
127	0xbca24957	-0.019810362
128	0x3d6d0940	0.05787015
129	0xbcb557fb	-0.022136679
130	0x3c874fca	0.016517539
131	0xba9b6b89	-0.001185761
132	0xbc022c16	-0.007945081
133	0x3d2ec956	0.042672478
134	0xbcc79db9	-0.0243672
135	0x3cd3a441	0.025835158
136	0xbd1dc670	-0.038519323
137	0x3cc53b80	0.024076223
138	0xbce53e4f	-0.027983813
139	0xba86ce85	-0.0010284936
140	0x39749b03	0.000233274
141	0x3d36a8f2	0.044594713
142	0x3b153479	0.0022766872
143	0xbc2c52b5	-0.010517766
144	0xbc354a1c	-0.011065032
145	0xbad82c97	-0.0016492781
146	0xbd2828b9	-0.04105446
147	0x3dba47fa	0.0909576
148	0xbcf048f8	-0.02933167
149	0xb8b2fa4e	-8.534324e-05
150	0x3c8f1d92	0.017470155
151	0xbd0d1ba0	-0.034450173
152	0xbcaf0083	-0.021362549
153	0xbd42b2d4	-0.047533825
154	0xbb1b87da	-0.0023732097
155	0x3c69fe5c	0.014281835
156	0xbd263e59	-0.040586803
157	0x3d0dd378	0.0346255
158	0xbcdd81d9	-0.027039455
159	0xbc403477	-0.011731259
160	0x3cb1200f	0.021621732
161	0x3d9159aa	0.0709718
162	0xbbb6afd4	-0.0055751596
163	0xbd573c3a	-0.05254767
164	0xbbb0bcba	-0.0053935917
165	0xbd3476c6	-0.044058584
166	0xbbc00f64	-0.0058612097
167	0xbc44168d	-0.011968267
168	0xbcbb1ff2	-0.022842381
169	0x3d0d549d	0.03450452
170	0xbd2a742c	-0.041614696
171	0xbcf367e5	-0.029712627
172	0xbb53fa03	-0.0032345064
173	0x3d133453	0.035938572
174	0xbd3866a6	-0.04501977
175	0xbbd1209f	-0.0063820626
176	0x3bee8d8e	0.007280058
177	0xb9c5f9a8	-0.00037760776
178	0xbbba9a90	-0.005694695
179	0x3d046590	0.03232342
180	0x3cbb05a6	0.022829842
181	0xbcbbb148	-0.022911683
182	0x3d703930	0.05864829
183	0x3cb69714	0.022288837
184	0xbc1bf73f	-0.009519397
185	0xbcbffe2e	-0.023436632
186	0xbd33e11a	-0.043915845
187	0xbbe4b131	-0.0069791307
188	0xbca356f6	-0.019938927
189	0x3bbbd42f	0.0057320814
190	0x3c9cd143	0.019142753
191	0xbce373ef	-0.027765242
192	0x3d6bc52d	0.05756109
193	0xbceaa0dd	-0.028641159
194	0xbd9fac31	-0.07796515
195	0xbd309c34	-0.043117717
196	0x3d5bfb52	0.053706475
197	0xbcc5507f	-0.024086235
198	0x3d571c4c	0.05251722
199	0xbd21a060	-0.039459586
200	0xbd15106e	-0.03639262
201	0x3b3c3afa	0.0028721676
202	0x3b9970c7	0.0046826336
203	0xbcc12bb1	-0.023580404
204	0xbc232ee6	-0.009959912
205	0x3d3c07f7	0.045906033
206	0x3cdaf0eb	0.026726207
207	0x3c68e7cf	0.014215424
208	0x3b818566	0.00395267
209	0x3c93b023	0.018028324
210	0x3a3ed79b	0.00072800525
211	0xbd980556	-0.07422893
212	0x3d41cdb6	0.047315322
213	0xbb07e887	-0.0020737962
214	0x3d589354	0.052874878
215	0x3b496e15	0.003073578
216	0xbd313e50	-0.043272316
217	0xbd81245a	-0.06305762
218	0x3ccb996a	0.024853427
219	0xbd342d7a	-0.043988682
220	0x3d0466cb	0.032324594
221	0xb8540c87	-5.0556406e-05
222	0xbd8b2d1a	-0.06795712
223	0x3cb05c76	0.021528464
224	0x3c91c242	0.017792825
225	0x3c8e2b76	0.017354708
226	0xbd4f2f4b	-0.05058221
227	0xba773545	-0.000943024
228	0xbd05dfc9	-0.03268412
229	0xbc97910f	-0.018501787
230	0xbcbdd600	-0.023173332
231	0x3b0df4cc	0.0021660803
232	0xbd42da3e	-0.047571413
233	0x3daa8192	0.08325495
234	0xbcc62d27	-0.024191452
235	0x3cf35d99	0.029707717
236	0x3997cb2a	0.00028952333
237	0x3ca1088e	0.0196574
238	0xbca4dcc6	-0.020124804
239	0x3c6eff3f	0.014587223
240	0x3c5b978b	0.01340283
241	0xbbb64173	-0.0055620014
242	0x3d261cf7	0.040554967
243	0xbca65a97	-0.020306868
244	0x3ca7cc2b	0.020483097
245	0x3bcf7083	0.006330551
246	0xbc66fea6	-0.014098799
247	0x3c68ab19	0.014200949
248	0x3d899c79	0.06719298
249	0xbd1c0e14	-0.038099363
250	0xbc8dab81	-0.017293693
251	0x3b4d6618	0.003134137
252	0x3d03f751	0.03221828
253	0x3c667063	0.014064881
254	0x3c8f16dd	0.017466957
255	0x3c122fba	0.008922512

conv_spatial.mlp.4.weight f4 [2, 256]
0	0xba9712f9	-0.001152604
1	0xbdd164b4	-0.10224286
2	0xb8aebec5	-8.3325e-05
3	0x3900e86a	0.00012293612
4	0x3b4ebdb0	0.0031546168
5	0x3987eb90	0.00025924714
6	0xb9188049	-0.0001454364
7	0x3dcebd22	0.10094668
8	0x399ef0f1	0.00030315624
9	0x3cde93de	0.027170118
10	0x3a849263	0.0010114427
11	0xb9bc04de	-0.0003586178
12	0xb8dca54c	-0.000105212064
13	0x392ada97	0.00016293894
14	0xb97695bc	-0.00023516169
15	0x38e05f3b	0.000106988904
16	0x3a8f9e39	0.0010957188
17	0x380aa068	3.3051154e-05
18	0x3a8eb574	0.0010887817
19	0xb79bd840	-1.857814e-05
20	0xb8879700	-6.4654276e-05
21	0xbb3e2075	-0.0029011045
22	0xb9120aa3	-0.00013927608
23	0x3b0f313d	0.0021849417
24	0xba6ce443	-0.0009036699
25	0xb94e1b54	-0.00019655871
26	0xb7349baf	-1.0765084e-05
27	0xbc3facb5	-0.011698891
28	0x39cfd0d8	0.00039637717
29	0x3a342384	0.00068717473
30	0x396208a7	0.00021556263
31	0x3a14f7da	0.0005682685
32	0xb8de6af8	-0.000106057094
33	0xb74d23ba	-1.222727e-05
34	0x3a190d8a	0.00058385043
35	0x38c75d9e	9.506497e-05
36	0xb88f1bff	-6.823986e-05
37	0x39040483	0.00012590182
38	0x3a7c2ebf	0.0009620003
39	0x3dce6d87	0.100794844
40	0xba547134	-0.0008104027
41	0xb94084a7	-0.00018359964
42	0x3909a777	0.00013127724
43	0xb89b21f1	-7.397298e-05
44	0x3a873628	0.0010315822
45	0xb90878cf	-0.00013014975
46	0xbad674d9	-0.0016361728
47	0xb9128615	-0.00013973594
48	0xb8db8a0a	-0.000104684455
49	0x38b91dd6	8.827045e-05
50	0xb8be5262	-9.075251e-05
51	0xb8ab00b0	-8.1540435e-05
52	0x3de2314c	0.11044559
53	0xb9115d24	-0.00013862975
54	0xb90c00eb	-0.00013351782
55	0xba96b0cb	-0.001149678
56	0x3ae9b462	0.0017830248
57	0xb85f1349	-5.3185304e-05
58	0x3c2fdff3	0.010734546
59	0x38ed90f7	0.000113280425
60	0x3864e844	5.457575e-05
61	0xb891a466	-6.9447604e-05
62	0x3ce56d88	0.02800633
63	0x38243d7a	3.91579e-05
64	0xba4d6c67	-0.00078362826
65	0xb7ce6135	-2.460238e-05
66	0x3e25d040	0.16192722
67	0xbb1d2162	-0.0023976197
68	0xba8c3f07	-0.0010699936
69	0xb92a7ec0	-0.00016259681
70	0x3e029dc2	0.12755492
71	0x399e2a6b	0.00030167712
72	0x38db1274	0.00010446171
73	0x38cc876d	9.752703e-05
74	0xb8846f74	-6.31501e-05
75	0x3732d9d4	1.0660344e-05
76	0xb909877e	-0.00013115813
77	0xb960f87b	-0.00021454871
78	0x38a92838	8.066039e-05
79	0x3dd12727	0.10212546
80	0xbd9c7b73	-0.076407336
81	0x3cd7f678	0.026362643
82	0x3a98613a	0.0011625655
83	0x3a31362c	0.00067600864
84	0x38d7a4f4	0.00010282724
85	0xbce7a26d	-0.028275693
86	0x3dc92309	0.098211356
87	0xb849a77b	-4.8078113e-05
88	0xb97d136b	-0.00024135194
89	0x3781c855	1.5471285e-05
90	0xb8f02a36	-0.00011451954
91	0x399e0edc	0.0003014718
92	0xb93593dd	-0.00017316588
93	0xb8a794eb	-7.990919e-05
94	0x38cbed81	9.724033e-05
95	0x39211c9c	0.00015364814
96	0xb9ba9d9d	-0.00035594116
97	0x36e03f46	6.683086e-06
98	0x3901fc11	0.00012396301
99	0xba596482	-0.000829287
100	0x37e80183	2.765726e-05
101	0xbe190fdf	-0.1494746
102	0xb8cb446f	-9.692541e-05
103	0xb9b65be5	-0.00034782212
104	0xb9403a42	-0.0001833225
105	0x39062d68	0.00012796151
106	0x38e39399	0.00010851696
107	0xb976a27d	-0.0002352092
108	0x3daf809d	0.08569453
109	0x36285d73	2.5088345e-06
110	0xbe03ec8e	-0.12883207
111	0x386525b2	5.463296e-05
112	0xbdf94944	-0.121721774
113	0xb8d046db	-9.931411e-05
114	0xbb0b6a84	-0.0021273205
115	0x3cd5691e	0.0260511
116	0xb8d63975	-0.000102150174
117	0x39821ead	0.00024818387
118	0xb7f96b3d	-2.973305e-05
119	0xb9ca09ca	-0.00038535736
120	0xb9ca361b	-0.00038568754
121	0x3888cb79	6.522885e-05
122	0xb859e024	-5.194558e-05
123	0xb926af40	-0.0001589628
124	0xb78477ac	-1.5791353e-05
125	0xbb5e7214	-0.0033942508
126	0xb84f39a0	-4.9406313e-05
127	0xb90b90b9	-0.00013309986
128	0x372d9bad	1.034785e-05
129	0x38f3e004	0.00011628869
130	0xb96e94c9	-0.00022752876
131	0xbe03abe1	-0.12858535
132	0x390e92c6	0.00013596853
133	0x3a662885	0.00087798416
134	0xb977bdf0	-0.00023626513
135	0xb94f3083	-0.0001975913
136	0x3898f7ee	7.294105e-05
137	0xba18cad9	-0.00058285665
138	0xba699e1e	-0.0008911806
139	0xb94ded80	-0.00019638799
140	0x39952d34	0.00028453174
141	0xba4c215e	-0.00077869545
142	0x382dcc3c	4.1436622e-05
143	0x3970c7c0	0.00022962596
144	0x3947ee7e	0.00019066964
145	0x3b3a2502	0.0028403406
146	0x388d5430	6.739085e-05
147	0x398d806d	0.000269893
148	0x390555b7	0.000127158
149	0xbb309a32	-0.0026947376
150	0x3ad94386	0.001657591
151	0xbac660e9	-0.0015135083
152	0xbd18e262	-0.03732527
153	0xbd9ea323	-0.077459596
154	0x37fc7e7c	3.009964e-05
155	0xbb26c3d6	-0.0025446317
156	0xb7bbd5a5	-2.2391623e-05
157	0xb90c5024	-0.00013381295
158	0xba08fb69	-0.00052254513
159	0x3997e15a	0.00028968864
160	0x390ac1fb	0.00013232969
161	0x3ab817d2	0.0014045185
162	0xbdeaf54b	-0.11472567
163	0xb8a51c2d	-7.873061e-05
164	0x37c986e7	2.4023886e-05
165	0x3a7717f7	0.0009425873
166	0xb96f943f	-0.00022848042
167	0xbc96f4df	-0.01842731
168	0x3db0179e	0.085982546
169	0xb86dba21	-5.667855e-05
170	0x3a11c1a7	0.00055601675
171	0xb936d3e1	-0.00017435804
172	0xbab01d7d	-0.0013436523
173	0x3953469c	0.00020148832
174	0xb972fdfe	-0.00023173538
175	0xb96c1721	-0.0002251533
176	0x3e0d7ae0	0.13816404
177	0xb9ac70d2	-0.00032890454
178	0xb96ed56a	-0.00022776952
179	0x387f2a59	6.0836177e-05
180	0x3a101fb4	0.0005497888
181	0x3abd966e	0.0014464387
182	0xb92b68c1	-0.00016346855
183	0x3db3d807	0.08781438
184	0xbdeea19c	-0.11651918
185	0xbd3aeead	-0.045637775
186	0xb8f42a9b	-0.000116427625
187	0xbdcea09d	-0.10089228
188	0x3997fd6a	0.00028989773
189	0xb91c17ae	-0.0001488614
190	0x39a2d145	0.00031054966
191	0xb9968ed5	-0.00028716648
192	0x3915c257	0.00014282145
193	0xb7044a5c	-7.885126e-06
194	0x388bef5f	6.672623e-05
195	0x3a481001	0.00076317793
196	0x388bdc04	6.6690176e-05
197	0x3dae16a9	0.08500416
198	0xbdcce9cd	-0.100055315
199	0xb8be2d4b	-9.0683425e-05
200	0x3535259d	6.748249e-07
201	0x3da62dbe	0.081141934
202	0x393ddfc0	0.00018107798
203	0xb695f568	-4.469115e-06
204	0xb7d4b2e1	-2.5355666e-05
205	0xb93cb0a3	-0.0001799488
206	0x3d84bc52	0.06481232
207	0x35ecd81d	1.7646267e-06
208	0xb988c392	-0.00026085653
209	0x3dcd95ff	0.10038375
210	0x38d12266	9.972304e-05
211	0xbb3554e9	-0.0027669019
212	0x39dbdde9	0.0004193627
213	0xb8abea2e	-8.197535e-05
214	0x3a46b6ac	0.0007580321
215	0x3e115103	0.1419106
216	0xb9fc872d	-0.000481659
217	0x391e18e6	0.0001507733
218	0x392f0658	0.00016691664
219	0xb9065102	-0.00012809414
220	0x38514fe6	4.9903894e-05
221	0xbdcf7438	-0.10129589
222	0xbdd4fc02	-0.10399629
223	0xbd0cd347	-0.034381177
224	0x3985fb9c	0.000255552
225	0x3a81b502	0.0009895863
226	0x388f86c1	6.843871e-05
227	0xbd5ccaf2	-0.05390448
228	0x3838fb6a	4.4103166e-05
229	0xbe04ae03	-0.12957005
230	0xba15be5d	-0.0005712265
231	0x37de74b4	2.6518806e-05
232	0xb8d6fb1c	-0.00010251088
233	0x3c4df812	0.012571352
234	0x385135bd	4.987953e-05
235	0xba83b95b	-0.0010049747
236	0xb9228cd8	-0.00015501992
237	0xbac0db92	-0.0014713875
238	0xb863f992	-5.4353448e-05
239	0x37a4b90b	1.963649e-05
240	0x39888a1d	0.00026042844
241	0xbd5d08f4	-0.053963616
242	0x392235b2	0.00015469527
243	0x3a821c6d	0.0009926684
244	0xb8bfad1a	-9.1398324e-05
245	0x386e661d	5.6838722e-05
246	0xbaab7f6d	-0.001308424
247	0xb9d3b4d9	-0.00040379798
248	0xb9552d3a	-0.00020330111
249	0xb8c738ff	-9.499676e-05
250	0xb9503bd8	-0.0001985872
251	0x38d0e6fe	9.9612385e-05
252	0xbb0a7b82	-0.0021130745
253	0xbb8d1721	-0.0043057357
254	0x39ec79c6	0.00045104156
255	0xb90f6a22	-0.0001367708
