logs/M3D27_wmd_debug_lr2e5_bs1024_tscale0001_r08_oddfunc/score.pt (torch, 730368 bytes, 9 tensors)

embed.0.W f4 [64]
00000000: 26b7 4ec1 4d34 61c1 f225 16c1 0e97 80c0
00000010: 84c5 0142 0a35 4ac2 1f7f 5242 6c81 aac0
00000020: e2c9 c0c0 9fe3 dcbf 2f71 6c41 fc34 5741
00000030: b775 3340 e475 afc1 d57c 8740 aa57 1142
00000040: 9c78 7142 d63f 3cc1 26f5 9e41 884c 0d42
00000050: 05b3 d740 3335 0b40 57c5 8a41 0403 f440
00000060: f084 6041 a791 41c2 b0bf fc41 a1ea 06c2
00000070: aec0 2ec2 7f2e 9ec1 64c1 1640 644e 0a41
00000080: f291 8d40 3ea6 b9c1 9917 53c0 9184 30c1
00000090: fc94 3541 d55e ed41 c401 5841 9b53 b4c1
000000a0: e491 cfc1 90e3 abc1 8127 1ac2 2036 2ec1
000000b0: 4299 3440 ca08 ecc1 5e85 81c1 4c7f bdc1
000000c0: b606 6ac1 9748 7842 d58b 7cbe 64a5 34c0
000000d0: 2103 ee3f 9f72 9040 5185 f9c1 157e 9e42
000000e0: 0aa7 e241 794f f140 a28a 02c2 727c 3cc1
000000f0: 6234 32c1 9f0a 85c1 265e 9842 f404 8140
-12.919714 -14.075269 -9.384264 -4.0184393 32.442886 -50.551796 52.62414 -5.3282986
-6.024644 -1.7256964 14.777633 13.450436 2.8040597 -21.932564 4.2339883 36.33561
60.367783 -11.765585 19.869701 35.324738 6.740603 2.175122 17.346357 7.625368
14.032455 -48.39224 31.593597 -33.72913 -43.688164 -19.772703 2.3555536 8.644138
4.4240656 -23.206173 -3.2983153 -11.032365 11.348873 29.671305 13.500431 -22.540823
-25.946236 -21.486115 -38.538578 -10.888214 2.821854 -29.504292 -16.19012 -23.687157
-14.626638 62.07089 -0.24662717 -2.8225946 1.8594705 4.513992 -31.190096 79.246254
28.331562 7.5409513 -32.635384 -11.780382 -11.137789 -16.630186 76.18388 4.0318546

embed.1.weight f4 [128, 128]
00000000: a089 8fbd 846c 573d 18ef 32bd 1e84 68bc
00000010: a4dd 813c b0e5 33bd abba 693d 4b47 d9bc
00000020: adc7 10bd 684a f3bb 2799 a8bd c27e afbc
00000030: 9c88 de3c 0f31 9abd aece de3b 3470 9e3d
00000040: 7f68 df3c 7d30 cd3b 575f 54bd e04e ae3d
00000050: 8a9d 6e3a 1404 913c 1cea 913c 6a07 d0bc
00000060: 27db 413d 1d9c e83c 6fbc 4a3d a694 aa3d
00000070: b114 c83c 02a0 69bd 465e 513d f9b5 9bbd
00000080: 6282 a13d 40ca 92bd 5fdd 52bd ab60 883c
00000090: 2a6d 1fbd 0b11 73bb d823 a63d aa31 7cbd
000000a0: e84f 9b3d ccd7 893d 7756 35bd 6f9e d7bc
000000b0: 8d1d 933d 1f39 b5bc ac13 643d 951d a33d
000000c0: 23c1 7fba 25cd 823d fc37 0f3d c67e 91bd
000000d0: f591 60bd f074 b93c a24f b4bd 2a9a bf3c
000000e0: b455 13bd 6bde c4bc 4833 7539 4765 a3bc
000000f0: 2524 9e3d 4386 a53d 61c5 c0bc 4a4c 033d
00000100: a644 8bbd da80 a93d c672 5fbc 5317 8b3d
00000110: 4b2b 1b3d 04c3 57bd 7130 30bd 4ed5 833d
00000120: 6c5d 933d 27ff d33a dbe2 963b 1bad 423d
00000130: 0cdb 09bd 7292 66ba 2a14 0bbd 937b 3abd
00000140: cf7c 1b3c 92df 0abd 8840 42bd 6530 45bd
00000150: 1907 de3b df87 8fbd 30bc ffbb e81f 9b3d
00000160: cc28 a0bd b1d1 00bd 6714 bc3c 1328 a3bd
00000170: 2e46 423b 6cf8 1f3d b9af 92bc 4112 023d
00000180: 166a b1bd 9903 c23c f360 83bd e4f5 dc3c
00000190: 64e0 a1bc bb16 82bd 7af4 08bd a74c 9cbd
000001a0: 1a71 01bd c5e3 a3bd d51d 82bd 4ef3 73bd
000001b0: 8190 8dbd 9c1e a33d ecf4 ca3c 95a6 6dbc
000001c0: 367c 843d 20af 9fbd 3d71 a33d deb1 a93d
000001d0: 006e cebc 465b cc3c c8ed e0bc e75c a7bc
000001e0: 0b3e a53d 3c38 b33d 50db b13a 629a 263c
000001f0: 1603 563d 1f7a 98bd 8fe7 1bbd 6e00 d93c
00000200: c6f5 6a3c 9513 17bd 3a42 78bd 3718 7bbd
00000210: 3568 ec3b d730 1fbd b4b9 613d 21fb f53b
00000220: 2dd1 6fbd c900 9fbd 80c7 bc3c c180 4dbd
00000230: e0f1 6e3d 69e1 073a 00fb 59bd b65b a5bd
00000240: b09f 0a3d c49c d1bc 72fd 19bd ad68 693d
00000250: a7bb 21bd 2655 663c 74d8 e13c 433c 80bd
00000260: 499d b1bc 630d 57bd a8c7 893c 6f05 fd3c
00000270: ec18 79bc 1eca 4dbd 8872 28bd d51b 63bd
00000280: 211f e4bc 9fa3 0cbd 683a b03d be41 8abd
00000290: 4564 84bd 43fd 1a3d bca2 763d 7f7e 69bd
000002a0: e903 243c c83a efbb 8aa4 8e3c 4e76 2dbd
000002b0: d96d 1f3d ee1c 1d3d 8773 c5bb 520e 0fbd
000002c0: e7d5 263d 6bb8 103d d0a4 6bbd 6dec 8a3d
000002d0: 733a aabd 2183 383d 3dd2 01bd b3d6 85bd
000002e0: b07e 9dbd 5904 64bd 1226 1cbd 0bb3 91bd
000002f0: 5510 a7bd bc9a 2f3d feb4 21bc 95ff 2bbc
00000300: 02a2 9dbc 944a a83d 2ece 6dbc a8b6 67bd
00000310: 67f6 0bbd e474 3e3d ed94 47bd 97ea 793d
00000320: 8f4c 49bd a8da 3ebd 3eee 7e3d c213 71bd
00000330: 0731 6bbd 58e3 1e3c 586e 613d a510 27bb
00000340: 7019 153d 92a9 89bd 5195 92bc eb44 c63b
00000350: 8dcd 98bd 87de 183d 5a80 a7bd 5552 203c
00000360: 0041 a4bd d619 9abd bea2 adbd 568e 2d3d
00000370: 2548 553d b9b5 983b 785e 1b3d 0055 85bd
00000380: 6508 403d 9413 78bd f755 fb3c 2838 7b3c
00000390: 3326 433c 032a b4bc 5099 af3d 4f02 5d3c
000003a0: 1980 52bd be4b b6bc a145 ad3d 7137 903d
000003b0: 094e b13d 25cd 5c3d 6b1f 81bd 31bc 7abd
000003c0: 0c8e d53c a024 a43d 4c7f 4f3d df2a e3bc
000003d0: f68d 95bd bb0c 83bd aa9b a9bd 96a3 5f3d
000003e0: 02fc 263c 55e2 6b3d 258f b2bd 6ac3 683d
000003f0: 4e95 8cbd 5449 7fbd 27a4 6fbd 5ff7 9dbd
-0.07008672 0.052593723 -0.04368505 -0.014191655 0.015852757 -0.04392022 0.057062786 -0.026523253
-0.035346676 -0.0074246414 -0.082323365 -0.021422748 0.02716475 -0.075288884 0.0067995405 0.07736245
0.027271507 0.006261884 -0.051848736 0.08511138 0.00091024546 0.01770214 0.017811827 -0.02539416
0.04732814 0.028394753 0.04949611 0.08329134 0.024423929 -0.05703736 0.051115297 -0.07603068
0.07886197 -0.071674824 -0.051480647 0.016647657 -0.038922466 -0.0037089016 0.081123054 -0.0615708
0.075836 0.06730613 -0.044271912 -0.026320664 0.07183371 -0.022121964 0.055682823 0.07964627
-0.00097562576 0.063867845 0.0349655 -0.07104258 -0.054826695 0.022638768 -0.08804251 0.02338894
-0.035970405 -0.024031838 0.00023384125 -0.019945754 0.07721738 0.08082249 -0.023531618 0.032055177
-0.06800203 0.082765296 -0.013638204 0.06791558 0.037883084 -0.052676216 -0.043014947 0.06437169
0.07195553 0.0016174064 0.00460468 0.047528367 -0.033656165 -0.0008795626 -0.033954777 -0.045528006
0.009490206 -0.03390462 -0.047424823 -0.048141856 0.0067757485 -0.07008337 -0.007804416 0.07574445
-0.078202814 -0.031449977 0.022958947 -0.07966628 0.002964388 0.039055273 -0.017906057 0.03175569
-0.086628124 0.023683356 -0.06414976 0.026972719 -0.019760318 -0.06351992 -0.033436276 -0.07631808
-0.031602003 -0.08002428 -0.06353346 -0.059558205 -0.069123276 0.07964823 0.024774991 -0.014505048
0.06469004 -0.07797074 0.07980583 0.082858786 -0.025198936 0.024945866 -0.027457133 -0.020430041
0.080684744 0.0875096 0.0013569389 0.010168644 0.052249037 -0.07445168 -0.03806263 0.026489463
0.0143408235 -0.03688391 -0.060610034 -0.06130239 0.007214571 -0.038864937 0.05510874 0.0075067435
-0.058549095 -0.07763822 0.023044348 -0.050171617 0.05833614 0.000518343 -0.053217888 -0.08074133
0.033843696 -0.025587447 -0.03759522 0.056984592 -0.0394856 0.014058387 0.027569033 -0.06261494
-0.021681445 -0.052503 0.016818836 0.03088638 -0.015203696 -0.050241582 -0.04112485 -0.055446465
-0.027846875 -0.03433573 0.0860489 -0.067508206 -0.064644374 0.037839185 0.06021379 -0.0570054
0.010010698 -0.0073007084 0.017412443 -0.042349152 0.03892312 0.038357668 -0.006025735 -0.034925766
0.040731337 0.035332125 -0.057530224 0.06783376 -0.083119296 0.04504693 -0.03169464 -0.06535091
-0.07690179 -0.05566821 -0.038122244 -0.07114228 -0.08157412 0.042872176 -0.009869812 -0.010497947
-0.01924229 0.0821735 -0.014514489 -0.05657068 -0.034170534 0.046498194 -0.04872601 0.061014738
-0.049145278 -0.046595246 0.062238924 -0.058856733 -0.057419803 0.009697758 0.055036873 -0.0025492099
0.036401212 -0.06721796 -0.017893465 0.006050696 -0.07461081 0.037321594 -0.08178778 0.0097852545
-0.0802021 -0.07524459 -0.08478306 0.04237207 0.052070756 0.004660335 0.03793189 -0.06510353
0.046883006 -0.060565546 0.03068064 0.015333213 0.011910963 -0.021992689 0.08574164 0.01348932
-0.051391695 -0.022252914 0.08460546 0.070418246 0.08657462 0.05390658 -0.063048206 -0.06121463
0.02606871 0.08014798 0.05065851 -0.027730403 -0.073024675 -0.063989125 -0.08281644 0.054599367
0.010191919 0.057588894 -0.08718709 0.056826986 -0.06864415 -0.06232579 -0.058506157 -0.07713198

embed.1.bias f4 [128]
00000000: 50cb 9f3d 033c 36bd 3806 cc3c 9407 18bd
00000010: bc41 213c beea 8bbd 3a37 933d b420 1cbd
00000020: 7270 f5ba 8e7a b13d f1f0 793c 8b07 05bd
00000030: 9785 87bd 72e6 73bd b0fc 823d 10f2 7a3a
00000040: 8895 a6bd 7ea3 a4bd 247b b2bd 9bbc 3abd
00000050: 5017 2a3d f1e8 383d c9af 9bbc 911f 693d
00000060: b781 493d cfca 56bd e4ed 2ebd 1775 4f3d
00000070: d5ed 563c bef6 e6bc 63ef 9aba 610b f0bb
00000080: 4840 a63d a80b 4c3c 2ce0 b1bc 314d 0cbd
00000090: f6ca 9cbc b266 913d 9730 743d ac24 f6bb
000000a0: 931e ed3c e486 20bd 2851 753b 3ed4 8b3c
000000b0: 5ebf 97bd 07d5 92bd 8c68 0cbd 2980 093d
000000c0: b783 603c 2c77 923d 0501 193d 6569 7cbd
000000d0: be2a 6a3d 2a8d 9ebb c964 a3bd 82b9 8b3d
000000e0: e976 773d 430f abbd bd2b 913d c111 5bbd
000000f0: cb87 a73d b904 623d c990 b43c 7180 503d
00000100: 36a7 9dbd b566 4abd 8876 11bd 7ee1 0a3d
00000110: 17b7 9d3d 0220 52bd 82fd e13c c0bb 2e3c
00000120: 0733 a73c ad7b 373d fcab d63a 50f9 a5bd
00000130: edff 8abd b167 823d d13f 9cbc 4b0d 063d
00000140: 1244 a5bd ec1a 293d d7df a7bd d766 78bd
00000150: e357 e63c d682 db3b f7e8 933d f5ba 9cbd
00000160: e70c 9ebd 36cc 61bd e67b 6e3d 940e b23d
00000170: 6e74 a93d 85d2 8e3d 3d3d 833d 42ca a8bc
00000180: 63bb 1fbd e1f3 b23c 42bc ac3d 8663 31bd
00000190: 9ca0 cdbc 81b7 84bd 39f3 703d 5350 ad3d
000001a0: d57c b33d a014 9abc 3d21 8eba 022f 3abd
000001b0: e80d 943d 5701 34bd 149f dfbc dc01 afbd
000001c0: a42a b23c b483 983d fd55 1a3d b70c 89bc
000001d0: 7333 073d 2d0f 603c 8c8c a0bd a68d 2bbd
000001e0: 180c 813d 1a07 7fbd 941b 2cbd 6b78 9ebd
000001f0: d606 abbc bbfc 8cbd c479 b7bc a251 b4bd
0.07802451 -0.044490825 0.02490531 -0.037116602 0.009842332 -0.06831883 0.07188268 -0.038117126
-0.0018725528 0.086659536 0.015255199 -0.032477897 -0.06617277 -0.05954594 0.063958526 0.0009572813
-0.081339896 -0.08038996 -0.087148935 -0.045590024 0.04152614 0.045144025 -0.01900472 0.05691487
0.04919597 -0.052439507 -0.04270734 0.050648775 0.013118227 -0.028193828 -0.001182061 -0.007325575
0.081177294 0.012453951 -0.021713339 -0.034253303 -0.019139748 0.07099666 0.05961665 -0.007511696
0.028945243 -0.03919114 0.0037432406 0.017068978 -0.07409547 -0.07169538 -0.03427939 0.03356949
0.013703278 0.071516365 0.037354488 -0.06162395 0.05716967 -0.0048386054 -0.079782076 0.06822492
0.060416136 -0.0835252 0.070884205 -0.05348373 0.08180197 0.055180285 0.022041695 0.05090374
-0.076979086 -0.049414355 -0.03551343 0.033906452 0.07700937 -0.051300056 0.027586702 0.01066488
0.020410074 0.04479568 0.001637816 -0.08104193 -0.06787095 0.06367434 -0.019073399 0.03272752
-0.08069624 0.04128544 -0.08196991 -0.06064495 0.02811808 0.0066989465 0.07222169 -0.07652847
-0.07717305 -0.05512639 0.058223628 0.08694187 0.0827416 0.06973747 0.06408165 -0.020604257
-0.038997065 0.021844806 0.08434345 -0.043307804 -0.025100999 -0.06480313 0.058825705 0.08462586
0.08764044 -0.018808663 -0.0010843646 -0.045454986 0.07229215 -0.04394659 -0.027297534 -0.085452765
0.021748848 0.074469954 0.03767966 -0.016729696 0.03300805 0.013675493 -0.07839307 -0.041883133
0.06301135 -0.062262632 -0.042018488 -0.07737812 -0.020877283 -0.06884142 -0.02239693 -0.08804633

embed.3.weight f4 [256, 128]
00000000: f1f0 143d 087b 88bb 49ee 76bb 5ad2 ea3c
00000010: ce24 653d 5b62 d23c 7e75 0f3d 1bfc 5b3d
00000020: ecd7 f63b 9dcc 27bd a275 8abd 3c04 58bd
00000030: 0dc2 9bbd e846 75bc 20f2 863d 5a87 123c
00000040: 95b4 a03d c182 a7bc f509 ae3c c7c8 86bc
00000050: 55e6 56bd a157 9fbd 8cbe 823c 93c8 84bd
00000060: 9c63 c23b b42c fcbc 1d9c 9fbd c79c a0bd
00000070: 2d8d 143c cdd0 943d 1ddd eebc cfc3 c0bc
00000080: 2c1c a0bd 24ce be3b 8f82 35bd c768 84bd
00000090: 0525 16bd 346c c33c 916c 8bbd 114f eb3c
000000a0: 195b 4ebd 12b2 043c 61e3 b9bc 6501 90bd
000000b0: fe48 14bd badd ef3c 3c18 2eba f4ea a13a
000000c0: 846c 6ebd 104f f4bb c4a7 a63d 12ca aabd
000000d0: 09bb 4d3c 331e 71bd 297d 6b3d d4fa cdbc
000000e0: 809a 5b3d ff98 8f3d 814a 9f3d 2a53 193d
000000f0: 378d febc 06c7 383d 86b0 a63c 889e 96bb
00000100: 0b34 b0bc 02c5 9abd ff8d 0d3d 55f6 73bd
00000110: 2d92 413d 6c77 89bc ad63 01bd 0451 cdbb
00000120: 2013 0d3c 030b 85bc 68d2 b0bd 7e2a 9dbd
00000130: b32e 59bd 079e f23c fdc5 8dbd ba38 47bd
00000140: 92c5 483d 7a32 7fbb b536 a1bc 9de5 63bd
00000150: d1e8 3f3d 8cba aa3d b6e5 153d fd38 9c3d
00000160: 0f30 a03d 6152 903d 9ff8 c93b 7155 8c3c
00000170: dd57 ef3c 5e9f 523c baa7 2bbc 2934 313d
00000180: c5dd 87bd b365 46bd 45b5 adbd 4aa2 b3bc
00000190: ebb5 363c 3853 d2bc 8868 c83c f831 053d
000001a0: 89e1 fa3c 1395 44bd 8ddf 253d 3ee1 c0bc
000001b0: b019 633d d5ad 8cbc 4ef7 92bd 3bd0 c43c
000001c0: e1c6 b13d a82f 7ebd 5bb0 0f3c 0727 9cbd
000001d0: fe6a 0d3d a283 63bd 6d9c b93c bf2e 783d
000001e0: 6957 47bc 6d42 a6bd b7d4 093d e86d cfbc
000001f0: 1dcc 8a39 c418 773d ab15 19bc 64cf 9b3d
00000200: d93a 82bc 7416 6b3d d8a0 1c3b d62d 2bbc
00000210: a6a4 173c 4b65 a83d c6a2 923d b75c 94bd
00000220: f1f9 853d 20d7 57bd 8cf8 5d3d cfc7 7f3d
00000230: 94e2 9d3a 6f53 90bd 7c85 143c ee39 a83d
00000240: 7dd6 883d 94e9 7cbd 1b45 18bd 7341 0b3c
00000250: cf82 edbc e846 ad3c 219b a6bd 9478 753c
00000260: 7e12 1c3d 9a38 f2bc a891 493d 0415 abbd
00000270: 1e78 463d c4ba 2abd 865a 883c 1bae 43bd
00000280: 54c2 81bd cfaa adbb 1c2a 9d3c 8ed5 403c
00000290: 2df7 98bc c452 e13b 889e 233d a11e a5bd
000002a0: 0462 3f3c 8a93 963d 778b a2bd a2c2 283d
000002b0: 7b7c 2dbd dd9b 61bc 0730 ff3c fc2b 74bd
000002c0: 952b 75bd 620b 5cbd e2b0 f5bc f784 12bc
000002d0: 1255 943c 191d e83b 72c3 9c3d d1dd 5a3c
000002e0: 29be afbd 021e 80bd aa83 6a3d 17dd 2d3d
000002f0: 79db 623d 818b 8ebc fe01 843d e2b3 803d
00000300: dd68 fe3c 207d 313d 5e13 8b3d 608e e73c
00000310: 5868 4e3d da2b a1bd 500d 8e3d 8ced 67bc
00000320: df1a 4e3d 12c4 78bc 6bbd 9bbb 4a09 1e3d
00000330: 4606 5d3d ef28 443d aaa3 63bd 6ba5 89bd
00000340: f91e d4b9 73c4 8dbd bbe8 6f3c fcd5 993d
00000350: 959e 843b 9d29 913d 3a4b 3cbd fb38 1dbd
00000360: ed89 38bd ea6e 893c 97e7 653c 4aae 2fbb
00000370: 3f32 ad3b 48cb 313d b80d 8f3d 08ae 8f3d
00000380: fc71 9dbd 10e5 433d 9baf 9e3d a530 3e3d
00000390: a2d7 b13d f22f a53c ce06 18bc 6f9f 30bd
000003a0: a73f 7e3d 5526 4b3d b0b3 62bd 133f 9ebd
000003b0: e94a 22bd 4aec 623d 5088 84bd e9d6 a13c
000003c0: 9e7a 3dbd b545 96bd 07a0 fcbc dfeb a33c
000003d0: 2608 5c3d 556e 54bd 6886 803c c5e0 353c
000003e0: 0f40 df3c 0624 a33c 6388 fcbb 5d70 b0bd
000003f0: 6cd4 17bb f34e 85bd b5ca a63d 8402 4d3d
0.036362592 -0.004165057 -0.003767865 0.028664757 0.055943303 0.025681665 0.03502416 0.053707223
0.007533064 -0.04096662 -0.06760718 -0.052738413 -0.076053716 -0.014970519 0.065891504 0.008943403
0.07846943 -0.02044809 0.021244982 -0.01645316 -0.052465755 -0.07780386 0.01596 -0.06483569
0.0059322845 -0.030783035 -0.07793448 -0.07842403 0.009066862 0.07266388 -0.02915817 -0.023530869
-0.07817873 0.0058229137 -0.044313964 -0.06465297 -0.0366564 0.023855306 -0.06807817 0.028724225
-0.050379846 0.008099096 -0.02269143 -0.07031516 -0.036202423 0.029280532 -0.00066411844 0.0012353347
-0.058208957 -0.007455714 0.081374675 -0.08339323 0.0125568 -0.05886669 0.05749241 -0.025144018
0.05361414 0.070116036 0.07777882 0.037432827 -0.031073196 0.04511168 0.020347845 -0.004596535
-0.021509191 -0.075571075 0.034559246 -0.059561092 0.047258545 -0.016780578 -0.0315892 -0.0062657613
0.008610517 -0.016240602 -0.08633882 -0.0767412 -0.05302305 0.029616369 -0.06922529 -0.048638083
0.049016543 -0.0038939998 -0.019679407 -0.0556389 0.04685289 0.08336362 0.036596023 0.07628057
0.078216664 0.070469625 0.006163671 0.017130585 0.029216701 0.012855379 -0.010477001 0.043262634
-0.06634096 -0.04843683 -0.0848184 -0.021927971 0.011151771 -0.025674447 0.024463907 0.032518357
0.030625122 -0.04799373 0.040496398 -0.023544904 0.05544442 -0.017172733 -0.07176076 0.024025073
0.08680511 -0.062057167 0.008770074 -0.076246314 0.034525864 -0.055545457 0.022657597 0.060591456
-0.012166836 -0.081181385 0.033650126 -0.025320962 0.00026473487 0.060326353 -0.009343545 0.07607916
-0.015897201 0.05739446 0.0023899581 -0.01044794 0.009255564 0.08222445 0.07159953 -0.072442465
0.06541813 -0.052695394 0.05419211 0.06244641 0.0012045675 -0.07047164 0.009065028 0.08214174
0.066815354 -0.061746195 -0.03717528 0.008499491 -0.028993038 0.021151975 -0.08135057 0.014982361
0.038103573 -0.029568005 0.049211174 -0.08353618 0.048454396 -0.04168202 0.016644727 -0.04777346
-0.06335893 -0.005299903 0.019185118 0.011769665 -0.01867255 0.0068763215 0.03994611 -0.080624826
0.011681084 0.073523596 -0.07936757 0.04120124 -0.042355042 -0.013770071 0.03115083 -0.05961226
-0.059856016 -0.053721793 -0.02999157 -0.008942834 0.018106971 0.007083547 0.07654466 0.013358549
-0.08581192 -0.062557235 0.05725447 0.042447176 0.055385087 -0.017400505 0.064456925 0.0628431
0.031055862 0.04333222 0.067908034 0.028266132 0.05039248 -0.07869692 0.06936133 -0.014155757
0.050318595 -0.015183466 -0.004752805 0.038583077 0.05396106 0.0478906 -0.055576004 -0.06721004
-0.00040458867 -0.06922235 0.01464289 0.075115174 0.0040472248 0.07088015 -0.04597018 -0.03838442
-0.04505341 0.01677652 0.014032266 -0.0026806765 0.005285531 0.043406755 0.069850385 0.07015616
-0.076877564 0.047825873 0.07748338 0.04643311 0.08683707 0.020164464 -0.009278966 -0.043120798
0.062072422 0.049597103 -0.055347145 -0.07726874 -0.03962222 0.055401124 -0.06471312 0.019755797
-0.046259515 -0.07337514 -0.030838026 0.020009933 0.05371871 -0.051863033 0.01568909 0.0111009525
0.027252225 0.019914638 -0.0077066883 -0.086151816 -0.0023167385 -0.06509199 0.08144132 0.050051227

embed.3.bias f4 [256]
00000000: d83a 783d 6fd6 d23b 4453 49bd 04e2 d53c
00000010: 4e6a 55bd 775f 383c ab90 dbbc 18a8 3f3d
00000020: e09e ba3c 001e 8cbc 8a01 e9bc 62a8 13bc
00000030: 77cb b63c 0fc4 813d df0a 42bd 94e3 613d
00000040: 4568 8c3b 96a0 49bd eb5b 5cbc f004 61bc
00000050: 6039 283d bdc7 0abd a58b 393d 33c9 b43b
00000060: 5029 76bc bf0c 873d 75ab 933d 2097 9c3d
00000070: 0a8f de3b 6c84 08bd 3141 a73c ac3e 71bd
00000080: 8c99 3abd d5a5 99bc 7d7c 103d ed78 913b
00000090: b498 93bd 773d 853d 3da8 283d 083e d6ba
000000a0: 0f46 09bc bd50 64bd 2cb3 a9bd 067f c43c
000000b0: 10dd efbc a972 d7bc 0e8f adbd 9a50 283d
000000c0: 31c5 333d f6b8 2bbc 1b1f 9a3d 366d 92bd
000000d0: 7964 a8bd 9a72 4d3c 8f6d 7e3d 90aa 7dbc
000000e0: 105a 383d c8ba 1d3d 5b7d 7dbc 1d5d 77bd
000000f0: ae63 873c 9d52 97bd 8a4b a4bd 576c a9bb
00000100: 5e5b f5bc e0d5 573d bc18 4d3d 1eb5 a23d
00000110: ac23 f7bc 6629 1abc eac8 ad3d 3bd4 893c
00000120: 15e2 aebd 89ec c43c 6bcb d8bc 731a adbc
00000130: 46be e03b 26e0 3abc bc30 92bd dc6d 5cbd
00000140: 47f8 4fbd 0363 773d 0170 2ebc c216 a0bb
00000150: 0e0c 95bd e271 893d d935 dbbc f249 443d
00000160: a8dd 673d b152 1bbc 94fd 0abd 9943 d2bc
00000170: be87 0fbb 5ca6 84bc 48d7 8ebd df89 a7bc
00000180: b9c4 94bd 9bef 8d3d 09b0 a03d 5273 babc
00000190: cf2c bebc 2479 86ba 1980 96bd 936f 493c
000001a0: 6f39 96bd 3696 27bd a229 83bd 38d0 31bc
000001b0: 9c49 17bc 9aa2 d9bc 9c9f b13d 69d2 7cbc
000001c0: 8f77 a8bd a767 dcbc 292b c13b 964c 64bd
000001d0: 15d3 26bc 2b73 4abc 228e a0bd 446e 8f3c
000001e0: 659b 07bd 2b3e 51bd 76e4 9fbd bdf7 773d
000001f0: f9de 00bd 627b c7bc eb69 6a3d 831e 983d
00000200: 0a18 87bc 4eb0 b23c fc0a c13c 7804 b23d
00000210: 90f4 5cbd bee9 9abd d6d6 ae3d 1a7f 993d
00000220: c576 83bd d1d9 12bd ada0 d93c 8dfb 66bd
00000230: 47d2 82bc dcab 5fbd 2eb9 a0bd 151b 52bd
00000240: 2b1f 74bd 2508 d8bc aef7 a13b 64bb 6c3d
00000250: 1fe2 4e3d c24d afbd 6f68 50bd d3c1 b33c
00000260: 82be b2bd 91ab 45bd f9f3 0bbd 6787 943d
00000270: b7d4 923d a15b 9bbd da1f a3bd 9935 4abd
00000280: d361 333d ab87 9c3d 2a69 98bd 3400 49bc
00000290: 5905 a13d b72e 6bbd 250a 78bd 6800 86bd
000002a0: e4ed f1bb 0e64 8bbc 56d3 a7bd 232c 293d
000002b0: 8068 d6bc 73ee a53d 98ba bc3c 38d2 acbd
000002c0: beea a7bc 61fa a5bc 2309 b739 ce07 41bd
000002d0: 053a a2bd 626e 94bd e153 37bd 6e7e dd3c
000002e0: 46ed 79bc 8d14 3bbd f0d8 053d 29a9 bcba
000002f0: 243e f33c 8ca0 653d 6743 9fbd bc97 883d
00000300: bc2d c73b 8f15 3bbd 86a2 133d 7648 2ebd
00000310: e828 9cbd 13a3 d3bc 7b50 06ba e2d0 9ebd
00000320: fa67 97bd 95cd 15bd bc86 d9bc 737d 5ebb
00000330: 23c0 d63a 0fee 033d 015a 86bc 7d6c 08bd
00000340: e06a 193d 54c0 94bc cd5f 313d 5b04 1d3d
00000350: 4cf5 9dbd 57df 923b d9f0 b2bd 9974 763d
00000360: 7e2c 20bd aee9 693d c930 8dbd a46f 623d
00000370: 3899 033b 72e1 d03c 1159 433b 7b7e 4dbd
00000380: d3e6 093d b2d7 d13c 5112 553d bab0 a33d
00000390: 1029 cd3a 1345 ec3c 01b4 483d 176f 1cbd
000003a0: 4983 a93d d4eb a5bd 2aae 73bd 92a5 aabd
000003b0: a980 9e3d fbd8 29bd 50b2 503d f197 06bc
000003c0: 1438 803d 140a 97bc cd45 93bd b9b8 b0bd
000003d0: dcba 55bb 8ec7 233d 06ec 303d 1f91 2f3d
000003e0: 03d0 37bb c112 ae3c 24ba 0a3d 1873 37bd
000003f0: c5a6 82bd b86f 943c 1d61 9d3d 284a 463d
0.060602993 0.006434254 -0.049151674 0.02610875 -0.052103333 0.011253229 -0.026802382 0.046791166
0.022780836 -0.017104149 -0.028443117 -0.009012314 0.022313816 0.06336223 -0.04737365 0.055148676
0.004284891 -0.049225412 -0.013449649 -0.013734087 0.041070342 -0.03388189 0.04529919 0.005517149
-0.015024498 0.06594228 0.07210437 0.07646012 0.006791954 -0.033329412 0.020416828 -0.05889766
-0.04555659 -0.018755833 0.03527497 0.0044394643 -0.0720686 0.06505864 0.04117607 -0.0016345391
-0.00837852 -0.05574106 -0.082861274 0.02398635 -0.029280216 -0.026299791 -0.08474551 0.041092493
0.04388923 -0.01048111 0.07525464 -0.071497366 -0.08222289 0.01253953 0.062116202 -0.01548256
0.045007765 0.038508207 -0.015471782 -0.060391534 0.016527023 -0.07388804 -0.080222204 -0.005170386
-0.029950794 0.0526942 0.050072417 0.079447016 -0.030168377 -0.009409284 0.08485587 0.016824832
-0.085392155 0.02403857 -0.026464185 -0.021130776 0.00685862 -0.01140598 -0.071382016 -0.053815708
-0.050773885 0.06039716 -0.010646821 -0.0048855254 -0.0727769 0.067111745 -0.026759075 0.047922082
0.056607872 -0.009480164 -0.033933237 -0.025666999 -0.0021900977 -0.016192608 -0.069746554 -0.020451484
-0.07264084 0.06930467 0.07846076 -0.022760067 -0.023214726 -0.0010259491 -0.073486514 0.012294668
-0.07335173 -0.040914737 -0.06404425 -0.010852866 -0.009233858 -0.026566792 0.08673021 -0.015431025
-0.08225929 -0.026904894 0.0058950377 -0.0557371 -0.010182162 -0.01235656 -0.0783961 0.017508633
-0.03310718 -0.05108468 -0.07807247 0.060538996 -0.031462643 -0.024350826 0.057229917 0.07427695
-0.016490955 0.021812584 0.023564808 0.086922586 -0.05394417 -0.07564114 0.085370705 0.07494946
-0.06419138 -0.035852257 0.026565874 -0.05639224 -0.015969409 -0.054607257 -0.0784782 -0.05129536
-0.059600037 -0.026371071 0.004942856 0.057795897 0.050508615 -0.08559753 -0.050880846 0.021943009
-0.08727743 -0.04825932 -0.034168217 0.072523884 0.071694784 -0.07585836 -0.079650596 -0.04936752
0.043794464 0.07643064 -0.074419335 -0.012268115 0.07862348 -0.057417598 -0.06055655 -0.06543046
-0.007383095 -0.017015483 -0.08194606 0.041301858 -0.026172876 0.08102121 0.023038194 -0.084385335
-0.020497676 -0.020260992 0.00034911287 -0.047126584 -0.079212226 -0.07247616 -0.044757728 0.027037825
-0.015254324 -0.045673896 0.03267759 -0.0014393675 0.029692717 0.056061313 -0.07776528 0.06669566
0.00607845 -0.045674857 0.036043666 -0.042549573 -0.0762499 -0.025834596 -0.0005123687 -0.07754685
-0.07392879 -0.03657301 -0.026553504 -0.0033949285 0.0016384166 0.032209452 -0.01640034 -0.033306587
0.03745544 -0.018158115 0.043304253 0.03833423 -0.07712802 0.0044821906 -0.08737344 0.06016979
-0.03910493 0.05710762 -0.06894071 0.05528225 0.002008034 0.025498126 0.0029807726 -0.05016945
0.033667397 0.025615547 0.05201942 0.07992692 0.0015652496 0.02884153 0.04899979 -0.03819188
0.08276994 -0.08101621 -0.059492268 -0.08332361 0.07739384 -0.041466694 0.050951302 -0.008214937
0.06260696 -0.018437423 -0.07191048 -0.08628983 -0.0032612598 0.039985232 0.04319384 0.042863008
-0.0028047569 0.021249177 0.033868924 -0.044787496 -0.06379465 0.018119678 0.076845385 0.048410565

conv_spatial.mlp.0.weight f4 [256, 2]
00000000: 77f1 d3be 1d60 25be 6a8c c7bd feec b73e
00000010: a1bb c23e 035b adbd ad15 99be 9230 cbbe
00000020: de83 d23e aa5f 83be 5bd8 943e 61fb c63e
00000030: 3b4f ee3e 96cd 613d 1d0b b8bf 527f 333f
00000040: 543a 923f 0ee4 e63e 9b01 97be baee 9bbe
00000050: a204 913e a966 b23e aab2 bcbe 9d34 473e
00000060: 3603 5bbe 1f53 e23e b7bc a33e 89c0 2abf
00000070: 7b4b 85bd 571a 023f efc1 d1be 79b9 96be
00000080: 5910 a93e 750a 913e 811c 6f40 7cb3 54c0
00000090: 1946 cfbc 0b12 e6be 27de 58be 12e2 b5be
000000a0: 3cca 8abe 2f2e e9be d274 a13d 724a 04bf
000000b0: 725b 38be 6c48 cdbe 4c71 bdbe b574 253d
000000c0: 0013 febe a970 d63e eb24 cc3e 8398 823d
000000d0: 2403 c8be d635 c5bd 4ca7 e03e e348 a83d
000000e0: 8a33 543d dc64 dfbe b099 8f3e 4fdd 2ebe
000000f0: b0bd 803e b594 c93e fc4e f23e 4d63 64bb
00000100: 9a97 0cbe 890c b8be 7d79 a93e d131 03be
00000110: dc55 b1bd d0aa 073f 5d74 f4be b00b 9d3d
00000120: 2db0 0abe 46f4 bf3e 1d1b 6d3d e12c 9d3e
00000130: e49d e83e 47ce f4bd e7e6 9fbe f51b 91be
00000140: b4b6 d0be a5a8 8e3e fa9a dd3e 1237 4ebe
00000150: 2ed0 d0be a545 563e a9a3 b43e 56e9 11be
00000160: 2f7d d03d 2881 343e 03b4 413e df8e d5be
00000170: 5c16 d7be f621 713e b33a 463e 5126 c9be
00000180: 0bb9 9b3e 251a b43e ba55 cf3e d06a 4dbe
00000190: b0e2 8d3e 61f1 a13e 974f 30bd f95a d6be
000001a0: fa47 8c3e 7047 a33e dafb a93e 0791 9c3e
000001b0: add0 aebe edf1 86bc 12ca dfbe 8ed5 463e
000001c0: cfd5 13be d776 dbbe 851e afbe a060 173e
000001d0: 7cf7 a73c 90b3 ed3e 175a bdbd 1f1d bdbe
000001e0: 3922 b33e 2e0d 3fbe c9dd b73e 82aa 8c3e
000001f0: d0e1 a0be 8a59 9bbe 7bc8 d4bd db62 df3e
00000200: 15f6 9ebe 5c29 85be 0116 503e 8ffc e9be
00000210: 165f 653e 93cc b73e c3cb adbe 8ee0 8bbe
00000220: b978 88be b05e 9dbe 87b0 77be 4692 acbe
00000230: b8cd 39c0 a714 8840 3d80 f93e a1b5 873d
00000240: f45f c93e 19f1 9a3e 2ddc 89be 358e bcbe
00000250: b7b8 c73e 0b7f bc3d 86da 0ebe ffd2 e4be
00000260: b743 babe 94a8 ab3e a21c c1be 0f16 6bbd
00000270: a99e d23e ab98 4d3e 436c ce3e f348 b53d
00000280: 9d84 38be 9895 a13e eba4 343c dc13 e63e
00000290: d647 cdbe ea26 6ebe 8269 c23e bae4 53be
000002a0: 0f69 b53e ebda 63bb 8120 b8be 8c5a 96be
000002b0: 619c 86bd d86d e53e 5493 32bd 2550 d2be
000002c0: f1a9 0fbf ca71 cabe c6a4 d3be 2803 4a3e
000002d0: ddfd ee3e 9142 993e c0bc bc3e 4030 aebe
000002e0: 7aab e63e 31a4 e33d 2e55 b93e f5ec 9e3e
000002f0: 18e8 683e 52c3 8c3e 9ca1 083c 934d e8be
00000300: f99d 95c0 25ab 2140 579e 293f ff0e e43e
00000310: a1f2 843e fa4b d5be e73e b7be 4ac0 923d
00000320: eddb efbe 7f4c fb3e 618e ca3e 7e0e 82be
00000330: b94f 3d3e 064e 803e 80a4 4dbe 0aa7 933e
00000340: 71cc 12be 77ea b83e 2bd7 9a3e b8a3 4e3c
00000350: c1e5 debe 6fab 23be 40e1 723e e52a b63e
00000360: 798b 0bbe 3182 adbe d57c d5be d623 9a3d
00000370: 3aa8 b83e 3689 973e b443 c8be ce5a d8be
00000380: 1333 d03e 9801 0cbe 9d78 c8be 8b4d 8bbe
00000390: 546e 363e 0ccb ae3e a235 a6be 7162 783e
000003a0: 3104 8abe ceda b9be b4ba 9e3e d52a a1be
000003b0: 9bea c53e 4a4f 9dbe 7131 e83c 240a ed3e
000003c0: cce2 bfbe 7359 94be f1d5 e13e b7ff dabd
000003d0: 3970 3f40 38c8 2240 f8c9 aabe 256c 603e
000003e0: 718a a0be 86a2 b33e e669 b03e 6446 983e
000003f0: 8ff6 c53e 7297 313e a7cf d13e 81c6 303e
-0.4139516 -0.16149946 -0.09743579 0.35922998 0.38033774 -0.08464625 -0.2989935 -0.39685494
0.41116232 -0.25658923 0.29071316 0.38863662 0.46544823 0.055127703 -1.4378392 0.7011615
1.142405 0.45095867 -0.29493412 -0.3045557 0.28323847 0.34843948 -0.3685506 0.19453664
-0.21387944 0.4420404 0.31979915 -0.66700035 -0.065085374 0.5082144 -0.40968272 -0.2943838
0.33020285 0.2832829 3.7361147 -3.3234549 -0.02530198 -0.4493564 -0.21178494 -0.3552404
-0.27107418 -0.45543048 0.0788361 -0.51676095 -0.18003634 -0.40094316 -0.370005 0.040394504
-0.4962387 0.41882828 0.39871916 0.063767456 -0.39064896 -0.09629409 0.43877637 0.08217027
0.051806964 -0.43631637 0.28046942 -0.1707661 0.2514472 0.39371267 0.47325885 -0.0034849227
-0.13729706 -0.35947064 0.331005 -0.12811972 -0.086589545 0.52995014 -0.47745028 0.07668245
-0.13543768 0.37491053 0.057887185 0.30698302 0.4543296 -0.11953407 -0.31230852 -0.28341642
-0.4076439 0.2786304 0.432823 -0.20138195 -0.40783828 0.20925005 0.35281113 -0.14249167
0.10180127 0.17627394 0.18916325 -0.41710564 -0.42009246 0.23548111 0.1935833 -0.39287046
0.30414614 0.35176197 0.40495092 -0.20060277 0.2771201 0.3162947 -0.043044653 -0.41866282
0.27398664 0.3189044 0.3319996 0.30579397 -0.34143582 -0.016472781 -0.43708855 0.19417402
-0.1443703 -0.42864105 -0.34202972 0.14782953 0.020503752 0.46426058 -0.09245699 -0.3693628
0.34987047 -0.18657371 0.35911396 0.27473837 -0.3142228 -0.3034175 -0.10389801 0.43630108
-0.3104712 -0.26008117 0.20320894 -0.457005 0.22399554 0.35898265 -0.3394452 -0.2731976
-0.26654604 -0.30736303 -0.24188434 -0.33705348 -2.903181 4.252521 0.4873065 0.0662644
0.3933102 0.30262068 -0.26925793 -0.36827245 0.39008114 0.09203919 -0.13950548 -0.44692227
-0.36379787 0.33527052 -0.37717158 -0.057394084 0.41136673 0.2007777 0.40316972 0.088518046
-0.18019338 0.31559443 0.011025648 0.44937027 -0.4009387 -0.23257032 0.3797112 -0.20692721
0.35431716 -0.0034767936 -0.359623 -0.29365957 -0.06572796 0.44810367 -0.043597534 -0.4107677
-0.56118685 -0.3953994 -0.4133665 0.19727767 0.46678057 0.299336 0.36862755 -0.34021187
0.450527 0.111153014 0.361978 0.3104016 0.22744787 0.27492768 0.008339312 -0.45371684
-4.675534 2.5260708 0.6625723 0.4454269 0.2596636 -0.41659528 -0.35790178 0.071655825
-0.46847478 0.490818 0.3956175 -0.25401682 0.18487443 0.25059527 -0.20082283 0.28838378
-0.143358 0.36116382 0.30242285 0.012612276 -0.43534663 -0.15983365 0.23718739 0.355796
-0.13627423 -0.3388839 -0.41696802 0.075263664 0.36065847 0.2959687 -0.39114153 -0.42256778
0.40663967 -0.13672483 -0.3915452 -0.27207598 0.17815524 0.34139287 -0.32462794 0.24256302
-0.26956323 -0.36299747 0.31001818 -0.3147799 0.38655552 -0.30724555 0.028343888 0.462968
-0.3747772 -0.28974494 0.44108537 -0.10693305 2.9912245 2.5434704 -0.33357215 0.21916254
-0.31355622 0.35084933 0.34455794 0.29741204 0.38664672 0.17342928 0.4097874 0.17263223

conv_spatial.mlp.2.weight f4 [256, 256]
00000000: 773a 01bd a73d 283e 7fa0 fcbc f523 84be
00000010: cb54 bebd 8579 503e 4857 aa3c 66c2 033d
00000020: de0e a3bc ade2 10be f62b 1d3e a059 dc3c
00000030: 7a9e 163e 8176 e5bd 63cf 343e dbdd d8bd
00000040: 7b00 163e e2ce b93d 2281 72be a45f 36be
00000050: 7ed3 81be e398 05be 92ea 6abe 8764 68bc
00000060: 7c04 0c3c 665a 55ba ee7b 8dbd 6629 c43d
00000070: 7cfb 02be 67a8 193c 874e 6f3e ad4c 29bd
00000080: a4e9 85be fc1a 8c3c c6e3 153e d6df 25bd
00000090: 5387 213e 25f1 5b3e c26b b63c 53eb 04be
000000a0: 299b d23d ac6b 21bb 6b9e 223d 20be 373c
000000b0: 3f0a 663e ca1d dfbd bfde 4ebc 7044 ccbd
000000c0: 8c7f 533e a89d 8f3c f35e 593e 0f9f 82be
000000d0: fff7 303e c124 293e 6231 fabc 921a 92bc
000000e0: f256 a8be 9919 17bc 884f 3f3e ff13 6ebe
000000f0: 928e d33c 7832 013e aba2 1fbe a8ea 183e
00000100: 9532 56bd f936 a8bd 0f2c 643e 2ffe a6bd
00000110: 7c57 48be dddc 48be 8a21 87be 6b7b c33d
00000120: 61a5 d93d 7c32 7cbe fd84 ae3d 43b8 a4be
00000130: 13a8 063d ca39 18bd b4e8 fc3d 1127 9d3d
00000140: abba 9b3d 81d5 213e 7717 cfbd 6bc5 173c
00000150: 28b6 4c3d 3bec b6bd 1c0e ed3d 1764 85be
00000160: ced6 07bd a84a b1bc e7bf 043e 1534 94bc
00000170: 241b 113d 76c9 e13d 02cb bc3d b1f6 44be
00000180: 001d 7abd ac33 cf3d 0c33 89bd 939f 833d
00000190: 2fce 803d 962c b2bd d09c 1c3e 3f85 ba3d
000001a0: a3f5 153e d181 803d 38ec c5bd 6efa 5f3e
000001b0: 658c 9fbe cc6b 87bc 3d88 0b3e 42a7 a9bd
000001c0: d6c3 babc 87e7 afbd 08d2 9f3e e400 1bbb
000001d0: 7647 66be 4023 c0bd 6c49 4abb 060a 513e
000001e0: 606d 81bd 9c77 0abd 2942 79bd 7e8d a73d
000001f0: b22b 073e c8f4 ad3d 7014 143d b5f0 f23d
00000200: cb98 ee3d 6f26 a2bd 609f 563d 61af 52be
00000210: 64eb b0bd fa2b 1e3d 1894 843e 8c54 6cbc
00000220: 0f81 a53c c3c7 a8bd 1a03 453e 2751 763e
00000230: 51e9 0c3e 0307 90be a6c0 f2bd b013 8dbc
00000240: 67d9 c33d fb17 01bd 6431 f53d 7590 8cbd
00000250: 83ea 203e c506 113c 1857 62bd 0f3b 26be
00000260: 6af7 1bbd 5757 b63d 52a6 14bd 8359 ecbb
00000270: 2f8a 0f3e 18b1 093e d88e f83d 7078 2a3e
00000280: 2fdd 0bbe 98c0 13be f6be 6c3e 0b13 8c3e
00000290: 8aad dbbd 85dc 7ebd 708e ffbd 97e2 c03d
000002a0: 6b80 0b3e 4f90 32be 533d 1ebd 8bf4 30bb
000002b0: e778 f93d cf57 21be fee9 47be fe8e 783c
000002c0: 56f2 393e 4b3d 59bd 1422 7abe 90ec 67be
000002d0: 0946 19bd ec3a f53d 432b 8ebc 2063 4e3e
000002e0: 767d 25bd 19b2 c2bc 3827 043e 391e 453e
000002f0: cc2f d3ba b787 143e ad99 38be ca0f 17be
00000300: 51e5 003d 471f ed3d 95e3 0cbe f5e9 eb3c
00000310: 14d9 8cbe df34 a1bd fccf d43c 1f20 82be
00000320: 1327 f3bd 4254 663d be94 70bd a2d2 c13c
00000330: 8a59 4fbc 29a8 343e 88ec ba3c 777e d5bd
00000340: 7959 283e e3ee 95bd eb8c 403e 29f7 033c
00000350: 8fac dd3a c145 793d b74d 253e abc3 97be
00000360: cde5 713e 8a9e eabd 0bbf a4be 729e cabd
00000370: 5c1b 42bb 0ae5 15be 9c55 77be 319d 1c3d
00000380: 9ef0 7cbe f55b 063d 1807 2d3e 508d 70be
00000390: d614 51bc 9ddf 69be fe9e d7bc 33bc 6c3e
000003a0: 8e4c 45be 1ce7 cfbd 3638 403e 2146 6e3d
000003b0: 5ad9 b4bd b4dc e83d 30b4 b0bd 6625 3abe
000003c0: c4a5 9dbd fce3 e43d 6353 8d3e 329c f63c
000003d0: f853 9a3d 6044 03bd 96b6 513e 371f 80bd
000003e0: 17e8 8ebd 5cb7 41be 934b f93d 7a18 babb
000003f0: d155 e1be 47f5 723e 768e 003b e8d4 24bd
-0.031549897 0.16429769 -0.03083825 -0.25808683 -0.09293517 0.20358856 0.020793572 0.032167815
-0.01990455 -0.1414897 0.15348801 0.026898205 0.14708892 -0.112042435 0.17657237 -0.105891906
0.14648621 0.09072663 -0.23682073 -0.17809922 -0.25356668 -0.13046603 -0.22941044 -0.014184124
0.008545991 -0.00081387756 -0.06908403 0.095782086 -0.12791246 0.009378529 0.233698 -0.04133289
-0.26154816 0.01710271 0.1463767 -0.04049667 0.15774278 0.21478708 0.02226818 -0.12980394
0.10283501 -0.0024630828 0.03970186 0.011214763 0.22464846 -0.10894354 -0.012626349 -0.09973991
0.20654124 0.017531231 0.21227627 -0.25511977 0.17282103 0.16517927 -0.030541126 -0.017834935
-0.32878834 -0.009222412 0.18682683 -0.23249815 0.025824819 0.12616909 -0.15589397 0.14933264
-0.052294333 -0.0821361 0.22282432 -0.081539504 -0.19564623 -0.19615503 -0.26392776 0.095450245
0.10627247 -0.24628633 0.08521459 -0.3217183 0.03287513 -0.037164487 0.12349072 0.07673467
0.076039635 0.15804102 -0.101118974 0.009263377 0.049978405 -0.08931776 0.11574957 -0.26052925
-0.033163838 -0.021642044 0.1296383 -0.01809124 0.035426274 0.11024754 0.09218408 -0.1923473
-0.061062813 0.101172775 -0.066991895 0.06426921 0.062893264 -0.0869991 0.15294194 0.09107446
0.14644484 0.062747605 -0.09664196 0.21872875 -0.311618 -0.016530894 0.1362619 -0.08283855
-0.02279846 -0.08589082 0.3121493 -0.0023651654 -0.22488198 -0.093817234 -0.0030866517 0.2041398
-0.0631969 -0.033805475 -0.06085411 0.08181284 0.13200262 0.08493954 0.036152303 0.118623175
0.11650237 -0.07917487 0.052398086 -0.20574714 -0.08638647 0.038616158 0.25894237 -0.014424454
0.020203141 -0.082412265 0.19239464 0.24054395 0.13760878 -0.2813035 -0.11853151 -0.017221302
0.095629506 -0.03151701 0.11972311 -0.068634905 0.15714459 0.008851712 -0.05525884 -0.16233467
-0.03807775 0.089033775 -0.036291428 -0.007212819 0.14017557 0.13446462 0.1213662 0.16647506
-0.13658594 -0.14428937 0.23119721 0.2735828 -0.10726459 -0.062222023 -0.1247834 0.094182186
0.13623206 -0.17437862 -0.038632702 -0.0027001228 0.121812634 -0.15756153 -0.19522855 0.015170811
0.1815885 -0.05303697 -0.24427062 -0.22648835 -0.037420306 0.11974129 -0.017354613 0.20155
-0.040402852 -0.023766564 0.12905586 0.1924981 -0.0016112267 0.14504896 -0.18027373 -0.14752117
0.031468693 0.11578231 -0.1375869 0.028798083 -0.27509367 -0.078714125 0.02597808 -0.2541513
-0.11872687 0.0562327 -0.0587356 0.023660008 -0.012655625 0.17642273 0.022817865 -0.10424512
0.16440381 -0.07320955 0.18803756 0.008054533 0.0016912388 0.060857538 0.16142927 -0.2964147
0.23622818 -0.1145602 -0.32177004 -0.09893502 -0.0029618358 -0.14638153 -0.24153751 0.038235847
-0.24701163 0.03280254 0.16897237 -0.23491406 -0.012761315 -0.22839208 -0.02632093 0.23118667
-0.19267485 -0.101515025 0.18771443 0.05817235 -0.08830519 0.11370221 -0.08628118 -0.18178329
-0.07697633 0.11176297 0.27602682 0.030103777 0.07535547 -0.03204763 0.20479807 -0.06255954
-0.069778614 -0.18917602 0.12172618 -0.0056791874 -0.44010785 0.23726378 0.0019616163 -0.040242106

tail.0.weight f4 [256, 256]
00000000: 9af6 d23c 0d3b 20be f424 74be 776d 003c
00000010: 5b30 7e3d f464 cabd 29d2 a1be 2a41 1cbd
00000020: 5708 39bd ebcb 953d 60a0 85be b50c 16bd
00000030: a3f1 9b3d 1153 b43d 7a05 1b3d 0915 9b3c
00000040: 4fd8 c2bc e168 a8bd bf63 39bc fdda 273c
00000050: 79ff 57be b841 37bc 6090 03bd 2377 153c
00000060: 1554 2c3d 4f85 d63d 0c6f 3dbe 2eb4 8abe
00000070: 0c85 7e3d 6822 2c3e 7634 183e 0cd2 2abe
00000080: 4e7b 10be d6d0 c9bd 44f5 16be b2b2 f73c
00000090: 2107 903d 46cb 113d 817c 693c 7409 713e
000000a0: cb7f a1be 645c 043e 4ab7 6f3c e43b a0bd
000000b0: 1868 753d 589a 08be 8a4a 93bd b9b1 223e
000000c0: 83e0 b0ba 169c 6e3e 6841 24be 2f00 83bb
000000d0: f985 bb3c cca8 06be 6993 efbd 6ceb e73c
000000e0: b777 6abd d791 5cbe a976 a33d dccb 933d
000000f0: 5e21 a63d 2768 b3bc e683 47bd da3b 0bbe
00000100: 568a 323e 084a f5bc 7ac7 7c3d 445c 23bd
00000110: a0cc 29be e7ad 473d 12d5 25be 0615 b3bc
00000120: e58e ae3d 4dd4 9abc 08c0 3dbe a32a e5bd
00000130: 95d2 5e3e 1e90 9c3e bb6b dcbd 8dc8 84bd
00000140: 2ab3 78bd 66ea 823d 9ce8 c7bd fa39 833d
00000150: 8041 c0bd c7a7 8f3e 3116 ea3c eeaf de3d
00000160: 1692 c4bc bd45 83bc a3fd 98bd 46da b83d
00000170: b681 203b 2773 55be 3f4a 09be c6fe 34be
00000180: 45dc 5d3c 0915 7f3e 5707 4c3e ab2f 223e
00000190: 7aad a83d 3f8d 153e e6e9 afbc cd0e b13b
000001a0: 2849 813d 4a02 bc3c 1a5a 71be 3b0d f0bd
000001b0: 8025 29be bd24 933b 6c18 6e3c f40e 113e
000001c0: 54c8 d33d 8c29 973d 7352 cc3d 3900 5c3d
000001d0: 6fbb 053c 62e0 5fbd 67d4 1c3e a178 08be
000001e0: 9bb8 7ebe 9b64 7f3e 9017 2a3c bbfd 313e
000001f0: f054 753e 3a59 873d 56b1 01be 25ad 51bd
00000200: 8f6d 1b3e 2785 9f3d 9b12 38be 2a47 1fbe
00000210: 8233 193d 80ae a73e 8ed7 5abe 8128 863e
00000220: 2c67 ccbd b424 e43c f6e2 60bd 182b 813c
00000230: 9787 6f3e 39f1 59bd 1a2e f6bd 3c41 1e3e
00000240: 55b1 743d 21d9 883d c072 733b 8b38 c43c
00000250: dfbf 073d 3b38 4d3e b2d9 37be 2402 25be
00000260: 3057 f2bc 768e 84bd 4720 19bb a52b 5c3e
00000270: 006a a43d d04e a93d 6ad0 26bd b8a0 903c
00000280: 9ec6 c7bd 5648 3c3e 4124 30be 8a47 8abe
00000290: 866b 6c3d 5925 b43d 3560 89bc 7e88 4b3e
000002a0: 7f3a a63d 5421 e4bc 0d67 64be 1fbe df3e
000002b0: 4d6a 8cbb 6adf 7bbc 3e04 c93d f437 a5be
000002c0: 6d27 f03d f7e6 e13d c9f8 5c3d d100 dbbd
000002d0: 326e 973e 1add 763d 8fc0 903e 6dc1 fcbc
000002e0: 506f c9be 6de8 3d3d 120b 9bbd a6f6 063e
000002f0: b55d 933e 8677 cdbd bffe 9ebe 776a acbe
00000300: 4a2b b93e a0d5 fabb f763 22be 17a3 ebbd
00000310: 4651 8ebc 5245 c63d 4851 b03d d0b2 853e
00000320: a25e 8f3a 7da0 4b3d ec3d dbbd da3d 20be
00000330: 3b3f 2ebd 98e3 933d f372 31be 2e95 323e
00000340: 30b5 123d a0d7 723d 25bf abbe 1823 66be
00000350: 835b 25be 5df1 c13d 4dda 09bf 05d1 023d
00000360: 77e1 3f3e bf00 c8bd 7eba eabd 6e91 96be
00000370: cc78 e1bd 133e abbc 1418 b93d da7f 25be
00000380: 77f7 ac3e ec9c 713d ac9b 00be 8333 83be
00000390: 097c 9f3d bb6b 4c3e cdd9 603e 34fe b3bd
000003a0: 0e65 763d db30 3ebe 8be2 dcbd 3b71 33be
000003b0: d1c6 d93e e574 0fbe f0b6 553e f346 753d
000003c0: d95c d1bd 6b0a 9bbd 1b55 5dbd dbb3 a5be
000003d0: 716e 68bd 7e1e 923d e841 743e c5c8 4cbe
000003e0: 014d 10bd a14f 9a3c e16b 45bc 0a79 93bd
000003f0: fed1 babd 892c 72bc b843 6c3e a99a 01be
0.025752354 -0.15647526 -0.23842221 0.007838598 0.062057834 -0.098825365 -0.31605652 -0.038148083
-0.04517397 0.07314285 -0.2609892 -0.036633212 0.07614448 0.08804906 0.03784702 0.018930929
-0.023784785 -0.08223129 -0.011315285 0.010245082 -0.21093549 -0.011185102 -0.03212011 0.009122643
0.042072374 0.10474645 -0.18499392 -0.2709059 0.062138602 0.1681 0.14863762 -0.16681689
-0.14109537 -0.098542854 -0.14741999 0.030236576 0.0703261 0.035594247 0.014250875 0.23538762
-0.3154281 0.12925869 0.014631102 -0.07823923 0.059913725 -0.13340127 -0.071919516 0.15888108
-0.0013494644 0.2330173 -0.16040576 -0.0039978246 0.022891032 -0.13150328 -0.11698038 0.0283105
-0.057243075 -0.21540008 0.07981617 0.072166175 0.08111833 -0.02190025 -0.048709773 -0.1359705
0.17435583 -0.029942527 0.061713673 -0.039882913 -0.16581964 0.04874983 -0.16194561 -0.02186061
0.08523349 -0.018900061 -0.18530285 -0.11189773 0.21760018 0.30578703 -0.107627355 -0.064835645
-0.06071774 0.06392364 -0.097611636 0.064075425 -0.09387493 0.2805769 0.028575035 0.108734
-0.02399544 -0.016024465 -0.07470252 0.09026007 0.0024491376 -0.20844708 -0.13407229 -0.17675313
0.013541286 0.24910368 0.19924675 0.15838496 0.08236213 0.14604662 -0.021473836 0.0054033757
0.063127816 0.02295031 -0.23569527 -0.117212735 -0.16518211 0.0044904635 0.01453219 0.1416586
0.10340944 0.07380971 0.099766634 0.05371115 0.008162363 -0.054657348 0.153154 -0.13327266
-0.24875109 0.24940722 0.010381594 0.17381947 0.23958182 0.066088155 -0.12665305 -0.051190514
0.15178512 0.07789069 -0.17975847 -0.1555449 0.037402637 0.3275032 -0.2137129 0.26202777
-0.09980616 0.027849533 -0.054903947 0.015767619 0.23391567 -0.053208563 -0.12020512 0.15454572
0.05973943 0.06682039 0.0037147254 0.023952743 0.033141967 0.20040981 -0.17954138 -0.16114098
-0.02958259 -0.06472485 -0.0023365186 0.21501024 0.080280304 0.082669854 -0.040726103 0.017654762
-0.0975468 0.18386969 -0.1720133 -0.27007705 0.05771973 0.08796186 -0.016769508 0.19876286
0.08116626 -0.027847923 -0.22304936 0.43699738 -0.004285133 -0.01537309 0.09815262 -0.3226925
0.1172627 0.11030381 0.053948198 -0.10693515 0.2957626 0.060269453 0.2827191 -0.030853951
-0.39342737 0.046364237 -0.07570471 0.13180026 0.2878243 -0.10032563 -0.3105373 -0.33674976
0.3616584 -0.0076548606 -0.15858446 -0.11505716 -0.017372739 0.096811906 0.08609253 0.26112986
0.0010938237 0.0497136 -0.1070517 -0.15648594 -0.04254077 0.072211444 -0.17329006 0.1743972
0.035817325 0.059287667 -0.3354427 -0.22474325 -0.1614819 0.094698645 -0.53848726 0.031937618
0.18738352 -0.09765767 -0.11461352 -0.2940783 -0.11009368 -0.020903623 0.09037796 -0.16162053
0.3378255 0.058987543 -0.12559384 -0.25625238 0.0778733 0.19962971 0.21958084 -0.0878872
0.060154967 -0.18573324 -0.10785397 -0.17523663 0.42534497 -0.14009435 0.20870566 0.059882116
-0.102227874 -0.075703464 -0.05403624 -0.3236378 -0.05674595 0.07134722 0.23853266 -0.19998462
-0.035229687 0.018836798 -0.012049646 -0.07200821 -0.09122084 -0.014781126 0.23072708 -0.12656654

tail.2.weight f4 [2, 256]
00000000: 1d17 2abf cb69 81be 33d8 c9bf 3831 a3bf
00000010: c899 18bf 215f 99bf 9b93 a73f 1705 993f
00000020: 81e7 96bf 2bf0 df3f c8b6 973f d27c 90bf
00000030: b36b af3f e7eb dfbe 18c5 f83e c034 873f
00000040: 7cc4 953f 413e 77bf 01fb cc3f 721f 1d3f
00000050: 35be 133f c748 163f 25c0 043f eed1 ef3e
00000060: d4b6 a23f 30be 9ebf ca25 1fbf 7ad8 01bf
00000070: 411f 4ebf d661 873f 80c7 91be 969e 24bf
00000080: f541 fd3e a0f9 ba3f a9ff bbbf ed49 b93f
00000090: e1be 9e3f c9d9 0b40 56a1 b3bf 7734 6b3f
000000a0: 34f2 1bbf ea38 e2bf 52f5 cebd 9d54 8abf
000000b0: 1ac7 9dbf f4f3 8fbf 113f 633f a1f2 ea3d
000000c0: a679 ea3f 1f5c 4bbf 507e bcbf 987a 463f
000000d0: 2b89 83bf 315b 9a3f d68d 9a3f 9f33 d53e
000000e0: 04b0 aa3f de43 953e 05c6 66bf 129a 723f
000000f0: 7b61 d43e b4db 45c0 77c3 043d f09e 683f
00000100: 4270 1ac0 2e72 54bf 972a 8a3e f26c 0340
00000110: 1d5a fd3b 906f 1c3f 3bcd 923e 29cd 18bf
00000120: 396d 14be eeae 643e 06a8 623f 17a7 babf
00000130: ce18 8ebf 37e7 c6bf 5be0 7cbf 7779 9fbf
00000140: fa98 313f f778 11c0 325c e53e 2192 973f
00000150: 6b00 943e 1571 a03f 7738 303f 44c0 83be
00000160: f84c 703e 8586 8cbf 84de 953e 2257 5b3e
00000170: fbcf 0c40 6b1f 4b3f 5e1c 80bf 043d abbe
00000180: 6be2 883f dbf4 50bf 2da8 cabf 5e80 b1bf
00000190: 5d36 0340 72d6 a43f 02f4 853f f8f7 83bf
000001a0: f3af aa3b aa1b 663f ff34 02bf 2902 6cbf
000001b0: 680f 2d3f e3a4 aebf cb47 92bf b85c 09be
000001c0: da2c 3e3d 2030 60be 93e7 3c3f a526 143f
000001d0: 1c8d adbf bd4c 6fbe 02f4 4b3f a54e a03f
000001e0: ccac 1f3f cbaf 173d 53eb 56be 0ef9 cb3e
000001f0: 5dcf e33f f216 d53f ebab 17bf 5900 443f
00000200: 1ca2 05bf 5530 313f 8445 993f c30e b13d
00000210: 6cba 033f b0c6 563f d322 4a3f 8fa8 47be
00000220: 1a35 ccbf 7b73 d6bd ca4f 1abf f1d8 5b3f
00000230: 09dc afbf cc74 b3bf 6f42 8d3f b075 0e3f
00000240: 9098 babf abff cf3e 909c 2cbf d893 183f
00000250: f863 91bf f120 663f e0e1 c1be 601e a73f
00000260: 93c9 2f3f dedf 37bf 8849 46bf e582 853f
00000270: 6978 b9bf d458 cf3f 476c f7be ea01 b7be
00000280: 1d38 0f3f 98d4 a2be 2805 2a3f c46b b8be
00000290: 4ed1 aa3f 8899 183f 5735 cb3e db1b 82be
000002a0: 1c5d 38bf d688 a33f 2ea2 423f 7f0f b33f
000002b0: 15ad 0340 2700 80bf c3b2 66bf 50fc 48bf
000002c0: 7084 dcbf a756 a43f 008b b0bf 72a9 cfbe
000002d0: 1dc0 c9bf 5925 3e3f 870d 58bf 0fc7 1f40
000002e0: c83d 9c3f 0a79 bdbe 83b1 17bf 033d b63d
000002f0: f423 c0bf 2c3b 1f40 13c5 e7bf f8fb 553e
00000300: 13cf a03f 81bf ba3f ae1b 83bf 6bb8 673f
00000310: 3993 0ebe 1bde de3e ea95 083f 5ea7 653f
00000320: 471b 69bf 4cf6 b03f acec 42bf 31b8 ef3f
00000330: f243 463f 07e0 8a3f 094f 02c0 8edc 7f3f
00000340: a245 7a3d d72d 7ebe 748c 3ebf b457 683f
00000350: 8dc0 27be c8ea df3e dd12 21bf 18e9 a63f
00000360: a168 453e 5a62 5dbf 52a9 083f 0e0f a53f
00000370: 54b9 b33e 86d0 4f3f d510 76bf efad 9d3e
00000380: 3779 7b3f a66a 793f d943 7ebf 95f6 c43e
00000390: 2e33 8c3e 9e06 59bf e45a 9ebf 5594 f93f
000003a0: a2be b63f fad2 1d3f bf1f a83f 38a8 31bf
000003b0: 4abc 323f 05e8 ddbf d439 2d3f 2839 993f
000003c0: 6749 b9bf d6f7 67bf 2900 873f 64ed 863e
000003d0: e9ec 993f 56d7 893f 217e 39be 48eb d4be
000003e0: 00bd ccbe bb38 b5be d884 86bf 5d0e 273f
000003f0: 227a b2bf bf79 40bf f72e 99bf 24ea 6fbd
-0.6644152 -0.25276026 -1.5769104 -1.2749395 -0.5960965 -1.1982156 1.3091921 1.1954678
-1.1789399 1.7495168 1.1852655 -1.1288092 1.3704742 -0.43734667 0.4858787 1.0562973
1.1700587 -0.96579367 1.60141 0.61376107 0.5771211 0.587048 0.5185569 0.4683985
1.2712045 -1.2401791 -0.62167037 -0.5072094 -0.8051644 1.0576732 -0.2847252 -0.6430448
0.49464384 1.460743 -1.4687396 1.4475685 1.2402002 2.1851676 -1.4033611 0.9187693
-0.6091645 -1.7673619 -0.10105385 -1.0807072 -1.2326386 -1.1246324 0.88768107 0.11472059
1.8318374 -0.7943744 -1.4726048 0.77530813 -1.0276235 1.205908 1.2074535 0.41640946
1.3334966 0.2915334 -0.90145904 0.9476634 0.41480622 -3.0915346 0.032412972 0.9086752
-2.4131017 -0.82986724 0.26985618 2.0535245 0.0077316896 0.6110773 0.28672203 -0.5968805
-0.1449479 0.22332355 0.88537633 -1.4582242 -1.110132 -1.5539311 -0.9877984 -1.2458943
0.6937405 -2.273008 0.44796902 1.184147 0.2890657 1.253451 0.6883616 -0.25732625
0.23466861 -1.0978552 0.29271328 0.21419957 2.2001941 0.79344815 -1.0008657 -0.3344499
1.0694097 -0.8162362 -1.5832573 -1.38673 2.050193 1.2877944 1.046509 -1.0310049
0.005208963 0.8988596 -0.50862116 -0.92190796 0.67601633 -1.364407 -1.142816 -0.13414276
0.046429493 -0.21893358 0.73790854 0.57871467 -1.3558688 -0.23369117 0.796692 1.2524
0.6237304 0.037032884 -0.20988207 0.3983845 1.7797657 1.6647627 -0.592467 0.7656303
-0.52200484 0.69214374 1.197434 0.08645394 0.5145633 0.83896923 0.7895939 -0.19497894
-1.5953705 -0.10471245 -0.60278 0.858779 -1.3739024 -1.4020019 1.1035899 0.55648327
-1.4577808 0.40624747 -0.67426395 0.5960059 -1.1358633 0.89894015 -0.3786764 1.3056145
0.6866695 -0.7182597 -0.7745595 1.0430571 -1.4489871 1.6198983 -0.48324797 -0.35743648
0.55945 -0.3180282 0.6641412 -0.3601972 1.3345125 0.5960927 0.39689133 -0.25411877
-0.72017074 1.2776134 0.76028717 1.3989104 2.057439 -1.0000046 -0.9011652 -0.7851
-1.7227917 1.2838944 -1.379242 -0.40558964 -1.5761753 0.7427574 -0.8439564 2.4965246
1.2206354 -0.37006408 -0.59255236 0.08898356 -1.5010972 2.4879866 -1.8107017 0.208969
1.2563194 1.4589692 -1.0242822 0.90515774 -0.13923348 0.43528828 0.5335375 0.8970851
-0.91057247 1.3825164 -0.7614238 1.8728086 0.77447426 1.0849618 -2.036074 0.99945915
0.061101563 -0.24822174 -0.74433064 0.90758824 -0.16382046 0.4373381 -0.6291941 1.3039885
0.19278194 -0.864782 0.5338336 1.2895219 0.35102332 0.81177557 -0.96119434 0.30796763
0.98231834 0.9742836 -0.9932228 0.38469377 0.27382797 -0.8477572 -1.2371488 1.9498392
1.4276927 0.6165005 1.3134688 -0.69397306 0.69818556 -1.7336432 0.67666364 1.1970568
-1.4475526 -0.9061254 1.0546924 0.2635299 1.2025424 1.076884 -0.1811452 -0.41585755
-0.39987946 -0.35394844 -1.0509291 0.6525629 -1.3943522 -0.7518577 -1.1967458 -0.058572903
