logs/M5D7_r04_scale0005/score.pt (torch, 731911 bytes, 10 tensors)

embed.0.W f4 [64]
0	0x413a8371	11.65709
1	0xc1dfe586	-27.987072
2	0xc08d832a	-4.422261
3	0xc1133389	-9.200082
4	0xc1674d2a	-14.456339
5	0xc1a5cdc6	-20.725475
6	0xc1807abb	-16.059927
7	0xc282d60c	-65.41806
8	0xc16f16b5	-14.943044
9	0x40fbece3	7.872667
10	0xc20fc832	-35.945503
11	0xc240b94a	-48.180946
12	0xc0cf19c4	-6.471895
13	0x402c52e0	2.6925583
14	0xc250d68d	-52.209522
15	0xc10ee7ab	-8.93156
16	0xc170548b	-15.02064
17	0x41806f39	16.054308
18	0x41bb5b3b	23.419546
19	0xc218c339	-38.190647
20	0xc1952a05	-18.645517
21	0xc1cafb35	-25.37266
22	0xc1a9b730	-21.214447
23	0xc213da0f	-36.962948
24	0x41b459ba	22.543812
25	0xc10f50cd	-8.957227
26	0xc04bf663	-3.1869133
27	0x41bb9b73	23.450903
28	0xc28b149f	-69.540276
29	0x425d4cf9	55.32517
30	0xc1877a20	-16.934631
31	0x42a42a40	82.08252
32	0xbfeedb88	-1.8660746
33	0xbe5b1907	-0.21396266
34	0x414fa76a	12.978373
35	0xc2570c63	-53.762096
36	0x40796f26	3.897409
37	0xc1f77050	-30.92984
38	0x42a1436f	80.63171
39	0xc1450580	-12.313843
40	0xc2087f8e	-34.124565
41	0x41732147	15.195624
42	0xc191e09d	-18.234674
43	0xc29ba701	-77.82618
44	0xc2362029	-45.531406
45	0xc17d8fc3	-15.847598
46	0x423dc304	47.440445
47	0xbe0ef821	-0.13961841
48	0xc1f9f1c4	-31.24305
49	0x423ca067	47.156643
50	0xc23c399d	-47.056263
51	0x3f591107	0.84791607
52	0x41cee330	25.860931
53	0xbfdefe80	-1.7421417
54	0xc1ac364a	-21.526508
55	0xc23f74dd	-47.864124
56	0x41c61515	24.760294
57	0xc1854b3f	-16.661741
58	0xc1867728	-16.808182
59	0x4093398c	4.600775
60	0x41b5aa71	22.708223
61	0xc09d85d8	-4.9225883
62	0xc1a10779	-20.128649
63	0x4004271b	2.0648868

embed.1.weight f4 [128, 128]
0	0xbc580409	-0.013184556
1	0xbcb733eb	-0.022363624
2	0x3d63a6b1	0.05557889
3	0xbd357457	-0.044300403
4	0xbd2ad129	-0.041703377
5	0xbd2fe98e	-0.042947344
6	0xbd5aa7d5	-0.053382713
7	0xbd3cf0ec	-0.0461282
8	0xbd9bc952	-0.07606758
9	0xbd1c340f	-0.038135584
10	0xbd2394eb	-0.03993694
11	0x3d3a3ce2	0.04546822
12	0xbd403ccf	-0.04693299
13	0xbce0ec25	-0.027456352
14	0x3c42fb82	0.011900784
15	0xbdb12ee9	-0.086515255
16	0xbd0042de	-0.03131377
17	0xbd375eb2	-0.044768043
18	0x3cf92cda	0.030416895
19	0xbd9f76e0	-0.077863455
20	0xbd51332f	-0.051074203
21	0xbd9adacf	-0.07561266
22	0xbd32acc5	-0.043621797
23	0xbb322151	-0.0027180503
24	0x3baee507	0.005337361
25	0xbc92d7f0	-0.017925233
26	0x3d3e56a4	0.046469346
27	0xbd998f41	-0.07498027
28	0xbdaa1a4c	-0.08305797
29	0xbcde20c6	-0.027115237
30	0x3d9b5a30	0.07585561
31	0x3ba7fce8	0.0051265843
32	0xbd86a725	-0.06574849
33	0xbdb4d908	-0.08830458
34	0xbd00c042	-0.03143335
35	0xbd833739	-0.06407017
36	0x3d69deb2	0.057097144
37	0x3d884ef5	0.06655685
38	0x3d84b0b4	0.06479016
39	0xbc8801df	-0.016602455
40	0xbdabab90	-0.08382332
41	0x3d54df0d	0.05197053
42	0x3cc1a5b0	0.023638576
43	0xbd786ac6	-0.060648702
44	0xbd23d062	-0.03999365
45	0xbd710ad5	-0.05884822
46	0x3cae4b2b	0.021276077
47	0x3d15e62d	0.036596466
48	0xbca0af24	-0.019614764
49	0x3c97d8f4	0.018536068
50	0x3c971203	0.018441206
51	0x3d7cf2fe	0.061755173
52	0x3dab8590	0.083750844
53	0xbc956ff5	-0.018241862
54	0xbc845f35	-0.01615868
55	0x3d4958c8	0.049156934
56	0x3d3e35de	0.04643809
57	0x3da7a0dd	0.08184979
58	0xbd8da19e	-0.06915592
59	0xbca179d6	-0.019711416
60	0xbd805bc7	-0.06267505
61	0xbc99e85d	-0.018787557
62	0x3d35fcb9	0.04443047
63	0x3d383fb1	0.044982616
64	0xbc899283	-0.016793495
65	0x3db13557	0.08652752
66	0xbd80ff73	-0.06298723
67	0x3d8ccc08	0.068748534
68	0x3d8dfcdd	0.069329955
69	0xbd515cfb	-0.051114064
70	0x3d865996	0.06560056
71	0x3d0a569a	0.033773996
72	0x3cba2eee	0.022727456
73	0xbd62ecf4	-0.055401757
74	0x3daba7b2	0.08381595
75	0xbd7a6642	-0.061132677
76	0x3c273ce2	0.010207387
77	0x3cb3283a	0.021869767
78	0x3d6fe392	0.058566637
79	0xbcd28d72	-0.025702212
80	0xbcdfdd15	-0.0273271
81	0x3d303410	0.0430184
82	0xbda6d03c	-0.08145186
83	0xbda19710	-0.07890141
84	0x3b7122f4	0.0036794515
85	0xbcd1019f	-0.025513468
86	0xbd4345e8	-0.04767409
87	0xbd290fb8	-0.041274756
88	0xbd212cda	-0.039349414
89	0x3c99afbb	0.018760553
90	0xbd526735	-0.051367957
91	0xbceb3a8a	-0.028714437
92	0xbb927519	-0.0044695255
93	0xbda3b787	-0.079939894
94	0x3d9a1147	0.07522827
95	0x3db14e0a	0.08657463
96	0x3d8cc8a0	0.06874204
97	0x3d1e261e	0.03861057
98	0xbd7bebb8	-0.061504096
99	0xbcb0ef1e	-0.021598395
100	0xbd24c031	-0.04022235
101	0x3cdc0486	0.026857626
102	0xbd94c2dc	-0.07263729
103	0xbda2f944	-0.079577
104	0xbbec1799	-0.0072049615
105	0xbdb34e9b	-0.08755227
106	0xbc633700	-0.0138680935
107	0xbdab33e4	-0.08359507
108	0x3a850862	0.0010149593
109	0x3c139ed6	0.009010037
110	0xbd44428b	-0.047915023
111	0x3d6c6a08	0.057718307
112	0xbcb2e6d7	-0.021838589
113	0x3d8151ae	0.06314407
114	0x3cb2b1f7	0.021813376
115	0x3da4f353	0.08054223
116	0xbd7e51da	-0.06208978
117	0xbd814003	-0.063110374
118	0x3d4949ff	0.049142834
119	0x3c80453e	0.015658017
120	0x3d6cc3a2	0.057803757
121	0xbd9b664a	-0.075878695
122	0x3dacf253	0.08444657
123	0x3bf8d389	0.0075935763
124	0xbd3c625a	-0.045992233
125	0x3cc4475c	0.023959808
126	0xbd057b1f	-0.03258812
127	0x3d8b39e2	0.0679815
128	0xbd386922	-0.045022137
129	0xbb82a6ae	-0.003987155
130	0xbc817e6d	-0.015807355
131	0xbbb4bdcc	-0.0055157896
132	0xbd56ec22	-0.052471288
133	0x3cb21cb8	0.02174221
134	0x3d38fb46	0.045161508
135	0xba0f40ae	-0.0005464655
136	0x3b138cf0	0.0022514425
137	0xbd297240	-0.041368723
138	0x3d5d8930	0.05408591
139	0xba2c7162	-0.00065781747
140	0xbd9df89b	-0.07713433
141	0xbd9a7be3	-0.07543161
142	0xbc3414e3	-0.010991308
143	0xbd83a93d	-0.06428764
144	0x3c90978f	0.017650394
145	0xbd1748b4	-0.03693457
146	0xbdad1bdb	-0.08452579
147	0x3b7f97c5	0.0039000374
148	0x3d881b37	0.06645816
149	0xbd112eb7	-0.03544494
150	0x3d643f5c	0.055724487
151	0xbd1799c1	-0.037011866
152	0x3d8a933a	0.067663625
153	0x3d87280a	0.06599434
154	0xbd2c456c	-0.042058393
155	0xbdad3072	-0.08456506
156	0xbd23ab23	-0.03995813
157	0xbbd5cdb0	-0.006524764
158	0xba5be799	-0.0008388698
159	0x3ab3acf1	0.0013708157
160	0x3d81dcdb	0.06340953
161	0xbb1faa7c	-0.0024363091
162	0x3d5cbb22	0.0538894
163	0x3d7912e4	0.06080903
164	0xbc9f19f2	-0.019421551
165	0x3ba394fc	0.0049921256
166	0x3d98e078	0.07464689
167	0x3cf9949f	0.030466376
168	0x3d0861fb	0.033296566
169	0x3d8fcf36	0.07021944
170	0x3d2d962e	0.04237955
171	0xbc891c4b	-0.016737124
172	0xbc97ea1f	-0.018544255
173	0xbba474df	-0.005018815
174	0xbca76881	-0.020435574
175	0x3bfed677	0.007777031
176	0xbd67ab4c	-0.056559846
177	0x3db0b8aa	0.08628972
178	0xbda1ffda	-0.07910128
179	0x3b485e0e	0.003057364
180	0xbd6ce91c	-0.057839498
181	0xbdad1b7a	-0.08452506
182	0xbd83d5ad	-0.0643724
183	0xbb86c100	-0.004112363
184	0x3c31c345	0.010849779
185	0x3d8da000	0.06915283
186	0x3d904785	0.07044891
187	0xbdad9fa3	-0.08477714
188	0x3c996461	0.018724622
189	0x3cea7399	0.028619574
190	0x3c9dd51f	0.019266663
191	0xbd5a9293	-0.05336244
192	0x3d9bb530	0.07602918
193	0x3d307428	0.043079525
194	0x3dabf413	0.08396163
195	0x3d710130	0.058839023
196	0xbbec67f1	-0.007214539
197	0xbd4d0fe5	-0.050063986
198	0xbd3fc96b	-0.046822947
199	0xbcbed2d9	-0.0232939
200	0xbd955f20	-0.07293534
201	0x3c85d3e0	0.016336381
202	0x3da2b858	0.07945317
203	0xbd01472f	-0.031562027
204	0x3d3f10d1	0.046646897
205	0x3d838ea6	0.064236924
206	0x3a3d9f96	0.0007233558
207	0xbcee898b	-0.02911832
208	0xbd147626	-0.036245488
209	0x3ccbb1b9	0.024865018
210	0xbd4ff5f5	-0.050771672
211	0xbccc299f	-0.02492219
212	0xbd8664a9	-0.06562168
213	0xbc158663	-0.009126279
214	0xbda350c4	-0.07974389
215	0xbccb9f6d	-0.024856294
216	0x3d14bc32	0.03631229
217	0x3d8ac970	0.067767024
218	0xbd2577a7	-0.040397312
219	0xbda42df9	-0.08016581
220	0x3d4c5a58	0.049890846
221	0x3da05c9f	0.07830166
222	0x3c438214	0.0119328685
223	0xbda8bbba	-0.08238931
224	0x3d1cb811	0.038261477
225	0x3ae69ba3	0.0017593991
226	0x3d9de3a2	0.07709433
227	0xbd0d47b2	-0.034492202
228	0x3cde911e	0.027168807
229	0xbd8c070c	-0.068372816
230	0xbd3cbf47	-0.046080854
231	0x3bc14db8	0.0058991574
232	0xbcfcca3c	-0.030858152
233	0x3d120a7b	0.035654526
234	0xbd3cbd1a	-0.04607878
235	0x3d4b9458	0.04970202
236	0x3da3edad	0.080043174
237	0x3d84cce2	0.06484391
238	0xbd1fd505	-0.03902151
239	0x3d35baff	0.044367786
240	0xbd91339a	-0.0708992
241	0x3dae525d	0.08511803
242	0xbd12ae1f	-0.035810586
243	0x3dae3d6b	0.08507808
244	0x3d21640a	0.039402045
245	0x3d71850a	0.058964767
246	0xbd525fce	-0.051360898
247	0x3d56b8e1	0.052422408
248	0x3daf349c	0.08554956
249	0xbc3764c0	-0.011193454
250	0x3d10b4c5	0.035328645
251	0x3d888198	0.06665343
252	0xbd8f1e51	-0.06988204
253	0xbd28b00a	-0.04118351
254	0xbda40982	-0.08009626
255	0xbd2ddd55	-0.042447407

embed.1.bias f4 [128]
0	0xbd386e83	-0.045027267
1	0xbc81670c	-0.015796207
2	0x3d808376	0.06275074
3	0x3da82ff9	0.08212275
4	0x3d274e05	0.04084589
5	0x3a9e41af	0.0012074019
6	0x3d41113a	0.04713557
7	0x3d9d5945	0.076830424
8	0xbd601eda	-0.054716922
9	0x3c0e00fa	0.008667225
10	0xbc2a542e	-0.010396047
11	0x3d58a388	0.05289033
12	0xbb0b0f4a	-0.002121883
13	0xbda5a84e	-0.08088742
14	0x3bf863d0	0.007580258
15	0xbd4e0469	-0.050297175
16	0x3d3860c2	0.04501415
17	0x3d06d23c	0.03291534
18	0x3d31696f	0.04331344
19	0x3db329a8	0.0874818
20	0xbd8d7cec	-0.069085926
21	0xbd88749f	-0.06662869
22	0xbd873bf0	-0.06603229
23	0xbd91d90f	-0.07121479
24	0xbd3ac9e3	-0.04560269
25	0x3d7140ba	0.05889962
26	0x3b79f135	0.0038138155
27	0xbce0648f	-0.0273917
28	0x3d95f9f0	0.073230624
29	0x3ccc8816	0.024967235
30	0x3d666194	0.0562454
31	0xbd5a525c	-0.0533012
32	0xbd2ac3f5	-0.041690785
33	0x3cd4a251	0.025956305
34	0x3d8055fa	0.06266399
35	0x3d030bf4	0.03199382
36	0x3ce23296	0.027612012
37	0xbd4740fe	-0.048645966
38	0x3bd9c096	0.0066452725
39	0xbb411510	-0.0029462017
40	0x3d3a2477	0.04544493
41	0xbd83903f	-0.06423997
42	0x3da44b8e	0.080222234
43	0xbdad489f	-0.08461117
44	0x3d5faf6b	0.05461065
45	0x3b8a2992	0.0042163813
46	0x3d93e015	0.07220475
47	0xbd91f2d8	-0.07126397
48	0xbd3fd9d3	-0.046838593
49	0x3dab984e	0.08378659
50	0x3c15baef	0.009138807
51	0xbd28532a	-0.041094936
52	0x3cd1db7a	0.02561735
53	0x3db39ee9	0.08770544
54	0xbcd71f71	-0.02626011
55	0x3ca21ac0	0.019788146
56	0xbb0c1792	-0.0021376354
57	0x3d16b745	0.036795873
58	0xbce51293	-0.027962958
59	0x3d10626a	0.035250105
60	0x3d36b3ee	0.044605188
61	0xbb84cccf	-0.0040527354
62	0xbd0dc302	-0.034609802
63	0x3a960627	0.0011445925
64	0x3d1284e3	0.035771262
65	0xbd959dde	-0.073055014
66	0x3d934837	0.07191508
67	0x3c6ef8c2	0.014585676
68	0x3bd2f40b	0.0064377836
69	0xbc3a87c3	-0.011384907
70	0x3c95edb0	0.018301815
71	0x3da48c57	0.0803458
72	0x387cca69	6.026999e-05
73	0x3d1cc685	0.03827526
74	0xbd7841f3	-0.06060977
75	0x3d84d54a	0.06485994
76	0x3d6168a4	0.055031434
77	0xbd073e69	-0.033018503
78	0x3c31772b	0.0108316345
79	0xbd0ff5c4	-0.03514649
80	0x3da5a511	0.080881245
81	0x3d5cb82c	0.053886577
82	0xbd6e6148	-0.058198243
83	0x3d97fa9e	0.07420848
84	0xbd213f37	-0.039366927
85	0x3d19c335	0.03753968
86	0x3d2ec8f7	0.042672124
87	0x3dafd0db	0.08584758
88	0xbd8e8205	-0.06958393
89	0x3c72b168	0.014812805
90	0xbd1b6404	-0.03793718
91	0x3d33f89a	0.043938257
92	0xbd2cfb8e	-0.04223209
93	0x3d53a091	0.0516668
94	0x3d6a3456	0.057178818
95	0xbd1454e2	-0.036213763
96	0xbd03b86b	-0.032158297
97	0x3d13357a	0.03593967
98	0xbd6e9bf6	-0.058254205
99	0xbd28cdb4	-0.0412118
100	0x3d16243f	0.03665566
101	0x3d901b15	0.070364155
102	0x3cb77ee4	0.022399373
103	0x3d23bd03	0.039975177
104	0x3d50ef3f	0.051009413
105	0x3d93cdc8	0.07216984
106	0xbd8b38e9	-0.06797964
107	0xbcaa995e	-0.020825084
108	0xbd9784a2	-0.073983446
109	0xbd91e6f8	-0.07124132
110	0xbc656176	-0.014000287
111	0x3db33d37	0.0875191
112	0xbd309616	-0.043111883
113	0xbc88e23f	-0.016709445
114	0x3d405ee5	0.0469655
115	0x3d3468c4	0.044045225
116	0x3c67e51b	0.014153744
117	0xbd9a9602	-0.07548143
118	0xbc9ee188	-0.019394651
119	0x3c7b3417	0.015332243
120	0x3b837d77	0.0040127593
121	0x3d310a1e	0.04322254
122	0x3d08eb35	0.033427436
123	0xbd0ecc48	-0.034862787
124	0xbda3e3f7	-0.08002465
125	0xbdae5cfa	-0.085138276
126	0xbd2787a6	-0.04090085
127	0xbccc733f	-0.024957297

embed.3.weight f4 [256, 128]
0	0x3ca7e461	0.020494642
1	0x3d8bd63e	0.06827973
2	0x3dac1b00	0.08403587
3	0xbd1b3583	-0.03789283
4	0x3d96df92	0.073668614
5	0x3d8e8a9c	0.069600314
6	0x3d95c049	0.07312066
7	0x3d88e8d4	0.066850334
8	0xbd5046b1	-0.050848667
9	0xbd74f966	-0.059808157
10	0xbc86176d	-0.016368592
11	0xbd441b69	-0.047877703
12	0xbc069a76	-0.008215537
13	0xbd8cd1fa	-0.06875987
14	0xbd1b87d3	-0.03797133
15	0xbcebcb19	-0.028783368
16	0xbb9cf760	-0.0047902316
17	0x3d8bcdd0	0.06826365
18	0x3d4e0269	0.050295267
19	0xbca00e73	-0.01953814
20	0x3d43d212	0.04780776
21	0xbd9f957f	-0.07792186
22	0xbd78adeb	-0.060712736
23	0x3d8909b7	0.06691306
24	0x3d68445d	0.05670582
25	0xbcedf748	-0.029048577
26	0x3d8775bf	0.06614255
27	0xbd9e5221	-0.077305086
28	0x3dab079f	0.08351063
29	0x3d8f5310	0.06998265
30	0x3c214bf1	0.009844766
31	0xbdaf260d	-0.085521795
32	0x3d702bfc	0.058635697
33	0x3d38ac93	0.045086455
34	0x3cae035a	0.021241833
35	0x3db06d6c	0.086146206
36	0x3da7aacc	0.08186874
37	0xbd46cd78	-0.048535794
38	0xbd289824	-0.041160718
39	0xbc3ad6c7	-0.011403746
40	0x3d2addc2	0.04171539
41	0x39c9cd38	0.00038490607
42	0x3d10ad59	0.035321567
43	0xbcaa491c	-0.020786814
44	0xbd3b5d1e	-0.0457431
45	0x3d81e2a4	0.063420564
46	0xbd90fe84	-0.07079795
47	0xbd1364f1	-0.035984937
48	0x3d2803f5	0.0410194
49	0x3d49db7f	0.049281593
50	0xbd5a8d53	-0.053357434
51	0x3daa1a9b	0.08305856
52	0x3d16988e	0.03676658
53	0x3cf78995	0.030216971
54	0xbbd80048	-0.0065918304
55	0x3d597efb	0.053099614
56	0xbca95923	-0.020672387
57	0x3ca07791	0.019588264
58	0x3d6311ab	0.05543677
59	0xbdb2d43b	-0.08731886
60	0xbd564aa3	-0.052317273
61	0x3db1e77e	0.08686732
62	0x3cdfacbc	0.027304046
63	0xbcaaaf39	-0.020835506
64	0xbd860a02	-0.065448776
65	0x3b8ad0e3	0.004236327
66	0x3d32c37f	0.04364347
67	0x3cbe45a0	0.02322656
68	0x3d8f6263	0.07001188
69	0x3bd8f233	0.0066206693
70	0xbd868c23	-0.06569698
71	0xbd392feb	-0.045211714
72	0x3d185017	0.037185755
73	0x3cba04e7	0.022707416
74	0x3d8ad7b7	0.067794256
75	0x3aaea9e6	0.001332578
76	0x3d8af499	0.067849346
77	0xbd23d76b	-0.04000036
78	0x3d5838e4	0.05278863
79	0x3c923f56	0.017852467
80	0xbca30c29	-0.01990326
81	0xbd22dc5d	-0.039760936
82	0xbd4fdec2	-0.050749548
83	0x3da61088	0.08108622
84	0xbb2894d9	-0.0025723486
85	0x3d73541e	0.059406392
86	0xbd316ff7	-0.04331967
87	0xbd004bf6	-0.031322442
88	0xbdb46d45	-0.08809904
89	0xbd1650d4	-0.036698177
90	0xbd315c60	-0.043300986
91	0x3d83972e	0.064253196
92	0xbd24c8bb	-0.040230494
93	0xbd17b60d	-0.03703885
94	0xbdacd9f1	-0.084400065
95	0x3da15f8f	0.078795545
96	0x3daa0e99	0.083035655
97	0xbd16da84	-0.036829486
98	0xbc0d9311	-0.00864102
99	0xbd218cd4	-0.039440945
100	0xbcb496e2	-0.022044603
101	0x3d3911b9	0.045182917
102	0xbd8b70d5	-0.068086304
103	0xbc7d903a	-0.015476281
104	0x3c93e712	0.018054519
105	0x3da442c3	0.08020546
106	0x3c0f2f5b	0.008739318
107	0xbc5b6fa8	-0.01339332
108	0x3d73b38e	0.05949741
109	0xbd796f06	-0.060896896
110	0x3d008759	0.031379078
111	0xbce05cbc	-0.02738797
112	0x3c0321f0	0.008003697
113	0x3d7e6a25	0.062112946
114	0x3d085c31	0.033291046
115	0xbd86ff2b	-0.06591638
116	0xbceffea1	-0.029296221
117	0xbcc5b703	-0.024135118
118	0xbd5aa526	-0.053380154
119	0xbd7e7439	-0.062122557
120	0xbd78dd3a	-0.060757853
121	0xbcbbdb81	-0.022931816
122	0xbdb0b388	-0.08627993
123	0xbcd10d4a	-0.025519032
124	0xbc97ae15	-0.018515626
125	0xbd7ad90d	-0.061242152
126	0xbd48e465	-0.04904594
127	0x3dab6583	0.08368971
128	0xbbe2a10d	-0.0069161714
129	0x3c8768ac	0.016529404
130	0x3da0e9a2	0.07857062
131	0xbd2a59b2	-0.041589446
132	0x3be6b7a8	0.0070409365
133	0x3d8c1064	0.06839064
134	0x3d69956f	0.057027277
135	0x3db495ae	0.08817612
136	0xbce0a2eb	-0.027421435
137	0x3a7bd019	0.0009605899
138	0x3d4411ff	0.047868725
139	0xbd21458b	-0.039372962
140	0xbd66b73f	-0.0563271
141	0x3da0cbd0	0.07851374
142	0x3b299f40	0.0025882274
143	0xbbcbc87b	-0.0062189675
144	0xbd4ce2a4	-0.05002083
145	0xba2b2e3c	-0.0006530022
146	0xbc4e006c	-0.012573343
147	0x3d8e7c87	0.069573455
148	0xbc8be931	-0.017078968
149	0x3d5646cd	0.052313615
150	0xbd86f7b6	-0.06590216
151	0xbd3f1ae5	-0.046656508
152	0x3d4845c8	0.048894674
153	0x3d880b75	0.0664281
154	0xbcac34b4	-0.021021225
155	0xbd0e53f1	-0.03474802
156	0xbd95c62d	-0.0731319
157	0x3c57e185	0.013176327
158	0xbd84e090	-0.064881444
159	0x3cb131ea	0.021630246
160	0xbd10e743	-0.0353768
161	0x3d1ca209	0.038240466
162	0xbc2f9e56	-0.010718903
163	0xbd8e6e42	-0.06954624
164	0xbd0b1a73	-0.03396077
165	0x3cb7c354	0.022432007
166	0x3cbaf32c	0.022821032
167	0x3ce35327	0.027749611
168	0x3d2f4496	0.042790018
169	0xbda1cc0d	-0.07900248
170	0xbd56761a	-0.052358724
171	0x3d34f9b4	0.044183448
172	0x3dafdaa7	0.085866265
173	0x3cd2063c	0.025637738
174	0x3d0b7fff	0.034057613
175	0xbc401588	-0.011723883
176	0x3d286d76	0.041120015
177	0xbbba84fa	-0.0056921216
178	0xbcc6815b	-0.024231603
179	0x3d902147	0.07037597
180	0x3cd1284a	0.025531907
181	0x3adbaa6f	0.0016759167
182	0xbd75ae68	-0.05998078
183	0xbd8c14e3	-0.06839921
184	0x3d3a6385	0.045505065
185	0x3cd20981	0.025639297
186	0xbd88f271	-0.06686867
187	0x3baa98dc	0.0052062105
188	0x3d0bacc1	0.034100298
189	0xbbd123a6	-0.0063824235
190	0xbd827c5b	-0.06371375
191	0x3d39bf6d	0.045348573
192	0xbbaabdb7	-0.005210604
193	0xbd917c5a	-0.07103796
194	0xbd7e8b86	-0.06214478
195	0x3d5a389b	0.05327664
196	0x3db1c081	0.08679295
197	0xbd8d4dc7	-0.068996005
198	0x3d52700e	0.051376395
199	0xbd73af58	-0.059493393
200	0xbd7ac5dc	-0.06122385
201	0xbd30c2bf	-0.043154474
202	0x3d29f110	0.04148966
203	0xbd68cd0c	-0.056836173
204	0xbbc6d093	-0.0060673445
205	0x3db2544f	0.08707487
206	0xbd8ceb8c	-0.068808645
207	0x3a9f31bf	0.0012145563
208	0xbbfa7093	-0.0076428144
209	0x3d39e230	0.045381725
210	0x3d179016	0.037002645
211	0xbcaf6fd2	-0.021415625
212	0x3d8fecf4	0.07027617
213	0x3d7f7539	0.06236765
214	0xbcac5037	-0.021034343
215	0xbc814975	-0.015782097
216	0xbcd4d92f	-0.025982467
217	0xbd3c483b	-0.04596732
218	0xbd028731	-0.03186721
219	0x3cd0d9fa	0.025494564
220	0x3d96aabb	0.07356783
221	0xbd0e6823	-0.03476728
222	0x3da2b1f0	0.07944095
223	0x3ce297fd	0.027660364
224	0xbdad34df	-0.0845735
225	0x3c43d754	0.011953194
226	0xbbeeccea	-0.0072876113
227	0x3daf0677	0.08546155
228	0xbda7d5cf	-0.08195078
229	0x3d9310d4	0.07180944
230	0xbd8c7530	-0.06858289
231	0x3c904da5	0.017615149
232	0xbd237d6e	-0.03991454
233	0x3c12f872	0.008970367
234	0xbd6d0ff0	-0.057876527
235	0xbc6cb90a	-0.014448414
236	0xbcdc592d	-0.026897991
237	0x3d9dead4	0.077108055
238	0xbca093f6	-0.019601803
239	0xbd84c5ae	-0.06483017
240	0x3d862848	0.06550652
241	0xbcd9368b	-0.026515266
242	0xbca1a0d1	-0.019730004
243	0x3d8c64f6	0.06855194
244	0xbd4d5202	-0.050127037
245	0x3cc8907b	0.024482956
246	0x3d0e2da8	0.03471151
247	0xbd6ff3d8	-0.058582157
248	0xbcb71cb7	-0.02235256
249	0xbd504461	-0.05084646
250	0x3d97a90a	0.074052885
251	0xbcdf875e	-0.027286228
252	0xbda6f2da	-0.08151789
253	0x3d9a7fa0	0.07543874
254	0xbcc286f2	-0.023745988
255	0x3cc48e5c	0.023993663

embed.3.bias f4 [256]
0	0x3d3c51cd	0.04597645
1	0x3d34c1f6	0.044130288
2	0x398ce41a	0.0002687283
3	0xbd9243eb	-0.071418606
4	0xbd970049	-0.07373101
5	0xbccb814e	-0.02484193
6	0x3d9e984e	0.077438936
7	0xbda95550	-0.08268225
8	0x3d399207	0.04530528
9	0xbce2e9f3	-0.027699446
10	0x3d314d87	0.043286826
11	0x3da7750b	0.08176621
12	0xbda2f152	-0.079561844
13	0xbc6abfe6	-0.014327979
14	0xbd1bfaf3	-0.03808112
15	0xbcaa2a5a	-0.020772148
16	0x3dafec44	0.08589986
17	0x3d8c6bbc	0.06856486
18	0x3d8beef9	0.0683269
19	0xbc98576a	-0.01859637
20	0x3d94dd9a	0.0726883
21	0xbdb0d2d9	-0.08633966
22	0xbcb65435	-0.02225695
23	0xbda71b42	-0.08159496
24	0x3d384f7d	0.04499768
25	0xbd152b77	-0.036418404
26	0xbb88339d	-0.0041565434
27	0xbd1b668e	-0.0379396
28	0xbd4cbfbf	-0.04998755
29	0x3daed9d5	0.08537642
30	0xbd7916b9	-0.060812686
31	0xbc216801	-0.009851457
32	0xbd1729db	-0.03690515
33	0xbd6aef60	-0.057357192
34	0x3d921cb0	0.07134378
35	0x3cbcab59	0.023030924
36	0xbd477ba6	-0.048701905
37	0xbd8d1365	-0.06888465
38	0x3c875cf6	0.01652382
39	0x3d2e1cb8	0.042507857
40	0xbda71053	-0.081574105
41	0x3cb5a02e	0.022171106
42	0x3bd0ccc4	0.006372066
43	0x3d9143f7	0.070930414
44	0xbc08cd30	-0.008349702
45	0xbd8458ae	-0.06462227
46	0xbd217815	-0.03942116
47	0xbd5ecfc6	-0.054397367
48	0xbd920edb	-0.0713174
49	0xbd560995	-0.052255232
50	0xbb623263	-0.0034514896
51	0xbd9e05b7	-0.07715934
52	0xbbfbcde3	-0.0076844557
53	0xbca53009	-0.020164507
54	0xbce3e531	-0.027819248
55	0x3d321aa2	0.04348243
56	0xbd4028b3	-0.046913814
57	0xbda79384	-0.08182433
58	0x3da6e5d4	0.08149305
59	0x3d490d95	0.04908522
60	0x3d7ed8fc	0.06221865
61	0x3d76f9c4	0.06029679
62	0xbd055249	-0.032549176
63	0xbdaabbd9	-0.0833661
64	0x3d22cd45	0.03974654
65	0xbd6e7733	-0.058219146
66	0x3d02a94d	0.03189974
67	0x3ccde083	0.02513147
68	0xbdadc1e2	-0.08484246
69	0xbd0c7b6e	-0.0342974
70	0xbd0140e8	-0.03155604
71	0xbd0ba0e9	-0.034089003
72	0xbd2aed7e	-0.041730396
73	0xbd11037b	-0.03540371
74	0x3da2b53b	0.07944723
75	0xbd4f3e14	-0.05059631
76	0x3da6575d	0.08122132
77	0xbc1563c8	-0.009118028
78	0xbd9f1512	-0.07767691
79	0xbb9b22bd	-0.0047343657
80	0x3d99aeb4	0.07504025
81	0x3db49631	0.08817709
82	0xbd9fa804	-0.07795718
83	0x3d900f9a	0.07034226
84	0xbd373a78	-0.044733495
85	0xbd009eed	-0.031401563
86	0x3c3957e1	0.011312456
87	0x3d5ee2be	0.054415457
88	0x3d0348b8	0.032051772
89	0x3cd1eb0e	0.025624778
90	0xbcc9f86c	-0.02465459
91	0x3d19729c	0.037462816
92	0x3da59272	0.08084573
93	0x3d52b8bc	0.051445708
94	0x3c938f4d	0.018012667
95	0xbd72c7e9	-0.05927268
96	0x3db26541	0.08710719
97	0x3d980f3a	0.07424779
98	0x3d20a6fa	0.03922174
99	0xbd8290ff	-0.06375312
100	0x3d6c5ff2	0.057708688
101	0x3b1e198e	0.0024124118
102	0xbd19c6be	-0.03754305
103	0x3d8b5163	0.06802633
104	0x3cce1e90	0.025161058
105	0x3c871b1c	0.016492419
106	0x3d9842f4	0.07434645
107	0xbc25d7d7	-0.010122261
108	0xbbd1df90	-0.0064048246
109	0x3d58b0c8	0.052902967
110	0xbd827dd4	-0.06371656
111	0xbd10f0aa	-0.035385765
112	0xbd9dc8ca	-0.07704313
113	0x3d3d6422	0.046238072
114	0x3c9ee50c	0.019396327
115	0x3d48ede3	0.04905499
116	0x3d28c275	0.041201074
117	0xbdb4edad	-0.088343956
118	0x3d9d6ead	0.07687125
119	0xbda710eb	-0.08157524
120	0xbda3d793	-0.08000102
121	0xbc199fbb	-0.009376462
122	0xba8c4d7d	-0.0010704246
123	0xbb465381	-0.0030262175
124	0xbda17cc1	-0.07885123
125	0xbd9f1a0a	-0.077686384
126	0xbd097da5	-0.03356709
127	0xbc17679e	-0.009241013
128	0xbd67a71a	-0.056555845
129	0xbd642a9f	-0.05570471
130	0x3db4522e	0.08804737
131	0x3ca43b22	0.020047728
132	0xbd71cc6d	-0.059032846
133	0x3c9fee47	0.0195228
134	0xbc1ef3f6	-0.0097017195
135	0x3db4768b	0.08811673
136	0xbd84caa6	-0.064839646
137	0x3cfc5b98	0.030805394
138	0xbd32f4aa	-0.04369036
139	0x3da07dc9	0.078364916
140	0xbd8dad7c	-0.06917855
141	0x3daa1dbf	0.08306455
142	0x3d53b6f0	0.051688135
143	0xbd8dad95	-0.06917874
144	0x3bdbc1c5	0.0067064487
145	0x3d605717	0.054770555
146	0xbd6e1394	-0.05812414
147	0x3b23552b	0.002492259
148	0x3cfe7acf	0.03106442
149	0xbcfd7ac5	-0.03094233
150	0x3cfe9f0c	0.031081699
151	0x3cc4b2e3	0.024011081
152	0x3d0a46d6	0.03375896
153	0x3c1f081d	0.009706524
154	0x3da74d59	0.0816905
155	0xbce8d09e	-0.028419789
156	0x3cb6dcc4	0.022322066
157	0xbc95e507	-0.018297685
158	0x3b998981	0.004685581
159	0xbd0840c5	-0.033264894
160	0xbc118476	-0.008881679
161	0x3d8261ca	0.06366308
162	0xbc44b4b2	-0.012005972
163	0xbd27bb7a	-0.040950276
164	0xbd23a813	-0.03995521
165	0x3b61fab4	0.0034481706
166	0xbd52a599	-0.051427457
167	0x3d8fe47f	0.07026004
168	0x3d737cdd	0.05944525
169	0x3d9bce7d	0.07607744
170	0x3b7a1353	0.003815849
171	0x3c937332	0.017999265
172	0x3c44df6f	0.012016161
173	0x3cce7277	0.025201065
174	0xbcd20ae5	-0.02563996
175	0xbd216bce	-0.03940945
176	0x3d9223a5	0.07135705
177	0x3b95d069	0.0045719636
178	0x3c17eca4	0.009272728
179	0xbc94e45f	-0.018175302
180	0x3be9e7bf	0.007138222
181	0xbba298fd	-0.0049620853
182	0xbd81e8af	-0.06343209
183	0xbca076fe	-0.01958799
184	0xbd1b6f1c	-0.03794776
185	0x3d80d147	0.062899165
186	0xbd1e439e	-0.038638704
187	0x3cf0e2c2	0.029405002
188	0xbcd4db81	-0.025983574
189	0x3d06b31f	0.032885667
190	0x3d3069ea	0.043069758
191	0x3d338f5d	0.043837894
192	0xbd6e3259	-0.058153484
193	0xbd8eef83	-0.06979277
194	0xbc350e73	-0.011050808
195	0x3d3e7bee	0.046504907
196	0x3c7ba458	0.015359007
197	0x3d90f247	0.07077461
198	0x3d8c2918	0.068437755
199	0xbd4c53c8	-0.049884588
200	0x3ae8bcd1	0.0017756467
201	0xbc5d3905	-0.013502364
202	0x3c0d6806	0.008630758
203	0xbd94d7ae	-0.072677
204	0x3da16c91	0.078820355
205	0x3d817dca	0.063228205
206	0xbc7b6854	-0.015344698
207	0x3c51a847	0.012796468
208	0x3db06f7c	0.08615014
209	0xbd1c49f2	-0.038156457
210	0x3d8d7987	0.06907945
211	0x3ca70f0e	0.02039292
212	0xbd8ab5e3	-0.067729734
213	0x3d5a93a2	0.05336345
214	0xbc3eba35	-0.011641075
215	0x3d2d588d	0.042320777
216	0x3da013df	0.0781629
217	0xbcefba15	-0.029263536
218	0x3c91d34e	0.017800953
219	0xbc9059ff	-0.017621038
220	0x3d1594f2	0.036519
221	0xbd6eb1b7	-0.05827495
222	0xbdafd23e	-0.085850224
223	0x3d3578d6	0.04430469
224	0x3d2160e4	0.039399043
225	0xbd983461	-0.074318655
226	0xbcd4a1f7	-0.025956137
227	0x3cb86e89	0.022513645
228	0xbd3527f3	-0.04422755
229	0xbd39c584	-0.04535438
230	0xbd322529	-0.04349247
231	0x3d3b791b	0.045769792
232	0xbaf22374	-0.0018473701
233	0xbd9c16d6	-0.07621543
234	0x3d0b8574	0.034062818
235	0x3d68a890	0.05680138
236	0x3cdc2b7b	0.026876202
237	0x3d91b389	0.07114322
238	0x3d90a91c	0.07063505
239	0xbbd45582	-0.00647992
240	0x3c89e670	0.016833514
241	0x3cc1dd4e	0.023665097
242	0x3d4db1ab	0.050218266
243	0xbd2efcf6	-0.04272171
244	0xbc4df36d	-0.012570244
245	0xbdb28118	-0.08716029
246	0xbce539a4	-0.027981587
247	0x3d8af3fd	0.06784818
248	0xbd63235b	-0.05545364
249	0x3d148cee	0.036267214
250	0xbd888c29	-0.066673584
251	0x3c8ad50b	0.01694729
252	0x3d7a4c20	0.061107755
253	0x3d651c54	0.05593522
254	0xbdab36b6	-0.08360045
255	0x3cc5f8dc	0.024166517

conv_spatial.mlp.0.weight f4 [256, 2]
0	0x3d172078	0.0368962
1	0x3d178c91	0.03699929
2	0xbd018e54	-0.031629875
3	0x3d07bb56	0.03313764
4	0xbe8809c3	-0.26569948
5	0xbe8a8445	-0.2705404
6	0xbe7af9e5	-0.2450939
7	0x3e027b8a	0.12742439
8	0x3e2b3bdc	0.16722053
9	0x3e26aa12	0.16275814
10	0x3e5bdfee	0.21472141
11	0x3db04d79	0.08608527
12	0x3e734300	0.23756027
13	0xbd04dc34	-0.032436565
14	0x3e631d52	0.22179154
15	0xbd853bb3	-0.06505527
16	0xbe57ed92	-0.2108672
17	0xbd81830d	-0.06323824
18	0xbdff4174	-0.12463656
19	0xbdfc057b	-0.12305733
20	0x3db89a17	0.09013765
21	0x3d87ecec	0.06636986
22	0xb92e2065	-0.00016606001
23	0xb98377ad	-0.00025075432
24	0x3e84bf00	0.2592697
25	0xbddf6055	-0.10907046
26	0xbd7fdd14	-0.062466696
27	0x3e6d9f17	0.23205219
28	0x3c5eb9b8	0.0135940835
29	0xbe67b92a	-0.22629228
30	0xbe6aa33e	-0.22913834
31	0x3c1246a6	0.008927977
32	0xbe89d3c2	-0.2691937
33	0x3e2bedcd	0.16789933
34	0x3d38aec1	0.045088533
35	0x3e2ba2ab	0.16761272
36	0x3d22d536	0.039754115
37	0xbe989385	-0.29800048
38	0x3e019a43	0.12656502
39	0xbe0e72d0	-0.13910985
40	0xbe16a0eb	-0.14709823
41	0xbe73c654	-0.23806125
42	0x3d2ca391	0.042148177
43	0xbe3e6fde	-0.18597361
44	0xbcf7f2ff	-0.030267237
45	0xbd5c3f08	-0.05377105
46	0xbe93d469	-0.28872994
47	0x3dc92b05	0.098226584
48	0xbe425472	-0.18977526
49	0x3da13727	0.078718476
50	0xbe21e2a3	-0.15809111
51	0xbe87e872	-0.2654453
52	0xbe388cee	-0.1802251
53	0xbd1d2eb3	-0.038374614
54	0xbeb14c19	-0.3462837
55	0xbeac06c9	-0.33598927
56	0x3e68835e	0.22706363
57	0x3d9541c5	0.07287935
58	0xbe9421ad	-0.28931943
59	0xbcaa3f38	-0.020782098
60	0x3d2faa6a	0.04288713
61	0xbdac79ba	-0.08421655
62	0xbc4d58b9	-0.01253336
63	0xbdcd5ea4	-0.10027817
64	0x3e04b2a4	0.12958771
65	0x3e4eb837	0.2018746
66	0x3d8f061f	0.069835894
67	0xbe3d7274	-0.18500692
68	0x3d09c4f3	0.03363509
69	0xbda422c5	-0.08014444
70	0x3d70c8b8	0.05878517
71	0x3e35dc66	0.17759857
72	0xbed75a51	-0.42061093
73	0xbefe579c	-0.49676216
74	0xbd2e676f	-0.04257911
75	0x3daeb6b6	0.08530943
76	0x3dbdae58	0.09261769
77	0xbe839f08	-0.2570727
78	0x3e37ea9b	0.17960589
79	0x3dc5306a	0.09628375
80	0x3cad65cd	0.021166706
81	0x3cc15779	0.02360128
82	0x3e181510	0.14851785
83	0x3cce7cf9	0.025206076
84	0x3d2f349c	0.04277478
85	0x3d5cdb20	0.05391991
86	0x3e5aa84d	0.21353264
87	0xbd18ac39	-0.03727362
88	0xbd44d4a8	-0.048054367
89	0xbde716e5	-0.11283664
90	0xbe8325b7	-0.25614712
91	0x3d69ca21	0.05707753
92	0xbe99ec33	-0.30063018
93	0xbe0e7d31	-0.13914944
94	0xbe04c29c	-0.12964863
95	0x3e81f5fc	0.25382984
96	0x3d7632b7	0.06010696
97	0xbdc7d566	-0.097574994
98	0x3e00ba88	0.12571156
99	0x3d7193f4	0.05897899
100	0xbec98782	-0.39361197
101	0xbea6c9a9	-0.3257573
102	0xbe33d3d6	-0.17561278
103	0xbebf1010	-0.37316942
104	0xbe7a6aeb	-0.24454848
105	0xbde1517a	-0.110018685
106	0xbe302884	-0.17202955
107	0x3e39f145	0.18158443
108	0xbbad45e9	-0.005287875
109	0x3e522aa9	0.20524086
110	0x3cb36bf5	0.021902064
111	0xbe652e8e	-0.2238104
112	0xbdcaea43	-0.09907963
113	0x3dc9d841	0.098557
114	0xbdc1ab98	-0.09456557
115	0x3e637457	0.22212349
116	0x3e6bcc3a	0.23027125
117	0x3d39001f	0.04516613
118	0xbdde82f6	-0.108648226
119	0xbe18239a	-0.14857331
120	0x3dcd3d18	0.10021418
121	0x3d2135c8	0.03935793
122	0xbdced4d1	-0.10099185
123	0xbd2fc584	-0.042912975
124	0x3d7a9d79	0.061185334
125	0x3e2b10c8	0.1670562
126	0x3e784ee0	0.24248838
127	0x3da92b10	0.08260167
128	0x3cb1d55e	0.021708187
129	0x3d2a455b	0.04157005
130	0xbdabc90e	-0.083879575
131	0x3d6a5ba8	0.057216316
132	0x3ee70451	0.4512048
133	0x3ef3ac54	0.47592413
134	0x3cffff11	0.031249555
135	0x3db781a2	0.08960272
136	0xbdefd845	-0.11711172
137	0x3e4328a1	0.19058467
138	0xbd3872c6	-0.04503133
139	0x3e459b30	0.1929748
140	0x3c29adad	0.010356349
141	0xbc3f6365	-0.011681412
142	0xbe767dd7	-0.24071442
143	0x3d90b472	0.07065667
144	0xbe6f5d1b	-0.2337536
145	0xbcd58ef1	-0.026069136
146	0x3e7fa874	0.24966604
147	0x3dff9858	0.12480229
148	0xbedf40e4	-0.43604195
149	0xbeb5b1ca	-0.35487205
150	0xbdf86fc0	-0.121306896
151	0xbe47bfb3	-0.19506721
152	0x3df83a6e	0.121205196
153	0xbd5c7bbf	-0.05382895
154	0xbe36a2ba	-0.17835513
155	0xbd6a6c96	-0.057232462
156	0x3dca8cfd	0.09890173
157	0xbc9e70bf	-0.01934087
158	0x3e00ee2e	0.12590858
159	0xbe18ff16	-0.14941058
160	0xbe1c7561	-0.15279151
161	0x3e7ef61f	0.24898575
162	0x3e1f9eec	0.15587968
163	0xbe354a44	-0.17704111
164	0xbd15a919	-0.036538217
165	0x3dfa1118	0.122102916
166	0x3db924b4	0.09040204
167	0x3e1a03c5	0.150405
168	0xbdd825ea	-0.105541065
169	0x3e449dc3	0.19200806
170	0xbc9ead64	-0.019369788
171	0xbe8bfb41	-0.2734013
172	0x3d49b5b5	0.049245555
173	0x3e6e5fcf	0.23278736
174	0xbe25c52d	-0.16188498
175	0xbdf538f3	-0.11973753
176	0x3e2eb9ac	0.17063016
177	0xbe4a9889	-0.1978475
178	0xbe7c83c1	-0.24659635
179	0xbdca21f4	-0.09869757
180	0xbdd96aee	-0.10616098
181	0xbdac8ffc	-0.084259
182	0xbf082b4b	-0.5319106
183	0x3f165759	0.5872703
184	0xbb4f84a5	-0.0031664756
185	0xbe5339a1	-0.20627452
186	0xbdb63874	-0.08897486
187	0x3e5c7941	0.2153063
188	0x3e0d91ea	0.13825193
189	0x3e399d60	0.1812644
190	0x3d4f56bc	0.050619826
191	0x3dd35961	0.10319782
192	0x3ea44815	0.32086244
193	0xbd57c299	-0.052675817
194	0xbe8ea236	-0.27858132
195	0xbeb93e8d	-0.36180535
196	0x3e643a83	0.22287945
197	0xbda32039	-0.0796513
198	0xbf34e19b	-0.70656747
199	0x3f219d50	0.63130665
200	0x3ea1ce81	0.31602862
201	0x3cd067bf	0.025440095
202	0x3e00ce00	0.12578583
203	0xbd2b8ccb	-0.041882318
204	0x3c86cc39	0.016454803
205	0xbc845cc7	-0.016157521
206	0x3e1d4681	0.15358926
207	0xbd638dd2	-0.055555172
208	0x3d29ae8c	0.041426226
209	0xbe93b87b	-0.28851685
210	0xbe5327db	-0.20620672
211	0x3e945cee	0.2897715
212	0xbe5f063b	-0.2177972
213	0xbc9c4397	-0.019075198
214	0x3dc79aec	0.09746346
215	0x3dcf36fb	0.101179086
216	0x3e4e1502	0.20125201
217	0xbe13e692	-0.14443424
218	0x3e8d094d	0.27546158
219	0x39bafbc6	0.0003566427
220	0x3d02cbad	0.03193252
221	0x3e0df209	0.1386186
222	0x3ce68eb4	0.028144218
223	0xbe68edde	-0.22746989
224	0x3e2eedec	0.17082947
225	0xbc3c3250	-0.011486605
226	0x3d1c144e	0.0381053
227	0xbdb3784b	-0.087631784
228	0xbe911563	-0.2833663
229	0x3e7e2794	0.24819785
230	0xbdb9b325	-0.09067372
231	0x3ddd8e4d	0.10818157
232	0xbe126fe3	-0.14300494
233	0x3dc06de7	0.09395962
234	0x3e38f09e	0.18060538
235	0x3d96a4a6	0.07355623
236	0xbe64bcda	-0.22337666
237	0x3d7ff79a	0.06249199
238	0xbe381331	-0.17976071
239	0xbda42b4b	-0.0801607
240	0x3e92ae44	0.2864858
241	0xbe0a2fcf	-0.134948
242	0xbddc6121	-0.10760713
243	0x3d148048	0.03625515
244	0xb9a6d7c1	-0.00031822736
245	0xb92f4329	-0.0001671432
246	0x3e50497a	0.20340529
247	0xbe3e012e	-0.18555138
248	0x3d96e327	0.073675446
249	0xbe896f22	-0.268426
250	0x3d15afe4	0.036544695
251	0x3e03ebf1	0.12882973
252	0x3d16edd5	0.036847908
253	0xbe05f979	-0.13083448
254	0xbd7bed8c	-0.06150584
255	0xbde00d7d	-0.10940073

conv_spatial.mlp.2.weight f4 [256, 256]
0	0x3e048987	0.12943088
1	0xbe6f1fd8	-0.23351991
2	0xbe1a47a3	-0.1506639
3	0xbecb73a6	-0.3973667
4	0x3e20db14	0.15708572
5	0x3e4a5e3f	0.19762515
6	0x3f06b16f	0.5261449
7	0x3f077cef	0.5292501
8	0xbea37fb6	-0.31933373
9	0xbe0962dd	-0.1341662
10	0x3e038767	0.1284462
11	0x3dc81376	0.09769337
12	0x3ef42fbb	0.47692665
13	0xbe7347ce	-0.2375786
14	0x3dd2e7e6	0.10298137
15	0xbee13eac	-0.43993127
16	0xbedc7087	-0.43054602
17	0x3dce0f68	0.10061532
18	0x3e1f380e	0.15548727
19	0x3e9f8664	0.3115722
20	0xbdef9e82	-0.11700155
21	0x3e17c5ed	0.14821596
22	0xbe11e2fc	-0.14246744
23	0xbf08380b	-0.53210515
24	0xbed83e39	-0.42234972
25	0xbe055000	-0.13018799
26	0xbe8d6523	-0.27616224
27	0xbdd3a613	-0.103344105
28	0x3e9aea4a	0.30256873
29	0xbed43a59	-0.41450766
30	0x3e9170fe	0.2840652
31	0x3d7f6867	0.062355425
32	0x3dc373a2	0.095435396
33	0x3e80f1d2	0.25184494
34	0x3e7b5ce9	0.24547161
35	0x3d9e9d24	0.07744816
36	0xbdf5e55c	-0.120066375
37	0xbe45bf87	-0.19311343
38	0x3e5690f6	0.20953736
39	0x3e495410	0.19660974
40	0x3e208171	0.15674378
41	0x3e7e65be	0.24843499
42	0x3e24217d	0.160284
43	0x3ef15c18	0.47140574
44	0xbdaa0b58	-0.08302945
45	0xbf0d4c93	-0.5519497
46	0xbea0e17b	-0.31422028
47	0xbe455d49	-0.19273867
48	0x3e87e712	0.2654348
49	0x3e3cc820	0.18435717
50	0xbe4d5439	-0.2005166
51	0xbe07b1dc	-0.13251442
52	0xbe5a2233	-0.21302108
53	0xbe8cbed4	-0.2748934
54	0xbd425c63	-0.047451388
55	0x3e015199	0.12628783
56	0xbeaedbdf	-0.34152123
57	0xbe0bf897	-0.13669048
58	0x3e9632a5	0.29335514
59	0xbe298ca5	-0.16557558
60	0x3e43fa2c	0.19138402
61	0xbe94fc71	-0.29098848
62	0x3c031df9	0.0080027515
63	0x3e80f6d4	0.25188315
64	0x3d7444cd	0.059635926
65	0xbe9efc2a	-0.3105176
66	0x3dd8bc0d	0.10582743
67	0x3dc4bd47	0.09606414
68	0xbe665c96	-0.22496256
69	0xbe2097c3	-0.15682893
70	0x3e40e6e8	0.18838084
71	0xbf11dcf0	-0.5697775
72	0xbe9b1db2	-0.30296093
73	0x3e8cb2e6	0.2748024
74	0xbde4effd	-0.11178587
75	0xbe01c8c6	-0.12674245
76	0x3edb836c	0.42873704
77	0xbe90ab98	-0.28255916
78	0x3ee47b71	0.44625428
79	0x3ea2491a	0.31696397
80	0xbe41cedd	-0.18926568
81	0x3e96d63b	0.2946032
82	0xbe198194	-0.14990836
83	0x3ddaa584	0.10676101
84	0xbe581007	-0.21099864
85	0x3d2524e4	0.040318385
86	0x3ca5301a	0.020164538
87	0xbe4ccdff	-0.20000456
88	0x3e8e43c3	0.27786073
89	0xbe5268d9	-0.20547809
90	0xbe7511c0	-0.23932552
91	0xbe66ff68	-0.22558367
92	0x3dcc3218	0.09970492
93	0xbe52eea8	-0.20598853
94	0x3e27ebaa	0.16398492
95	0x3dab0d4a	0.08352144
96	0x3f027b42	0.50969326
97	0xbe194ac4	-0.14969927
98	0x3f03000b	0.5117194
99	0xbea92abc	-0.33040416
100	0x3ecda92b	0.40168127
101	0x3f008efe	0.5021819
102	0x3e99690d	0.2996296
103	0x3efdf96c	0.49604356
104	0x3e17989e	0.14804313
105	0xbe8adee3	-0.27123174
106	0xbe91e578	-0.28495383
107	0x3ddd453d	0.10804222
108	0x3ebc45e4	0.36772072
109	0x3ebe53f2	0.3717342
110	0x3d72bd08	0.059262305
111	0x3e1105e3	0.14162402
112	0x3ec2524c	0.37953413
113	0x3e591c51	0.21202208
114	0xbe85112e	-0.2598967
115	0xbe7ed30d	-0.24885197
116	0xbee649be	-0.44978136
117	0x3e8c129d	0.2735795
118	0xbf253fb7	-0.64550346
119	0xbe8bf133	-0.27332458
120	0x3ed148b7	0.4087579
121	0xbee64433	-0.44973907
122	0x3d976741	0.07392741
123	0x3ec299be	0.3800792
124	0x3e2fdf9e	0.17175147
125	0x3dc99e55	0.098446526
126	0x3e0cf012	0.13763455
127	0xbe022acc	-0.12711638
128	0x3e64306a	0.22284093
129	0xbdfcc648	-0.12342507
130	0xbebbe198	-0.36695552
131	0xbc69b67b	-0.014264698
132	0x3e9b2705	0.30303207
133	0xbc660ffb	-0.014041896
134	0xbe823e45	-0.25438133
135	0xbea4526e	-0.3209414
136	0xbe809e8a	-0.25120956
137	0x3dfeac31	0.12435187
138	0x3eafb523	0.34317884
139	0xbf03de33	-0.51510924
140	0x3ee41135	0.44544378
141	0x3ead0d49	0.33799198
142	0x3ca67cff	0.020323275
143	0x3eba9733	0.3644348
144	0x3eb35ad8	0.35030246
145	0xbdcd2c39	-0.100182004
146	0x3de48553	0.11158242
147	0xbeb67635	-0.3563706
148	0x3ea69be1	0.325408
149	0xbe90e5b3	-0.28300247
150	0xbd8dc7ba	-0.069228604
151	0x3e935032	0.28772122
152	0x3e9ecc68	0.31015325
153	0x3e96f0c8	0.29480577
154	0xbea77c4e	-0.32712024
155	0xbe8c3d78	-0.27390647
156	0x3db67f3f	0.08910989
157	0x3eef28a6	0.467107
158	0xbe92b396	-0.28652638
159	0x3e05464c	0.13015097
160	0x3e7d4e10	0.2473681
161	0xba877f2e	-0.0010337585
162	0xbd94673f	-0.07246255
163	0x3e0f8242	0.14014533
164	0xbe80d9e8	-0.2516625
165	0xbd7ef883	-0.062248718
166	0xbe3e1f68	-0.18566668
167	0x3ceb75a3	0.028742617
168	0xbf1400fa	-0.5781399
169	0xbdb661c3	-0.08905365
170	0xbda96133	-0.082704924
171	0x3eb86762	0.36016375
172	0xbf1d0c00	-0.61346436
173	0xbe6854d5	-0.22688611
174	0xbe23938c	-0.15974253
175	0x3ebfa543	0.37430772
176	0xbe47fbbb	-0.19529621
177	0x3ec2687d	0.37970343
178	0x3f0c64b9	0.5484119
179	0xbe56dedd	-0.20983453
180	0xbf001321	-0.5002919
181	0xbdc4acc2	-0.096032634
182	0x3e86a8bc	0.2630061
183	0x3defb0e4	0.11703661
184	0x3dabbc35	0.08385507
185	0xbd1023d4	-0.03519042
186	0x3dc99ee4	0.09844759
187	0x3e3cb5fe	0.184288
188	0xbefeb72e	-0.4974913
189	0x3d1283b4	0.035770133
190	0x3e64a65e	0.22329089
191	0x3e9310fb	0.28723893
192	0xbed79b24	-0.4211055
193	0xbe4738b6	-0.19455227
194	0x3db0e0ea	0.08636649
195	0xbe182394	-0.14857322
196	0xbddf9a50	-0.10918105
197	0x3e917012	0.28405815
198	0xbef241c1	-0.4731579
199	0xbec0d2a4	-0.37660706
200	0xbe035b66	-0.12827834
201	0xbf294c8a	-0.66132414
202	0xbe46c498	-0.19410932
203	0x3df19542	0.11796047
204	0xbf09bfd5	-0.5380834
205	0xbea9d6b4	-0.33171618
206	0x3ba8a936	0.0051471246
207	0xbe490f39	-0.19634713
208	0xbe54c4b0	-0.20778155
209	0xbe52cddb	-0.2058634
210	0x3eb20a2e	0.3477339
211	0x3e704ba4	0.23466355
212	0x3e637be5	0.22215231
213	0x3dad2fb1	0.08456362
214	0x3e489d58	0.19591272
215	0xbe8bffd4	-0.2734362
216	0xbeb68e02	-0.35655218
217	0xbd9def2d	-0.07711635
218	0xbea62621	-0.32450965
219	0x3cfad6ad	0.030619944
220	0x3e66f6ab	0.22555034
221	0xbe830cd4	-0.25595725
222	0xbdee0448	-0.1162191
223	0xbe81124d	-0.25209275
224	0xbe0f171b	-0.13973658
225	0xbd680554	-0.056645706
226	0x3ae06f84	0.0017123078
227	0xbecb0830	-0.39654684
228	0xbe930255	-0.28712717
229	0x3eda8726	0.42681235
230	0xbe2d7dfc	-0.1694259
231	0x3d84a498	0.06476706
232	0x3e04d08b	0.12970178
233	0xbd283b56	-0.041072212
234	0xbda59977	-0.08085912
235	0x3ea1b4be	0.31583208
236	0x3e2be185	0.16785248
237	0x3d52d357	0.05147108
238	0xbe8e6dbe	-0.27818102
239	0xbeef4fde	-0.4674062
240	0x3d14e920	0.036355138
241	0xbebb1eb4	-0.36546862
242	0xbe57fe5c	-0.21093124
243	0xbe99875d	-0.29986086
244	0xbd5aed0f	-0.053448733
245	0xbeee633d	-0.46560088
246	0x3e3cb6ce	0.1842911
247	0xbdb5aa60	-0.08870387
248	0x3ed15820	0.40887547
249	0x3df3ae86	0.11898522
250	0x3f07f50f	0.53108305
251	0x3dd0140b	0.10160073
252	0xbe8b2764	-0.2717849
253	0xbcb4919a	-0.022042084
254	0xbe8e3f6b	-0.2778276
255	0xbedcd907	-0.4313433

conv_spatial.mlp.4.weight f4 [2, 256]
0	0xbeacbb01	-0.33736423
1	0x3e96b2d5	0.29433313
2	0x3e684f78	0.22686565
3	0xbf0e1eb1	-0.5551558
4	0x3ef095c2	0.46989256
5	0x3e74bdf4	0.23900586
6	0x3f027aa3	0.5096838
7	0x3e7097df	0.23495434
8	0x3ef8145f	0.48453042
9	0xbe9ee9f7	-0.31037876
10	0x3eeaad46	0.45835322
11	0xbe37551f	-0.17903565
12	0x3f0e07f6	0.554809
13	0xbe7e25fb	-0.24819176
14	0xbe581fb2	-0.21105841
15	0xbf0e4f72	-0.55589974
16	0x3ed43ea8	0.41454053
17	0x3eeaae95	0.4583632
18	0x3eadb261	0.33925155
19	0x3f01c396	0.50689065
20	0x3f0ed600	0.5579529
21	0xbd199ec1	-0.037504915
22	0x3e05358d	0.13008709
23	0xbe97172a	-0.2950986
24	0xbc49d401	-0.012318612
25	0x3f0c6472	0.5484077
26	0x3ea3f91d	0.32025996
27	0x3f0d13ee	0.55108535
28	0xbef11281	-0.4708443
29	0xbf0c3fea	-0.54785025
30	0x3efaff7b	0.4902304
31	0xbdb7759a	-0.089579776
32	0x3f00eaaf	0.503581
33	0xbe19f426	-0.15034541
34	0xbe0d7ab2	-0.13816336
35	0xbe2a0c6b	-0.166063
36	0x3efc315e	0.49256414
37	0x3e108989	0.14114965
38	0x3df4b653	0.11948838
39	0xbe0aa70f	-0.1354029
40	0x3d6deea8	0.05808893
41	0x3eafc968	0.34333348
42	0x3e217885	0.15768631
43	0x3e4d70b9	0.20062532
44	0x3e166c53	0.1468976
45	0x3d17c031	0.037048522
46	0xbf0293d3	-0.5100681
47	0xbeb89a2d	-0.36055127
48	0x3df0c2a2	0.11755873
49	0x3e574d51	0.21025588
50	0xbe5e0ff3	-0.21685772
51	0xbf098679	-0.53720814
52	0xbe923b81	-0.28561023
53	0x3c58dc3f	0.0132361045
54	0xbdecf443	-0.11570027
55	0xbdf21624	-0.11820629
56	0xbec0775c	-0.37591064
57	0xbd6e3fe6	-0.058166407
58	0xbf02cc27	-0.5109276
59	0x3f0a3856	0.5399221
60	0xbea8c01b	-0.32959065
61	0xbeb0cedd	-0.34532824
62	0xbeb1c012	-0.3471685
63	0x3e6da886	0.23208818
64	0x3f05d6e4	0.5228102
65	0x3f04246b	0.5161807
66	0x3ef7ec46	0.4842245
67	0x3e9f730f	0.3114247
68	0xbe712428	-0.23548949
69	0x3e38f93a	0.18063822
70	0xbe985600	-0.29753113
71	0x3ef621bb	0.4807261
72	0xbe88048d	-0.26565972
73	0xbeca76bd	-0.39543715
74	0xbe466603	-0.19374852
75	0xbecde9ce	-0.4021744
76	0x3eb6988c	0.3566326
77	0x3f18534a	0.5950209
78	0x3eeebe19	0.46629408
79	0x3da36e7b	0.07980057
80	0x3dc33080	0.09530735
81	0x3eec5447	0.4615805
82	0xbe4ff163	-0.20306925
83	0xbf0aea2e	-0.5426358
84	0xbe397fc2	-0.18115142
85	0xbec2eb6c	-0.38070238
86	0x3ee97490	0.45596743
87	0x3f036ea9	0.5134073
88	0x3edf7e81	0.43651202
89	0x3b26e693	0.0025467023
90	0xbece4973	-0.40290412
91	0xbedd3187	-0.4320185
92	0xbf0bbcb9	-0.5458484
93	0x3ec1201b	0.37719807
94	0x3f00d246	0.5032085
95	0xbdf5634c	-0.1198183
96	0xbf09f68c	-0.53891826
97	0xbc1c4f24	-0.009540353
98	0x3ef591fc	0.4796294
99	0x3d0a4b4d	0.03376322
100	0x3e821d4f	0.25412986
101	0x3f064e44	0.52463174
102	0x3e07223c	0.13196653
103	0xbea37f56	-0.31933087
104	0xbe1876a6	-0.14889011
105	0xbec7c3ef	-0.39016673
106	0xbd65a67f	-0.056066986
107	0xbe7fd6c7	-0.24984275
108	0xbe508e2f	-0.20366739
109	0x3f120ca3	0.5705053
110	0x3e440b45	0.19144924
111	0xbd3cc1d5	-0.04608329
112	0xbf05c4f6	-0.52253664
113	0xbe8edc60	-0.27902508
114	0x3e8cf26c	0.27528703
115	0x3e95c4bb	0.29251656
116	0x3e14773a	0.14498606
117	0xbe3df25c	-0.18549484
118	0x3f0853e0	0.53252983
119	0xbe818cca	-0.25302726
120	0xbeb10602	-0.34574896
121	0x3ed945bd	0.4243602
122	0xbf152603	-0.58261126
123	0x3f01a08d	0.50635606
124	0xbee296c5	-0.44255653
125	0x3ed3dd38	0.41379714
126	0x3dbf3cc9	0.09337766
127	0x3d8075f2	0.06272496
128	0xbf0e241e	-0.5552386
129	0xbf00fb98	-0.503839
130	0x3da712f5	0.08157913
131	0xbc93f02c	-0.018058859
132	0x3eadf984	0.33979428
133	0xbcd90e66	-0.026496124
134	0xbda7927d	-0.08182237
135	0x3f02d5d3	0.5110752
136	0xbdf44491	-0.119271405
137	0x3ed845eb	0.42240843
138	0xbefadd7b	-0.489971
139	0xbf107b51	-0.56438166
140	0x3f0698e3	0.52577037
141	0xbe9a23d0	-0.30105448
142	0xbf071c7e	-0.5277785
143	0xbe5b6a3c	-0.21427244
144	0x3e59ca12	0.2126849
145	0x3ede3b2c	0.4340452
146	0x3e598986	0.21243867
147	0x3f1cad10	0.6120157
148	0xbef6627c	-0.48122013
149	0xbd14e478	-0.036350697
150	0x3ef3a281	0.47584918
151	0xbee74306	-0.45168322
152	0x3f118d65	0.56856376
153	0x3f18cb10	0.5968485
154	0xbebde26e	-0.37086815
155	0xbee5e13b	-0.448984
156	0x3e36f9f1	0.17868783
157	0x3e9c265d	0.3049802
158	0xbf0adf9c	-0.5424745
159	0xbee83ba7	-0.4535801
160	0xbedbde9e	-0.4294328
161	0x3d3ae112	0.0456248
162	0xbee64acf	-0.4497895
163	0x3de358e5	0.1110094
164	0x3ee2acf8	0.4427259
165	0x3e2c9299	0.16852798
166	0xbf114868	-0.5675111
167	0x3d8967f3	0.0670928
168	0x3e021d3d	0.12706466
169	0x3e39a3b3	0.18128853
170	0x3d333358	0.043750137
171	0xbeac4dde	-0.33653158
172	0x3f12c104	0.5732577
173	0x3de8ddf3	0.113704585
174	0x3eafb48f	0.34317443
175	0x3f0dcc40	0.55389786
176	0xbf05fb80	-0.52336884
177	0xbef749cf	-0.482985
178	0xbdc8cdf5	-0.09804908
179	0x3eee3791	0.4652677
180	0xbf110775	-0.56652004
181	0x3eb63f3e	0.35595125
182	0x3f071a83	0.5277483
183	0x3ea020e4	0.31275094
184	0xbeccefb9	-0.40026644
185	0x3eee5206	0.46546954
186	0x3f1772cd	0.5915955
187	0x3f00f0cf	0.50367445
188	0x3f0585ae	0.52157104
189	0x3f03274c	0.5123184
190	0xbf02089d	-0.5079439
191	0x3ef1c4f6	0.47220582
192	0x3e16b496	0.14717326
193	0xbf0f32ab	-0.5593669
194	0xbf0ca217	-0.5493483
195	0x3e1f7284	0.15571028
196	0x3f07e149	0.5307813
197	0xbedfda09	-0.43721035
198	0xbebb98d3	-0.36640033
199	0x3e0f2baf	0.13981508
200	0xbf09d07b	-0.5383374
201	0xbe6540b8	-0.2238797
202	0x3efc354a	0.49259406
203	0xbf060653	-0.523534
204	0xbf120f2f	-0.5705442
205	0x3f085750	0.5325823
206	0x3e7f0b22	0.2490659
207	0x3f0cc32e	0.5498532
208	0x3ed3977c	0.4132651
209	0xbf0ff71e	-0.56236446
210	0xbf175d06	-0.5912632
211	0xbe939171	-0.288219
212	0xbf0e9470	-0.5569525
213	0x3f064d1f	0.5246143
214	0x3dfb4f99	0.122710414
215	0xbd6b80be	-0.057495825
216	0xbe171254	-0.14753085
217	0xbf0fdeec	-0.56199527
218	0x3f015cd8	0.50532293
219	0x3dd115d4	0.102092415
220	0xbecd454c	-0.40091932
221	0xbec640e2	-0.38721377
222	0xbe888c76	-0.26669663
223	0x3edb900f	0.42883345
224	0xbeca7f37	-0.39550182
225	0xbec67101	-0.3875809
226	0x3efb593c	0.49091518
227	0xbeb20652	-0.34770447
228	0xbeef1c46	-0.46701258
229	0xbe9aecef	-0.3025889
230	0xbf04ddd1	-0.51900965
231	0xbee03e6d	-0.43797627
232	0x3e131baf	0.14366029
233	0xbf0863ce	-0.5327729
234	0x3ee0557d	0.43815222
235	0xbdbfa881	-0.093583114
236	0x3e8ffeba	0.28124028
237	0x3cdbee66	0.026847076
238	0xbeeec00a	-0.4663089
239	0x3e09d14f	0.13458751
240	0xbd369b0b	-0.044581454
241	0xbe4d48e8	-0.20047343
242	0x3d530d26	0.05152621
243	0xbd69ba42	-0.057062395
244	0xbf0692dd	-0.52567846
245	0x3ed652fa	0.4186018
246	0x3f149c8c	0.5805137
247	0xbe7a4f83	-0.24444394
248	0x3e10a4bb	0.1412534
249	0xbeabac89	-0.3353007
250	0x3ea0a8a2	0.31378657
251	0x3e50ab89	0.20377935
252	0xbee674dd	-0.45011035
253	0x3ec30172	0.3808704
254	0xbf0544d2	-0.52058136
255	0xbf0ae70e	-0.5425881
