logs/M5D6_r08_scale01/score.pt (torch, 731911 bytes, 10 tensors)

embed.0.W f4 [64]
-0.5061375 -11.233088 40.0029 22.847046 10.985286 41.652805 -12.907967 -24.86257
48.141136 -38.435387 39.871998 -36.932503 -11.9207945 6.218552 58.803783 -3.993004
-34.646507 27.878199 14.575088 11.656093 -13.29271 -10.638203 26.659838 1.3007401
-46.381573 49.366463 -13.501135 -45.00675 -25.50698 -12.299833 14.807785 -0.34828597
-7.6669655 -10.089154 -5.018242 -9.362935 -6.7269173 19.215693 -17.432758 -5.066869
8.735746 -28.887384 3.6238804 -16.730991 15.003394 32.677433 21.757278 -12.651314
15.263261 -6.655255 -36.996468 -1.8469471 -3.644897 45.581512 40.922043 -41.452663
35.00588 1.2454704 32.92112 16.633663 64.7122 31.738684 7.8209825 -36.468513
00000000: 3a92 01bf baba 33c1 f802 2042 c0c6 b641
00000010: bbc3 2f41 799c 2642 0887 4ec1 8be6 c6c1
00000020: 8690 4042 d6bd 19c2 ed7c 1f42 e2ba 13c2
00000030: 93bb 3ec1 61fe c640 1337 6b42 618d 7fc0
00000040: 0696 0ac2 8d06 df41 8f33 6941 5b7f 3a41
00000050: f1ae 54c1 1436 2ac1 5947 d541 a77e a63f
00000060: bb86 39c2 4277 4542 a604 58c1 e906 34c2
00000070: 4c0e ccc1 1ecc 44c1 b0ec 6c41 8a52 b2be
00000080: c857 f5c0 2d6d 21c1 7095 a0c0 95ce 15c1
00000090: e842 d7c0 bdb9 9941 4a76 8bc1 ca23 a2c0
000000a0: 9ec5 0b41 5d19 e7c1 a8ed 6740 12d9 85c1
000000b0: e70d 7041 b1b5 0242 e80e ae41 c86b 4ac1
000000c0: 5136 7441 d9f7 d4c0 62fc 13c2 c368 ecbf
000000d0: fe45 69c0 7853 3642 2cb0 2342 87cf 25c2
000000e0: 0506 0c42 936b 9f3f 3aaf 0342 be11 8541
000000f0: a56c 8142 d3e8 fd41 7d45 fa40 c2df 11c2

embed.1.weight f4 [128, 128]
0.02010923 -0.0154553335 -0.012382554 -0.0632278 0.020424657 -0.055719417 -0.051213194 0.0043394184
-0.013569294 0.056901343 -0.053955637 0.0040012742 -0.018628137 -0.0025412126 0.033248488 -0.00089073146
-0.015000759 -0.033868723 -0.045831777 -0.07887959 0.0651042 -0.020220393 0.03607098 0.029260986
-0.06854149 0.03798982 0.003847554 -0.07802979 0.010895213 0.04505085 -0.06640451 0.0528708
-0.0755153 0.0815078 -0.07976607 -0.01397678 -0.06202368 0.045597654 -0.087773256 0.037460085
-0.025650287 -0.08061067 -0.03432905 -0.03437869 0.028756425 -0.032654483 -0.08476323 0.024009952
0.03853033 0.00017613168 -0.05317671 -0.01323921 -0.07310237 0.004561448 0.008824675 0.074718386
-0.074544005 -0.0067031505 0.012900223 -0.060350083 0.027010197 -0.03613259 -0.04528116 0.0751374
0.013752611 0.021984754 0.009813946 0.083067454 0.04710676 -0.018470002 -0.041969284 0.03886232
-0.032065354 -0.011989229 -0.059561882 0.062441092 -0.021786517 -0.04387961 0.059773196 -0.066077396
0.036949825 0.051142365 -0.07301303 -0.07692887 0.006350645 -0.07717566 0.03632619 -0.08322998
-0.049329165 0.02041626 0.06400736 0.047168676 0.04483434 0.06580658 -0.019554209 0.016247904
-0.046315435 0.005868232 -0.038012918 0.010295158 0.082808286 -0.019911889 0.031576704 -0.04830762
0.011008968 0.0016375631 0.050589062 0.033024214 0.05324136 -0.041101955 0.052532125 0.08446824
0.05722114 0.06546312 0.047437362 0.049599234 0.00572841 -0.025160087 0.037829503 -0.05937374
0.07180608 -0.009490932 -0.08055705 0.06996425 0.048917938 -0.027394535 0.0379135 0.054960363
-0.062029667 0.060285736 0.03477571 0.015336047 -0.024134 0.0055813594 -0.08729582 -0.011091196
-0.08298725 0.0012288019 -0.026476618 0.026372336 -0.012525084 0.08406726 0.032222465 -0.0807568
0.0859809 0.05903593 0.014122408 0.033961825 0.017654883 -0.040695142 -0.07680672 0.07421179
-0.048551198 -0.014094675 0.001133392 -0.015354887 -0.04965734 -0.05144338 -0.015111521 -0.069042
0.011604134 -0.079015076 -0.071328945 0.030722281 -0.0043599335 -0.011515741 -0.05209794 0.014212054
0.056886695 -0.070473626 0.05298628 0.035487603 -0.08376129 -0.030103765 -0.03907021 0.03633052
-0.03634723 -0.05619145 -0.028914971 -0.037224833 -0.088236734 -0.029654026 0.010233655 -0.08103601
-0.07232904 -0.06452066 -0.035112455 -0.08147632 -0.010910607 0.027026655 -0.039181847 -0.08524544
0.0041628545 -0.06543805 -0.062924325 -0.07694025 -0.004322602 -0.049797755 0.005831965 0.07767209
-0.0040573822 -0.052104145 0.079974644 0.053129643 -0.00939705 0.014628043 0.04420272 -0.005371405
-0.055705603 0.023992883 0.04326338 -0.062082466 0.042038172 0.03533051 -0.03054398 -0.04202655
-0.008133035 -0.007923344 0.017841889 0.053816974 0.07864431 0.045477092 -0.010478475 0.013632819
0.031935237 -0.021913916 -0.04942329 0.033494867 0.020473812 -0.018902482 -0.076429695 0.080444574
0.08245526 -0.061069287 -0.02127242 -0.03607929 -0.054076176 -0.018532084 -0.041419014 0.07153647
-0.039216504 -0.037617315 0.08713966 -0.023775375 0.037369143 0.062913276 0.058734044 0.03881714
-0.019397875 -0.08279346 0.03143723 0.0709606 0.0351715 -0.023262931 -0.006376165 -0.009874743
00000000: 1dbc a43c 5e38 7dbc 32e0 4abc 947d 81bd
00000010: 9c51 a73c 0b3a 64bd edc4 51bd ae31 8e3b
00000020: be51 5ebc 6211 693d 9600 5dbd 1f1d 833b
00000030: 099a 98bc 798a 26bb 912f 083d fa7f 69ba
00000040: bec5 75bc eeb9 0abd 1aba 3bbd 9f8b a1bd
00000050: 5a55 853d 3da5 a5bc 2abf 133d bcb4 ef3c
00000060: 7b5f 8cbd 379b 1b3d 3f27 7c3b 15ce 9fbd
00000070: d681 323c 3d87 383d 16ff 87bd 0d8f 583d
00000080: c4a7 9abd 90ed a63d 655c a3bd ddfe 64bc
00000090: 8b0c 7ebd 9bc4 3a3d 77c2 b3bd bf6f 193d
000000a0: 8d20 d2bc 3517 a5bd 9e9c 0cbd abd0 0cbd
000000b0: 9892 eb3c b5c0 05bd 5898 adbd 85b0 c43c
000000c0: fbd1 1d3d fdaf 3839 d2cf 59bd 45e9 58bc
000000d0: b2b6 95bd 3378 953b 5f95 103c f405 993d
000000e0: 87aa 98bd 1aa6 dbbb 755b 533c a631 77bd
000000f0: 7d44 dd3c c4ff 13bd bd78 39bd a3e1 993d
00000100: a252 613c 5f19 b43c acca 203c 451f aa3d
00000110: 05f3 403d 674e 97bc fce7 2bbd 192e 1f3d
00000120: f656 03bd 796e 44bc 29f7 73bd 3bc2 7f3d
00000130: a379 b2bc 1bbb 33bd bdd4 743d 9653 87bd
00000140: b358 173d a87a 513d db87 95bd e28c 9dbd
00000150: 1219 d03b 460e 9ebd c5ca 143d 7b74 aabd
00000160: 610d 4abd 0040 a73c 4a16 833d f133 413d
00000170: 37a4 373d 9ac5 863d 2630 a0bc 531a 853c
00000180: 41b5 3dbd 4c4a c03b 6fb3 1bbd 06ad 283c
00000190: 6497 a93d 421e a3bc 9356 013d 36de 45bd
000001a0: f55e 343c 80a3 d63a 7a36 4f3d 6644 073d
000001b0: 9d13 5a3d 865a 28bd ed2b 573d affd ac3d
000001c0: b760 6a3d 8711 863d ae4d 423d 9128 4b3d
000001d0: 63b5 bb3b 871c cebc 1cf3 1a3d e131 73bd
000001e0: 110f 933d db7f 1bbc 18fb a4bd 6b49 8f3d
000001f0: 2d5e 483d 816a e0bc 304b 1b3d 1e1e 613d
00000200: d212 7ebd 2dee 763d fa70 0e3d 0b44 7b3c
00000210: abb4 c5bc d6e3 b63b 27c8 b2bd d9b7 35bc
00000220: 38f5 a9bd c00f a13a 7ee5 d8bc cc0a d83c
00000230: 0336 4dbc 752b ac3d b4fb 033d d263 a5bd
00000240: c116 b03d a9cf 713d ac61 673c 8e1b 0b3d
00000250: f9a0 903c f3af 26bd d74c 9dbd 5afc 973d
00000260: 9fdd 46bd 5aed 66bc 538e 943a 1093 7bbc
00000270: 7f65 4bbd 4bb6 52bd 5096 77bc e465 8dbd
00000280: 441f 3e3c a8d2 a1bd e914 92bd 4bad fb3c
00000290: c6dd 8ebb 85ac 3cbc a664 55bd add9 683c
000002a0: 0602 693d 7a54 90bd 2408 593d 735b 113d
000002b0: 0a8b abbd 2c9c f6bc 1608 20bd 50cf 143d
000002c0: d5e0 14bd 0229 66bd 17df ecbc 1179 18bd
000002d0: 76b5 b4bd 00ed f2bc 0fab 273c 35f6 a5bd
000002e0: 3f21 94bd 6823 84bd 14d2 0fbd 0fdd a6bd
000002f0: 67c2 32bc 0167 dd3c 257d 20bd 2995 aebd
00000300: 8e68 883b 6204 86bd 78de 80bd da92 9dbd
00000310: 9da4 8dbb bbf8 4bbd 111a bf3b 8b12 9f3d
00000320: caf3 84bb 286b 55bd bfc9 a33d 789e 593d
00000330: 16f6 19bc 76aa 6f3c e90d 353d 9c02 b0bb
00000340: 8f2b 64bd b98c c43c f134 313d 2f4a 7ebd
00000350: 3830 2c3d bab6 103d 5e37 fabc 0824 2cbd
00000360: 6c40 05bc ead0 01bc 2729 923c 306f 5c3d
00000370: 4510 a13d 3046 3a3d e9ad 2bbc 305c 5f3c
00000380: 86ce 023d d084 b3bc 1370 4abd ea31 093d
00000390: b2b8 a73c 61d9 9abc 2c87 9cbd 20c0 a43d
000003a0: 4ede a83d ca23 7abd 8043 aebc e1c7 13bd
000003b0: fb7e 5dbd 99d0 97bc fca6 29bd b681 923d
000003c0: 7ca1 20bd 9d14 1abd 4776 b23d 93c4 c2bc
000003d0: 6310 193d add8 803d 1c93 703d b9fe 1e3d
000003e0: 4be8 9ebc 9e8f a9bd 53c4 003d cb53 913d
000003f0: fe0f 103d e791 bebc 26ef d0bb adc9 21bc

embed.1.bias f4 [128]
0.0376843 0.029418036 0.015382988 0.08536447 -0.04623543 0.035485033 0.017370801 0.014474144
-0.07598529 0.022627536 0.08296095 0.07606354 0.07307376 0.041869868 -0.08074164 0.08066914
-0.064320885 0.036546744 -0.0029900554 0.0015393504 0.027586292 0.010820665 -0.05828808 -0.06491418
0.010427583 0.0660975 0.010007453 -0.026032517 -0.07187775 -0.06452057 -0.08584537 0.0058124084
0.086313 -0.08026384 -0.075341664 -0.039717957 -0.072334476 0.05675252 0.036307495 -0.049217656
0.07992844 -0.06899593 -0.0026001655 0.027954645 0.049061228 0.0850525 -0.03516909 0.03985347
0.04824911 0.030253587 0.07443491 0.035949502 -0.033099394 -0.018319244 0.0021550737 0.08162524
-0.050361194 -0.061693754 0.024077777 -0.032702096 0.012849036 -0.046458956 0.025323786 0.00911925
0.08393507 -0.059800066 -0.012533018 -0.008417168 -0.0568756 0.06671958 -0.020027803 0.074020855
0.07840803 0.042299997 -0.00407029 0.0051939352 -0.010507757 -0.08695762 -0.086091034 0.029180413
0.027778724 0.07296532 -0.023168523 -0.017615633 -0.062145673 -0.037978873 0.07640784 0.08245384
-0.058636937 0.08017067 -0.061890002 0.033230375 0.052204203 0.07651059 -0.002320479 -0.048093095
-0.0014589869 -0.028270504 -0.036365345 -0.022660347 0.005231646 0.015715728 -0.041421436 0.008401532
0.036892463 0.05361762 -0.015510883 0.038170144 -0.06277643 -0.027226422 0.0810467 -0.06113101
-0.084178485 0.0043125497 0.024388727 0.010430238 0.04013795 -0.027688034 -0.07953928 0.038487658
-0.009694618 0.009750484 -0.06681623 -0.05940554 -0.050040036 -0.0051970542 0.03960713 0.010443904
00000000: da5a 1a3d 18fe f03c ee08 7c3c 91d3 ae3d
00000010: 5d61 3dbd c158 113d 364d 8e3c f624 6d3c
00000020: 2d9e 9bbd 625d b93c 6ee7 a93d 34c7 9b3d
00000030: b2a7 953d bd7f 2b3d df5b a5bd dd35 a53d
00000040: abba 83bd 0ab2 153d cef4 43bb 07c4 c93a
00000050: a6fc e13c 2949 313c 7bbf 6ebd baf1 84bd
00000060: 74d8 2a3c 205e 873d 4df6 233c 2542 d5bc
00000070: a434 93bd 5c23 84bd b3cf afbd 0476 be3b
00000080: dfc4 b03d 5e61 a4bd bb4c 9abd 4caf 22bd
00000090: 1924 94bd 5575 683d 2bb7 143d 7498 49bd
000000a0: 86b1 a33d bd4d 8dbd 8a67 2abb 2401 e53c
000000b0: 6df4 483d 0130 ae3d 770d 10bd 643d 233d
000000c0: dca0 453d 5fd6 f73c 5571 983d c93f 133d
000000d0: 3b93 07bd 3d12 96bc 233c 0d3b 222b a73d
000000e0: 8a47 4ebd 97b2 7cbd c23e c53c a2f2 05bd
000000f0: c384 523c bf4b 3ebd d473 cf3c e868 153c
00000100: 26e6 ab3d eaf0 74bd 4a57 4dbc 29e8 09bc
00000110: 64f6 68bd 46a4 883d 5911 a4bc 3f98 973d
00000120: 6494 a03d c342 2d3d 1160 85bb e331 aa3b
00000130: ba28 2cbc d616 b2bd 7f50 b0bd c30b ef3c
00000140: 3590 e33c d76e 953d eacb bdbc a94e 90bc
00000150: 768c 7ebd bc8f 1bbd b77b 9c3d 8fdd a83d
00000160: 492d 70bd 8530 a43d 5f80 7dbd 931c 083d
00000170: 13d4 553d 96b1 9c3d 2d13 18bb 44fd 44bd
00000180: 7a3b bfba 8b97 e7bc d4f3 14bd 31a2 b9bc
00000190: 3a6e ab3b 45be 803c 86a9 29bd 94a6 093c
000001a0: 8d1c 173d 269e 5b3d 5c21 7ebc 4c58 1c3d
000001b0: ee90 80bd f209 dfbc d0fb a53d 8364 7abd
000001c0: c565 acbd 4a50 8d3b deca c73c 97e3 2a3c
000001d0: b167 243d 04d2 e2bc 7de5 a2bd 3ca5 1d3d
000001e0: 2dd6 1ebc 7ec0 1f3c f3d6 88bd 3953 73bd
000001f0: c8f6 4cbd 0d4c aabb 163b 223d e91c 2b3c

embed.3.weight f4 [256, 128]
0.072136156 -0.0745304 0.018302733 0.06894211 -0.050848063 0.04099764 0.032460805 -0.057077073
0.07416798 -0.024670878 0.054620672 -0.00368963 0.079078525 0.06375017 -0.0119658485 -0.07827939
-0.05188454 0.04839047 0.0686966 -0.074535236 0.06567199 0.029237626 -0.033699766 0.046369426
0.037765007 0.07473637 -0.031065093 -0.032200307 0.015627408 0.08000186 0.020400465 0.05384362
-0.034715526 0.03424798 -0.07254668 -0.031880002 0.058490817 0.028430441 0.07008931 0.059848912
-0.0037943332 0.026216298 0.051721558 -0.034944754 0.05114344 0.021070369 0.0680092 0.08664076
-0.08002967 0.07589723 0.03650798 -0.055941384 -0.060289886 -0.030864853 0.07399025 -0.061496064
-0.045255482 -0.04822262 -0.009641228 0.049313117 0.06873501 -0.03164496 0.08675112 0.06575096
-0.011549891 -0.048397005 0.0025580397 -0.0014375973 0.08025983 0.05246666 -0.081375815 -0.050355073
-0.06602131 0.03433869 0.048845015 0.08280413 0.07208593 0.08410942 -0.011060998 0.016895017
-0.08035517 0.058212604 -0.04846071 0.020115627 0.0058967234 0.0066202898 -0.01939264 -0.04576766
0.06350436 0.08381221 -0.057338394 -0.028981764 -0.047593664 -0.02614957 0.0543501 0.06405166
-0.046917945 -0.037834972 0.04352408 -0.062476452 0.021232601 0.081517406 -0.0123579195 0.07615301
0.0069889063 -0.018330907 -0.08232551 -0.027400045 0.0680845 -0.049206644 0.020817077 0.009176528
-0.07426448 -0.030143362 -0.0567156 -0.025282903 -0.039694566 -0.08052091 0.022665478 0.0772269
-0.033290688 -5.9585105e-05 0.07113065 -0.0661666 0.024721771 -0.034479134 0.055550367 -0.0052774386
0.051102452 0.03097218 0.06892589 -0.035896704 -0.01574288 0.070052035 0.010303176 0.004141444
0.0017421399 0.024010416 -0.04378208 0.06322985 0.00928141 0.0031749115 0.043410305 -0.028494189
-0.00831296 0.017890811 -0.061860602 -0.041715 0.011648304 -0.02201134 -0.06564675 0.038089465
0.027207391 0.07342123 0.033492845 0.06466481 -0.030051924 -0.072728135 0.073487416 -0.0744663
0.07692944 -0.038089506 -0.0683633 -0.0519077 -0.07721181 0.0075771078 -0.06413942 0.03915887
0.054860402 0.0864804 -0.010234983 0.08687378 -0.016359331 -0.038213007 0.015239204 -0.05538042
0.07853546 -0.0354897 0.04068432 0.08096997 -0.02499226 -0.043436836 0.048685964 -0.010599384
-0.047741316 0.088124946 -0.075807184 -0.05110101 -0.060679827 -0.08631078 0.040970728 0.07436752
0.06487652 -0.057941064 -0.042925585 0.020475792 -0.030448189 -0.054396957 0.019705148 -0.053990934
0.02848774 0.07347475 0.06703131 0.061685696 -0.05249039 -0.0074352096 0.035465088 -0.020909905
-0.07123511 0.026489599 -0.073599406 -0.012851923 0.065895975 0.07429696 0.0024390065 0.0019588906
0.080172524 -0.063441746 0.083887115 0.05158362 0.071349144 0.064853534 0.038150296 0.06002103
-0.08326248 -0.074719764 0.06502661 -0.07128171 -0.038672388 -0.043139238 -0.016258 0.007720407
0.003291985 0.061363734 0.06648133 0.08605753 0.07955789 -0.0066390242 0.019504886 -0.027964255
-0.05615416 0.07002759 0.04444147 -0.075711556 -0.05451363 -0.021056196 -0.0232456 -0.06164454
-0.045889888 0.049862143 0.010462544 -0.02166524 0.08146268 0.0058913603 -0.052172203 0.0152783375
00000000: 1fbc 933d 65a3 98bd 9def 953c 8531 8d3d
00000010: 0f46 50bd 24ed 273d 9ff5 043d a6c9 69bd
00000020: 62e5 973d 951a cabc edb9 5f3d b8cd 71bb
00000030: ecf3 a13d 738f 823d 680c 44bc f250 a0bd
00000040: e284 54bd 1635 463d ceb0 8c3d eea5 98bd
00000050: 097f 863d bf83 ef3c c408 0abd deed 3d3d
00000060: 7baf 1a3d 620f 993d 397c febc 78e4 03bd
00000070: 0d05 803c 04d8 a33d e01e a73c 218b 5c3d
00000080: de31 0ebd 9c47 0c3d 5b93 94bd 9b94 02bd
00000090: 1194 6f3d f5e6 e83c fc8a 8f3d 2224 753d
000000a0: 59aa 78bb 90c3 d63c fcd9 533d 3b22 0fbd
000000b0: c97b 513d c49b ac3c 6848 8b3d b670 b13d
000000c0: 98e6 a3bd 0270 9b3d 6489 153d cb22 65bd
000000d0: 87f2 76bd 4ad8 fcbc 3388 973d 4ce3 7bbd
000000e0: d05d 39bd 1585 45bd 3ef6 1dbc 8dfc 493d
000000f0: f1c4 8c3d 259e 01bd 92aa b13d 70a8 863d
00000100: c13b 3dbc f03b 46bd c9a4 273b c36d bcba
00000110: 445f a43d 48e7 563d 5da8 a6bd 1f41 4ebd
00000120: 2e36 87bd baa6 0c3d b611 483d 3695 a93d
00000130: caa1 933d 8f41 ac3d 3039 35bc 6b67 8a3c
00000140: 4091 a4bd 5770 6e3d bd7e 46bd 87c9 a43c
00000150: 4d39 c13b 04ef d83b 50dd 9ebc df76 3bbd
00000160: 930e 823d bca5 ab3d aadb 6abd 2a6b edbc
00000170: 93f1 42bd 9f37 d6bc 369e 5e3d 842d 833d
00000180: 082d 40bd d8f8 1abd 4e46 323d 4fe7 7fbd
00000190: feef ad3c 99f2 a63d df78 4abc 1cf6 9b3d
000001a0: 3203 e53b b32a 96bc 479a a8bd 0f76 e0bc
000001b0: e36f 8b3d e88c 49bd 9388 aa3c 2659 163c
000001c0: fa17 98bd 36ef f6bc 9e4e 68bd 171e cfbc
000001d0: c596 22bd 26e8 a4bd f4ac b93c 2329 9e3d
000001e0: d15b 08bd 05eb 79b8 f2ac 913d 5b82 87bd
000001f0: 5085 ca3c fe39 0dbd c888 633d 5dee acbb
00000200: ce50 513d 5fb9 fd3c 0429 8d3d 6c08 13bd
00000210: 36f7 80bc 7177 8f3d a7ce 283c f3b4 873b
00000220: 8458 e43a 7eb1 c43c d754 33bd a77e 813d
00000230: 0e11 183c 2d12 503b 01cf 313d a56c e9bc
00000240: 1533 08bc c08f 923c 8b61 7dbd 59dd 2abd
00000250: 87d8 3e3c 2051 b4bc ce71 86bd b303 1c3d
00000260: 09e2 de3c df5d 963d cb2f 093d fc6e 843d
00000270: 742f f6bc 7df2 94bd 9280 963d ca81 98bd
00000280: 2f8d 9d3d be03 1cbd 0f02 8cbd 2b9d 54bd
00000290: 3a21 9ebd 6349 f83b 875b 83bd 0d65 203d
000002a0: 4db5 603d a31c b13d a1b0 27bc e1ea b13d
000002b0: 0104 86bc 3e85 1cbd dbad 793c 94d6 62bd
000002c0: 33d7 a03d a65d 11bd 9aa4 263d 95d3 a53d
000002d0: 91bc ccbc d3ea 31bd ef6a 473d 0aa9 2dbc
000002e0: 668c 43bd da7a b43d cc40 9bbd 4b4f 51bd
000002f0: 698b 78bd b5c3 b0bd ecd0 273d 004e 983d
00000300: fbdd 843d 9c53 6dbd bdd2 2fbd d9bc a73c
00000310: 7b6e f9bc 58cf 5ebd b16c a13c 9925 5dbd
00000320: 1f5f e93c ee79 963d b647 893d 24aa 7c3d
00000330: 2a00 57bd 0fa3 f3bb d743 113d 404b abbc
00000340: b7e3 91bd b700 d93c 49bb 96bd df90 52bc
00000350: 78f4 863d 0129 983d bdd7 1f3b bb60 003b
00000360: 7e31 a43d bfed 81bd 02cd ab3d 5949 533d
00000370: 801f 923d eed1 843d 7c43 1c3d 9dd8 753d
00000380: 8585 aabd ad06 99bd ac2c 853d 25fc 91bd
00000390: f066 1ebd c5b2 30bd 7f2f 85bc 78fb fc3b
000003a0: 58be 573b 8a58 7b3d 5d27 883d ee3e b03d
000003b0: 3fef a23d 2c8c d9bb b6c8 9f3c 4b15 e5bc
000003c0: e801 66bd a06a 8f3d 4208 363d a90e 9bbd
000003d0: af49 5fbd 0b7e acbc 8e6d bebc fc7e 7cbd
000003e0: 09f7 3bbd 3f3c 4c3d 176b 2b3c 4d7b b1bc
000003f0: e8d5 a63d 500c c13b 85b2 55bd fe51 7a3c

embed.3.bias f4 [256]
0.045107137 0.06597999 -0.04902318 0.0173902 -0.08788176 0.07537164 -0.011230281 -0.04678511
-0.03745855 -0.04615513 0.03833045 -0.007821559 -0.024288427 -0.02271126 -0.042201143 -0.046651438
-0.019619463 -0.030222472 0.018662266 -0.022687702 0.012199363 0.053911876 -0.020522533 -0.04687109
0.0076924954 -0.049453698 0.02479537 0.07785806 -0.036433622 0.04904885 -0.082712926 -0.07314388
-0.043230843 0.07222031 0.024058284 -0.06816793 -0.080642186 0.0821408 -0.025513016 -0.082043916
0.010492942 -0.07252272 -0.07917101 -0.003941984 -0.05473078 0.06564548 -0.044700958 -0.018747728
-0.0040220316 0.061429042 -0.084629625 -0.049622223 -0.07048744 0.056354962 0.05808613 0.076616034
0.08702841 -0.082306206 0.04617987 0.050611958 -0.06622796 0.0071213213 0.083871156 0.021461966
0.042282812 -0.026773164 0.047110777 -0.007010559 -0.034269527 0.037214126 -0.07748204 -0.061160333
0.034090415 0.06643573 -0.016256493 0.0118692685 -0.0029672328 0.050721508 0.036044795 0.06631193
0.037522107 0.058598775 0.01639094 0.07470699 0.06979529 0.002086153 0.004367678 0.0652423
-0.0037320612 0.08425362 0.021443674 0.008836414 -0.07579766 -0.031901464 -0.0846025 -0.07169949
-0.007306525 -0.07772576 -0.04837886 -0.05447091 0.005871572 0.0075437166 -0.083508514 0.0032492164
0.024623148 -0.04316992 -0.002455233 0.08211602 -0.023335392 0.053247064 0.041533895 0.023826908
0.083060235 -0.07745197 0.0122861955 -0.0023119021 -0.07433511 -0.08406759 -0.02938002 -0.01714814
0.061218306 -0.04706846 0.0072917314 -0.01501924 0.028682921 0.035132684 0.06764991 -0.020986833
0.07581657 0.017078072 -0.07031604 -0.018157905 0.048550196 -0.08362874 0.07049694 0.020301115
0.040943798 0.0109990835 0.038691744 -0.06758213 0.08176947 -0.06439834 0.056432564 0.019007565
-0.07167783 -0.062562756 -0.0023727622 0.030897718 -0.03983898 0.074809894 -0.034840524 0.07067807
0.05950709 0.05113616 -0.040578447 0.041263606 0.07450342 0.020520562 -0.06590696 0.07085814
0.027730888 -0.002459511 -0.052641317 -0.023481032 -0.050434835 0.04632865 0.044880398 0.057971723
-0.06907036 -0.08772365 0.0863119 -0.066035025 0.07293937 -0.032520507 0.0155169945 -0.015340789
0.05263976 -0.057454593 -0.0020736249 -0.045030758 -0.060804613 -0.07559939 0.0018132416 -0.024571138
0.043740187 -0.012714671 -0.0007655132 0.05564409 0.056831293 0.03234936 0.0028955832 0.08822244
-0.04107063 0.04186322 0.012438968 -0.03881222 0.024742823 0.034748327 -0.01076322 -0.045436632
-0.078797914 0.066211715 0.024727514 0.06306136 0.002708051 -0.03299426 0.024403067 0.007689671
-0.071711585 0.084836274 0.082661904 -0.06120029 -0.026357543 0.04218712 0.013372583 0.01006354
-0.06586354 -0.039342195 -0.030836752 -0.025416266 0.0063826446 -0.013319478 -0.016252836 -0.073018394
0.03752908 -0.014423916 -0.084152 0.026973128 -0.080278315 -0.072141275 -0.054557357 -0.006863688
-0.035528645 -0.022936326 0.06356358 0.0633572 -0.011820294 0.05054545 0.051359683 0.0412336
0.03958333 0.056194875 -0.055045754 0.02839154 0.023194833 -0.0032664123 0.031556387 -0.0756694
0.044130437 -0.0062943473 0.084461786 -0.029310087 0.006066122 -0.052075487 -0.082040675 0.02459945
00000000: 43c2 383d 8420 873d 88cc 48bd e575 8e3c
00000010: 5afb b3bd 725c 9a3d 36ff 37bc bea1 3fbd
00000020: 236e 19bd 290d 3dbd 6400 1d3d ff25 00bc
00000030: 86f8 c6bc f70c babc 1bdb 2cbd 9415 3fbd
00000040: ffb8 a0bc 1e95 f7bc 9ce1 983c 8fdb b9bc
00000050: d6df 473c b3d2 5c3d df1e a8bc e6fb 3fbd
00000060: 5411 fc3b f68f 4abd a91f cb3c 0c74 9f3d
00000070: 6c3b 15bd 72e7 483d 6565 a9bd 75cc 95bd
00000080: d312 31bd 3ee8 933d e115 c53c a19b 8bbd
00000090: bb27 a5bd 7039 a83d ac00 d1bc a406 a8bd
000000a0: 97ea 2b3c cb86 94bd 6924 a2bd c22b 81bb
000000b0: 622d 60bd 2371 863d 5a18 37bd d694 99bc
000000c0: 3fcb 83bb 059d 7b3d 4c52 adbd ac40 4bbd
000000d0: b85b 90bd 76d4 663d b9eb 6d3d dee8 9c3d
000000e0: f33b b23d 2890 a8bd 1a27 3d3d 7c4e 4f3d
000000f0: 86a2 87bd f959 e93b a4c4 ab3d 01d1 af3c
00000100: be30 2d3d 6553 dbbc 3bf7 403d d5b8 e5bb
00000110: 345e 0cbd d76d 183d e7ae 9ebd 4283 7abd
00000120: 64a2 0b3d 750f 883d 562c 85bc 5277 423c
00000130: e875 42bb 5bc1 4f3d b5a3 133d 8dce 873d
00000140: c8b0 193d 4505 703d 4b46 863c faff 983d
00000150: d5f0 8e3d d7b7 083b bd1e 8f3b c19d 853d
00000160: 9995 74bb 298d ac3d a5aa af3c 9bc6 103c
00000170: ce3b 9bbd 1cab 02bd 1344 adbd 2fd7 92bd
00000180: 936b efbb af2e 9fbd e928 46bd e41c 5fbd
00000190: 5166 c03b 4831 f73b 8306 abbd cef0 543b
000001a0: 7cb6 c93c f1d2 30bd f9e7 20bb 722c a83d
000001b0: dd29 bfbc 9819 5a3d 721f 2a3d a630 c33c
000001c0: 7c1b aa3d 239f 9ebd 0a4c 493c 4883 17bb
000001d0: 023d 98bd a12b acbd 5eae f0bc 427a 8cbc
000001e0: 0cc0 7a3d dcca 40bd 7aef ee3b 4213 76bc
000001f0: 72f8 ea3c 4ae7 0f3d 098c 8a3d 94ec abbc
00000200: b845 9b3d 50e7 8b3c db01 90bd e3bf 94bc
00000210: 92dc 463d 8b45 abbd b360 903d 864e a63c
00000220: afb4 273d 8035 343c 3c7b 1e3d 8068 8abd
00000230: c076 a73d 47e3 83bd d525 673d c1b5 9b3c
00000240: d3cb 92bd e720 80bd 5880 1bbb 361d fd3c
00000250: 332e 23bd ee35 993d f0b4 0ebd aabf 903d
00000260: b5bd 733d 2674 513d 9635 26bd 0704 293d
00000270: 4095 983d bd1a a83c 3afa 86bd 131e 913d
00000280: e32b e33c bf2f 21bb 6c9e 57bd 4b5b c0bc
00000290: c294 4ebd 1cc3 3d3d 82d4 373d c273 6d3d
000002a0: c374 8dbd 75a8 b3bd 4bc4 b03d 5f3d 87bd
000002b0: 3d61 953d 3934 05bd fe3a 7e3c ef57 7bbc
000002c0: ca9c 573d 8255 6bbd a7e5 07bb 2c72 38bd
000002d0: 420e 79bd dad3 9abd 4baa ed3a 6949 c9bc
000002e0: e928 333d 3251 50bc b9ac 48ba 0feb 633d
000002f0: eec7 683d c380 043d d3c3 3d3b f7ad b43d
00000300: ad39 28bd c578 2b3d d0cc 4b3c 90f9 1ebd
00000310: 76b1 ca3c 4354 0e3d 3758 30bc c31b 3abd
00000320: cd60 a1bd 029a 873d 5b91 ca3c 5026 813d
00000330: 8e79 313b fd24 07bd f1e8 c73c a3f9 fb3b
00000340: 86dd 92bd a4be ad3d a54a a93d 28ad 7abd
00000350: c6eb d7bc 67cc 2c3d ae18 5b3c 8ce1 243c
00000360: 77e3 86bd 4825 21bd 5b9d fcbc c635 d0bc
00000370: 8125 d13b f139 5abc ab24 85bc ab8a 95bd
00000380: 18b8 193d 4a52 6cbc e257 acbd c0f6 dc3c
00000390: f568 a4bd cebe 93bd 8977 5fbd cae8 e0bb
000003a0: 7c86 11bd f6e4 bbbc 9f2d 823d 6bc1 813d
000003b0: e8a9 41bc bf08 4f3d 885e 523d 90e4 283d
000003c0: 2122 223d 992c 663d a877 61bd 6095 e83c
000003d0: 1703 be3c 4e11 56bb 4541 013d 8ff8 9abd
000003e0: 1ec2 343d d040 cebb 4dfa ac3d b51b f0bc
000003f0: 52c6 c63b 1b4d 55bd f104 a8bd c984 c93c

conv_spatial.mlp.0.weight f4 [256, 2]
0.041610226 0.12594274 0.06608109 -0.04590555 2.5215593e-05 -0.0004109344 -0.13382928 -0.0114357015
0.00021118279 -8.115811e-05 -0.10207658 -0.027807573 0.079489194 0.15148467 -0.1762881 0.05981076
0.11364496 -0.06606902 -0.00016882313 -0.00015246756 -0.11871141 -0.08641222 0.19074342 -0.06921317
0.12116795 -0.025800638 -0.0799591 -0.1574404 -5.9020047e-05 -0.00022444956 8.6150016e-05 -6.9703245e-05
-3.2762127e-05 0.00028325527 0.06448175 -0.17000675 -0.00024047142 -0.0002376936 -5.1253286e-05 -0.00019435804
-0.00013983568 -7.74842e-05 -0.7473224 -1.0179342 0.00020611579 0.00043748989 3.156054e-05 -0.00013682307
-0.0766523 -0.19301453 -1.7639824e-05 -0.000102478836 -0.0046710786 0.08790846 -0.00010379016 -0.00017406383
-2.2094147e-05 -0.0004928389 -0.00015828431 -6.853134e-05 0.1798381 0.047969736 -0.13001622 0.027450133
5.768751e-05 -0.00028866492 0.00012378594 7.465705e-05 -0.00014444855 -0.00022545089 0.118558414 -0.018057628
0.15349424 -0.09449708 -0.13956703 0.13958298 -5.5576304e-05 -0.00034166072 0.19302507 0.058519125
0.05626222 -0.14011672 0.16087265 0.12766157 1.7149534e-05 0.00022671378 0.0003250292 8.18334e-05
8.45302e-05 -0.00021941548 -0.000496032 -0.00015389317 0.1005363 -0.08774545 0.00012499385 0.00017951861
-0.10577369 0.16690944 -0.00023986417 -0.00040061184 -0.07159512 -0.15759541 0.0001764612 -0.00015677458
1.1053479 -1.1876134 0.00020670082 0.00024406626 0.13354823 0.105777234 0.18633327 -0.04363763
0.05342553 0.09436081 1.041152 -0.8623036 0.00011529191 -0.00012846463 0.04244576 -0.112080365
0.00010802733 -0.0001142784 -8.3932144e-05 1.3181499e-05 -3.5366073e-05 -3.847833e-05 0.07357535 0.067604266
-0.06829892 0.17449507 -0.15607327 0.112542115 -5.5820816e-05 -4.0625833e-05 0.15777859 0.090939425
-5.8129946e-05 6.640719e-05 0.045232963 -0.07855479 -3.869733e-05 0.00045821947 0.16585238 0.051961046
-0.13126919 -0.05501289 0.13229857 -0.010668493 0.00024569192 0.0002966957 0.00019065029 0.00014504512
0.00012693992 0.00026149987 -0.029188806 -0.011510417 -0.00015701832 -9.20649e-05 0.08470964 0.16312219
0.00018429093 0.00018848787 -0.07725852 -0.053267367 3.643831e-05 0.00035667105 0.0010680659 -0.102408156
0.11282039 0.13002539 0.00011285623 0.0004883096 9.349743e-06 -0.00022136484 0.10345213 0.051762935
-0.1556523 0.019309437 0.13202931 -0.07398185 -0.00015647602 1.3884367e-05 -3.858155e-05 -0.00022642052
9.5409945e-05 6.033892e-05 0.09897383 -0.07121993 -0.106606424 -0.16113915 0.08339431 -0.0593535
-0.0668523 0.11130885 6.706578e-05 0.00019108735 -0.08022511 0.12214053 0.000115276074 7.083235e-05
-0.00012492282 -0.0001781973 9.311239e-05 -0.0001567023 0.00022259424 0.00051559776 -6.158908e-05 9.092452e-05
-0.18140012 -0.10448731 0.00016389877 -0.00034559885 0.1005089 0.14267279 7.091488e-05 5.312276e-06
0.094000846 0.012332709 -6.744945e-05 0.00032562012 0.15983954 0.10497534 -0.00034227566 -0.0004518731
0.0034198754 0.15817091 0.061321568 0.16568488 -0.100183085 -0.14413919 5.3796713e-05 0.00065455894
-0.00031663905 -0.00036259164 0.16668552 0.10226534 -0.00014584587 5.1164912e-05 0.00014678352 0.00028497286
-0.00011433857 0.00014018097 0.0803274 0.16679423 -9.593032e-05 0.00014379938 -0.02449911 0.06624857
3.3976712e-06 -0.00024566834 0.05793297 0.16872416 1.8649274e-05 -0.00018178957 0.011958532 -0.013881185
00000000: 7c6f 2a3d 22f7 003e 8655 873d 7507 3cbd
00000010: 1386 d337 ae72 d7b9 8b0a 09be cf5c 3bbc
00000020: f370 5d39 6e33 aab8 870d d1bd b5cc e3bc
00000030: 3bcb a23d cc1e 1b3e de84 34be 21fc 743d
00000040: b0be e83d 324f 87bd 1d06 31b9 b3df 1fb9
00000050: f81e f3bd e4f8 b0bd 3e52 433e a2bf 8dbd
00000060: e726 f83d dc5b d3bc 99c1 a3bd 0e38 21be
00000070: 4b8c 77b8 385a 6bb9 70ab b438 a52d 92b8
00000080: 116a 09b8 e181 9439 020f 843d 4016 2ebe
00000090: 0e27 7cb9 643d 79b9 ccf8 56b8 97cc 4bb9
000000a0: dba0 12b9 037f a2b8 8550 3fbf ab4b 82bf
000000b0: c920 5839 e65e e539 df5f 0438 2a78 0fb9
000000c0: e2fb 9cbd 9aa5 45be 3cf9 93b7 e8e9 d6b8
000000d0: d90f 99bb 5a09 b43d eba9 d9b8 e784 36b9
000000e0: d256 b9b7 dc31 01ba 1ff9 25b9 7cb8 8fb8
000000f0: 7b27 383e ea7b 443d f922 05be 1adf e03c
00000100: 7ef5 7138 f357 97b9 89cc 0139 3391 9c38
00000110: 1d77 17b9 0367 6cb9 c1ce f23d 97ed 93bc
00000120: 982d 1d3e af87 c1bd a9ea 0ebe d7ee 0e3e
00000130: 9a1a 69b8 ed20 b3b9 5da8 453e c0b1 6f3d
00000140: 3773 663d c27a 0fbe cdbb 243e b7b9 023e
00000150: 58dc 8f37 04ba 6d39 ae68 aa39 f99d ab38
00000160: ce45 b138 e512 66b9 2508 02ba 625e 21b9
00000170: fae5 cd3d e3b3 b3bd c810 0339 293d 3c39
00000180: e09f d8bd 4fea 2a3e 0c84 7bb9 3609 d2b9
00000190: 76a0 92bd b160 21be 7108 3939 db63 24b9
000001a0: 0a7c 8d3f b703 98bf d4bd 5839 0aec 7f39
000001b0: dec0 083e bca1 d83d 26ce 3e3e 5fbd 32bd
000001c0: bbd4 5a3d 3e40 c13d 7844 853f eebf 5cbf
000001d0: dfc8 f138 76b4 06b9 9bdb 2d3d 648a e5bd
000001e0: bb8c e238 c0a8 efb8 ba04 b0b8 1b26 5d37
000001f0: 0856 14b8 cb63 21b8 acae 963d 1b74 8a3d
00000200: 4ee0 8bbd d6ae 323e acd1 1fbe 7b7c e63d
00000210: 2521 6ab8 a865 2ab8 b690 213e 733e ba3d
00000220: 8ed0 73b8 1744 8b38 3346 393d 55e1 a0bd
00000230: f14e 22b8 2d3d f039 35d5 293e 1bd5 543d
00000240: 6e6b 06be 3255 61bd 4779 073e e7ca 2ebc
00000250: 36d0 8039 d38d 9b39 4ce9 4739 4117 1839
00000260: 2d1b 0539 eb19 8939 5d1d efbc 3096 3cbc
00000270: 49a5 24b9 f812 c1b8 3f7c ad3d 8109 273e
00000280: 383e 4139 d4a4 4539 b739 9ebd e22e 5abd
00000290: 56d5 1838 94ff ba39 58fe 8b3a 5ebb d1bd
000002a0: 600e e73d 6025 053e 3aad ec38 e701 003a
000002b0: d7dc 1c37 2c1e 68b9 b6de d33d 5f05 543d
000002c0: 5163 1fbe d32e 9e3c b132 073e cc83 97bd
000002d0: b613 24b9 e7f0 6837 a0d2 21b8 4c6b 6db9
000002e0: d316 c838 6c14 7d38 cbb2 ca3d c1db 91bd
000002f0: 7854 dabd a901 25be a3ca aa3d a81c 73bd
00000300: dce9 88bd e5f5 e33d aba5 8c38 9f5e 4839
00000310: 104d a4bd d024 fa3d 5fc0 f138 d48b 9438
00000320: b7fd 02b9 79da 3ab9 5545 c338 7450 24b9
00000330: 3068 6939 2e29 073a 6329 81b8 bbae be38
00000340: f4c0 39be 71fd d5bd 3edc 2b39 7e31 b5b9
00000350: 9cd7 cd3d d118 123e 23b8 9438 1a40 b236
00000360: 8483 c03d 210f 4a3c a673 8db8 feb7 aa39
00000370: faac 233e 50fd d63d 7673 b3b9 61e9 ecb9
00000380: fd1f 603b 8ef7 213e 532c 7b3d 4ca9 293e
00000390: ca2c cdbd 3999 13be c8a3 6138 b596 2b3a
000003a0: 9302 a6b9 3a1a beb9 9caf 2a3e 7e70 d13d
000003b0: 34ee 18b9 e899 5638 e7e9 1939 6968 9539
000003c0: 0dc9 efb8 8bfd 1239 b182 a43d 1bcc 2a3e
000003d0: 332e c9b8 dac8 1639 5cb2 c8bc 55ad 873d
000003e0: 8c03 6436 0ccd 80b9 1f4b 6d3d 07c6 2c3e
000003f0: 0371 9c37 c49e 3eb9 b8ed 433c e96d 63bc

conv_spatial.mlp.2.weight f4 [256, 256]
0.05364816 0.08448524 -0.07479988 -0.08926056 0.023766715 -0.1158034 0.042644568 -0.14839184
0.07241997 0.028758807 -0.06594096 0.084698975 0.1037944 -0.07474711 0.013791667 -0.023911068
0.045667756 0.012685428 -0.050538383 -0.022907801 -0.025671806 0.02528446 0.010310044 -0.08041817
-0.06954367 -0.013899307 0.00726302 -0.032099683 -0.056963574 -0.030932816 0.13181303 -0.13212395
-0.037299663 -0.03385773 0.028422788 0.044428587 0.060130708 -0.082283124 -0.018435203 0.14279696
0.049948435 0.20194635 0.03698605 0.030612307 0.015235149 0.003596448 0.05748419 -0.032679558
0.013118666 0.043938685 -0.07899933 0.020505747 -0.11411731 -0.008654248 0.15288448 0.11599
0.093527295 -0.092702374 0.062320422 0.025260145 -0.04549427 -0.0027934776 0.050678104 0.048030622
-0.065135926 -0.110076286 -0.026168812 0.085005574 -0.05776173 0.06500515 0.042242777 0.119172975
-0.099195 0.07942523 0.018383088 0.057625808 0.041307878 -0.05497157 0.022768363 0.14548022
0.04090694 -0.04631125 -0.004434065 -0.023325764 0.0785499 -0.007580755 -0.023687605 0.11309703
-0.17331791 0.08585169 0.030038284 -0.029181464 0.03439161 0.06405944 -0.0894383 0.0044638417
0.011593941 0.04644314 0.008467601 0.0134382425 -0.040172335 0.036217313 -0.020761598 -0.043334212
-0.20876418 -0.031017043 0.058479927 -0.008048201 0.14167173 -0.003027034 0.21640348 0.02077889
0.034306604 0.11000468 -0.13465203 0.056253903 -0.03547385 0.18778583 0.01126279 0.008321433
0.031182198 0.044642515 -0.032436322 -0.037179098 -0.0038497546 0.054970212 0.005341001 -0.01686958
0.0024055613 -0.0039548464 -0.19390102 0.03247627 0.021696756 -0.031834904 0.049574696 0.015914783
-0.0715553 0.066328995 0.2032397 -0.035876248 0.085605904 0.030865088 0.0130585255 -0.05999439
0.07655734 -0.015820388 -0.0435187 -0.014725326 0.036306843 0.04460073 -0.021720557 -0.05147317
0.032163907 -0.104852565 0.009916166 0.09167011 0.17708395 0.032433342 0.040268764 -0.033361748
-0.021856695 -0.03399928 0.014065772 -0.18627562 -0.0020146868 0.04437273 -0.14528431 0.08772794
-0.06124489 -0.0048563518 0.01595022 0.006083011 -0.015311683 0.0243775 -0.027540741 -0.040951356
-0.07304055 0.20891014 -0.033704 0.109682366 -0.057487205 0.053757455 -0.21284246 -0.084293604
-0.0030095254 0.029839288 -0.03379263 0.04485834 -0.006102125 0.15983832 0.0067794616 -0.043437153
-0.030351667 0.102949895 0.15797032 -0.101027235 0.036833346 0.04483641 -0.072528794 -0.042954784
0.05855889 0.10644609 -0.038090017 -0.16012123 -0.012287401 -0.016999526 0.0030602321 0.044312976
0.012220531 -0.08891003 -0.04354803 0.111104585 0.07502223 0.028175019 -0.061225474 -0.010103424
0.09858724 -0.029069072 0.027897868 0.060165104 -0.12757288 -0.03748542 -0.04637202 -0.087097794
0.048622366 -0.03735923 0.021021599 0.0034495438 -0.016090376 -0.04083821 0.067368515 -0.048504494
-0.029010542 -0.0074590347 0.03005909 0.08796945 0.041530035 0.01932314 -0.03613657 0.020358995
0.05087195 -0.13063529 0.04536228 -0.1646233 0.08131757 0.15433313 -0.053754114 0.12762085
-0.0033308857 -0.0020226385 -0.004896162 -0.0116338115 -0.062872924 -0.0019038162 0.0030140507 -0.1289679
00000000: 2cbe 5b3d 9906 ad3d ae30 99bd 3ece b6bd
00000010: 6ab2 c23c 552a edbd 12ac 2e3d 08f4 17be
00000020: ec50 943d 9797 eb3c 0e0c 87bd a876 ad3d
00000030: 2992 d43d 0315 99bd 72f6 613c 25e1 c3bc
00000040: 1d0e 3b3d 8bd6 4f3c 5601 4fbd 24a9 bbbc
00000050: ae4d d2bc 5b21 cf3c 75eb 283c 48b2 a4bd
00000060: e96c 8ebd ebb9 63bc a1fe ed3b f57a 03bd
00000070: a352 69bd d166 fdbc fff9 063e 804b 07be
00000080: 88c7 18bd 67ae 0abd e8d6 e83c c0fa 353d
00000090: 9e4b 763d 0e84 a8bd 6c05 97bc 5e39 123e
000000a0: bb96 4c3d 06cb 4e3e af7e 173d a9c6 fa3c
000000b0: d99c 793c 63b2 6b3b 8b74 6b3d 00db 05bd
000000c0: acef 563c 0df9 333d 67ca a1bd abfb a73c
000000d0: 56b6 e9bd 8cca 0dbc c08d 1c3e 2a8c ed3d
000000e0: 3d8b bf3d beda bdbd b343 7f3d 5dee ce3c
000000f0: 3358 3abd c712 37bb d893 4f3d c2bb 443d
00000100: fc65 85bd ad6f e1bd fa5f d6bc 6717 ae3d
00000110: 9097 6cbd 6c21 853d c306 2d3d f610 f43d
00000120: c026 cbbd b2a9 a23d 2198 963c 0a09 6c3d
00000130: 7332 293d de29 61bd b884 ba3c c4f8 143e
00000140: 098e 273d deb0 3dbd a24b 91bb ac15 bfbc
00000150: c5de a03d fb67 f8bb 820c c2bc 6a9f e73d
00000160: 407a 31be 03d3 af3d d912 f63c f70d efbc
00000170: 38de 0c3d 9831 833d 6d2b b7bd 6b45 923b
00000180: 83f4 3d3c 293b 3e3d b1bb 0a3c 132c 5c3c
00000190: bf8b 24bd 9b58 143d 3a14 aabc 377f 31bd
000001a0: 47c6 55be 7417 febc a688 6f3d 9adc 03bc
000001b0: 6512 113e 3461 46bb e098 5d3e 7e38 aa3c
000001c0: 1585 0c3d 224a e13d 39e2 09be 7e6a 663d
000001d0: 074d 11bd ee4a 403e 9187 383c 9f56 083c
000001e0: cf71 ff3c 12db 363d f3db 04bd 1c49 18bd
000001f0: 2a4c 7cbb 7228 613d 9003 af3b 1332 8abc
00000200: 9fa6 1d3b a897 81bb fd8d 46be d605 053d
00000210: 65bd b13c 5165 02bd d60e 4b3d b85f 823c
00000220: 968b 92bd 7fd7 873d 111e 503e f9f2 12bd
00000230: 2652 af3d c8d8 fc3c 6df3 553c adbc 75bd
00000240: 18ca 9c3d c299 81bc aa40 32bd 7e42 71bc
00000250: 7cb6 143d 41af 363d 4fef b1bc 88d5 52bd
00000260: 4dbe 033d f1bc d6bd 6a77 223c 8abd bb3d
00000270: 7f55 353e d3d8 043d dcf0 243d 54a6 08bd
00000280: d00c b3bc d442 0bbd 2074 663c 09bf 3ebe
00000290: d608 04bb 2ec0 353d 69c5 14be b5aa b33d
000002a0: ecdb 7abd 0822 9fbb 09aa 823c ff53 c73b
000002b0: dadd 7abc 53b3 c73c 1f9d e1bc 9cbc 27bd
000002c0: 4996 95bd 8aec 553e 350d 0abd 26a1 e03d
000002d0: b477 6bbd c730 5c3d 60f3 59be 20a2 acbd
000002e0: 753b 45bb 8671 f43c 246a 0abd 61bd 373d
000002f0: 56f4 c7bb a8ac 233e 3f26 de3b 28eb 31bd
00000300: 0fa4 f8bc 65d7 d23d f9c2 213e 5ee7 cebd
00000310: 90de 163d 62a6 373d fa89 94bd 5bf1 2fbd
00000320: 72db 6f3d 6800 da3d 4704 1cbd d2f6 23be
00000330: 1851 49bc 9742 8bbc 2d8e 483b 8681 353d
00000340: 9f38 483c 7616 b6bd 6b5f 32bd cd8a e33d
00000350: 41a5 993d 4ccf e63c 90c7 7abd d588 25bc
00000360: 1be8 c93d 4322 eebc 128a e43c af6f 763d
00000370: 77a2 02be 508a 19bd 96f0 3dbd 5460 b2bd
00000380: 3f28 473d fe05 19bd 7d35 ac3c be11 623b
00000390: f7cf 83bc f845 27bd 81f8 893d a6ac 46bd
000003a0: 84a7 edbc eb6a f4bb 7b3e f63c 5429 b43d
000003b0: 661b 2a3d 904b 9e3c f103 14bd e8c7 a63c
000003c0: 1b5f 503d 42c5 05be cccd 393d 0393 28be
000003d0: d389 a63d 8109 1e3e 462d 5cbd 0aaf 023e
000003e0: fd4a 5abb 3e8e 04bb fc6f a0bb be9b 3ebc
000003f0: 85c3 80bd 7989 f9ba 6187 453b 2910 04be

conv_spatial.mlp.4.weight f4 [2, 256]
0.1268984 -0.00012905228 0.00029630415 0.019108543 0.09804077 8.146764e-05 -8.1340135e-05 0.0001233983
-0.054582063 -0.00013371455 -0.04713458 0.00041783188 -0.00023916476 -2.6107287e-05 0.0001277996 0.109949
0.0004668514 -0.00018689384 -0.0060253763 -0.0009029637 -0.058142003 -0.0002963243 -3.0755513e-05 -6.721423e-05
0.114564136 0.00027249084 -1.3884491e-05 0.0002017426 0.00015544622 2.8993723e-05 0.034363538 -0.055130128
-5.784354e-05 0.00018777905 -8.440561e-05 0.00013665178 0.00023121655 8.9317735e-05 0.0004773367 -0.00027495247
0.00034377468 -0.00062324805 -9.364363e-05 -0.00034606716 0.00026281676 5.201476e-05 0.09688816 0.00023477753
0.00022336998 3.4128825e-05 0.00022955405 -0.00022347269 0.00040494328 -4.7729434e-05 0.0009945132 -0.00013597852
-0.10151921 9.679832e-05 0.00020604259 0.00020145666 0.05844365 0.00026422876 0.0027757653 -0.00011152816
-5.2679974e-05 0.003391756 0.00026345978 -0.064044505 0.0003731258 0.074672945 -0.11411346 0.00035563041
-0.00010667497 0.09859733 5.7848456e-06 -0.0009487148 -0.00019220717 1.1689505e-05 -0.00031790623 -0.00015293666
-0.00018297213 -1.7277727e-05 -0.00022807138 -4.6132132e-05 0.00025157002 -3.0390693e-05 2.9883373e-05 -0.08739737
-0.0005344952 -0.00021453909 0.00012247537 -0.00019798048 -9.18029e-05 -0.00016763197 0.13462663 0.00036038677
0.00014860978 -7.1480776e-05 -0.0005441089 -0.00047015044 -0.0012710356 0.00037046187 -0.00031730614 7.122884e-05
0.008405147 0.00015760877 6.944424e-05 -0.000314263 0.00033770726 -0.105508365 -0.000244951 -0.09234841
-0.00011197764 0.00013665935 -0.00074942596 0.00017251668 2.9637837e-05 -0.11354448 0.04095124 -0.0027343095
-0.021021133 0.08068918 0.0036004912 0.0016523511 0.00043850197 -0.10678087 9.116802e-05 -0.00026807326
-0.0001023935 0.00015552204 0.0009710666 0.00014592247 0.00016394682 -0.08878294 4.9816404e-05 -0.0004804062
-0.005144744 0.00015351111 5.1400802e-05 -0.00081505766 -0.000197545 0.00018690355 0.00025981493 -2.6249028e-05
3.79407e-05 -7.93096e-05 0.00072617957 0.00013749833 -7.356502e-05 0.00066772365 -0.00017284165 5.3390053e-05
-0.000117212796 -0.00033453797 5.9972976e-05 9.866079e-06 3.716891e-05 9.195754e-05 0.00029486555 -0.0001514868
0.0002215684 0.0006788192 4.375817e-06 -0.046020932 -0.00037598642 0.00041222814 0.006280398 9.222638e-06
1.4080436e-05 -0.00014882063 0.0005981756 0.00010765282 3.737121e-05 -0.0013026554 0.00018969113 -1.5537235e-05
-0.1265525 -0.0002035649 0.11011836 -0.00016397402 -3.4018034e-05 0.11465395 0.0014131506 -1.42814515e-05
0.00027230778 -0.00013133866 0.059128854 0.08481492 -0.068929106 1.2184689e-05 -0.00033214936 0.0047747935
0.0008771729 0.0006338059 0.0015917713 -0.00026379214 -0.0001320234 0.00015152735 -3.9126036e-05 -7.444482e-05
0.0002520157 -0.0656413 -4.9332062e-05 -0.00045779618 -0.00022575623 9.509561e-05 -0.13040687 -1.08257145e-05
7.079999e-05 9.3609764e-05 -0.00022423576 0.14868042 0.065940276 2.779129e-06 -0.00015113325 8.577787e-05
0.016833792 -0.00021281982 -0.00010167027 0.0003414238 -0.00037884983 0.00035732388 0.00011926415 3.5897e-05
0.00015689105 -0.0008114526 -0.00021832006 -4.4830995e-05 0.00013281037 0.00013921541 -0.00014035181 -0.0013452973
0.0002751391 -0.00026885705 7.62989e-05 0.12366151 -5.1596508e-05 -0.00015635896 -0.12622778 0.0001660615
0.00017272189 -0.009722622 -0.00011947233 0.000109959175 -0.00011580107 -0.00025479626 -0.00015041517 -1.7886185e-05
0.0032517202 3.1598738e-05 6.411146e-05 0.00021696955 -0.05918243 8.993351e-06 -0.00021614175 -9.506617e-05
00000000: a7f1 013e 3552 07b9 4559 9b39 8589 9c3c
00000010: 99c9 c83d 9bd9 aa38 2795 aab8 7b64 0139
00000020: 7191 5fbd ba35 0cb9 3010 41bd 7210 db39
00000030: 4dc8 7ab9 f900 dbb7 f201 0639 f12c e13d
00000040: bcc3 f439 eff8 43b9 8570 c5bb deb4 6cba
00000050: 4f26 6ebd f95b 9bb9 7bff 00b8 5df5 8cb8
00000060: 9aa0 ea3d 1add 8e39 6ff1 68b7 de8a 5339
00000070: 47ff 2239 8c37 f337 c8c0 0c3d 21d0 61bd
00000080: 079d 72b8 8ee6 4439 eb02 b1b8 2f4a 0f39
00000090: b872 7239 1850 bb38 0c43 fa39 7f27 90b9
000000a0: a83c b439 7861 23ba 8b62 c4b8 5970 b5b9
000000b0: abca 8939 6c2a 5a38 4d6d c63d 9d2e 7639
000000c0: 6c38 6a39 8c25 0f38 72b4 7039 fe53 6ab9
000000d0: 914e d439 1731 48b8 535a 823a 7595 0eb9
000000e0: 4ee9 cfbd 3400 cb38 230d 5839 1c3e 5339
000000f0: 9c62 6f3d 2f88 8a39 9de9 353b 3ae4 e9b8
00000100: b1f4 5cb8 3948 5e3b f920 8a39 c429 83bd
00000110: 19a0 c339 21ee 983d 51b4 e9bd e873 ba39
00000120: b0b6 dfb8 66ed c93d 721b c236 2cb3 78ba
00000130: 388b 49b9 0b1e 4437 a7ac a6b9 9f5d 20b9
00000140: 35dc 3fb9 a3ef 90b7 7226 6fb9 007e 41b8
00000150: 28e5 8339 84ef feb7 0eae fa37 64fd b2bd
00000160: 5e1d 0cba e6f5 60b9 bb6c 0039 fb98 4fb9
00000170: 4f86 c0b8 5dc6 2fb9 90db 093e 4bf2 bc39
00000180: 22d4 1b39 f3e7 95b8 88a2 0eba 867e f6b9
00000190: e198 a6ba 8d3a c239 1c5c a6b9 b160 9538
000001a0: beb5 093c c843 2539 98a2 9138 aac3 a4b9
000001b0: 4d0e b139 c514 d8bd c46c 80b9 2a21 bdbd
000001c0: 8ad5 eab8 374c 0f39 2075 44ba 98e5 3439
000001d0: c59e f837 028a e8bd 7dbc 273d 1a32 33bb
000001e0: 8334 acbc 5e40 a53d 38f6 6b3b b493 d83a
000001f0: bde6 e539 eeaf dabd 7531 bf38 2f8c 8cb9
00000200: 17bc d6b8 a113 2339 2d8f 7e3a c402 1939
00000210: 24e9 2b39 d4d3 b5bd f5f1 5038 07df fbb9
00000220: 3e95 a8bb d3f7 2039 3197 5738 98a9 55ba
00000230: 1524 4fb9 8afb 4339 c537 8839 5c31 dcb7
00000240: 8422 1f38 0453 a6b8 165d 3e3a 6d2d 1039
00000250: eb46 9ab8 2d0a 2f3a d43c 35b9 22ef 5f38
00000260: 24d0 f5b8 ed64 afb9 7e8b 7b38 7d86 2537
00000270: d0e5 1b38 54d9 c038 2f98 9a39 6ed8 1eb9
00000280: d154 6839 c9f2 313a fbd3 9236 7280 3cbd
00000290: 0b20 c5b9 5320 d839 cccb cd3b eeba 1a37
000002a0: 033b 6c37 bc0c 1cb9 e3ce 1c3a abc3 e138
000002b0: 08bf 1c38 ddbd aaba d3e7 4639 f555 82b7
000002c0: fb96 01be 0974 55b9 bc85 e13d 71f0 2bb9
000002d0: 96ae 0eb8 b1cf ea3d 7739 b93a 5e9a 6fb7
000002e0: 88c4 8e39 f4b7 09b9 1931 723d 72b3 ad3d
000002f0: b42a 8dbd d76c 4c37 5524 aeb9 df75 9c3b
00000300: 14f2 653a fe25 263a fba2 d03a 954d 8ab9
00000310: c36f 0ab9 50e3 1e39 431b 24b8 421f 9cb8
00000320: fa20 8439 f26e 86bd e6e9 4eb8 5d04 f0b9
00000330: fab8 6cb9 116e c738 6189 05be 17a0 35b7
00000340: 757a 9438 5c50 c438 d420 6bb9 ae3f 183e
00000350: b20b 873d 1381 3a36 8679 1eb9 a5e3 b338
00000360: 05e7 893c 6328 5fb9 d037 d5b8 2001 b339
00000370: 5da0 c6b9 3357 bb39 741d fa38 1c90 1638
00000380: 1f83 2439 aab7 54ba d8ec 64b9 ea08 3cb8
00000390: 0343 0b39 5afa 1139 672b 13b9 b054 b0ba
000003a0: 8b40 9039 62f5 8cb9 a902 a038 3f42 fd3d
000003b0: 5469 58b8 4af4 23b9 db41 01be cb20 2e39
000003c0: ae1c 3539 a24b 1fbc 388d fab8 e299 e638
000003d0: 3ada f2b8 2d96 85b9 c4b8 1db9 4a0a 96b7
000003e0: d01a 553b e388 0438 9473 8638 5282 6339
000003f0: 4769 72bd 26e2 1637 1ca4 62b9 435e c7b8

tail.0.weight f4 [256, 256]
-0.050764643 -0.052001745 -0.01750794 -0.0125152245 -0.0012214035 0.04321 -0.026596934 0.05303561
0.037302606 -0.02473262 -0.051585503 -0.030446373 0.02164936 0.008575648 -0.0068588704 -0.018338107
0.048025347 0.062354468 -0.039348014 0.017408505 0.041911706 -0.020926163 -0.009950079 0.01563365
0.0031540543 0.05056282 0.05001706 0.008527264 -0.010745153 -0.02369593 -0.025575325 -0.028669946
-0.05261366 -0.041072868 0.018390745 0.010016181 0.03130153 -0.023936778 0.03530425 0.008739598
0.0016833097 0.01889202 0.04242768 0.019358225 0.013686955 -0.041904166 -0.05559989 0.026070856
0.041503385 0.007869929 0.04562407 0.025513016 0.039627753 -0.047957674 0.059485048 0.013528585
-0.005574122 0.0030001327 -0.04082443 -0.045520857 0.0204316 0.056819864 -0.044604793 -0.015444331
0.05595628 0.023001835 -0.041004732 -0.017871283 -0.058959037 0.019019738 -0.008054167 -0.060799137
-0.05939307 -0.007651195 -0.03946992 0.038441204 0.013925992 -0.015560821 -0.036754742 0.006430395
0.016672313 0.035880305 -0.02500122 -0.04495275 -0.020848818 0.060969748 -0.026498407 0.05601888
-0.05878616 -0.054945186 0.05135025 0.0045601055 -0.03184828 -0.030691944 -0.056267112 0.04209391
-0.03411044 -0.059102714 -0.052805126 0.04247611 0.035599418 -0.004785903 0.015109092 -0.013970472
0.022625044 0.0065117925 -0.0582029 0.036723495 -0.059803054 -0.020830616 0.053294018 -0.022780575
0.004715778 -0.0023052096 -0.013779715 -0.033476576 0.03936375 0.0559944 0.009716101 0.056605816
0.02725219 0.05399534 0.04307455 0.01991643 -0.018701203 0.00787767 -0.046225034 0.017530508
0.017499365 0.01183439 0.036808833 -0.024956949 0.044349417 -0.009560153 0.010924153 0.049554206
-0.008581109 0.028072603 0.05233311 -0.03288365 -0.06188576 -0.042231187 -0.04935632 0.021372192
0.01875095 0.029867262 -0.055440746 -0.0444967 0.022665896 0.010694601 0.044676438 -0.01523947
-0.013799556 0.04086671 0.0060568824 0.057668753 -0.031668775 -0.058089025 0.034208596 -0.038176708
0.047909573 0.0033741668 0.05243753 -0.052567035 0.031863093 -0.05053954 0.020671986 0.053288512
-0.035459317 0.0033367574 -0.059114188 -0.05689837 0.020955272 -0.058226317 0.030265376 -0.036391437
-0.024089567 -0.060545325 -0.05257246 -0.01779084 -0.025535278 -0.017780043 0.020071067 -0.029342279
0.009043857 -0.031949602 -0.021370895 -0.01746884 0.015616469 0.045278057 -0.0032837465 -0.058878027
-0.043831423 0.046760224 0.016760081 -0.05510822 0.0057120845 -0.053962626 0.007811941 -0.051008068
0.045314513 -0.042248547 0.043401346 -0.022160418 0.015014 0.056960717 -0.010088563 0.030444905
0.019644432 -0.027288005 0.012114823 -0.024143718 -0.045120023 -0.017996222 0.046252735 0.010296442
0.04882171 0.018750198 -0.050415948 0.01820293 0.028880991 0.04479742 -0.049806006 -0.022016041
-0.040121734 -0.05802627 0.06240928 -0.0062843785 0.033954673 -0.022110663 0.041652016 -0.056386508
-0.036331825 0.007139288 0.008735217 0.014109768 0.061778888 0.046309665 -0.051656663 -0.007349953
0.04071857 -0.04578404 0.04958003 -0.0038270056 -0.017635658 0.0007897094 0.022374049 -0.047015987
-0.029606849 0.028857067 -0.037974916 -0.057046093 -0.008380927 0.0013096035 -0.03897614 -0.049539827
00000000: 96ee 4fbd c8ff 54bd d06c 8fbc a80c 4dbc
00000010: 8017 a0ba f8fc 303d d0e1 d9bc de3b 593d
00000020: 9eca 183d 109c cabc 524b 53bd ac6a f9bc
00000030: 005a b13c e080 0c3c 60c0 e0bb cc39 96bc
00000040: 3ab6 443d 6667 7f3d 622b 21bd 489c 8e3c
00000050: 9cab 2b3d 586d abbc a805 23bc 2412 803c
00000060: 40b4 4e3b f61a 4f3d b0de 4c3d f0b5 0b3c
00000070: 700c 30bc f81d c2bc 5883 d1bc 3cdd eabc
00000080: 6c81 57bd 063c 28bd 30a8 963c e81a 243c
00000090: 0836 003d 1017 c4bc 309b 103d 8830 0f3c
000000a0: 80a2 dc3a 70c3 9a3c a6c8 2d3d 2495 9e3c
000000b0: 403f 603c b4a3 2bbd b6bc 63bd 8c92 d53c
000000c0: 74ff 293d e0f0 003c 4ee0 3a3d ac00 d13c
000000d0: b650 223d 446f 44bd 98a6 733d 00a7 5d3c
000000e0: 20a7 b6bb e09d 443b 8437 27bd 1474 3abd
000000f0: 2c60 a73c f2bb 683d 84b3 36bd 380a 7dbc
00000100: 6a32 653d 586e bc3c 94f4 27bd cc66 92bc
00000110: 087f 71bd 48cf 9b3c a0f5 03bc 8408 79bd
00000120: 2646 73bd e0b6 fabb 36ab 21bd 8674 1d3d
00000130: d829 643c d0f2 7ebc 248c 16bd 10b6 d23b
00000140: 6094 883c 3af7 123d 5ccf ccbc 6020 38bd
00000150: 24cb aabc 6abb 793d 3013 d9bc 0e74 653d
00000160: c2c9 70bd 340e 61bd a454 523d f06c 953b
00000170: 5873 02bd ac6d fbbc 5878 66bd aa6a 2c3d
00000180: 64b7 0bbd b015 72bd 304a 58bd 6efb 2d3d
00000190: b2d0 113d 10d3 9cbb 208c 773c 68e4 64bc
000001a0: 2858 b93c e060 d53b 2a66 6ebd 606b 163d
000001b0: 0cf4 74bd f8a4 aabc d44a 5a3d 549e babc
000001c0: d086 9a3b 0013 17bb 50c4 61bc bc1e 09bd
000001d0: e23b 213d 625a 653d 4830 1f3c 80db 673d
000001e0: fc3f df3c 382a 5d3d f06e 303d c827 a33c
000001f0: 4433 99bc 5811 013c 7656 3dbd 249c 8f3c
00000200: d45a 8f3c 08e5 413c dcc4 163d 8472 ccbc
00000210: bca7 353d 30a2 1cbc 38fb 323c 5af9 4a3d
00000220: c897 0cbc 84f8 e53c 3e5b 563d 02b1 06bd
00000230: ec7b 7dbd 9cfa 2cbd da29 4abd bc14 af3c
00000240: 989b 993c 30ac f43c d615 63bd 2c42 36bd
00000250: d4ad b93c 6838 2f3c a4fe 363d f8ae 79bc
00000260: 8817 62bc da63 273d d078 c63b 1236 6c3d
00000270: 1eb7 01bd c2ee 6dbd 501e 0c3d 2e5f 1cbd
00000280: d43c 443d 2021 5d3b bcc8 563d 8850 57bd
00000290: e082 023d 8c02 4fbd 4c58 a93c 0e45 5a3d
000002a0: ca3d 11bd 80ad 5a3b b821 72bd 440e 69bd
000002b0: 64aa ab3c b87e 6ebd 18ef f73c 300f 15bd
000002c0: 7c57 c5bc 60fe 77bd 3856 57bd 18be 91bc
000002d0: 5c2f d1bc 74a7 91bc 146c a43c 385f f0bc
000002e0: b02c 143c 96dd 02bd 0412 afbc d01a 8fbc
000002f0: 38dc 7f3c 7c75 393d 2034 57bb 162a 71bd
00000300: 9488 33bd a687 3f3d 704c 893c 28b9 61bd
00000310: 702c bb3b ea07 5dbd 50fb ff3b d6ed 50bd
00000320: b69b 393d d00c 2dbd 9cc5 313d c489 b5bc
00000330: 48fd 753c a44f 693d 804a 25bc 9867 f93c
00000340: 5ced a03c 188b dfbc 407d 463c 0cc9 c5bc
00000350: c6cf 38bd d06c 93bc 8273 3d3d 68b2 283c
00000360: 46f9 473d 049a 993c f480 4ebd 501e 953c
00000370: d497 ec3c 807d 373d 6201 4cbd fc5a b4bc
00000380: b056 24bd f4ac 6dbd e0a0 7f3d 30ed cdbb
00000390: 0e14 0b3d 6c21 b5bc 4e9b 2a3d 8af5 66bd
000003a0: aed0 14bd b0f0 e93b 281e 0f3c a82c 673c
000003b0: dc0b 7d3d 34af 3d3d f095 53bd e0d7 f0bb
000003c0: 84c8 263d 0c88 3bbd 6e14 4b3d 80ce 7abb
000003d0: a878 90bc 8004 4f3a c849 b73c d693 40bd
000003e0: 108a f2bc a865 ec3c 968b 1bbd 2aa9 69bd
000003f0: 2850 09bc 00a7 ab3a 72a5 1fbd 46ea 4abd
