logs/M5D6_r04_scale005/score.pt (torch, 731911 bytes, 10 tensors)

embed.0.W f4 [64]
000000 dc 84 72 c1 db 40 2b 40 72 05 dd c0 a0 64 d7 c0
       -15.157436 2.6758335 -6.9069147 -6.7310333
000010 c1 9e a9 40 b9 66 6b 41 9e 75 8a c0 a8 32 3e c2
       5.300629 14.712579 -4.3268576 -47.54947
000020 27 72 2f c2 0b 42 37 42 f5 bc 59 42 f5 21 cb c1
       -43.861477 45.814495 54.43453 -25.39158
000030 34 37 49 41 f2 7a 90 41 f7 24 c3 c1 18 3d 52 41
       12.575977 18.060032 -24.39305 13.139915
000040 15 5a 01 c2 ff 4b 4c c1 c8 1b b7 c1 87 c7 36 c2
       -32.33797 -12.768554 -22.888565 -45.69485
000050 6e 81 9e 41 dd e0 92 41 1e 21 1e 42 d3 66 29 42
       19.813198 18.359797 39.53234 42.350414
000060 17 40 4c c1 b0 5a 4d c2 a6 05 35 42 e5 ae 26 42
       -12.765647 -51.338562 45.255516 41.670795
000070 a3 ac 9a c1 1b d9 47 40 10 08 50 c1 56 10 fa c1
       -19.334295 3.122626 -13.001968 -31.257977
000080 d8 18 38 42 98 8c cc c1 da 38 0f 41 40 ef 36 41
       46.02426 -25.56865 8.95138 11.433411
000090 5a b6 99 c1 22 ee 8c bf e8 35 d8 c1 82 1b fc c0
       -19.214039 -1.1010172 -27.026321 -7.878358
0000a0 be f8 55 c2 a5 2b 8b c2 6d 57 21 c1 bf f3 b5 c0
       -53.492912 -69.58524 -10.083844 -5.686004
0000b0 e7 e8 08 c1 c1 33 39 c1 c6 85 17 42 f8 4e 57 41
       -8.556861 -11.575135 37.88064 13.4567795
0000c0 08 ff ed 41 02 c5 c8 42 a0 4d 39 c1 8d 8d 48 41
       29.749527 100.38478 -11.581451 12.534558
0000d0 da 7d eb 41 60 b9 a3 41 7e aa 82 c0 ed 08 2b 42
       29.436451 20.465515 -4.083312 42.758717
0000e0 ae aa 7c c1 73 77 45 c2 8a d0 5d c0 e8 45 10 42
       -15.79167 -49.36665 -3.4658532 36.068268
0000f0 bd 94 e1 c1 f0 8e 6d 41 21 37 41 c2 68 4c e5 c0
       -28.197626 14.847397 -48.303837 -7.165577

embed.1.weight f4 [128, 128]
000000 03 7d 7b 3b aa f9 8e 3d 3d 0f 43 bd 58 b8 0f bd
       0.0038374073 0.069812134 -0.047621954 -0.035087913
000010 c9 cb 4f bd ff ae d9 bc 71 b0 55 bd 50 ac 11 3d
       -0.050731454 -0.026572702 -0.05217022 0.03556472
000020 d1 e6 37 bb 85 94 b2 bd 0e 0e 2a bd b7 81 77 3c
       -0.0028061161 -0.08719734 -0.04151731 0.01510661
000030 5c 99 9d 3d ee 92 7d 3d 51 cb a5 bd c2 72 1a bd
       0.076952666 0.0619077 -0.0809542 -0.037707098
000040 38 4e 62 bd 49 82 8a 3d 09 5d 10 bd 4e c0 a5 3d
       -0.055250376 0.06763131 -0.035244975 0.0809332
000050 1a bf e2 ba f1 86 08 3d ae 86 0d 3d cb 5e cf 3c
       -0.0017299384 0.033331815 0.03455227 0.025313755
000060 a3 34 28 bd c3 3e e6 3c 18 25 aa 3c b5 dd 4d bd
       -0.041065823 0.028106099 0.02076964 -0.050260264
000070 10 32 69 bc ed e0 35 bd e7 01 d6 3c 88 17 40 3d
       -0.014233127 -0.04440396 0.026123954 0.04689744
000080 79 3b ea bc ea fa c1 bc bb 41 b2 bd 9b fb 92 3d
       -0.028592812 -0.023679215 -0.08703943 0.07176896
000090 5c 49 33 3d 3c 38 aa 3d 8e 87 89 ba 89 30 57 bd
       0.043771133 0.08311507 -0.0010492669 -0.05253652
0000a0 57 b3 33 3d 3f 75 9a 3d 12 5b c0 3c 8d 78 a6 3c
       0.043872204 0.07541894 0.023480926 0.020321155
0000b0 88 67 d5 3c be 05 3a bc 44 e3 9c 3c c9 52 b1 bd
       0.026050344 -0.011353908 0.019151337 -0.08658368
0000c0 63 15 3e bd 43 36 08 bd 80 82 79 3c 17 53 c5 3c
       -0.046407115 -0.033254873 0.0152288675 0.024087472
0000d0 40 87 77 bd ec 12 4f 3d 0c c2 37 bc 02 35 91 bd
       -0.06043172 0.050555155 -0.011215698 -0.070901886
0000e0 6b 8c ed 3b 5c 06 8d 3d fa 04 43 3d 87 44 c1 bc
       0.007249405 0.068859786 0.047612168 -0.023592247
0000f0 af 05 89 3d 1a 06 87 3d f3 a6 9f bc 8f 5e 4f bd
       0.06690537 0.06592961 -0.019488787 -0.050627287
000100 b2 63 a4 bd 01 31 99 bc 60 06 5f 3d f7 e5 48 3d
       -0.08026828 -0.018700125 0.05444944 0.049047437
000110 b8 18 a8 3d 4a 57 14 3d 5d 52 14 3d 0f d6 49 3b
       0.0820784 0.036216058 0.03621136 0.0030797755
000120 56 92 b3 3d 5d 06 74 bd c1 c7 64 bc ef 7b 56 3d
       0.08768146 -0.05957638 -0.013963641 0.052364286
000130 c1 e1 91 bd d1 7c 84 3b c6 d5 92 3d 7d f8 a6 3d
       -0.07123137 0.0040431996 0.0716968 0.08152864
000140 cd 6a 73 bc 03 bb ae bd 13 db 0e 3c 0c 6f ab 3d
       -0.014857006 -0.085317634 0.008719224 0.0837079
000150 c0 1b 3a 3d 66 6e c1 3c 8a 87 62 3d d6 cc 66 bd
       0.04543662 0.023612212 0.05530504 -0.05634769
000160 89 72 97 3d 8e f4 9f 3b 55 b4 f9 bc 75 ea a4 bd
       0.07394893 0.004881448 -0.030481497 -0.08052532
000170 c6 c3 0c bd 0f 24 83 3c 09 da 69 3d 33 1f a9 3c
       -0.03436639 0.016008405 0.0570927 0.02064476
000180 1b 79 45 3d aa 64 8a bd ef 06 71 bd 25 ea 43 bd
       0.0482112 -0.067574814 -0.058844503 -0.04783072
000190 d2 63 9a 3d f2 9d 92 3d e4 39 66 bd 22 8f 8d 3c
       0.075385705 0.07159032 -0.056207553 0.017280165
0001a0 fc aa 57 3c b9 e6 4d 3d 4e da 4d bd e0 f4 f1 3c
       0.013163324 0.050268862 -0.05025702 0.02953571
0001b0 2e 33 99 3d 37 85 11 bd cf 35 82 bb 74 a7 00 3d
       0.07480465 -0.035527434 -0.0039736996 0.031409696
0001c0 79 62 9d 3d b9 fe 16 bd b5 6b 14 bd 66 a0 84 3d
       0.07684798 -0.036864016 -0.03623553 0.06475906
0001d0 3a c8 9f bc 58 0c 95 3d 3a 6f bb bc 24 0a fd bb
       -0.019504655 0.07277745 -0.022880185 -0.007722156
0001e0 4a 0f f0 bc 71 79 25 3d 4c 6c 63 3d 21 63 8f bc
       -0.029304165 0.04039902 0.0555232 -0.017503323
0001f0 e7 6c 62 3d df a7 1e bd f6 a8 66 bd bb 11 35 bd
       0.05527964 -0.038734313 -0.056313477 -0.044206362
000200 c5 9b 8f 3d ff e6 c7 3c 47 0b 55 3d 44 79 3a bd
       0.070121326 0.02440214 0.052012708 -0.045525804
000210 a5 4b 77 bd 75 c7 98 bd 25 59 43 bd d0 af 1e bd
       -0.060374875 -0.074599184 -0.047692437 -0.038741887
000220 9c d5 31 bd c4 a6 9f bd 58 3d 6d bd 29 c9 8b bd
       -0.043416604 -0.0779548 -0.05791983 -0.06825478
000230 87 e9 14 3d 8d 8c 78 bd d7 c3 38 bd 94 ed e1 bc
       0.03635552 -0.060680915 -0.045108642 -0.027579106
000240 c0 7e df 3c 7c 88 a6 3c d0 61 5f bd 89 43 98 bd
       0.027282119 0.020328753 -0.05453664 -0.07434756
000250 24 00 6c 3d 0b 1c 63 3d 30 80 ef bc 6f 63 10 3d
       0.05761732 0.055446666 -0.02923593 0.035251077
000260 f3 96 58 3d 41 f4 a0 bd 6b 04 07 bd d7 04 52 bd
       0.05287833 -0.07859088 -0.032963198 -0.051274147
000270 3f 48 a8 3d 8a 28 90 bd d0 01 a4 bc ff 0f 35 bd
       0.08216905 -0.07038982 -0.020020396 -0.04420471
000280 1c db 1d 3c 9e e6 f2 ba 5f 55 90 bd 74 ce 31 bc
       0.009634759 -0.0018531864 -0.07047533 -0.010852445
000290 1e 05 65 bd 66 df 79 3d 5e d2 04 bd cc b3 bf bc
       -0.055913083 0.061004065 -0.032427184 -0.023401164
0002a0 10 a7 48 3d 92 0b 3f 3c f3 f7 ac bd 3e d4 8c 3d
       0.04898745 0.011660473 -0.0844573 0.068764195
0002b0 29 b7 f9 bc da f1 86 bd a9 c7 9b 3d 52 5b 36 bd
       -0.030482845 -0.06589098 0.076064415 -0.044520684
0002c0 df 5b 89 3d 5a 87 a6 3d 96 ba 6c 3a 44 d7 79 3d
       0.06706976 0.08131285 0.0009030489 0.06099631
0002d0 61 e2 a5 bd 33 91 9c 3d 79 b0 a5 3d 97 90 85 bc
       -0.08099819 0.07644882 0.080903 -0.016304297
0002e0 00 e5 af 3c 81 48 83 bd 0a ad 91 bd 95 38 b2 bc
       0.0214715 -0.064103134 -0.07113083 -0.021755496
0002f0 1f 16 ce 3c e5 22 02 bc 91 de d6 3c 80 7e 6d bd
       0.025157033 -0.00794289 0.026229175 -0.057981968
000300 0c 14 a7 bd 0e e8 78 bd cd 19 7e bd 1e a0 af 3d
       -0.081581205 -0.06076818 -0.062036324 0.08575462
000310 ac 20 7c 3d c8 99 4f 3d ef fe 5b 3b 7a bb da bc
       0.061554596 0.050683767 0.00335687 -0.026700724
000320 dc dd 9b bd 8c 8e 1c bd 86 ca 52 bd 34 1f 8f bd
       -0.07610676 -0.03822188 -0.051462673 -0.069883734
000330 60 93 4a 3d 91 6b 7f bd af eb 73 3d df ca 0d bd
       0.049456954 -0.062358443 0.059550937 -0.0346173
000340 68 a1 18 3d ae 40 0f bc 31 4d 51 bb ec 02 a7 3c
       0.037263304 -0.008743448 -0.0031936879 0.020387135
000350 66 e5 64 bd d7 13 03 3d ca 62 86 bd 05 6e 29 bc
       -0.055882834 0.032001343 -0.06561811 -0.010341172
000360 49 6c 8a 3d b1 bf ce bc f7 44 a0 bd 64 3b dc 3b
       0.06758935 -0.02523789 -0.07825654 0.006720947
000370 b5 48 81 3d 3a 1f 52 bd 60 4e 79 bd eb 18 9a 3d
       0.06312696 -0.05129931 -0.06086576 0.07524284
000380 08 c1 4c bc 24 2d af bd 45 8a 99 bd d9 3a c1 bc
       -0.012497194 -0.08553532 -0.07497076 -0.023587631
000390 c4 21 95 3d cc d3 f5 ba 48 98 bb bc 94 b3 47 bd
       0.07281831 -0.0018755137 -0.022899762 -0.048755243
0003a0 7f ab 5b 3a 94 6c 5a 3d 45 84 e4 bc b4 73 9e 3d
       0.0008379742 0.053326204 -0.027895102 0.07736912
0003b0 04 5c 2a bd a7 5b 06 bd fa 79 61 3d dd 7a 49 bd
       -0.04159166 -0.03280225 0.055047967 -0.049189437
0003c0 11 ce 09 bd b3 f9 98 3d 6a 90 72 3d ee 3a 9d bd
       -0.033643786 0.07469501 0.059219755 -0.076772556
0003d0 9a f2 53 bd 4c b7 95 3d 51 ec 42 bd 84 ee 4a bd
       -0.051745035 0.07310352 -0.04758865 -0.049543872
0003e0 f2 54 8d bd 21 ea 22 bd 84 be 0a bd 39 c2 e1 3c
       -0.06900968 -0.039774064 -0.033873096 0.027558433
0003f0 84 2b c9 3c 5e b0 b3 bc 67 95 54 bd 0a b9 03 3d
       0.024556883 -0.021934684 -0.051900294 0.03215889

embed.1.bias f4 [128]
000000 27 b6 7b bc 78 2e fd ba 4f 41 94 bd f4 2a f9 3b
       -0.015363253 -0.0019316217 -0.07239019 0.0076039974
000010 ee f6 f5 bc 2e e9 90 3d 0e f2 65 bd de b2 1b bd
       -0.030024972 0.070757255 -0.056139044 -0.038012378
000020 fd 18 87 3d 7a 90 01 bd a9 a8 a1 3b 25 4e 82 3d
       0.06596563 -0.031631924 0.004933436 0.06362561
000030 4e e4 59 3d 2f 3f ab 3d b1 d6 4f bd fc 61 4d 3c
       0.053196244 0.08361661 -0.050741855 0.012535568
000040 e7 60 8f 3d 8c 3d de bb 31 5c da 3c d9 26 3d bb
       0.070009045 -0.0067822393 0.026655288 -0.0028862266
000050 56 48 37 bd 12 a0 09 bd 09 71 6c bd bc c8 6f bd
       -0.04474672 -0.03359992 -0.057724986 -0.058541045
000060 d3 42 9e bd 8e a2 d5 3c 06 a3 91 3d 8c ed d6 bc
       -0.077275895 0.026078489 0.071111724 -0.026236318
000070 2b d5 57 bd 9f cf ba 3c 11 cc 24 3d 33 4c 09 bd
       -0.052693527 0.02280408 0.040233675 -0.033519935
000080 22 da ae 3c 32 33 94 bc 93 95 ce 3a 1e f6 9c 3c
       0.021344248 -0.018090818 0.0015761129 0.019160327
000090 34 a1 9b bc 4b 91 73 bd 84 08 05 3d 99 7e eb 3b
       -0.018997766 -0.059464734 0.032478824 0.0071867225
0000a0 a0 61 bd bb 7e 0a 81 bd db 24 31 bd 2a 2a 8a bc
       -0.00577946 -0.06300829 -0.04324804 -0.016865809
0000b0 04 43 0c bc c0 1e 74 3d 05 29 4d bc 62 82 6c 3d
       -0.0085609 0.059599638 -0.012521987 0.05774153
0000c0 b0 88 16 3d 6e 22 69 bd 9a 03 4e bd 59 0f 91 bc
       0.03675145 -0.0569176 -0.050296403 -0.017707514
0000d0 56 4c 43 bc 0d 6a 2d 3d b7 5d 00 3d 15 ae 8d 3d
       -0.011920055 0.042337466 0.031339373 0.06917969
0000e0 e2 5b d2 bc 1d 84 dc bc ec 7d 8f bd 1b f5 12 3d
       -0.025678579 -0.026918465 -0.070064396 0.035878282
0000f0 ca b4 41 3d b8 0b 10 3d fa 6f 9e bd df d6 74 bc
       0.047291555 0.035167426 -0.077362016 -0.014943807
000100 a9 1c 5f 3d 87 9a 83 bd 08 8a fa bc 69 e8 10 3b
       0.05447069 -0.06425958 -0.030583397 0.0022111183
000110 32 2d 51 bc c0 f2 54 bd c9 ec 4b bd 63 5c 88 3d
       -0.012767123 -0.051989317 -0.049786363 0.06658246
000120 9c 2c be bc 28 46 80 bd d4 d9 95 3d eb 9b d2 3c
       -0.02321463 -0.06263381 0.07316938 0.025709113
000130 d7 09 fb 3b d8 33 ab bd d7 0a 96 bd 69 5a c4 3c
       0.007661085 -0.08359498 -0.07326286 0.023968892
000140 72 83 8d 3c 30 3a a2 3d df e0 94 bd af 3d 8a bd
       0.017274592 0.07921255 -0.07269453 -0.067500465
000150 08 c8 9e 3c 98 e5 8e 3d a2 a1 54 3d 98 28 67 3d
       0.019382492 0.06977385 0.051911958 0.056435198
000160 16 55 ac 3d 93 d3 12 3d 41 42 fb bc 95 42 9c 3d
       0.08414666 0.035846304 -0.03067124 0.07629887
000170 31 68 86 3c 97 ac 65 3d e2 15 49 3d 8e 7c 6f 3d
       0.016407104 0.056072798 0.049093135 0.058468394
000180 5d 2d 0b 3d 8b c0 1c 3d ca 68 19 bd d7 81 57 bc
       0.03397881 0.03826956 -0.03745345 -0.013153515
000190 16 49 80 bd 3c af 9b bc 18 ba dc bc 06 e5 9e 3d
       -0.0626394 -0.019004457 -0.026944205 0.077585265
0001a0 90 a4 e6 3b be e2 5e bb ea 62 12 3d 96 7e 50 3d
       0.0070386603 -0.003400966 0.035738863 0.05090197
0001b0 40 f9 f5 3c 50 78 9a 3d d5 49 90 3d 35 86 67 3d
       0.030026078 0.07542479 0.07045332 0.056524474
0001c0 a9 32 fe 3c fa cc 21 bd b2 f6 8a 3d 0b 4e 03 bc
       0.031030016 -0.03950212 0.06785335 -0.008014212
0001d0 a9 34 b0 bc e4 80 ae bd 27 a2 8d bd 09 13 8d bb
       -0.021509485 -0.08520678 -0.06915694 -0.0043052477
0001e0 b0 ca 43 bd e3 57 96 3d ce 46 10 3d b0 62 92 3d
       -0.04780072 0.07340982 0.035223775 0.071477294
0001f0 e5 05 89 bd 7d 76 c1 3c dc 42 af 3d 10 a3 a7 bd
       -0.066905774 0.02361607 0.08557674 -0.081853986

embed.3.weight f4 [256, 128]
000000 fa 9d 9c bd 98 67 3b bd e1 26 46 bd 4d 65 1a bd
       -0.07647319 -0.04575309 -0.04837692 -0.037694264
000010 45 e9 7c bd 2a 9d 40 3c a1 1e 26 bd 2c fb 94 bd
       -0.0617459 0.011756221 -0.040556554 -0.0727447
000020 d4 f4 86 bd 49 a6 ae bd dd ae 57 3d 6b bf 9b 3d
       -0.06589666 -0.0852781 0.052656997 0.076048695
000030 b6 08 92 bd a3 6e 12 bd a7 7d 95 bd 2c ec c2 bb
       -0.07130568 -0.035750043 -0.07299357 -0.005948564
000040 d7 0f a5 3c 89 a3 b6 bc c7 40 a1 bd 03 35 0f 3b
       0.020149155 -0.022294777 -0.078736834 0.0021851666
000050 07 ae 99 bd 16 48 3c 3d 5a 86 a8 3b 68 76 b2 bd
       -0.07503896 0.045967184 0.005142969 -0.087139904
000060 30 93 b1 3c 31 23 ab bd a1 2a 5c bd 08 c4 44 bc
       0.02167663 -0.083563216 -0.05375159 -0.012009628
000070 20 ee 51 3d e2 76 91 bd 56 a5 a3 3d e4 65 19 bd
       0.051252484 -0.07102753 0.0799052 -0.037450686
000080 bc a2 a8 bd 3a 26 2f bd 97 09 80 3d 43 9e 32 bd
       -0.08234164 -0.042761065 0.06251829 -0.04360796
000090 d2 f0 98 bd 1c 6b de 3c 56 42 8a 3d 88 9d a9 3d
       -0.07467808 0.027150683 0.06750934 0.08282
0000a0 ff bd 34 3d 66 d9 a4 3d c9 09 9b 3d f3 83 94 bd
       0.044126507 0.08049278 0.07570226 -0.0725173
0000b0 6b f5 51 3d 7e 17 c1 3c 5c 39 10 3c 38 d4 22 bd
       0.05125944 0.023570772 0.008802738 -0.03975317
0000c0 91 4a 09 bb 72 c7 9e bd c5 c2 01 bc bb e2 5a bd
       -0.0020948986 -0.07752885 -0.007919972 -0.053438883
0000d0 ec 20 ad 3c f1 d1 70 3c ef c3 98 bc f1 57 91 bd
       0.021133862 0.014698491 -0.018648116 -0.070968516
0000e0 64 c4 2c bd d9 4f 9f 3d 80 ab 08 3d 4c 98 52 bc
       -0.04217948 0.077789016 0.03336668 -0.012853693
0000f0 26 f9 69 3d 31 47 4f bd fb 26 35 3c d1 68 35 3d
       0.057122372 -0.050605003 0.011056657 0.044289414
000100 a1 3f b7 bc c3 9d a6 3d c7 62 9e 3d c0 d6 59 3d
       -0.022369208 0.081355594 0.07733684 0.053183317
000110 0c d4 d2 39 ae 94 5d 3d 1e 16 8a 3d 78 ac 39 3d
       0.00040212309 0.05409687 0.067425 0.045330495
000120 cb 5e 62 3d ac ee ac bd 34 20 84 3d 9d a5 3e bc
       0.055266183 -0.084439605 0.06451455 -0.011636165
000130 16 87 8f bd a6 a3 83 bc cf 4f 4f bd 07 38 24 bd
       -0.070081875 -0.016069245 -0.05061322 -0.040092494
000140 ff 43 36 3d 7e 3a 3f bd 40 7d 9c bd fb 9e 9e 3d
       0.04449844 -0.046686642 -0.07641077 0.07745167
000150 ce 7e 65 3d 8d 5d 86 bd 2e 8d 06 bd 73 70 14 3c
       0.056029133 -0.06560812 -0.032849483 0.009060013
000160 68 04 51 3d c5 36 e5 bc 1a c5 f9 3c 6a e2 a3 3d
       0.051029593 -0.027980218 0.030489493 0.080021694
000170 38 89 93 3d 93 21 2f bb 45 4f 2f 3d 20 9e a1 3d
       0.07203907 -0.0026722893 0.042800207 0.07891488
000180 08 a3 20 bc 45 68 3a 3d 56 61 84 3d 6a cd a7 bd
       -0.009804495 0.045509595 0.06463878 -0.081934765
000190 55 f2 60 bd f9 d0 5b 3d 05 4b 35 bd 8d 52 36 bd
       -0.054918606 0.05366609 -0.044260997 -0.04451232
0001a0 59 97 ae bd 75 a4 c4 3c 6d 04 b8 bc 24 b4 9c 3d
       -0.08524961 0.0240042 -0.022463048 0.076515466
0001b0 7a 3b 94 bd e0 01 59 3d dc 16 4e bd d1 fd dd 3b
       -0.07237907 0.052980304 -0.05031477 0.006774642
0001c0 c0 30 a1 bd 7f 5a a8 bd 55 58 d5 3c 8e 15 70 3d
       -0.078706264 -0.08220386 0.026043097 0.058614306
0001d0 0d 88 8d bd 00 c7 fe bb 9a e8 c4 3c b0 36 01 3d
       -0.06910715 -0.0077751875 0.024036694 0.031546295
0001e0 44 15 95 3d 18 4b 16 bc 43 1a 1e bd b7 c7 81 bd
       0.07279447 -0.009173177 -0.038599264 -0.06336921
0001f0 59 0f ad bd 97 ed 11 bd 65 10 05 bd 69 9b d6 bc
       -0.08450193 -0.035626974 -0.03248634 -0.026197152
000200 34 3f a6 bd 69 3d ae bd 34 8b ae 3d bd f5 87 3d
       -0.08117524 -0.08507807 0.08522645 0.06638668
000210 5d bf e3 3c a4 1a 50 3d a5 69 99 bd e3 b6 f2 37
       0.02780121 0.050806656 -0.07490853 2.8933811e-05
000220 dc 33 98 3c e2 0e 5f bd 71 21 b3 bd 15 25 49 3d
       0.018579416 -0.054457553 -0.08746613 0.04910763
000230 36 c9 e0 3c 5d 0f 51 3d 3c 75 42 3d 52 e7 92 bc
       0.027439695 0.051040042 0.047475085 -0.017932568
000240 13 64 01 bd ed c9 7a bd 80 33 28 bd 4d d3 6a 3c
       -0.03158958 -0.061227728 -0.04106474 0.014332605
000250 76 5b 3d bd b7 18 3b 3c 9c 77 48 3d 99 08 4e 3c
       -0.046229802 0.011419467 0.048942193 0.012575292
000260 b5 1b be 3c fd 1e 42 bd eb c3 8a bd 76 02 92 3d
       0.023206571 -0.047392834 -0.0677565 0.07129376
000270 9e 59 86 3d 95 50 64 3d bc da 29 3c 88 99 bd bc
       0.06560062 0.05574091 0.010367092 -0.023144498
000280 80 58 a7 bd 03 73 87 3d 7a dd 70 bb f1 3c 05 bd
       -0.08171177 0.066137336 -0.0036753104 -0.03252882
000290 37 08 a8 3d a6 37 77 3c b9 f6 9a 3d 31 bf a3 3c
       0.08204692 0.015088951 0.0756659 0.019988628
0002a0 10 d0 79 3c 38 6b 7c bc 02 c8 bc bc 3c 54 f4 bc
       0.01524736 -0.015406422 -0.02304459 -0.029825322
0002b0 67 24 ac 3d d4 a5 9f bd 5e 3b fa bb c7 69 ad bd
       0.08405381 -0.07795301 -0.0076364717 -0.08467441
0002c0 d8 70 8c bc 01 66 0e bd 82 4b a9 bd c8 c6 01 bd
       -0.017143652 -0.034765247 -0.08266355 -0.031683713
0002d0 bc e3 43 3d 77 1c 88 bd 19 6e b2 bd 60 36 64 3d
       0.047824606 -0.06646054 -0.08712406 0.05571592
0002e0 9c df e6 3c 1d a2 c0 bc 56 f1 7e 3d d0 f8 6c bb
       0.028182797 -0.023514802 0.062241875 -0.0036159046
0002f0 cf 15 89 bd b7 3d 9c 3d 6c 7d 86 3d 6b 66 22 3d
       -0.06693613 0.07628959 0.06566891 0.039648455
000300 ef 12 53 3c 62 12 22 3d 99 4b d2 bc fd b5 87 3d
       0.012882932 0.039568312 -0.025670813 0.066265084
000310 78 66 9f bc 72 89 97 3c 5a fc 58 bd 2f 5d 92 3d
       -0.01945804 0.018498156 -0.052975036 0.071466796
000320 f8 4e 08 bd 3e 55 9b bd 51 ce 8d bd 2b 52 26 3c
       -0.033278435 -0.07584618 -0.06924117 0.010151426
000330 e9 cc 75 3d b4 d3 3b 3d 95 3a ad 3d 72 d3 b1 bb
       0.06000987 0.045856193 0.08458439 -0.0054268176
000340 d1 24 ad bd 6e 7c 35 bd 87 3c 0a bd e7 94 f2 3c
       -0.08454288 -0.04430812 -0.03374913 0.029612018
000350 81 fb 14 3d 44 c2 cc 3c fb 8b 2d bd c9 20 9d 3d
       0.036372665 0.024994977 -0.042369824 0.07672269
000360 71 13 94 bd a7 8f f8 3c 8f 74 ec 3c da 53 cb 3c
       -0.07230271 0.030341936 0.028864173 0.024820257
000370 fb 9e 0c bc dc c9 3d bd df 68 0f 3d a4 bb 71 bd
       -0.008582826 -0.046335086 0.035012122 -0.05901684
000380 3b 38 f1 bc fa 63 f2 3b 00 96 5e bd 64 fb 1b bd
       -0.029445758 0.007397172 -0.05434227 -0.03808154
000390 07 9b 34 3d ff a7 3b 3d 43 6d 3b bb 75 b6 a7 bd
       0.044093158 0.04581451 -0.002859906 -0.08189098
0003a0 f2 97 d1 3c 60 12 41 3d 75 20 cf bc d5 ab 4b 3d
       0.025585148 0.047136664 -0.025284031 0.04972442
0003b0 32 c6 3e bd ac d9 1d bd 74 b7 0c 3d 85 9e 68 3d
       -0.046575733 -0.038537666 0.034354642 0.0567918
0003c0 25 62 65 3d 7b 90 8b bd b5 11 3c 3c cc 9e 9a 3d
       0.0560018 -0.06814667 0.011478831 0.07549819
0003d0 77 41 e9 bc 1f d1 90 bd 8d a3 1a bb d7 ef 33 bd
       -0.028473599 -0.07071137 -0.002359602 -0.0439299
0003e0 3e aa d1 bc 20 f0 64 3d ae 13 fa 3c b9 33 4b 3a
       -0.025593873 0.055893064 0.030526962 0.0007751543
0003f0 d6 d5 7c 3d ae 0c 81 3d e3 a1 36 3d 14 2e c9 3c
       0.061727367 0.063012466 0.04458798 0.024558105

embed.3.bias f4 [256]
000000 ef 60 91 bd 4d c2 15 3d c5 44 3d bd 53 79 35 bd
       -0.07098567 0.036562253 -0.04620816 -0.044305157
000010 08 a3 f4 39 5d e5 51 3d 65 0b 9d 3c 41 bc 2b bd
       0.00046660774 0.05124413 0.019170472 -0.04192758
000020 29 0e ab 3d 86 49 f3 3c 17 13 8b 3c ee 6a c5 bc
       0.0835231 0.029698145 0.016976876 -0.02409884
000030 b5 44 82 3d bb ce a8 3d 9d 7f 84 3d 38 eb ac 3d
       0.06360761 0.08242556 0.06469653 0.08443302
000040 21 fa f6 3b c4 d7 88 3d bf 86 b5 bc 88 b9 04 bd
       0.007537142 0.06681779 -0.022158979 -0.0324035
000050 7d 8e 8f 3d ad 1d 8a 3d 27 f1 01 bd 00 68 9c bd
       0.07009599 0.067439415 -0.03172412 -0.07637024
000060 bb 96 68 bd 48 5b 6a bd 1f 47 26 ba 1c 6f 45 3c
       -0.056784373 -0.05721596 -0.00063429953 0.012050416
000070 86 a1 30 3d c3 9e 75 bc d6 44 9e 3d 5c 32 88 3d
       0.04312279 -0.014991465 0.07727973 0.0665023
000080 2b b5 2e 3c 34 7e 25 3d a4 45 00 3d e2 4e ab bd
       0.010663311 0.04040356 0.031316414 -0.08364655
000090 b0 f0 d1 bc d3 11 ad bd 9c 50 ad bc 37 b3 f7 bb
       -0.025627464 -0.08450665 -0.021156602 -0.007559206
0000a0 50 1f 3f bd 43 70 84 bd 92 51 0d bd 78 b9 14 bd
       -0.04666072 -0.06466725 -0.03450162 -0.03630969
0000b0 a1 ea 15 3d a0 e5 8b 3d 19 68 31 bc 8e bf 7d bc
       0.036600713 0.06830907 -0.0108280415 -0.015487565
0000c0 cf fa bc bc 30 4b 26 3c ee e8 8e 3d f6 4e 86 3d
       -0.023068814 0.010149762 0.069780216 0.06558029
0000d0 43 62 94 bc 42 44 74 3d 4f 5f de bc fc 2f 82 bd
       -0.018113261 0.05963541 -0.027145056 -0.063568085
0000e0 54 14 84 3d 56 87 50 bc fd 8a 0b 3c 09 2b 3d bd
       0.0644919 -0.012727579 0.008517024 -0.04618362
0000f0 dc 2e 86 bd 5d cf 08 bd 03 6c 15 3d 80 d1 07 bd
       -0.065519065 -0.033400882 0.03647996 -0.03315878
000100 23 c9 8d bc d9 72 70 bd c3 e8 50 bd a3 7b 2c bb
       -0.017307824 -0.058703277 -0.05100323 -0.002631881
000110 63 b9 c3 bc 21 a3 d1 bc 84 1c 63 3d e5 b9 58 bc
       -0.02389211 -0.025590481 0.055447116 -0.013227914
000120 a7 1c a2 3d 7a 9b 81 bd 4a 1b 37 3d 37 90 9f 3d
       0.07915621 -0.06328483 0.04470376 0.07791179
000130 67 82 14 3d d0 18 b1 3c 98 04 2d 3c b4 4e 2e 3d
       0.036257174 0.021618277 0.010560177 0.042555526
000140 62 78 0d 3d de ba 5a 3d e1 ac bb 3c 06 10 6d 3d
       0.034538634 0.053400867 0.022909584 0.05787661
000150 ec 1d 28 3c 6d 98 61 bd 6a d0 93 bd ae 9d 9d 3d
       0.01026104 -0.055077005 -0.07217486 0.07696091
000160 ef 7a 82 3d ec 5d 8b 3d 1d 09 3e bd 3d c6 5e bc
       0.06371104 0.068050236 -0.04639541 -0.013597068
000170 3a c8 10 bd a9 29 44 3c c3 82 5a 3d 5e f0 d3 bc
       -0.0353472 0.011972823 0.05334736 -0.025871452
000180 a5 f7 4e bd 4e 60 49 3d 18 d4 23 3d 1d cb 85 bd
       -0.05052914 0.04916411 0.03999719 -0.065328814
000190 34 70 73 bd 34 33 49 bc b0 9a a8 3d c5 8e db 3b
       -0.059433177 -0.012280274 0.08232629 0.006700369
0001a0 f5 c7 a9 bd ce 51 a3 3d 9c d6 8a bc c0 b3 39 bd
       -0.08290092 0.079745874 -0.016948037 -0.04533744
0001b0 d8 84 57 3c 38 af 61 3b 2e e5 a6 bd 79 85 77 bc
       0.013154231 0.0034436714 -0.08149181 -0.015107506
0001c0 5e c0 a6 3d bc f9 49 3d 2f 38 86 3d 1d 00 7a bd
       0.0814216 0.04931043 0.06553685 -0.061035264
0001d0 31 58 00 bd 0e d3 c5 bc e9 d2 58 bd a4 94 85 bd
       -0.031334106 -0.02414849 -0.052935515 -0.065224916
0001e0 57 d8 9a bc b7 5e a3 3d 0d a6 99 3c b6 27 9a 3d
       -0.018901987 0.0797705 0.018755937 0.075271055
0001f0 dc 54 55 bc 6c 01 66 bd da 48 83 bd b0 d8 d6 bc
       -0.01302072 -0.0561537 -0.0641038 -0.026226372
000200 09 43 c7 3c b5 23 a1 3d c0 9c d8 bc 6e bc 44 3c
       0.024323957 0.07868139 -0.026441932 0.012007816
000210 77 c3 87 bd 1c 53 ac bc 78 e6 fd bc 82 43 39 3c
       -0.06629079 -0.021035723 -0.030993685 0.011307599
000220 4c 3d 74 3c 76 39 57 3d 15 82 18 bd ca a4 a0 3d
       0.014907192 0.052545033 -0.03723343 0.07843931
000230 12 7c 60 3d 58 1b b7 3c 32 19 1d bd 88 d9 64 3d
       0.054805823 0.022351906 -0.038354106 0.055871516
000240 74 0e 93 bc f4 93 94 3d b6 a5 9f ba 79 f4 22 39
       -0.017951228 0.07254782 -0.0012180123 0.00015540597
000250 6b 10 8f 3b 49 e8 a4 bc ab e7 a8 3b 13 54 a1 bd
       0.004365971 -0.020130293 0.00515457 -0.07877364
000260 4f 9a 1d bd 97 ea a7 bc 92 f7 27 bd 42 75 b3 3c
       -0.03847724 -0.020497603 -0.041007586 0.021906499
000270 5a e0 5b 3d da fa 66 3d 21 45 ff bb a6 7c a4 3d
       0.053680755 0.056391574 -0.007790223 0.08031587
000280 3f c1 95 bd 67 19 84 bd 03 a8 4d bd 0a 3f ec 3c
       -0.073122494 -0.064501576 -0.050209057 0.028838653
000290 43 26 a1 3d 14 87 b4 bd 50 9b c7 bc c0 8c 82 3d
       0.07868626 -0.088148266 -0.024366051 0.06374502
0002a0 56 27 84 3d ad 58 96 3d 6e cf ac b9 63 fd 8f 3d
       0.06452815 0.07341132 -0.00032960944 0.070307516
0002b0 8b ab 0a 3d 05 74 2f 3d 3b 21 01 3d 37 8e 31 bd
       0.033855002 0.042835254 0.03152583 -0.043348517
0002c0 09 99 58 3d ca 07 9e 3b b6 c0 6d 3d aa 4e af bd
       0.05288032 0.004822706 0.05804511 -0.08559926
0002d0 23 72 64 3d 6a 92 1a bd 62 cb 02 3d 3c 04 9a bd
       0.05577291 -0.037737288 0.031932242 -0.07520339
0002e0 1e 00 4d bd 2a 86 fa 3c 0b 91 79 bd 60 33 1e bd
       -0.05004894 0.030581553 -0.06092934 -0.038623214
0002f0 56 1e 46 3d 64 2f 97 3d b1 37 e6 bc 64 3e 5f 3d
       0.048368774 0.07382086 -0.028102728 0.05450286
000300 17 a5 13 3d 90 f5 1a 3d 40 49 07 3c 07 bd 9a 3c
       0.036046114 0.037831843 0.00825721 0.018888963
000310 a7 a7 04 bd 2a ca 33 3d 9c bf bc bc 6d b0 f8 3c
       -0.03238645 0.04389397 -0.023040585 0.030357564
000320 93 93 c0 3c ea 8f a6 3d bd 83 4f bc 79 5e a7 3d
       0.023507869 0.08132918 -0.012665686 0.08172316
000330 15 0b b3 bc 98 ec db bc c5 32 4a bd 1a fa 83 3d
       -0.02185587 -0.026846215 -0.049364824 0.064441875
000340 0c 93 65 bd 09 62 43 3d c1 6b 8b bd b9 f7 86 3d
       -0.056048438 0.047700915 -0.06807662 0.06590218
000350 b0 2c 9a bc 49 ca 85 3c 9d 93 b3 bd cf 47 90 bb
       -0.018820137 0.016331809 -0.087683894 -0.0044030915
000360 f3 f6 00 bc ff 77 6e 3d 29 92 0f 3d 72 21 11 bd
       -0.007871377 0.058219906 0.0350515 -0.035432287
000370 94 70 21 3d 45 24 48 bd 82 40 79 3d 84 5a 80 bd
       0.039414003 -0.048862714 0.060852535 -0.062672645
000380 c4 15 39 bd af 09 87 3d 90 13 51 bd c0 75 5e 3d
       -0.045186773 0.06593644 -0.051044047 0.054311514
000390 57 84 8c bd c8 99 86 bd 40 65 39 3d a3 5f 67 3c
       -0.06861179 -0.065723 0.045262575 0.014121923
0003a0 58 8b 93 bd c3 7e 50 3d 0b 97 96 3d 13 01 2e 3c
       -0.07204312 0.05090214 0.07353028 0.010620373
0003b0 80 b4 b4 bd 77 32 dc bc d1 6a a5 3d b7 db 5a bd
       -0.0882349 -0.026879532 0.08077014 -0.053432193
0003c0 1e 47 09 bd c0 7c 7c 3d 7c c4 ec ba db 9c a6 3b
       -0.03351509 0.06164241 -0.0018063928 0.0050846166
0003d0 cb bf a2 3c 47 ab d2 bc db 45 b4 3b 2a 9e 54 3d
       0.019866845 -0.025716437 0.0055014915 0.05190865
0003e0 6d a7 a4 3d ec 67 46 bc 16 ad 76 bd 09 ed 94 3d
       0.080397464 -0.012109738 -0.06022366 0.07271773
0003f0 7a 1a b4 3d b4 19 97 bd 95 71 85 bd 4c 48 83 bd
       0.087941125 -0.07377949 -0.06515805 -0.06410274

conv_spatial.mlp.0.weight f4 [256, 2]
000000 c5 06 f1 b5 6a 76 d1 b8 49 f7 38 be 94 34 30 3d
       -1.7957869e-06 -9.987953e-05 -0.18063082 0.043018892
000010 9a e6 c6 38 3b 05 c0 b8 e0 db ff 37 09 c1 0b b9
       9.4843286e-05 -9.156248e-05 3.0500756e-05 -0.00013327984
000020 2e 20 81 38 a1 34 99 b8 6f fe 8f 38 a5 ba c8 37
       6.157193e-05 -7.3054114e-05 6.866163e-05 2.3928771e-05
000030 56 72 e7 b8 29 30 f7 38 30 07 b5 b7 ba 4f 9b 38
       -0.00011036235 0.00011786848 -2.1580228e-05 7.405826e-05
000040 20 d8 f4 bd 01 b8 91 bd 14 50 a0 bc 90 05 32 3e
       -0.11955285 -0.07115174 -0.019569434 0.17384934
000050 57 79 58 37 6a bb f5 38 97 e8 12 b9 e7 17 2c 39
       1.2902855e-05 0.00011717419 -0.00014010291 0.00016412103
000060 75 53 c4 3d 1b 5c 08 3e 0d 71 0b be 40 ff 3c bd
       0.09586231 0.13316385 -0.13617344 -0.046141863
000070 fa 28 d4 3c df bc dc bd 4f 7c 2b 39 ea de 8b b8
       0.025898445 -0.10778212 0.0001635414 -6.6695575e-05
000080 ef 3f 66 39 14 72 82 b9 e5 9c 11 b9 2e 43 2c 39
       0.00021958326 -0.00024880527 -0.00013886725 0.00016428225
000090 d0 fe 21 3e 82 c8 db b9 61 84 fd bd 1d 11 cb bd
       0.1581986 -0.00041920325 -0.12378765 -0.099153735
0000a0 30 c5 3b be e9 66 c0 bd a1 7f 2a 3e ec 45 1f 3e
       -0.1833694 -0.093946286 0.16650249 0.15554017
0000b0 66 c0 57 38 9c 69 62 b8 2e 91 1c b9 37 e6 ad 38
       5.143918e-05 -5.3980955e-05 -0.00014931403 8.292164e-05
0000c0 da 41 38 b9 69 df ee 38 a8 b2 45 be a9 6e c8 bd
       -0.00017572139 0.00011390338 -0.19306433 -0.09786732
0000d0 41 7f e0 b6 9b aa 95 38 31 59 e0 bc fa 58 ac bd
       -6.6905345e-06 7.1366514e-05 -0.02738628 -0.084154084
0000e0 7e 18 ea 38 bc 80 a4 b8 d1 fc 33 bd 7d f1 60 bd
       0.000111625515 -7.844108e-05 -0.043942276 -0.0549178
0000f0 b4 70 16 38 8d 79 c5 36 92 4f d4 b8 32 14 ac 38
       3.586775e-05 5.885208e-06 -0.00010123769 8.205361e-05
000100 a0 d7 d6 bc fc 41 94 3e c5 4e 8d 3d bb 24 76 3d
       -0.026225865 0.28956592 0.0689979 0.060093623
000110 10 fb 25 b9 b5 ae f3 38 41 75 32 b8 be 3b db 37
       -0.00015829154 0.00011619685 -4.254771e-05 2.6134654e-05
000120 c3 20 91 38 8b 46 a8 38 ef f9 0d b9 ba ec 6c 39
       6.920241e-05 8.024004e-05 -0.00013539915 0.00022594901
000130 65 44 39 b8 e6 ff 7d 38 53 d3 8a 38 6d 65 7e 36
       -4.4171135e-05 6.0558225e-05 6.619715e-05 3.7907987e-06
000140 b5 01 f1 38 43 59 df b8 43 c6 5d b8 82 1c 13 38
       0.000114920935 -0.00010650095 -5.287515e-05 3.507408e-05
000150 a7 16 84 38 11 37 8d 38 49 0f 14 b7 98 2f a3 b7
       6.29847e-05 6.733661e-05 -8.825046e-06 -1.9453277e-05
000160 4f 2e 7a b8 50 42 b3 38 5d 5d 37 b8 f7 9c 56 b8
       -5.9647773e-05 8.547737e-05 -4.371755e-05 -5.116776e-05
000170 98 27 0d b9 ce f4 ac b8 cf a9 59 38 18 d6 b9 38
       -0.00013461558 -8.2471975e-05 5.189498e-05 8.8613655e-05
000180 60 8d a1 38 21 f8 9f b8 55 ef b2 38 9a cc b4 b7
       7.7034114e-05 -7.6279284e-05 8.5322805e-05 -2.1552947e-05
000190 33 ee 74 3d 4a a6 da 3d 9b 1f 81 b8 0e 3e 2a 38
       0.059797477 0.10676248 -6.157086e-05 4.058895e-05
0001a0 ac 7b e0 bc 2c 6d f7 bd 79 ed 26 38 1b 6c c9 37
       -0.027402721 -0.1208137 3.9798648e-05 2.4011408e-05
0001b0 2e 78 c4 37 0c d3 14 b8 09 fc 97 b7 e0 9d 1e 38
       2.3420984e-05 -3.5482502e-05 -1.8117966e-05 3.7817168e-05
0001c0 f4 13 ec b8 21 b9 bf 37 7f 63 74 b8 63 ad 7f 38
       -0.000112570735 2.2855182e-05 -5.8266796e-05 6.0958217e-05
0001d0 f3 19 be 38 34 d1 29 b9 6c cd a3 b8 c8 93 bc 38
       9.0647394e-05 -0.0001619503 -7.8107085e-05 8.992065e-05
0001e0 27 f9 db 38 3b f6 6d b8 cb 81 b9 3d 45 90 5f be
       0.00010489142 -5.6734523e-05 0.09057959 -0.21832378
0001f0 c5 3f 03 b7 de 5e bd b7 c9 7c b8 b8 2e 69 94 38
       -7.823056e-06 -2.2574732e-05 -8.797047e-05 7.076781e-05
000200 e4 49 0e 38 8e 08 6a b7 01 fc 07 3e 45 48 58 be
       3.3924254e-05 -1.3949479e-05 0.13279726 -0.21121319
000210 30 ac 98 35 b2 d6 a2 b8 f2 11 1f 39 c3 4b c6 b8
       1.1374996e-06 -7.764752e-05 0.00015170107 -9.4554875e-05
000220 37 74 0f b7 d6 c3 dc b7 d2 b9 fe 37 0a 1d b7 b8
       -8.550523e-06 -2.6317237e-05 3.0365689e-05 -8.731529e-05
000230 78 ea 4f 3e fb b2 9e bd 48 d6 b6 3c 40 fe 67 be
       0.20304286 -0.077489816 0.022318974 -0.22655582
000240 5a 0e fc bd c3 34 0c 3d c9 87 b1 b8 44 5b ad 38
       -0.12307425 0.034230005 -8.46531e-05 8.2662824e-05
000250 fb 19 62 b9 3e b6 e3 38 f5 1f 0f b9 0b 45 a1 38
       -0.00021562718 0.00010858149 -0.00013649448 7.6899385e-05
000260 93 4c d6 3d 4c 4a 73 be 05 ae 3d be 0e 2a dc bd
       0.10463824 -0.23758811 -0.18523414 -0.10750209
000270 93 c3 4e 38 31 78 3c 37 57 b5 de 38 e3 e4 b8 36
       4.929637e-05 1.12336575e-05 0.00010619562 5.5102732e-06
000280 4d f9 f4 bf be 59 5e be 89 49 59 3e 09 07 44 bc
       -1.913858 -0.21713921 0.21219458 -0.011964568
000290 2d fe ac b8 38 9c 8f 38 3a d5 e7 b8 f5 fe 06 39
       -8.248943e-05 6.8478694e-05 -0.00011054655 0.00012874215
0002a0 e3 c2 7d 37 9d 07 9d b8 70 8c 94 b8 5a 67 10 b7
       1.5125351e-05 -7.4877615e-05 -7.0833485e-05 -8.607132e-06
0002b0 2c 78 13 b8 2a 17 30 38 84 b5 69 be 63 be d0 bd
       -3.515945e-05 4.1983243e-05 -0.22823149 -0.101925634
0002c0 e1 31 28 37 97 29 e6 b7 6a 8d f0 38 da 1e 15 b9
       1.0025194e-05 -2.7437503e-05 0.00011470432 -0.0001422124
0002d0 c4 2a 20 b9 2f ce 56 39 fc 58 30 3d e0 d9 c7 3d
       -0.0001527472 0.0002048544 0.043053612 0.09758353
0002e0 72 23 4d 38 16 67 5b 37 7e a4 af bf 06 7b f2 3f
       4.890882e-05 1.3077419e-05 -1.3722074 1.8943794
0002f0 29 30 19 b8 cb 48 61 38 bf 5f ea 38 cd 79 e4 b8
       -3.6522895e-05 5.3711974e-05 0.000111758236 -0.000108945744
000300 e6 19 b5 b8 07 bc d6 38 08 7e 15 bd ae d0 5c bd
       -8.6355765e-05 0.00010239338 -0.036497146 -0.05390995
000310 50 19 c4 37 39 4b 91 37 61 5f 26 b9 ca 39 37 39
       2.3376808e-05 1.7320375e-05 -0.00015866525 0.00017473768
000320 20 6d 04 39 52 d7 08 b8 e9 cd 86 38 da 1f b3 b6
       0.00012629153 -3.262546e-05 6.427972e-05 -5.3383237e-06
000330 45 c8 3a b8 e5 f7 46 39 68 71 af 3f ff 85 0a 40
       -4.453237e-05 0.000189751 1.3706484 2.1644285
000340 79 6a f2 b7 c6 14 62 b6 ee 89 23 3d 0c 3a 43 be
       -2.8898228e-05 -3.3688716e-06 0.039926462 -0.19065112
000350 da 50 82 bc cb e4 05 bc d1 e3 4f be 28 88 d2 3d
       -0.015907694 -0.008172224 -0.20301749 0.10279876
000360 1d 5b c6 b8 45 9c 05 38 f0 06 e6 b8 91 54 ac 38
       -9.458347e-05 3.185521e-05 -0.00010968547 8.217351e-05
000370 c2 d4 f4 b8 02 9d 38 39 b9 d0 46 be 90 7e 83 bd
       -0.00011674456 0.00017606097 -0.19415559 -0.06420624
000380 31 41 6b bd 3e 54 ad 3d a6 87 33 b6 25 f6 43 37
       -0.05743522 0.084633335 -2.6752036e-06 1.1680216e-05
000390 c7 f4 a4 b7 27 8a a9 38 f5 c2 e2 38 d9 a7 fb b8
       -1.9664307e-05 8.084281e-05 0.00010812833 -0.00011999877
0003a0 9f fe a5 3d 8c 5b 52 be 5c dd 08 b9 0e 60 c3 38
       0.08105206 -0.20542735 -0.00013052433 9.316216e-05
0003b0 54 31 63 be da 4c b1 3b 3c 4d 6f 39 aa 60 bc b8
       -0.22186786 0.0054107727 0.00022821588 -8.982544e-05
0003c0 bc 16 36 b9 81 04 a0 38 e7 d5 0d 39 65 4a bc b8
       -0.00017365342 7.6302334e-05 0.00013526493 -8.9783956e-05
0003d0 3f 1d 16 be 0e 76 59 be 9e dd d8 3d 45 da 58 bd
       -0.14659594 -0.2123644 0.10589145 -0.052942533
0003e0 9d a2 82 37 f8 92 f0 b7 93 04 bf 36 98 1b de b6
       1.557293e-05 -2.8678667e-05 5.692776e-06 -6.619328e-06
0003f0 fd e8 24 b9 d2 83 1f 39 bd f6 e5 38 7d 24 30 b9
       -0.00015727054 0.00015212529 0.000109655295 -0.00016798261

conv_spatial.mlp.2.weight f4 [256, 256]
000000 a4 08 1d bb 2c c2 1b bc f1 4e bd 3b 1a cc cc bc
       -0.002396145 -0.009506743 0.005777233 -0.024999667
000010 c2 6e 5d bd d1 2e b9 3c 71 64 81 3c cb 4c 12 bc
       -0.054060705 0.022605332 0.015794965 -0.008929442
000020 f1 82 b1 3b e4 71 dd bb 40 98 b9 3d e4 32 02 bd
       0.0054172208 -0.0067579616 0.090622425 -0.031786814
000030 0a f2 49 bd d5 7a 12 3c 06 cb 57 bd db e3 7d 3c
       -0.049303092 0.008940418 -0.052683853 0.0154962195
000040 05 8d 1d bb b9 b8 66 bc 45 7d b0 3c 78 c2 e5 3b
       -0.0024040353 -0.014082127 0.021544108 0.007011708
000050 80 03 b2 3d b9 20 d5 bd 04 d7 0c 3d 2c 2d 4c bc
       0.08692074 -0.10406632 0.034384742 -0.012461942
000060 e7 88 5f 3d b2 56 96 3d 61 43 1d 3d 08 5e 9b bc
       0.05457392 0.073407546 0.038394336 -0.018965736
000070 85 1e ab 3b 90 cd 1d bd ef b6 27 3c ee 30 13 bc
       0.005222144 -0.038526118 0.010236486 -0.008983834
000080 20 e0 69 bd d7 cc b4 3c ba 8b e7 3c ed 25 26 3d
       -0.057098508 0.022070331 0.028264869 0.040563513
000090 46 ee 23 3d 3f 2f 5e 3c c4 70 5f 3d f4 2b 7b bc
       0.040022157 0.013561069 0.0545509 -0.015330303
0000a0 22 36 85 bc 0c 86 b5 ba df b3 7c 3c d4 bb 0e ba
       -0.016261164 -0.0013849153 0.015423744 -0.00054448587
0000b0 c6 fc 41 bd a1 a6 d2 3c 42 bd d2 bc 18 59 13 bd
       -0.047360204 0.02571422 -0.02572501 -0.03597364
0000c0 eb 9d d1 3c 18 f6 b1 3b 2f e4 55 3c b4 6a cc 3c
       0.025587996 0.005430948 0.0130548915 0.024953224
0000d0 6f 41 2c bd dd ba 00 3d 17 b9 cf bc cd 4f 4b bd
       -0.04205459 0.031428207 -0.025356812 -0.04963665
0000e0 9d be e9 3c c1 5d ba 3c a6 4b 5f bc 5f 19 01 bd
       0.028533274 0.022749783 -0.013628876 -0.031518336
0000f0 35 2c 0d bd 08 c6 37 3d 40 ee b4 ba 98 e9 b9 3c
       -0.034465987 0.04486659 -0.0013803914 0.022694394
000100 0f 9c 84 3c 29 72 d6 38 89 ae 14 3d d1 c9 fe 3b
       0.016187696 0.00010225579 0.036299262 0.0077755232
000110 88 58 71 3d f8 cf a9 ba 3c 17 88 bc 6e fb b4 bc
       0.05892232 -0.0012955656 -0.016612642 -0.022092547
000120 c1 46 f6 bc 68 d2 2f 3d 84 12 e7 3b e9 e9 bb bb
       -0.030063035 0.04292527 0.007051768 -0.0057346714
000130 59 a3 69 3d 77 4f f0 3d e2 6c 00 bd 67 c1 8c bc
       0.057040546 0.11733907 -0.03135384 -0.017182065
000140 8a 26 1c be a2 ff 51 bc 28 cb a2 3c 68 1d 7e 3d
       -0.15249076 -0.012817295 0.019872263 0.062039763
000150 a7 b7 48 3c d5 4d cd 3c 9d 9e bd 3c 5f 6e 08 3c
       0.012250817 0.025061527 0.023146922 0.008327096
000160 5d 81 1f bd 3c f8 53 bd 15 53 75 3d 21 56 91 3c
       -0.03894173 -0.051750407 0.059893686 0.017741265
000170 05 60 b6 bb 35 18 b6 3d ae 61 80 bc 1f 7f 4d 3d
       -0.0055656456 0.08891336 -0.015671577 0.05017006
000180 a5 31 00 bc f6 b8 23 bd 91 a9 e7 ba a8 d2 e9 3c
       -0.007824336 -0.039971314 -0.0017674436 0.028542832
000190 31 f4 f7 bc b4 93 18 bd d4 9d ff 3c 87 1e 10 3d
       -0.030267807 -0.037250236 0.031203188 0.035185363
0001a0 28 2e c0 bc 62 66 c3 bc 39 77 ab 3c ec d6 42 3d
       -0.023459509 -0.02385253 0.020930873 0.047568247
0001b0 28 70 a0 bc cc 63 9d bb e3 98 25 3d 6f 32 e8 3d
       -0.01958473 -0.0048031565 0.040429007 0.113377444
0001c0 0c b8 3a bd 44 05 b7 bb 14 21 0d bc a5 5d 11 3b
       -0.045585677 -0.0055853445 -0.0086138435 0.002218106
0001d0 3b 30 9b 3d a1 2e 84 3c e0 51 21 3d 3a 18 97 3c
       0.075775586 0.016135516 0.039384723 0.01844417
0001e0 0f 99 7b bc db d7 0a bc b6 9d 3a 3d 79 9c 62 bc
       -0.015356316 -0.0084743155 0.04556056 -0.013831251
0001f0 89 78 d7 bc 58 d2 a4 3b 41 29 68 3c 25 7c ec bb
       -0.026302593 0.0050299577 0.014169992 -0.0072169476
000200 6a 42 d2 bc 04 73 31 3c 81 08 80 bc 48 08 bc bc
       -0.025666434 0.0108306445 -0.015629055 -0.022953168
000210 6d 8e cb bb f7 6a 15 bc 47 a4 30 3d 72 94 ec 3c
       -0.006212047 -0.009119741 0.043125417 0.028879378
000220 e3 45 da ba 82 d4 66 bc aa b1 64 3d ca 8e ac bc
       -0.0016652908 -0.014088752 0.055833496 -0.02106418
000230 1f aa d5 bc 97 23 3f 3b 99 fe 20 bc 54 7c 7c 3d
       -0.026082097 0.00291655 -0.009826326 0.061642006
000240 45 7f 44 3d b4 57 47 3d 0d 76 8d bc 0f 97 8f 3c
       0.047972936 0.048667625 -0.017268205 0.017528085
000250 57 86 26 3d 9a db 47 3d e5 5b bc bb 11 85 0d 3c
       0.04065546 0.048793413 -0.0057482594 0.008637683
000260 90 44 1b bd 53 fc b6 3b b9 de 22 bd 46 78 6d 3a
       -0.037907183 0.0055842786 -0.039763186 0.00090587547
000270 5a 46 80 3d 48 5c 0c 3d 55 33 4b 3d 20 b6 03 bb
       0.062634185 0.034267694 0.0496095 -0.0020097569
000280 b5 92 0c bd 49 16 74 3c ca 62 7e 3c 42 fd 6b bc
       -0.0343196 0.014897891 0.015526483 -0.014403643
000290 5f db 04 3d 89 56 bb bb 5c 07 c5 3c 1e 75 20 3b
       0.03243577 -0.005717103 0.02405136 0.002448387
0002a0 83 d8 ae bb f6 5f 98 bc 9b 4c 89 ba 17 d4 df bc
       -0.005335869 -0.018600445 -0.0010475101 -0.027322812
0002b0 bd 5d 32 bd fc 72 80 3d 0b 6d b2 bb b9 7c 95 3d
       -0.043546427 0.062719315 -0.005445128 0.072991796
0002c0 c3 2d 23 3d 64 a0 1b 3b 1e 5c 22 3c 06 9d 02 bd
       0.039838564 0.0023746723 0.009909658 -0.03188803
0002d0 cf 83 bd bb 31 6b 91 3d 20 de 6d 3d 50 e2 d6 bc
       -0.005783535 0.07100523 0.058073163 -0.026230961
0002e0 60 2f 90 bd aa be 72 bc 27 d2 01 bd 7d a3 b2 bc
       -0.07040286 -0.014815966 -0.031694558 -0.021806473
0002f0 22 9a 1f bd ac fe 92 bc 5c 64 ae 3c 03 d4 54 bd
       -0.038965352 -0.017943703 0.02128809 -0.051960003
000300 45 7d 1c 3d 3d 61 18 3d f8 b3 0f bd b4 74 49 bc
       0.038205404 0.03720211 -0.03508374 -0.012295891
000310 35 10 1d 3c c9 64 1d bd 11 58 98 ba 21 76 07 3c
       0.009586384 -0.038426194 -0.0011622926 0.00826791
000320 21 8b 9d bc b5 75 42 bc 8a 11 bf bd 64 fe 28 bd
       -0.01923138 -0.011868884 -0.09329517 -0.04125823
000330 e1 9f 0a bd 65 38 87 3d c8 e5 ad bc 85 e8 3b bd
       -0.03384388 0.06602553 -0.021227732 -0.045876045
000340 2c b0 3f bc dc ba 67 3c 24 46 66 3b a9 95 69 ba
       -0.0116997175 0.014143672 0.0035137022 -0.0008910546
000350 53 8a a3 3d 5c 5c 18 3c 7c 9f b4 bc b5 8c 32 3d
       0.079853676 0.009299364 -0.022048704 0.04359122
000360 b3 6b d0 bc b2 f7 b5 ba 72 28 21 bd a6 ef 45 3c
       -0.02544198 -0.0013883023 -0.039345212 0.012081062
000370 85 c2 af bc ac 97 45 3d e3 40 55 3c 0c eb 22 3d
       -0.021455059 0.04824035 0.0130159585 0.03977494
000380 91 5e fd 3b f5 9b d8 3c 48 7b 13 3d 75 d1 f3 3a
       0.0077322205 0.026441554 0.036006242 0.0018601852
000390 b7 5b 42 bd f3 61 2e 3d 52 5d be 3c dd 52 dd ba
       -0.047450747 0.04257388 0.023237858 -0.0016885657
0003a0 43 1e 4e bd 76 c4 8a 3c dc ba 77 bc ec 4a 28 bd
       -0.05032183 0.016939383 -0.015120234 -0.041087076
0003b0 09 84 30 3d 96 26 4c bd 50 25 9d bb 24 aa 3b 3d
       0.04309467 -0.049841486 -0.0047957078 0.045816556
0003c0 eb 69 e5 bc 06 5f af bc c3 c7 b0 3b 0d 0d fb bb
       -0.028004607 -0.021407615 0.005394907 -0.007661468
0003d0 78 9a b4 3c 07 db 35 bd d2 cd d8 bc ce 3d 11 ba
       0.022046313 -0.044398334 -0.02646533 -0.00055405207
0003e0 62 fa cd bc 61 62 77 bd bf 44 a2 bb ae 90 1c 3b
       -0.025143806 -0.060396556 -0.004952043 0.0023889947
0003f0 04 31 9c 3d 9d 7b 5f bd 0f 8e 84 3c 95 49 94 bb
       0.076265365 -0.054561246 0.01618102 -0.004525373

conv_spatial.mlp.4.weight f4 [2, 256]
000000 96 db 81 bb ef 9c f0 b9 27 a2 49 bb a0 44 88 bb
       -0.0039629443 -0.00045893292 -0.0030766816 -0.0041585714
000010 ac e4 af 3a ca 5d 38 3a 59 61 af bb a9 20 c5 ba
       0.001341959 0.00070330186 -0.005352181 -0.0015039641
000020 da 18 94 39 75 17 37 bb 80 8c b1 3b 00 8b 01 bb
       0.00028247276 -0.0027937565 0.0054183602 -0.0019766688
000030 88 62 d9 3e aa 06 45 3b 70 d8 cf 3a fd b3 39 b8
       0.42457986 0.0030063787 0.001585735 -4.4275064e-05
000040 3e 38 ad 3b e0 a4 74 3a 44 7e 54 3e 5d d4 ba ba
       0.0052862456 0.00093324296 0.20751292 -0.0014253963
000050 cf 0f 86 ba 84 13 94 ba 65 a1 ac 3c a3 12 a4 ba
       -0.00102281 -0.001129732 0.021073053 -0.0012517761
000060 12 fa a0 ba 71 33 b3 b9 fe 4d a9 3b 58 34 5b 3b
       -0.0012281558 -0.00034179867 0.005166768 0.0033447947
000070 95 00 8d 3b 59 64 be 3b e2 ff c2 ba 2e 2c 11 3c
       0.004303048 0.005810302 -0.0014877284 0.008860631
000080 e0 7b 9c 3e 1d bb b3 bd dc 40 02 3d 1c bb 30 bb
       0.3056326 -0.087759234 0.031800136 -0.0026966995
000090 c4 2e db bd 75 ce 89 bb f7 85 83 be db 6c 9a 3b
       -0.10702279 -0.00420552 -0.25688145 0.0047126836
0000a0 42 55 e4 bd 34 1d 61 3b aa c8 94 bb bf 27 c2 bb
       -0.11149074 0.0034349682 -0.0045405226 -0.0059251483
0000b0 09 df 00 bb 14 46 4a 3a 2a 72 f3 3a 88 8c 0c 3b
       -0.001966419 0.0007716131 0.0018573452 0.0021446068
0000c0 ac 65 8c 3b 80 cf 92 3a c5 5f 79 be 91 23 87 3d
       0.004284581 0.0011200756 -0.2435294 0.06598581
0000d0 0a 73 2d 3d 97 7f c4 b8 9a b6 8b ba 01 0f a7 ba
       0.042346038 -9.369774e-05 -0.0010659278 -0.001274556
0000e0 60 bc 38 3b fb c3 93 bb 3e 79 de 3b ea 6b 7a 3a
       0.0028188452 -0.0045094467 0.0067893555 0.00095528236
0000f0 04 36 cc ba 2d 28 18 b9 9d ab 71 3b 07 74 fd b9
       -0.0015580063 -0.00014510816 0.003687597 -0.00048342368
000100 18 41 51 3b be d4 a9 b9 99 c5 6a ba 0b aa 86 3b
       0.0031929668 -0.00032392697 -0.0008955836 0.004109626
000110 b9 bd b0 3a 27 fe a1 bb 98 aa 06 ba 4a c5 a8 3c
       0.0013484276 -0.0049436274 -0.0005137115 0.020601887
000120 97 e0 47 3a c4 de 18 bb ac da 0c bb 07 c9 be b9
       0.0007624714 -0.0023326138 -0.0021492643 -0.000363894
000130 9a 0b d4 ba 22 a4 74 3a 7e 8c 04 3c 81 22 87 bd
       -0.0016177774 0.0009332319 0.008090137 -0.06598378
000140 57 6a 5c 3b 1b 33 de 3b 2a 02 5b 3b dd 70 7c bb
       0.003363272 0.0067809946 0.0033418038 -0.003851942
000150 f1 b8 ab 3b 43 26 91 3c db 99 57 bb 48 35 6a 3b
       0.0052405526 0.01771844 -0.0032898101 0.0035737325
000160 5a 5d d5 bb 54 9b 53 3b 25 0b 02 bc 86 6f 7a bb
       -0.0065113725 0.0032288628 -0.007937227 -0.0038213446
000170 70 15 49 be 67 19 4d 3e cb 85 f1 3a d3 3b d4 ba
       -0.19637084 0.20029221 0.0018426714 -0.0016192145
000180 68 a7 8a 3a 77 5a 69 3b 15 2f e5 3a 13 d8 30 bb
       0.0010578455 0.00356069 0.0017485345 -0.002698426
000190 4a f2 86 3a d8 50 2e ba ea 01 43 3e 39 8a 3e 3a
       0.0010295596 -0.000664962 0.19043699 0.00072685216
0001a0 75 30 cb 3b b3 6c f5 3c 98 dc 8c bb 0b 99 88 3b
       0.006200845 0.029959058 -0.0042987578 0.004168635
0001b0 bd aa 24 bb 20 92 10 ba ba 27 23 b7 27 e7 e7 bb
       -0.0025126182 -0.00055149384 -9.724807e-06 -0.007077116
0001c0 59 b6 9c bb 55 8b 04 3b 86 4b 57 3d 70 12 95 bb
       -0.0047824797 0.002022465 0.05256226 -0.004549317
0001d0 dd 02 a3 3b de 69 d0 ba 1c 78 81 ba 67 0e 9a ba
       0.0049747066 -0.0015900692 -0.0009877714 -0.001175356
0001e0 f8 24 0b 3b ab 6c a2 3e 7d ff b7 b8 b5 42 02 bb
       0.0021231752 0.31723532 -8.7737084e-05 -0.0019876186
0001f0 38 d9 81 39 ac 81 73 bc 48 d9 21 bb ee bd fd 3a
       0.00024766638 -0.014862459 -0.002469616 0.0019358972
000200 b4 f4 94 3a bb 03 d0 3c 82 09 54 bb ce 3c 38 3b
       0.0011364431 0.025392404 -0.00323543 0.0028112414
000210 73 6f 8a bd 97 03 13 bb bd 6c 35 3a 59 dc 0b 3b
       -0.067595385 -0.002243256 0.00069208053 0.0021341054
000220 f3 bf 86 3a 2d 59 2e bb e5 e5 6f 3c 3a c5 62 3a
       0.0010280594 -0.0026603446 0.0146422135 0.0008650605
000230 05 ad 6f bd 10 62 95 3a cf 82 11 3b 94 fa f8 3b
       -0.058514614 0.0011397023 0.0022203212 0.0075982306
000240 53 50 82 ba 6b dd 45 bb f0 c1 22 bb 9b 56 45 bb
       -0.0009942151 -0.003019179 -0.0024834834 -0.0030111435
000250 77 af 48 3b e1 b6 fe 3a d8 5d fc 3a 08 2c a9 ba
       0.0030622163 0.0019433164 0.0019254042 -0.0012906799
000260 d9 fa c6 ba 26 93 87 be d6 a0 f0 3a 21 8c 61 bb
       -0.001518096 -0.26479453 0.001835848 -0.0034415799
000270 ee 7b 53 3b 2e 7b b5 ba 7c 6f 3f bb 73 21 43 3c
       0.0032269913 -0.0013845915 -0.0029210737 0.01190983
000280 5e 40 8b bb bb 74 32 3b 50 fc 85 bb ee e0 52 3b
       -0.0042496165 0.0027230221 -0.004088916 0.0032177526
000290 57 23 6c 3b ba 26 b5 ba ab a1 8c 3a 09 72 f3 3a
       0.0036031806 -0.0013820746 0.0010729333 0.0018573414
0002a0 4e ab 27 3b a4 49 23 b8 fc fa 58 bd c3 20 2a be
       0.0025584283 -3.893081e-05 -0.052973732 -0.1661406
0002b0 75 0e 91 3b 10 fe 98 bc db a5 3e bc f1 88 d9 ba
       0.0044267722 -0.018675834 -0.011636223 -0.0016596598
0002c0 1c f2 0e bb 11 97 ea ba ba 1b a2 bc 25 20 ac bb
       -0.002181179 -0.0017897805 -0.019788612 -0.0052528554
0002d0 07 31 f7 b8 a6 b5 a5 38 36 5d 53 bb 84 6e c0 ba
       -0.0001178701 7.901648e-05 -0.0032251603 -0.0014681374
0002e0 6c d4 0f 3b eb 32 30 bb 9e 3f 67 bb 52 7f 6b bb
       0.0021946682 -0.0026885818 -0.0035285722 -0.0035934043
0002f0 4b d6 23 3b 96 da f7 bd ac 83 f7 bd 97 52 09 bb
       0.0024999555 -0.12102239 -0.12085661 -0.0020953768
000300 1f 34 49 3e 31 db 65 3b 38 09 72 3a 98 40 f5 3a
       0.19648789 0.0035073275 0.0009232941 0.0018711267
000310 4c b4 f7 3a a2 f9 b3 39 40 f6 2c 3a 0b 30 c9 b9
       0.0018898337 0.00034327531 0.00065979734 -0.00038373502
000320 92 f7 cf bb 72 10 07 3b f9 a9 38 bc 40 0d 48 3a
       -0.0063466514 0.0020609167 -0.011270993 0.0007631369
000330 2a 73 d3 3a f8 1d 0f 3d 6b 41 15 3b 91 82 63 b9
       0.0016132344 0.03494069 0.0022774588 -0.00021697047
000340 5f d0 d8 ba 64 1a aa bb 47 05 e6 3a d8 d3 32 3b
       -0.0016541592 -0.0051911343 0.001754918 0.0027286913
000350 c9 3d 9a 3b 6b b9 49 bb fe ed 39 3b 29 bc f9 3a
       0.0047070724 -0.0030780684 0.0028370614 0.0019053268
000360 39 13 ef ba 13 1e 55 ba f5 5e 2c b9 1d 92 9c bb
       -0.0018239982 -0.00081297866 -0.00016438572 -0.0047781602
000370 82 f8 ab 3a e9 2d 28 3b 31 e4 3c 3b 70 b4 0d bb
       0.0013120326 0.002566213 0.0028822536 -0.0021622442
000380 71 c5 b3 ba 78 49 2c bb 19 02 84 be 9b 22 e9 3a
       -0.0013715458 -0.0026288908 -0.2578285 0.0017786802
000390 7a 3d d9 bb c5 09 82 3a 79 45 55 bb ec c2 12 bb
       -0.006629643 0.0009921124 -0.003254263 -0.0022394015
0003a0 ea 6d ff 36 c3 a8 04 3b af 75 6d 3a 05 b9 9b 3b
       7.612388e-06 0.0020242191 0.0009058369 0.0047522807
0003b0 ed 82 7b bb 60 74 3f 37 66 00 5d be ca a0 bf 3e
       -0.0038377598 1.1411583e-05 -0.21582183 0.3742736
0003c0 97 99 79 3b 1b 90 36 be c5 2f 01 bb 9d 26 98 bc
       0.0038085931 -0.1782841 -0.001971231 -0.0185731
0003d0 28 3e ad ba 04 90 3d 3b 06 84 0b 3e 50 38 95 3b
       -0.0013217377 0.0028924951 0.13624582 0.004553832
0003e0 88 91 d8 bb 07 05 82 bb 72 91 0f bc 1a 69 aa bb
       -0.0066091456 -0.0039678845 -0.008762704 -0.0052005174
0003f0 d8 ce 1c bb 37 cb 85 ba 0c ae 1e 3a 9a 89 05 bb
       -0.0023927 -0.0010207657 0.00060531567 -0.0020376206
