logs/M5D1_r08__scale0005/score.pt (torch, 732745 bytes, 10 tensors)

embed.0.W f4 [64]
000000 a8 14 9a c1 bd 0a 85 41 de 5c a0 c1 48 32 f6 41
       -19.260086 16.630243 -20.045345 30.774551
000010 96 c6 36 42 dc 19 0e c2 a1 a9 14 c2 34 1f 9d c1
       45.69393 -35.525253 -37.165653 -19.640236
000020 c0 db 2c c2 aa 33 a1 c1 83 6c b2 c1 2c e2 ca c1
       -43.2146 -20.150227 -22.302984 -25.360435
000030 94 b2 16 c0 7f e6 3e 42 ef cf ed c1 65 55 49 c2
       -2.3546495 47.725094 -29.72653 -50.333393
000040 76 65 ae c1 98 d9 e4 c1 17 61 be 41 48 ce 45 41
       -21.799541 -28.606247 23.797407 12.362862
000050 a4 85 2f c0 ea af d4 c1 84 87 ce c1 9d 37 1f 42
       -2.7425318 -26.585896 -25.81617 39.80431
000060 38 e7 85 40 51 a8 28 41 c5 58 7d c1 c4 6a c2 c1
       4.184475 10.541093 -15.834172 -24.302132
000070 43 06 07 40 7c 62 20 c1 75 3b da c1 49 97 e4 c1
       2.1097572 -10.024044 -27.279032 -28.57387
000080 dc 29 42 42 54 25 06 c2 cb 83 50 c0 46 4d d4 41
       48.54088 -33.536453 -3.258044 26.537731
000090 7d b2 e4 c0 df df 95 c1 7e 42 77 41 56 88 82 c2
       -7.146788 -18.734312 15.453733 -65.26628
0000a0 1f 48 cb c1 ba 28 eb c1 cd f5 ac 41 c5 aa 32 42
       -25.410215 -29.394886 21.62002 44.666767
0000b0 45 34 0f bf 7b 84 04 42 ad 68 0a c2 42 1d 5f 40
       -0.5593913 33.129375 -34.602222 3.4861608
0000c0 80 c9 44 41 ee 94 bd 40 20 33 28 c1 7e 7a e6 41
       12.299194 5.92443 -10.512482 28.80981
0000d0 56 cb 33 41 e4 da b4 40 6b 21 22 c2 7c 11 9f c1
       11.237143 5.65172 -40.532635 -19.883537
0000e0 14 9a 25 c2 de 54 a8 41 72 96 1a c1 81 4f b6 c1
       -41.400467 21.04144 -9.66173 -22.78882
0000f0 60 40 84 c1 21 21 c0 40 65 74 14 42 0b 0c 15 42
       -16.531433 6.004044 37.113667 37.26176

embed.1.weight f4 [128, 128]
000000 ae 88 9b bd 0e 67 b2 bc fe f2 78 3d 34 41 80 bd
       -0.07594429 -0.021777656 0.06077861 -0.062624365
000010 63 1e bd 3c c2 90 20 bd 99 6b 21 3d 23 5c 3d 3d
       0.023085779 -0.03920055 0.039409254 0.046230447
000020 48 54 d6 3c e6 68 6b bc 25 6f 51 3d c6 2f 57 bc
       0.026163235 -0.014368271 0.051131386 -0.013133949
000030 37 56 ae bd 46 e5 e0 bc 37 03 a3 3d 35 14 09 3d
       -0.08512538 -0.027453076 0.079595976 0.033466537
000040 8e 1b 9c 3a 5a 8e 08 3d db 2c 9f 3d 38 28 41 bd
       0.0011910067 0.033338882 0.077722274 -0.047157496
000050 8f 4f 8d bd c8 e9 32 bc 15 35 f7 bb 57 86 5f 3d
       -0.0689994 -0.010919996 -0.0075441697 0.054571476
000060 1b 94 11 bd ea 75 a3 3d d5 0f c4 bc 7b c7 1a 3c
       -0.035541635 0.07981475 -0.02393333 0.009446974
000070 7a 20 90 3d a2 39 c9 bc 69 7d af bb 3a af 98 3d
       0.070374444 -0.024563614 -0.005355526 0.07455297
000080 28 7a 95 3d dc 96 63 bc ee 9f 95 bc c7 c8 9f 3c
       0.0729869 -0.013890948 -0.018264737 0.019504918
000090 56 38 91 bd 2c 71 3b bd 00 bb 97 3d 00 ae a6 3d
       -0.07090823 -0.045762226 0.07408714 0.081386566
0000a0 c7 3c a6 bb 2b 8f b9 3c a3 9d 93 3d d0 8a 03 bd
       -0.005073163 0.022651276 0.07207801 -0.032114804
0000b0 32 d6 c4 3b c1 8a c9 bb 02 ce 62 bd 28 84 9c bd
       0.0060069794 -0.006150574 -0.055372246 -0.07642394
0000c0 c8 73 15 3b a4 68 61 bd 13 4f b3 bb d6 05 b9 bc
       0.0022804607 -0.055031434 -0.005472073 -0.02258579
0000d0 da fa 8d 3d d9 b2 32 bd 58 37 91 bb ae ed a9 bd
       0.06932612 -0.043627594 -0.0044316463 -0.08297287
0000e0 41 19 cf 3c a2 ce b0 3d ef 4e eb bc 5b f3 24 bc
       0.025280597 0.08633162 -0.028724162 -0.010067786
0000f0 4d a4 d9 3b 43 f0 93 3c 1e c3 87 bd dd 8b c8 3c
       0.0066419006 0.018058902 -0.066290125 0.024480755
000100 d5 fa 5b bd 0a 9e a5 bd 74 ba 6a 3d a9 e5 89 3d
       -0.05370601 -0.08086784 0.05730672 0.06733257
000110 c9 5e 1e bd 7a 1f 9a bd a5 18 82 bd 62 a0 1b bc
       -0.038664613 -0.07525535 -0.06352357 -0.009498687
000120 a9 64 bc 3c 64 c0 a6 bd 5f 56 08 3d ef 88 07 3c
       0.022997217 -0.08142164 0.033285495 0.008272394
000130 e8 4d b4 bd 0e d5 8f bd e3 a5 c9 bb 0f 4f a1 3c
       -0.08803922 -0.07023059 -0.0061538084 0.019691018
000140 11 a0 91 bd 09 bd f1 3c bc 57 86 bd f2 85 8a 3d
       -0.07110608 0.029509084 -0.06559703 0.06763829
000150 b5 d9 7d 3d 25 76 63 3d dc 47 8b 3d 27 ba 23 bd
       0.0619752 0.055532593 0.068008155 -0.03997245
000160 e8 32 25 3c 2d 91 33 bd 84 69 9a bd 81 a5 98 3c
       0.010082938 -0.043839622 -0.07539657 0.018633606
000170 4d 01 84 3d 9b fa 4e bd 31 f2 83 bd b7 d7 83 3d
       0.064455606 -0.050531965 -0.06442679 0.06437629
000180 6a dd a7 bd 1a 2d 90 bd 74 66 7a bd 8f 7a 81 bd
       -0.08196528 -0.070398524 -0.061132863 -0.06322204
000190 63 38 f9 3b 90 50 57 3d cf f7 aa bd 2e 9e a8 3d
       0.007605599 0.052567065 -0.08348047 0.082332954
0001a0 9e 09 79 3d 03 06 ca bc 34 ab 10 3d e6 f3 69 3d
       0.060800187 -0.02466107 0.035319522 0.057117365
0001b0 ca f5 82 bc a6 cd 86 3d f4 40 b2 3d 5d 19 83 3d
       -0.015986342 0.06582193 0.08703795 0.06401322
0001c0 9e b8 12 bd 5b 47 ab 3d 67 30 61 bd 3e 49 63 bd
       -0.035820596 0.08363219 -0.0549778 -0.05548977
0001d0 e5 8f 42 bb 61 27 a4 bc d0 19 58 3d 08 28 65 3d
       -0.0029687819 -0.020038309 0.05275899 0.05594638
0001e0 35 ac 88 bd 18 30 72 3d d5 3e af bb 37 fe d5 3c
       -0.06673471 0.059127897 -0.0053480663 0.026122196
0001f0 97 bb 2f 3c f3 05 0a 3c 5a 4f 78 3d 41 f3 8c 3d
       0.010725877 0.00842427 0.06062255 0.068823345
000200 5a 67 15 bd e0 7d ff 3c 2e a3 7c bd 23 6f 9e bc
       -0.036475517 0.031187952 -0.061679058 -0.019340103
000210 6a 0b 4a bd ca 8b 45 3d 11 7f 51 bd a0 1f 9d bd
       -0.04932729 0.048229016 -0.05114657 -0.076720476
000220 f0 92 ae bd fa 63 dd 3c ac 67 bf 38 f4 5b ae 3d
       -0.0852412 0.027025212 9.1269e-05 0.085136324
000230 8a 0c 22 39 b1 27 45 bd 8e f6 5c bd 53 c1 4d 3d
       0.00015454195 -0.048133556 -0.05394607 0.050233196
000240 1e 0b 9d 3d ec d1 89 bd 36 6c 74 3d e2 c3 d0 3c
       0.07668136 -0.067294925 0.05967351 0.02548403
000250 39 e8 56 3d 6e db a7 3d 8c aa bd 3b c4 b2 f0 bc
       0.05246756 0.0819615 0.005788153 -0.029382117
000260 cf 4e a3 3d 02 d9 67 3d bc 97 2e bd f7 d9 b0 3d
       0.07974016 0.05660344 -0.042625174 0.086353235
000270 4a b0 5b bd 0b d3 5e 3d 0f 35 3d 3d ab 0c 5e 3c
       -0.05363492 0.054400485 0.04619318 0.013552825
000280 61 59 75 bc 2b 54 93 bd b3 13 b7 3c 2c 6b e7 3c
       -0.014974923 -0.07193788 0.02234826 0.028249346
000290 13 af f0 bb 53 a6 1c bb 6e e7 e6 bc 26 97 b8 3c
       -0.007345089 -0.0023902848 -0.028186526 0.02253301
0002a0 ad fb 8c bd 83 19 8d bc 1f 24 7a 3d bc 36 26 bd
       -0.06883941 -0.017224079 0.061069604 -0.040579543
0002b0 55 3d 1b 3d 4d f6 12 bd bd d1 34 bd 9a b4 a7 bd
       0.037900288 -0.035879422 -0.044145335 -0.08188744
0002c0 eb 0a e3 3c 56 f5 0c bd 3e ea 3b 3b 7c 45 3b 3b
       0.027715167 -0.034413658 0.0028673555 0.0028575351
0002d0 33 77 a6 3d 30 8a 17 3d 0d 8c ca bb 4a 75 42 bc
       0.08128204 0.03699702 -0.006181246 -0.011868784
0002e0 77 a7 ab bd 81 44 da 3c 80 c2 9a bd 85 fb a1 bd
       -0.08381551 0.026643993 -0.07556629 -0.07909302
0002f0 83 92 87 3d 11 44 4f 3d e5 11 94 3d e6 e6 66 bd
       0.06619742 0.050602023 0.072299756 -0.056372546
000300 97 c1 3e 3c 99 b5 af 3d ea 84 52 3d b4 69 15 bc
       0.011642835 0.08579559 0.051396288 -0.00911944
000310 ce 80 a2 3d de 02 8b 3d 9e 95 55 bd c9 ea 34 bb
       0.07934724 0.06787656 -0.05214464 -0.0027605763
000320 1a 28 90 bc 92 03 90 3d 8b b2 2b bd 85 10 a5 3d
       -0.017597247 0.07031931 -0.04191832 0.080597915
000330 9c e2 08 bd 25 eb c8 bc f1 b7 b2 3d 05 e2 74 bd
       -0.033419237 -0.024526188 0.0872649 -0.05978586
000340 e6 60 3b 3d d4 d4 8a 3d 59 06 0e 3d d0 00 77 bd
       0.045746706 0.06778875 0.034674022 -0.06030351
000350 2c c0 9b 3d a4 3d e9 bc a3 13 6d 3d 1c 8c 65 bb
       0.07605013 -0.028471775 0.057880055 -0.0035026139
000360 85 78 94 bd 4a 00 93 3d 06 ee ed bc 9f e8 3c bb
       -0.0724955 0.071777895 -0.029044162 -0.0028825176
000370 1c 0f f1 3c a9 ab 59 3d 58 bf 58 3d b9 70 30 bd
       0.02942615 0.053142224 0.052916855 -0.04307625
000380 86 23 9c bd ac 52 01 3d ec 5c 6b 3b db be ac 3c
       -0.07623963 0.031572983 0.003591354 0.0210871
000390 cd 11 19 3d 01 5d 7f 3d b7 51 39 3d 92 27 8d 3d
       0.03737049 0.062344555 0.045243945 0.06892313
0003a0 45 05 8b bd b2 16 02 3d 4d ca 95 3d cd 59 33 3d
       -0.067881145 0.031759925 0.073139764 0.043786813
0003b0 ae 5c b1 bd 4c ce 83 3d 48 15 19 bd bf dc 90 3d
       -0.08660255 0.064358324 -0.03737381 0.07073354
0003c0 ee 0c 02 3c 87 c9 1b 3a 8b 0e d2 bc 0e 59 a1 bd
       0.007937653 0.00059428107 -0.0256417 -0.07878314
0003d0 7a b5 b6 bc 3e 4b 69 bd 01 d8 32 3d d7 fd 6e 3d
       -0.022303332 -0.056956522 0.04366303 0.05834755
0003e0 d8 1b 04 bd 2a 20 15 bd 0a 9e 93 bc 81 4e 54 bd
       -0.032253116 -0.036407627 -0.018019695 -0.05183268
0003f0 62 7a 7f 3c 9c 77 c2 3c b6 0b 0d bd 42 ca c1 bb
       0.015593143 0.023738675 -0.034434997 -0.0059140036

embed.1.bias f4 [128]
000000 23 41 a7 bd c6 4f 67 3c a0 d8 03 3d 33 4b 9c 3d
       -0.08166721 0.014118141 0.03218901 0.076315306
000010 04 21 9e bd 53 ce 15 bd 52 20 3f 3d a4 d0 b9 3c
       -0.07721141 -0.03657372 0.046661682 0.022682495
000020 76 15 0a 3c 24 9b 07 3d 42 f1 26 3d ef 98 b4 3d
       0.008427968 0.033106938 0.040757425 0.08818232
000030 30 2d 6e bd ce 3d 39 3d 06 61 a9 bb 1a 00 9a bd
       -0.058148563 0.045224957 -0.005169037 -0.075195506
000040 7b 85 13 3d 15 04 0e 3d 20 a2 46 bc 86 86 9a bd
       0.03601597 0.03467186 -0.012123615 -0.075451896
000050 71 51 80 bd 7d ac b0 bd ca c3 89 3c 29 49 a4 bd
       -0.06265534 -0.086266495 0.016816992 -0.08021767
000060 74 ce 52 3d 1a 38 96 3d 30 a0 62 3d 00 24 47 bd
       0.05146642 0.07334919 0.055328548 -0.048618317
000070 a8 08 75 3d 6e 9b 76 3d 8f e8 5d bc d2 63 a8 bd
       0.05982271 0.060206823 -0.013544216 -0.08222164
000080 15 1a 2b bb 05 45 bb 3c c0 b4 2d bd 95 1b a7 bc
       -0.0026108075 0.02286006 -0.042408705 -0.020398894
000090 d7 c1 af bd e4 b4 aa bd fc a8 a8 bd f4 24 40 3d
       -0.08581894 -0.083352834 -0.08235356 0.04691024
0000a0 3f 50 37 3c 14 90 c5 3b 48 6e 79 3d 24 db 54 bd
       0.011188566 0.0060291383 0.060896188 -0.0519668
0000b0 2b e0 75 3d 11 92 5e 3d d7 3b 02 3d 11 8d 39 bd
       0.060028236 0.05433852 0.03179535 -0.045300547
0000c0 2c 95 94 bd 07 3a 11 bd 97 b9 7b 3d 87 a2 9b bc
       -0.07255015 -0.03545573 0.06145629 -0.018998398
0000d0 b6 4c 69 3d a7 d7 81 bd e7 f6 a4 bd f4 d1 16 3d
       0.056957923 -0.063399605 -0.080549054 0.03682132
0000e0 e4 bf a7 3d 75 45 c9 ba 7e 4d f0 bc 1a ea 93 bd
       0.08190897 -0.0015355783 -0.029333826 -0.07222386
0000f0 73 db 17 bd 0f c6 1b 3d 5e c9 57 bd fb 0a e8 bb
       -0.037074517 0.03803068 -0.052682273 -0.007081387
000100 92 c7 76 3c 01 2d 89 3d 68 be a1 3c a4 ae 75 bd
       0.01506223 0.06698037 0.019744113 -0.059981003
000110 d4 2e 04 bd 8c 80 82 bd 8d 8b af 3b c0 c9 2c bd
       -0.03227122 -0.063721746 0.005357212 -0.04218459
000120 71 75 3a 3d 66 af aa 3c 9f 58 95 bc 8a d1 49 bd
       0.045522157 0.02083559 -0.018230734 -0.049272098
000130 18 de 14 3d 8e 8f 7a bc e8 4b c1 3c 77 94 89 bd
       0.036344618 -0.015293015 0.023595765 -0.067177705
000140 15 e1 94 bd 39 f8 ab 3d bc 86 ff 3c f0 7e 83 3d
       -0.072694935 0.08396954 0.031192176 0.06420696
000150 8d 8d 1c bd c0 ca 3e 3d f5 84 84 3d 2d d6 44 3d
       -0.03822093 0.046580076 0.06470672 0.048055816
000160 7d fe a6 3d 49 33 83 bd c5 ad a1 bd 31 f0 87 bc
       0.081540085 -0.06406266 -0.07894472 -0.016594024
000170 10 ba f7 bc 50 6f 68 3d 2f 6f a7 3d 9f 7d 9c 3d
       -0.030240089 0.05674678 0.081755035 0.07641148
000180 23 47 f7 3c 8d 6a 87 bc 2e 51 8c bc c2 1d 9b bd
       0.030185288 -0.0165303 -0.017128553 -0.07574035
000190 28 a4 87 bb 32 ea b3 bd d9 5e f3 bc 9e 06 37 3d
       -0.004139442 -0.087849036 -0.029708313 0.044684045
0001a0 cf f5 7c 3c 91 11 1a 3d 4a d3 7b bd 77 58 9c bd
       0.015439465 0.03761441 -0.061480798 -0.07634061
0001b0 15 27 67 bd 6d c4 3a 3d f1 70 6b bc e6 6b aa 3d
       -0.056433756 0.045597482 -0.014370189 0.08321361
0001c0 e1 ca a5 3d 53 ec 68 bd ae 2f 27 bd 38 15 80 3d
       0.08095337 -0.056866 -0.040816955 0.06254047
0001d0 27 23 4b bd 6d 4b 87 3d ec 5d aa bd af ad fc bb
       -0.04959407 0.06606183 -0.083186954 -0.0077111344
0001e0 0b 43 35 3d 03 8d 42 3d cf e2 9b bc 5c 3c 97 3d
       0.04425339 0.04749776 -0.01902905 0.073845595
0001f0 6d de 6c bd ea f0 11 3c ff eb 0d bd 08 13 38 bd
       -0.05782931 0.008907536 -0.03464889 -0.044940025

embed.3.weight f4 [256, 128]
000000 b4 89 86 bd e2 b5 95 bd c4 68 ac bd 80 67 f9 b9
       -0.065692335 -0.07310082 -0.0841842 -0.00047570094
000010 bd 97 51 bd e8 9e 8b bd 4b 77 43 bd c3 51 a5 3d
       -0.0511701 -0.06817418 -0.04772119 0.080722354
000020 53 8f b3 3d c6 12 39 bd 22 d1 29 bd 6e f5 6c bd
       0.08767571 -0.04518392 -0.04145921 -0.057851247
000030 19 0a f8 bb 0f a7 86 3c 1c 2d 8a bd eb 94 bc 3c
       -0.007569563 0.016437082 -0.06746885 0.023020228
000040 26 4e 52 bd c6 cc 8e bd 5b 92 a0 bd d8 ec 98 bd
       -0.05134406 -0.06972651 -0.07840415 -0.07467049
000050 02 b6 79 bd 88 71 18 bc b3 76 a2 3d 9d 01 35 3d
       -0.06096459 -0.009304412 0.07932796 0.04419099
000060 bc 9c 9c bc 8b 28 23 bd 7a 57 b3 bd 13 4c a3 bd
       -0.019117706 -0.039833587 -0.08756919 -0.079734944
000070 d7 a4 01 bd 99 a5 6b bd 9b 21 83 3c e0 00 9d bd
       -0.031651344 -0.057530973 0.016007235 -0.076661825
000080 89 fc c8 3b 1a 3c b2 bd 15 96 90 3d f7 57 7f bd
       0.00613362 -0.0870287 0.07059876 -0.06233975
000090 10 f9 75 3d 5a 82 a0 3c 1a 00 ae bd 5d dd c7 bb
       0.060051978 0.019593406 -0.08496113 -0.0060993866
0000a0 d7 3d 91 3d 9a 94 f0 3c 4e 6f 02 3c c3 5d 34 bd
       0.07091873 0.029367734 0.007961107 -0.04403473
0000b0 20 d0 bf 3c 49 6d 97 bd c0 4d 74 bd 37 a7 8a 3c
       0.023414671 -0.07393891 -0.05964446 0.016925437
0000c0 fe e9 fb bc f1 d1 9b bd f2 f5 87 bd 62 3b 77 bd
       -0.030751225 -0.076084025 -0.06638707 -0.060359366
0000d0 fa 8d a9 bd 03 b5 5c 3c a8 b4 ad 3d 4b 93 64 3c
       -0.08279033 0.013470891 0.08481723 0.013951133
0000e0 58 ad 3f 3d 71 8b 1c bd 63 37 00 3d 5c e0 d9 3c
       0.046796173 -0.03821892 0.03130282 0.02659624
0000f0 9c 3d a6 bd 97 d0 62 3d 69 01 2d 3d 15 7a c2 3c
       -0.0811722 0.055374708 0.042237673 0.023739854
000100 44 c0 4e 3c 6c dc 0a bc bb 5d a6 bd bb 35 84 bc
       0.012619082 -0.008475404 -0.081233464 -0.016138902
000110 c7 04 2e 3d 0c dd 0d bd de 86 05 bd f2 9a 3f bd
       0.042485025 -0.034634635 -0.032599322 -0.046778627
000120 9c 0a 02 bd 7a 66 e1 bc 3d fe 35 bd f2 42 52 3d
       -0.0317484 -0.027514685 -0.044431914 0.051333375
000130 99 c6 cc 3b 7f 8e 9b bd 77 cf 77 3d 4b e5 19 bd
       0.0062492606 -0.07595538 0.06050059 -0.037572186
000140 bf 13 2e bd 38 6e 84 bd 2a f8 a6 bc 47 a9 92 bd
       -0.0424993 -0.06466335 -0.020382006 -0.07161193
000150 15 b1 92 3d 51 6a 51 bc 80 86 3a 3d 4d 6a 17 3d
       0.07162682 -0.012781695 0.045538425 0.03696661
000160 46 2f 84 3d d2 56 4c 3d bd 37 ff bc 49 22 ad 3d
       0.06454329 0.049887486 -0.031154508 0.08453805
000170 74 cf 38 3d f5 46 d2 bc fd 99 87 bd 60 26 2c 3d
       0.045119718 -0.0256686 -0.06621168 0.042028785
000180 b4 5e 83 3a 4c b5 e1 bc 15 25 47 bd 10 20 a3 3d
       0.001002273 -0.02755227 -0.04861935 0.079651
000190 5c eb 85 3d 60 b8 b1 bd 60 0b a9 3b fb b5 22 3c
       0.06539032 -0.08677745 0.0051588267 0.009931083
0001a0 01 cb 42 bd 7a d1 c2 bc 71 05 81 bd ac 85 4d 3d
       -0.04755688 -0.023781527 -0.06299866 0.050176308
0001b0 ea f8 af bd 85 b9 6f 3d 46 a1 8d bd 35 6c a7 3d
       -0.085923985 0.058526535 -0.06915526 0.08174936
0001c0 ba 02 bc bc b5 50 89 bd 33 8b c0 bc 9e 58 c4 3c
       -0.022950519 -0.06704847 -0.023503875 0.023968037
0001d0 5c 1b 49 bd 8e f4 9f 39 6f 56 7a bd 5e 5a 0d bb
       -0.049098358 0.0003050905 -0.061117586 -0.0021568756
0001e0 a1 c1 52 bd c8 ad c0 3c 6c 4e 72 3d b2 55 b0 3a
       -0.05145419 0.023520365 0.05915682 0.0013453274
0001f0 69 54 df 3c db 0a 90 3d 9d e3 39 bd b3 5e 95 bc
       0.02726193 0.070333205 -0.045383085 -0.018233633
000200 ac 71 60 3d a8 a0 46 3d f8 96 d2 bc a9 49 bb bc
       0.054795906 0.048493057 -0.025706753 -0.022862272
000210 ca 19 df 3c e4 b6 f5 bc 6d da f9 bc 30 e5 a9 3d
       0.027233977 -0.029994436 -0.030499661 0.08295667
000220 56 7b 3f bd 0f 64 5c 3d 3b a1 6a bc a1 50 29 3c
       -0.04674848 0.05380636 -0.014320667 0.010334165
000230 51 d9 04 bc 12 4a 41 3d 07 a8 ac 3c 26 45 4f 3d
       -0.008108453 0.04718978 0.021076215 0.050603054
000240 ec c0 ad 3d 0f 1b aa bd 2b d6 67 bd 4b 06 a1 bd
       0.084840626 -0.08305942 -0.05660073 -0.078625284
000250 3b 0b a7 bd b2 da 5f 3d a3 53 df bc f8 a5 70 bb
       -0.08156439 0.054651923 -0.02726156 -0.0036720019
000260 bf 40 15 bd c3 85 99 3d 13 b4 b0 bd 9b 69 1f 3c
       -0.0364387 0.07496216 -0.086280964 0.009729768
000270 ed 24 84 bd d3 83 90 ba 4d f7 4c bc 4b 41 a8 3d
       -0.064523555 -0.0011025615 -0.012510133 0.08215579
000280 93 0e 19 3d 1a 0e 52 3c b4 ea 1e 3d f9 2a 38 3d
       0.037367415 0.012820745 0.03879805 0.044962857
000290 c8 da 72 bd 01 f6 a5 bc 44 85 a9 3c c6 ed 9f bd
       -0.059290677 -0.020258905 0.020693429 -0.078090236
0002a0 88 11 05 bc 0a 09 39 bd bc aa 2e 3c 2b ff 06 3d
       -0.008121856 -0.045174636 0.010660823 0.03295819
0002b0 6c d7 87 3c 28 f8 75 bd 46 fa 26 bd dd 89 b9 bc
       0.016582213 -0.060051113 -0.040766023 -0.022648746
0002c0 3a 5d ad bc 64 bf 80 3d 49 32 32 bb 87 0b c3 bc
       -0.021162618 0.06286505 -0.0027190617 -0.023809208
0002d0 3f 3f 88 bd ba 60 03 bd 23 f8 44 3c d2 4b 91 bd
       -0.06652688 -0.032074668 0.012022051 -0.0709454
0002e0 5e 8e 0c bc d8 72 e2 3c 12 77 3b 3c 31 1b 20 3d
       -0.008578865 0.027642652 0.011441963 0.03908843
0002f0 26 74 a4 3d 5a e3 53 3d 11 f5 90 3d bf f4 74 bd
       0.08029966 0.05173049 0.07077993 -0.05980372
000300 96 fc 23 bd fb a2 9c 3d 63 ab 3b 3d c8 c3 99 3d
       -0.040035807 0.076482736 0.045817744 0.075080454
000310 69 c8 0d bc 08 f4 02 bd 73 c3 94 3d 5b a5 b1 3d
       -0.008653739 -0.031971008 0.072638415 0.08674117
000320 72 41 34 bd c4 17 fa bc f1 22 73 bd f3 5d a1 bc
       -0.044007726 -0.03052891 -0.059359495 -0.019698119
000330 f6 0b a3 3c 69 d8 88 3d 11 fe 06 3d 7f d7 8e 3d
       0.019903164 0.06681902 0.03295714 0.06974696
000340 39 a9 95 3d 13 d4 09 bd c7 e2 29 3c 17 ca e1 bc
       0.07307667 -0.033649515 0.010369009 -0.027562184
000350 78 7c 68 bc 78 cb b1 bd 9b 3a 8c bd be 46 c0 3c
       -0.014189832 -0.08681387 -0.068471156 0.023471233
000360 cf f0 b6 bc c2 45 84 bd 0b 04 57 3d f9 1f b1 3d
       -0.022331623 -0.06458618 0.05249409 0.086486764
000370 26 8c 16 b9 b7 e7 8e 3d b0 a9 60 3d 41 a7 0f 3d
       -0.00014357324 0.0697779 0.054849327 0.035071615
000380 3a ef d6 bc d6 69 7e 3d 72 d6 d8 3b 9f c8 df bc
       -0.026237119 0.06211265 0.0066173607 -0.027317343
000390 3c 08 a1 bc 63 ed 83 3c c3 7c 65 3d dd c3 32 3c
       -0.019657247 0.016104406 0.056027185 0.010910955
0003a0 c0 d7 a5 3b 54 30 fc bc e1 2b b6 3c 1b 4c fc bb
       0.00506112 -0.030784763 0.02223772 -0.007699502
0003b0 e7 b3 5d 3d 8f 00 fb 3c fd f6 48 bd 6b 62 29 3d
       0.054126646 0.030639915 -0.04906367 0.041353624
0003c0 a8 8e 93 3d d8 05 92 bd 95 da 93 bd 6f 53 b3 3d
       0.07204944 -0.07130021 -0.072194256 0.08756148
0003d0 81 8d a4 bd 9a 44 72 3d ae c3 b3 bd 42 53 8f bd
       -0.08034802 0.059147455 -0.08777557 -0.06998302
0003e0 7d f6 93 bd ab c1 b3 bd be ff 8d bb d2 72 43 3d
       -0.07224748 -0.087771736 -0.0043334654 0.047716923
0003f0 cf 18 23 3d 9b 75 f7 3c 6d c4 6d 3d fb 04 48 bd
       0.03981858 0.030207446 0.058048654 -0.048832875

embed.3.bias f4 [256]
000000 7d 0b 18 3d b2 3e 62 bd 09 06 1d bd e3 d1 5d 3d
       0.03712033 -0.055235572 -0.038335834 0.05415524
000010 09 63 aa bd 03 17 18 3d e2 f0 ac 3c ec ac 80 ba
       -0.08319671 0.03713132 0.021110956 -0.000981716
000020 28 a8 8b 3d 76 c1 4e bc db ab 4b bd ed b4 32 3c
       0.06819183 -0.012619367 -0.04972444 0.010907394
000030 e5 a5 c8 bc 5e 61 84 bd b8 a1 a6 3c 26 45 ad bd
       -0.024493167 -0.06463884 0.020340785 -0.08460455
000040 8c 52 13 bd fc 60 0d bd ea e9 d8 bc 0f 60 c1 3c
       -0.035967395 -0.03451632 -0.026478726 0.023605375
000050 ba ab 8d 3d eb d3 9a bd 15 e7 7c bd 3a 49 79 bd
       0.0691752 -0.075599514 -0.061743814 -0.06086085
000060 48 34 a4 3c 74 24 88 3c 2e 57 a5 bd ce 80 70 3d
       0.02004446 0.016618945 -0.08073269 0.058716588
000070 df 81 ab bc 16 1e d0 3c 37 cc ae 3c d5 36 6e bd
       -0.02093595 0.025404971 0.021337612 -0.05815776
000080 0a eb 36 3d 0d 62 51 3c c0 aa 8a 3d 9c 38 18 3d
       0.044657744 0.012779725 0.06770849 0.037163362
000090 c0 4f 39 bc 30 19 2d 3c 5b f5 b4 bd 1b 28 11 3d
       -0.011310518 0.010565087 -0.0883586 0.03543864
0000a0 82 07 a5 3c 62 00 10 3d 64 d4 32 3c d3 80 b0 bd
       0.020145182 0.035156615 0.010914896 -0.08618321
0000b0 7b c4 25 bc 8f f1 9f 3d 2f b2 06 bd 79 1c c8 39
       -0.010117645 0.078097455 -0.032884773 0.00038168186
0000c0 6b 5c 80 3d bb 71 cf 3c 3b c9 6d bb 44 ea 7e bc
       0.06267627 0.025322786 -0.0036283273 -0.015558783
0000d0 63 55 d2 3b 3c e0 5c bc a8 53 e8 3c 94 99 7a 3d
       0.0064188703 -0.013481196 0.028360203 0.06118162
0000e0 08 89 79 bd 49 f1 92 bb 5a c0 6c bd d1 da bb 3c
       -0.0609217 -0.00448433 -0.05780063 0.022931488
0000f0 ad 42 46 bd 55 45 88 3d fe 1a 63 bd ba 3c fc 3b
       -0.04840343 0.06653849 -0.055445664 0.007697669
000100 56 7e bc bc 36 2b 0d bd 89 03 9c 3c 0a 48 19 3d
       -0.02300946 -0.034465037 0.019044654 0.037422217
000110 17 4c 83 bd e2 67 2c 3c e6 57 e8 3c d0 8a d7 3b
       -0.06410997 0.0105228145 0.028362226 0.006577827
000120 a6 98 37 bd 14 b1 58 3d bf 58 a0 3d f1 64 11 bd
       -0.04482331 0.05290325 0.07829427 -0.035496656
000130 30 71 c0 bc 0d ee b0 3d b9 33 4d 3d 9c 09 77 bd
       -0.023491472 0.086391546 0.050098155 -0.0603119
000140 6e ef 2f 3c a5 5f d5 bc a6 5a 4d 3d 1d 5c d8 bc
       0.010738237 -0.026046583 0.050135277 -0.02641111
000150 2f eb 83 bd 33 1d 03 bd 37 50 52 bc 4f 5e 48 3d
       -0.06441342 -0.03201027 -0.0128365075 0.048918065
000160 2f a2 08 3d 53 ac d9 3c 44 4b 41 3d 7b 86 2b bd
       0.033357795 0.026571428 0.04719092 -0.041876297
000170 64 17 13 3d 3b 9f 83 bd 16 85 a0 3d f6 2e 4f bd
       0.03591098 -0.06426855 0.07837884 -0.050581895
000180 44 58 8b bd 0c f6 9a bd 9d 88 a2 3d 3e ce 8d bc
       -0.06803945 -0.07566461 0.07936213 -0.017310258
000190 8c fc 1c 3c 29 26 2b 3d d5 ca 9f 3b e6 d0 e9 bc
       0.009581696 0.04178444 0.0048764744 -0.028541993
0001a0 55 35 33 3d 2d 2c 83 bd c5 22 9e 3c 83 e5 50 bc
       0.043752033 -0.0640491 0.019303689 -0.012750032
0001b0 87 2e 37 bd 63 42 97 3d ca bc 15 bc 56 51 e4 3c
       -0.044722106 0.07385709 -0.009139249 0.027870815
0001c0 e0 99 3d 3d c0 e7 42 bb f2 c4 36 3d 56 56 30 bd
       0.046289325 -0.0029740185 0.044621415 -0.043051086
0001d0 9c 7a f1 3c 86 ba 6b bd 3d 80 81 bd 03 7b d3 bc
       0.02947741 -0.05755093 -0.06323288 -0.025815492
0001e0 41 ea 93 bc 6c 73 7b 3c 12 d3 57 bd c6 5f 4d 3c
       -0.018056037 0.015347343 -0.052691527 0.012535041
0001f0 d4 b2 14 bd ea 88 28 bc 89 e0 4b 3d 9e 9d a0 bc
       -0.036303356 -0.010286549 0.04977468 -0.019606408
000200 87 06 44 bc 77 91 87 3c b6 9c 6a 3d c8 fd 60 3d
       -0.011964447 0.016548855 0.057278357 0.054929525
000210 cd ca 89 3d f5 6c 53 3d 27 9a 00 bd b2 df 95 bd
       0.06728134 0.05161758 -0.03139701 -0.07318057
000220 5b cb 98 3c 77 ad 82 bd 21 8f 0a bb 57 11 08 bd
       0.018651655 -0.06380742 -0.002114244 -0.03321966
000230 9c 30 25 bc 43 ca a7 ba 10 2a a2 3c f0 72 1a 3b
       -0.01008239 -0.0012801368 0.019795448 0.0023567043
000240 06 c7 0c bc 1e 63 02 bd 42 7b 93 3a af 98 fe bc
       -0.008592373 -0.031832807 0.0011251944 -0.031078665
000250 04 00 19 3c 00 26 36 3d 98 7c 1e 3c 53 d7 76 3d
       0.009338383 0.044469833 0.00967326 0.060263943
000260 5e cd ba 3c f9 5e 87 3d 22 f8 9c 3d 13 a4 83 3d
       0.022803005 0.066099115 0.07664515 0.06427779
000270 96 5a 37 3c 5c 60 75 3c bd 43 91 bd 2d d0 6c 3d
       0.011191031 0.014976587 -0.07092998 0.05781572
000280 94 0f 91 bd 74 c5 ae bd 97 4e 99 3c 79 47 61 3d
       -0.070830494 -0.08533755 0.018714232 0.054999802
000290 eb ee 9e bd 64 b2 a4 bd b0 9c a9 bd ce 19 5c bb
       -0.07760414 -0.08041838 -0.08281839 -0.0033584717
0002a0 03 9c 01 bc 04 90 98 bd ed 43 a0 bb ae 8f b4 3d
       -0.007910731 -0.07449344 -0.00489091 0.08816467
0002b0 6d 49 29 bd 7e 08 d5 3b cc 2e 03 bd 86 18 83 3d
       -0.04132979 0.0065012565 -0.03202705 0.06401162
0002c0 f0 42 0e bd bf 97 a9 bd 29 1e 6e 3d 2f 60 10 bd
       -0.034731805 -0.082808964 0.05813423 -0.035247978
0002d0 de a6 02 bd c5 bc 25 bd cc 91 b5 bc 45 5c 80 3d
       -0.03189742 -0.040463228 -0.022164248 0.06267599
0002e0 d3 f8 a5 3d 8f c0 a5 3d 89 91 fc bc 39 b7 88 3d
       0.081041 0.08093368 -0.030831115 0.06675572
0002f0 3a 30 35 3d c5 63 a0 3d b1 a0 0d 3d b4 d7 c7 3c
       0.044235446 0.078315295 0.034577075 0.024394847
000300 3b 51 a8 3c 3d 78 fb bb c0 60 6a bc 67 14 2d 3d
       0.020546546 -0.0076742456 -0.014305294 0.042255785
000310 86 b0 d4 bc 56 f2 87 3c e2 90 52 bd 58 98 d1 3c
       -0.02596308 0.016595047 -0.051407702 0.025585338
000320 99 fe e4 bb 6c 9b 93 bd e9 1c a6 bd 6d e4 1a bb
       -0.006988358 -0.07207379 -0.08110983 -0.0023634688
000330 b3 30 99 bd 89 23 b4 3c 84 91 60 3d d8 5d ec bc
       -0.07479992 0.0219896 0.054826275 -0.028853342
000340 8c 47 7b bd 7a 0e 58 bd 6e 44 a4 bd 45 a2 92 3d
       -0.06134753 -0.05274818 -0.080208644 0.07159857
000350 33 e7 92 3d 96 63 60 3b 0b 63 2a 3d b8 05 6a 3d
       0.07173004 0.0034239045 0.04159836 0.05713436
000360 37 eb 95 3d db 73 8e 3d 46 8b 25 3d 40 02 ac 3d
       0.07320254 0.069556914 0.040416025 0.08398867
000370 a4 4e 85 3d 25 6e 3b 3c 95 bf 74 bd f3 b9 82 b9
       0.0650914 0.011439835 -0.05975302 -0.00024934075
000380 c2 b8 21 3d 33 a3 a4 3d 04 f1 19 bd 57 19 4b 3d
       0.03948284 0.0803894 -0.037583366 0.049584713
000390 ee d8 84 bd ec df a6 3d 0e 1e d2 bb 93 e4 67 bc
       -0.064866886 0.081481785 -0.006412274 -0.014153617
0003a0 07 68 a1 3d db 92 2b 3d d6 06 64 bd 06 0e 02 3d
       0.0788117 0.0418881 -0.05567058 0.031751655
0003b0 00 4f 28 3d d2 a2 96 bc 47 15 31 bc c0 9f af 3c
       0.041090965 -0.018388186 -0.010808296 0.02143848
0003c0 70 b0 aa 3d 3c 60 aa 3d 7f d7 90 bd b3 ac af 3a
       0.08334434 0.083191365 -0.070723526 0.0013402909
0003d0 6c 0e e9 bc fd 71 89 bd c8 9b b0 3d f0 39 4e 3d
       -0.02844926 -0.06711195 0.08623463 0.050348222
0003e0 58 bb af 3d e8 96 a3 bd 1b 77 b0 3c 5d 63 60 bd
       0.08580655 -0.079877675 0.021541169 -0.05478226
0003f0 83 05 8d bd f2 d2 de bc 5c 19 b3 bd f9 3a 14 bd
       -0.06885817 -0.027200196 -0.08745071 -0.036189053

conv_spatial.mlp.0.weight f4 [256, 2]
000000 1c 76 d1 3e 58 31 fc 3d a3 42 f5 bf 2b f9 81 bf
       0.40910423 0.12314099 -1.9160961 -1.0154165
000010 86 f7 d2 3d b7 dd b2 3e c9 4d 9d 3e 9d f9 53 3d
       0.103011176 0.3493478 0.30723408 0.05175172
000020 aa e2 e2 3c b6 be bd 3e 92 20 71 bf c2 f1 49 bf
       0.027695972 0.37059563 -0.94190323 -0.7888452
000030 0f bd d3 be 3b 80 12 3e 09 7e aa 3f 4a 07 95 c0
       -0.41355178 0.14306729 1.3319713 -4.65714
000040 6c a9 0d 3e b1 d0 f9 bd cf e8 67 3f 7f 28 95 c0
       0.1383416 -0.12198008 0.9058961 -4.6611934
000050 b4 bb d4 3e f1 8d 82 bd ec e1 8a 3e 9d 2a a6 3e
       0.41549456 -0.063747294 0.2712549 0.32454386
000060 a1 ad 85 3f 8d d8 d5 bf 86 95 bb be 9b 36 6a be
       1.0443612 -1.6706711 -0.36637515 -0.22872393
000070 35 cf 91 c0 7a 37 d7 3f 37 2d 9a be 61 37 98 be
       -4.556544 1.6813805 -0.3011262 -0.2972975
000080 ff d7 85 3e 51 1c ad be 74 84 25 3a 02 af bb ba
       0.26141354 -0.33810666 0.00063139875 -0.0014319124
000090 3e c2 2f 40 f2 ca 57 3f c7 be 04 3f 8e 7c 3c bf
       2.7462306 0.84294045 0.51853603 -0.73627555
0000a0 6d df 8b 3e a7 25 16 3f 0f ca 5e 3e 83 f3 b4 be
       0.27318898 0.586512 0.21756767 -0.35342035
0000b0 ea 6b 29 be 0f 96 c9 be cb 70 da be 0e cf eb 3c
       -0.16545072 -0.39372298 -0.4266418 0.028785255
0000c0 34 52 b3 3f 28 90 b9 3f 22 21 38 3e de bb ce be
       1.4009461 1.4497118 0.17981389 -0.40377706
0000d0 2e 90 ac 3e 84 a2 18 3b 3d 46 6c c0 15 2b 11 40
       0.3370375 0.0023290226 -3.691787 2.2682545
0000e0 77 14 85 3e 59 a8 b3 3e 6d c6 a7 be 8f 0c 92 3e
       0.25992176 0.35089377 -0.32768574 0.28525206
0000f0 5e f3 80 be ad 3c 8e be e2 b7 c8 be 3d e7 06 be
       -0.25185674 -0.27780667 -0.3920279 -0.13174148
000100 b5 32 3f 3d 81 44 cd be 78 9b 9f 3e 0c 9b 76 be
       0.046679217 -0.40091327 0.311733 -0.24082583
000110 1f 36 40 be 11 76 b1 3e dd ca 30 40 74 25 c3 bf
       -0.18770646 0.3466039 2.7623818 -1.5245805
000120 cb 2c c1 be e4 c4 50 be c8 ff af be aa c6 de 3d
       -0.37729487 -0.20387608 -0.34374833 0.10877736
000130 3d ef 6e 3e df 76 37 be d8 10 85 bd a1 81 87 3e
       0.2333345 -0.1791644 -0.06497353 0.26466087
000140 fb 6d a2 be 62 2c 81 3e 4c ff c4 3e ea bb 1c 3e
       -0.31724533 0.25229174 0.38476026 0.15306059
000150 d1 19 82 3c c0 fc ca 3e 9a 3a d0 3e 52 42 e8 3d
       0.01588145 0.39645958 0.4066971 0.113407746
000160 c8 b2 88 3d a1 1e ac be 13 69 6f 3f 64 b1 2e bf
       0.06674725 -0.33617118 0.93519706 -0.68239427
000170 93 3f 5e be a3 7e bb 3e 19 4c 5c 3e 44 ac b4 be
       -0.21703939 0.36620054 0.21513404 -0.35287678
000180 b8 48 44 3e b7 4c eb bd de 02 ad bd d0 57 b7 3e
       0.19168365 -0.114892416 -0.084478125 0.35809183
000190 c3 b0 bb 3d 7d f1 cb 3e cf 33 72 be 92 ac 16 bd
       0.09164574 0.39832678 -0.23652576 -0.03678567
0001a0 3d a7 c1 3e 63 9c a8 3e 4a ec 0a 3a 51 b1 3d 3b
       0.37822905 0.32931814 0.0005299492 0.00289448
0001b0 0a 93 6e 3e b5 db 92 3e 15 f6 d4 be e8 85 85 3d
       0.23298278 0.28683248 -0.41593996 0.06519681
0001c0 15 16 62 3e 29 ba a6 be 38 7f ac 3e 4a 3a 47 be
       0.22078736 -0.32563904 0.3369081 -0.1945583
0001d0 7f 55 c3 3e 5d ee 23 3e fd 65 fd bd 66 1d 89 be
       0.38151166 0.16008897 -0.12372968 -0.26780242
0001e0 6b 78 a6 bd fa 77 d2 3e bc aa 1a 3e 3b be c9 3e
       -0.08128437 0.4110716 0.15104192 0.39402947
0001f0 34 1e 6a 3a 65 4e e4 39 83 53 8b 3e f2 30 95 be
       0.0008930892 0.00043545957 0.27212152 -0.29138905
000200 a6 c4 b2 be b7 5a 1e be 26 47 66 bd eb 42 c5 be
       -0.34915656 -0.15464292 -0.056220196 -0.38527617
000210 ed 49 1f 3e 3b 09 c3 3e 51 37 4d be d4 18 b1 be
       0.15555544 0.3809298 -0.20040633 -0.34589255
000220 19 12 bd be 4e fc 56 be 48 4d 23 be 37 90 ae 3e
       -0.3692787 -0.20994684 -0.15947449 0.34094402
000230 90 35 77 be e8 32 ba be f8 37 cb be f1 79 8d 3d
       -0.24141526 -0.36366963 -0.39691138 0.06908024
000240 37 a2 c0 bf 8d 13 34 bf 48 fb cd 3d 71 ff 95 3e
       -1.5049504 -0.7034233 0.10057694 0.2929645
000250 39 c5 73 bd 96 13 be be f5 c4 7b 3e 6d 18 b1 be
       -0.059514258 -0.37124318 0.24586852 -0.34588948
000260 1f 57 1f be f5 8b c1 be a3 0a ea bc e5 eb a1 be
       -0.15560578 -0.3780209 -0.028569525 -0.31625286
000270 44 f4 9f 3e 6e 08 9e 3e 9e a8 74 be 99 84 b0 be
       0.31241047 0.30865806 -0.23892447 -0.34476164
000280 68 28 c3 3f 84 81 f3 3f 04 af 66 3d b7 0a dc be
       1.5246706 1.90239 0.05631925 -0.42976925
000290 3c 26 94 3f de fc 27 c0 9e f8 03 3b 95 c7 a5 b8
       1.1574168 -2.6248088 0.00201372 -7.904988e-05
0002a0 4b 5b d9 be 77 aa 17 bc a3 91 bf 3e ef 44 35 bd
       -0.42452464 -0.009256951 0.374158 -0.044255193
0002b0 6f 17 ce 3e 7a 80 bc 3d 1e 68 5d be 3f cb 89 be
       0.40252253 0.092041925 -0.21621749 -0.26912877
0002c0 82 8f a6 be 32 33 de bc 86 1b 18 3e e5 f5 cf be
       -0.32531363 -0.027124021 0.1485425 -0.4061729
0002d0 d3 b0 fb 3d 42 25 c4 3e 6c 78 59 bd dd ba d7 be
       0.12289586 0.38309675 -0.05309336 -0.42134753
0002e0 2e 9c 9e be 9b 39 98 be 2d 2a b4 3f d1 a2 20 c0
       -0.3097853 -0.2973145 1.4075371 -2.5099375
0002f0 ad 8f b8 be d1 92 22 be 5f 47 a5 be e8 28 c8 bd
       -0.36047116 -0.15876319 -0.32281014 -0.09773427
000300 b9 30 73 be ec f9 af be 85 d0 68 3e a3 a9 23 be
       -0.23749055 -0.34370363 0.22735794 -0.1598268
000310 28 52 67 3f aa 39 a4 c0 e1 37 c9 be 0c 21 30 be
       0.90359735 -5.132039 -0.39300445 -0.17200106
000320 38 80 45 ba 06 b9 89 37 4f 47 21 bf 4b e0 ca bf
       -0.00075340597 1.6417831e-05 -0.62999433 -1.5849699
000330 a7 f4 da 3e 76 8e a4 bd 9f 88 b8 be aa 1c 1b 3d
       0.4276478 -0.08034985 -0.36041734 0.037869133
000340 0b 45 bf be e4 d1 71 be b9 8e ba c0 d9 67 25 3f
       -0.37357363 -0.23615223 -5.829922 0.64611584
000350 fb 75 f1 bd 40 84 54 be 7d b8 ff 3d 67 b0 a7 be
       -0.11790081 -0.20753574 0.1248636 -0.32751772
000360 e8 ed 2b 3e 35 4d c5 3e 03 9a 26 be 30 d5 bf be
       0.16789973 0.38535467 -0.16269688 -0.37467337
000370 e0 34 1e 40 f9 ac 01 40 0b a9 9e be c1 b4 94 3e
       2.4719772 2.0261824 -0.30988345 0.29044154
000380 1d fb 95 40 d1 fd 00 3f c7 14 81 3e 60 23 b1 3e
       4.6869035 0.50387293 0.25211164 0.345973
000390 db e9 10 c0 26 56 02 c0 a6 eb e8 bf 36 b3 08 c0
       -2.2642734 -2.036508 -1.8196914 -2.1359382
0003a0 8c 34 c5 be f9 06 11 3e 06 e2 8b be 41 fb a9 be
       -0.38516653 0.14162816 -0.2732088 -0.33199504
0003b0 a7 44 16 bb 2a 35 9d 39 be b6 c2 3e 83 ba 0c 3e
       -0.0022929104 0.00029984984 0.38030046 0.13743024
0003c0 b5 8d 43 be 52 5c c2 3e 30 bd cf be d1 a7 15 be
       -0.19097026 0.3796106 -0.40574026 -0.14614798
0003d0 0f 2a b5 3e 5d 02 8a 3e 48 e3 44 3f 90 dd 80 c0
       0.3538365 0.26954928 0.76909304 -4.027046
0003e0 ce 53 91 3e 2a 1a 91 bd b2 b8 4c bf 1a 4e d4 bf
       0.2838425 -0.070850685 -0.7996932 -1.6586335
0003f0 9b c2 b8 be 0e e0 67 3e dd f0 84 bd 6e b7 de 3e
       -0.36085972 0.22644064 -0.064912535 0.4349932

conv_spatial.mlp.2.weight f4 [256, 256]
000000 8d 13 18 3e 8f b5 b8 3d 3d 80 7a bd ce b5 c1 3d
       0.14851208 0.090190046 -0.061157454 0.094585046
000010 9a 4e 9d bd 8c 56 39 3d 45 57 c8 be 3f 3b 99 bd
       -0.07681008 0.045248553 -0.3912908 -0.074820034
000020 dd 79 5d 3f fb 9d 9b bd 16 1a 82 3e 9e 8c 09 3d
       0.86514074 -0.07598492 0.25410527 0.03358137
000030 e3 49 1d 3e c1 10 07 be 2f 65 0e bc 27 94 15 bd
       0.15360217 -0.13189985 -0.008691116 -0.036518242
000040 c2 1b f3 3e da ec 0c 3d 47 b3 66 bd 25 43 8e 3e
       0.47482115 0.034405567 -0.056323316 0.27785602
000050 87 38 2d bd a1 d2 b8 3e 30 8a af bc 2b f0 84 be
       -0.042290237 0.36098197 -0.021428198 -0.25964484
000060 0c c2 7b bd 43 5b 54 3e 24 03 80 3e 0d ff ae be
       -0.061464354 0.20737939 0.25002396 -0.34178963
000070 39 7b b7 bc f4 1f 61 bf 45 be 0e 3c 14 94 1a be
       -0.022397624 -0.8793938 0.008712356 -0.1509555
000080 d8 52 0f 3e 79 a4 8c 3f 8e 55 b6 be 1b 4f 47 3e
       0.13996446 1.0987693 -0.35612148 0.1946377
000090 e8 41 2f be 28 71 c9 be 85 e3 8c 3f f0 82 57 be
       -0.17114985 -0.39344144 1.1006933 -0.21046042
0000a0 8a c6 8a bf 36 d0 e5 3d 2b c4 fd bd f1 8d 1f 3e
       -1.0841839 0.11221354 -0.12390932 0.1558149
0000b0 ec d1 20 3e a1 13 59 3f 30 3b c2 be 1c 39 c6 3e
       0.15705079 0.84795576 -0.3793578 0.38715446
0000c0 86 0e 37 3f 21 d8 5c be 52 7c 89 bd 82 b2 47 be
       0.71506536 -0.21566822 -0.06713165 -0.19501689
0000d0 5d 19 06 3d a9 ff f6 be 7f 79 df 3b 3c 0f b5 be
       0.032739032 -0.48241928 0.0068199034 -0.35363185
0000e0 ec e9 d6 3e 84 ef 39 3f 64 07 b5 3d a8 af 1f bd
       0.41975343 0.72631097 0.088393 -0.03898588
0000f0 ff 5b 39 be ac fd 3c 3d 53 b0 53 bd 00 38 fe 3e
       -0.181015 0.046140358 -0.051681828 0.496521
000100 ba 8b 23 be f0 ce b6 3d 67 bd 2c 3d fe e0 0f bd
       -0.1597127 0.08926189 0.042172816 -0.03512668
000110 2a 42 10 be 90 d3 a6 be 7e de 13 bd 69 7b a3 be
       -0.1408774 -0.32583284 -0.036100857 -0.31930092
000120 df 98 61 3b 4e 3a 2f 3c 47 da 2a 3c 29 ef cb 3e
       0.0034423394 0.010695053 0.010428018 0.39830902
000130 73 05 0e bd e0 15 58 3d 84 f2 eb 3d 21 72 a0 bd
       -0.034673166 0.052755237 0.115208656 -0.07834268
000140 69 29 a5 bc 4c ad 45 3e 74 4e e3 3d ed 5c 03 bd
       -0.020161347 0.19304389 0.11098948 -0.032071043
000150 49 87 69 be f9 5f 88 3e 09 64 37 3e db a3 e3 bc
       -0.22805513 0.2663572 0.17909254 -0.027788093
000160 48 a3 23 be 32 d9 60 3e c3 b7 5a bd ad 6c 89 3d
       -0.15980256 0.21957853 -0.053397905 0.067101814
000170 78 73 e2 bd b6 db 1a 3e 6d d1 91 bd 10 6d 07 be
       -0.1105718 0.15122876 -0.07120023 -0.13225198
000180 77 0c 79 bd 04 0b cd 3e df f1 54 bd 28 1a c3 bd
       -0.060802903 0.40047467 -0.05198848 -0.09526473
000190 7d ba aa 3d fc ee a0 bc ca 73 cb 3e d5 7c 99 be
       0.08336351 -0.019645207 0.39736778 -0.29978052
0001a0 3b 5f 60 bd 37 4e 0c 3e b7 88 be bc 8a a5 37 3e
       -0.05477832 0.13701712 -0.02325855 0.17934242
0001b0 b4 7f 5a bd 82 5c 38 bd 0d fe d2 bd 17 f4 49 bf
       -0.053344443 -0.045010097 -0.103023626 -0.78888077
0001c0 b2 0d a9 bd ee 71 b5 3b 60 6e dd 3d 11 75 84 3d
       -0.08254565 0.005537263 0.10812068 0.06467641
0001d0 e8 73 e1 be 2c 13 e9 bb 28 de 1c bd b1 ea 4d 3e
       -0.44033742 -0.007112881 -0.038297802 0.20109059
0001e0 91 b4 81 be 54 88 44 be 2f 2c a9 3d e7 b1 2f bc
       -0.25333074 -0.1919263 0.082603805 -0.010723568
0001f0 28 cd b0 3e 50 fc 67 bd 91 bb 6b bf 07 bc 63 be
       0.34531522 -0.05663711 -0.9208308 -0.22239695
000200 ea cd 42 bd 6c e5 1f 3d 5f 7c 29 3f 85 da fa 3e
       -0.047559656 0.039037153 0.662054 0.48994842
000210 01 04 91 3d 4d 59 27 be f8 fd 29 bf d5 19 c4 bd
       0.07080842 -0.1634266 -0.6640315 -0.095752396
000220 c7 2f a3 3e 6c ed c4 3d 83 0d 8b be b0 b7 5f bf
       0.3187239 0.09615597 -0.27158746 -0.8738966
000230 ea 31 00 be c4 91 5b 3b 08 35 30 3e dc 63 cf bd
       -0.1251904 0.003350363 0.1720773 -0.101264685
000240 93 58 8e be 36 95 87 bd c5 ca 8a bd a2 20 af bd
       -0.27801952 -0.066202566 -0.067769565 -0.08551146
000250 3c 66 0c bf a6 9c ce bb 58 bd 33 3e 2e 56 15 bc
       -0.548435 -0.006305295 0.17552698 -0.009114785
000260 8f a4 66 3d 6c 00 45 bf 05 77 09 be 0d 3f ff bd
       0.05630928 -0.7695377 -0.13424309 -0.12463198
000270 ea 90 d6 bd 7d 29 b3 3e 74 48 f9 3d 4c 26 08 bf
       -0.10476859 0.3499259 0.121720225 -0.53183436
000280 84 ac e5 3c 91 06 4b 3e 1a 2a 25 3e 0d 8a 86 bf
       0.028036363 0.19826724 0.16129342 -1.051088
000290 32 0d 18 3e fd 3a e1 bc 8b f6 08 bd 1f d8 85 3e
       0.14848784 -0.027493948 -0.033438247 0.2614145
0002a0 e3 f2 30 3e 74 92 5a 3e 1e 08 14 3e bd fe 21 3d
       0.17280154 0.2134493 0.14456221 0.039549578
0002b0 bd 11 36 3d d9 b4 72 3e 6f 39 de bd 99 93 89 bf
       0.04445051 0.237018 -0.10850798 -1.0748168
0002c0 d7 1e 7a 3e 17 64 ff bc 9a 4a f6 3d 18 ca a7 3e
       0.24425827 -0.031175656 0.12025948 0.32771373
0002d0 ce 77 71 3e 58 c9 06 bf ac 02 3a be 0f 5f f8 be
       0.23580858 -0.52650976 -0.18165082 -0.48510024
0002e0 a5 11 7a bd 19 07 58 be d9 4f 43 3d 45 ac c8 bd
       -0.061051983 -0.21096458 0.04768357 -0.09798483
0002f0 ae d6 83 3e 34 f9 d9 3c 5b 90 73 bc ae b4 bd be
       0.25749725 0.026608087 -0.01486596 -0.3705191
000300 69 ca e6 3e 73 ef c7 ba 3e d9 22 bf 31 0d 32 be
       0.45076302 -0.0015253857 -0.63612735 -0.17387845
000310 86 e7 77 3e 99 69 16 3f 36 b6 6b be 41 da d3 3d
       0.24209413 0.5875488 -0.23018727 0.10344363
000320 f5 45 cf bd 27 c9 eb be 38 b1 de bc 60 4a 5a 3e
       -0.10120765 -0.46051905 -0.027184114 0.21317434
000330 a0 7c b8 3d 69 b0 66 3c 3a ae d4 3e 79 51 7e bc
       0.09008145 0.014080145 0.41539174 -0.015522354
000340 e3 b2 38 bc 20 9a 91 be 3e 0a 9a 37 38 08 a2 3f
       -0.011273119 -0.284379 1.8363e-05 1.2658758
000350 b2 38 34 bb 12 eb 2e be 93 e7 96 bc 47 f3 dc 3d
       -0.0027499613 -0.1708186 -0.01842097 0.10788589
000360 f2 4a 43 3e 96 c6 21 bf 7a 06 b2 3d ec cc 71 3d
       0.19071558 -0.63193643 0.086926416 0.05903332
000370 dc 50 cf bd 80 b4 2d be 23 f5 6a bd 5d 23 c7 3e
       -0.101228446 -0.16963387 -0.057362687 0.38894168
000380 f5 2d 75 3e a0 11 10 3e 82 50 88 3e eb 48 24 3f
       0.23943312 0.14069223 0.26623923 0.64173764
000390 f5 60 86 3d f9 40 e1 3c 6f bc 1b bf a6 2a 55 be
       0.06561462 0.027496802 -0.608344 -0.2081705
0003a0 bd 43 9f bd 5e d0 6c 3e ff 09 ca 3d da a6 4a 3e
       -0.07776592 0.23126361 0.09865188 0.19790211
0003b0 ce d5 1a 3f c5 24 8f bd 3e f1 35 3d 3d 7d 3a 3b
       0.6048249 -0.06989435 0.04441952 0.0028455995
0003c0 8c e8 9b be 76 6c a4 be df 2c 85 3e e3 7e e7 3e
       -0.30450857 -0.32114 0.26010796 0.45213994
0003d0 58 7f 76 bd 29 60 26 be 46 27 d1 bd ba 74 af 3e
       -0.06018004 -0.1624762 -0.10212569 0.34268743
0003e0 30 ff 69 3d 0e ea b4 3d 6f 58 5b 3e 53 9a 59 3d
       0.05712813 0.08833705 0.21420453 0.05312569
0003f0 a7 41 88 3e bf d5 1e be ff 13 59 3d 62 8b 7a be
       0.2661259 -0.15511225 0.052997585 -0.24467233

conv_spatial.mlp.4.weight f4 [2, 256]
000000 b1 eb 1b bf 6f d1 42 bf 03 48 a4 be 18 a2 ac 3e
       -0.6090651 -0.7610082 -0.3208619 0.33717418
000010 72 68 2c bf b9 38 9d 3f c1 6a 1e be 89 01 4d 3f
       -0.6734687 1.2282935 -0.15470411 0.8008047
000020 78 c4 45 bd 0d 1b 4e 3e 53 2b 92 be dc e2 bd bc
       -0.04828307 0.20127507 -0.2854868 -0.023179464
000030 c3 aa 68 3e af ef c7 3e b8 31 05 be ec 2a 09 3e
       0.2272139 0.39050052 -0.13007247 0.1339528
000040 b0 8d 0c c0 8a 5a 10 bf cb b5 34 be e9 28 83 bc
       -2.196148 -0.5638815 -0.17647474 -0.016010718
000050 0b 09 f9 be a4 ad 7f 3e e9 95 a4 be df 1c 9e bd
       -0.48639712 0.24968582 -0.32145622 -0.077203505
000060 2e 7a 5f be 57 b0 9c 3f 49 ed 69 bd 31 be ea 3c
       -0.21823952 1.2241315 -0.05711106 0.028655143
000070 3c a1 38 3f 25 4a 97 bc e5 eb 99 be ba 78 5c 3d
       0.72121024 -0.018467972 -0.30062786 0.05382607
000080 39 e8 1a 3f 5b 44 cb 3e b2 3b b3 be 77 c0 9e 3f
       0.60510594 0.3970059 -0.3500648 1.2402486
000090 ba c8 04 bf 35 e0 29 3f 4f 11 ae bf 17 72 0c 3e
       -0.51868784 0.6635774 -1.3599032 0.13715397
0000a0 24 13 c2 be d5 c7 f4 be e4 74 f9 bc 37 48 a6 be
       -0.37905228 -0.4780871 -0.030451246 -0.3247697
0000b0 f6 e5 07 3f d1 cb 27 bf 32 6e d1 be 70 d7 40 3f
       0.5308527 -0.65545374 -0.40904385 0.7532873
0000c0 b0 83 e5 be e4 b9 b5 3e 1f dc d0 3e e7 bd 6e 3f
       -0.44827032 0.35493386 0.4079294 0.9325852
0000d0 f7 76 31 bf 7a d8 e1 3d 01 2f 93 be 64 bf 1b be
       -0.6932215 0.11027618 -0.287468 -0.15209728
0000e0 27 78 f2 3e 12 d5 e3 be db 3f 22 be 6d c9 08 be
       0.47357294 -0.44498497 -0.15844671 -0.13358088
0000f0 7c e5 03 bf e3 3e 3b bf c9 78 d3 ba de 53 37 3f
       -0.5152204 -0.7314283 -0.0016134019 0.71612346
000100 18 65 8e bd dc 3b c1 3e a5 e1 8b 3e 4e 18 55 bf
       -0.06952876 0.37740982 0.2732059 -0.8324021
000110 f2 4d 18 be a6 1f 09 bd c8 c6 0d bd ab 05 94 3f
       -0.14873484 -0.033477448 -0.0346134 1.156423
000120 2e b2 83 3c ca f7 a6 3e eb d0 ba be 55 42 47 bf
       0.016076174 0.32610923 -0.36487517 -0.7783559
000130 2e ba 90 3e 87 36 92 be 20 ea 55 bf 7b 30 41 3f
       0.28267044 -0.28557226 -0.8356037 0.754646
000140 9f b4 6a bd 00 06 2d 3f 17 82 ff be ed cf d6 3e
       -0.05730116 0.6758728 -0.49903938 0.4195551
000150 93 f7 a5 3e a4 95 5d 3f 1f a1 1b bf 71 2d c1 3c
       0.32415447 0.8655646 -0.60792726 0.023581238
000160 1b 6a 3b bf fa 87 55 be 42 d5 24 bc f8 ec 40 3f
       -0.7320878 -0.20852652 -0.01006061 0.75361586
000170 36 1b 5b 3e dd c3 d6 bd 2d 74 cd be 56 21 2a 3f
       0.21397099 -0.10486577 -0.40127698 0.66457117
000180 c1 ac 97 3c 56 b8 0c 3f 2f 7a ed 3e 6a fe 62 bd
       0.018514993 0.54968774 0.4638228 -0.05541841
000190 b3 a1 0a 3f 64 e3 f6 be 81 28 06 bf 28 04 30 3f
       0.54152983 -0.4822036 -0.52405554 0.6875634
0001a0 67 5f 40 be 5d b1 da be 1c da e0 bf 1c 13 a6 bf
       -0.18786393 -0.42713442 -1.7566562 -1.2974582
0001b0 77 50 6a be 20 c7 93 3f 49 77 4b 3f dc c6 e5 3e
       -0.22882257 1.1545143 0.7947889 0.4487828
0001c0 59 92 af 3e ce 55 85 bd af 5a 41 3f 52 02 3c 3f
       0.34291342 -0.065105066 0.75529 0.7344104
0001d0 20 6c 93 3f 82 02 22 bd c6 81 12 bf e0 56 13 3f
       1.1517372 -0.039553173 -0.5722927 0.57554436
0001e0 e4 87 21 3f 41 35 3a 3e d5 9b bd 3e cf d3 b4 bd
       0.6309798 0.18184377 0.37032953 -0.08829462
0001f0 4c 6a 20 3f 26 4b ac be bc b6 69 bf 76 7a ab 3f
       0.62662196 -0.33651084 -0.91294456 1.3396747
000200 f9 38 c7 3e 25 d1 e9 3d eb ee 0f bf dc 05 31 bf
       0.38910654 0.11416844 -0.56223935 -0.69149566
000210 12 d4 4e 3f db 2a 8c be 6a 54 8c 3e a5 e1 17 bf
       0.80792344 -0.27376446 0.27408153 -0.5932868
000220 a1 1d a0 bf 03 0a 49 3f 01 4e 3a 3e af f1 18 bf
       -1.2509042 0.785309 0.18193819 -0.5974378
000230 9f 7b 74 bf c2 49 a2 3f e3 03 10 3f 65 68 d1 3e
       -0.9550113 1.2678759 0.5625593 0.4089996
000240 1c 2c 13 3f 77 23 45 3f 49 4a 98 bd c6 bb a0 be
       0.5748918 0.7700724 -0.07436044 -0.3139326
000250 e9 f0 28 3e 0c 95 29 3f 4f 7a 88 be 26 80 df 3e
       0.1649815 0.6624305 -0.26655814 0.43652457
000260 21 a4 18 bf 08 33 8c 3e 78 fa 1a bf 6e 63 4e bf
       -0.5962544 0.27382684 -0.60538435 -0.8062047
000270 5c 3e ce be 09 6a 02 3e 0c 80 9d 3f 85 b1 52 bf
       -0.4028195 0.12735762 1.2304702 -0.82302123
000280 cc 08 6d bf d8 74 3b 3f 8f 1f 16 bf ff 0c fd be
       -0.9259155 0.73225164 -0.58641905 -0.49423978
000290 91 32 a4 3c 08 27 ac be c6 70 83 be a2 df 1f 3f
       0.020043643 -0.33623528 -0.25671977 0.6245061
0002a0 f6 89 10 3f 8b af c6 3e 7d d7 8d be 99 6a e3 3d
       0.5646051 0.38805804 -0.27703467 0.11104316
0002b0 bc e2 ec 3e 58 fe 09 bf 20 b7 c5 3e 26 1d 8d be
       0.46266735 -0.5390372 0.38616276 -0.275613
0002c0 5d 54 28 3f 0f 4c 2f bf 87 70 01 3f 31 ea 8c bf
       0.6575373 -0.6847543 0.5056233 -1.100897
0002d0 3e f5 44 3f 87 70 15 be ab 9d b9 be 88 58 1e 3f
       0.7693671 -0.14593707 -0.36253104 0.6185384
0002e0 96 20 db be 15 4f ab 3e 15 7c 14 3f 87 73 f7 3d
       -0.427983 0.33458772 0.58001834 0.12082582
0002f0 ec 5d ed be 44 57 b8 3e 10 76 db 3e 86 11 05 bf
       -0.4636072 0.36004078 0.42863512 -0.51979864
000300 68 84 5c be cc 86 13 3f 46 34 9e 3e 3f 22 3c bf
       -0.21534884 0.5762756 0.30899256 -0.73489755
000310 0d 9f 53 3f 59 b3 47 3e 83 ad f7 be dd 9b 2e 3e
       0.8266457 0.1950201 -0.48374566 0.17051645
000320 46 c2 44 3f 62 54 ea be 55 40 23 3e 6e 29 6f 3d
       0.7685894 -0.45767504 0.1594251 0.05838912
000330 fd d3 bd 3e 92 48 13 bf 82 39 16 3f 63 45 9c 3f
       0.37075797 -0.5753261 0.586815 1.2208675
000340 b5 55 dd be ba a3 cb bd 90 95 a8 bf eb 6f 83 3e
       -0.43229452 -0.09943338 -1.3170643 0.25671324
000350 90 93 00 3f 95 f9 7b 3e cf 05 66 bf be 1d 61 3e
       0.5022516 0.24606927 -0.89852613 0.21984002
000360 e6 c1 14 bf d9 44 a8 bd 81 c4 26 3f a6 a1 47 3f
       -0.58108366 -0.08216257 0.6514359 0.7798103
000370 16 dd 46 bf 5a c6 4f 3e bb 1f 17 bf c1 40 0b 3e
       -0.776811 0.20290509 -0.5903279 0.1359892
000380 ed b2 12 bf f0 65 43 bf 8c 43 ce 3e 36 e5 c1 3e
       -0.5730427 -0.7632742 0.4028591 0.37870187
000390 a6 b9 7a be 25 d2 11 bf 17 f5 f3 be 89 a7 b6 bd
       -0.24484882 -0.5696128 -0.47647926 -0.089186735
0003a0 2e 5e 9a 3e 09 a9 56 bf c1 f7 a7 3e 34 ed 4a 3e
       0.30149978 -0.8385168 0.3280621 0.19817048
0003b0 51 fc 50 be de 1e 95 3f 07 c5 ce 3d 55 db 9a be
       -0.20408751 1.1650045 0.10096174 -0.30245462
0003c0 97 ea 1b bf 92 d4 94 bf c8 0d 11 3e 01 3d e2 3e
       -0.6090483 -1.1627371 0.14165413 0.44187167
0003d0 62 cb 92 3c 64 3d e0 3d 43 1e 9d bf b0 d2 96 be
       0.017919246 0.10949209 -1.227486 -0.29457617
0003e0 74 43 aa 3c 27 c3 9c 3e 29 d8 09 bf 5f c1 88 3f
       0.020784117 0.3061764 -0.5384546 1.0684012
0003f0 90 3a 2a bf e0 21 31 3f 5c 68 2a 3e 40 8b 02 3f
       -0.6649561 0.69192314 0.16641372 0.5099373
