logs/M3D27_wmd_debug_lr2e5_bs1024_tscale0005_r08_oddfunc/score.pt (torch, 730368 bytes, 9 tensors)

embed.0.W f4 [64]
00000000: 0118 4941 5659 5642 9ae4 91c1 5f4e e740
00000010: da39 2842 7c90 d441 c534 c8c1 9bfe b841
00000020: b0a5 9b41 ceae 8341 aa98 9cc1 46e1 cec1
00000030: d6c5 6fc1 d681 7bc0 cfc6 5142 e032 a0c1
00000040: bdd2 3e42 6979 3542 5a8d e641 a4af c3c1
00000050: 4acb bfc1 c8e2 b441 32b9 62c1 a9b2 23c2
00000060: 3502 62c1 6d27 8341 aa60 93c1 fd14 d2c1
00000070: ad95 2342 20a5 dac1 4f6a 76c2 3ce8 e6c1
00000080: 2016 d3c1 cdf9 0f42 baf2 3ac1 16a5 1541
00000090: 1bfd b941 a284 5241 bedb 8a42 c884 d4c1
000000a0: 0544 2042 55c6 443f 38ca 69c1 6d18 53c1
000000b0: 17ab b441 615d 0442 e998 8642 241c a0c0
000000c0: 6246 13c2 14ab 21bf 098f 9d41 1f7e 0942
000000d0: 93dc bf40 49ea 0b41 0946 20c2 e153 3540
000000e0: 2087 6042 e473 cec0 9cdc f1c1 62bf fdc1
000000f0: f78b 21c1 2be7 5241 34c4 2d42 5b6d 2b42
12.56836 53.587242 -18.236622 7.228317 42.056496 26.570549 -25.025766 23.12432
19.455902 16.460354 -19.574543 -25.859997 -14.9858 -3.9297996 52.44415 -20.024841
47.7058 45.368565 28.81902 -24.460762 -23.974262 22.610733 -14.170214 -40.924473
-14.125539 16.39425 -18.4222 -26.260248 40.896168 -27.330627 -61.603817 -28.863396
-26.385803 35.993946 -11.684259 9.352804 23.248587 13.157381 69.429184 -26.564835
40.066425 0.7686513 -14.61187 -13.193463 22.58354 33.09119 67.29865 -5.003435
-36.818733 -0.6315167 19.694841 34.373165 5.9956756 8.744699 -40.068394 2.8332446
56.131958 -6.451647 -30.23272 -31.718449 -10.096671 13.1814375 43.441605 42.856792

embed.1.weight f4 [128, 128]
00000000: 9a80 6cba b9f2 1ebd 8b16 1b3c 81e6 46bd
00000010: b395 c73c b331 b03c 1831 5abd 0f39 0a3d
00000020: 8eb1 cd3c 3007 0abd 5203 62bc 05b4 9ebd
00000030: e029 63bb c2e3 71bd c05b 9abd 73d3 17bc
00000040: 8fc0 993d 73c1 b13d 0ada 7dbd c1bf 913d
00000050: dca8 383d 5db5 133d 8644 8d3d 4697 9d3d
00000060: 456e 6d3d dcad 203d 954e 893d 0368 833d
00000070: 552c a63d ea2f bcbc 1363 65bd 7f2f ccbc
00000080: 783c 2abd 3c35 02bc d457 b0bd 3215 903d
00000090: 6b35 b3bd 7c5c 82bd 77be 48bd 2c95 623d
000000a0: 55f4 b43d 4ecf 00bd b9ae 8b3c 63b8 afbd
000000b0: b5b1 6fbd 1a71 acbd be53 1dbd b5d2 8fbd
000000c0: 9228 5dbd f85f 3bbd d71d ab3c fd23 653d
000000d0: b162 643d 76d0 2dbb 2b16 32bd a222 0e3d
000000e0: a536 b13c 40c8 a83d b72a 6b3d b003 33bd
000000f0: 83b1 213d c268 ba3c 995b 583d 367a ab3d
00000100: 1e39 87bc 2f17 30bd 190d c73c 22e2 f6bc
00000110: 2d8c b13d f1c2 65bd 426a 56bd 9065 06bc
00000120: edff 27bd 9b50 513d 665f 9f3d b0b3 79bb
00000130: ae72 183d a9d3 993b 4b3f 83bd 15df a93d
00000140: 0715 52bd 11b5 47bd 67c4 b43d 174c cc3c
00000150: 0d64 cf3c 7dc8 003d a83b 36bd 1e6d a8bd
00000160: 3508 8cbd 5e64 933d 815a 71bc dcff cf3c
00000170: c621 55ba 7941 48bd 8f28 89bc f2e1 87bd
00000180: d65d 26bc 3445 c7bc 37dc ab3d 38ac 863d
00000190: bde9 29bd c4a2 b13c 9f45 4bbc 64b5 293c
000001a0: 6db9 7fbd c146 8ebd f3da 263d 64ea 553d
000001b0: 1fd9 8c3c 105a 79bd a88f 8a3c 1626 743d
000001c0: 8309 993d 0c44 7f3d c26e 823d dd0f 2f3d
000001d0: 91ea 81bc 79e4 d9ba 0b97 a23b 7aeb 48bd
000001e0: 9fbb 90bd a4a4 293c 2ee5 443c 2bff 4c3c
000001f0: 3c83 a8bc af82 393d 5d9e 4bbd a9b3 093d
00000200: 9bfc 983d afc1 94bd 34ee 64bc 177f 07bd
00000210: 52b1 edbc 8b46 0dbd aa41 1dbc 9158 92bd
00000220: d63b acbd e132 00bd d908 59bd c413 8dbc
00000230: 3bcc f2bc 7f7b 38bd 918f 243c 4902 8bbd
00000240: 9bbf 2cbc 9095 8a3d fe49 70bd 9608 393d
00000250: 09b9 10bd 007f 183d 9241 803d 5acb 653d
00000260: e501 713a 742d c2bc 237b 653b 1796 9fbd
00000270: 9a38 48bd ac1b 7bbd 7df5 a0bd 6b48 b23d
00000280: e0a3 2cbd 1ffd 8fba faf8 893c 0f63 aabd
00000290: 432b 233d 4788 9b3d 6e4f 983d f839 7d3d
000002a0: 2d3e 45bd f499 e33b 40f3 5a3d c1af b0bd
000002b0: cb68 9a3c 5eff edbc a878 753d aafd 8d3c
000002c0: 20dd 26bd 7c30 0c3d 1bd4 cfbc c181 763d
000002d0: 5c31 8cbd 0bf6 0a3d 009f f2bc 407e 9abd
000002e0: 61be 69bb 6792 e63c 2501 f5bc 40ef cd3c
000002f0: 6333 4c3d f493 563d 9b8b ad3b df82 7a3d
00000300: c02a 5e3d 0561 d0bc 016a 6bbd 2239 5d3d
00000310: 4bc3 ad3d f80e 01bd d257 16bc 8418 b1bd
00000320: c4af 21bd 6c84 88bd d185 b0bd 34e8 83bd
00000330: a470 613b 0d68 423d 2ac0 afbc 8238 71bd
00000340: a6c4 a7bd 8092 2fbd 4add 2d3d ff10 2c3d
00000350: ca81 00bb 8402 1cbd 68c8 25bd 4ab4 a4bd
00000360: 5506 a53d 4d9a 593d cab2 ac3b 5a80 0fbd
00000370: 0d27 10bd 65ab 9abd bf4c 713d f81f 10bd
00000380: 8896 603d a459 8ebd 65dc 57bb 4a85 9e3d
00000390: 53f7 9e3d 70ec 0b3b e2db b6ba 6eaf 65bd
000003a0: 97ff f5bc 6aaf cdb9 5bf1 113d 7a92 163d
000003b0: dfe4 723d 36e7 1cbd 97c9 fdbc e595 5f3d
000003c0: 32e0 b13d ff0d 6c3d d091 88bd b125 b3bd
000003d0: 664d 063d 71ad c1bb 8dc1 a6bd 5495 90bb
000003e0: 54ec 613d b6fa 6a3d 1433 003c 557a 8a3d
000003f0: f73d de3c 5efc 91bd e26f 453d 6af6 8bbd
-0.00090218487 -0.038805697 0.009465824 -0.04855967 0.024363374 0.021508073 -0.053269476 0.03374582
0.025109079 -0.03369826 -0.013794737 -0.0774918 -0.003466241 -0.059055097 -0.07537031 -0.009266722
0.07507431 0.08679476 -0.061975516 0.07116652 0.04508291 0.036061633 0.068978354 0.07694869
0.05796649 0.039228305 0.067044415 0.06416323 0.081139244 -0.022972066 -0.056002688 -0.024924992
-0.041561574 -0.007947262 -0.08610502 0.07035293 -0.08750423 -0.06365296 -0.049009766 0.055318043
0.08835665 -0.0314477 0.017051088 -0.08580091 -0.058519084 -0.0842001 -0.03840994 -0.07022611
-0.05399377 -0.04574582 0.020888252 0.055942524 0.055758182 -0.0026521957 -0.043478172 0.034700997
0.021632502 0.0824132 0.057413783 -0.04370469 0.03947593 0.02275503 0.05282173 0.08372919
-0.016506728 -0.04299086 0.024298238 -0.030137125 0.086693145 -0.056094114 -0.05234743 -0.008202925
-0.041015554 0.051102262 0.07781868 -0.0038101487 0.037218742 0.0046944213 -0.064085566 0.08294503
-0.051289584 -0.048756663 0.08826523 0.024938626 0.025316263 0.0314412 -0.044490486 -0.082239375
-0.06837503 0.07196878 -0.0147310505 0.025390558 -0.0008130338 -0.048890565 -0.016742973 -0.066348925
-0.010154208 -0.02432499 0.08391612 0.06575817 -0.041482676 0.021684058 -0.012406736 0.010358188
-0.062432695 -0.06947089 0.04073615 0.052225485 0.017193375 -0.060876906 0.016914204 0.059606634
0.07472517 0.062320754 0.063687816 0.042739738 -0.01585892 -0.0016623876 0.0049618534 -0.049052693
-0.07067036 0.010354195 0.012017531 0.012512009 -0.02057039 0.045290645 -0.049711574 0.033618603
0.07470056 -0.07263505 -0.013972808 -0.033080187 -0.029015217 -0.034491103 -0.009598175 -0.07145799
-0.0840985 -0.031298522 -0.052986953 -0.017221339 -0.0296384 -0.04503965 0.0100439945 -0.06787545
-0.010543729 0.06766808 -0.058664314 0.045174204 -0.035332713 0.03723049 0.062625065 0.056102134
0.0009193703 -0.023703314 0.0035016022 -0.07792299 -0.048882104 -0.061305687 -0.07859323 0.08705219
-0.04214847 -0.001098547 0.016842354 -0.08319675 0.03983618 0.07594352 0.07437025 0.06182286
-0.048155 0.006945843 0.053454638 -0.086272724 0.018848797 -0.029052433 0.05992952 0.01733287
-0.040738225 0.034225926 -0.025369694 0.060182337 -0.06845352 0.03392605 -0.029616833 -0.075436115
-0.0035666453 0.028145982 -0.029907772 0.025138497 0.049853694 0.052387193 0.0052961833 0.061159965
0.05423999 -0.025436888 -0.05747414 0.054009564 0.08484515 -0.031508416 -0.009176211 -0.08647254
-0.039474264 -0.066658825 -0.086192735 -0.064407736 0.0034399414 0.04746251 -0.021453936 -0.05889178
-0.081918046 -0.042864323 0.042447366 0.042008396 -0.001960861 -0.038088337 -0.040474325 -0.080422
0.08057848 0.05312567 0.0052703368 -0.035034515 -0.03519349 -0.07552222 0.05891108 -0.035186738
0.054831058 -0.06950691 -0.0032937762 0.077402666 0.07762017 0.0021350645 -0.0013951028 -0.056075506
-0.030029101 -0.0003923134 0.035630565 0.036760785 0.0593003 -0.038306437 -0.030979915 0.05458631
0.0868534 0.057630535 -0.066684365 -0.087474234 0.032788657 -0.0059105684 -0.08142386 -0.0044123325
0.05515702 0.057368003 0.007824678 0.06761614 0.027129157 -0.07128213 0.048202403 -0.06834109

embed.1.bias f4 [128]
00000000: b78b 2b3d 0a0b a6bd 85da 0f3d 7b92 8f3d
00000010: 9397 a4bd 2ce1 83bd 6f9b 813d d384 463b
00000020: 17a2 123c cd21 adbd dd12 863d cb8b 6abc
00000030: 2971 8ebd 5951 773d 2142 863d f744 5bbb
00000040: 9132 553c 30eb 9ebd 459d 8b3d 6682 0c3d
00000050: bc13 90bd 52e8 9abd f032 9bbc 837b e13c
00000060: b6ea 80bd 5496 02bc 6263 543c f743 a83d
00000070: fa59 1cbd 0968 843d 0278 703b dda6 a73c
00000080: 1ae2 473d 7012 963b 50ae b1bd 06a0 f5bc
00000090: b7e2 9d3d 9383 33bc bc33 4b3d 0186 3abd
000000a0: 5417 2e3d 547a 2dbd 7b78 92bc 9c5a 89bc
000000b0: 0505 9f3b b9a3 a9bd 2a2b 9a3c 3f04 efbc
000000c0: a87a 3ebd 0d1f 563c ffbc 35bd 878c a4bd
000000d0: d70d 9b3d bf8c 1abd a610 b7bc 974e 953c
000000e0: d03f 85bd 3e37 78bd 8e69 ac3d 7de8 303d
000000f0: b1b7 573d 7190 9cbd 6f0e 90bd 7711 2fbd
00000100: 885c a33d 0da8 973b 4234 853d ed44 123d
00000110: cfed e3bc 0c2c 64bd c7c7 533c 54df 19bc
00000120: b6c1 6c3d 6a5e d4bc 5178 afbd a861 1abc
00000130: b2b0 963c f59c 0dbd f561 8dbd 686c 85bd
00000140: ec07 93bd 12b6 63bd 9674 67bc 7c3a 8d3d
00000150: f3ba a7bd 3c10 833d 6383 57bc 2d98 21bd
00000160: f5ee 35bd 5fed 38bd cfb9 8cbd 915e 4c3d
00000170: 57c4 513b faf2 e8bc 611a b6bc a132 453d
00000180: 9ac2 b63b a995 1abd c188 f53c fc8c 5a3c
00000190: 7dda 9e3d 9a79 95bd e6ec 2dbd dc13 a83d
000001a0: 5840 cfba 5d49 8f3c 5881 373a 2e79 df3b
000001b0: 0f42 133d b5aa 7f3d 9bd8 743d eb92 893d
000001c0: 4fe9 903d 8c15 69bd fa4e 3dba 8120 8bbd
000001d0: 49b0 0ebd 1a0c 5abd 6184 923d cfc0 3f3c
000001e0: aacd 8bbd 0c32 fdbc 72ba 843c b3fe a63d
000001f0: 5871 81bc e4ce 843d 78c7 8cbd 5ef7 113c
0.04188129 -0.08107574 0.035120506 0.07010361 -0.08036723 -0.064394325 0.06328475 0.0030291572
0.008949778 -0.084537126 0.06546567 -0.014315556 -0.06955177 0.060380314 0.06555582 -0.0033457854
0.013012544 -0.07759702 0.06817106 0.034304045 -0.07035014 -0.07563843 -0.018945187 0.027524715
-0.062947676 -0.007970411 0.012963148 0.08216088 -0.038171746 0.06465156 0.0036692624 0.020465309
0.04879961 0.0045798346 -0.086758256 -0.029983532 0.07709258 -0.010956663 0.049609885 -0.045537952
0.042502716 -0.04235299 -0.017879715 -0.016766839 0.0048528933 -0.08283181 0.01881941 -0.02917683
-0.046503693 0.0130689265 -0.044369694 -0.08034616 0.07570999 -0.037731882 -0.022346806 0.018225951
-0.06506312 -0.060599558 0.084185705 0.043190468 0.052665416 -0.076447375 -0.07034003 -0.042741265
0.07976633 0.0046281875 0.06504108 0.035710264 -0.027823357 -0.05570607 0.012926049 -0.0093916245
0.057801925 -0.025923926 -0.085678704 -0.009422697 0.018394802 -0.034573514 -0.069034494 -0.065148175
-0.07179245 -0.055593558 -0.014126917 0.06895921 -0.081899546 0.06399581 -0.013153884 -0.039451767
-0.04441734 -0.04514825 -0.06871378 0.049894873 0.0032007897 -0.028436173 -0.022229375 0.048143987
0.0055773975 -0.037740383 0.029972436 0.013339277 0.07756517 -0.07298584 -0.042462252 0.08206913
-0.0015812023 0.017491037 0.000700017 0.0068198657 0.03595167 0.06241866 0.059776884 0.067174755
0.0707575 -0.056905314 -0.0007221546 -0.06793309 -0.034836087 -0.053234197 0.071541555 0.011703684
-0.06826337 -0.030907653 0.016202185 0.08154049 -0.015801117 0.06484774 -0.06873983 0.008909075

embed.3.weight f4 [256, 128]
00000000: c2ab 553d 35d3 9cbd 8264 1abd 2e8f bfbc
00000010: 77f9 b4bd b370 9f3d 3191 e93c 68e4 f6bc
00000020: 70bc 9bbd 5bf8 8e3c 1732 a9bc a6d6 20bd
00000030: 5bfa 363d 0675 70bd bf48 ef3b ff1b 393d
00000040: 1536 d93b 3817 96bd 0923 223c 581c a3bd
00000050: 817c 55bd 111b 933d 8416 9abd 698d 9dbd
00000060: 0042 a73d aed8 2bbd db2a d9bb 280a 983d
00000070: 2daa 5cbd c1d1 553d 0b94 9ebd 94c0 a8bd
00000080: 9e9b 33ba d00d 3f3d 7fc3 003d ec12 913d
00000090: 2871 a73d f157 0abd b798 a53d 2021 39bd
000000a0: e239 203d cfa0 3c3c fe14 933d ad21 28bc
000000b0: f3b1 02bc b21c ab3d 8d50 05bc 5a0b 5c3d
000000c0: 61d9 203d 5476 dbbc a2b0 dd3c 2918 2dbd
000000d0: f70a 5a3d 7133 8dbd 7008 03ba 48c7 0f3d
000000e0: ce0e a33d 26f3 8b3d 34a3 79bc 7e3c 803b
000000f0: 91d8 e03c 5c81 32bd 4358 4dbb d275 6ebd
00000100: e7e2 82bd add4 a63d 311b 80bc 3b7c 3d3d
00000110: 747e 803d 5748 9dbc 10e2 9e3d 0c4a 86bd
00000120: dd91 78bc 8615 91bd d3c7 74bd e823 53bd
00000130: 7bab 163c 616d 033b 3297 36bd d751 413d
00000140: 3455 87bc 2860 2c3d 9cdf aebd 648e 9b3d
00000150: 77cc 933d bea0 09bd 2029 823d d42c 063d
00000160: 8740 a33c 25b7 303c ec35 b0bc ba93 c43a
00000170: 8bda d6bc be86 883d 8d19 94bd 79f0 65bd
00000180: ff3b 473d 4e57 313c 6ee7 5ebd 39b2 2f3c
00000190: ab5d 0d3d 85d9 a2bd b1b7 09bd 3c74 953d
000001a0: 12d4 73bd b3c5 9abd 4729 d23c b336 663b
000001b0: 1a97 96bd a7d4 a23a a469 343d 7df5 7a3d
000001c0: eb4c 593d b585 6cbd ae47 a53b 196c 463d
000001d0: dd38 99bd d0cc 363c c3fb 70bd f66f 94bd
000001e0: dbdc a1bc 05f3 aa3d 97cc 603c 6e8c fc3c
000001f0: bc0d 283d 8c25 a3bc c419 aa3d 78f2 92bd
00000200: 5348 3f3d 2002 b43c b3ab 23bc c1c3 acbd
00000210: 3b76 a13d 6025 81bc be0e 7ebd a554 803c
00000220: 43e1 9d3d da5f 88bd ca3d 9c3d 9c46 96bc
00000230: ab7b d03c 2ce7 1d3b 065c 0d3d 54e6 8abd
00000240: 1258 aa3d 005d 0ebd d99d 683d 8e49 ae3d
00000250: 78ee adbc 3ce1 22bd d584 0ebd 48b9 70bc
00000260: 319c 09bd 057d a13d 1781 d73c 4727 d0bc
00000270: 90d8 91bc 2b71 813c 62f4 7a3d 0b83 a7bc
00000280: 15c8 edbc a295 e5bc 9b1a 96bd 5c5b aebd
00000290: 24a2 9a3d 06e0 6f3d 6a8f 0cbd cba9 5fbb
000002a0: e897 4abd 1689 cf3c 0466 2e3d c32f eebc
000002b0: 8173 84bd b592 473d 1917 a3bc 88e8 1b3d
000002c0: 518c 28bc 7812 f9bb c4ef a23d 19bb 02bc
000002d0: 1dbc 333d 75d2 6dbd ef7a 933d 7636 673d
000002e0: 90fb 313d f55d 52bb d16f 0e3c df81 a3bc
000002f0: b341 b8bc 0f3c f43b 8725 b4bd bf44 3fbd
00000300: 7af5 313a 6354 07bc 0b27 6a3d 93cd c93c
00000310: 2c85 84bd 0972 0c3c 68e5 733d 51d5 9d3b
00000320: c8af b0bd 66e5 51bb 5887 a33d 2ca6 df3c
00000330: ed75 733d 173c d5bc 649a ecbc a5d3 723d
00000340: 18e9 91bd 7728 5abd 4689 36bd cd96 44bd
00000350: 6bad 28bb d2c7 843d 7021 89bd cde6 a53d
00000360: e901 b33c 451d 6dbd 755a 693d f0c0 053a
00000370: f033 8c3d d922 bdbc 3e0f 8dbd a51a 923d
00000380: 3e1b 143b f3b3 7ebd b28f 293d 37f1 af3d
00000390: 320c 9f3d c0fd ee3c 908b 273d 3577 90bd
000003a0: bb71 1c3d 1485 59bd 5c19 78bd d6f6 80bd
000003b0: 6f5f 96bd fe8d cfbc c5e0 44bd c86c 573d
000003c0: 7f0f 75bd abba 80bc 988f a3bd 559e 823d
000003d0: c50e 5dbd 1523 bfbb 4385 8cbb 17e7 403d
000003e0: 6df2 8c3d 18d4 a1bd 2ee0 1dbd ea5b 503d
000003f0: 4f7f 68bd fff9 e5bc 94cc 063b bba2 3cbd
0.052165754 -0.07657472 -0.037693508 -0.023383703 -0.08836644 0.077851675 0.028511615 -0.03013821
-0.07604301 0.01745241 -0.020653768 -0.039267205 0.04467235 -0.058705352 0.007302373 0.045192715
0.0066287615 -0.073286474 0.009896048 -0.079643905 -0.05212069 0.07182897 -0.07523826 -0.076929875
0.081668854 -0.04195469 -0.006627423 0.07423812 -0.05387323 0.05220199 -0.07743081 -0.08239856
-0.0006851497 0.046644032 0.03143644 0.07083687 0.0817588 -0.033775274 0.08085769 -0.045197606
0.0391177 0.011512949 0.07181738 -0.010261935 -0.007976997 0.083550826 -0.008136881 0.053721763
0.03926981 -0.026789822 0.027061764 -0.04225937 0.053233113 -0.06894577 -0.00049985107 0.03510216
0.07961808 0.06833486 -0.015236665 0.003913461 0.027447017 -0.043580398 -0.0031333126 -0.05821783
-0.063909344 0.081460334 -0.015637966 0.046261054 0.06274119 -0.019199533 0.07757962 -0.06557092
-0.015171495 -0.070841834 -0.05976088 -0.051547915 0.009196158 0.0020054209 -0.044577785 0.04719719
-0.01652012 0.04208389 -0.08538744 0.07595518 0.07216733 -0.03360056 0.063555 0.032757595
0.01992823 0.010785853 -0.021510087 0.0014997639 -0.026227256 0.06666325 -0.07231436 -0.056137536
0.0486412 0.010824038 -0.054419927 0.010723644 0.034513157 -0.07951645 -0.033622447 0.072975606
-0.059528418 -0.075572394 0.025654448 0.0035127818 -0.07353039 0.0012422994 0.04404606 0.061269272
0.05305187 -0.0577447 0.0050439453 0.048442934 -0.07481549 0.01115723 -0.05883385 -0.07247917
-0.019758632 0.083471335 0.013720653 0.03082868 0.041028723 -0.019915365 0.08305696 -0.071751535
0.046699833 0.02197367 -0.009989667 -0.084357746 0.07883879 -0.015764892 -0.062025778 0.015665362
0.07708981 -0.06658907 0.07628973 -0.018344216 0.025449594 0.0024094088 0.03451159 -0.06782213
0.08317579 -0.03475666 0.05679116 0.08510123 -0.021231875 -0.03976558 -0.034794647 -0.014692612
-0.03359622 0.07885174 0.026306672 -0.025409354 -0.01780346 0.015801033 0.061268218 -0.020448228
-0.02902607 -0.028025452 -0.07329293 -0.08513519 0.07550457 0.058563255 -0.034316458 -0.0034128304
-0.049461275 0.025333922 0.04257776 -0.029075509 -0.06467343 0.048723895 -0.019908475 0.038063556
-0.01028736 -0.0076010786 0.07955888 -0.007979178 0.04388057 -0.058062036 0.07201182 0.056448422
0.0434528 -0.003209946 0.008693651 -0.019959388 -0.022492265 0.0074534486 -0.0879622 -0.04669642
0.0006788593 -0.008259865 0.05716614 0.024634158 -0.06470713 0.00857211 0.05954495 0.004816689
-0.086272776 -0.0032027601 0.07984799 0.027300917 0.059438635 -0.02602963 -0.028882213 0.05928387
-0.07124537 -0.053261247 -0.044564508 -0.047995377 -0.002573813 0.06483425 -0.06695831 0.081006624
0.021851497 -0.05788924 0.056971032 0.00051022973 0.06845844 -0.023087906 -0.06887673 0.07133988
0.0022599245 -0.06218333 0.041396804 0.0859093 0.07765998 0.029173732 0.04090458 -0.07053987
0.0381944 -0.05310543 -0.06057106 -0.0629708 -0.07342421 -0.025336262 -0.04806592 0.052593976
-0.05982923 -0.01571401 -0.07986373 0.06377856 -0.053969163 -0.0058330395 -0.004288347 0.047095384
0.068821765 -0.07901782 -0.038543873 0.050868906 -0.056762036 -0.028073309 0.0020568715 -0.04605363

embed.3.bias f4 [256]
00000000: 0384 81bd c83a b43c 0892 98bd de8f 753d
00000010: 3771 963d 911e b43d 05a9 35bd 0488 fbbc
00000020: de4d b1bd f356 b1bd e26b 60bd 0162 823b
00000030: c420 423d 6412 8e3c 5a1c 82bc c09a 9fbb
00000040: df63 8a3d 11a4 10bd 9a2f b4bc 7d19 05bc
00000050: b948 90bd ed51 54bc 64a6 5bbd eb27 d03b
00000060: a680 e3bc bfe9 58bd 9c1d c2bc e7f6 e1bc
00000070: 9c26 4dbd cdd9 653d b6d2 0ebd 17f7 b1bc
00000080: 6efe 4bbd 7839 b6bc 751f 37bc 6a47 d3bc
00000090: 3e48 98bd 15d0 1bbd 0dd3 433d aec6 8abd
000000a0: fdb6 9abd 22a4 4f3d 37ba 6f3d 5de3 60bd
000000b0: baad 35bc 5d32 a1bd 9f03 6cbc 69dc 783d
000000c0: 96a1 56bd 70ca 49bc 5a9d 99bd 8a31 c2bc
000000d0: 4985 a53b 06fb 133d 01e3 0fbc 5d6e 053d
000000e0: bae4 b53c d539 1f3d 6481 bbbc 7599 6f3d
000000f0: 8d15 cdbc acff 8b3d 5f2c b23d c772 863d
00000100: f7cb 72bc b21a 4cbd ddee 92bd b390 ff3a
00000110: 3e2a 853d 8753 4ebd a278 1f3d 74fc 8d3d
00000120: cd4f 07bd 15e4 a8bd 4ef7 4f3d 5e40 59bd
00000130: 404c e03c 992b 4e3d 75d4 363c aaeb 9c3d
00000140: 0db3 b3bd de97 c7bc 1ff0 993c 8059 913d
00000150: 67e6 8f3d ec0e 49bd 1ebe 603d a27d a03d
00000160: d67b 853d 6604 a0bd d8a2 7fbd 0e69 b0bc
00000170: ee96 8cbd 5abe 2d3d 17d7 25bd 6e54 87bd
00000180: 3c90 f73c 70c0 6dbc 6323 593c fd9b efbc
00000190: 4637 5d3d 45e1 94bd 0382 2cbd 3bf7 7f3c
000001a0: 2d1c afbd f8c3 7abd 146e 81bd 15e0 a1bd
000001b0: 8611 0fbc 029f 01bd 8d64 993d 82c6 86bd
000001c0: 695d a73d e5b3 acbc 32e2 b43d 9583 aebc
000001d0: ce66 7b3d f477 26bc c5d3 fa3c 5267 92bd
000001e0: d063 1c3d e317 87bd 17bb 993a a841 94bd
000001f0: 3f4e 243a 2004 71bd 9f8f 193d fc49 493d
00000200: ce3f 76bc fde7 953d 9fbd 733c 288d 093d
00000210: 73f9 a9bd eedc 58bd 3695 e13c 16ce 8b3d
00000220: b0e5 1e3d f839 d1bc c379 a33d a6f9 833b
00000230: e112 40bc b3ca aabd 7a15 6c3d 3d8f 4dbb
00000240: fa5f 05bc 2c19 82bb 923f 1abd 7575 09bd
00000250: 0e17 a53d 5f15 a0bd 8cd1 bd3c 0dec 8a3d
00000260: 7ab2 0fbd 739d 813d ef3c f2bc c51e b33d
00000270: 4104 483c 0fdf a7bd ddbe a23d 4d1d b13d
00000280: f156 503c bf22 40bc 721c c93b b372 433b
00000290: 6bc1 aabd 0f0b ccbc 5094 babc a1fb 9fbd
000002a0: e4ae f13c a6b3 22bd 02a2 883c 3cc6 39bc
000002b0: 3d9a e73c 184c 393d 2637 5cbd ef70 82bd
000002c0: e496 9e3d df53 e1bc c80e 893d 7891 30bd
000002d0: 5c27 493d 13dc 85bc 4d9d b3bd d794 b63c
000002e0: 849f 553d dbb5 643d cfb4 adbd c478 253d
000002f0: 63a8 4dbd 90cc 9abb 4cca 8cbd 71b6 7f3d
00000300: 0e7c a53d 706c 94bd 379b 5a3c a4cc 1a3d
00000310: b3f2 253d 8e64 97bd 094f 90bc 43d4 2dbc
00000320: 9146 9c3d 2680 adbd d7ed 05bd 6eb3 37bd
00000330: 9d1f 8abd 6627 463c f203 843d 0f93 af3d
00000340: 5a81 4f3d 8ada 0bbc f2ec 823d 39f7 d23b
00000350: 3084 503d e448 edbc 47d1 62bd 9765 9a3b
00000360: 000c 02bc 4bad 773c fcaf 7c3d 3d23 8c3d
00000370: be7f 4cbd d955 a83d 3ad4 92bd 3790 f23c
00000380: 6754 873d dac7 4f3d eb12 c5bc 61f2 21ba
00000390: 9181 883d a995 3a3d 79a9 b43d e1d7 72bd
000003a0: 7b03 8a3d 0643 b0bc 6e1e 173c 326a 85bd
000003b0: a359 a33d 1b0b 3dbd 61bd 4b3d b674 f13c
000003c0: 4bae 613c 3c29 813d 77b1 083d 9da5 94bd
000003d0: aa4f 7ebd 1100 8f3b 2c7b 473d 8946 3fbd
000003e0: da82 2a3d 8ae0 b3bd af8b 77bd 35cd 9cbd
000003f0: eac6 9b3d fd1c ab3d 3513 34bc 7543 9e3d
-0.06324007 0.022000685 -0.07449728 0.059951656 0.07345813 0.087948926 -0.044350643 -0.030704506
-0.0865743 -0.08659162 -0.054790385 0.003978968 0.04739453 0.017342754 -0.01588266 -0.0048707426
0.0675733 -0.035312716 -0.021995354 -0.008123753 -0.07045121 -0.012958986 -0.05362548 0.006352415
-0.027771305 -0.052957293 -0.02369576 -0.027583553 -0.05008565 0.056115914 -0.03486892 -0.021724267
-0.04980319 -0.0222442 -0.011176934 -0.025790889 -0.07435654 -0.03804024 0.047808696 -0.067761764
-0.075544335 0.05069364 0.058527198 -0.05490433 -0.011088783 -0.07870934 -0.01440516 0.060757075
-0.052400194 -0.012316331 -0.075007156 -0.023705263 0.005051289 0.036128066 -0.008782149 0.032575954
0.022203792 0.038873512 -0.022888847 0.058495957 -0.02503469 0.06835875 0.08699869 0.06564861
-0.014819137 -0.049830146 -0.07174466 0.001949808 0.06502198 -0.050372627 0.038933404 0.06932917
-0.03303509 -0.08246628 0.050772958 -0.0530399 0.027380109 0.050334547 0.011159052 0.07662137
-0.087743856 -0.024364408 0.018791256 0.07097149 0.07026368 -0.049086496 0.05486881 0.078364626
0.065177605 -0.07813339 -0.06241116 -0.021534469 -0.06864725 0.04241786 -0.04048833 -0.066079006
0.030220143 -0.014511213 0.013253066 -0.029249186 0.05400779 -0.07269529 -0.042116176 0.015622909
-0.08550296 -0.061222047 -0.06319824 -0.079040684 -0.008732205 -0.031645782 0.07489882 -0.06580831
0.081721134 -0.021081874 0.08832206 -0.021302978 0.06137734 -0.010160435 0.030618558 -0.07148613
0.038181126 -0.06596353 0.0011728731 -0.072390854 0.0006267763 -0.058841825 0.037490483 0.049142823
-0.015029861 0.07319639 0.014876752 0.033581883 -0.08299532 -0.05294507 0.02753697 0.06826417
0.038793266 -0.025540337 0.079822086 0.004027563 -0.011723251 -0.08339443 0.05763767 -0.0031365894
-0.008140558 -0.003970286 -0.03765828 -0.03355928 0.08061038 -0.07816576 0.023171209 0.06783304
-0.035082318 0.06328859 -0.029570071 0.08746103 0.012208045 -0.08196842 0.079465605 0.08648167
0.012716041 -0.011727034 0.006137424 0.0029823005 -0.08337673 -0.024907617 -0.022775799 -0.07811666
0.02950234 -0.039722107 0.016678814 -0.011338767 0.028271789 0.045238584 -0.05376353 -0.063691966
0.07743624 -0.027505813 0.066922724 -0.04310748 0.0491098 -0.016340291 -0.08770237 0.02228777
0.05215408 0.055837493 -0.08481752 0.040398374 -0.050209414 -0.004724093 -0.068745226 0.06242985
0.08080302 -0.07247245 0.01334267 0.037792817 0.04051466 -0.07392226 -0.017615812 -0.010609689
0.07630647 -0.08471708 -0.032697525 -0.04484885 -0.06744311 0.012094354 0.06446065 0.08572971
0.05066047 -0.0085359905 0.0639285 0.0064381626 0.050907314 -0.028965421 -0.055375364 0.0047118175
-0.007937431 0.015117 0.06169127 0.06842659 -0.049926512 0.08219499 -0.07169385 0.029609783
0.06607895 0.050727703 -0.024056872 -0.000617778 0.06665338 0.045552883 0.08821387 -0.05928791
0.06738945 -0.021516334 0.009223564 -0.06514396 0.07976081 -0.04615317 0.049741153 0.029474597
0.013774465 0.06306693 0.03337237 -0.07258151 -0.062087692 0.0043640216 0.04870145 -0.046698127
0.041628696 -0.08783062 -0.060435947 -0.07656328 0.07606299 0.083551385 -0.010990907 0.0772771

conv_spatial.mlp.0.weight f4 [256, 2]
00000000: 48bc 5c3e 22e6 9f3e 011c 293e cd67 d33e
00000010: 6361 8b3e 2c8b 403e df91 b1be 4292 553e
00000020: cac3 5ebe 7d3d 7f3e 2665 d63e b403 973e
00000030: f789 b6bd c892 e6be 41ec 38be b97e 9b3e
00000040: d735 c03e e07e 1b3d f6d6 e93e 8bb8 dd3b
00000050: 600a ce3e b72f b03e 7265 c6be 0a33 073e
00000060: 1c24 713e 990e c5bd 0f31 283d 86df d6be
00000070: b6c3 343d a6f7 d63e 39e7 04be 1e31 483e
00000080: 1439 953e f2f2 cfbe 64d8 943e 6c6f a8be
00000090: c248 92be 97a6 793e 9295 b4be ebaa 43be
000000a0: 40d3 edbd 8b01 923e f622 b0be 3b4f 633e
000000b0: 903d d3be ce16 373d 1d54 c2be 19f7 3bbe
000000c0: 2103 ca3e b1d3 c23d 7c53 3d3e 4c3c 94be
000000d0: 005e d23f 7f9e 41c0 f95b 923e 15ca 103e
000000e0: e4dd 78be 47d4 7a3e 571d 1ebe 2d97 9f3e
000000f0: 5bc2 9c3e 028e 76be 2655 403c de91 eb3e
00000100: 623e 8abe 6308 9bbe 5e2b 8c3e 76c6 c9be
00000110: 2316 8dbe 00e4 8f3e e135 4a3e d7a9 b1be
00000120: 9574 c13e 9054 283e 3f27 183e e06b c1be
00000130: 7a5b a3be 9fde 66be 5583 cabe 7af2 0bbe
00000140: 70f2 9cc0 25f4 e03f 92a8 af3e 1f7b 583e
00000150: 12b1 87be 986b 643e fb33 83be e00d 703e
00000160: b77e ab3e 23b5 3abe 97e5 643d fd2a ec3e
00000170: 5411 d63e 24fc 27bf 36d6 98be 0557 6a3e
00000180: ebfe abbe 7421 e23d 6a4d df3e 6399 4abd
00000190: ab2a f3bf 6251 9ac0 9c9a 743e 34ed 37be
000001a0: e446 d93e 5587 a9bd 5abf 9a3e df85 973e
000001b0: ce3b 13be 0c4f 8cbe d7ee 2b3e 9550 a7be
000001c0: 2818 c03e 7f7a 65bd 1d6a 303e 5952 dd3e
000001d0: 6219 3f3e 9741 c83e 6c78 103e e040 bfbe
000001e0: 5d31 30be 8543 84be 63df a7be f5b7 6f3e
000001f0: 0037 c93e bff7 f9bd a575 1dbc a539 7f3c
00000200: 3da5 d2be 2886 e13d 4e29 ccbe d63b 823e
00000210: c387 f2bd 9a51 ce3e 18ac 59be f3d6 d23d
00000220: 8dca bc3b 2301 d83e d614 12be ed42 c43e
00000230: e07c d0be 6b7f 9abc 3fc5 313e 865b be3e
00000240: bd8a 453e 8320 a8be 647b 903e ef4c 94be
00000250: 1c3c 7fbe 7856 963e ab9e 553d 866b e1be
00000260: 6f10 babe 92af 5abe ef44 b8be db02 76be
00000270: 0edd 29be 8a47 bcbe 7d72 ef3d 3940 d8be
00000280: 3549 d2bd dbff d3be 1165 ddbe d3a3 76bc
00000290: c7a9 e1be 2c3b 353c 2a9a a03e ffc1 943e
000002a0: a5dc f33e bb3e 4abc 787c a43e db74 f3bc
000002b0: 0fd7 bf3a 57de f93e 43c7 c83e 511e 12be
000002c0: e12c 94bd 9489 d43e e5c2 c6be 3387 49be
000002d0: 1299 e23e 4217 8dbd 1840 d0be 4828 9a3d
000002e0: 92de c1be 0df7 80be 3e18 b33e 7946 803e
000002f0: e074 49bc 12ea b33e dad4 51be 4456 91be
00000300: d278 a7be 5a99 813e 8960 a9be 2f4d bfbd
00000310: f7e8 42be f0e1 a93e 8e6f 06be 9fae a73e
00000320: def2 28be ced4 aebe 5ed8 c6be 5d85 a23d
00000330: ebe6 dabe 4a80 3ebe 8471 82be 0239 783e
00000340: fd89 dbbe bf5d ffbc 57c1 bd3e e2f3 2abc
00000350: cd02 55c0 22b1 a13f 4d79 8e3e 8178 c3be
00000360: f366 ecbe 5bd1 bbbb 7fe3 41bf d870 12bf
00000370: a23f 42be 87a6 b23e 0247 34c0 0200 8f3f
00000380: ea36 a23e 322d 293e 3ab9 8abe 0ca3 653e
00000390: cb75 47be 9c41 8d3e 5db6 a63e 5306 7ebe
000003a0: 2b69 67be c8d8 90be ed8b 533e f1a1 b2be
000003b0: cdbb cdbb 4b53 c8be 9798 3840 b66a 82c0
000003c0: 6232 c33d 4226 dbbe 80e6 c53e f9fc 2abe
000003d0: 2f99 7bbe 1e35 223e 1975 99be f7e8 663e
000003e0: 960f 613e 45f1 9ebe 198c a1be 5ae0 5b3e
000003f0: e3ee bb3e b586 49be 92df 4c3e d7c8 d43e
0.21556199 0.31230265 0.16514589 0.4129013 0.27222738 0.1880309 -0.34681603 0.20856574
-0.21754375 0.249258 0.41874045 0.29495013 -0.089130335 -0.4503386 -0.18058874 0.3037012
0.37541077 0.037962794 0.45671815 0.006766384 0.4024229 0.34411404 -0.38749272 0.13203064
0.23548931 -0.09621925 0.04106241 -0.4196741 0.044131957 0.41985816 -0.1297883 0.19549987
0.2914511 -0.4061504 0.29071343 -0.32897508 -0.28571135 0.24379955 -0.35270363 -0.19108169
-0.11612558 0.28516802 -0.34401673 0.22198193 -0.41257906 0.044699483 -0.37954798 -0.18355979
0.39455512 0.09513033 0.18488878 -0.28952253 1.6434937 -3.0252988 0.28585795 0.14139588
-0.24303395 0.2449504 -0.1544088 0.31170025 0.3061703 -0.24077609 0.011739051 0.46009725
-0.2700072 -0.30279836 0.27376837 -0.39409226 -0.2755595 0.28103638 0.19747116 -0.3469989
0.37784258 0.16438508 0.14858721 -0.37777615 -0.3190573 -0.2254586 -0.39553323 -0.13666716
-4.9045944 1.7574507 0.34308296 0.21140717 -0.2650228 0.22306669 -0.25625595 0.23442793
0.33495113 -0.1823316 0.055883016 0.46126547 0.41810095 -0.6561911 -0.2985093 0.22884758
-0.33592924 0.11041537 0.4361375 -0.049462687 -1.8997396 -4.8224344 0.23887104 -0.1796158
0.42436898 -0.08277766 0.30224115 0.29594323 -0.14378282 -0.27404058 0.16790329 -0.32678667
0.3751843 -0.056025025 0.17227979 0.4322689 0.18662027 0.3911254 0.14108437 -0.37354183
-0.1720633 -0.25832763 -0.32787618 0.23410018 0.39299774 -0.12205457 -0.009610568 0.015577708
-0.41141692 0.110119164 -0.39875263 0.25436276 -0.11842301 0.40296632 -0.21257055 0.102949046
0.0057614506 0.42188367 -0.14265761 0.3833231 -0.40720272 -0.018859586 0.173604 0.37179202
0.19291206 -0.32837304 0.2821914 -0.28964946 -0.24925274 0.29362845 0.05215327 -0.44027346
-0.36340663 -0.21356037 -0.35990092 -0.24024527 -0.16588232 -0.3677333 0.11691759 -0.42236498
-0.102678694 -0.4140614 -0.4324117 -0.015053707 -0.44074842 0.011061471 0.31367618 0.29054257
0.47629276 -0.012344058 0.32126212 -0.029718807 0.0014636236 0.48802444 0.39214525 -0.14269377
-0.072351225 0.41511214 -0.38820568 -0.1968048 0.44257408 -0.06889202 -0.406739 0.07527214
-0.3786512 -0.25188485 0.34979433 0.25053766 -0.012295932 0.3513952 -0.20491353 -0.28386128
-0.32709366 0.2531231 -0.33081463 -0.093408935 -0.19034182 0.3318019 -0.13128492 0.32750413
-0.16498896 -0.34146732 -0.3883695 0.07935593 -0.427543 -0.18603626 -0.2547723 0.24240497
-0.42878714 -0.031172631 0.3706157 -0.010434123 -3.328296 1.2632182 0.2782692 -0.38177875
-0.46172294 -0.005731744 -0.75737756 -0.57203436 -0.18969586 0.34892675 -2.816834 1.1171877
0.3168252 0.16521147 -0.27094442 0.22425479 -0.19478528 0.27589118 0.32561007 -0.248071
-0.22598712 -0.2829039 0.20658846 -0.34889176 -0.006278491 -0.39126047 2.8843133 -4.075526
0.09531094 -0.42802626 0.3865242 -0.16698064 -0.24570154 0.15840575 -0.2997215 0.22549807
0.21978602 -0.3104345 -0.315522 0.21472302 0.36705694 -0.19680293 0.2000716 0.4155948

conv_spatial.mlp.2.weight f4 [256, 256]
00000000: 19b4 f1bd 7e2e 6fbe 5d44 21be 6c43 d8bd
00000010: 828f b7bd d8eb 38be 6eba c03e 3b21 47be
00000020: ce55 c1bd e5ca e9bc 6b9f 47be 59f0 70bd
00000030: ae03 03bd 24c6 803e b6dc a8be c4ca d1bd
00000040: 1c8e 163d 8e68 d13d 8efd 0dbe 331c 403e
00000050: 3f63 72be b732 f6bc 9e17 5c3d b1aa 183e
00000060: de5f a9bd b13b 423e 2181 80be 4be7 47be
00000070: fe8f a5bd 087c 60be 4999 2d3e f68e a6be
00000080: 307b 393e c374 9b3c 0456 04be e3f1 393e
00000090: efcf 2ebe 44f9 933e 600d 763e 2473 e23d
000000a0: cd31 703e 1730 12be 985d c9bd 4f0d d5bd
000000b0: 7beb bc3d 5436 a8be df02 9ebd e6e8 d9bd
000000c0: 5e99 2ebd 29c7 53bc a64d 03bf 791f 8d3d
000000d0: da4a 82bc d2d8 9cbe 16bd 943e 9503 423e
000000e0: efa2 2abd c733 7abe a51e 8fbe ff1b 2f3e
000000f0: 9113 703e c37a cdbd c5ae 5e3d 7160 32be
00000100: ddcc 293d c325 3bbc 761b 94be fd03 8abd
00000110: 2518 99be 4740 33be de49 f13d a3a5 adbe
00000120: f5b1 193e 0f2b 163e 61eb c0bd 38c6 ab3e
00000130: 7b93 4b3e 8571 623e cf76 a43e af6a 913e
00000140: 132a a83e 4167 523d c26a 3b3d 3fe3 91be
00000150: 0418 4dbd bb0c 7bbd 4ba4 bcbe 74f2 853d
00000160: a084 a8be 00f5 373e e693 f1bc 94e1 413d
00000170: 1f51 3b3e f3dc 6dbe 8873 96be f6d0 9b3e
00000180: a2c4 a5bd a145 a93d 83a3 29be c056 3dbe
00000190: cd9b 743e 7a76 debb 758e 6c3e 1957 b2bd
000001a0: 65a3 aa3d 4514 97bd cb92 dd3d 4fd8 a0bc
000001b0: 3651 f93c aa09 9a3d c1e6 60be 08c1 453d
000001c0: 9aa7 62be 9115 cabd 984b 01be 7872 223d
000001d0: 2afb 4a3e e5ef 143e 268c 873e 19e4 0bbf
000001e0: 57d6 873e 5366 a73d 9637 073d 8078 6ebd
000001f0: f109 b63d 5e35 e0bd dd52 423d 26ea 90be
00000200: 95ab aebe d69d 343e 7188 9dbd b2dd 72be
00000210: 66d0 543e 3f93 283d a569 9dbe 1d3c 6abe
00000220: 1e1a 993d 14ca 0c3e 4170 2a3f dfcf 4fbe
00000230: 052a e73d a5f7 24be 65b3 b33e 9143 16be
00000240: e8cd e73d ef36 f93d cbf9 ba3c 01bd 6e3e
00000250: bc16 35be e384 9c3e a1bd 63bc 9580 1b3d
00000260: 9ce9 7ebc 5a59 e8be 40a0 533e eb54 e8bd
00000270: 5031 f8bd 6f28 5fbe 9d06 34be 14f8 f4bd
00000280: 629a 413e 66bb 7ebe 420d 9e3d 14dc 9ebe
00000290: e0cd 513e db50 bcbe 201d c03b e6eb 773e
000002a0: bdb0 8d3e 3e35 cabb f8a1 71be 822f a03e
000002b0: 3ab6 3a3e 3dcf adbd 60df 123e ecac 1a3e
000002c0: 9afb c7bd 49c2 1fbe e063 7f3e a97d b1be
000002d0: eb1c 00be cc34 963e 0358 7fbe 1335 b83e
000002e0: 0fd8 933e 673d 5cbf c989 6f3d 5169 9fbc
000002f0: f02c a43e 2e2a ba3d d707 47be fab7 333d
00000300: 09b3 503c 90d4 8bbe 8dde a1be 809e 833e
00000310: 3232 f1bd c7c5 823e 5d5c 42bc 0310 60be
00000320: 1c5c a73e 031d 69bd 8561 ab3e 02a3 1fbf
00000330: dd77 8c3e e5c9 803d 4378 a93d ee52 65be
00000340: d80a c13d 2b0b e03d 2950 abbe fa28 f0bd
00000350: 3db5 83be a167 803e 4bd1 9f3b 6df9 ab3d
00000360: 1355 9abe 934d 323d b2c5 7f3e b5e7 ad3d
00000370: da97 76be fe0c a03d 1be0 86be 6271 ac3c
00000380: 188a fdbd 1f9d 2f3e dfa7 84be 5a43 3cbd
00000390: 0294 5f3e 14a1 82be ad63 193e db12 a2be
000003a0: 82f8 553e f0c8 ac3e b047 08be 0063 9e3c
000003b0: 4e6f 593e 522b 223d fc02 9b39 22a6 813e
000003c0: d5f7 18bd 5e25 89be 0746 963d 276a 64ba
000003d0: 29b3 48bd 1ee1 6e3e a0cf a2be d0f1 adbe
000003e0: d908 46bd f112 803e 0992 8bbe 8761 89be
000003f0: 3059 9dbd 82f4 9f3e 9a29 03be a7ac 81bc
-0.11801929 -0.23357579 -0.15748735 -0.10559735 -0.08962919 -0.18058717 0.37642235 -0.1944627
-0.09440194 -0.02853913 -0.19494407 -0.058822963 -0.03198593 0.2515117 -0.3298089 -0.102437526
0.03675662 0.1022502 -0.13866255 0.18760757 -0.23670672 -0.03005348 0.05373346 0.14908864
-0.08270238 0.18968083 -0.25098518 -0.19521825 -0.08084105 -0.21922314 0.16953005 -0.32530946
0.18113399 0.018976575 -0.12923437 0.18158679 -0.17071508 0.28901112 0.2402854 0.110571176
0.23456497 -0.14276157 -0.09832305 -0.10402929 0.09224602 -0.3285395 -0.07715391 -0.10640125
-0.04262673 -0.012925901 -0.5129036 0.068907686 -0.015904833 -0.3063417 0.2905051 0.18946679
-0.04165929 -0.24433814 -0.27953067 0.17100523 0.23444964 -0.100331806 0.054365892 -0.17419602
0.04145514 -0.011422577 -0.289272 -0.06739042 -0.29901233 -0.17504989 0.11781667 -0.33915433
0.15009291 0.14664863 -0.09419895 0.33549666 0.19880478 0.22113617 0.32121894 0.28401706
0.328446 0.051368 0.04575611 -0.28493688 -0.05007173 -0.061291438 -0.36844096 0.06540385
-0.32913685 0.17964554 -0.029489469 0.04733427 0.18292664 -0.23228817 -0.29385018 0.30432862
-0.08094145 0.08265234 -0.16566281 -0.18490124 0.23887558 -0.006789026 0.23101218 -0.08708019
0.08331946 -0.07376913 0.10819014 -0.019634394 0.030434232 0.075213745 -0.21963026 0.048279792
-0.22134247 -0.09867395 -0.12626493 0.039659947 0.19822374 0.14544638 0.26474112 -0.54644924
0.26530716 0.08173814 0.033011995 -0.058220387 0.08888615 -0.10947679 0.047442306 -0.2830364
-0.34115282 0.17638335 -0.0769204 -0.23717383 0.20782623 0.04115605 -0.30744663 -0.22874494
0.074756846 0.13748962 0.66577536 -0.2029414 0.112873115 -0.16110094 0.35097805 -0.14674212
0.113185704 0.12168681 0.022824189 0.23314287 -0.17684454 0.30570135 -0.0139001915 0.037964422
-0.0155586265 -0.4538067 0.206666 -0.11344322 -0.121187806 -0.21792768 -0.17580648 -0.1196138
0.18906549 -0.24876174 0.077173725 -0.3102728 0.20488691 -0.36780438 0.005862847 0.24211082
0.27673903 -0.0061708977 -0.23596942 0.31286246 0.18233576 -0.08486793 0.14343023 0.15105027
-0.09764786 -0.15601458 0.24940443 -0.34666184 -0.12511031 0.29337156 -0.24935918 0.35977992
0.28875777 -0.8603119 0.05848101 -0.019459398 0.32065535 0.090900764 -0.19436584 0.043876626
0.012737998 -0.2731061 -0.31615105 0.25706863 -0.11777152 0.25541517 -0.011862841 -0.21881108
0.3268746 -0.056912433 0.3347284 -0.62358105 0.27435198 0.06288508 0.08274891 -0.22394916
0.094258964 0.1093963 -0.33459595 -0.11726566 -0.2572421 0.25079063 0.0048772446 0.083971836
-0.3014303 0.04353101 0.24977759 0.0849146 -0.24081364 0.07814978 -0.26342854 0.021050159
-0.12379855 0.1714978 -0.25909325 -0.04596267 0.21833804 -0.25513518 0.1497943 -0.3165501
0.2089558 0.33747053 -0.13308597 0.019334316 0.21233866 0.039592095 0.00029566127 0.25322062
-0.037345726 -0.2678632 0.073375754 -0.00087133277 -0.048998985 0.23328063 -0.3179903 -0.3397355
-0.04834828 0.2501445 -0.27259853 -0.2683222 -0.07683027 0.31241232 -0.12808838 -0.015829397

tail.0.weight f4 [256, 256]
00000000: 8bcc 9e3e da95 993e 6be2 843e 84a6 5dbe
00000010: 9bb7 933e 2f21 b1bd 56fe d4bc f41a 99bd
00000020: 88f8 2b3e d006 babc e42a c4bd 9ea6 883c
00000030: fdc8 993d bbbd 743d 0a1e 7c3d 61a7 db3c
00000040: 0bc6 053f b614 8dbd 9560 ca3d 6cbb 0cbf
00000050: 4748 71be c6d6 9c3c f092 483e f3f0 8e3e
00000060: 6ac2 4f3e 4098 ed3c 8574 ddbc f0d5 4d3f
00000070: 806c 0dbe 80ca 93bd f03b 40be 12dd 8b3d
00000080: d5fd df3d 4560 f0bd e805 06be 09d5 b8bd
00000090: 5c2d a53d 9feb 233e 1031 e2bd ddaa a13e
000000a0: 1c68 44be 00cb ef3d ecec c53d 3432 b23e
000000b0: 779e 91be 96ac 94bd 2440 b03d 62dd 1b3d
000000c0: 7b14 01be a365 c6be 319b d63d 1031 a53e
000000d0: bb7a 3fbf df97 323e 0203 d9bd 9ac0 8bbe
000000e0: 6aac 1a3e 0edd 9abe 6028 70bd 1340 1c3e
000000f0: 0fd2 0f3c d7a8 bdbd 50e1 8d3e 6d5e ff3c
00000100: e00e e2bc dd17 493d 7210 b33d c103 273d
00000110: 0bcf 70be ad0f 8cbe 9e97 f2bc cf94 51be
00000120: 5027 78bd 8412 f03d ecb8 65be 8458 5b3e
00000130: e9e8 623d c515 493d ac0b a33b 5553 393e
00000140: dc58 a0bd 8a11 e33c bc96 e33b de31 a1bb
00000150: 9472 3dbe 6d5c 02bd d453 a33d 80a6 cb3e
00000160: 85f6 6bbe 8f67 b33e 03ea 093f a170 29be
00000170: 2082 de3d 2ce1 2d3f 5d7b a8be 529c 79bd
00000180: 77f3 243d d7a7 e3bc ad26 b43e d446 3a3e
00000190: 507f b33e 5d46 eb3c 9601 2dbd 79dc c73e
000001a0: 9f27 b5bd dcb2 0c3e 9232 61bd 7422 e5bd
000001b0: ee38 733c 8dbb 17be cd43 a13e fcfb b53d
000001c0: 846c 163e a692 a93c 08c5 9b3d d99c a23d
000001d0: 0796 0ebe c8d7 533c 0ddb b2bc c9cb 0abe
000001e0: 8656 3d3d 0094 2e3b fb8a a13e cded 4a3d
000001f0: aefc fabd b9c3 bcbc f796 febc 3582 bd3d
00000200: 4fb1 ea3d 47e4 3b3d 0270 013f 11ea 91be
00000210: 81a5 b83c 3272 ca3c 57d9 79bd 6a12 aabd
00000220: caa9 ffbd fb9f 31be 87f5 edbe c337 98bd
00000230: 49ec 2abe ef4b 55be 32b0 5dbd 797b e33d
00000240: d4dc 83bd 18dd b73e f469 833e 108b 9d3e
00000250: 75ed a53d 11b5 ff3d de34 09bc 6a7a f7bd
00000260: bf26 813c 7f7f a43d 7e09 5abe 9c5d 213b
00000270: 5672 f4bd a8fc b9bd 0804 80be 1e99 10bd
00000280: 9041 263a 735f 0ebd 6d6c b5be 2463 1b3e
00000290: 76bb b3be bc2f 1f3d 2644 0cbf 8a38 943a
000002a0: 706c 81bd 3428 29be eafb 163e 9040 2f3d
000002b0: 7550 64be 1477 453e 8a22 263e 96e7 073e
000002c0: 44a0 7c3c ec65 69be a17a d43d 1df2 313e
000002d0: d4a9 703e 17e4 b2bc ec2a a73e 11bc ccbd
000002e0: fdab 9cbb fbd4 9d3c 33e2 123e 066f 2fbc
000002f0: 23a8 b53d 7fa8 6fbc 7522 fa3d 9a95 03be
00000300: d0f6 b0bd 4bc9 b53e 8cf6 1dbe 6934 283e
00000310: c294 203f 96b4 f9bb eff9 75be 0cce a73e
00000320: 9415 98bd 7677 853e 9250 7fbd cf0b 5ebe
00000330: 37ee 93be 1e46 9b3e af9a fd38 ff21 323e
00000340: b99a 3ebe ad3d 743e a8d4 943e 5567 a63c
00000350: 3153 603e e280 e4bd 31ab 77bb af73 40be
00000360: 51f5 9b3e 7898 653e 3c24 eebd 1d9c 6e3e
00000370: 2412 313d 05c0 9cbd 7e97 a13d 63b2 0abd
00000380: dcec 6fbe 9525 5dbd f049 4bbc d6b0 c1be
00000390: 6efa 173d 7107 813d c25f 22be 2941 5bbd
000003a0: ec43 533c f004 48bd 6db4 26be 424f 0fbe
000003b0: e97f dfbe fea4 9ebd b9e0 403e 6bfb 393e
000003c0: 1828 88be 8ec4 e43e fbb5 bbbc 3a1d 973e
000003d0: ebd6 c33c 9dec 863e 34aa b9bd 2723 0f3f
000003e0: 1852 01bf 25fe 0a3e edd1 8cbd 4c7a d03e
000003f0: 0d32 31bd 729c c2be 17da 8ebe 5d28 463e
0.3101543 0.2999714 0.25953993 -0.21645552 0.28851017 -0.086489074 -0.026000183 -0.07475844
0.16794026 -0.022708327 -0.09578493 0.016681012 0.075090386 0.059751254 0.061552085 0.02681321
0.52255315 -0.06888716 0.09881703 -0.54973483 -0.23562728 0.01914538 0.19587302 0.27918205
0.20289007 0.029003263 -0.0270331 0.8040457 -0.1381092 -0.07216358 -0.18772864 0.06829275
0.109370865 -0.11737112 -0.1308819 -0.09025008 0.08065292 0.16007851 -0.11044514 0.3157567
-0.1918034 0.11708641 0.0966433 0.34803927 -0.28441212 -0.07259481 0.08605984 0.038052924
-0.12605469 -0.38749418 0.10478819 0.32263994 -0.74796647 0.17440747 -0.10596277 -0.2729538
0.15104833 -0.30246776 -0.058632255 0.15258817 0.008778109 -0.09260719 0.27710962 0.031172955
-0.027594984 0.049095023 0.08743371 0.040775064 -0.2351648 -0.2735571 -0.029613312 -0.20466922
-0.060584366 0.117222816 -0.22433823 0.21420485 0.0553979 0.049093027 0.0049757566 0.18098195
-0.078294486 0.027718324 0.006945459 -0.0049192747 -0.1850074 -0.031826425 0.07974973 0.39775467
-0.23043258 0.35039946 0.538727 -0.16546871 0.10864663 0.6792171 -0.3290662 -0.060940094
0.04027125 -0.027789993 0.35185757 0.18191081 0.3505807 0.028720075 -0.04223784 0.39035395
-0.08845448 0.13740104 -0.05497987 -0.11188212 0.014845116 -0.14817639 0.3149704 0.08885953
0.14689833 0.02069981 0.0760594 0.079400726 -0.13924418 0.012929864 -0.021832967 -0.135543
0.046225093 0.0026638508 0.31551346 0.04954319 -0.12255226 -0.023042547 -0.031077845 0.09253351
0.114596 0.045872 0.50561535 -0.2849889 0.022539856 0.024712656 -0.060998287 -0.083042935
-0.124835566 -0.17346184 -0.46476385 -0.07432511 -0.16691698 -0.20829748 -0.05412311 0.11107535
-0.06438604 0.3591087 0.25666773 0.3077016 0.08101932 0.124857076 -0.008374421 -0.120838955
0.015765546 0.080321305 -0.21292683 0.0024622446 -0.1193587 -0.090813935 -0.25003076 -0.035302274
0.0006342167 -0.034758996 -0.35434285 0.15174538 -0.3510396 0.038863882 -0.54791486 0.0011308354
-0.06319511 -0.16519243 0.14744535 0.04278618 -0.22296317 0.19283706 0.16224113 0.13271937
0.01541907 -0.22792786 0.10374952 0.17377515 0.23502284 -0.021837277 0.32649934 -0.09996808
-0.004781245 0.019266596 0.143441 -0.010707622 0.0886996 -0.014627575 0.122136034 -0.12850037
-0.08640826 0.35505137 -0.15426081 0.16426243 0.62726986 -0.0076204045 -0.24021123 0.3277439
-0.07425991 0.26067704 -0.062332697 -0.21684192 -0.2889268 0.30326933 0.00012092792 0.17395781
-0.1861371 0.23851652 0.29068494 0.020312944 0.21906735 -0.11157395 -0.0037791247 -0.1879413
0.304606 0.22421443 -0.11628005 0.2330174 0.04323019 -0.07653812 0.07890223 -0.03386153
-0.23430198 -0.05399092 -0.012407765 -0.37830228 0.037104063 0.063002475 -0.15856841 -0.05352894
0.012894612 -0.048832834 -0.16279764 -0.13995078 -0.43652275 -0.077463135 0.18835725 0.18162315
-0.2659309 0.4468121 -0.022913923 0.29514486 0.023906192 0.26352397 -0.09065667 0.55913013
-0.5051589 0.13573511 -0.06875978 0.40718305 -0.043260623 -0.38009983 -0.27900764 0.19351335

tail.2.weight f4 [2, 256]
00000000: 71af 0e3e 05f4 3f3e b059 02bd 6c29 e03d
00000010: 1607 c5bd f9e9 afbc 21b4 103f 6731 a1bd
00000020: 35ce b23d b852 7fbe f166 573e 8bc5 ce3e
00000030: ff31 083e de08 bcb9 7a18 4a3e fa94 073e
00000040: c348 10be 4861 fcbe b633 c33e 6aba 2cbe
00000050: ee7f e3be 5a21 96bd bc5c 97be 092a a4bd
00000060: 2cf2 f7bc fc8b b83e 0cd4 9dbe fb02 093d
00000070: 9851 96bd eb84 4c3d 2074 803d df05 243d
00000080: 8710 d43d dda8 333e 3366 583e f68c 893f
00000090: 9be9 dcbc 2d47 8b3c a060 3d3e 560e a6bd
000000a0: b650 62be c2c2 bf3e ed80 90be 180a 65be
000000b0: a689 adbe 5a4d a5be 5667 45be d44d 123e
000000c0: 178a 84bd fce1 37be 2279 4fbd 84c8 cf3c
000000d0: f464 50bd f5e8 1c3f 1c70 3c3d 18d1 fabe
000000e0: 7ab7 813e d92a 3e3e a99c 3ebd e3ae b2be
000000f0: a439 00be 83b7 4a3e 6249 87bd af6f 97be
00000100: b74c bcbe dc1b 75be 73fb 3abe e1a4 523e
00000110: 0539 a6be 4f69 2bbe 034c 6b3c ad3f 68be
00000120: 0ee1 2a3e d25e 44bd 5899 de3b 5a02 a6be
00000130: ed7d 5e3c f35f 67bd 4b28 dbbd 652e 4a3d
00000140: 2f00 0fbe e0ab b9bc 5e42 b3bd b379 0ebf
00000150: 6da1 943e 646d d43d 2f98 933c 1b9f 21bf
00000160: 7868 3ebe 215c ed39 d64e 8ebe c46d 08be
00000170: 32fa 1dbe 1a01 463e 342c cfba d03a a1bc
00000180: 60c9 50be 33ac c9be fee2 d3bd 5095 37be
00000190: a7e3 2a3d 6cbe bfbc 0755 323e 484c 63bd
000001a0: 397a 123e 2c71 723f c5ee 393c 9468 963e
000001b0: 6954 453e bc0c 073e 235b 3b3e 41d3 733e
000001c0: bf9f a5bd 552b 20bc 1438 1e3e 8f27 29be
000001d0: 4931 a43d 18c7 303e 6ab3 3e3e f4cb 62bd
000001e0: f082 a3be ac26 91be 0420 a13e ccd3 163e
000001f0: 4bd8 ce3d 8076 ae3d 1a02 28be a9bf 40bd
00000200: 771d 06be 3481 873e 00ab 0b3f d815 2cbe
00000210: 4cfe fc3e 5b79 1f3f 19de 1c3f 91aa 653f
00000220: 0d49 083e 661a 543d 8332 693e 2549 95bd
00000230: c198 8dbe f02b f13e dc83 87be 4e63 793f
00000240: ac96 ecbd 5e9d dcbc 6bc9 ba3e 3959 6fbe
00000250: fce2 053b 208e b5bd 1e4b 453d 41e2 80be
00000260: bfb8 113f 9a8c 0ebe 8568 1f3e fd9e 05be
00000270: 7116 083f db5d fabd 114f 213d 797f fe3e
00000280: 85b5 3ebd e9c8 a0bd e340 3cbe f9d2 02be
00000290: 2e2f 85be 1df9 8bbd 9695 a63d fe0c 3ebf
000002a0: db7f 523e f4cc 46bf af45 0eba 7984 9d3e
000002b0: a2ba 453e 2801 093e d733 e438 5fa7 103e
000002c0: 0d55 b9bc 616a e6bd 25bb 053f 8b89 a53c
000002d0: 2c81 8cbe 1fa6 aebe 1f4b ccbe 376e 65be
000002e0: 9ea5 e23d 0bb0 2ebe abc8 4bbe cf10 b3bc
000002f0: 7ed5 13bf c609 d138 d64b 85be 9ef8 f237
00000300: 3ef8 0a3d a787 1c3f 3525 8ebf 159a 55be
00000310: c2fd eabd c959 a5bd 06a3 863f 3ffe 703d
00000320: 9a60 403e 4979 4c3e cabc 0e3e 727d 6dbe
00000330: a199 16bc 6ddb 613f 70a6 46bd cd53 23be
00000340: a112 f5bd f0bb 673e 48c6 51be db1d b83b
00000350: 8eac b6bc 1ca6 e13d 5c4a e7bc d822 1fbe
00000360: 1e55 fdbe 7ee8 05be df79 093f 260b a6bd
00000370: 0152 59bb 2aa1 95be d03b 9d3f 558c 213d
00000380: b157 bf3e 5f82 7abe 19a3 b53d c189 6bbf
00000390: b6ce 153d 70fe 253e 2c10 10be f250 343e
000003a0: daaa 84be 6942 0fbd 3991 acbd 2cf0 233e
000003b0: 982e d13e 9351 6a3e e4f5 29be 76c6 babe
000003c0: dbfc 503f 592a b33e 86cc b2bd 065f 063e
000003d0: 524d 09bf 72de ffbe 5a8e d2be 1386 3339
000003e0: 587f a9b8 129b 2abd 9c5f 9fbe 21a9 42be
000003f0: 7e58 cebc ecd3 90be 0754 293e bab5 0c3f
0.13934113 0.1874543 -0.031823814 0.109454006 -0.09620492 -0.021473872 0.56524855 -0.07870751
0.08730737 -0.24933898 0.21035363 0.40385088 0.13300322 -0.0003586476 0.197359 0.13240424
-0.14090256 -0.4929297 0.3812539 -0.16867986 -0.4443354 -0.0733058 -0.29562938 -0.0801583
-0.030266844 0.360443 -0.3082584 0.033450108 -0.073397815 0.049931448 0.06272149 0.04004466
0.10354715 0.17544885 0.21132736 1.0746143 -0.02696686 0.017001713 0.18493891 -0.08108203
-0.22101101 0.37453276 -0.28223363 -0.22367132 -0.3389408 -0.32285577 -0.19277701 0.14287502
-0.06471651 -0.179573 -0.05065263 0.025364168 -0.050877526 0.61292964 0.046005353 -0.4898765
0.25335294 0.18571033 -0.04653612 -0.34899053 -0.12521988 0.19796567 -0.066057935 -0.29577395
-0.3677728 -0.23936409 -0.18259983 0.20570709 -0.32465377 -0.16739391 0.014361384 -0.2268054
0.16687414 -0.04794199 0.0067931823 -0.3242367 0.013579828 -0.05648799 -0.10701045 0.04936065
-0.13964914 -0.022664964 -0.08752893 -0.5565445 0.29029408 0.10372427 0.018016903 -0.631334
-0.18594539 0.00045272804 -0.27794522 -0.13323122 -0.15427473 0.19336358 -0.001580602 -0.019681364
-0.20389318 -0.3938919 -0.1034603 -0.17928052 0.041721012 -0.02340623 0.17415248 -0.05549267
0.14304437 0.94703937 0.011348431 0.29376662 0.19270481 0.13188452 0.18296485 0.23811056
-0.0808711 -0.009775956 0.1545108 -0.16518997 0.08017213 0.17263448 0.18623129 -0.055370286
-0.31935835 -0.28349817 0.31469738 0.14729232 0.10099848 0.08518696 -0.16407052 -0.04705778
-0.13097177 0.26465762 0.545578 -0.16805208 0.49412763 0.6229455 0.61276394 0.8971339
0.13309117 0.051782988 0.22773175 -0.07289342 -0.27655604 0.47103834 -0.26467788 0.9741715
-0.11552176 -0.026930507 0.36481795 -0.2337388 0.0020429483 -0.08864999 0.04816734 -0.25172618
0.56922525 -0.13920823 0.15567215 -0.1304893 0.5315924 -0.12224933 0.039382044 0.4970663
-0.04655983 -0.078508206 -0.18384127 -0.12775792 -0.26012558 -0.06834624 0.08134 -0.74238575
0.20556585 -0.77656484 -0.0005427254 0.3076513 0.19309476 0.13379347 0.00010881543 0.14126347
-0.022623563 -0.11250759 0.52238685 0.020207187 -0.274423 -0.34111115 -0.39901063 -0.22405325
0.11066745 -0.17059343 -0.19900768 -0.0218586 -0.5774764 9.967717e-05 -0.2603442 2.896442e-05
0.03392815 0.6114449 -1.1105105 -0.20859559 -0.11474182 -0.08073766 1.0518501 0.058836218
0.1878685 0.19968142 0.13939205 -0.23192385 -0.009191901 0.8822544 -0.04849857 -0.15949936
-0.11966444 0.22630286 -0.20485795 0.0056187934 -0.022299077 0.11018011 -0.0282337 -0.15540636
-0.49479002 -0.1307697 0.53701586 -0.08107595 -0.003316045 -0.2922452 1.2283878 0.03944047
0.3737159 -0.24463795 0.08868999 -0.9200707 0.036574088 0.16210341 -0.14068669 0.17609003
-0.259116 -0.034975443 -0.084261365 0.16009587 0.4085586 0.2288268 -0.16597706 -0.3647954
0.81635827 0.34993246 -0.08730416 0.13122186 -0.53633606 -0.499744 -0.4112423 0.00017120717
-8.0822676e-05 -0.041651793 -0.31127632 -0.1900983 -0.02518868 -0.28286684 0.1653596 0.5496479
