logs/M3D27_wmd_debug_lr2e5_bs1024_tscale001_r08_oddfunc_3mlps/score.pt (torch, 732745 bytes, 10 tensors)

embed.0.W f4 [64]
0	0xc13a387e	-11.638792
1	0xc0564bc0	-3.3483734
2	0x40b6d94f	5.714027
3	0x41aea6e1	21.831484
4	0x3f97f215	1.1870753
5	0xc1ce68ad	-25.801111
6	0x4236ab5f	45.667355
7	0xc2819645	-64.793495
8	0xc1b3cac1	-22.474
9	0x3f0df564	0.5545256
10	0x40d4e989	6.6535077
11	0x424e768c	51.61577
12	0xc23daad3	-47.41682
13	0x425733cc	53.800583
14	0x420e3a16	35.556725
15	0xc22e42c5	-43.565205
16	0xc1e40ccf	-28.506254
17	0xc155fda4	-13.374424
18	0xc0285b27	-2.6305635
19	0xc20b68d4	-34.85237
20	0x41859a90	16.70047
21	0x413b08f8	11.68969
22	0x4175a1ba	15.351984
23	0xc0b75db9	-5.7301908
24	0xc23a09f9	-46.50974
25	0x41a28d49	20.318987
26	0x410f9196	8.973043
27	0x420f62ba	35.846413
28	0x410f0303	8.938235
29	0xc23ea2f2	-47.659126
30	0xc204e698	-33.22519
31	0xc12a6979	-10.65075
32	0x423fd040	47.95337
33	0x4288d6a7	68.41924
34	0x40dc6f60	6.8885956
35	0x41c755f8	24.916977
36	0x41212ba2	10.073153
37	0xc1f8ac8e	-31.084255
38	0x422e661e	43.599724
39	0xc1a9e03a	-21.234486
40	0x41f82b45	31.021128
41	0x417d83f2	15.844713
42	0xc096ed61	-4.716477
43	0xc23b3d18	-46.80966
44	0x41ac8ef7	21.569807
45	0x413059ff	11.021972
46	0xbe6c4d2f	-0.23076318
47	0xc22185d3	-40.380688
48	0x422f5a8a	43.838417
49	0xc13c6fd8	-11.777306
50	0x4021f860	2.5307846
51	0x40b6950d	5.7056947
52	0x41ca43a5	25.28303
53	0xc253e8e5	-52.977436
54	0x4189ebb6	17.240093
55	0xc22a2037	-42.53146
56	0xc19bb3bb	-19.462759
57	0x420472cc	33.112106
58	0x41310c6e	11.065535
59	0xc26e023a	-59.502174
60	0xc25dc7e3	-55.4452
61	0x41eb6579	29.424547
62	0x423edabb	47.713604
63	0x41ffcfbd	31.976435

embed.1.weight f4 [128, 128]
0	0x3d907201	0.070529945
1	0xbc48bd1e	-0.01225212
2	0x3d59bf5c	0.05316101
3	0x3c7df4b9	0.015500241
4	0xbdab6353	-0.08368554
5	0x3d8c0049	0.06835992
6	0xbdad2b95	-0.08455578
7	0xbba8613b	-0.005138544
8	0xbd09d3be	-0.0336492
9	0x3caf6718	0.021411464
10	0x3d5f0ace	0.054453664
11	0xbc3ef4a2	-0.011655005
12	0xbc4cfe26	-0.012511766
13	0x3d951ae2	0.07280518
14	0xbd896e26	-0.06710462
15	0x3ccbe667	0.024890138
16	0x3d38f4cc	0.04515533
17	0x3a945129	0.0011315692
18	0x3dafceca	0.08584364
19	0xbd00325f	-0.031298038
20	0x3cff194f	0.031139998
21	0xbd863e49	-0.06554849
22	0x3d050ba7	0.032481816
23	0xbd5e0e6f	-0.054212984
24	0x3b27104b	0.002549189
25	0x3d4df57c	0.05028294
26	0xbd2f757a	-0.042836644
27	0x3dacbee3	0.08434846
28	0xbd975856	-0.073898956
29	0x3d8e4e97	0.069485836
30	0xbd0a44d9	-0.033757064
31	0x3c3316a3	0.01093069
32	0x3d345dd1	0.044034783
33	0xbd515dee	-0.05111497
34	0x3d55e782	0.052222736
35	0xbd0f43cb	-0.03497676
36	0xbd8b991f	-0.06816315
37	0xbb194889	-0.0023389182
38	0x3d7490ea	0.059708513
39	0xbcf319e2	-0.029675428
40	0x3cf7aef9	0.0302348
41	0x3d457023	0.048202645
42	0x3d9bab18	0.07600993
43	0x3d9d37b7	0.076766424
44	0x3c86c856	0.01645295
45	0xbd530a48	-0.051523477
46	0xbd7420d3	-0.059601616
47	0x3d8cb722	0.06870867
48	0xbd27975f	-0.040915843
49	0x3da51ecb	0.08062514
50	0x3cf5e29f	0.030015288
51	0x3d10b391	0.035327498
52	0x3bbfe326	0.0058559356
53	0xbd6c6fdd	-0.05772387
54	0x3b3a91e1	0.0028468298
55	0x3b1e5e7f	0.002416521
56	0xbc80f939	-0.015743839
57	0x3ca192e0	0.019723356
58	0xbc86c319	-0.016450452
59	0x3ce2b5b6	0.027674537
60	0xbc724a4d	-0.0147882225
61	0xbd9dbf53	-0.07702508
62	0xbca21cb7	-0.019789083
63	0x3c2bc1ab	0.010483186
64	0x3ce3b001	0.027793886
65	0xbd9d1528	-0.07670051
66	0x3d278a37	0.040903296
67	0xbcaa633b	-0.02079927
68	0xbd63f985	-0.055657882
69	0xbb0d112e	-0.0021525132
70	0xbd93ecca	-0.07222898
71	0x3d694ba4	0.056956902
72	0x3d5292c2	0.05140949
73	0x3d9f94ca	0.07792051
74	0x3d8580f1	0.06518734
75	0x3d7cf235	0.061754424
76	0xbd31f8ca	-0.043450154
77	0xbd8d0b08	-0.0688687
78	0xbd40dbe8	-0.04708472
79	0xbcb26d87	-0.021780742
80	0xbd1b3c5f	-0.03789937
81	0x3ce37e5a	0.02777021
82	0x3d9efbe8	0.07762891
83	0xbd0988db	-0.03357778
84	0x3db4b34a	0.08823259
85	0x3ceb3b4a	0.028714795
86	0x3cde4cfe	0.027136322
87	0x3ce3d97b	0.027813664
88	0xbc91e315	-0.017808476
89	0x3d8f2240	0.069889545
90	0x3da16c0e	0.07881938
91	0xbcb76192	-0.022385392
92	0x3cfe6823	0.031055516
93	0xbb66195a	-0.0035110326
94	0xbd0fbc2b	-0.03509156
95	0xbd2f70ba	-0.042832114
96	0xbd9e00d1	-0.077149995
97	0xbdb38566	-0.08765678
98	0xbd7a4d8d	-0.061109114
99	0xbdb16511	-0.08661855
100	0xbd93a143	-0.072084926
101	0x3d1cbe7f	0.03826761
102	0xbd460917	-0.048348513
103	0xbd0024b2	-0.031284995
104	0xbd943d3e	-0.072382435
105	0x3a468802	0.00075733673
106	0xbd156f2c	-0.036482975
107	0xbbe9b656	-0.007132332
108	0xbd78a410	-0.060703337
109	0xbc81afe1	-0.015830936
110	0x3c9659e6	0.018353414
111	0xbd3cea86	-0.046122096
112	0x3d99d432	0.07511176
113	0x3d932df5	0.071865
114	0x3cd9a228	0.02656658
115	0x3cb1bf4b	0.02169766
116	0xbcb9f9b8	-0.022702083
117	0x3d20dc5a	0.039272644
118	0xbd121fd1	-0.035674874
119	0x3d2d72cb	0.042345803
120	0xbda0f2b0	-0.07858789
121	0xbd620ff6	-0.055191003
122	0x3d91bfcc	0.071166605
123	0xbd984596	-0.074351475
124	0xbdaf22d8	-0.08551568
125	0x3ce84b6a	0.028356273
126	0x3db3cd37	0.08779376
127	0xbd979349	-0.07401139
128	0xbd7574d5	-0.059925873
129	0x3d6e2360	0.058139205
130	0xbd226066	-0.039642714
131	0xbbb260de	-0.0054436764
132	0xbc37c53a	-0.011216456
133	0xbd9fcada	-0.07802363
134	0x3da07f57	0.07836788
135	0x3d6abcce	0.057308964
136	0xbd063be9	-0.03277198
137	0xbc9396b4	-0.018016197
138	0xbd908543	-0.07056668
139	0xbd06b91f	-0.03289139
140	0x3d846aaf	0.06465661
141	0x3d7038f7	0.058648076
142	0xbd125c19	-0.035732362
143	0xbc7d424f	-0.015457704
144	0xbb970a47	-0.0046093795
145	0xbd4af0a6	-0.049545906
146	0xbd2ef94b	-0.042718213
147	0x3c8579e0	0.016293466
148	0x3cc80be0	0.024419725
149	0xbd138d3c	-0.036023363
150	0x3c2f6dfc	0.010707375
151	0x3c2ed5df	0.010671108
152	0xbd83587e	-0.06413363
153	0xbcb7cf3d	-0.022437686
154	0xbd46d6e2	-0.048544772
155	0x3dab6994	0.08369747
156	0x3cd4d18a	0.025978822
157	0x3d26d699	0.040732
158	0x3d00471f	0.031317826
159	0xbdb03148	-0.0860315
160	0xbc91c551	-0.017794283
161	0x3cb511f1	0.022103282
162	0x3d31ebe3	0.04343785
163	0x3ca297b5	0.01984773
164	0xbd39d63e	-0.045370333
165	0xbcbd7a00	-0.023129463
166	0x3da259b7	0.07927268
167	0x3db2a665	0.087231435
168	0x3d61154a	0.054951943
169	0x3d965227	0.07339888
170	0x3c640bc0	0.013918817
171	0x3d979758	0.074019134
172	0xbcdb0350	-0.026734978
173	0xbd809da0	-0.062800646
174	0xbd14b712	-0.036307402
175	0x3d8e551a	0.069498256
176	0x3d5d21b8	0.053987235
177	0xbd83e6da	-0.06440516
178	0x3cf13e76	0.029448729
179	0x3d1a109b	0.037613492
180	0xbd203c0f	-0.039119776
181	0x3d6a487f	0.057198044
182	0x3d006c60	0.031353354
183	0x3d9ef9e6	0.07762508
184	0xbd7e0c9f	-0.062023755
185	0x3ce2e2f1	0.027696105
186	0xbcaf1840	-0.021373868
187	0x3cff7a89	0.031186359
188	0x3c92e461	0.017931165
189	0x3c951572	0.018198702
190	0x3b4f862b	0.0031665664
191	0x3da23db5	0.07921926
192	0x3c42402b	0.011856119
193	0x3db4f3c1	0.08835555
194	0xbb528452	-0.0032122326
195	0x3d62ddf0	0.055387437
196	0xbd2e7efc	-0.04260157
197	0x3d816323	0.06317737
198	0xbb19b0d6	-0.002345135
199	0x3d510585	0.051030654
200	0xbdaa97eb	-0.08329757
201	0xbd3a1d8d	-0.045438338
202	0xbcdaa3b3	-0.026689386
203	0x3db3e412	0.08783735
204	0x3d80f8aa	0.06297429
205	0x3d524f49	0.051345143
206	0x3d1a80c2	0.03772045
207	0x3bcc7ea6	0.0062406836
208	0xbca48f4d	-0.020087862
209	0x3d153547	0.036427762
210	0x3cd883de	0.026430067
211	0x3bca3667	0.006171036
212	0xbda5d204	-0.08096698
213	0xbd9c3d91	-0.0762893
214	0xbdb39567	-0.087687306
215	0xbd7ce83e	-0.06174492
216	0xbd2f5882	-0.042809017
217	0x3cf255d0	0.029581934
218	0xbd3e18e4	-0.046410456
219	0x3c8021cd	0.015641117
220	0xbd40aff8	-0.047042817
221	0xbce49fde	-0.027908262
222	0x3ceca92c	0.028889261
223	0x3d3b9391	0.045795027
224	0xbb3a537a	-0.0028431104
225	0xbd6300c1	-0.05542064
226	0xbd158553	-0.0365041
227	0xbd63be5b	-0.05560146
228	0x3d2ff15d	0.04295479
229	0x3d3f2230	0.046663463
230	0xbd42ea95	-0.047586996
231	0xbcc68ce9	-0.024237113
232	0xbcff6427	-0.031175686
233	0xbd30b51a	-0.043141462
234	0xbbf711a4	-0.0075399447
235	0xbd2e0d0d	-0.042492915
236	0x3d6daa3b	0.058023673
237	0xbc416dce	-0.011805965
238	0x3d44fd76	0.04809328
239	0xbd95804c	-0.07299861
240	0x3d36358f	0.04448467
241	0x3da59b37	0.080862455
242	0xbc082496	-0.008309504
243	0xbbb1c975	-0.005425627
244	0x3d9366fb	0.07197376
245	0x3d3d0bbc	0.04615377
246	0xbdae5c38	-0.08513683
247	0xbd68273b	-0.056678038
248	0x3d5ba77c	0.053626522
249	0x3dafd702	0.08585931
250	0x3cc7fe00	0.024413109
251	0xbce01b3e	-0.02735674
252	0x3d907f9a	0.07055588
253	0x3bf3744d	0.0074296356
254	0xbd7d993e	-0.06191372
255	0xbca29f77	-0.01985143

embed.1.bias f4 [128]
0	0x3da3e28e	0.08002196
1	0xbc9f0423	-0.019411152
2	0x3cc5105b	0.02405565
3	0xbd8b4ab1	-0.06801356
4	0xbcae7e6e	-0.02130052
5	0xbd77c8ef	-0.06049436
6	0x3da81472	0.08207025
7	0xbd58f1c7	-0.05296495
8	0x3cef4487	0.029207481
9	0x3bef0319	0.0072940704
10	0x3d427a24	0.047479764
11	0x3c803e43	0.015654689
12	0x3c674240	0.014114916
13	0x3cf39567	0.029734327
14	0x3d672d6f	0.056439813
15	0xbce8f475	-0.028436879
16	0x3d890dfa	0.06692119
17	0x3d51775a	0.051139213
18	0xbd6bc091	-0.057556693
19	0xbc0f9845	-0.008764331
20	0xbd4c5154	-0.049882248
21	0x3c791475	0.015202631
22	0xbd836ba5	-0.06417016
23	0x3da179e0	0.07884574
24	0xbd83d411	-0.06436933
25	0x3c9674f2	0.01836631
26	0xbd82f101	-0.06393624
27	0xbd879153	-0.06619515
28	0x3d267a77	0.040644135
29	0x3cd965db	0.026537826
30	0x3d995619	0.07487125
31	0x3d1877c6	0.0372236
32	0x3d953ec5	0.07287363
33	0xbc85c545	-0.016329417
34	0x3c8ad48e	0.016947057
35	0xbd1b561e	-0.037923925
36	0xbd80f67a	-0.06297012
37	0xbc659947	-0.014013595
38	0xbd259bdb	-0.04043184
39	0x3d7ebb66	0.062190436
40	0xbcb0b796	-0.021571916
41	0xb91bf06b	-0.00014871515
42	0x3c71fed1	0.014770226
43	0xbd8a2bfe	-0.06746672
44	0xbd661d3b	-0.05618022
45	0xbd6897a3	-0.056785237
46	0xbc2a662b	-0.010400335
47	0xbbfc4782	-0.007698954
48	0x3d992425	0.07477597
49	0xbce01d2a	-0.027357657
50	0x3b807b40	0.0039209425
51	0x3dabfef3	0.08398237
52	0x3c7fafb9	0.01560586
53	0xbd9a04a2	-0.07520415
54	0x3d8ce487	0.06879526
55	0x3b2c006c	0.0026245369
56	0xbd803e39	-0.06261868
57	0xbd9b2e0b	-0.075771414
58	0x3d953825	0.07286099
59	0xbd6ff964	-0.058587447
60	0x3d2be7eb	0.04196922
61	0x3d85c285	0.06531242
62	0x3d889c1a	0.06670399
63	0xbb4bbf33	-0.0031089305
64	0xbc77bd8e	-0.015120877
65	0xbbce0cc0	-0.006288141
66	0xbda7a21b	-0.08185216
67	0x3d891847	0.06694084
68	0x3b8927a7	0.004185635
69	0xbc2e96ac	-0.01065604
70	0xbce27294	-0.027642526
71	0x3c99cfc5	0.01877583
72	0xbd9b8545	-0.075937785
73	0x3d5c8959	0.053841922
74	0x3c9d95e1	0.019236507
75	0xbd9d6c9a	-0.0768673
76	0x3da040ee	0.07824884
77	0x3d8794d5	0.06620184
78	0xbc6681bd	-0.014069018
79	0x3db0e784	0.08637908
80	0x3c889eea	0.016677339
81	0x3da78459	0.0817954
82	0xbc0bcac3	-0.008532229
83	0x3d066ad8	0.032816738
84	0xbd6bf12c	-0.057603046
85	0xbdab2e9e	-0.08358501
86	0xbbbe4c63	-0.005807446
87	0xbd8a5e34	-0.06756249
88	0x3cd9f4d3	0.026606
89	0x3daa967f	0.08329486
90	0x3c4bcee4	0.012439463
91	0xbd9071f6	-0.07052986
92	0xbd79e281	-0.061007027
93	0x3d8a419b	0.067507945
94	0x3d954ad1	0.07289661
95	0xbcf30971	-0.029667588
96	0x3c89670c	0.01677277
97	0x3cb34061	0.021881284
98	0x3c69b382	0.014263989
99	0x3d9fe22f	0.07806813
100	0xbda9ccd0	-0.08291018
101	0x3d9b2914	0.075761944
102	0xbdb39ba4	-0.087699205
103	0x3c036da5	0.008021747
104	0x3db3d1ca	0.087802485
105	0x3db48b25	0.08815602
106	0x3d81936e	0.06326948
107	0x3ca8a33c	0.020585649
108	0x3c5f2dc9	0.013621756
109	0x3cea2c18	0.028585479
110	0x3d278c06	0.04090502
111	0xba33efc3	-0.00068640354
112	0xbae2cce4	-0.0017303494
113	0x3d3d1039	0.04615805
114	0x3b04f600	0.002028823
115	0xbc3727c4	-0.011178914
116	0xbc90114c	-0.017586373
117	0xbdab5cce	-0.083673105
118	0xbd16e459	-0.036838863
119	0x3d710776	0.058845006
120	0xbcb7de6b	-0.022444924
121	0x3c384bd8	0.011248551
122	0x3d9df883	0.077134155
123	0xbcaea142	-0.021317128
124	0x3c14cca3	0.009081992
125	0xbda897a6	-0.0823205
126	0x3d17ddd0	0.03707677
127	0x3d40351b	0.046925645

embed.3.weight f4 [256, 128]
0	0x3bfae3a8	0.0076565333
1	0x3d2bb447	0.041919973
2	0xbd991de5	-0.07476405
3	0x3d68cb34	0.056834415
4	0x3d895dc2	0.06707336
5	0xbc44672e	-0.011987491
6	0x3d254a6e	0.040354185
7	0x3cd2d066	0.025734138
8	0xbc860d43	-0.016363746
9	0xbcd0970c	-0.02546265
10	0xbceb8447	-0.028749598
11	0xbd860f84	-0.06545928
12	0x3c0bf2d9	0.008541786
13	0x3cc3a6f0	0.023883313
14	0x3d41f879	0.047356103
15	0xbd8c392c	-0.06846842
16	0x3be88960	0.0070964545
17	0xbd0eada8	-0.03483358
18	0x3b7c32ea	0.0038482496
19	0xbccc2e15	-0.024924317
20	0x3cc21ca3	0.023695296
21	0x3d7a6841	0.06113458
22	0xbd858d03	-0.065210365
23	0x3c34fa1f	0.011045962
24	0xbaf33df2	-0.001855789
25	0xbce27826	-0.027645182
26	0xbc9ea02b	-0.019363483
27	0xbbe1dd01	-0.006892801
28	0xbcba2354	-0.022721924
29	0x3db12537	0.08649676
30	0xbd987205	-0.074436225
31	0x3d97e5b1	0.07416857
32	0xbbd77391	-0.006575056
33	0x3d41d6fc	0.047324166
34	0xbd8511f5	-0.06497566
35	0xbca5017a	-0.020142306
36	0xbcffe051	-0.031234892
37	0x3d8236e7	0.06358128
38	0x3d4d65cc	0.05014591
39	0xbcd20773	-0.025638318
40	0x3d3c574d	0.045981694
41	0x3d5066e8	0.05087939
42	0xbd9ff72c	-0.07810816
43	0x3c9ac21c	0.018891387
44	0x3da44f39	0.08022923
45	0x3cb8375c	0.022487335
46	0xbb17042e	-0.0023043263
47	0x3d79f7f8	0.061027497
48	0x3c302953	0.01075204
49	0x3bd84fd4	0.006601313
50	0xbd5707e6	-0.052497767
51	0xbd848b64	-0.06471899
52	0x3cdc6d82	0.026907686
53	0x3c7117f2	0.014715182
54	0x3c0ec92d	0.008714956
55	0x3d1f1127	0.038834717
56	0xbdabf027	-0.08395415
57	0xbcda7fd0	-0.026672274
58	0xbc1de2cc	-0.009636592
59	0xbdb1236e	-0.08649336
60	0xbda888c1	-0.08229209
61	0x3aa5bfb6	0.0012645635
62	0xbce940bc	-0.02847325
63	0xbd5233e8	-0.051319033
64	0x3d1d96ce	0.038473897
65	0xbcb39df0	-0.021925896
66	0x3c89ed22	0.016836707
67	0x3d7b737f	0.061389443
68	0xbce67c4e	-0.028135445
69	0xbda6dcd4	-0.08147588
70	0xbd546ffe	-0.051864617
71	0xbd2c8a9e	-0.042124383
72	0x3cc540ed	0.02407881
73	0x3c5f42a5	0.013626729
74	0x3d93e7a9	0.0722192
75	0xbd405cac	-0.04696338
76	0xbc7b7032	-0.015346574
77	0x3cd1429c	0.025544457
78	0xbd3dd70d	-0.046347667
79	0x3d05ee6a	0.032698072
80	0xbcda3cd1	-0.026640328
81	0xbd3ad577	-0.045613732
82	0xbd64fde7	-0.055906203
83	0x3ce6468b	0.02810981
84	0xbd4b397b	-0.049615365
85	0x3d93e5fd	0.07221601
86	0x3d16e9af	0.03684395
87	0x3d9cae00	0.07650375
88	0x3c88bbcc	0.016691111
89	0x3c650381	0.013977886
90	0x39ffeadb	0.0004881237
91	0x3d2965cc	0.041356847
92	0x3d89dd36	0.06731646
93	0x3d9cd2c4	0.07657388
94	0x3c3265f3	0.010888564
95	0x3d39d69c	0.045370683
96	0x3d167815	0.036735613
97	0xbd598002	-0.053100593
98	0xbca019eb	-0.019543609
99	0x3d962b4a	0.073324755
100	0x3d99d301	0.07510949
101	0x3c9628a5	0.018329928
102	0x3d3ad251	0.04561073
103	0xbd855225	-0.065098085
104	0x3d4f6065	0.05062904
105	0xbd5115ce	-0.051046185
106	0xbd73e91e	-0.05954849
107	0xbdb07b5f	-0.08617281
108	0xbd0f2993	-0.034951758
109	0x3beec38c	0.0072864946
110	0x3d05c194	0.032655314
111	0x3db490a8	0.088166535
112	0xbc87b866	-0.01656742
113	0xbd914b5b	-0.07094451
114	0x3d1eb03f	0.0387423
115	0xbdae43a7	-0.085089974
116	0x3d455c07	0.048183467
117	0x3c9135e2	0.017725889
118	0xbcb1a47d	-0.02168488
119	0x3d479490	0.048725665
120	0xbd6b5b44	-0.057460085
121	0x3d2b613f	0.041840788
122	0xbd770851	-0.060310666
123	0x3c9b65a6	0.018969368
124	0xbc048ac9	-0.00808973
125	0x3d48348c	0.048878238
126	0xbb7400c0	-0.0037231892
127	0xbc677343	-0.014126602
128	0x3cf1f15c	0.029534034
129	0xbcf521ce	-0.029923346
130	0xbd69dc5e	-0.057094924
131	0x3d84ecfd	0.064905144
132	0x3db264f7	0.08710664
133	0x3bfc6d57	0.007703464
134	0xb812e6c4	-3.502403e-05
135	0xbd98d933	-0.074633025
136	0x3d467e5f	0.04846036
137	0x3db4dc20	0.08831048
138	0x3ccf892d	0.025333965
139	0xbd8e347b	-0.069436036
140	0xbd2d0e6a	-0.042250074
141	0x3cc14903	0.023594385
142	0xbd4773c0	-0.048694372
143	0xbd5a3e05	-0.053281803
144	0xbc3b363d	-0.011426506
145	0x3c5fea3b	0.013666685
146	0xbd7a7d67	-0.06115475
147	0x3d117c98	0.035519212
148	0xbd0b1f74	-0.033965543
149	0xbd81e170	-0.06341827
150	0xbc9d3fbe	-0.019195434
151	0x3d42cc1c	0.047557935
152	0xbd990f4e	-0.07473622
153	0x3ce8cb23	0.028417176
154	0x3d69cc26	0.057079457
155	0xbc1a1730	-0.009404942
156	0x3be8468e	0.007088489
157	0x3d810bb4	0.0630106
158	0xbd952d50	-0.07284033
159	0xbdb05867	-0.086106114
160	0xbb6ba649	-0.0035957268
161	0xbd8394c8	-0.06424862
162	0x3a623a2a	0.0008629883
163	0xbda741f9	-0.0816688
164	0xbd38dd7f	-0.04513311
165	0x3d8d0a63	0.06886747
166	0xbcdae78a	-0.026721735
167	0x3da3d6bd	0.079999425
168	0xbcfaa6f5	-0.03059719
169	0x39b90099	0.00035286395
170	0x3c0c38ac	0.0085584335
171	0x3d3412a5	0.043963093
172	0x3cda8091	0.026672633
173	0xbd14257f	-0.03616857
174	0xbc23d8b1	-0.010000394
175	0x3bc6ebb5	0.006070579
176	0x3bd70fdd	0.0065631703
177	0xbc515164	-0.012775753
178	0xbd3f01ce	-0.04663258
179	0x3ba4e4dc	0.005032165
180	0xbc66d479	-0.014088743
181	0x3d8591f1	0.06521977
182	0xbd8464a2	-0.06464507
183	0x3d4044cc	0.04694061
184	0x3d81ac0a	0.06331642
185	0x3d63c90d	0.05561166
186	0xbce13736	-0.027492147
187	0xbd33bd76	-0.043881856
188	0xbd06d70d	-0.032919932
189	0x3c7f2e1a	0.015574956
190	0x3d36f116	0.04466351
191	0xbcec6b20	-0.028859675
192	0xbcab06f2	-0.020877335
193	0x3d8ad5dc	0.06779072
194	0x3ad80e99	0.0016483843
195	0xbd37b910	-0.044854224
196	0xbc6e7909	-0.014555224
197	0x3c9b130d	0.018929983
198	0xbd5926fd	-0.053015698
199	0xbc137255	-0.008999427
200	0x3ca64d82	0.02030063
201	0x3d6edf66	0.058318518
202	0xbd9583dc	-0.07300541
203	0x3d1e294a	0.038613595
204	0xb9645f96	-0.00021779383
205	0x3d2de254	0.04245217
206	0x3da01670	0.078167796
207	0xbd8f2195	-0.06988827
208	0x3d0b0bbc	0.033946738
209	0xbd1b22aa	-0.037874855
210	0x3d4ee36d	0.05050986
211	0xbcf372f4	-0.0297179
212	0xbc0b40ca	-0.008499334
213	0x3d995ad4	0.07488027
214	0xbc74a3b2	-0.014931606
215	0xbcf5600d	-0.029953027
216	0xbdadfdab	-0.08495649
217	0xbda68af1	-0.0813197
218	0x3dae8517	0.085214786
219	0x3db50116	0.08838098
220	0xbd41b71c	-0.047293767
221	0x3d7bfeb8	0.061522216
222	0xbcc53d9c	-0.02407723
223	0xbcb5b3bd	-0.022180432
224	0x3d90564c	0.0704771
225	0x3b06f597	0.002059316
226	0xbd76123b	-0.06007598
227	0xbd888a7f	-0.06667041
228	0xbce802d9	-0.02832167
229	0xbcf81ec8	-0.030288115
230	0xbb9f8a4f	-0.0048687826
231	0x3ba305b5	0.0049750456
232	0x3d8f76ed	0.07005105
233	0x3d967518	0.073465526
234	0xbd678ef0	-0.0565328
235	0xbd71a304	-0.058993354
236	0xbda5fe4a	-0.081051424
237	0x3b2cb462	0.0026352634
238	0x3da98886	0.08277993
239	0x3d598771	0.053107683
240	0x3cf08bad	0.029363478
241	0x3d0107be	0.031501524
242	0x3da2a7e9	0.079421826
243	0x3dacb75f	0.08433413
244	0x3c984f1b	0.018592408
245	0xbdabb058	-0.08383244
246	0xbad36ee7	-0.0016131074
247	0x3c6068c2	0.013696851
248	0x3d13a27e	0.036043637
249	0x3d4969ac	0.049173042
250	0xbd38bdc4	-0.04510285
251	0xbb3ba059	-0.002862951
252	0xbb1b79fb	-0.002372383
253	0xbcdb92a8	-0.02680333
254	0x3d4102ff	0.047121998
255	0xbcd05fac	-0.025436245

embed.3.bias f4 [256]
0	0xbd5c1f68	-0.05374089
1	0x3d0651c6	0.03279283
2	0xbd3b91e8	-0.045793444
3	0xbc108fc2	-0.008823337
4	0x3cd5a721	0.02608067
5	0xbda71f2e	-0.08160244
6	0xbd9229cc	-0.07136878
7	0xbda54487	-0.08069711
8	0x3cf0c433	0.02939043
9	0xbccaef61	-0.024772348
10	0xbc8d853c	-0.017275445
11	0x3932f6dd	0.00017067367
12	0x3d70267e	0.05863046
13	0x3c8c049d	0.017092044
14	0x3d3b2cd0	0.045697033
15	0xbd3c157f	-0.045918938
16	0xbd1e7abd	-0.03869127
17	0x3ce19bb5	0.027540067
18	0x3d3c3ef6	0.04595848
19	0x3d29b14e	0.041428857
20	0xbd7e7dfa	-0.06213186
21	0xbd5daf05	-0.05412199
22	0xbcde84f7	-0.027163012
23	0xbc3ce949	-0.011530229
24	0x3d3c76ca	0.046011724
25	0xbd854a97	-0.065083675
26	0x3d2df089	0.04246572
27	0x3d8f5b85	0.06999878
28	0x3d05e2d9	0.032687042
29	0xbc50d2b0	-0.012745544
30	0x3d99e5ca	0.07514532
31	0xbc632b8e	-0.013865365
32	0x3d65d0c9	0.056107316
33	0x3d8e73cb	0.069556795
34	0xbcafe692	-0.02147225
35	0x3b8089be	0.00392267
36	0xbdaab2fc	-0.0833492
37	0xbc577d11	-0.013152377
38	0xbd662856	-0.05619081
39	0x3d1a5644	0.037679926
40	0xbcd3b06b	-0.025840959
41	0xbdad6dba	-0.08468194
42	0x3d27c958	0.0409635
43	0xbbec82a3	-0.0072177215
44	0x3cf155ff	0.029459951
45	0xbc051af2	-0.0081241
46	0x3d1b79f2	0.037958093
47	0x3c67e959	0.0141547555
48	0x3c89499d	0.016758734
49	0x3d886d1d	0.06661437
50	0x3cc302aa	0.023804981
51	0xbcae1825	-0.021251747
52	0x3cfc26b7	0.03078018
53	0x3cd6fbcd	0.026243115
54	0xbd88f90a	-0.066881254
55	0x3d5dedda	0.05418191
56	0x3db25043	0.08706715
57	0xbd38a1fd	-0.04507636
58	0x3d2de010	0.04245001
59	0x3b86f3bc	0.004118411
60	0xbd8f258b	-0.06989583
61	0x3d4d0e3a	0.050062396
62	0x3d1c33e5	0.038135428
63	0xbcaae89b	-0.020862868
64	0xbd83425e	-0.06409143
65	0xbda16dae	-0.07882248
66	0x3d9801af	0.07422196
67	0x3cb46689	0.022021549
68	0xbcff8437	-0.031190975
69	0x3d688c5c	0.056774482
70	0x3db25ce6	0.08709125
71	0x3d591aba	0.053004004
72	0x3ae31f9f	0.0017328149
73	0x3b724346	0.0036966368
74	0xbd0dd3b3	-0.03462572
75	0xbda45917	-0.08024805
76	0xbd2f7c5f	-0.04284322
77	0xbc53dd9c	-0.012931254
78	0xbd55bf0c	-0.05218415
79	0x3d1c82d6	0.038210712
80	0x3c9409c9	0.018071072
81	0x3daf83a3	0.085700296
82	0x3d2d621c	0.042329893
83	0xbc413d31	-0.011794374
84	0xbd42be22	-0.047544606
85	0xbd73dd7f	-0.059537407
86	0x3ccbb1be	0.024865028
87	0xbdb14746	-0.086561725
88	0x3d671a6e	0.05642169
89	0x3cedff26	0.029052328
90	0xbca5cf60	-0.020240486
91	0x3dadf3d1	0.0849377
92	0x3d14cf2b	0.036330383
93	0x3c443fc2	0.011978092
94	0xbd498738	-0.04920122
95	0x3d95d3a7	0.0731576
96	0x3d22448e	0.03961616
97	0xbdaa8290	-0.08325684
98	0xbc57fd24	-0.013182912
99	0xbd800221	-0.06250406
100	0xbc197fc8	-0.009368844
101	0xbd34b4ba	-0.044117667
102	0xbd886bc7	-0.06661182
103	0xbcf4d13d	-0.029884929
104	0x3d901f68	0.0703724
105	0xbbe72da8	-0.007055003
106	0x3aaf840a	0.0013390791
107	0x3d30cddf	0.043165084
108	0x3dadbf6d	0.08483777
109	0xbd23fb67	-0.040034678
110	0xbdafd56b	-0.08585628
111	0x3d88aed2	0.06673969
112	0xbdab2534	-0.08356705
113	0xbccec9fd	-0.0252428
114	0xbbfaaea0	-0.0076502115
115	0x3b468be5	0.0030295786
116	0x3db1f929	0.08690102
117	0xbd8ba3cf	-0.068183534
118	0x3d88d2fe	0.066808686
119	0xbdb4ebb8	-0.08834022
120	0xbc6edf20	-0.014579564
121	0xbd815f4d	-0.06317005
122	0xbdb2487a	-0.0870523
123	0x3c92c71a	0.017917205
124	0xbd22390b	-0.03960518
125	0x3d887a87	0.06663995
126	0x3d018420	0.031620145
127	0x3bf746c3	0.0075462773
128	0xbcd87c17	-0.026426358
129	0xbcb189dd	-0.021672184
130	0x3d97bd2d	0.07409129
131	0xbbb715c7	-0.005587313
132	0x3da98ab3	0.08278408
133	0xbd63d5a0	-0.05562365
134	0x3da73d63	0.081660055
135	0xbc62d171	-0.01384388
136	0xbd8a8ae2	-0.06764771
137	0xbc9ae8c8	-0.018909827
138	0xbd4700c1	-0.048584703
139	0x3da634cf	0.08115541
140	0x3d99a44d	0.07502041
141	0xbc41308d	-0.011791361
142	0xbd9f98ae	-0.07792793
143	0x3dab4b9a	0.08364029
144	0xbd2cec60	-0.042217612
145	0xbd92b616	-0.071636364
146	0x3b1413fe	0.0022594924
147	0xbd2bd717	-0.041953173
148	0xbd0afac0	-0.03393054
149	0x3da0c93e	0.07850884
150	0xbd1492b6	-0.036272727
151	0xbd9d2804	-0.07673648
152	0xbca969b0	-0.020680279
153	0xbbb984d3	-0.005661586
154	0xbd35881b	-0.044319253
155	0xbd1bcb16	-0.038035475
156	0xbcfb7be8	-0.030698732
157	0xbc514312	-0.012772338
158	0xbc1e7fbb	-0.009674008
159	0x3c5a8ff2	0.013339983
160	0xbc94ce4b	-0.018164774
161	0x3d94554a	0.0724283
162	0x3c3b6b73	0.011439192
163	0xbdb4c89d	-0.088273264
164	0xbbbb1bf1	-0.005710118
165	0xbcca9571	-0.024729462
166	0x3be5e43b	0.0070157326
167	0x3d07b721	0.03313363
168	0xbc318ae1	-0.010836334
169	0x3da4eab0	0.080525756
170	0xbcf8b423	-0.030359333
171	0xbd8eb983	-0.06968977
172	0x3d4a7156	0.04942449
173	0x3ca73e7a	0.020415533
174	0xbd735977	-0.059411492
175	0xbd50db37	-0.05099031
176	0xbd7fb806	-0.062431358
177	0xbdb02f6b	-0.08602794
178	0xbdb4577d	-0.088057496
179	0x3c0d7329	0.008633413
180	0x3ceeba66	0.029141616
181	0x3c1c8f4c	0.009555649
182	0x3d957347	0.07297378
183	0x3d1fa1de	0.038972728
184	0xbd660d00	-0.05616474
185	0x3ce357c0	0.027751803
186	0x3d902316	0.07037942
187	0x3cc895b8	0.024485454
188	0xbd721eb7	-0.059111323
189	0xbcbe01cf	-0.023194222
190	0x3d5abc81	0.053402428
191	0xbd9883a7	-0.07446986
192	0xbd898d40	-0.067163944
193	0x3c4e650d	0.012597335
194	0x3d85082b	0.064956985
195	0xbd26de63	-0.04073943
196	0xbc267eb7	-0.010162047
197	0x3da015d1	0.07816661
198	0x3d812bd8	0.06307191
199	0x3cf08ad6	0.029363077
200	0x3d04c1ce	0.03241139
201	0x3dace41e	0.084419474
202	0x3d6978d4	0.056999996
203	0x3d2433c0	0.040088415
204	0xbd022690	-0.031775057
205	0x3d741ecb	0.05959968
206	0xbc88a191	-0.016678603
207	0x3da94b66	0.08266334
208	0x3d4ea506	0.050450347
209	0xbdafbc1b	-0.085808
210	0xbda91d13	-0.082574986
211	0xbce905b7	-0.028445108
212	0x3cfc1707	0.030772699
213	0xbc109ec9	-0.00882692
214	0xbd084a18	-0.033273786
215	0xbd1b5c72	-0.03792996
216	0xbc66677d	-0.0140627595
217	0x3d4f2fd0	0.050582707
218	0x3cfbda37	0.030743701
219	0xbda926c0	-0.08259344
220	0xbd9e4277	-0.07727521
221	0xbd22e5e0	-0.039770007
222	0xbd603a38	-0.05474302
223	0x3d6a1b9e	0.057155244
224	0xbd3a5c16	-0.045497976
225	0x3d2be533	0.04196663
226	0xbd826c43	-0.063683055
227	0xbd85243f	-0.06501054
228	0xbc0bef50	-0.008540943
229	0xbdaea4a2	-0.08527495
230	0xbd61aa07	-0.05509379
231	0xbd43b407	-0.04777911
232	0xbd265e0c	-0.040617034
233	0xbd431c6c	-0.047634527
234	0x3c71bd74	0.014754642
235	0x3d67aa70	0.056559026
236	0xbd0fca3e	-0.035104983
237	0x3a6de447	0.00090748485
238	0x3cc52d42	0.024069432
239	0xbda24ae6	-0.07924442
240	0x3da3f677	0.08005994
241	0x3cae9b4a	0.021314282
242	0xbd72d904	-0.059288993
243	0x3c8b92f8	0.017037854
244	0xbbc3c020	-0.005973831
245	0x3da2b5ba	0.07944818
246	0x3cc2c41c	0.023775153
247	0x3d9c62f7	0.076360635
248	0xbd76e9cf	-0.06028157
249	0xbd230a4e	-0.03980475
250	0xbbd67830	-0.006545089
251	0x3cd43f47	0.02590908
252	0xbda1c08f	-0.07898056
253	0x3ce75efa	0.02824353
254	0xbcb36444	-0.021898396
255	0xbd9a2261	-0.075260885

conv_spatial.mlp.0.weight f4 [256, 2]
0	0xbfc66eff	-1.5502623
1	0xbfa62a19	-1.2981597
2	0x3ff95fbe	1.9482343
3	0x3fad4917	1.353793
4	0xbf960057	-1.1718854
5	0xc003cb42	-2.0592809
6	0x3e4dfde2	0.2011638
7	0xbe7b019f	-0.24512337
8	0x3e984882	0.2974282
9	0x3da60121	0.08105684
10	0xbe8117ea	-0.25213557
11	0xbe7f2f94	-0.24920493
12	0x3e8bbe0b	0.2729343
13	0x3e166b4d	0.1468937
14	0x405a67ea	3.4125924
15	0xbf0a1d2d	-0.5395077
16	0xbe82b4f1	-0.25528672
17	0xbdabfc63	-0.08397748
18	0x3e40e86f	0.18838666
19	0xbe9152ad	-0.2838339
20	0xbe5c7e5d	-0.21532579
21	0xbe869efa	-0.26293164
22	0x3e607f83	0.21923642
23	0x3e782203	0.24231724
24	0xbe0c33ac	-0.13691586
25	0xbb8ff012	-0.0043926323
26	0x3d77ac8e	0.060467295
27	0xbd1376c8	-0.03600195
28	0xc0846da5	-4.1383843
29	0x3fa1bdab	1.2636007
30	0xbe7dd356	-0.2478765
31	0x3e2aa62e	0.16664955
32	0x3e3dc2e9	0.18531384
33	0x3e33b317	0.17548786
34	0x3ab3b928	0.0013711797
35	0xbaa89e79	-0.0012864611
36	0x3e0beef9	0.1366538
37	0xbe7bffc6	-0.24609289
38	0xbfda3811	-1.704836
39	0xc01534b3	-2.3313415
40	0x3d2a4520	0.04156983
41	0x3ea62419	0.32449415
42	0x3dbc5e21	0.09197641
43	0x3e9c3cbf	0.30515096
44	0x3e582687	0.21108447
45	0xbe64532f	-0.22297357
46	0xbe8e5d14	-0.27805388
47	0x3e258530	0.16164088
48	0x3e98e18c	0.2985958
49	0xbd636305	-0.055514354
50	0x3e9bb520	0.30411625
51	0x3c8c5efe	0.01713514
52	0xbb3235d7	-0.0027192736
53	0xba869f06	-0.0010270781
54	0xbdc88194	-0.0979034
55	0x3e9bc48d	0.30423394
56	0x3e477c2c	0.19480962
57	0x3e8ed34e	0.27895588
58	0xbe4838cd	-0.19552918
59	0x3e2fe95f	0.17178868
60	0x3da94b39	0.08266301
61	0x3e9810b8	0.29700255
62	0x3d34f8ec	0.044182703
63	0xbbca6080	-0.0061760545
64	0xc022b3fb	-2.5422351
65	0x3f9bdc3e	1.2176588
66	0xbe902577	-0.28153583
67	0xbe65a6b4	-0.22426873
68	0xbe935e94	-0.28783095
69	0x3e246c63	0.16056971
70	0x3a27d40b	0.00064021413
71	0xbabe4584	-0.0014516567
72	0xbe48abf0	-0.19596839
73	0x3e7d0335	0.24708255
74	0x3bc25681	0.005930722
75	0x3be35604	0.006937744
76	0x3e31c9d4	0.17362148
77	0xbe212697	-0.15737377
78	0x3e2faa35	0.17154773
79	0x3e82223f	0.25416753
80	0x3e84062a	0.25785953
81	0xbe59c8cf	-0.21268009
82	0xbddc52b3	-0.10757961
83	0x3e9b676d	0.30352345
84	0x40044302	2.0665898
85	0x3f91a97b	1.1379846
86	0xbe6ac15e	-0.22925326
87	0x3e61399a	0.2199463
88	0xba9582ad	-0.0011406742
89	0xbea12cf8	-0.3147962
90	0xbfd08654	-1.6290994
91	0x3efbc2d2	0.49172074
92	0xbe669a09	-0.22519697
93	0xbe4944b8	-0.1965512
94	0xbe2e44b2	-0.17018393
95	0xbe923027	-0.28552362
96	0xbe73fdf7	-0.23827349
97	0xbdd1a0ee	-0.10235773
98	0xbe4e0eeb	-0.20122878
99	0xbe20c68b	-0.15700738
100	0x3bf12fcf	0.0073604356
101	0x3e8d94e1	0.27652648
102	0x3ea6c855	0.32574716
103	0xbc9a756e	-0.018854823
104	0x3d8b8f53	0.06814446
105	0xbdb4295d	-0.08796952
106	0xbe77e1a3	-0.24207167
107	0x3e735ba9	0.23765434
108	0xbd2bfab3	-0.041987132
109	0xbe9aba80	-0.30220413
110	0x3aff4a8f	0.0019477176
111	0x3e8bbb53	0.27291355
112	0xbe3a0006	-0.18164071
113	0x3e7c1e74	0.24620992
114	0x3e899656	0.2687251
115	0xbe2b52f6	-0.16730866
116	0xbe212634	-0.1573723
117	0x3e8be1de	0.2732076
118	0x3e345bfa	0.17613211
119	0x3ebf2a29	0.37336853
120	0xbe33e848	-0.17569077
121	0xbe9a3dc4	-0.30125248
122	0xbe766687	-0.24062549
123	0xbe0a79e8	-0.13523066
124	0x3e758288	0.23975575
125	0xbe1d7051	-0.15374877
126	0x3fe097c3	1.7546314
127	0x3f1207c7	0.5704312
128	0x3e5e73b0	0.21723819
129	0x3e827a26	0.25483817
130	0xbd7c8a46	-0.061655305
131	0xbe34347e	-0.17598149
132	0xbd54e711	-0.051978175
133	0xbea3ea56	-0.32014722
134	0xbda55900	-0.08073616
135	0x3e95710a	0.29187804
136	0xbe816f2e	-0.25280136
137	0x3e5e1c2f	0.21690439
138	0x3d055398	0.032550424
139	0x3d86370e	0.065534696
140	0xbdd5ddea	-0.104427174
141	0xbe673ac2	-0.22581008
142	0xbe02d28a	-0.12775627
143	0x3e83f149	0.25770023
144	0x3e7a779f	0.24459694
145	0xbdbc629c	-0.09198496
146	0x3e211646	0.15731153
147	0x3e5a3f06	0.21313104
148	0x3e59c4fd	0.21266551
149	0xbe2a1dbc	-0.16612905
150	0xbca197a5	-0.01972563
151	0xbe84b557	-0.259196
152	0xbd084b76	-0.03327509
153	0xbe57315d	-0.21014924
154	0xbe5896bc	-0.2115125
155	0x3e23b59c	0.15987247
156	0x3da822c9	0.0820976
157	0xbe9a1c68	-0.30099797
158	0x3e8a8abd	0.27058974
159	0x3e0519cf	0.12998126
160	0xbe9e6d7f	-0.30942914
161	0x3d7117c2	0.058860548
162	0x3d5c9da4	0.053861275
163	0xbe88840b	-0.2666324
164	0x3d6adaf5	0.05733772
165	0xbe9933d2	-0.29922348
166	0x3a8c4bf8	0.0010703793
167	0xba586a56	-0.00082555914
168	0x3e88a8ed	0.2669138
169	0x3e41e782	0.1893597
170	0xbea4e8d5	-0.32208887
171	0xbd058a1c	-0.032602414
172	0xbea8ae6a	-0.32945567
173	0x3db8df38	0.090269506
174	0x3b1b816f	0.0023728271
175	0x3abbcf6c	0.0014328784
176	0xbe456b2e	-0.19279167
177	0xbcb8677d	-0.022510285
178	0xbe685fd8	-0.22692811
179	0xbe12f60c	-0.14351672
180	0xbefff219	-0.49989393
181	0xbf8821ac	-1.0635276
182	0x3b961e5e	0.004581257
183	0xbda12603	-0.07868578
184	0xbe8abf35	-0.27099004
185	0xbe166e43	-0.14690499
186	0xbc325a39	-0.010885769
187	0x3d966d96	0.073451206
188	0xbe689dcc	-0.22716445
189	0x3e26c355	0.16285451
190	0xbe70cbee	-0.23515293
191	0x3e66788b	0.22506921
192	0xbf9db84f	-1.2321872
193	0x3fefae12	1.8724997
194	0xbce55e0c	-0.027998947
195	0x3e99df12	0.30053002
196	0x3da7e11c	0.08197233
197	0x3e3990ec	0.1812169
198	0xbe82dce5	-0.25559154
199	0x3e39e2a7	0.18152867
200	0x3e9847d2	0.29742295
201	0xbd8bd096	-0.06826894
202	0xc00f9aea	-2.2438302
203	0xbf7d37c2	-0.98913205
204	0x3e4f8e52	0.20269135
205	0x3e56737f	0.20942496
206	0xbcea8ea2	-0.028632466
207	0x3e9a17be	0.3009624
208	0x3e054330	0.13013911
209	0xbe7755cf	-0.24153827
210	0x3fb9dac0	1.4519882
211	0x3ff2d0b8	1.8969946
212	0xbc86cda2	-0.016455475
213	0xbe9ab17b	-0.30213532
214	0xbf76cbd2	-0.96404755
215	0xc02ae315	-2.67011
216	0x3e273790	0.16329789
217	0xbef98b78	-0.4873922
218	0xbb05f7d9	-0.0020441918
219	0xba14bf69	-0.0005674274
220	0xbec46156	-0.3835551
221	0xbecd0470	-0.40042448
222	0x3b11aaed	0.0022227124
223	0x3aa7fcc7	0.0012816422
224	0xbe5a118e	-0.21295759
225	0xbe860808	-0.26178002
226	0x3e6fb0fd	0.2340736
227	0xbe497f17	-0.19677387
228	0xbd1a8aab	-0.0377299
229	0x3e9b9b97	0.30392143
230	0xbe4cde48	-0.20006669
231	0x3e6db2fd	0.2321281
232	0xbe200e48	-0.15630448
233	0xbe8d8c41	-0.27646068
234	0x3cade00d	0.021225
235	0x3e4dc64f	0.2009518
236	0x3e2b3c7e	0.16722295
237	0xbe83e691	-0.25761846
238	0x3e9352b5	0.28774038
239	0x3e4625f6	0.19350418
240	0x3e93a901	0.28839877
241	0xbe2553ab	-0.16145198
242	0x3e984185	0.29737487
243	0x3d462142	0.04837156
244	0xbd98fc67	-0.07470017
245	0x3e9bfd73	0.30466804
246	0x3e082c9a	0.13298264
247	0x3e9f6609	0.31132534
248	0x3e91ebd0	0.28500223
249	0xbd7764df	-0.060398933
250	0x3e29c036	0.16577229
251	0x3e6cf0f0	0.23138785
252	0x3e84977f	0.25896832
253	0x3dedf14a	0.11618288
254	0xbd98b45d	-0.074562766
255	0xbdad4712	-0.08460821

conv_spatial.mlp.2.weight f4 [256, 256]
0	0x3cae96ac	0.02131208
1	0x3da074b2	0.07834758
2	0xbdd52b20	-0.10408616
3	0xbd852aaf	-0.06502282
4	0xbee07206	-0.43836993
5	0x3e99e41e	0.30056852
6	0xbea37ccf	-0.3193116
7	0x3e9da0f2	0.30786854
8	0x3ed132f0	0.40859175
9	0xbdb085fa	-0.08619304
10	0x3e8d3020	0.2757578
11	0xbe3569ea	-0.17716184
12	0x3e8497a0	0.2589693
13	0xbe54ad21	-0.20769168
14	0xbed38643	-0.4131337
15	0x3e0d4baa	0.13798395
16	0xbe8544e2	-0.26029116
17	0x3d1a8403	0.037723552
18	0xbb99f077	-0.004697855
19	0xbeabc414	-0.33548033
20	0xbd9bd33f	-0.07608651
21	0xbdbad9a8	-0.09123546
22	0xbddcf26e	-0.10788427
23	0x3e615b6a	0.22007528
24	0xbe86e144	-0.2634374
25	0xbe9387b5	-0.28814474
26	0x3c50c513	0.012742299
27	0x3d4cb8fb	0.0499811
28	0xbe297962	-0.1655021
29	0x3dceb581	0.10093213
30	0xbd793191	-0.060838286
31	0xbe1c84f7	-0.15285097
32	0xbe8daa33	-0.27668914
33	0x3e87450a	0.2641986
34	0x3e4db1de	0.20087382
35	0xbd1ba57e	-0.037999623
36	0x3d87cad7	0.066304855
37	0xbe285ef9	-0.16442479
38	0xbd9a7880	-0.07542515
39	0xbe6cd101	-0.23126604
40	0xbe48e61c	-0.1961903
41	0x3c411735	0.011785318
42	0x3caeb526	0.021326613
43	0x3e365a1f	0.17807816
44	0x3a9e57f8	0.001208066
45	0xbd863d49	-0.06554658
46	0x3e93c99b	0.2886475
47	0x3e3a8926	0.1821638
48	0x3eb5236b	0.35378584
49	0x3e9e53e1	0.3092337
50	0xbda28d3c	-0.079370946
51	0xbe938857	-0.28814957
52	0xbc9c912e	-0.019112196
53	0x3deb1628	0.11478835
54	0x3d8fd485	0.07022957
55	0xbd8ae8ae	-0.067826614
56	0x3dec31c1	0.11532927
57	0xbe184101	-0.14868547
58	0x3d7e8b2d	0.062144447
59	0xbdd6fd0e	-0.10497485
60	0x3e07cef0	0.13262534
61	0x3ea71d52	0.32639557
62	0xbe2cfee9	-0.16894116
63	0xbdbb62f6	-0.09149735
64	0xbe83fb16	-0.257775
65	0x3d1979b1	0.03746957
66	0x3c5ed1ef	0.013599857
67	0xbd177e95	-0.036985952
68	0x3dec37fb	0.11534115
69	0xbc749455	-0.014927943
70	0x3d764463	0.060123812
71	0x3d6cd784	0.05782272
72	0xbe1067d2	-0.14102104
73	0xbe0fbf1f	-0.1403775
74	0xbdd73b74	-0.10509387
75	0x3ddcb316	0.107763454
76	0x3d9b4928	0.07582313
77	0x3e244a89	0.16044058
78	0xbc52b116	-0.012859603
79	0xbea448a4	-0.3208667
80	0x3ea62a9d	0.32454386
81	0xbd2972e1	-0.041369323
82	0x3d62821c	0.055299863
83	0xbd0e29f1	-0.034707967
84	0xbeb24c5f	-0.34823892
85	0x3ecde099	0.40210417
86	0x3e72fdb5	0.23729594
87	0x3d22aae5	0.03971376
88	0x3e940bb0	0.28915167
89	0x3eabc6b3	0.33550033
90	0xbc83a4f7	-0.016069872
91	0xbc2379e5	-0.009977792
92	0x3ea7d635	0.32780614
93	0x3d290d1c	0.041272268
94	0x3dcdf4b8	0.10056442
95	0x3dcb4152	0.09924568
96	0xbd5038ab	-0.050835293
97	0xbd3b07fd	-0.045661915
98	0xbdf6f8e0	-0.12059188
99	0x3dd5b3ab	0.104346596
100	0xbe9a46d8	-0.30132174
101	0xbcc167fa	-0.02360915
102	0xbe95d885	-0.29266754
103	0x3c22c7fd	0.009935376
104	0xbc977da2	-0.018492524
105	0x3e03e666	0.12880859
106	0x3d27d442	0.04097391
107	0xbe4a1945	-0.19736202
108	0xbd1545e8	-0.03644362
109	0xbd3b7c7b	-0.04577301
110	0x3dbd8cc2	0.09255363
111	0xbc94f19d	-0.018181616
112	0x3e4b6979	0.19864453
113	0xbe3dba6b	-0.18528144
114	0x3c6387a7	0.0138873225
115	0x3d84691b	0.0646536
116	0x3de5751e	0.11203979
117	0x3a983b37	0.0011614327
118	0xbdeebb1e	-0.116567835
119	0xbeaa5639	-0.33268908
120	0xbe51b6c2	-0.20479873
121	0xbeb9137c	-0.36147678
122	0xbd6de49f	-0.05807936
123	0xbdb7c76c	-0.089735836
124	0xbe964c2c	-0.2935499
125	0xbde40538	-0.11133808
126	0xbe0e4dd7	-0.13896881
127	0x3e442d53	0.19157915
128	0x3e399c54	0.1812604
129	0xbeaed7c3	-0.34148988
130	0xbce6471f	-0.028110085
131	0xbe63b8bc	-0.2223844
132	0x3eaa60bd	0.3327693
133	0xbdb69527	-0.08915167
134	0x3ec2ca4a	0.3804496
135	0xbea26081	-0.31714252
136	0x3cf50afa	0.02991246
137	0x3e99ec35	0.30063024
138	0x3e36ed9b	0.17864077
139	0xbde2b551	-0.110697396
140	0x3dc0885e	0.0940101
141	0xbc279d75	-0.010230412
142	0xbea72ad7	-0.32649872
143	0x3e07023b	0.13184445
144	0x3cda2b24	0.0266319
145	0xbeb661ac	-0.35621393
146	0x3db187b1	0.08668459
147	0x3c9ed99b	0.019390872
148	0x3eea0246	0.4570486
149	0x3e81db38	0.25362563
150	0x3e64c7bf	0.22341822
151	0x3deb0be7	0.114768796
152	0x3eafe2b9	0.34352663
153	0x3e2962da	0.16541615
154	0x3c3d4455	0.011551936
155	0x3e76dd74	0.24107915
156	0x3e5f3a1e	0.21799514
157	0xbe1ae28a	-0.1512548
158	0x3d3f00ad	0.046631504
159	0x3e4061cd	0.18787308
160	0xbeabfb1b	-0.33590016
161	0x3d8815fd	0.06644819
162	0xbed6873c	-0.4190005
163	0x3e2205a6	0.15822467
164	0x3b5cdc27	0.0033700557
165	0xbecdac08	-0.40170312
166	0x3ea38e09	0.31944302
167	0x3e44cd18	0.19218862
168	0xbe30f3c3	-0.17280488
169	0xbdd25627	-0.102703385
170	0x3e98d020	0.29846287
171	0x3db38dda	0.087672904
172	0xbec9815a	-0.393565
173	0x3d962b4f	0.07332479
174	0x3ba0640a	0.004894738
175	0x3caf2fd1	0.021385105
176	0x3e313b11	0.17307688
177	0xbd68ad3e	-0.05680584
178	0x3de4bdc7	0.1116901
179	0x3e8e5af5	0.2780377
180	0x3e55fd85	0.20897491
181	0xbd0cf77e	-0.034415714
182	0x3de6f357	0.11276882
183	0xbe23c5e2	-0.15993455
184	0x3e6d8c79	0.23198117
185	0xbe9746e9	-0.29546288
186	0xbd6249b6	-0.055246077
187	0xbe05880b	-0.13040178
188	0xbe3b1a5c	-0.18271774
189	0x3e0a75f1	0.13521554
190	0x3d9198e1	0.071092375
191	0x3df8c69e	0.12147258
192	0xbde93040	-0.11386156
193	0xbd9416a2	-0.07230879
194	0xbe5e1374	-0.21687108
195	0xbde70e8c	-0.112820715
196	0x3e3998e4	0.1812473
197	0x3c67e196	0.014152905
198	0xbd091989	-0.033471618
199	0x3d1a88d6	0.037728153
200	0x3dc84bbb	0.097800694
201	0xbea2e99c	-0.31818855
202	0x3ea7c18d	0.32764855
203	0xbd1967b1	-0.037452403
204	0x3dc4cbfe	0.09609221
205	0xbe9eacdb	-0.30991253
206	0xbea2a912	-0.31769615
207	0x3dd74c0d	0.105125524
208	0xbc19c9d1	-0.009386496
209	0xbd75ecc6	-0.060040258
210	0xbe2bd159	-0.16779079
211	0xbe47e28f	-0.19520019
212	0x3e02a0d9	0.12756671
213	0xbde14b45	-0.11000685
214	0x3b94b380	0.0045379996
215	0x3edc6c78	0.43051505
216	0x3c5444cb	0.012955855
217	0x3d9175d2	0.071025506
218	0x3dae98b7	0.08525222
219	0xbe8214f2	-0.25406605
220	0xbcea115a	-0.028572727
221	0x3e5bf914	0.21481735
222	0xbd32143f	-0.04347634
223	0xbe8c7b80	-0.27437973
224	0x3b106968	0.0022035483
225	0xbe6c1a24	-0.23056847
226	0x3ead1236	0.33802956
227	0xbe75031c	-0.23926967
228	0x3e97b0cf	0.29627082
229	0xbe8556af	-0.26042697
230	0xbe391dd9	-0.18077792
231	0x3d089642	0.033346422
232	0xbdce9d32	-0.100885764
233	0x3bfcd87d	0.007716237
234	0xbe89467c	-0.26811588
235	0x3ea047e9	0.31304863
236	0x3e5137db	0.20431463
237	0xbd03e2b5	-0.032198627
238	0x3e904fb3	0.28185806
239	0xbed049bf	-0.40681264
240	0xbdbac70a	-0.09119995
241	0x3db67ef5	0.08910934
242	0xbebf6436	-0.37381142
243	0xbdf39aca	-0.11894758
244	0x3ea0b3f9	0.31387308
245	0x3d495af0	0.04915899
246	0x3eb5e020	0.35522556
247	0xbeb8c909	-0.36090878
248	0x3e97056d	0.29496327
249	0x3cf26a5b	0.02959173
250	0xbe119f37	-0.14220892
251	0x3e603c62	0.21898034
252	0xbdfdb2e3	-0.123876356
253	0xbe9cccf5	-0.3062512
254	0x3e3a933b	0.18220226
255	0x3d7b9f2b	0.06143109

conv_spatial.mlp.4.weight f4 [2, 256]
0	0xbedb3243	-0.42811784
1	0x3eaddc25	0.3395702
2	0x3d4bbe81	0.049742226
3	0x3e9f6756	0.31133527
4	0xbda2db06	-0.07951932
5	0xbe70530d	-0.23469181
6	0x3e0a269d	0.13491292
7	0xbef02cfd	-0.46909323
8	0x3e6f336f	0.23359464
9	0xbd979bf9	-0.07402796
10	0x3ee50f98	0.4473846
11	0x3e3672bc	0.17817205
12	0xbf68f530	-0.90999126
13	0x3ebf3c87	0.37350866
14	0xbf45fa2a	-0.77334845
15	0xbe5609f0	-0.20902228
16	0xbe784770	-0.24246001
17	0xbe83be61	-0.25731185
18	0x3d9e685a	0.07734747
19	0x3d5dd285	0.054155845
20	0xbe4b38ae	-0.1984584
21	0xb996de08	-0.00028775656
22	0xbebda82a	-0.37042361
23	0x3f165cf9	0.58735615
24	0x3e878194	0.26466048
25	0xbf4fc952	-0.81166565
26	0xbe070e07	-0.13188945
27	0x3e916025	0.28393665
28	0x3e4d57f3	0.20053081
29	0xbe2fa078	-0.17151058
30	0x3e812511	0.25223592
31	0x37880dd7	1.6218908e-05
32	0x3e1059aa	0.14096704
33	0xbe8a8de4	-0.2706138
34	0xb96c2553	-0.00022520618
35	0xba262781	-0.0006338284
36	0x3dccc667	0.0999878
37	0xbe50b613	-0.20381956
38	0xbe5de305	-0.21668632
39	0x3db5ab37	0.08870547
40	0x3c39fa4e	0.011351181
41	0x3dde86ef	0.1086558
42	0x3ea735a6	0.32658118
43	0xbecec1ee	-0.40382332
44	0xbdd2d6bd	-0.10294864
45	0xbe241779	-0.16024579
46	0xbed17583	-0.40909967
47	0xbc8e28c1	-0.017353417
48	0x3dd83cd1	0.10558475
49	0xbe83dced	-0.2575449
50	0xbe443e41	-0.19164373
51	0xbecfe769	-0.4060624
52	0xbeee5da9	-0.46555832
53	0xb792920f	-1.747257e-05
54	0x3eaf61cd	0.34254304
55	0xbd5237fc	-0.051322922
56	0x3e2daf15	0.1696132
57	0x3ebaae26	0.3646099
58	0x3e8ee0f1	0.27905992
59	0xbe09d2d9	-0.13459338
60	0x3ea87ba7	0.3290684
61	0xbe74fc47	-0.23924361
62	0x397bde03	0.00024019931
63	0xbe9fbc74	-0.31198466
64	0xbdc53c23	-0.09630611
65	0x3cd522d5	0.026017586
66	0x3a10c88f	0.00055230496
67	0x3e66c160	0.22534704
68	0xbd3d6da4	-0.04624714
69	0xbe5a3c49	-0.2131206
70	0x3e248506	0.1606637
71	0x3c02c27f	0.007980942
72	0x3e0edfff	0.13952635
73	0xbd09e00a	-0.033660926
74	0x3f4420e3	0.7661268
75	0xbecaf384	-0.39638913
76	0xbd623ec5	-0.055235643
77	0x3f429e43	0.7602274
78	0xbe3ff02d	-0.18743964
79	0xbde07fb7	-0.1096186
80	0x3e984142	0.29737288
81	0x3ddf2342	0.10895397
82	0x3e50b726	0.20382366
83	0xbd4f2e60	-0.050581336
84	0xbe8dc531	-0.27689508
85	0xba381958	-0.00070228195
86	0x3ddd1221	0.107944734
87	0x3d8969f5	0.06709663
88	0xbc970019	-0.018432664
89	0x3eb3012c	0.34961832
90	0x3db5fa5e	0.088856444
91	0x3a5812d5	0.0008242552
92	0xbccb04d9	-0.024782585
93	0x3ea96626	0.33085746
94	0x3e5fcc74	0.21855336
95	0xbdf2806e	-0.11840902
96	0x3e309357	0.17243706
97	0x3e6812bf	0.22663401
98	0xbdb4f9ae	-0.08836685
99	0x3e6400d7	0.22265945
100	0x3e878705	0.264702
101	0x3e1c48b8	0.15262115
102	0xbe82b1ef	-0.25526378
103	0xbe92ab67	-0.28646395
104	0xbe5a26dc	-0.21303886
105	0x3e904aa4	0.28181946
106	0x3e9f8271	0.31154206
107	0x3e671e8b	0.22570245
108	0xbe7a4091	-0.24438693
109	0x3df0a08f	0.11749374
110	0xbeee6890	-0.4656415
111	0x3e3fa675	0.18715842
112	0xbe684360	-0.22681952
113	0x3e72d19d	0.23712774
114	0xbe262708	-0.16225827
115	0x3e0d7edf	0.13817929
116	0xbf55f50f	-0.83577055
117	0xbed2706d	-0.411014
118	0xbe6da6ad	-0.23208113
119	0xbf2422a0	-0.64115334
120	0xbe380abf	-0.1797285
121	0x3df206f7	0.11817735
122	0xbd1a0280	-0.03760004
123	0xbd6b1d9b	-0.05740128
124	0x3e982e2f	0.29722735
125	0xba177dbc	-0.0005778929
126	0xbe574f95	-0.21026452
127	0x3e653a05	0.22385414
128	0x3e3abc93	0.18235998
129	0x3a2e7109	0.0006654417
130	0x3e9c5eb6	0.3054101
131	0xbe66d97b	-0.225439
132	0xb9cd06a8	-0.00039105606
133	0xbdae5c1a	-0.08513661
134	0x3a34bb12	0.0006894331
135	0x3e2c4f2e	0.1682708
136	0xbda9fbb8	-0.08299965
137	0xbc5dc0b7	-0.013534716
138	0x3d0608e6	0.03272333
139	0x39ca7bce	0.00038620684
140	0x3e5208bd	0.20511146
141	0xbece6d9b	-0.40317997
142	0x3e9a0c34	0.30087435
143	0x3ed18690	0.40922976
144	0xbeaf6340	-0.3425541
145	0xbdd2c719	-0.10291881
146	0x3f3a75c4	0.72835946
147	0xbcb76d33	-0.022390937
148	0x3d555502	0.052083023
149	0x3daf44be	0.085580334
150	0x3eb063e8	0.34451222
151	0x3f2b70a7	0.6696877
152	0x3ebd38b7	0.36957332
153	0x3e3b30b0	0.18280292
154	0x3df9e962	0.12202717
155	0x3ddab02d	0.10678134
156	0x3e7d755b	0.24751799
157	0x3ddb07c4	0.106948406
158	0xbe9d5902	-0.3073197
159	0xbe95f050	-0.29284906
160	0xbda66b27	-0.081259064
161	0x3e5a2d19	0.21306266
162	0xb9a3709a	-0.00031173677
163	0x3c2b62c2	0.010460557
164	0xbf05caab	-0.5226237
165	0x3ea073a6	0.31338233
166	0xbea5476e	-0.3228106
167	0xbe9c0fb7	-0.3048074
168	0x3e10386f	0.14084028
169	0x3e7f531c	0.24934047
170	0x3ec70fcd	0.38879243
171	0xbe74ba9d	-0.23899312
172	0x3d4267a9	0.04746214
173	0xbe3810d7	-0.17975174
174	0xbd552147	-0.05203369
175	0xbea26095	-0.3171431
176	0x3cf44e01	0.029822351
177	0xbf444928	-0.7667413
178	0x3eeb4568	0.4595139
179	0x3ea407e4	0.3203727
180	0xbe2c3cba	-0.1682004
181	0x3f1b4c23	0.6066305
182	0x3d9ff235	0.07809869
183	0x3e96632d	0.2937254
184	0x3ed2dc3f	0.4118366
185	0x3e3b5b0f	0.18296455
186	0x3de795a2	0.11307837
187	0xbec4c90c	-0.38434637
188	0xbf68e6b5	-0.9097703
189	0x3dfaf031	0.12252844
190	0xbec60af3	-0.3868023
191	0x3f530d9b	0.82442635
192	0x3dadbcaf	0.08483254
193	0xbeb7b31d	-0.3587884
194	0xbc94d71f	-0.018168984
195	0x3e5352ca	0.2063705
196	0xbe5267c9	-0.20547403
197	0xbefcf92d	-0.49408856
198	0xbe404194	-0.18775016
199	0xbeaeaf89	-0.34118298
200	0xbea09931	-0.31366876
201	0xbeba7674	-0.36418498
202	0xbea53ca1	-0.3227282
203	0xbf50896b	-0.81459683
204	0x3e4e7382	0.2016125
205	0xbe58e958	-0.21182764
206	0xbe2dc83e	-0.16970918
207	0xbf471a25	-0.7777427
208	0x3bfbd5e1	0.0076854085
209	0xbdb41b64	-0.08794287
210	0x3ed05ab6	0.40694207
211	0xbe95fed9	-0.29295996
212	0xbf1eb03f	-0.6198768
213	0x3f512f14	0.8171246
214	0xbedf56d4	-0.43620932
215	0xbe7f2bcc	-0.24919051
216	0xbe60e6f7	-0.21963106
217	0xbe2cfd44	-0.16893488
218	0xbf3007ed	-0.68762094
219	0x3e1d5e2b	0.15367953
220	0x3aab0ec3	0.0013050664
221	0x3eb12a3f	0.34602544
222	0xbe6793f8	-0.2261504
223	0xbeeef41e	-0.46670622
224	0xbed58b85	-0.41708007
225	0x3a2b2ac3	0.00065295043
226	0x3ec4d4d2	0.3844362
227	0xbe5a5f10	-0.21325326
228	0x3eaae68e	0.33379024
229	0xbed12296	-0.408467
230	0xbedc6006	-0.4304201
231	0xbe156f8c	-0.14593333
232	0x3ef576a1	0.4794207
233	0x3e6121e7	0.21985589
234	0x3dbab173	0.09115877
235	0x3ebad002	0.36486822
236	0x38a3f11d	7.8173565e-05
237	0x3ec185a2	0.37797266
238	0x3c98d1d5	0.018654743
239	0xbe7696fd	-0.24081035
240	0x3db1fe83	0.086911224
241	0xbe41a2a4	-0.18909699
242	0xbe216a69	-0.15763249
243	0x3e7279b8	0.23679245
244	0x3f14dda1	0.5815068
245	0x3eccbf21	0.3998957
246	0xbdee089d	-0.116227366
247	0xbdb11bc5	-0.08647875
248	0x3ea133eb	0.31484923
249	0xbf7fb9a5	-0.99892646
250	0xbd81a46c	-0.06330189
251	0x3e761224	0.24030358
252	0x39a32110	0.00031114416
253	0x3d97227e	0.07379626
254	0xbe414353	-0.18873338
255	0x3dfa3e55	0.1221892
