logs/M5D1_r04/score.pt (torch, 732745 bytes, 10 tensors)

embed.0.W f4 [64]
000000 1f 3e 68 c0 04 d3 a6 41 7e 95 9b 41 96 af 2e c1
       -3.6287916 20.853035 19.447994 -10.917868
000010 40 05 95 41 0c ab 04 42 5d 09 7c 40 ba 3d c4 c0
       18.627563 33.167038 3.9380715 -6.132535
000020 db 1a b6 c0 d9 d6 25 c1 dc d4 97 c1 1a 47 0a c1
       -5.6907783 -10.364953 -18.978935 -8.642359
000030 0d f6 bf 3f 55 65 e4 c1 cd 95 14 42 f9 97 5e 40
       1.4996964 -28.549479 37.14629 3.4780257
000040 69 c7 e3 41 04 1d 38 41 2a b1 34 c1 b5 1b 2f c2
       28.472368 11.507084 -11.293253 -43.777058
000050 e5 36 15 41 5d e9 21 c1 99 f4 cb 41 a8 27 35 40
       9.325902 -10.119473 25.494432 2.8305454
000060 43 b2 14 40 5b e2 fd c1 cf 23 9e c2 5a 81 90 c1
       2.3233802 -31.735525 -79.06994 -18.06316
000070 7a ab e5 c1 28 f0 f3 c0 7a 60 bc 41 08 e7 e4 41
       -28.708729 -7.623066 23.547108 28.612808
000080 78 2d 8a c0 8e ab 85 c1 f9 bd 88 41 cd ee c7 41
       -4.3180504 -16.708767 17.09276 24.991602
000090 8c 37 b7 c1 2f 58 1f c0 03 61 ec 41 4c 45 8d c1
       -22.902122 -2.4897573 29.547369 -17.658836
0000a0 ce 1c a6 41 8c 9c b5 c1 3b be c7 40 c2 b2 af 3f
       20.764065 -22.701439 6.2419715 1.3726428
0000b0 46 87 aa 41 bb 72 95 3f 75 05 b6 c1 5c f9 4a 42
       21.316051 1.1675638 -22.752665 50.743515
0000c0 72 41 00 c2 4c 2a 24 c1 ae 6f ca 41 dd 08 b5 40
       -32.06391 -10.260326 25.304531 5.657332
0000d0 0f 19 54 c2 6c 05 67 c1 18 40 4c 42 70 74 46 c1
       -53.02447 -14.438824 51.06259 -12.403427
0000e0 e7 fa cb c0 27 1a 01 42 31 0f a3 41 1b 6b 8a 42
       -6.3743777 32.27554 20.382418 69.20919
0000f0 06 7a b4 41 f4 89 f9 c0 ac a6 51 41 42 ce 07 42
       22.559582 -7.79809 13.103191 33.951424

embed.1.weight f4 [128, 128]
000000 c8 a1 87 bd aa 38 68 bd fc 5e 3b 3d 70 90 a6 bd
       -0.06622654 -0.056694664 0.04574488 -0.08133018
000010 97 97 b1 bd bb 91 f0 3b 09 1d df 3c b6 c9 8c 3d
       -0.086714916 0.007341591 0.027235525 0.06874411
000020 6c ee 6f bd 77 65 97 3d 02 67 5a bd b8 9e 3c bd
       -0.058576986 0.073924 -0.053320892 -0.046049803
000030 cc 21 05 3c f0 cd 2a bc 40 7a a0 bd ba 57 99 bd
       0.008125734 -0.010425076 -0.07835817 -0.07487436
000040 6b 41 74 3d 84 2d 25 3d a1 b4 6a bc 36 7f b2 bd
       0.0596327 0.04032661 -0.014325292 -0.0871567
000050 b0 ae af 3c ad fa 8b bd c2 af 7d bd bb 43 ac bc
       0.021445602 -0.06834922 -0.061935194 -0.02102839
000060 8a bd 15 3d 35 72 46 3d 1f 7f 9b bd ff 5e 00 bd
       0.03655771 0.04844876 -0.07592606 -0.031340595
000070 4c 2c 97 bd 72 9c 9d 3d 10 97 83 bd a7 c7 8d 3d
       -0.07381496 0.07695855 -0.06425297 0.06922846
000080 5d 82 78 3d b4 96 e7 3c 51 0b a7 3d 2a df 73 3d
       0.0606712 0.028270103 0.08156455 0.059538998
000090 44 aa a7 bd 60 7b bc 3b 75 9d f5 3c 46 e6 87 bd
       -0.081867725 0.005752012 0.029982308 -0.06635718
0000a0 64 c8 99 bd 09 e9 74 bb b8 62 3d 3d 84 c6 82 3d
       -0.075089246 -0.0037370345 0.046236724 0.0638552
0000b0 02 52 89 3d e4 45 87 3c ee 50 48 3d b3 79 b0 bd
       0.06705095 0.016512819 0.048905306 -0.08616962
0000c0 35 4d 20 bc 05 39 b1 bd 56 47 38 ba 05 be 92 3b
       -0.009784033 -0.08653454 -0.0007029673 0.0044782185
0000d0 f7 e3 48 3d df 39 7d bd 36 e4 98 bd 1b ff e4 bc
       0.04904553 -0.06182277 -0.07465403 -0.027953675
0000e0 14 4b fe b8 0f df 0d bd 37 54 9c 3d 30 dd 14 bd
       -0.00012125648 -0.034636553 0.0763325 -0.036343753
0000f0 9d 00 80 3d fe 56 4d 3d 67 14 68 3d 56 da 8f 3d
       0.06250117 0.05013179 0.056660082 0.07024066
000100 b8 c6 4e 3c 02 37 5b 3d 40 ef 25 3d 5b 40 c8 3c
       0.01262062 0.053519256 0.04051137 0.02444475
000110 99 c7 36 3c ce dd 79 3d 79 5f 30 bd 79 e2 74 bd
       0.011155986 0.061002545 -0.0430598 -0.059786294
000120 11 29 a5 3d eb 28 77 bd f7 80 38 3b 2e ef 28 3b
       0.080644734 -0.060341757 0.002815304 0.0025777328
000130 ff a7 88 bc ef 0c a4 3d c6 5c a2 bc 20 73 88 bd
       -0.01668167 0.080102794 -0.019819628 -0.06662583
000140 86 0d 8b bc e0 6c 3f 3d b1 69 24 3c ea 0b 71 3d
       -0.016974222 0.04673469 0.010034964 0.058849253
000150 cd 38 8f 3d 3e 20 91 bd 02 b3 4e bc a0 4d aa bd
       0.06993256 -0.07086228 -0.012615921 -0.08315587
000160 8a 3d 0d 3d 28 41 56 3d 9b a6 af bd cd da 96 bd
       0.034482516 0.05230823 -0.08576699 -0.07365952
000170 67 d8 b8 3c d1 09 45 3b 7c 9f 85 bc 56 ec 38 bd
       0.022564126 0.0030065665 -0.0163114 -0.045147263
000180 bb 1c a3 3c 94 80 fd 3c 5c a9 12 bd bf 0a 29 3d
       0.01991116 0.0309451 -0.035806045 0.041270014
000190 c6 16 ae 3d 1d 5b 25 3d eb 34 b4 3d 54 66 57 3d
       0.085004374 0.040370096 0.08799156 0.052587822
0001a0 0c 1b a8 bc 16 f6 91 3b 53 2c 93 bd 81 5d cc 3c
       -0.02052071 0.0044543846 -0.071861885 0.02494693
0001b0 b2 c9 30 bd 76 51 6e 3d 14 95 95 3d 83 71 e3 bc
       -0.0431611 0.058183156 0.07303825 -0.027764088
0001c0 d7 83 b3 bc a8 41 10 3d 9d d1 48 3d e5 62 f6 3b
       -0.021913452 0.035218865 0.049028028 0.0075191134
0001d0 c2 ce 60 bd 52 be 53 bd 65 76 6e bd f9 09 f3 3a
       -0.05488468 -0.051695175 -0.05821838 0.0018542401
0001e0 b4 27 b2 bc e9 1b ac bd d5 fd bd bc 80 1e a2 bd
       -0.021747448 -0.08403761 -0.023192326 -0.07915974
0001f0 50 b9 cd 3c ef 2b 23 3d 45 1c 2d bd d3 03 ca 3c
       0.025112778 0.03983682 -0.042263288 0.024660027
000200 6d d9 0d 3d fa 1a 05 3d 35 36 65 bd 0f 32 7b bb
       0.03463118 0.03249643 -0.0559599 -0.0038329398
000210 62 68 4b 3d 10 5a 8e 3d 45 e2 0e 3d bf 8e 8b bc
       0.049660094 0.06950772 0.034883756 -0.01703584
000220 d3 06 53 bc 5e 99 3b bc 76 63 4e bd 7b b3 98 bd
       -0.012880045 -0.01145014 -0.050387822 -0.07456108
000230 f1 b2 72 3d 77 bf 60 bc 2a 12 76 3d fa 52 c1 3c
       0.059252683 -0.013717524 0.060075916 0.023599137
000240 25 d5 84 bd 69 26 29 3d f3 fd 9e bd a2 3f 69 3a
       -0.064859666 0.041296396 -0.07763281 0.00088977267
000250 82 1d bc 3c 98 de 9d bd 76 3b 46 3d b0 ee 5c 3c
       0.02296329 -0.07708472 0.04839655 0.013484642
000260 3c d5 b2 3d ea c0 03 bd 15 47 8e 3d 4b f0 96 3c
       0.087320775 -0.0321664 0.069471516 0.018425127
000270 e4 9d ac 3d 06 a2 85 bc 04 bf 9a bd c2 d7 76 bd
       0.08428553 -0.01631261 -0.075559646 -0.060264356
000280 11 14 bd 3c 50 e0 49 3d 14 d6 a2 bd f5 88 d7 38
       0.023080857 0.049286187 -0.079509884 0.00010277509
000290 6f 0e c5 bc b8 86 ab 3d 23 bb 57 3d 8b e7 99 3d
       -0.024054734 0.08375305 0.0526687 0.075148664
0002a0 ef fe 3b 3d c9 2f 67 3d 56 8f 58 3d 5a 94 b1 3d
       0.04589742 0.056442056 0.05287107 0.08670874
0002b0 74 5e 91 bc 95 28 37 3d ff 59 3e 3c 02 61 9a bd
       -0.017745234 0.044716436 0.011618136 -0.07538034
0002c0 a3 f7 80 3d 79 3e de bc 2e ab b1 3d 5a fb 4f bd
       0.06297233 -0.027129399 0.08675228 -0.050776817
0002d0 a4 49 58 bc d1 d6 76 3d 95 dd 47 3d 60 a6 27 3b
       -0.013201151 0.06026346 0.0487953 0.0025581345
0002e0 77 24 b3 bd 13 91 90 3d 84 2a 70 3d cd 2b b1 3d
       -0.087471895 0.07058921 0.058634296 0.086509325
0002f0 3e 38 73 bd 88 2d 8e bd 4f c7 dc bc e0 6e 69 bd
       -0.05937981 -0.06942278 -0.026950506 -0.056990504
000300 ae 7d bf bb 5b 64 8f bd 5f 73 17 3c 43 2d 81 bc
       -0.0058438396 -0.07001563 0.009243815 -0.015768653
000310 2a 08 44 bd b2 4a 2b bc 27 55 80 bd 3e 43 ca bc
       -0.04785935 -0.0104548205 -0.062662415 -0.024690267
000320 10 9b 51 3d b1 c7 24 bb aa 22 90 bd 9a 22 a0 3d
       0.05117327 -0.002514344 -0.07037862 0.078191
000330 68 5a c0 3c a3 1b 6f bd e2 05 9b bd 06 0c ac 3d
       0.023480609 -0.058375966 -0.075694814 0.08400731
000340 51 48 ed bc 01 b0 50 bd 5d 63 87 3d 73 87 8c 3c
       -0.028965147 -0.0509491 0.06610749 0.017154431
000350 0a 11 17 bc 78 55 46 bd 2a e6 a3 3d a1 f8 0c bd
       -0.009220371 -0.048421353 0.08002885 -0.0344168
000360 22 53 d6 3c 4a 41 86 3d 46 fe b2 bd 9a a8 11 3d
       0.026162688 0.06555422 -0.08739905 0.03556118
000370 0c 1d b3 3b 04 9b f7 3c 50 29 7a 3d b7 6e 51 3d
       0.005466109 0.030225284 0.061074555 0.051130977
000380 1e 8c 87 bc ec 25 9b bc 42 5f ab bd 9d f1 15 bd
       -0.016546305 -0.018938981 -0.08367778 -0.036607374
000390 45 75 f8 bc 99 57 b8 ba ef f0 af 3b 94 88 57 3d
       -0.030329356 -0.0014064192 0.0053692977 0.052620485
0003a0 e6 5b 97 bd 25 7a 6b 3d 78 37 4d bd b0 34 6a 3c
       -0.07390575 0.057489533 -0.050101727 0.014294788
0003b0 95 9a 11 3d 49 d4 09 bd ba cf 95 bd 64 19 a4 3b
       0.03554781 -0.033649717 -0.07315011 0.0050079096
0003c0 a6 c7 84 bd 1d bf 8e 3d ca 99 b2 3c 62 68 2f bd
       -0.064833924 0.06970046 0.021801848 -0.042824157
0003d0 22 73 93 bd de bc 15 bd 00 3c 55 bd c5 bf 48 bd
       -0.07199694 -0.03655707 -0.052059174 -0.04901101
0003e0 fa 17 93 3d f4 92 23 bd fa 9f a5 bc 95 93 12 3d
       0.071823075 -0.039935067 -0.020217884 0.035785276
0003f0 92 f7 8b bd c3 20 ae 3d 8b 1e 30 bb 11 f8 30 bd
       -0.0683433 0.085023426 -0.0026873674 -0.043205325

embed.1.bias f4 [128]
000000 80 e5 0d 3d 41 0d 27 bd ce d6 6c bd 5e b6 33 3d
       0.034642696 -0.040784124 -0.05782204 0.04387509
000010 59 09 28 bd 8c f5 36 3d 99 91 70 bd 99 2b c6 3c
       -0.04102454 0.044667765 -0.058732603 0.02419071
000020 0f 57 03 bd 5a 1b 64 bd 44 de 6d 3d 6c 7f 9b bd
       -0.032065447 -0.055690147 0.058073297 -0.07592663
000030 33 1e aa bc 62 83 38 bd 09 cd 86 3d da 6e 80 bc
       -0.020766353 -0.04504717 0.06582076 -0.015677858
000040 e0 7f 44 3d f4 ed b3 bc 9a 51 70 bc e1 e3 d8 3c
       0.047973514 -0.02196405 -0.014667893 0.026475849
000050 5d a8 da 3c cc 49 8e 3d 91 ac 1a 3c 35 9b 1a 3d
       0.02669161 0.069476694 0.009440557 0.037745673
000060 a0 ad af bd 37 63 99 bd f7 2d 98 3d 24 66 c4 bc
       -0.08578038 -0.07489627 0.07430642 -0.023974486
000070 00 b8 f0 3b ad b4 74 bd da a4 85 bd 56 6e 08 3d
       0.0073461533 -0.05974262 -0.065255836 0.03330835
000080 fe c1 00 3d fe 7a a0 3d 81 b6 60 3d e4 88 39 bb
       0.031435005 0.07835959 0.05486155 -0.0028310353
000090 fa 81 bd bc e7 38 a8 bd fd c1 8d 3d cb 73 30 bc
       -0.023133267 -0.08213978 0.06921766 -0.010769795
0000a0 da 82 b3 3d 53 d2 86 3b 55 e7 d3 3c e6 26 85 bc
       0.08765192 0.004114428 0.025867144 -0.0162539
0000b0 0e d7 34 bd 51 fa 8c 3d 59 a1 b4 bd 9c bf 7b bd
       -0.044150405 0.068836816 -0.08819837 -0.06146203
0000c0 76 04 14 bd 76 d4 48 bd 32 f3 9d ba 4f 5e 9f 3d
       -0.036137067 -0.049030744 -0.0012050627 0.0778166
0000d0 a0 86 2b 3d 49 cc 83 bc 4b 82 95 3d 87 98 a6 3d
       0.041876435 -0.016088622 0.07300242 0.08134561
0000e0 b9 e1 54 3d 66 86 43 3d 9f 8c a6 3d 49 23 86 bd
       0.05197308 0.047735594 0.0813229 -0.06549699
0000f0 a0 6e 3a 3d 67 cc d6 bc 90 b2 cf 3c ef 94 85 3d
       0.045515656 -0.026220514 0.0253537 0.065225475
000100 5d d5 8c 3d a6 1c 90 3d b1 f0 ff 3b 2b d4 a8 bd
       0.06876633 0.07036714 0.007810675 -0.08243593
000110 47 ad 65 bd f5 9d ab 3b 08 08 31 bd f4 69 8b 3c
       -0.056073453 0.005237336 -0.04322055 0.017018296
000120 53 ef 00 3d c5 e2 c8 bc 02 30 b7 bc ab ea 57 3c
       0.031478237 -0.024522195 -0.02236176 0.013178508
000130 7e c5 9c 3d da 9b 3b 3d 54 e3 1b 3d 32 9c 52 3d
       0.07654856 0.04580293 0.038058594 0.05141849
000140 0f c1 29 3d 16 8c aa 3c 07 55 40 bd 20 0e 30 bd
       0.04144388 0.020818751 -0.04695609 -0.04298222
000150 9a 90 b2 bd 90 ee 76 3d 16 44 64 3d e1 ae 06 3b
       -0.08718987 0.060286105 0.055728994 0.0020551013
000160 0c a2 59 bd 0f bd a9 bd 1e ae b2 3b d7 80 26 3c
       -0.053133056 -0.08288013 0.0054528853 0.010162554
000170 55 6b fb 3c aa 33 b5 3c 0f 93 15 bd e2 5f ab 3d
       0.030690828 0.022119362 -0.0365172 0.083678976
000180 d8 92 fb bc f3 ff 68 bd f5 85 b0 bc 51 d0 c0 bc
       -0.030709669 -0.056884717 -0.02154825 -0.023536833
000190 e8 fd 1e bc b7 4f a5 3d 8b 98 79 3d 91 a2 a1 bd
       -0.009704091 0.08071845 0.060936492 -0.07892335
0001a0 4c ea 82 3b 63 08 0d 3d 6c 56 e3 3a 76 3d 9a bb
       0.0039952155 0.034431826 0.0017344481 -0.0047070337
0001b0 0f 8b 76 bd 86 7e e4 bc 46 1e 65 bd 7a c4 61 bc
       -0.06019121 -0.027892362 -0.055937074 -0.013779754
0001c0 ab ad 73 3c ed c8 77 3d da 90 79 3d 81 aa 26 bd
       0.014872949 0.060494352 0.060929157 -0.04068995
0001d0 fd ac 04 bc 06 fd b7 bc 92 ef 4d bd 86 5d c4 bc
       -0.008097884 -0.022459518 -0.0502773 -0.023970377
0001e0 52 9f 92 bd 6f a2 48 3d c8 2e 06 bd 44 9d b4 bd
       -0.07159294 0.048983034 -0.032759458 -0.088190585
0001f0 a6 e5 a1 3d 14 c0 37 bd 72 92 ae 3d c6 c6 d9 ba
       0.0790513 -0.044860914 0.08524026 -0.0016615025

embed.3.weight f4 [256, 128]
000000 93 80 92 bd 75 60 43 bd 14 39 76 3d d4 f2 de bb
       -0.0715343 -0.04769941 0.060113028 -0.0068038497
000010 04 a5 0a bd e7 e6 46 3d 91 2f 9b bd 72 de 3a bd
       -0.033848777 0.04856005 -0.07577432 -0.045622297
000020 fd 52 9d 3d d8 48 a3 bd 8e b5 34 3d b0 85 a2 3d
       0.076818444 -0.07972878 0.044118457 0.07935655
000030 42 37 b0 3d fb 59 a5 3d 81 95 aa bd 7f 4f 80 bc
       0.086042896 0.08073803 -0.08329297 -0.015662907
000040 99 c2 89 bb 31 e6 3c 3c 2a cd 04 3d 18 b9 ac bd
       -0.004204106 0.011529491 0.032422222 -0.08433741
000050 2a 7e a2 bc c4 c8 91 3c 77 19 d5 3c f2 4f 03 3c
       -0.01983555 0.017795928 0.02601312 0.008014666
000060 59 57 40 3d 03 b7 2a bd 1c f7 80 3d 9a dc 9f bc
       0.0469583 -0.04167844 0.062971324 -0.01951437
000070 73 b2 8c 3d 9b 6b ae bc c9 fe 4d bb cc 68 54 bd
       0.06869974 -0.021291545 -0.0031432381 -0.051857755
000080 a7 51 9e 3d 21 ba 1f bc 91 c4 cc bc 67 b3 3e bc
       0.07730418 -0.009748966 -0.024996074 -0.011639453
000090 d0 a1 a8 bd 6c 57 e2 bc b8 c4 5d bb 01 35 8c bb
       -0.08233988 -0.027629577 -0.0033839177 -0.0042787795
0000a0 5a 94 7e bc 7d 72 45 bd 3d 4d a0 3d d2 b8 a8 bb
       -0.015538299 -0.048204888 0.07827232 -0.0051489854
0000b0 4f 86 17 3d 6b 61 af bd e8 90 1d 3c 66 e5 01 3d
       0.03699332 -0.08563503 0.009617068 0.031712912
0000c0 29 7e 53 bd 53 3e a0 bd d1 8b 9c 3d 05 0a 53 3d
       -0.051633988 -0.078243874 0.07643855 0.051523227
0000d0 3d a1 a1 bb 7c 61 7c 3d 70 4b 5f bc 71 37 f8 3c
       -0.004932551 0.061616406 -0.013628826 0.030299874
0000e0 25 f5 8e 3d 20 9c b0 bd 84 28 b3 3d 54 0c 2b bd
       0.06980351 -0.086235285 0.08747962 -0.041759804
0000f0 27 e2 a7 bd 12 73 37 3c b2 4b 95 3d 2a ce 1c 3d
       -0.08197432 0.0111968685 0.07289828 0.03828255
000100 11 b2 40 bb ac fd ec 3c 4f 50 57 bd 70 96 17 bd
       -0.002940301 0.028929554 -0.052566823 -0.037008703
000110 f0 0e 8b 3c 86 f2 83 bd 24 5a 21 3d 18 ee 88 bd
       0.016974896 -0.06442742 0.039392605 -0.06686038
000120 ff 54 8d 3d cc 35 a9 3d 2d ac e4 bc f7 31 99 3d
       0.06900977 0.08262214 -0.027914131 0.07480233
000130 1a c4 a0 bd 6a 57 8b ba 85 68 4c 3d 93 9b bb 3b
       -0.078499034 -0.001063091 0.049904365 0.005725333
000140 31 63 83 3c 6d 0f 93 bb 37 2d 4d 3c de 81 58 3d
       0.01603851 -0.004487923 0.012522987 0.052858226
000150 92 7e 40 bd 3a 1b 2e 3d 24 b2 1b bd 31 d9 9d 3d
       -0.046995707 0.042506434 -0.038011685 0.077074416
000160 06 40 85 bd 80 9a 98 3c 03 92 32 bc bf c5 5d bd
       -0.06506352 0.018628359 -0.01089907 -0.054143663
000170 5e 98 1a 3d 57 01 b0 bd 16 e9 96 3d 7d 68 a4 bd
       0.037742965 -0.085940056 0.07368676 -0.08027742
000180 27 84 26 3c d0 9c c8 3c 4e c1 df 3c b8 eb 5d 3d
       0.0101633435 0.024488837 0.027313855 0.054179877
000190 4f ff b2 3d da 08 bb 3b 32 75 71 3d b3 5e 2a 3d
       0.087401025 0.0057078423 0.058949657 0.04159422
0001a0 52 12 ae bd 71 2c 0a bc f0 e9 55 bd 81 98 61 bc
       -0.08499588 -0.008433447 -0.052225053 -0.01376927
0001b0 c8 f0 39 bd 3e bf 04 3c 7e a8 30 bd 13 92 99 ba
       -0.045395643 0.008102236 -0.043129437 -0.0011716507
0001c0 ad e9 42 3d 05 8c 54 3d b1 7d ac 3c 79 86 54 bc
       0.04758613 0.051891346 0.021056028 -0.012971514
0001d0 4e a7 85 bd 3e 8b 51 3b 8a 90 4e 3d 72 14 5e 3c
       -0.065260515 0.0031973864 0.050430812 0.013554679
0001e0 26 7b 8f bd 69 09 1c bd bc 73 4c 3c 85 4a ab bc
       -0.070059106 -0.03809491 0.012478765 -0.020909557
0001f0 99 71 3e 3b 5d 05 f5 3c 80 dc 6f 3d 3e 59 2c bd
       0.0029059409 0.029909784 0.058559895 -0.042077295
000200 95 89 25 3d ab 6b 13 bd 0c 52 b2 bd 07 f4 55 bd
       0.04041441 -0.035991352 -0.087070554 -0.052234676
000210 0c 8a 9f bc c2 ad 55 bd 3d 84 f2 bb e9 43 66 bc
       -0.019475006 -0.05216766 -0.007401018 -0.014054277
000220 3f 9d b4 3c 2e dc 1d bd 25 bf af 3d da f7 65 3d
       0.022047637 -0.038540058 0.0858138 0.056144573
000230 5f 8f 08 bd fe 4d 8c bd 0c 24 c9 bb df a7 8c 3d
       -0.033339854 -0.06850813 -0.0061383303 0.06867956
000240 6f 19 1c 3d a3 4d 98 bd 15 c2 49 3b 7c 12 65 bc
       0.038110193 -0.07436683 0.0030785848 -0.013981458
000250 cc 39 88 bc 9c 7c 02 3d 4e 72 86 3d 65 80 44 bd
       -0.016629122 0.031857118 0.06564771 -0.04797401
000260 dc 3e fe bc ef 0d c3 3c 6e 21 29 3c f4 97 43 bc
       -0.031035833 0.023810355 0.010322912 -0.011938084
000270 0a 8b 9b 3c 99 27 db bc fa 90 ac bd 66 97 76 bc
       0.018987197 -0.02675228 -0.084260896 -0.015050745
000280 58 c8 b7 3c 29 3a 5b 3d 64 df b7 3a 3a 03 4a 3d
       0.022434399 0.053522263 0.0014028368 0.049319483
000290 cc f1 74 3d eb 2f 4e bd 8a 09 a1 bd f4 5e ab 3d
       0.059800908 -0.050338667 -0.078631476 0.0836772
0002a0 70 a5 9c b9 df 4e 99 bd 82 f4 5c bd 56 83 3f 3c
       -0.000298779 -0.074857466 -0.05394412 0.011689028
0002b0 23 7d 0f 3d 33 fe b2 3b d0 dd ae 3d 05 8b 82 bd
       0.03503145 0.005462432 0.08538401 -0.06374172
0002c0 e6 8a 12 bd 0a bf 4c 3c c2 84 6c 3d bd cb bd 3c
       -0.035776995 0.012496719 0.057743795 0.023168439
0002d0 07 65 a7 3d ac 77 8d 3d 07 2b 73 bc f5 6e 66 bc
       0.08173566 0.06907591 -0.0148418015 -0.01406454
0002e0 0c 34 59 3d c9 f1 b1 3d a7 51 d2 bc 39 5c 3f bc
       0.05302815 0.08688695 -0.0256737 -0.011679702
0002f0 4c 83 95 3d e5 fb 2d bd 79 b8 62 bc 15 92 a3 3d
       0.073004335 -0.042476553 -0.013837927 0.07986847
000300 d6 11 88 bd 71 e7 b1 bc 85 2b a6 bc 6f 26 d1 bc
       -0.06644027 -0.021716805 -0.020284424 -0.025531022
000310 cf 9e 3e 3d eb 2a a6 bd 8d c1 e3 bb e5 b7 56 3d
       0.04653817 -0.08113655 -0.0069505633 0.05242147
000320 b2 5e 99 3d 74 4c 14 bd 62 b8 8a bc 71 23 ad 3c
       0.07488765 -0.036205724 -0.016933624 0.021135064
000330 26 f7 0c 3c 2b 6d 89 3d 96 fe e6 bc 71 48 9a bc
       0.008603847 0.06710275 -0.028197568 -0.01883337
000340 71 0c a3 3d 60 c2 22 3d 09 3b 7c 3d e7 0d af bd
       0.079613574 0.03973615 0.061579738 -0.085475735
000350 5c 8c 68 bd 26 f9 6d bd 29 1f 3d 3c e8 39 82 bd
       -0.056774482 -0.058098935 0.011543074 -0.06358701
000360 b3 f6 9b 3d 28 fd 13 bd e8 67 32 bd 96 c6 b4 3d
       0.076154135 -0.0361301 -0.043556124 0.0882694
000370 86 ca 5e 3b f5 ff c9 bb 91 40 46 bd 55 ad 6f 3d
       0.0033995225 -0.0061645457 -0.04840142 0.05851491
000380 7f eb 85 bd 77 ae 59 bd cb 95 a8 bd 22 50 05 bd
       -0.06539058 -0.0531449 -0.08231696 -0.032547124
000390 8b 91 52 3d 0e 17 77 bd e1 4e 36 bd d2 86 53 bd
       0.05140833 -0.06032472 -0.04450882 -0.051642247
0003a0 58 f1 46 3d dc 96 3d 3d 90 ce 2d 3d b7 28 52 bd
       0.048570007 0.04628645 0.04243332 -0.05130836
0003b0 56 f9 3d 3d 8f 4e 7c 3d 5f 1a 31 bd 2e 7c 71 bc
       0.046380363 0.061598357 -0.04323804 -0.014739079
0003c0 3f 03 7d 3c 04 dd 94 3d 63 48 82 3d a6 05 1b 3d
       0.015442668 0.07268718 0.06361463 0.037847184
0003d0 2a 7b 32 bc 56 6d 9a bd cf bc a6 bd 24 ab ec 3c
       -0.010893622 -0.075403854 -0.08141481 0.0288902
0003e0 9a af 68 3d 4e dc 03 bd a0 b1 89 3a e0 fb ae 3d
       0.05680809 -0.03219252 0.0010505207 0.08544135
0003f0 4a 29 11 3b 82 b4 e8 bb fb 2a ae bd 1b 48 5c bd
       0.0022149854 -0.0071015963 -0.085042916 -0.053779703

embed.3.bias f4 [256]
000000 c8 c4 99 bd a0 9a 70 bd 77 1e 98 3d 94 85 f8 ba
       -0.07508236 -0.058741212 0.07427686 -0.0018960708
000010 ff a0 64 3b d1 0d ef bc 61 e5 48 3c 1d 7d f8 3c
       0.0034886 -0.029181393 0.012261719 0.030333096
000020 a1 83 10 3d ad 04 9c 3d 25 fc ba 3c d5 48 a8 bc
       0.03528178 0.07618079 0.02282531 -0.020542542
000030 9f 61 82 3d 67 ed 61 bc 40 93 a5 3d 3c c1 90 bc
       0.06366276 -0.013789511 0.08084726 -0.017670266
000040 c1 f1 83 bd 6f 44 b0 3d e2 39 0d bc 55 ae 6c 3d
       -0.06442595 0.08606803 -0.008619757 0.057783443
000050 ca 0d 20 bc 22 63 23 3c 4e 71 a6 3d e9 46 3b bd
       -0.009768913 0.009972366 0.0812708 -0.045721922
000060 58 1b 59 bd 0c 43 cd 3c 17 fb a5 bd 1a a7 98 bd
       -0.053004593 0.025056385 -0.08104532 -0.07453747
000070 8a ef b4 bd 4a 3a 89 bd f8 00 4d 3d f2 53 db bc
       -0.08834751 -0.06700571 0.050049752 -0.026773427
000080 2f 63 20 3d c4 0d d7 bc 51 cf 82 3d e1 5e 64 bb
       0.03915709 -0.026251681 0.06387199 -0.0034846591
000090 4c 3d 24 bd 60 71 f9 bc a4 60 ad bd df dc 28 bd
       -0.04009752 -0.03044957 -0.08465698 -0.041226264
0000a0 c5 e8 ad bb 25 f2 b0 3c 6f 6f 44 3d ae 2b 56 3d
       -0.0053072893 0.021599839 0.047957834 0.05228775
0000b0 14 d1 cb 3c c7 94 8b 3c a6 ab 16 3d 10 27 53 3d
       0.02487997 0.017038716 0.03678479 0.051550925
0000c0 5d 8c 6f bc 1f 5a 48 3c 57 b2 30 3d f8 06 85 3d
       -0.014620868 0.012228518 0.043138828 0.0649547
0000d0 d0 12 9d bd f5 f5 36 bd 07 ba 6f bd 0e a0 92 bd
       -0.07669604 -0.044668157 -0.05852702 -0.07159434
0000e0 07 b5 9e 3c 6a 3d 80 bd c5 1e dd bc 81 f2 89 bc
       0.01937343 -0.06261714 -0.026992211 -0.016839268
0000f0 84 4f 26 bd eb 52 9d bd 01 79 4a bd 00 e2 93 3d
       -0.040603176 -0.07681831 -0.049431805 0.072208405
000100 28 53 73 bb 2f b9 ae 3d 57 19 ed bc 4d 42 d9 bc
       -0.0037128422 0.08531415 -0.028942747 -0.026520872
000110 6f 53 a9 3d ac 6d 9d bd 29 d6 10 bc b4 38 7a bd
       0.08267867 -0.07686934 -0.008840122 -0.061089233
000120 1e 51 1a 3d e9 3f 0e 3c 73 20 cc 3c 0d e9 99 3a
       0.037675016 0.00868223 0.024917817 0.0011742428
000130 0c 20 a3 3d 9b 5e ee bb 12 c2 ed bb f4 b5 49 3d
       0.07965097 -0.0072744614 -0.007255801 0.04924579
000140 3e 1e 7c bd c3 7f 98 3c d5 c5 e4 bc 32 19 56 bd
       -0.06155228 0.018615609 -0.027926365 -0.052270122
000150 c0 37 8d 3d 41 13 84 3d 80 e5 65 3d 22 02 78 bd
       0.06895399 0.06448985 0.05612707 -0.06054891
000160 6f 11 87 3c b5 06 54 3d 78 64 af 3d 5a 2b 79 3d
       0.016487805 0.05176421 0.08564085 0.06083236
000170 fb 9f 33 3d 62 51 63 bd 0e c2 70 bd 1f 1d fd 3c
       0.04385374 -0.055497535 -0.058778815 0.030897675
000180 79 82 82 3d ff 41 50 3c 61 e6 5c 3d 98 92 a2 3d
       0.06372542 0.012711047 0.053930644 0.07938117
000190 a8 8c 64 3d 80 10 04 3d ec 82 3a bd 04 d1 4c 3d
       0.055798203 0.032242298 -0.045535013 0.05000402
0001a0 77 92 8e bc e6 5a fe 3c 59 b4 a8 bd bc df 80 3d
       -0.017403824 0.031049203 -0.082375236 0.06292674
0001b0 e9 b1 4b bd c5 eb 9a bd e1 21 7c bd 95 1a 8b bd
       -0.049730215 -0.07564501 -0.061555747 -0.067921795
0001c0 ee fb a8 3d dd 36 85 bd e7 5c 10 bd ce 0c ae bd
       0.08251177 -0.06504605 -0.03524485 -0.08498536
0001d0 09 5c 63 3d 1a 9c 55 3c 16 20 a4 bc 8e fa d3 3b
       0.055507693 0.013037706 -0.020034831 0.0064690774
0001e0 10 7d 88 3b 5d f3 51 bb b3 51 01 bd 28 53 ae 3d
       0.0041652992 -0.0032035925 -0.031572055 0.085119545
0001f0 21 c5 0f 3c c2 92 3b bd d1 45 2a 3c bf f6 ea b9
       0.008775027 -0.045794256 0.010392622 -0.00044815798
000200 e8 af 69 3d 8c 6c 68 3d c6 f7 46 3d be 94 82 bd
       0.057052523 0.056744143 0.04857614 -0.063760266
000210 a1 83 3a 3d b8 33 37 bd 6e 13 49 bb af 0c e3 bc
       0.045535687 -0.044727057 -0.0030681747 -0.027716009
000220 90 1b 57 3d 62 d0 a6 bd c8 00 51 3d 61 9b ae bd
       0.05251652 -0.081452146 0.051026136 -0.0852573
000230 2c 6f 90 bd 9f 3b 67 3d 96 03 53 bd 30 21 ad 3d
       -0.07052454 0.056453343 -0.05151709 0.08453596
000240 ab e4 14 3d 2a 7a 4e bd d1 bb f6 bc be 8a 29 3b
       0.036350887 -0.050409473 -0.030118855 0.002587005
000250 e3 e3 13 3d b6 7a de 3b 98 60 ad 3d 1c 64 ab bd
       0.036106 0.0067895306 0.084656894 -0.08368704
000260 20 9f 06 3d eb e9 82 3d 05 a5 98 bc eb 08 fa bc
       0.032866597 0.063922726 -0.018633375 -0.03052183
000270 78 67 b4 bd d2 84 e4 3c ca 94 99 bd 72 39 ae bc
       -0.088087976 0.027895365 -0.074990824 -0.021267626
000280 c5 6e 6e bd 2d 41 17 bd 0b 13 1f bd 03 7f aa 3d
       -0.058211107 -0.03692739 -0.03883652 0.08325007
000290 8b bf 75 bd 25 3a 1a bc 5f 56 19 bc 54 74 57 3d
       -0.059997123 -0.009413277 -0.009358971 0.052601174
0002a0 73 6d d6 bc 47 eb a2 bd 69 2f b4 bd 48 5c a2 bd
       -0.026175236 -0.07955032 -0.08798105 -0.079277575
0002b0 37 30 b1 bd a3 df 58 bc d4 44 29 bd 26 7c 2b 3d
       -0.086517744 -0.013236913 -0.041325405 0.041866444
0002c0 4c 89 4f bd 4b eb ef 3b a2 58 2c 39 dc 15 9b 3c
       -0.050668046 0.0073217503 0.00016436217 0.018931322
0002d0 c7 59 be bc c7 89 11 bd 95 54 79 bb 98 44 e2 bc
       -0.023236169 -0.035531785 -0.00380448 -0.027620599
0002e0 27 68 af bd 58 6f 9c bc de f1 00 ba 10 c6 49 3d
       -0.08564787 -0.019096062 -0.00049188535 0.049261153
0002f0 bb c3 3a b9 ad 50 b9 3c 3f 9e 33 3d 8c 80 2f 3d
       -0.00017811258 0.022621477 0.043852087 0.0428472
000300 32 a3 03 3d c4 06 6b bd cc 11 46 bd e3 bc 8d bd
       0.032138057 -0.0573795 -0.048356816 -0.06920793
000310 33 1f 8c bd 00 d0 78 3c 94 c5 c0 bc 73 7d 86 3c
       -0.06841888 0.01518631 -0.023531713 0.01641724
000320 12 d0 a3 3c c7 b6 ac 3d 7b 73 f4 3b 79 41 a0 3c
       0.019996677 0.084332995 0.0074600554 0.01956247
000330 6e 41 a1 bd fa 2d 19 bc 1d e6 75 3d eb 3f 6d 3d
       -0.07873808 -0.009349341 0.060033906 0.057922285
000340 a7 40 a4 3d f7 c7 1a bc 11 22 43 bd f9 cb a9 3c
       0.08020144 -0.009447089 -0.04763991 0.020727145
000350 13 a1 7f 3d b8 5a 70 3d 36 21 a3 bd 40 c2 a5 bc
       0.06240947 0.058680266 -0.07965319 -0.020234227
000360 2b 53 79 bb 31 aa 59 3d 29 f2 40 bd 26 f4 ab bd
       -0.0038043957 0.053140823 -0.047105942 -0.08396177
000370 53 6a 43 3d 18 8f 89 3d fa 3f 89 3d 6f 6a 19 bd
       0.04770882 0.06716746 0.06701656 -0.03745502
000380 42 1d df ba 39 62 17 bd f4 51 a5 3c cc 7c 71 3d
       -0.0017022269 -0.036958907 0.02018068 0.058956906
000390 4e 11 9d 3d 39 32 4b 3c 70 0b 00 bd 86 b7 16 bd
       0.07669316 0.012402111 -0.031260908 -0.036796115
0003a0 fe d8 03 3d 2a 63 a1 3d 69 0b aa bd 8e d7 46 bc
       0.03218936 0.07880242 -0.083029576 -0.012136353
0003b0 0b 60 1e bd 7b 11 26 3d 26 8f 54 bd 5c cb 5f bd
       -0.038665812 0.040544014 -0.05189433 -0.054637298
0003c0 5d 53 0f 3d 43 05 45 bc da 65 47 3d fe 30 9a bd
       0.03499161 -0.01202518 0.048681118 -0.07528876
0003d0 63 4d 1b bd 7e 3c 8d bd 58 59 a7 3d 31 b6 24 b8
       -0.0379156 -0.068963036 0.08171338 -3.9270326e-05
0003e0 6c ed e5 bb 2e 2a 3c 3d b5 e8 28 bd b0 f7 3b bd
       -0.0070168283 0.045938663 -0.04123755 -0.04589051
0003f0 28 35 4e bd 3a 35 cb bc f8 a8 3f bd 48 62 ad 3d
       -0.050343663 -0.024805654 -0.046792 0.08466011

conv_spatial.mlp.0.weight f4 [256, 2]
000000 f5 ff 76 be 2c f1 95 be 87 b2 51 be ea 76 eb 3d
       -0.24121077 -0.29285562 -0.20478259 0.114972904
000010 b6 7e 72 3e 76 c2 e9 3b 44 42 8c be bf 37 89 3e
       0.23681149 0.0071337773 -0.27394307 0.26800343
000020 a1 c4 68 3e 6b 8e af bd 6b b8 39 3e 83 92 f2 bc
       0.22731258 -0.08572086 0.18136756 -0.029610878
000030 5d 4c b0 3d ac 7d 56 3e a4 ba 06 3e 64 44 fa 3c
       0.08608315 0.20946378 0.13157135 0.03055019
000040 6b 20 b4 bd aa 66 6f 3e 92 66 b3 3c 03 28 81 bd
       -0.08795246 0.23379007 0.021899495 -0.0630646
000050 f7 46 da 3d 92 51 7a be 6f 85 08 be 45 ba 87 3d
       0.10658067 -0.24445179 -0.13332151 0.06627325
000060 45 68 b9 3d a8 10 3b bc c7 d3 4b be 9a 99 fa 3c
       0.09053091 -0.011417545 -0.19905005 0.030590821
000070 1d 49 7a be aa f3 94 be 54 be 48 be 12 19 81 3e
       -0.24441953 -0.2909215 -0.19603854 0.2521444
000080 e4 fe fc 3b 44 ed 77 bb 27 3f 66 be 26 3d 74 be
       0.007720815 -0.003783063 -0.22485028 -0.23851451
000090 4e 39 2a 3c 94 5f 0c 3c 8f cf cb bd df b8 cc 3d
       0.010389639 0.0085677095 -0.09951698 0.09996199
0000a0 73 1e 75 3e 1a ed 7e 3d a4 88 b7 38 7a d9 3a 39
       0.23937397 0.062237836 8.751571e-05 0.00017819359
0000b0 07 1e 89 be b2 5a 81 3e 7e 4c d8 3d d7 32 4b 3e
       -0.26780722 0.25264508 0.10561465 0.19843613
0000c0 a1 3c 6d 3e 65 b7 1d 3e cd b7 82 be 2c 0b 90 3e
       0.2316766 0.1540199 -0.25530854 0.28133523
0000d0 e3 52 fe 3b 5a d9 4f 3e 0b 8e cd bc 24 b3 09 be
       0.0077613457 0.20297757 -0.025092145 -0.13447243
0000e0 de 5b 32 be 47 a6 0e be 20 12 24 3a 66 fc 9c 38
       -0.17417857 -0.13930617 0.00062588044 7.4856725e-05
0000f0 5a ee 60 b8 c8 93 a7 b8 6e 0f 49 3e 6a cc 69 3d
       -5.3627744e-05 -7.990707e-05 0.19634792 0.05707971
000100 71 d0 b0 bd 80 f8 94 be 7c ef 6f be 24 c9 a2 3e
       -0.08633507 -0.2909584 -0.234312 0.31794083
000110 1e 78 2e ba 48 da c5 b8 3c eb d3 3d 61 dc 30 3e
       -0.0006655472 -9.43435e-05 0.10347602 0.17271568
000120 35 79 02 3e 62 ea 8f bd 72 f8 0d 3c 27 1e 87 3e
       0.1274155 -0.07027127 0.008665191 0.26390192
000130 f3 00 b7 bc 73 6d 2f bc 1e 96 32 3d ac 13 46 3e
       -0.02233932 -0.010707247 0.043600194 0.19343442
000140 26 f8 04 38 7a 9a 5a 3a f6 65 98 be ca 57 2b 3e
       3.170236e-05 0.0008339059 -0.2976529 0.16732708
000150 d5 68 1d be 1a a4 eb bc 4f a0 75 be a8 dd 4c bd
       -0.15372021 -0.028764773 -0.23986934 -0.050016075
000160 80 a7 df bd a6 fc 2a bd 2e 8e 7e be be 5d b1 bb
       -0.1092062 -0.04174485 -0.24858925 -0.0054127863
000170 f1 00 42 be 83 1a 41 3e e6 40 73 3a c5 af fc 39
       -0.18945672 0.1885777 0.0009279385 0.00048196144
000180 3d 3f 05 3e 1d 8a 2e bd 98 f3 d0 3c 29 56 b2 3c
       0.13012405 -0.042612184 0.02550678 0.0217696
000190 8e 95 a8 bd 0f 7d c8 3d 08 9f 59 3e fc fa ad bd
       -0.0823165 0.09789478 0.21252072 -0.08495137
0001a0 fa 07 82 bd 16 b5 05 bd 83 c3 8f 3d 7d d9 c8 3d
       -0.06349178 -0.0326434 0.07019713 0.098071076
0001b0 f4 e9 8f 3d f6 fc d0 3d fc d2 01 3e 36 31 84 be
       0.07027045 0.102044985 0.1267814 -0.25818795
0001c0 16 97 85 bd 67 e5 fa bd 37 60 72 3e 47 27 83 3c
       -0.06522958 -0.12250786 0.23669516 0.01600994
0001d0 57 a2 91 bc f9 73 e7 3d fb 11 6d ba 16 4b 36 38
       -0.017777605 0.11301417 -0.0009043512 4.346211e-05
0001e0 07 9a b7 3d bf 96 9e bd 99 c8 eb bb 72 18 8b 3d
       0.08964925 -0.07743596 -0.007195544 0.06791772
0001f0 47 eb 8c 3e 82 a9 58 3d 29 c3 57 be 26 b7 14 3e
       0.27523252 0.05289603 -0.21070541 0.1452299
000200 5e b6 1c be 0b 25 06 3d 9f b5 c3 bd cb ab 61 be
       -0.15303943 0.03275017 -0.09556126 -0.2203819
000210 dc f2 ba 3b 5e 6d 86 3e 38 f1 67 bd da c2 38 be
       0.0057052206 0.26255316 -0.05662653 -0.1804308
000220 27 64 05 3d 90 8b f6 3c b2 87 81 3d 1f a7 56 3e
       0.032566216 0.030095845 0.0632471 0.20962189
000230 43 d1 be b9 bd 02 cd b9 21 d4 03 ba d5 c4 d2 b8
       -0.00036395536 -0.00039102687 -0.0005028863 -0.00010050243
000240 8a 71 28 be 90 8a 2b 3e 23 b3 56 be 3c 5c 8b 3d
       -0.16449562 0.16752076 -0.20966773 0.06804702
000250 9c 29 5b 3a fe 2a ab 39 8c b0 14 bd ec 1f 9c 3d
       0.00083603873 0.00032647693 -0.03630118 0.07623276
000260 73 9d e4 3b 42 14 90 3d 67 0f dc 39 0f 46 39 39
       0.006976777 0.07035114 0.00041973146 0.00017669074
000270 77 ce 91 3e 09 9a c1 be 65 bb 10 bc 24 ec 32 3e
       0.28477833 -0.37812832 -0.008833741 0.17472893
000280 0f a2 93 be 95 84 ba be 4f 49 30 3c cc 8f 8d be
       -0.28834578 -0.36429277 0.010759666 -0.2764877
000290 29 3d fa 39 11 8a 49 39 42 ae b8 3d f0 1e 26 bd
       0.00047729284 0.00019220288 0.09017612 -0.040556848
0002a0 9b 61 98 bd bd e4 4d 3e 4e 18 18 ba 31 7b 3a 39
       -0.07440492 0.20106788 -0.00058019615 0.00017784235
0002b0 7f 89 36 be 90 1b b8 3c df c2 1f 3c 01 7c 8d 3d
       -0.17825888 0.02247408 0.009751051 0.069084175
0002c0 75 29 57 3e e4 18 e0 bd 3a 24 af bd 05 2f 36 3c
       0.21011908 -0.109422475 -0.085518315 0.011119609
0002d0 e3 4f 40 bd 7e bc 51 be 24 ca 00 3e 41 42 60 3e
       -0.046951186 -0.2048206 0.1257711 0.21900274
0002e0 1c b6 c8 3d a5 d0 6c be 4b e3 4d 3c 8b 31 f0 3c
       0.098003596 -0.23126467 0.012566398 0.029320499
0002f0 40 52 b2 bd 0c de 08 3d 59 33 2d be c9 27 b4 3e
       -0.08707094 0.033414885 -0.16914119 0.35186604
000300 17 9e 20 bd cb f2 39 be ec b1 90 3e f7 50 4a be
       -0.039213266 -0.18159024 0.28260744 -0.19757448
000310 94 89 35 be 88 49 26 be ee 77 c8 3d 35 f4 1b 3e
       -0.17728263 -0.16238987 0.097885 0.15229876
000320 86 fa d9 3d e2 5f 2a bc f9 0f dd bc 14 2b ae 3d
       0.10643487 -0.010398837 -0.026985155 0.0850431
000330 03 42 e3 3d 80 a6 73 be 52 16 52 3e 28 6b bb bc
       0.11096575 -0.23793983 0.20516327 -0.022878245
000340 68 02 5a bc fd b8 a4 3d 6d f0 28 bd 8a 53 4b 3e
       -0.013306238 0.08043096 -0.041244913 0.19856086
000350 b9 b5 13 3e 76 87 26 3e 6f 50 4a 3d d4 38 f8 bd
       0.1442479 0.16262612 0.049393114 -0.12120214
000360 15 7e 14 3e c8 20 54 3e 20 2c c6 bd 8e 60 41 be
       0.14501221 0.2071563 -0.09676385 -0.18884489
000370 8b 3f a8 3d f0 3f 0b be 3e e3 81 ba 19 ae 86 b9
       0.08215245 -0.13598609 -0.0009909642 -0.00025688185
000380 0d ee 62 bd 1f 38 37 3e d1 06 c3 bd 20 e3 2d be
       -0.055402804 0.17892502 -0.095227845 -0.16981173
000390 66 f5 88 39 27 18 ed 38 05 df 69 3d 68 9c 27 3e
       0.00026122777 0.000113055394 0.057097454 0.16368258
0003a0 ab 54 25 bc 1b 11 de 3d 58 e5 63 be 57 f1 ae bd
       -0.010090987 0.10843106 -0.22255456 -0.08542126
0003b0 e0 98 0a 3e 27 ca bf bc 5e 9f 55 3e 4a 7c f2 3d
       0.1353488 -0.023411823 0.20861575 0.118401125
0003c0 67 d7 1f bc 46 da 1f be 5c 5e 29 3e 5c 7a c8 bd
       -0.009755946 -0.15610608 0.16539901 -0.09788963
0003d0 ff ba e9 3b b1 91 c2 bd cd 6f 23 be 56 48 8b 3d
       0.0071328874 -0.09500445 -0.15960617 0.06800906
0003e0 b6 15 bb be a0 ee ab be 60 ee 7b 3e 2c 01 64 bd
       -0.36540002 -0.33580494 0.24602652 -0.05566518
0003f0 55 61 9a 3d a0 17 34 3c ee c5 34 3a 19 4f 52 39
       0.07538096 0.010991961 0.0006895949 0.00020056627

conv_spatial.mlp.2.weight f4 [256, 256]
000000 a8 85 06 3f 3e 79 9c 3b d3 df 52 be 8f 00 88 bd
       0.52547693 0.0047751954 -0.20593195 -0.066407315
000010 1d 78 6d 3c 5a d4 e6 bd b5 cc 27 bf 76 1a 5c be
       0.014493969 -0.112709716 -0.65546733 -0.21494469
000020 1b b5 a1 be 98 0b 9a 3e ed e7 89 3e 1f 21 4a bd
       -0.31583485 0.3008697 0.26934758 -0.049347993
000030 e3 e3 5e bd b9 c4 5d 3c 3a d6 fb 3e 75 10 28 be
       -0.05441655 0.013535672 0.4918688 -0.16412528
000040 ab 69 0b 3c 9e 98 00 3f 4d 4d aa be ae b0 ae bd
       0.00850908 0.50232875 -0.332621 -0.08529793
000050 2e ee 97 be 9b 5d 2d 3e 1a b8 9e bd 22 c3 37 bf
       -0.29673904 0.16930239 -0.07749958 -0.71782124
000060 26 f3 c8 be 9d 97 1c be da ae cb be ff 5f f4 3e
       -0.39248008 -0.15292211 -0.3978184 0.4772949
000070 4d 68 e0 3e 28 96 38 bd a4 32 fe 3c 36 72 43 be
       0.43829575 -0.045065075 0.031030007 -0.19086537
000080 b2 be 23 3f 11 48 6b be 33 a9 4e 3d b0 99 1a bf
       0.6396285 -0.2297671 0.05045433 -0.6039076
000090 b8 b8 33 3a 24 62 d4 be 2e ec ab 3e a1 cc 1f bf
       0.00068558333 -0.41481125 0.33578628 -0.62421614
0000a0 2a d1 55 3d bd 2b 01 bd 9b 97 86 3e 47 32 8a 3e
       0.052201428 -0.031535853 0.2628754 0.26991484
0000b0 ad 77 70 3e 4a d6 f7 3d eb 19 c6 bd 01 59 56 3d
       0.23483153 0.12101419 -0.09672912 0.052330974
0000c0 18 eb 53 bd 2d 20 a9 be 95 a7 0a be 72 28 02 3d
       -0.051737875 -0.3303236 -0.1354049 0.031776853
0000d0 21 b8 a7 3e b0 7b 15 bf d6 49 1d bf 42 9b 43 3e
       0.32757667 -0.5839186 -0.6144079 0.19102195
0000e0 eb 07 30 3f ec 62 fe bd e6 ac bb be 7e 74 17 3d
       0.6876208 -0.124212116 -0.3665535 0.03697633
0000f0 1f 31 37 3e fc 92 bd be 01 a4 33 be e5 83 af bd
       0.17889832 -0.37026203 -0.17543031 -0.08570079
000100 c4 54 f9 3c 79 ee 30 3f fb 0b bf be 1e f0 23 3f
       0.030435927 0.6911388 -0.37313828 0.64038265
000110 60 99 b4 be af 49 26 bf 64 4f f3 3b 6f 5f 06 3d
       -0.35273266 -0.6495618 0.0074252356 0.032805856
000120 03 27 48 be 24 8a 65 3c a7 41 13 bd 8c 34 86 be
       -0.19546132 0.014009986 -0.035951283 -0.26211965
000130 59 8c de be f3 d4 17 3d 0c 5c 0f 3e 2a 0c a7 be
       -0.43466452 0.03706832 0.13999957 -0.32626468
000140 82 45 ff 3e cc 2b dc 3e 78 17 8c bd 4b 32 a2 3d
       0.49857718 0.43002164 -0.06840414 0.07919749
000150 7d 9e 9b be d6 c6 82 3b 48 79 00 3e 4c 13 ce be
       -0.30394354 0.0039909882 0.12546265 -0.40249097
000160 18 0e b0 3d 3d e0 c3 3d 91 70 03 3f a8 a7 35 bf
       0.08596438 0.095642544 0.5134364 -0.7095895
000170 34 f1 82 3e c9 e8 d3 be 12 9e 85 bd 7e a0 58 be
       0.25574648 -0.41388538 -0.0652429 -0.21154973
000180 f3 6f 0c 3f f4 b2 a0 3c 73 85 ee 3e 6d ad 21 bf
       0.5485832 0.019616581 0.4658619 -0.6315525
000190 64 e1 d8 bd 59 02 9d be 1e 55 6b 3e 4a 1b ee bd
       -0.10589865 -0.30665854 0.22981688 -0.11626299
0001a0 1a de 7e be 32 93 8b be aa 5d 0d bf 17 b7 59 3e
       -0.24889413 -0.2726074 -0.55221045 0.2126125
0001b0 c9 b7 0b bf 08 21 22 3f e0 c4 24 3e 1d 5d 06 bd
       -0.5457731 0.6333165 0.16090727 -0.032803643
0001c0 2b 76 7c be c7 1a 1b 3f 27 39 2c bd 63 06 27 bf
       -0.24654453 0.60587734 -0.042046692 -0.6524412
0001d0 7d a2 b1 be f4 c3 90 3e c3 75 fb bc d2 25 96 be
       -0.3469428 0.282745 -0.030695802 -0.2932573
0001e0 67 b8 cb 3e 5f b6 f5 3d 26 fa 90 3e e1 4c 75 bb
       0.39789125 0.11997675 0.28315848 -0.0037429857
0001f0 86 fb e3 3e 0c af cb bd d8 c6 81 be b2 10 bf bc
       0.44527835 -0.09945497 -0.25347018 -0.02332339
000200 f3 96 03 3f 2c cf 27 be 56 70 54 3c d6 e2 8d 3e
       0.51402205 -0.16387624 0.012966236 0.27712125
000210 d4 76 2d 3e 8e 3e c3 bd 39 89 e7 3d 62 32 9f bd
       0.1693986 -0.09533416 0.1130547 -0.07773282
000220 6b 48 c4 3e 7a a9 43 be 11 1f 04 3f 29 44 c1 3e
       0.383365 -0.19107619 0.51609904 0.37747315
000230 40 6b 1f 3e cb 11 1e bf 37 d0 28 3e c4 59 d5 3d
       0.15568256 -0.617459 0.16485678 0.10417512
000240 28 60 15 3f bf e5 44 bb 07 d4 98 be 32 18 d3 3e
       0.5834985 -0.0030044166 -0.29849264 0.41229397
000250 97 f2 2b bc 4c f9 a4 3d 35 72 21 be ad 6a 59 3d
       -0.01049485 0.08055362 -0.15766223 0.05308025
000260 ef 58 7b bd 4d ce ea bc 65 cc 87 bd c3 81 35 be
       -0.06136411 -0.028662825 -0.06630782 -0.17725281
000270 03 76 54 bd 2d 07 3e 3e 44 21 24 3e 35 e9 04 3e
       -0.051870357 0.18557425 0.16028315 0.12979586
000280 d5 76 0c 3f 1b 49 6c 3c b0 0f c4 3d 98 22 04 3f
       0.54868823 0.014421727 0.09573305 0.51615286
000290 c1 04 24 3e b6 aa ad be ce fa ca 3e 2e 81 b2 bd
       0.16017438 -0.33919305 0.39644474 -0.08716045
0002a0 31 00 7a 3e 64 28 6e 3d 47 11 81 be 03 69 2c be
       0.24414136 0.05814399 -0.25208494 -0.16836934
0002b0 fe 9b 0e bf fc 03 83 3e f4 e7 9b be 5f 0b 03 bf
       -0.55706775 0.25588977 -0.30450404 -0.51189226
0002c0 a8 c8 18 3d d0 37 8d 3e 99 bd cc bd dd 2e 8e 3e
       0.037300736 0.27581644 -0.099971004 0.2777013
0002d0 5d 62 b3 be c2 42 19 bf 3b ce 9d 3e 05 5b 57 be
       -0.35035983 -0.5986749 0.30821404 -0.21030815
0002e0 ea 67 3b bc 03 74 5b 3e a4 80 d3 3e f4 6f b5 3e
       -0.011438349 0.21430974 0.41309083 0.35436976
0002f0 98 ed a7 be 86 2f 0b 3e 4d 66 e0 bd 69 ec 92 3e
       -0.32798457 0.13592348 -0.10957012 0.28695992
000300 96 54 93 be 4c 15 6b be f2 6f 56 be 4e 73 f3 3e
       -0.2877547 -0.22957343 -0.20941141 0.47548908
000310 ae f3 5e 3d e7 8f d0 3d 8b cf 2d 3e 8d e5 8e 3d
       0.05443161 0.10183697 0.16973703 0.06977377
000320 2d c2 81 3e 87 fa 0d 3f bd 50 b9 be f8 00 da 3e
       0.25343457 0.554604 -0.3619441 0.42578864
000330 c6 81 c1 bd 96 fb 36 be 73 74 cf bd 95 fd 51 3c
       -0.094485804 -0.1786941 -0.10129633 0.012816806
000340 5d 44 b4 3e 60 02 c4 be 40 85 db 3e e5 58 33 be
       0.35208407 -0.38283062 0.428751 -0.1751438
000350 87 b7 d7 3e 5d 18 c3 3c 88 68 42 be 07 2a c8 3e
       0.42132208 0.023815328 -0.18985188 0.39094564
000360 c9 d0 3b 3e 72 5b 9a be 26 dd aa 3e fa ce 82 3b
       0.18341364 -0.30147892 0.33371848 0.0039919587
000370 63 84 91 3d 6b 71 0c 3e 88 d7 51 be 6c 7c 68 3e
       0.07105329 0.1371514 -0.20492375 0.22703713
000380 6a 85 cb 3d 47 75 89 be 4a 4c 0f bf 2f dc a3 be
       0.09937556 -0.26847288 -0.5597578 -0.32003924
000390 a3 f1 f8 be d4 8e 48 be 99 16 17 bc 5b f0 aa 3e
       -0.48621854 -0.19585735 -0.009221696 0.33386502
0003a0 53 32 4b 3d 8e 35 62 bc d7 2a 17 bf 67 58 c2 bc
       0.04960854 -0.013806714 -0.59049743 -0.023723794
0003b0 79 35 11 3c 16 49 ec be ce 95 11 3f 01 56 41 bf
       0.0088628465 -0.4614951 0.5686921 -0.75521857
0003c0 2d 98 96 be 09 ca fd 3e fa ce bf 3b 7c 9a 1e bf
       -0.29412976 0.49568203 0.005853531 -0.61954474
0003d0 8b 4d f3 be 86 3c 65 3d c6 c5 fa 3e 39 ae 13 bd
       -0.47520098 0.055965923 0.48979014 -0.036054824
0003e0 00 ba b8 be e7 36 07 3d 4d 5d a0 bd 95 9b 83 3e
       -0.36079407 0.033011343 -0.07830296 0.25704637
0003f0 48 bc 88 bc 1e 0f bc bc a7 95 55 3e 9c f5 8c be
       -0.016691342 -0.022956427 0.20857869 -0.27531135

conv_spatial.mlp.4.weight f4 [2, 256]
000000 d5 81 0c 3e 3d 0c 6f be 39 17 57 3e 55 76 95 3e
       0.13721402 -0.23344512 0.21004952 0.29191843
000010 b2 9e 21 3d d7 0e 3b be 77 30 a8 3d fe 24 8d 3e
       0.039457984 -0.1826738 0.08212369 0.27567285
000020 f7 19 3e 3e 9b 87 6d bd 8a 11 71 be aa c5 a8 3e
       0.18564592 -0.05799065 -0.23541847 0.32963306
000030 48 d9 70 3e fe 98 95 be fa 2e 8c bd 11 db 85 be
       0.23520386 -0.29218286 -0.068448976 -0.26143697
000040 e4 0e 80 be 9a 79 1c be ee d5 3c 3e a8 dc 0a bd
       -0.2501136 -0.15280762 0.18440983 -0.03390184
000050 a9 23 35 bd 65 35 00 3d 2d 16 22 be 3b b5 6e 3e
       -0.04422346 0.03130092 -0.15828772 0.23311321
000060 0c 29 bd 3b 5e 54 46 3d 06 f4 6b bd 08 77 03 3e
       0.0057727154 0.048420303 -0.057605766 0.12838376
000070 fa e9 12 bd 31 37 f8 bd e2 a8 7a 3e b5 37 f4 bc
       -0.03586767 -0.12119902 0.24478486 -0.02981172
000080 90 31 46 3e a3 d2 a0 3c 85 ff 6f 3e 2a d5 86 be
       0.19354844 0.01963169 0.23437317 -0.26334506
000090 fd 8a 27 be 99 79 6d 3e f0 c0 7f 3e 1f 6c 66 3e
       -0.16361614 0.23190917 0.24975944 0.22502182
0000a0 51 fb 9c 3e dc 7b 77 3d 76 af a3 bd 42 3d 5a 3e
       0.3066049 0.060420856 -0.07992451 0.2131243
0000b0 f1 91 6b 3e 4f 61 5c bc 33 f9 3e bd 1e 43 eb bd
       0.23004891 -0.013450935 -0.046624374 -0.11487411
0000c0 96 a4 f8 bd 17 6c db bc 19 d5 89 3e e6 1a 7b be
       -0.12140767 -0.02678494 0.26920393 -0.2452198
0000d0 8f b3 eb bd e0 22 39 be 2d b6 22 3e c0 5a 5f be
       -0.115088575 -0.1807971 0.15889807 -0.21811962
0000e0 73 01 05 be b8 17 a0 be c8 ce 23 3e 74 6d 81 3e
       -0.12988834 -0.31268096 0.1599685 0.2527882
0000f0 b7 1a 8b 3e a6 cf 41 3e b2 21 02 be 09 9f 36 3e
       0.2716882 0.18926868 -0.12708166 0.17834105
000100 62 8b 3f be 86 c2 ab bd 3a 23 92 be a1 f8 34 be
       -0.18705514 -0.08386712 -0.285425 -0.1767297
000110 45 50 89 bd 7b a2 0b be 75 2c 87 bd 2e a8 cd bd
       -0.06704763 -0.136362 -0.066002764 -0.10041843
000120 ef 7c c5 3d 78 d2 ab 3d 38 d0 67 3e a7 39 66 3e
       0.0964297 0.08389753 0.22638023 0.2248293
000130 ca 2d a0 be 14 eb 31 be 28 62 59 be 5f 95 4c be
       -0.31284934 -0.17374831 -0.2122885 -0.19978856
000140 a9 44 2f be ed 78 6d be fb 74 94 3d 44 78 75 bc
       -0.17116036 -0.23190661 0.07248875 -0.014982287
000150 7a f8 88 be d7 cd 86 3e 14 c4 aa bd 89 87 b2 3c
       -0.26752073 0.26328918 -0.0833818 0.021793144
000160 9c ce 89 3e e0 6a 28 be c3 83 fd 3c 51 16 70 3e
       0.26915443 -0.1644702 0.030946618 0.23446013
000170 21 20 23 be 07 03 3f bd 3a 02 82 be 9d 05 ac be
       -0.15930225 -0.046633746 -0.25392324 -0.33598033
000180 2b 30 57 bd 59 cd 68 3e b1 09 7a be 05 7c 66 3e
       -0.05253617 0.22734584 -0.2441776 0.22508247
000190 75 53 8d 3e 93 54 88 bd 7d 3b 45 bd a1 a9 2f 3e
       0.27602735 -0.06656756 -0.048152436 0.17154552
0001a0 a9 aa 99 be 5a 35 83 3d 17 32 8d 3e ac 14 79 be
       -0.30013016 0.064066604 0.27577278 -0.24324292
0001b0 8f 52 8a 3e ba 48 07 3e e2 a7 25 be c3 f2 14 3d
       0.27016112 0.13211337 -0.16177323 0.036364328
0001c0 4f fc 9d bd 96 71 81 3e 64 03 82 3e 70 49 86 be
       -0.0771414 0.25281972 0.25393212 -0.26227903
0001d0 e4 67 1b be 84 b7 e7 3d 9d 90 80 be b5 fb 61 be
       -0.1517635 0.113143 -0.2511033 -0.22068675
0001e0 f2 e6 63 3e 78 1c bc be 11 a0 0a 3e 96 d0 14 bd
       0.22256067 -0.3674047 0.13537623 -0.036331736
0001f0 06 23 7b 3e 1d 5b e8 3d 5a df d4 3d ee f1 97 3d
       0.24525079 0.113455035 0.103941634 0.07419191
000200 6d 3a 56 3d d3 84 a5 be fe 70 30 3e d1 c8 90 be
       0.052301813 -0.323279 0.17230603 -0.2827821
000210 74 03 6a 3e e6 57 1d be a6 7b 7c be c5 40 3b be
       0.2285288 -0.15365562 -0.24656543 -0.18286426
000220 a1 47 0d bd f9 f0 4f 3e 93 d4 e1 3c 4e 7f 8d be
       -0.03449214 0.20306768 0.027567184 -0.27636188
000230 77 a9 81 be 20 c1 89 3e 11 63 4a be 63 df ce bd
       -0.25324604 0.26905155 -0.19764353 -0.101012014
000240 ed 3d 1b be 93 5f 54 be 42 56 b4 bd 84 2f 8d be
       -0.15160342 -0.20739584 -0.08805515 -0.27575314
000250 9b 2e 6f 3e a6 6f 35 be 7f eb a7 3e de 24 2f 3e
       0.23357622 -0.17718372 0.32796857 0.17103907
000260 99 85 75 be 0d d5 0f be 86 fb f6 bd db d8 a3 3e
       -0.23976745 -0.14046116 -0.12059693 0.32001385
000270 34 3c 76 be 4d 82 a5 3c 01 c5 1d be f0 d4 36 be
       -0.24046403 0.020203734 -0.15407182 -0.17854667
000280 fc 05 59 be 8b bb b4 be fa 9d cc bd 38 31 35 3e
       -0.21193689 -0.35299334 -0.09991069 0.17694557
000290 ad 4d d7 bc 0c 20 b8 bd 4b 78 85 be 2b 3e 41 3e
       -0.026282156 -0.089904875 -0.2606834 0.18871371
0002a0 3d 6a fd bd d2 00 09 3e 54 ec 68 bd 6b 96 94 3e
       -0.12373779 0.13379219 -0.056866005 0.2902101
0002b0 b1 78 43 3e af cf 77 3e 7a ff eb 3c fe 17 92 b8
       0.19089009 0.24200319 0.028808344 -6.9662914e-05
0002c0 63 42 47 3d d4 48 94 be 79 2e 4a be 05 65 26 3e
       0.048647296 -0.28961813 -0.1974429 0.16249473
0002d0 eb d3 5d be 6c 44 aa be 2c 81 53 3e a7 91 50 bc
       -0.21662872 -0.33255327 0.20654744 -0.012730039
0002e0 9f 69 e5 3d ea 93 c4 bd 85 9b 98 bc 06 4a f3 bb
       0.11201786 -0.09598525 -0.018628845 -0.0074245958
0002f0 7d f5 75 3e 62 37 c1 3d 17 cf 16 be 2f a1 f4 bc
       0.24019428 0.094343916 -0.14727436 -0.029862015
000300 d8 94 3f 3e 8c 74 b2 be fa fa 00 bd 2b de b4 be
       0.18709123 -0.34854543 -0.03148935 -0.3532575
000310 bd 24 1a be e3 5f 8c be da 05 dc bd 9e 2a a4 bd
       -0.15053077 -0.27416906 -0.107433036 -0.08015941
000320 dd c0 80 3d 5c a8 6b be da b4 96 3e 54 13 82 be
       0.06286786 -0.23013443 0.29434854 -0.2540537
000330 6a 7c 8a bd 13 41 e7 3d 6e d5 0b be 31 9d 92 be
       -0.06762011 0.11291709 -0.13655636 -0.28635553
000340 23 7d 24 3e b5 95 a1 be 4a 75 f3 3d 53 3c 1d 3d
       0.16063361 -0.3155953 0.118876055 0.038387608
000350 12 4d 03 be 45 28 eb 3c 6f fb 98 be 8e d7 c6 3c
       -0.12822369 0.028705725 -0.2987933 0.024272706
000360 4c 10 00 3e 08 7d 6f 3e 1c b9 68 bd 91 91 e6 3d
       0.12506217 0.2338754 -0.05681716 0.11258233
000370 00 62 24 be ad 0b 87 be 6a 99 83 be cb 04 d0 3d
       -0.16053009 -0.26376095 -0.25702983 0.10157164
000380 ec fe 27 3c 3c f5 82 be ac 6d 6e bd 7e 7f a8 be
       0.010253649 -0.25577724 -0.05821006 -0.3290977
000390 41 f3 e6 bd 05 c9 23 3d 17 6b 4f 3e 9d 50 91 be
       -0.11276866 0.03998663 0.20255695 -0.28381816
0003a0 ad bf c5 bd 52 d6 49 3c bc 21 39 be 24 20 53 be
       -0.096557 0.012319164 -0.18079275 -0.2061773
0003b0 ad c6 94 be ad 91 63 be 63 b2 29 3e 0a 44 b4 be
       -0.29057828 -0.2222354 0.16571955 -0.3520816
0003c0 53 8a 71 be 6c b0 7d 3d 5e 86 27 be bc 61 0f 3d
       -0.23587923 0.061935827 -0.16359851 0.035005316
0003d0 81 9e 63 3e b5 57 b6 bd 5e a7 2e be c8 a3 cc 3d
       0.22228433 -0.089034475 -0.17056033 0.09992176
0003e0 ce ab 4c 3d cb e8 83 3e fa 24 8c 3e f2 bf 13 be
       0.049968533 0.25763544 0.2737196 -0.1442869
0003f0 19 7c 70 be 0f 40 b4 bc 71 8a 41 3e be 77 de bd
       -0.2348484 -0.022003202 0.18900467 -0.10862683
