Envs/score.pt (torch, 732745 bytes, 10 tensors)

embed.0.W f4 [64]
0	0x418037ec	16.027306
1	0xc1a7c584	-20.971443
2	0x40f3b9aa	7.616414
3	0xbef9e385	-0.48806396
4	0xc1809e29	-16.077227
5	0x4198e726	19.112865
6	0xc1adc28b	-21.719992
7	0x406ce439	3.7014296
8	0x417de106	15.867437
9	0x41d66b25	26.802317
10	0x41d472ec	26.556114
11	0xbf327df4	-0.6972344
12	0x41f6f88a	30.871357
13	0xc1104491	-9.01674
14	0x3ff84118	1.9394865
15	0xc21e80e1	-39.62586
16	0x426741d8	57.8143
17	0x417065de	15.02487
18	0xc22ad132	-42.704292
19	0xc21a4aa4	-38.57289
20	0x42599b31	54.401554
21	0x4113bd39	9.233697
22	0xc1f7e294	-30.985634
23	0x424508c8	49.258575
24	0xc157a3c9	-13.477487
25	0xc18cce35	-17.600687
26	0xc1c7f3ec	-24.994102
27	0x41b14e91	22.163363
28	0x41dbad1f	27.459532
29	0x4199dfe8	19.23433
30	0x41ab5bf8	21.419907
31	0xc004c32e	-2.0744128
32	0xc25eb755	-55.679035
33	0xc2129cc8	-36.653107
34	0xc176b283	-15.418582
35	0x3f97529b	1.1822084
36	0xc1e250eb	-28.28951
37	0x3ed3df63	0.41381368
38	0x419f92e6	19.946728
39	0x4224c3e2	41.19129
40	0xc14ee8f9	-12.931878
41	0xc148163d	-12.505429
42	0x41eb356c	29.401085
43	0xc001402b	-2.0195415
44	0x4109c042	8.609438
45	0x419a6238	19.297958
46	0x416d1f00	14.820068
47	0xc243cc94	-48.949783
48	0xc2927f76	-73.24895
49	0x422dde20	43.46692
50	0xc19fec1d	-19.99029
51	0x42074865	33.820698
52	0x4280ba48	64.36383
53	0xc282a423	-65.32058
54	0xc14939f1	-12.576646
55	0xc0530fdf	-3.2978437
56	0xc18a95ff	-17.32324
57	0xc1c47217	-24.555708
58	0xc013f38a	-2.3117394
59	0x3fbc5229	1.4712573
60	0xc1373469	-11.450295
61	0xc0b78a7d	-5.7356553
62	0xc1ca576f	-25.292692
63	0xc18009d2	-16.004795

embed.1.weight f4 [128, 128]
0	0xbdb45cc3	-0.088067554
1	0x3d4001e9	0.04687682
2	0x3d81f9b4	0.06346455
3	0xbc966b77	-0.01836179
4	0xbcd6fa1f	-0.026242314
5	0xbd870495	-0.06592671
6	0xbc3fa530	-0.011697099
7	0x3c0328ca	0.00800533
8	0xbc26d3ca	-0.01018233
9	0xbd8e780c	-0.06956491
10	0xbdb4a298	-0.08820075
11	0xbd792327	-0.06082454
12	0xbb9f262b	-0.004856845
13	0x3cf3cf58	0.029761955
14	0xbc826bae	-0.015920486
15	0x3d81b35a	0.06333037
16	0x3d7b6e2c	0.061384365
17	0x3d9803b4	0.07422581
18	0xbd583e70	-0.05279392
19	0xbd745a3c	-0.059656367
20	0x3d35d961	0.04439676
21	0x3da5a99e	0.080889925
22	0xbda5b41a	-0.08090992
23	0x3d3c9255	0.04603799
24	0x3db04322	0.086065546
25	0xbd0956dd	-0.033530105
26	0x3d88c242	0.06677677
27	0x3ca05ef9	0.019576536
28	0x3d8ba400	0.0681839
29	0xbbf90235	-0.00759914
30	0x3ba3c08f	0.00499732
31	0xbd9c4468	-0.07630235
32	0xbc9c40b8	-0.019073829
33	0xbc9c041c	-0.019044928
34	0xbd9c178c	-0.07621679
35	0xbd7e672a	-0.062110104
36	0xbc5e2767	-0.013559199
37	0xbc7f74dc	-0.015591826
38	0xbcec0717	-0.028811974
39	0x3d606048	0.05477932
40	0x3db070a2	0.08615233
41	0xbd95fece	-0.07323991
42	0xbd15e0eb	-0.03659145
43	0x3d41070d	0.047125865
44	0xbcc6cbb6	-0.024267059
45	0x3d36cefa	0.044630982
46	0xbd5ab552	-0.053395577
47	0x3d37c726	0.044867657
48	0x3d80a7f9	0.06282038
49	0xbd9c071c	-0.076185435
50	0xbb966065	-0.004589128
51	0x3b63e515	0.0034773995
52	0xbd7f81eb	-0.06237976
53	0xbcc82b36	-0.024434667
54	0x3d8882eb	0.066655956
55	0x3d46a551	0.0484975
56	0xbdaa0ff3	-0.08303823
57	0x3cc8f72b	0.024531921
58	0x3d3aea3c	0.04563354
59	0xbdb3229a	-0.08746834
60	0xbca029d4	-0.019551195
61	0x3ca2756f	0.019831387
62	0xbd748d8b	-0.0597053
63	0xbd367e04	-0.04455377
64	0xbd654eae	-0.055983238
65	0x3d25dc6d	0.040493418
66	0x3d7716de	0.060324542
67	0x3d7e0f54	0.062026337
68	0x3d76c283	0.060244095
69	0xbd0a7417	-0.03380212
70	0x3d54cfb1	0.051955882
71	0xbc6618c7	-0.014043993
72	0x3d865fe8	0.065612614
73	0x3db38d86	0.08767228
74	0x3d3058ab	0.04305331
75	0xbd219203	-0.03944589
76	0x3bcd5284	0.00626594
77	0xbdaa8042	-0.083252445
78	0x3b22e0ac	0.0024853153
79	0xbcdcabd2	-0.026937399
80	0xbd086511	-0.03329951
81	0x3d0b42f7	0.03399941
82	0x3cda3dcf	0.0266408
83	0xbda8bd30	-0.0823921
84	0xbda88cea	-0.08230002
85	0xbd9e4dad	-0.07729659
86	0x3d6992c0	0.057024717
87	0xbdb4ac49	-0.08821923
88	0xbd69c7ac	-0.057075188
89	0x3d1c6a13	0.038187098
90	0xbda0b1e1	-0.07846428
91	0x3c8b3d6e	0.016997065
92	0x3d3d80b5	0.046265323
93	0xbdb35d59	-0.08758039
94	0xbd56e0ee	-0.052460603
95	0xbd6fa213	-0.058504175
96	0xbd9b05df	-0.07569479
97	0x3d90250a	0.07038315
98	0x3be0d5c9	0.0068614227
99	0x3db00608	0.085949
100	0x3caae58f	0.020861415
101	0x3c853105	0.016258726
102	0xbc0d8657	-0.008637986
103	0x3d522a70	0.051310003
104	0x3d8211a3	0.0635102
105	0x3d5c85c5	0.05383851
106	0xbc94ef2d	-0.018180454
107	0xbc70e71d	-0.014703539
108	0xbc7beeb9	-0.01537674
109	0xbd542f5e	-0.051802985
110	0x3d14d39f	0.03633463
111	0xbc967f11	-0.018371137
112	0x3d88cc1f	0.06679558
113	0x3db43b15	0.088003315
114	0xbd21be8f	-0.03948837
115	0x3d3dcb6d	0.04633658
116	0xbd7fdd96	-0.06246718
117	0xbd093e37	-0.0335066
118	0x3d08f61f	0.033437844
119	0xbc0b2667	-0.008493043
120	0xbdb00e22	-0.085964456
121	0xbd83d8ef	-0.06437861
122	0x3da9f721	0.08299089
123	0xbd0a3ec8	-0.03375128
124	0xbd7ed5a9	-0.06221548
125	0xbda4a950	-0.08040106
126	0xbc109c4f	-0.008826329
127	0xbc6706ad	-0.014100713
128	0xbcd1d5aa	-0.025614578
129	0xbd8fc93a	-0.07020803
130	0xbda1df0e	-0.079038724
131	0x3c2090f5	0.009800185
132	0xbd22a730	-0.039710224
133	0xbd6ad314	-0.057330206
134	0xbda45ad5	-0.08025137
135	0x3c8a04d2	0.016848002
136	0xbd8459e1	-0.064624555
137	0x3d7ab9f9	0.061212514
138	0x3d066caa	0.032818474
139	0x3db36fbd	0.08761547
140	0xba828052	-0.0009956455
141	0xbdb1f403	-0.0868912
142	0x3cfa708e	0.030571248
143	0xba1c59c7	-0.00059643056
144	0x3d908fb8	0.07058662
145	0xbd7adc74	-0.061245397
146	0xbd788a08	-0.06067851
147	0xbd527732	-0.051383205
148	0x3d902ef8	0.070402086
149	0xbcea0336	-0.028565984
150	0x3d5ba72f	0.053626236
151	0x3c9ec096	0.019378942
152	0x3d8a3180	0.067477226
153	0xbd65a084	-0.056061283
154	0x3d87c9e1	0.06630302
155	0x3d945caa	0.07244237
156	0xbbe74d1f	-0.007058754
157	0x3cf58c1d	0.029974038
158	0x3a0ae209	0.0005297964
159	0xbd4d3329	-0.05009762
160	0xbd80013c	-0.062502354
161	0x3d1d80ad	0.038452793
162	0xbdb1448a	-0.08655651
163	0x3cd3bb18	0.02584605
164	0x3d18e66d	0.037329126
165	0x3cbab4cb	0.022791287
166	0x3b5696c5	0.0032743674
167	0xbca799de	-0.020459112
168	0xbd37abba	-0.044841506
169	0xbc80f621	-0.015742363
170	0x3d95be2b	0.07311662
171	0xbd98794e	-0.07445012
172	0x3d1b47b8	0.037910193
173	0xbcdbf8ae	-0.026851978
174	0x3d83d7b0	0.064376235
175	0xbcb1ae36	-0.021689516
176	0xbd58f622	-0.052969106
177	0xbda4773f	-0.08030557
178	0xbd67a1e8	-0.05655089
179	0x3bbecbee	0.00582265
180	0x3d157db6	0.03649684
181	0x3bb30f2b	0.0054644546
182	0x3d22795b	0.039666515
183	0x3d9b1b33	0.07573547
184	0x3d0e24be	0.03470301
185	0x3ca3c6ec	0.019992314
186	0x3d631b1d	0.05544578
187	0xbce69d84	-0.028151281
188	0x3db2cc97	0.08730429
189	0xbd8d1004	-0.0688782
190	0xbc6db645	-0.0145087885
191	0xbb35df17	-0.002775138
192	0xbd62575e	-0.0552591
193	0xbc950eff	-0.018195627
194	0xbd4eca0c	-0.050485656
195	0xbdadc294	-0.084843785
196	0xbd00f4d6	-0.031483494
197	0xbdaceaac	-0.084431976
198	0xbd10c44b	-0.03534345
199	0xbd5450f4	-0.051835015
200	0xbbd47c4f	-0.0064845453
201	0x3d3517a2	0.04421199
202	0xbcd5e95a	-0.026112247
203	0xbd140788	-0.036139995
204	0x3da038a9	0.07823307
205	0x3d2595fd	0.040426243
206	0x3d0b4c17	0.03400811
207	0x3d5e94b8	0.054341048
208	0x3cfecb5a	0.031102825
209	0x3d9f0ac5	0.07765726
210	0x3daeb641	0.08530856
211	0x3c2068a7	0.009790576
212	0xbb5032e1	-0.0031768607
213	0x3d65ad1f	0.056073304
214	0x3d21da94	0.039515093
215	0x3d373842	0.044731386
216	0x3d892018	0.066955745
217	0xbd767a2a	-0.0601751
218	0x3d420561	0.04736841
219	0xbcf2307e	-0.029564139
220	0xbda8b023	-0.082367204
221	0xbb3f1c8a	-0.0029161298
222	0x3ce591e0	0.02802366
223	0x3b01ffce	0.001983631
224	0x3d37fb4a	0.044917382
225	0xbd000f53	-0.031264614
226	0x3d2bc509	0.041935954
227	0xbc26482e	-0.010149045
228	0xbd173416	-0.036914907
229	0xbc0dd216	-0.008656045
230	0xbd84ef26	-0.064909264
231	0x3b412cc0	0.0029476136
232	0xbd0cca64	-0.034372702
233	0x3ade7baf	0.0016974116
234	0x3cc07e23	0.023497647
235	0x3c5cdcf7	0.0134804165
236	0xbd70f0d3	-0.058823418
237	0x3da1fc04	0.07909396
238	0xbda332eb	-0.07968696
239	0xbd05b5ae	-0.032643966
240	0xbd7a411a	-0.061097242
241	0xbd97134a	-0.07376726
242	0x3d0e318f	0.03471523
243	0x3d9e5b6a	0.077322796
244	0xbda8b945	-0.08238462
245	0xbdb2de17	-0.087337665
246	0x3cf060a7	0.029342962
247	0xbd0e4986	-0.034738086
248	0x3da26154	0.0792872
249	0x3c7c2668	0.015390016
250	0xbd8b85cf	-0.06812631
251	0xbda4647e	-0.0802698
252	0xbd732a71	-0.059366647
253	0x3d171c44	0.03689219
254	0x3da4539f	0.08023762
255	0xbc95c36b	-0.01828166

embed.1.bias f4 [128]
0	0x3d812d3c	0.06307456
1	0xbc81d626	-0.015849184
2	0x3c6d6fb2	0.014491962
3	0x3d964fbf	0.07339429
4	0xbd1a775e	-0.037711494
5	0x3bf15e43	0.007365973
6	0x3d52fc81	0.051510338
7	0x3d5b293e	0.05350613
8	0x3aeaf280	0.0017925054
9	0x3d02260e	0.031774573
10	0xbd5e6363	-0.054294
11	0xbd3da109	-0.046296153
12	0x3d7971a7	0.060899403
13	0xbd9b8499	-0.0759365
14	0x3d814e1b	0.063137256
15	0x3d29efc0	0.04148841
16	0xbd7ded79	-0.06199405
17	0x3d593b70	0.0530352
18	0xbd7a53b7	-0.061114993
19	0x3d6bf56a	0.057607092
20	0x3cd47756	0.02593581
21	0xbd296a48	-0.041361123
22	0xbcdaa468	-0.026689723
23	0x3d9bdb87	0.07610231
24	0x3d63f328	0.055651814
25	0x3d98edbc	0.07467219
26	0xbd740417	-0.059574213
27	0xbc584af8	-0.013201468
28	0xbd8404aa	-0.06446202
29	0xbdb296e8	-0.08720189
30	0xbab4f017	-0.0013804463
31	0xbd90eaee	-0.07076059
32	0xbc9ae040	-0.018905759
33	0x3ce1a547	0.02754463
34	0xbdae41b4	-0.085086256
35	0xbd1dd116	-0.038529478
36	0xbdafb62d	-0.08579669
37	0xbd913e38	-0.070919454
38	0x3d3a0492	0.045414515
39	0xbcd18e72	-0.025580619
40	0xbda86750	-0.0822283
41	0x3d18f4bc	0.037342772
42	0xbd8fef3f	-0.070280544
43	0x3d15b3cb	0.036548417
44	0x3d7a1a4f	0.061060246
45	0x3da9b08a	0.08285625
46	0x3d957c7a	0.07299133
47	0x3c27a2cc	0.010231685
48	0x3d858a3e	0.06520508
49	0xbccb803f	-0.024841426
50	0xbdb3f869	-0.08787615
51	0xbca03a34	-0.019559003
52	0xbdb13a1a	-0.0865366
53	0x3b78691e	0.0037904452
54	0x3d8970ca	0.06710966
55	0xb9fc57dc	-0.00048130646
56	0x3bc827b2	0.0061082477
57	0xbc6a7c54	-0.014311869
58	0x3d4cec73	0.050030183
59	0x3bbe73a1	0.005812124
60	0xbc819ad7	-0.015820904
61	0xbd993f6c	-0.074828
62	0xbcb553d6	-0.022134703
63	0x3d17b1ad	0.03703468
64	0xbd6a22ab	-0.05716197
65	0xbd3638b8	-0.044487685
66	0xbda8ac7e	-0.08236025
67	0x3acae8c5	0.0015480748
68	0xbd1835fb	-0.037160855
69	0xbd909b07	-0.07060819
70	0x3d16c47f	0.036808487
71	0xbd645cd1	-0.05575258
72	0x3d96d4c9	0.07364804
73	0x3c171aa1	0.009222657
74	0x3d221b66	0.03957691
75	0x3d8ac0fc	0.0677509
76	0xbda89c54	-0.08232942
77	0x3daf19b7	0.085498266
78	0xbd9bd627	-0.07609206
79	0x3db00691	0.085950024
80	0xbcc6eb6c	-0.02428218
81	0xbcc72912	-0.024311576
82	0xbd0ae850	-0.033912957
83	0xbdacf360	-0.084448576
84	0x3db0ac40	0.08626604
85	0xbdae8401	-0.085212715
86	0x3d995736	0.07487337
87	0x3d4fe242	0.050752886
88	0x3d82a1a4	0.06378487
89	0xbc7de2c8	-0.015495963
90	0xbd2cf3b9	-0.04222462
91	0x3cd979eb	0.026547393
92	0x3d8aaedf	0.06771635
93	0x3d889030	0.066681266
94	0x3d2f1114	0.042740896
95	0xbd0bd211	-0.03413588
96	0x3d84d8ba	0.0648665
97	0x3d3172b7	0.04332229
98	0xbd6c867b	-0.057745438
99	0xbd93325f	-0.07187342
100	0xbd6a9aa8	-0.057276398
101	0xbd6afd98	-0.057370752
102	0xbd2ba94e	-0.04190951
103	0xbd458b45	-0.04822852
104	0x3d1e59f5	0.03866001
105	0x3d5a81de	0.053346507
106	0x3b382e3c	0.002810373
107	0xbd6c7177	-0.057725396
108	0xbd522145	-0.05130126
109	0xbcc4ccdf	-0.024023471
110	0xbdac672a	-0.084181145
111	0xbd35902c	-0.044326946
112	0xbbb8b2e7	-0.005636561
113	0xbd0e67e2	-0.03476704
114	0xbd1fdac7	-0.039027
115	0xbd51b559	-0.051198337
116	0xbca6ce55	-0.020362059
117	0x3c8a6cb9	0.016897546
118	0x3d06a20b	0.03286938
119	0xbdb4e951	-0.08833564
120	0x3b9044e5	0.004402744
121	0x3db1301c	0.08651754
122	0xbdb08117	-0.08618372
123	0x3c225e58	0.009910189
124	0xbbff93b5	-0.0077995905
125	0x3c1c4ebb	0.009540255
126	0x3b792ca2	0.0038020988
127	0xbce62751	-0.02809492

embed.3.weight f4 [256, 128]
0	0xbd987af1	-0.07445324
1	0x3d595f04	0.05306913
2	0x3d421185	0.04737999
3	0xbd774496	-0.060368143
4	0x3d5d83fc	0.05408095
5	0xbcc976fa	-0.024592865
6	0xbb72fa97	-0.0037075633
7	0xbc81b3ca	-0.0158328
8	0x3d28eca9	0.04124132
9	0xbca6b332	-0.020349119
10	0x3cb2fcc3	0.021849042
11	0xbd6d9ac0	-0.05800891
12	0xbc898498	-0.016786858
13	0x3d26c620	0.04071629
14	0xbd6da30f	-0.058016833
15	0x3cc4c4eb	0.024019679
16	0xbcd4a31d	-0.025956685
17	0xbda2007e	-0.0791025
18	0x3d959f07	0.07305723
19	0x3cf85792	0.030315194
20	0x3d59b737	0.053153243
21	0x3dab0b82	0.08351804
22	0xbd1a6257	-0.03769144
23	0x3d512e1a	0.051069357
24	0x3d9d7684	0.07688621
25	0xbd560d32	-0.052258678
26	0x3d409289	0.047014747
27	0x3d556f3c	0.052108034
28	0xbd7fd816	-0.062461935
29	0xbce91f0f	-0.028457193
30	0xbd46b118	-0.048508734
31	0x3cdb6cc8	0.02678527
32	0x3d757b90	0.05993229
33	0xbd1f9c44	-0.038967386
34	0xbd2d92ab	-0.0423762
35	0x3c6a82de	0.014313428
36	0xbcf4fd3c	-0.029905908
37	0x3d288071	0.041138116
38	0x3d4d5a19	0.050134752
39	0x3d43e014	0.04782112
40	0xbd2960ed	-0.0413522
41	0xbc870378	-0.016481146
42	0xbda5b52d	-0.08091197
43	0xbd4ea234	-0.050447658
44	0xbd645f88	-0.05575517
45	0xbc66aad7	-0.014078817
46	0xbd712466	-0.058872603
47	0x3cb7add9	0.022421764
48	0xbd92958f	-0.07157432
49	0x3c83ec20	0.016103804
50	0x3cbb7b01	0.022885801
51	0x3d4ecb05	0.050486583
52	0x3d72f2b7	0.059313502
53	0xbbd7942e	-0.0065789437
54	0x3da92bf7	0.08260339
55	0xbd9695f8	-0.07352823
56	0xbce0e250	-0.027451664
57	0x3cecaa96	0.028889935
58	0x3d9e05fa	0.07715984
59	0xbcfe54e9	-0.031046348
60	0x3d924e95	0.071438946
61	0xbd065555	-0.032796223
62	0xbca25269	-0.019814687
63	0xbd8472b5	-0.06467191
64	0xbd917545	-0.071024455
65	0x3ce9b80a	0.02853014
66	0xbd135984	-0.03597404
67	0xbd650ef3	-0.05592246
68	0xbd9b53eb	-0.075843655
69	0xbc87de2f	-0.016585438
70	0x3c64129a	0.013920451
71	0x3dabafbe	0.083831295
72	0x3bb8f532	0.005644464
73	0x3d72f3a4	0.059314385
74	0xbd91bdc2	-0.071162716
75	0xbd5391c3	-0.05165268
76	0x3d2ffa8c	0.04296355
77	0xbd752543	-0.05984999
78	0x3d44f330	0.048083484
79	0x3c34c3ad	0.011032981
80	0xbcd8be18	-0.026457831
81	0xbc87dd69	-0.016585069
82	0x3d292e6f	0.04130405
83	0xbd91b460	-0.07114482
84	0x3d620ff3	0.05519099
85	0xbda40a2d	-0.080097534
86	0x3c2eaf11	0.010661856
87	0xbc16a890	-0.009195462
88	0xbda82029	-0.08209259
89	0x3c6e9cec	0.01456378
90	0x3d1812b1	0.0371272
91	0xbd19aa1b	-0.03751574
92	0xbdab8d57	-0.08376568
93	0xbd56bb77	-0.052424874
94	0x3d96d8ea	0.07365592
95	0x3d906496	0.07050435
96	0x3c78314d	0.015148473
97	0xbd7092de	-0.058733813
98	0xbd966ba3	-0.07344749
99	0x3d06303b	0.03276084
100	0x3d9f2325	0.07770375
101	0xbda35ef8	-0.07977098
102	0xbd321028	-0.04347244
103	0x3cb5bf95	0.02218608
104	0x3d977f1e	0.073972926
105	0x3d056000	0.032562256
106	0xbd88bead	-0.066769935
107	0xbbc0f280	-0.0058882833
108	0x3d418570	0.047246397
109	0x3cd0a766	0.025470447
110	0x3d9302f4	0.07178298
111	0x3d24e9dd	0.040262092
112	0x3d9f45ca	0.07776983
113	0x3b939e43	0.0045049503
114	0x3d5fa5c0	0.05460143
115	0xbd854010	-0.065063596
116	0xbd81b0b4	-0.063325316
117	0xbd6f52ba	-0.058428504
118	0xbd92a8f9	-0.07161135
119	0xbc04cbf8	-0.008105271
120	0x3db1ab5c	0.08675262
121	0xbd8bf0d9	-0.068330474
122	0xbd41dd81	-0.047330383
123	0xbd4b2c7a	-0.049602963
124	0xbc67e50f	-0.014153733
125	0x3d2d7407	0.04234698
126	0xbc9fa2f3	-0.01948688
127	0xbc488d14	-0.012240667
128	0x3ca08ad6	0.019597452
129	0x3bdfd5e6	0.0068309186
130	0x3c73ef29	0.014888563
131	0xbd1af048	-0.037826806
132	0x3d9c170d	0.07621584
133	0x3b574bca	0.003285157
134	0xbda83b0d	-0.08214388
135	0xbc841036	-0.016121011
136	0xbd415d54	-0.047208145
137	0xbd793398	-0.06084022
138	0x3d8024dc	0.0625703
139	0x3d8fc9cf	0.07020914
140	0xbd4e4d1c	-0.050366506
141	0xbd876af4	-0.066121966
142	0x3cf13f75	0.029449204
143	0xbcb89c09	-0.02253534
144	0x3d939f51	0.072081216
145	0xbd9d9c13	-0.076957844
146	0x3d8214ce	0.063516244
147	0x3d6254f5	0.055256803
148	0x3d8ee4b6	0.06977217
149	0x3cb76dc4	0.022391208
150	0xbb5338fc	-0.003223001
151	0x3d3a8fd0	0.045547307
152	0x3cfccc55	0.030859152
153	0x3d0e500d	0.03474431
154	0x3d4a1bc1	0.049342874
155	0x3d6e2b11	0.05814654
156	0x3cf15648	0.029460087
157	0x3d01dacd	0.031702805
158	0xbd149aaa	-0.03628031
159	0x3d1afa91	0.037836615
160	0x3bc89043	0.006120713
161	0xbdae5ff0	-0.085143924
162	0x3b7ff659	0.0039056747
163	0xbd669fbc	-0.05630468
164	0xbd3d99d2	-0.046289273
165	0xbcb812f7	-0.02246998
166	0x3b72e506	0.0037062778
167	0x3bd654a8	0.0065408535
168	0x3c323d3f	0.01087886
169	0x3d4690b4	0.048477843
170	0x3d1bff6a	0.03808538
171	0x3da42a05	0.08015827
172	0x3cef0a69	0.029179769
173	0x3d3090e2	0.04310692
174	0x3b3d6ef9	0.0028905256
175	0x3cd458c1	0.025921227
176	0x3d8266c0	0.06367254
177	0x3c8a938c	0.016916059
178	0x3c95ac32	0.018270586
179	0x3d5c1ffd	0.053741444
180	0xbd397326	-0.04527583
181	0x3d012324	0.031527653
182	0x3d32971d	0.043601144
183	0xbc9665fc	-0.018359177
184	0x3b2b02ed	0.0026094273
185	0x3d72e536	0.059300624
186	0x3d7d21a7	0.06179967
187	0xbdaef912	-0.085436
188	0xbd0d56c4	-0.034506574
189	0x3d61c9fb	0.055124264
190	0x3c8226ce	0.015887644
191	0xbb7e850f	-0.0038836633
192	0xbc9894e3	-0.018625682
193	0xbd0d1f9c	-0.034453973
194	0x3d386b7c	0.04502438
195	0x3d91bf54	0.07116571
196	0x3ce6d3c3	0.028177148
197	0xbd513abb	-0.0510814
198	0xbd04f7c4	-0.03246285
199	0x3d6b6732	0.05747146
200	0x3ce772ff	0.028253077
201	0x3db20ecb	0.08694228
202	0x3cf4851d	0.02984863
203	0x3ca3a3f7	0.019975645
204	0xbacc9876	-0.0015609402
205	0xbda3c6e4	-0.0799692
206	0x3d47a3c7	0.048740175
207	0x3d18a1c8	0.03726366
208	0xbd622cd7	-0.055218544
209	0x3d7114c1	0.058857683
210	0xbd43623f	-0.047701117
211	0xbda809db	-0.08205005
212	0x3d46f451	0.048572842
213	0xbd5b6b91	-0.05356938
214	0xbc66412c	-0.014053624
215	0x3d3ced2a	0.046124615
216	0x3da8ad19	0.08236141
217	0x3d66323f	0.056200262
218	0xbc9ab68e	-0.018885877
219	0x3c3beeed	0.011470539
220	0x3d235ad3	0.03988154
221	0x3c74f8ba	0.014951879
222	0x3d8ac345	0.06775526
223	0xbb49d7a6	-0.0030798703
224	0x3d39b1dc	0.045335636
225	0xbc861a09	-0.016369836
226	0x3b85d6c5	0.0040844404
227	0x3caacd79	0.02084993
228	0x3cfb7d3b	0.030699363
229	0x3d5d9506	0.054097198
230	0x3dace731	0.08442534
231	0x3d2c79a8	0.042108208
232	0x3c180619	0.009278798
233	0xbd3f4e3d	-0.046705473
234	0x3d8989ec	0.0671576
235	0x3d109b43	0.03530432
236	0xbd22dd5e	-0.039761893
237	0x3d54312b	0.051804703
238	0x3a719aa1	0.0009216462
239	0xbda0495e	-0.07826494
240	0x3da6f7bf	0.081527226
241	0xbc882041	-0.016616942
242	0x3d930cd7	0.071801834
243	0x3d0f6fbc	0.035018668
244	0xbd0cd40c	-0.03438191
245	0x3d44d558	0.048055023
246	0x3d9b8803	0.075943016
247	0x3d417ba6	0.04723706
248	0xbcf7f13e	-0.0302664
249	0x3d95d852	0.073166505
250	0xbd8eab86	-0.06966309
251	0x3d8e7af8	0.06957048
252	0x3d488928	0.048958927
253	0x3ce96efc	0.028495304
254	0x3da8f291	0.08249391
255	0x3d3e1333	0.04640503

embed.3.bias f4 [256]
0	0xbdb188c3	-0.08668663
1	0x3d8ab8d3	0.06773534
2	0xbca67181	-0.020317795
3	0xbc8a9436	-0.016916376
4	0x3d411452	0.04713852
5	0x3d58ca31	0.0529272
6	0x3d40059c	0.04688035
7	0x3b81d029	0.003961582
8	0xbbdca92b	-0.0067340336
9	0xbc70d756	-0.014699778
10	0xbd9e044c	-0.07715663
11	0xbcdd8d1a	-0.027044822
12	0x3c992be0	0.018697679
13	0xbd1eb860	-0.038750052
14	0x3cf7e3ac	0.03025993
15	0xbcda1779	-0.02662252
16	0xbcd18e12	-0.02558044
17	0x3dac13d6	0.08402221
18	0xbd51df6b	-0.05123846
19	0xbc32fbe6	-0.010924315
20	0x3db25290	0.08707154
21	0xbd885a38	-0.06657833
22	0x3d9202fb	0.07129475
23	0xbce2843c	-0.027650945
24	0xbc84af2d	-0.016196812
25	0xbd90781f	-0.07054161
26	0xbc2ea1f1	-0.010658727
27	0xbbc2fad8	-0.005950313
28	0xbcc80efe	-0.024421211
29	0xbda4f0ee	-0.08053766
30	0x3db0edff	0.08639144
31	0xbda817fe	-0.08207701
32	0x3d8bbe8c	0.06823453
33	0xbd164841	-0.03669
34	0x3d18cd4a	0.037305154
35	0xbdaba9cf	-0.08381998
36	0xbcd63843	-0.026149875
37	0xbc9ee605	-0.019396791
38	0xbd8ce236	-0.06879084
39	0xbb6d4b5e	-0.0036208252
40	0xbcaefa71	-0.021359654
41	0x3da6ee8e	0.081509694
42	0xbd7a9f8e	-0.06118732
43	0x3cea0dd2	0.028571043
44	0xbc0db66c	-0.00864945
45	0xbcb8ec45	-0.0225736
46	0xbd642d1b	-0.05570708
47	0xbcaa6861	-0.020801725
48	0xbcda415e	-0.026642498
49	0xbd24214d	-0.04007082
50	0xbd96f539	-0.07370991
51	0xbc8bf947	-0.017086638
52	0x3d74a17f	0.059724327
53	0x3d40cbbb	0.047069293
54	0x3da4ac74	0.08040705
55	0x3da60d19	0.08107967
56	0xbd857e66	-0.06518249
57	0x3b9882fd	0.004654287
58	0xba8507ad	-0.0010149382
59	0x3c5911d7	0.013248882
60	0x3ca545b0	0.020174831
61	0x3d8885c3	0.06666138
62	0x3c0899bf	0.008337437
63	0x3d48122d	0.04884546
64	0xbdacfc46	-0.08446555
65	0xbd59534b	-0.05305795
66	0xbd71d7ac	-0.05904357
67	0xbd178931	-0.03699607
68	0xbd8fe38d	-0.07025824
69	0xbd05f9f9	-0.032709096
70	0xbca47266	-0.02007408
71	0x3d382781	0.04495955
72	0x3d30b0ab	0.043137234
73	0xbaa85c47	-0.0012844884
74	0x39a5ac44	0.000315996
75	0xbd1a6c79	-0.037701104
76	0xbd1d9731	-0.038474265
77	0xbd7a0296	-0.061037622
78	0x3c399d5b	0.01132902
79	0xbc470b65	-0.012148713
80	0xbc2b6de0	-0.010463208
81	0xbad1004b	-0.0015945522
82	0x3d160b14	0.03663166
83	0x3c10039e	0.008789925
84	0xbc410ed4	-0.01178332
85	0x3d57ffd6	0.05273422
86	0x3c20c3f5	0.009812345
87	0x3c26420a	0.010147581
88	0x3c93c78a	0.018039484
89	0x3c4570ec	0.012050848
90	0x3d770b9e	0.060313813
91	0xbc5c68a5	-0.013452684
92	0x3da7fc2f	0.08202397
93	0xbc8b7375	-0.017022828
94	0x3ccb05a7	0.024782969
95	0xbd8f9326	-0.07010488
96	0x3d59909d	0.05311643
97	0x399027e7	0.0002749555
98	0x3c55c320	0.01304701
99	0xbda3df79	-0.080016084
100	0x3c9c488b	0.01907756
101	0xbd2b9346	-0.041888498
102	0xbba9dc26	-0.0051837144
103	0xbc61ce55	-0.013782104
104	0xbc1305b4	-0.008973528
105	0xbd10076e	-0.035163336
106	0x3db48a4a	0.08815439
107	0x3d8d0e02	0.068874374
108	0x3d5f1a05	0.054468174
109	0xbd9115a1	-0.070842035
110	0x3d5f252e	0.054478817
111	0x3d775cbd	0.060391176
112	0x3d06715f	0.032822963
113	0xbd21d1e5	-0.03950681
114	0xbbf05940	-0.007334858
115	0xbc271b57	-0.010199389
116	0x3d013e30	0.031553447
117	0x3d8c7f8b	0.068602644
118	0xbcf62f25	-0.030051777
119	0xbd9666e4	-0.073438436
120	0x3d9a4525	0.075327195
121	0x3d30e598	0.043187708
122	0xbd580b51	-0.052745167
123	0xbd1c3fb1	-0.03814668
124	0xbc980131	-0.018555256
125	0x3daae700	0.08344841
126	0x3c82ed97	0.015982432
127	0x39e26c5f	0.00043186822
128	0x3c70f76c	0.0147074275
129	0x3daef629	0.08543045
130	0xbb09baa4	-0.0021015787
131	0xbcde2eeb	-0.027121982
132	0x3c05b1de	0.008160083
133	0xbce59492	-0.028024945
134	0xbcbb6910	-0.022877246
135	0x3d8b4f95	0.068022884
136	0x3d105270	0.03523487
137	0xbb19f6d7	-0.0023493075
138	0xbd85c3f9	-0.065315194
139	0x3d4bdf90	0.049773753
140	0xbd384216	-0.0449849
141	0x3c4dd752	0.012563543
142	0x3d4c761c	0.049917325
143	0x3c1369b7	0.008997372
144	0x3d932864	0.07185438
145	0x3d63e159	0.05563483
146	0xbd89504e	-0.0670477
147	0xbda2ee94	-0.079556614
148	0x3d0c1540	0.034199953
149	0x3b83486e	0.004006437
150	0x3da64bde	0.08119939
151	0x3da33128	0.0796836
152	0xbd388587	-0.045049217
153	0x3d9d3872	0.07676782
154	0xbccc20b1	-0.024917932
155	0xbdaf58df	-0.08561873
156	0x3cb2c5b8	0.021822795
157	0xbc3e3d46	-0.011611288
158	0x3db44e49	0.08803994
159	0xbd18ec42	-0.037334688
160	0x3da9db1e	0.082937464
161	0x3d8c5b95	0.068534054
162	0xbcc29850	-0.023754269
163	0xbd7a044d	-0.061039258
164	0x3bc21b39	0.0059236553
165	0xbd0ae3bf	-0.0339086
166	0x3d6679e5	0.05626859
167	0x3b8435ee	0.004034749
168	0xbdab8ad9	-0.083760925
169	0x3d529d00	0.051419258
170	0xbc99ae62	-0.01875991
171	0xbd90b856	-0.07066409
172	0xbcf4aca5	-0.02986748
173	0xbce035de	-0.027369436
174	0x3da6ed7d	0.08150766
175	0x3d1db81e	0.038505666
176	0x3cbb8f77	0.022895558
177	0x3d86c359	0.06580228
178	0x3db07124	0.0861533
179	0x3c9f8cc3	0.0194763
180	0x3d16cfd2	0.036819287
181	0xbd7dec2c	-0.06199281
182	0x3d9f87cf	0.07789575
183	0x3a960955	0.0011446873
184	0x3d65b34f	0.056079205
185	0x3d81cf5a	0.06338377
186	0x3d24a248	0.040193826
187	0xbc72cbf7	-0.014819137
188	0xbce793eb	-0.028268775
189	0xbbf62a27	-0.007512349
190	0xbd1391ee	-0.03602784
191	0xbd121e17	-0.035673227
192	0xbdaf68e0	-0.08564925
193	0x3ce41415	0.027841607
194	0xbd677aee	-0.05651372
195	0x3c291da1	0.0103220055
196	0xbce243e9	-0.027620273
197	0x3d74159a	0.059590913
198	0x3d7f539d	0.0623356
199	0xbba34066	-0.004982042
200	0xbb6ec523	-0.003643342
201	0x3c9c3f76	0.01907323
202	0x3d8a44be	0.06751393
203	0x3d9a406f	0.07531821
204	0xba96cef8	-0.0011505773
205	0x3a586154	0.0008254249
206	0x3d273600	0.040822983
207	0x3da8530b	0.08218964
208	0xbd192d50	-0.03739673
209	0xbd42e533	-0.047581863
210	0xbdb3a39b	-0.0877144
211	0x3c1c8851	0.009553985
212	0xbda76f85	-0.081755675
213	0x3d590ffc	0.05299376
214	0x3d46894f	0.04847079
215	0xbd92cdea	-0.07168181
216	0x3ca19cf9	0.01972817
217	0x3d0a4388	0.03375581
218	0xbd3dd313	-0.046343874
219	0x3d489508	0.048970252
220	0x3cc6de46	0.02427591
221	0x3d4872fe	0.04893779
222	0xbda28442	-0.079353824
223	0x3d538cf4	0.051648095
224	0x3b26b7ba	0.00254391
225	0xbd974b88	-0.07387453
226	0x3dab8b01	0.08376122
227	0x3d75416d	0.059876848
228	0xbda60806	-0.08106999
229	0xbcf6b9a6	-0.030117821
230	0xbcffeb4c	-0.031240128
231	0x3bbbe041	0.0057335203
232	0xbd515af0	-0.051112115
233	0xbd2d52c3	-0.042315256
234	0x3cf8a894	0.030353822
235	0x3c9fb265	0.019494245
236	0xbda45d95	-0.08025662
237	0xbdaf8d25	-0.08571843
238	0xbd91c65b	-0.071179114
239	0xbcec6222	-0.028855387
240	0x3d3ee9f0	0.04660982
241	0x3da6634d	0.08124409
242	0x3d84c6df	0.06483244
243	0x3d38a4f3	0.045079183
244	0xbcc48b9e	-0.023992356
245	0xbd3d53d7	-0.046222534
246	0x3cea3fd9	0.028594898
247	0x3da285b3	0.07935657
248	0xbd8e74b2	-0.069558516
249	0x3ce05375	0.027383545
250	0xbd1ce454	-0.03830369
251	0xbbd47cee	-0.0064846193
252	0x3d50113d	0.05079769
253	0xbc79a1a8	-0.015236296
254	0xbd1f59a7	-0.03890386
255	0x3c17791e	0.009245185

conv_spatial.mlp.0.weight f4 [256, 2]
0	0x39c82ddc	0.0003818114
1	0xba898d37	-0.0010494356
2	0xbda7942a	-0.08182557
3	0xbea9ed2a	-0.33188754
4	0x3e55bfb5	0.20873912
5	0x3e5f47bb	0.21804707
6	0xbeae3f8f	-0.34032866
7	0xbe083781	-0.13302423
8	0xbf3e9fa5	-0.7446235
9	0x3ef2a879	0.4739416
10	0x3cbfb5bc	0.023402087
11	0x3eada67a	0.33916074
12	0x3bf2a610	0.00740505
13	0x3e3599bc	0.17734426
14	0x3e87a6a6	0.2649433
15	0x3d10bafc	0.035334572
16	0xbf33ee7b	-0.7028577
17	0x3e40b21f	0.18817948
18	0xbf166067	-0.5874085
19	0x3f64ef91	0.8942805
20	0xbe9c7fda	-0.30566293
21	0x3daa00f2	0.083009616
22	0x3e297c1c	0.1655125
23	0xbe914cf1	-0.28379014
24	0xbe9ff577	-0.31241962
25	0x3e25d7a6	0.16195545
26	0x3eabf1ee	0.33583015
27	0x3dc2d3e9	0.09513075
28	0xbe2f6536	-0.17128453
29	0x3e755dd9	0.23961581
30	0x3e586355	0.21131642
31	0x3e8f7515	0.28019014
32	0x3eaebdb6	0.34129113
33	0x3d50300c	0.05082707
34	0x3e30d68c	0.17269343
35	0x3e918793	0.28423747
36	0xbe9a19e3	-0.30097875
37	0xbe887390	-0.26650667
38	0xbea4ee8b	-0.32213244
39	0xbe333102	-0.17499164
40	0xbe8c1d96	-0.27366322
41	0x3fdaabb0	1.7083645
42	0xbe7558a7	-0.239596
43	0x3e7cd8d0	0.24692082
44	0x3e99a2cb	0.30007014
45	0x3d83a442	0.06427814
46	0xbd710ec7	-0.058851983
47	0x3e3e934b	0.18610875
48	0xbfbe3042	-1.4858477
49	0x3f86060e	1.0470598
50	0x3e74de1b	0.23912852
51	0xbe819371	-0.253078
52	0xbe3c8907	-0.18411647
53	0xbe95218a	-0.2912715
54	0x3e887b68	0.26656651
55	0xbeaa797d	-0.33295813
56	0x40118995	2.2740223
57	0xbf98195e	-1.1882741
58	0xbe4ee35b	-0.20203917
59	0x3e9758e0	0.29559994
60	0x3e1bdd5e	0.15221164
61	0x3e57afb4	0.21063119
62	0x3e9e7fcc	0.30956876
63	0xbded3208	-0.11581808
64	0x3ea25ddd	0.31712237
65	0xbe286741	-0.16445638
66	0x3ea9fc83	0.33200464
67	0x3da677ab	0.081282936
68	0xbe9fdb01	-0.31221774
69	0xbd09579b	-0.033530813
70	0xbfdbb22e	-1.7163751
71	0xbf9e399a	-1.2361329
72	0x3dee8203	0.116458915
73	0xbe92f25a	-0.28700525
74	0xbeac7093	-0.33679637
75	0x3d1c1bcd	0.03811245
76	0xbe95ecc2	-0.29282194
77	0x3ccf17cb	0.0252799
78	0xbef5d243	-0.4801198
79	0x3e41834e	0.18897745
80	0xbe9a4320	-0.30129337
81	0xbe56075c	-0.20901245
82	0x3e9b73cf	0.30361792
83	0xbe69770d	-0.2279932
84	0xbe7cf166	-0.24701461
85	0xbe9ab29e	-0.302144
86	0xbe891484	-0.26773465
87	0xbe993e87	-0.29930517
88	0x404bf838	3.187025
89	0xbe06b2b3	-0.13154106
90	0xbe9e90ba	-0.30969793
91	0xbe87d6e9	-0.2653115
92	0xbe5d9895	-0.21640237
93	0x3e8242c2	0.25441557
94	0xbe84d6b0	-0.25945044
95	0xbe0b82af	-0.1362407
96	0x3ea4e061	0.32202438
97	0xbdb468e5	-0.088090695
98	0xba0ee4ca	-0.00054509623
99	0xbab4030a	-0.0013733816
100	0x3caff528	0.021479204
101	0x3e58e413	0.21180753
102	0xbf4073d2	-0.7517673
103	0xbedf6f11	-0.43639424
104	0xbd343b4d	-0.044001866
105	0xbd087905	-0.03331854
106	0xbdaa8b52	-0.083273545
107	0x3ea966bb	0.3308619
108	0xbe4d228d	-0.20032711
109	0x3e9f0afb	0.31063065
110	0x3e938d49	0.2881873
111	0xbe2f1e5e	-0.17101428
112	0x3ea4df49	0.32201603
113	0xc056e1bd	-3.357528
114	0x3e86b17e	0.2630729
115	0x3e92dfff	0.2868652
116	0xbd98333e	-0.07431649
117	0x3e9b783d	0.30365172
118	0xbedabf35	-0.42724004
119	0x3e943220	0.28944492
120	0x3e8ea9fe	0.2786407
121	0xbe2aa906	-0.1666604
122	0xbea255a7	-0.31705973
123	0x3d977f3e	0.073973164
124	0x3dc87a00	0.09788895
125	0x3da63ba0	0.08116841
126	0xbc082d78	-0.008311622
127	0xbea858dc	-0.32880294
128	0xbddd789b	-0.10814019
129	0xbeaab008	-0.33337426
130	0x3e8d5cda	0.27609903
131	0xbc542d73	-0.012950289
132	0xbdc926c6	-0.098218486
133	0xbea87918	-0.32904887
134	0xbd43803d	-0.04772972
135	0x3e67e269	0.22644962
136	0xbe5c589a	-0.21518174
137	0x3e91b5fa	0.2845915
138	0x3e841047	0.2579367
139	0x3ea88eb1	0.32921365
140	0x3de172a0	0.11008191
141	0x3e88062e	0.26567215
142	0x3e2d110e	0.16901037
143	0x3eab79f4	0.3349148
144	0xbe58d623	-0.21175437
145	0xbe8e6abc	-0.27815807
146	0xbea62d4b	-0.3245643
147	0x3d8023f1	0.06256855
148	0xbe868524	-0.26273453
149	0x3dd1f6ec	0.10252175
150	0x3e9441f3	0.28956565
151	0xbe3e7103	-0.18597798
152	0xbdf7fb9f	-0.1210854
153	0x3e9e61c3	0.3093396
154	0x3e26c10f	0.16284584
155	0x3ea3eb24	0.32015336
156	0x3e314be9	0.17314114
157	0xbea37b45	-0.31929985
158	0xbe986a37	-0.29768535
159	0x3e866729	0.2625058
160	0xbeb97f2f	-0.36229846
161	0x3e57771c	0.2104153
162	0x3e8a53ba	0.27017003
163	0x3d09558e	0.033528857
164	0xc01192f2	-2.2745938
165	0x3ffa3cd0	1.9549809
166	0x3e8c6e62	0.27427965
167	0x3e6a16c1	0.22860242
168	0x3d3c8d19	0.046033
169	0x3e9814a7	0.29703256
170	0x3c604a50	0.0136895925
171	0xbe9cae16	-0.30601567
172	0xbe93d8cc	-0.2887634
173	0x3e0d0744	0.13772303
174	0x3a9979f3	0.0011709317
175	0x3aa7c947	0.0012801074
176	0x3ea680d1	0.32520154
177	0xbdb54640	-0.0885129
178	0x3e1d9635	0.1538933
179	0x3e98eb3b	0.29866967
180	0x3d8e7cf0	0.06957424
181	0xbea489b2	-0.32136303
182	0x3e4bfa3d	0.19919677
183	0xbe95607e	-0.2917518
184	0x3e1ddce0	0.15416288
185	0xbe846656	-0.25859326
186	0x3e870d4f	0.2637734
187	0xbe5609fb	-0.20902245
188	0x3f9c4050	1.2207127
189	0x3fb4dd49	1.4130031
190	0x3e55e299	0.20887221
191	0x3e94e884	0.29083645
192	0x3e5f6924	0.21817452
193	0xbd163b8e	-0.03667789
194	0xbe80e2b6	-0.25172967
195	0xbe4abef0	-0.197994
196	0xbe91b75c	-0.28460205
197	0xbe777138	-0.24164283
198	0x3ede3e94	0.43407118
199	0xc022316f	-2.5342672
200	0xbe8800c9	-0.265631
201	0x3e110b44	0.14164454
202	0xbd88ccce	-0.066796884
203	0xbe74f30a	-0.23920837
204	0x3ea2f093	0.3182417
205	0x3e75c1a9	0.23999657
206	0xbe8204d2	-0.25394303
207	0x3e8e772f	0.27825305
208	0x3d08394a	0.03325776
209	0xbe7c327c	-0.24628633
210	0x3fbc232e	1.4698236
211	0xc002b4b9	-2.0422804
212	0x3d74dc84	0.059780613
213	0xbea4c8f0	-0.32184553
214	0x3da35294	0.07974735
215	0xbe38984c	-0.18026847
216	0x3e957b18	0.29195476
217	0x3e3cc4ec	0.18434495
218	0xbde32777	-0.11091512
219	0xbda97400	-0.08274078
220	0xbf97ff32	-1.1874754
221	0xbfc275cb	-1.5192198
222	0x3c00ec11	0.007868783
223	0xbe2cd413	-0.16877775
224	0xbe05d1d0	-0.13068318
225	0xbe85cba3	-0.26131925
226	0xbea62261	-0.32448104
227	0x3c389c8b	0.0112677915
228	0x3dc9af5d	0.09847901
229	0xbe906e69	-0.28209236
230	0x3dce083e	0.10060166
231	0x3ea0ea84	0.3142892
232	0x3fd6ef54	1.6791787
233	0x3f961386	1.1724708
234	0xbd8ea936	-0.06965868
235	0xbe9f0900	-0.31061554
236	0xbea14495	-0.31497636
237	0x3dcc3cd1	0.09972537
238	0xbe92697d	-0.28596106
239	0xbe62b171	-0.22138001
240	0xbf1677aa	-0.5877634
241	0x3ee23975	0.4418446
242	0xbe118af6	-0.14213166
243	0x3e9e0b5f	0.3086805
244	0xbf10e8ba	-0.5660511
245	0xbecce854	-0.40021002
246	0x3f8c9dad	1.0985619
247	0x3fab425d	1.3379627
248	0x3e5eaa5c	0.21744674
249	0x3e4263e6	0.1898342
250	0x3e79e56f	0.24403928
251	0xbe70db52	-0.23521164
252	0x3ea427b2	0.32061535
253	0xbe0a47c1	-0.13503934
254	0xbe9286ef	-0.2861857
255	0x3e2eb505	0.17061241

conv_spatial.mlp.2.weight f4 [256, 256]
0	0x3b93ea33	0.0045140027
1	0xbe81d31f	-0.25356385
2	0x3dded1dc	0.10879871
3	0xbdaac772	-0.083388224
4	0x3d96d7e1	0.073653944
5	0x3ec07b3f	0.3759403
6	0x3e8cbe6b	0.27489027
7	0x3c0a7a48	0.008452006
8	0xbbe29306	-0.006914499
9	0x3ca10ecf	0.019660382
10	0x3de536d9	0.11192102
11	0xbe63da2a	-0.22251192
12	0x3dc7952e	0.09745251
13	0x3d061779	0.03273723
14	0x3e4ed8a7	0.20199834
15	0x3e02cb04	0.12772757
16	0xbd474eb0	-0.048659027
17	0x3e758b00	0.23978806
18	0xbd87952b	-0.066202484
19	0xbde76dd5	-0.11300246
20	0x3d07f6ba	0.03319428
21	0x3dd2d1ed	0.102939464
22	0xbcd4869f	-0.025943099
23	0x3dee5b92	0.116385594
24	0xbdca5aa4	-0.098805696
25	0xbe531df3	-0.20616893
26	0xbe0baa86	-0.13639268
27	0xbdcbc031	-0.09948767
28	0x3e3ba36f	0.18324064
29	0x3e0dfbab	0.13865535
30	0x3e1f9208	0.1558305
31	0xbd924045	-0.07141165
32	0xbd3d6a8b	-0.046244185
33	0xbc149f8c	-0.009071242
34	0xbcb47d43	-0.022032386
35	0x3e2fae69	0.17156376
36	0xbe92af2c	-0.2864927
37	0x3bc876a9	0.006117661
38	0x3d29d1b3	0.04145975
39	0x3d1e64e6	0.038670443
40	0xbd30a6ad	-0.043127704
41	0xbdb359f5	-0.08757392
42	0xbddf5bc6	-0.10906176
43	0xbe24673f	-0.1605501
44	0xbd0d0e9b	-0.034437757
45	0xbe3455d5	-0.17610867
46	0x3e3f6069	0.18689121
47	0xbd9baa32	-0.076008216
48	0xbcad1fd0	-0.021133333
49	0x3d53905e	0.05165135
50	0x3e5be96c	0.21475762
51	0xbc0af4ce	-0.008481218
52	0xbccf1719	-0.025279569
53	0x3ea0a44e	0.31375355
54	0x3e57364f	0.21016811
55	0xbdc9197b	-0.09819313
56	0x3e7173e1	0.2357936
57	0x3e2acb3a	0.16679087
58	0x3e7b6008	0.24548352
59	0x3c0b92fd	0.008518931
60	0xbd50773d	-0.050894964
61	0x3a085ae0	0.000520153
62	0x3dd88502	0.10572244
63	0xbebcdd2e	-0.36887497
64	0xbe9296d5	-0.286307
65	0xbc4827c5	-0.012216513
66	0xbe86fd63	-0.26365194
67	0x3e7781bd	0.24170585
68	0x3e4ef362	0.2021003
69	0x3e3ac667	0.18239747
70	0x3e6ee6ab	0.2333018
71	0x3e5db451	0.21650817
72	0xbe160116	-0.14648852
73	0x3c81eed5	0.015860954
74	0x3e1682b5	0.14698298
75	0xbe061523	-0.13094
76	0x3e89dbba	0.2692545
77	0x3e7ed24f	0.24884914
78	0xbe8f0094	-0.2793013
79	0x3d925a32	0.0714611
80	0x3d975fe7	0.07391339
81	0x3d059ea8	0.03262201
82	0xbeab876b	-0.33501753
83	0x3e1c53b1	0.152663
84	0x3e9470ac	0.28992212
85	0xbec6f162	-0.38856035
86	0x3ddd41c8	0.108035624
87	0x3d8589b6	0.06520407
88	0x3c094888	0.008379109
89	0x3e4d41cf	0.20044635
90	0xbe8ab402	-0.2709046
91	0xbe16e827	-0.14736997
92	0xbe25d677	-0.16195093
93	0xbd7697c8	-0.060203344
94	0xbd25ff0c	-0.040526435
95	0x3e38fe5c	0.1806578
96	0xbd1adb5f	-0.037806865
97	0xbdc37f28	-0.095457375
98	0xbe213be4	-0.15745503
99	0x3dee4af6	0.116353914
100	0x3e00f1c8	0.12592232
101	0xbe5ee07b	-0.2176532
102	0x3df9ded7	0.122007065
103	0x3e2eaef2	0.17058924
104	0xbe890fe5	-0.2676994
105	0x3e88d6ad	0.26726285
106	0xbe907457	-0.2821376
107	0xbe6cca13	-0.2312396
108	0x3de864b3	0.11347332
109	0xbc344242	-0.011002125
110	0x3ded18e6	0.115770146
111	0xbe84ed13	-0.25962123
112	0xbe6467f3	-0.22305278
113	0x3d95fd36	0.07323687
114	0xbe86ece2	-0.26352602
115	0x3ea8c324	0.3296138
116	0xbe16fb27	-0.14744245
117	0xbe937407	-0.2879946
118	0x3cf2aec2	0.029624347
119	0xbd898be8	-0.06716138
120	0x3d4a0449	0.049320493
121	0x3e8cab1d	0.274743
122	0x3cb65359	0.02225654
123	0xbc1248d6	-0.008928498
124	0x3daf8684	0.08570579
125	0xbe11bfa6	-0.14233264
126	0xbdd181fb	-0.1022987
127	0x3e03302e	0.12811348
128	0xbd9467e6	-0.072463796
129	0x3d1574f6	0.036488496
130	0x3c228b5b	0.00992092
131	0xbe20f668	-0.15718997
132	0xbc4e9e1b	-0.0126109375
133	0x3dc096f9	0.09403796
134	0xbd815f14	-0.06316963
135	0x3e1bcc0b	0.15214555
136	0xbd8d27d9	-0.06892366
137	0xbde8cbfe	-0.113670334
138	0x3e3c24be	0.18373391
139	0x3bbd4e85	0.0057771825
140	0xbdccdf07	-0.100034766
141	0xbe02dc07	-0.12779246
142	0x3e224432	0.15846327
143	0x3df2a71f	0.11848282
144	0xbe1ad91c	-0.15121883
145	0x3ddca9ed	0.10774598
146	0x3c55435c	0.013016548
147	0xbb7dffaf	-0.0038757136
148	0xbe06f674	-0.13179952
149	0xbe7d3ec8	-0.2473098
150	0x3cf27710	0.029597789
151	0xbd3a1e65	-0.045439143
152	0x3e589223	0.21149497
153	0x3e5181b1	0.2045963
154	0xbe01335c	-0.12617248
155	0xbe74dde2	-0.23912767
156	0x3e6a592c	0.22885579
157	0x3dd269dd	0.10274098
158	0x3e8aad81	0.27085498
159	0xbe90f965	-0.28315273
160	0x3e6df36f	0.23237394
161	0xbe8b0986	-0.27155703
162	0x3daa1a11	0.08305753
163	0xbe8ceb82	-0.27523428
164	0xbebc2177	-0.36744282
165	0x3da9c9d1	0.082904465
166	0xbde6de66	-0.11272888
167	0x3d1cb012	0.03825385
168	0x3e91d4ae	0.28482574
169	0xbe133436	-0.14375386
170	0x3e09b7a8	0.13448966
171	0xbe9cc444	-0.3061849
172	0x3d7e1552	0.06203205
173	0xbea08a50	-0.31355524
174	0xbdc0c0a5	-0.09411744
175	0x3df6a83e	0.120438084
176	0x3e51a62b	0.20473544
177	0x3e00c2b8	0.1257428
178	0xbdba8c76	-0.09108822
179	0xbe9a0a52	-0.30086
180	0x3e044a48	0.12918961
181	0xbe90e11d	-0.28296748
182	0xbe2c72a1	-0.16840602
183	0x3c45a06e	0.012062175
184	0x3ea34087	0.31885168
185	0xbe76dff1	-0.24108864
186	0x3dde5ea0	0.10857892
187	0x3e3b6c6c	0.18303078
188	0xbe1f32e7	-0.15546761
189	0x3d659c1d	0.056057084
190	0x3c8483c4	0.016176112
191	0xbd94f050	-0.072723985
192	0xbe530407	-0.20607005
193	0xbdc7449a	-0.097298816
194	0x3de57d05	0.11205486
195	0x3e7d9740	0.24764729
196	0xbafdead2	-0.001937235
197	0x3d417328	0.047228962
198	0x3dd7b2fe	0.10532187
199	0x3bca5ae3	0.0061753853
200	0x3e02d8cd	0.12778015
201	0x3eb2e8e2	0.349433
202	0xbe0ae8c6	-0.13565359
203	0x3d1f8fec	0.038955614
204	0x3d2a6eb2	0.041609474
205	0x3e7fe367	0.24989091
206	0xbdf8393f	-0.12120294
207	0x3d9dcddc	0.0770528
208	0xbd818cf1	-0.063257106
209	0x3d16c398	0.036807626
210	0x3d044026	0.03228774
211	0x3d917fd7	0.07104462
212	0xbeb58ec9	-0.354605
213	0xbe27fc6b	-0.16404884
214	0xbc7c0836	-0.015382817
215	0xbeb286e9	-0.34868553
216	0xbd42cc87	-0.047558334
217	0x3ea7c496	0.3276717
218	0x3dfd0b78	0.12355703
219	0x3b190e9f	0.0023354662
220	0x3dcda1c5	0.10040621
221	0x3e7b1c20	0.24522448
222	0x3e18d8ce	0.14926454
223	0x3da7296e	0.08162199
224	0x3d93c18a	0.07214649
225	0x3e5162de	0.20447871
226	0x3e34a25e	0.17640063
227	0xbcb36f3a	-0.021903623
228	0xbe1a7205	-0.15082557
229	0x3c9f533c	0.019448869
230	0xbe0fdd13	-0.14049177
231	0x3e9a125f	0.3009214
232	0xbc07bacb	-0.008284281
233	0xbe75042b	-0.23927371
234	0x3e117cb4	0.14207727
235	0x3cd039bd	0.025418157
236	0xbe9e1950	-0.30878687
237	0xbec5623b	-0.38551506
238	0x3e4f2952	0.20230606
239	0xbe822e40	-0.2542591
240	0xbd831ca2	-0.06401946
241	0xbd8117f5	-0.063033976
242	0x3e9ae001	0.30249026
243	0xb805516d	-3.1785505e-05
244	0x3d9070cd	0.07052765
245	0x3e94c81f	0.2905893
246	0x3dd9692f	0.10615765
247	0xbe8c7328	-0.27431607
248	0x3e57f2ec	0.21088761
249	0x3d3b3cd5	0.04571231
250	0x3d9ef8a5	0.07762269
251	0xbe4b4ad0	-0.19852757
252	0x3e405b52	0.18784836
253	0x3d29056c	0.041264936
254	0xbe16e299	-0.14734878
255	0x3df3dbfe	0.119071946

conv_spatial.mlp.4.weight f4 [2, 256]
0	0x3a9d154d	0.0011984498
1	0x3e1117db	0.14169256
2	0xbe83ce14	-0.25743163
3	0xbe36b68c	-0.17843074
4	0x3e421f9a	0.18957368
5	0x3e8360e5	0.25659862
6	0xbe817cfd	-0.2529067
7	0xbd88bace	-0.06676255
8	0xbd8ddec8	-0.06927258
9	0x3ee3991d	0.44452754
10	0x3e492639	0.19643487
11	0xbeab73c3	-0.33486757
12	0xbedfd730	-0.43718863
13	0x3ee49e5c	0.4465207
14	0xbe1a3def	-0.15062688
15	0x3ecac954	0.39606726
16	0x3e40d53a	0.1883134
17	0xbf720dfa	-0.94552577
18	0x3dc45bac	0.095877975
19	0xbeae3938	-0.3402803
20	0x3ea07d3c	0.31345546
21	0xbf560c2b	-0.83612317
22	0x3ebb4ec7	0.3658354
23	0x3e5227e1	0.20523025
24	0xbf7483c1	-0.9551354
25	0xb7218d0b	-9.629187e-06
26	0x3dd2cc03	0.102928184
27	0xbde07fcd	-0.10961876
28	0xbee7b4f8	-0.45255256
29	0xb826bef8	-3.9755338e-05
30	0x3dda67d6	0.106643364
31	0xbec7d4f9	-0.39029673
32	0x3eaaca92	0.33357674
33	0x3fae0919	1.3596526
34	0xbeb170a6	-0.34656256
35	0xbdf5411b	-0.119753085
36	0x3ecb4df1	0.39707902
37	0x3e980070	0.29687834
38	0xbeaeb822	-0.34124857
39	0xbe3ede27	-0.18639432
40	0xbd06001d	-0.03271495
41	0x3910ce3a	0.00013809736
42	0x3f6619dd	0.89883214
43	0xbdb7dc5f	-0.08977579
44	0x3e2e2d4e	0.1700947
45	0xbe85b732	-0.2611633
46	0xbebaf325	-0.3651363
47	0x3cc51477	0.02405761
48	0xbe746097	-0.23864971
49	0x3d8cc482	0.068734184
50	0x3f4c0435	0.7969392
51	0xbd120a48	-0.035654336
52	0x3e45de98	0.19323194
53	0xbea9143f	-0.3302326
54	0x3e05def0	0.13073325
55	0x3e0724cd	0.13197632
56	0x3e81a53e	0.25321382
57	0x3dc05d72	0.09392823
58	0xbe99b389	-0.30019787
59	0xbedc531a	-0.4303215
60	0xbe80c33a	-0.25148946
61	0xbf3b8f2b	-0.7326533
62	0x3eb1aff7	0.34704563
63	0x3eff1217	0.4981849
64	0xbeb4ddbc	-0.3532542
65	0x3ec4ef8a	0.38464004
66	0x3dac2ac3	0.08406594
67	0x3eeeec6d	0.46664754
68	0xbf669831	-0.90075976
69	0x3e52d41b	0.20588724
70	0x39b94bd4	0.00035342446
71	0xbea98832	-0.3311172
72	0xbe870bfb	-0.26376328
73	0xbe33d5d2	-0.17562035
74	0xbed7b977	-0.42133686
75	0x3e54e009	0.20788588
76	0xbe863963	-0.26215658
77	0x3edd1835	0.4318253
78	0x3eda67a2	0.4265719
79	0x3ef0bf7f	0.470211
80	0x3efbb215	0.49159303
81	0xbdc18cdc	-0.09450695
82	0x37b579cd	2.16336e-05
83	0xbe7a6333	-0.24451904
84	0xbd8f23f8	-0.06989282
85	0x3deaec9d	0.11470912
86	0x3e2f5cbf	0.17125224
87	0x3edc525f	0.43031594
88	0xbed0d179	-0.40784815
89	0xba991a80	-0.0011680871
90	0x3e75d784	0.24007994
91	0x3e15d224	0.14630944
92	0x3b8858f1	0.0041609933
93	0xbea94ee5	-0.33068004
94	0xbf1fc95f	-0.6241664
95	0xbdaed0ea	-0.08535941
96	0x3eae99a8	0.34101605
97	0xbe6997d4	-0.22811824
98	0x3ef9cf96	0.48791188
99	0xbefa16cc	-0.48845518
100	0x3e95571d	0.29168025
101	0xbd9e441f	-0.07727837
102	0xbd8c905f	-0.06863474
103	0x3ed0f8d3	0.40814838
104	0xbdd470c6	-0.10373072
105	0xbb302166	-0.0026875376
106	0xbdecd585	-0.11564163
107	0x3b69bd55	0.003566583
108	0xb886b8bb	-6.424027e-05
109	0x3d0bebde	0.034160487
110	0x3e8e3353	0.27773532
111	0x3e14f031	0.14544751
112	0x3ec89e97	0.39183494
113	0xbee26bc7	-0.44222853
114	0xbbbc57f7	-0.005747791
115	0x3db498f5	0.08818237
116	0xbef5d8e6	-0.48017043
117	0x3e37dbac	0.17954892
118	0x3e0119a0	0.12607431
119	0xbaa5de89	-0.0012654822
120	0x3df4ecd6	0.11959235
121	0x3eb14202	0.34620672
122	0x3d10f011	0.035385195
123	0x3e8e3472	0.27774388
124	0xbe8fe903	-0.2810746
125	0xbe17ef66	-0.14837417
126	0x3dc09c5a	0.09404822
127	0xbf28f7cb	-0.660031
128	0xbe721f0e	-0.23644659
129	0x3c551d2a	0.013007442
130	0xbd7d1c0a	-0.06179432
131	0x3bafe0c2	0.0053673694
132	0x3edd0313	0.43166408
133	0xbe951d3f	-0.29123875
134	0xbebcbedb	-0.3686436
135	0xbf2d1354	-0.6760762
136	0x3e9d80f6	0.30762452
137	0xbeef6452	-0.46756226
138	0xbead25e9	-0.33817986
139	0xbe12d4be	-0.14338967
140	0xbdcd0db6	-0.10012381
141	0xbe286fcf	-0.16448902
142	0x3efe3fec	0.49658144
143	0xbe392eff	-0.18084334
144	0x3f79ee33	0.9762909
145	0xbe529989	-0.20566382
146	0xbe3c37da	-0.1838068
147	0x3f73fb5e	0.9530543
148	0x3ebaeaf5	0.36507383
149	0x3e941e2f	0.28929278
150	0xbd857108	-0.065156996
151	0x3f02f30c	0.5115211
152	0xbee2a6e8	-0.44267964
153	0x3ed1a083	0.40942773
154	0xbed97f0a	-0.42479736
155	0xbe4cf8f1	-0.20016839
156	0xbea1c462	-0.3159514
157	0xbd45ed0a	-0.04832176
158	0x3d89cc39	0.067284055
159	0x3e8a0ab6	0.26961297
160	0x3e710fc3	0.23541169
161	0xbd0ebbb8	-0.03484699
162	0xbec57010	-0.3856206
163	0xbf0c4129	-0.54786927
164	0xbdb640c0	-0.08899069
165	0xbf4badc8	-0.79562044
166	0x3eec9e26	0.46214408
167	0x3ec90177	0.3925893
168	0xbe9ee61c	-0.31034935
169	0xbea29078	-0.31750846
170	0x3ea3c8de	0.31989187
171	0x3e462663	0.19350581
172	0xbe248822	-0.16067556
173	0xbe3d58b1	-0.18490864
174	0x3e96252b	0.29325232
175	0xbdf24bd9	-0.11830873
176	0xbec69fc0	-0.38793755
177	0xbe769935	-0.24081881
178	0x3ecfab4d	0.4056038
179	0x39bd6770	0.00036125956
180	0x3e8c6501	0.2742081
181	0x3e8b4611	0.27201894
182	0xbe7e439a	-0.24830475
183	0x3d2b6e40	0.04185319
184	0xbd86567d	-0.06559465
185	0xbeb40f18	-0.35167766
186	0xbd98247c	-0.07428834
187	0xbeb47fa8	-0.35253644
188	0xbf0bef55	-0.54662067
189	0x3e84cd62	0.25937945
190	0x3d829f8d	0.06378088
191	0x3ed0dd16	0.40793675
192	0x3e8c22e3	0.27370366
193	0x3ef1ff41	0.47265056
194	0x3e637093	0.22210912
195	0x3ee3d64d	0.44499436
196	0x3eb36338	0.35036635
197	0xbeaf638e	-0.34255642
198	0x3e988384	0.29787838
199	0x3e6cc55a	0.23122159
200	0xbee58c1d	-0.4483346
201	0x3e717500	0.23579788
202	0x3e8e81ee	0.27833503
203	0x3e8c50c9	0.27405384
204	0xbf611b97	-0.87932724
205	0xbd938e3c	-0.072048634
206	0x3eaaaec1	0.33336452
207	0x3e6f9ac5	0.23398884
208	0xbf17e717	-0.5933699
209	0x3e8bd894	0.27313673
210	0x3f7c772d	0.9861935
211	0x3e2c424d	0.16822167
212	0xbce7dac7	-0.028302563
213	0xbe0329f5	-0.12808974
214	0x3ea552de	0.32289785
215	0xbe88da78	-0.26729178
216	0xbf5ab69f	-0.8543491
217	0xba92a7d1	-0.0011188929
218	0xbde97712	-0.11399664
219	0x3e9fb8a4	0.31195557
220	0xbec3eb24	-0.38265336
221	0xbe4aa7de	-0.19790599
222	0xbec86cf3	-0.39145622
223	0xbf7495a7	-0.9554085
224	0xbf0ee45a	-0.55817187
225	0xbea05aeb	-0.31319365
226	0xbdd85d1c	-0.10564634
227	0xbe8fb1ef	-0.2806544
228	0xbe454461	-0.19264366
229	0x3da1d531	0.07901991
230	0x3f1ef711	0.62095743
231	0x3ea6db0e	0.32589
232	0x3d8dc75d	0.06922791
233	0xbd4af142	-0.049546488
234	0x3e7e1285	0.24811752
235	0x3e594105	0.21216209
236	0x3d98e6e5	0.07465915
237	0xbe87aa3c	-0.26497066
238	0x3920c206	0.00015331068
239	0x3e3f57d7	0.18685852
240	0xbef87372	-0.48525578
241	0x3e423a68	0.18967593
242	0x3e94fad7	0.29097626
243	0x3d5e2156	0.05423101
244	0x3e9c03f6	0.30471772
245	0x3e7d8b0f	0.24760078
246	0x3f0f7bb1	0.56048113
247	0x3ea97056	0.33093518
248	0x3ef99e52	0.487536
249	0x3eeb3de9	0.4594567
250	0xbe7fd97c	-0.24985307
251	0x3d4b7f38	0.049681872
252	0xbf46e103	-0.7768709
253	0x3e8b92a1	0.27260306
254	0x3ec17886	0.37787265
255	0xbf0be845	-0.5465129
