logs/M5D1_r08/score.pt (torch, 732745 bytes, 10 tensors)

embed.0.W f4 [64]
2.7883713 31.618198 8.502894 5.093163 -35.330887 17.777308 16.207035 -13.925047
49.05643 -1.0003678 41.883366 24.595558 -39.870552 17.6979 12.676158 10.351619
-12.485169 58.168808 -9.666909 -46.16701 -12.097642 -23.855093 -24.374653 -51.88752
38.64416 5.8022733 39.741673 -47.32423 39.024715 32.24751 -3.067578 -61.255333
18.446589 26.402527 40.494484 49.758404 -4.7440677 53.10208 -69.07365 -59.24812
35.15708 -12.556774 45.185448 -1.5289196 -2.402313 16.36754 -35.874954 -5.042542
-24.811663 -59.36851 21.267723 54.67897 -27.924046 -16.438599 -31.811127 -41.116344
22.74848 -37.14003 21.969755 13.663468 -22.869686 -14.987363 58.2255 -2.6005654
00000000: ad74 3240 12f2 fc41 db0b 0841 31fb a240
00000010: d452 0dc2 ed37 8e41 02a8 8141 fecc 5ec1
00000020: c939 4442 0d0c 80bf 9188 2742 b4c3 c441
00000030: 727b 1fc2 4d95 8d41 8bd1 4a41 3ba0 2541
00000040: 41c3 47c1 dcac 6842 a9ab 1ac1 05ab 38c2
00000050: f18f 41c1 3bd7 bec1 4aff c2c1 d28c 4fc2
00000060: 9f93 1a42 39ac b940 79f7 1e42 034c 3dc2
00000070: 4f19 1c42 73fd 0042 3353 44c0 7605 75c2
00000080: 9d92 9341 6038 d341 5afa 2142 9b08 4742
00000090: 67cf 97c0 8868 5442 b525 8ac2 13fe 6cc2
000000a0: daa0 0c42 8ce8 48c1 e6bd 3442 a3b3 c3bf
000000b0: 7fbf 19c0 b9f0 8241 f47f 0fc2 815c a1c0
000000c0: 497e c6c1 5b79 6dc2 4c24 aa41 44b7 5a42
000000d0: 7264 dfc1 4082 83c1 307d fec1 2377 24c2
000000e0: e3fc b541 648f 14c2 0fc2 af41 919d 5a41
000000f0: 1ef5 b6c1 3dcc 6fc1 e9e6 6842 aa6f 26c0

embed.1.weight f4 [128, 128]
0.0004037352 -0.032649834 -0.068427876 -0.042945616 -0.05122113 0.08380123 -0.044319466 0.06001672
-0.01905873 0.085289255 -0.03548713 0.0034211546 0.0028637624 -0.017671214 -0.08587488 -0.0217363
0.0213374 -0.03373947 0.08081518 0.035251044 -0.050141253 0.012682313 -0.022445673 0.023070479
0.057228666 0.062033985 -0.060350124 0.053336952 0.022057721 -0.08107786 0.005028414 -0.004255388
0.039651923 -0.03248979 0.0028237544 0.035494115 -0.070253454 -0.07780904 -0.07650341 -0.07035378
0.03415074 0.03319002 -0.07082871 0.0627594 -0.025539588 -0.0061706463 -0.081717595 -0.010433442
-0.061811693 0.052772522 -0.0027536326 -0.07433618 0.03309674 0.06943168 -0.081739545 -0.014335892
0.06437538 -0.049925532 0.033187218 0.07241097 -0.034557253 0.004740214 0.032996736 0.0270872
0.059458256 0.056187026 -0.008809429 0.02073038 -0.061188657 -0.024741633 -0.0069822576 -0.015187216
-0.024534587 0.0050920453 -0.08415558 -0.0060106358 0.085333 0.017448088 -0.080211334 0.08443085
-0.07166351 -0.017028412 -0.01644219 -0.07816151 -0.0043842415 0.084515855 -0.07321203 0.07355609
0.019190872 -0.028436836 -0.055330582 0.035798214 0.075081974 0.07083819 0.047131017 0.031221405
0.08174061 -0.06063584 -0.056709174 -0.006642902 0.08078082 0.08720106 0.05124558 -0.06791421
0.022270847 -0.07982227 -0.01877563 -0.040330507 0.069093496 -0.07260247 -0.028167054 0.04214726
0.073663965 -0.015610803 -0.073379874 0.086647935 0.05010903 0.03151617 0.053336952 -0.07874942
-0.056225244 -0.07098535 0.0329334 0.0413426 -0.080337614 -0.040114928 0.06484878 0.03739321
-0.020942453 0.042818934 0.061130166 0.037750922 0.0843598 -0.07415578 0.01287406 0.086240016
-0.06937143 -0.040654883 -0.0387323 -0.021463409 -0.04244688 -0.0015410995 0.029275548 0.0081718415
-0.0029382254 -0.030627156 0.01221149 0.05598824 0.040947698 -0.023482813 -0.023032863 -0.014735191
-0.045155942 -0.03434201 -0.013461166 -0.032208472 -0.06855042 0.05232348 0.07929456 -0.0055905473
0.025278352 -0.044956073 -0.072735295 0.07162785 0.019163065 -0.0636782 0.07405764 0.040359188
-0.033584293 0.0032017801 -0.07727543 0.031634983 0.06509908 -0.016609188 0.0636591 0.024182534
-0.012282951 -0.06649457 -0.05296547 -0.0123122325 -0.0042327237 -0.020217938 0.086577624 0.06200659
0.011485185 -0.043521352 0.014192414 0.05089353 -0.082550004 0.08359331 -0.06820555 -0.0315342
-0.034940507 -0.035230435 -0.029588973 0.031519353 -0.05140572 0.0436582 -0.052403443 0.017774833
-0.014920837 -0.07071575 0.073388286 0.046694282 0.009436532 -0.012528277 -0.07395172 0.08415826
0.032642953 -0.082773045 -0.07676678 0.0062280083 -0.0039045787 -0.045096178 0.05215764 0.060706075
0.07616288 0.00698329 0.015495837 0.08634792 0.0076056514 0.060975034 0.06995896 -0.028040476
0.0573165 0.08467461 0.065180786 -0.07443895 -0.06388837 0.0058726366 0.059550334 0.03255765
0.011037796 0.054723624 -0.08088288 0.043387566 -0.015509366 0.032498866 -0.0405779 -0.053297184
0.07701428 -0.060183927 0.021376628 0.028792597 -0.016710699 0.00608728 0.025229387 0.057801716
0.010762524 -0.088182375 0.07455686 -0.027543038 -0.068484 0.08057072 -0.0010615948 -0.076016426
00000000: 6cac d339 d5bb 05bd ea23 8cbd bee7 2fbd
00000010: 3fcd 51bd fb9f ab3d 5488 35bd 18d4 753d
00000020: 0e21 9cbc 22ac ae3d f45a 11bd 7335 603b
00000030: f6ad 3b3b 39c3 90bc 2bdf afbd 5310 b2bc
00000040: c5cb ae3c 6632 0abd 6e82 a53d 6663 103d
00000050: ea60 4dbd 7ac9 4f3c fddf b7bc 4dfe bc3c
00000060: 9b68 6a3d 5917 7e3d b131 77bd d977 5a3d
00000070: 65b2 b43c 260c a6bd 65c5 a43b c870 8bbb
00000080: 0e6a 223d 0414 05bd bd0e 393b 4762 113d
00000090: 0be1 8fbd 595a 9fbd d2ad 9cbd a515 90bd
000000a0: a5e1 0b3d 42f2 073d a50e 91bd 0088 803d
000000b0: 6638 d1bc 2233 cabb 8e5b a7bd 07f1 2abc
000000c0: 422e 7dbd 0028 583d 4a76 34bb 913d 98bd
000000d0: 7290 073d 3232 8e3d 1067 a7bd 17e1 6abc
000000e0: 3dd7 833d b77e 4cbd 52ef 073d 344c 943d
000000f0: e88b 0dbd cc53 9b3b 9627 073d fae5 dd3c
00000100: 808a 733d 5e24 663d 6c55 10bc c2d2 a93c
00000110: f5a0 7abd f7ae cabc 6ccb e4bb cdd3 78bc
00000120: c2fc c8bc 2cdb a63b c359 acbd def4 c4bb
00000130: 11c3 ae3d 4bef 8e3c d745 a4bd 15ea ac3d
00000140: 51c4 92bd 2b7f 8bbc c6b1 86bc 2413 a0bd
00000150: afa9 8fbb a616 ad3d 30f0 95bd 93a4 963d
00000160: 2d36 9d3c 5ef4 e8bc 52a2 62bd 26a1 123d
00000170: 94c4 993d 9d13 913d 740c 413d 08c4 ff3c
00000180: 9f67 a73d 495d 78bd e147 68bd b3ac d9bb
00000190: 6a70 a53d 7896 b23d e3e6 513d 9b16 8bbd
000001a0: 5a71 b63c dc79 a3bd 5acf 99bc 9a31 25bd
000001b0: e480 8d3d 9bb0 94bd 98be e6bc 9ba2 2c3d
000001c0: 22dd 963d 74c4 7fbc 3048 96bd 7974 b13d
000001d0: 203f 4d3d 1917 013d d977 5a3d 6047 a1bd
000001e0: 714c 66bd c460 91bd 2ce5 063d dc56 293d
000001f0: 0c88 a4bd 8d4f 24bd 70cf 843d 9f29 193d
00000200: 828f abbc e862 2f3d a063 7a3d b6a0 1a3d
00000210: d5c4 ac3d fcde 97bd b9ed 523c 9b9e b03d
00000220: 9c12 8ebd bc85 26bd c3a5 1ebd 08d4 afbc
00000230: c8dc 2dbd b8fe c9ba 46d3 ef3c 30e3 053c
00000240: 3e8f 40bb cde5 fabc b412 483c ed53 653d
00000250: c6b8 273d 075f c0bc 6aaf bcbc df6b 71bc
00000260: 70f5 38bd 35aa 0cbd 398c 5cbc 08ed 03bd
00000270: 2a64 8cbd 2551 563d 3065 a23d e930 b7bb
00000280: 8c14 cf3c dc23 38bd 3ef6 94bd 9fb1 923d
00000290: dcfb 9c3c b769 82bd 88ab 973d ad4f 253d
000002a0: af8f 09bd f5d4 513b 9542 9ebd af93 013d
000002b0: ab52 853d fe0f 88bc b45f 823d 731a c63c
000002c0: 6e3e 49bc 4e2e 88bd 52f2 58bd 3fb9 49bc
000002d0: a9b2 8abb 17a0 a5bc 9c4f b13d 9ffa 7d3d
000002e0: 5b2c 3c3c 7243 32bd 4c87 683c bc75 503d
000002f0: fa0f a9bd f832 ab3d 5aaf 8bbd 012a 01bd
00000300: c71d 0fbd ca4d 10bd 9364 f2bc 701a 013d
00000310: ce8e 52bd f1d2 323d fea4 56bd 879c 913c
00000320: 8776 74bc 6bd3 90bd 994c 963d 8142 3f3d
00000330: af9b 1a3c 6743 4dbc 0074 97bd 2a5b ac3d
00000340: 9eb4 053d ea84 a9bd e737 9dbd 5214 cc3b
00000350: f6e3 7fbb c5b6 38bd 40a3 553d efa6 783d
00000360: 49fb 9b3d 15d4 e43b 40e2 7d3c 2ed7 b03d
00000370: d438 f93b f5c0 793d a546 8f3d 24b5 e5bc
00000380: b5c4 6a3d e269 ad3d 817d 853d 7373 98bd
00000390: e8d7 82bd 3f6f c03b 0deb 733d 2c5b 053d
000003a0: dfd7 343c e125 603d eca5 a5bd 29b7 313d
000003b0: ff1a 7ebc 881d 053d 0335 26bd 264e 5abd
000003c0: aab9 9d3d 6c83 76bd 0a1e af3c 74de eb3c
000003d0: e0e4 88bc ce77 c73b dcad ce3c 7ec1 6c3d
000003e0: 4c55 303c f698 b4bd 44b1 983d f0a1 e1bc
000003f0: 5741 8cbd 4302 a53d 3625 8bba 80ae 9bbd

embed.1.bias f4 [128]
-0.042764246 -0.012500861 -0.071911365 0.08496915 -0.05017382 0.030388225 -0.00081874465 0.013303462
-0.03303646 0.040150005 0.06250404 0.008155383 0.04907523 -0.08624518 0.08799932 -0.029355817
0.032456055 0.070025146 -0.049074464 0.07162724 0.01408987 0.051733095 -0.056639895 -0.0067868438
0.015785227 -0.06878453 0.057513535 -0.01196353 0.049473245 0.08446047 0.05796202 -0.023684053
0.074241325 -0.018124547 -0.06412366 0.08338606 -0.059115507 -0.02862734 0.017918585 -0.08071509
-0.083838016 0.005014031 -0.04337071 0.060174067 -0.0055341655 0.0071952255 -0.027297333 -0.02271084
0.075964995 -0.015374749 -0.051745918 -0.026512632 -0.012741119 0.048773535 0.06333624 -0.07775401
-0.025568627 0.042945277 -0.041598886 0.060389828 -0.073256776 0.032949194 0.056049198 -0.07386108
0.017198706 -0.03815275 -0.048725337 0.08012843 0.042957764 -0.0067947567 0.018194584 0.021447847
0.028920945 0.028242476 0.07084512 -0.015903829 -0.06432175 -0.0076998393 -0.07566302 -0.08218943
-0.0112924995 0.03756953 -0.012247316 0.043722685 0.017519802 0.057886463 -0.016306246 -0.04054434
-0.025279868 0.036758386 0.061179165 -0.06395866 0.049043685 0.051367607 -0.014527892 0.027336994
-0.070657186 -0.0346616 0.0014769414 0.08409218 -0.057070076 -0.015185457 -0.04875955 0.080119126
-0.06243866 0.00523231 0.016501417 0.035985675 -0.005367106 0.024089875 0.03549261 0.004346815
-0.056799326 -0.048292626 -0.003198735 0.025479391 0.06283303 0.04163135 0.08168575 -0.004433058
-0.08656853 -0.05730399 0.010694236 -0.05155339 -0.00957334 0.010893137 -0.0014873517 -0.07707559
00000000: 9029 2fbd 69d0 4cbc 4446 93bd 4e04 ae3d
00000010: 1083 4dbd baf0 f83c 06a1 56ba c4f6 593c
00000020: 3d51 07bd 5574 243d 1e02 803d 289e 053c
00000030: 1c03 493d 50a1 b0bd fd38 b43d 9c7b f0bc
00000040: a4f0 043d 5869 8f3d 4e02 49bd 4db1 923d
00000050: 33d9 663c 15e6 533d 3cff 67bd 2c64 debb
00000060: 0550 813c e7de 8cbd 5093 6b3d af02 44bc
00000070: 75a4 4a3d 9cf9 ac3d 9569 6d3d 0f05 c2bc
00000080: d60b 983d ee79 94bc 4453 83bd 50c6 aa3d
00000090: 1a23 72bd e283 eabc ffc9 923c f44d a5bd
000000a0: 44b3 abbd be4c a43b 7ca5 31bd 1579 763d
000000b0: f257 b5bb edc5 eb3b a89e dfbc 150c babc
000000c0: 8993 9b3d 5fe6 7bbc 87f3 53bd 0531 d9bc
000000d0: 20c0 50bc c2c6 473d 6eb6 813d 7f3d 9fbd
000000e0: 4c75 d1bc 63e7 2f3d 9863 2abd 535b 773d
000000f0: a607 96bd bcf5 063d d893 653d 7a44 97bd
00000100: 4de4 8c3c 0f46 1cbd 3894 47bd 601a a43d
00000110: 7bf4 2f3d 8da6 debb cf0c 953c 65b3 af3c
00000120: 9eeb ec3c c45c e73c 3f17 913d bf48 82bc
00000130: 1fbb 83bd ef4e fcbb 37f5 9abd ef52 a8bd
00000140: 2d04 39bc 82e2 193d f7a8 48bc 8f16 333d
00000150: b085 8f3c 5b1a 6d3d ad94 85bc d211 26bd
00000160: ba17 cfbc f68f 163d 0197 7a3d c2fc 82bd
00000170: 08e2 483d d766 523d 6506 6ebc d5f1 df3c
00000180: b7b4 90bd 52f9 0dbd ee95 c13a 8538 ac3d
00000190: 50c2 69bd 6ccc 78bc 18b8 47bd 7f15 a43d
000001a0: aebf 7fbd cc73 ab3b fb2d 873c b765 133d
000001b0: 8cde afbb 2158 c53c b360 113d ba6f 8e3b
000001c0: 69a6 68bd 7dce 45bd dea1 51bb 28ba d03c
000001d0: 9bae 803d a285 2a3d dc4a a73d 3043 91bb
000001e0: d74a b1bd 97b7 6abd e036 2f3c a629 53bd
000001f0: 80d9 1cbc 2179 323c 3ef3 c2ba cfd9 9dbd

embed.3.weight f4 [256, 128]
0.03377763 -0.04013323 0.082822844 0.052663814 0.049599506 -0.014879334 -0.07258352 -0.07011428
-0.029177884 -0.062289797 0.065572105 -0.08556982 -0.063914336 0.04735602 -0.06088953 -0.034223408
-0.006607235 -0.055527322 0.06498736 -0.013888377 0.011721028 -0.05418091 0.0030319388 -0.04316483
0.0011883725 -0.08237529 -0.08275384 -0.015184224 0.07380766 0.08775094 -0.06574362 0.033298686
0.029163564 0.08336226 -0.08632767 -0.010452608 0.004507774 0.05240342 0.07552457 0.06899123
-0.032318708 0.038213484 -0.010820076 0.047825504 0.010404771 0.007546667 -0.007740374 -0.06379168
0.082520634 0.080647886 0.030862715 -0.05407744 -0.015921773 0.036363628 -0.039466236 -0.0802159
0.0038326974 0.050464444 0.053817574 0.046169333 0.036724236 0.07023702 -0.0058473167 0.029049441
0.056398362 -0.06817605 0.015362168 0.0683499 -0.07076453 0.009404079 -0.07732087 0.047892623
0.018195195 -0.031461548 -0.011739741 0.055605464 0.082723185 -0.08416188 0.035639986 0.039293125
0.0042388136 0.0013042869 0.0075805634 0.048149213 0.07257214 0.031862155 -0.074584484 0.07313964
-0.039400402 0.071845494 0.014312543 0.084142655 -0.08739734 0.029630603 0.07022758 0.036226258
0.08218982 0.041521747 -0.0060316566 -0.057885934 0.03381191 -0.060624257 0.041793972 -0.027094733
-0.0644481 -0.04261966 0.028471438 -0.034430057 -0.03911058 0.040466357 -0.08663654 0.040603608
0.05734199 0.066358596 -0.022458853 0.061133306 -0.010443821 0.03676238 0.05479499 0.061340764
0.05275112 0.08207755 0.08752483 0.06994985 -0.064184695 0.026552029 -0.08333924 0.04540854
0.0072167944 0.07279906 -0.045678943 -0.0647916 0.086300835 -0.070242666 -0.044308845 -0.08066663
-0.023583638 0.057517823 0.082721926 0.009423224 -0.005053997 -0.06547167 -0.01782522 -0.07105862
0.036696143 0.00068149343 -0.08045711 0.07459357 0.034642275 0.009278397 0.07503594 -0.011785997
0.083674334 -0.03555114 0.07472022 0.0050433655 0.0044356924 0.05151605 -0.05772859 -0.042900812
0.08127907 -0.027449388 -0.053234007 -0.04716754 -0.06547671 -0.016537085 -0.050531648 -0.048923682
0.050421897 -0.08445033 0.06860999 -0.004983011 -0.052673656 0.06716873 -0.0657536 0.0016507445
-0.020927701 0.058111493 0.069063604 -0.06817686 0.075503446 0.08183098 -0.063638054 -0.043684598
0.058515545 0.069901325 0.021147117 0.00015040103 -0.014798232 0.086279094 -0.03321666 0.024072584
-0.020422287 0.048991717 -0.034995846 -0.022985637 0.061528783 0.013507875 -0.031273562 -0.029225668
-0.04070159 -0.05565097 0.06771702 -0.06445566 0.008088064 -0.0043441597 0.07073041 0.08370598
-0.020048644 0.0780186 -0.052791033 -0.010989643 0.04260921 0.023286808 0.05272282 -0.013153136
-0.022560459 -0.0032975273 -0.06359268 0.0012591687 -0.072261035 -0.05033186 0.08590444 0.08061726
0.048457444 -0.013931335 -0.01165746 -0.067376174 0.03181402 -0.045418855 0.037423726 -0.044466104
-0.04323898 0.070745625 0.0017971521 0.06590589 -0.007991864 0.05744293 0.01669505 0.051011227
-0.0517487 0.06426195 0.027755806 0.006530085 0.04766738 -0.028268682 -0.05715278 0.026401281
0.04278218 0.07300703 0.04798088 0.018218722 0.047395997 -0.011283923 0.019948335 -0.034054086
00000000: 6a5a 0a3d be62 24bd 069f a93d 03b6 573d
00000010: da28 4b3d 73c8 73bc aba6 94bd 1398 8fbd
00000020: 7506 efbc 9623 7fbd ab4a 863d 3b3f afbd
00000030: 85e5 82bd 63f8 413d 4d67 79bd d82d 0cbd
00000040: 8181 d8bb 9e70 63bd 1818 853d 138c 63bc
00000050: 8e09 403c cdec 5dbd 7eb3 463b 9bcd 30bd
00000060: 2ac3 9b3a 60b4 a8bd d87a a9bd 40c7 78bc
00000070: 7828 973d c4b6 b33d 97a4 86bd 3464 083d
00000080: 6de8 ee3c d5b9 aa3d 90cc b0bd 6a41 2bbc
00000090: f3b5 933b f8a4 563d a0ac 9a3d 464b 8d3d
000000a0: 9f60 04bd be85 1c3d b046 31bc ade4 433d
000000b0: c678 2a3c 084a f73b f7a2 fdbb 36a5 82bd
000000c0: 9400 a93d b82a a53d ced3 fc3c 4e80 5dbd
000000d0: 616e 82bc 07f2 143d 59a7 21bd 3c48 a4bd
000000e0: fe2d 7b3b ceb3 4e3d d16f 5c3d 0e1c 3d3d
000000f0: 276c 163d 6dd8 8f3d d99a bfbb 18f9 ed3c
00000100: f801 673d e39f 8bbd 9ab1 7b3c 08fb 8b3d
00000110: feec 90bd 9113 1a3c 675a 9ebd 0e2b 443d
00000120: 170e 953c d3dd 00bd 0b58 40bc 8ec2 633d
00000130: c66a a93d 105d acbd 3cfb 113d d4f1 203d
00000140: bfe5 8a3b 9bf4 aa3a 6066 f83b 1c38 453d
00000150: b4a0 943d e481 023d c0bf 98bd 3cca 953d
00000160: 5162 21bd bb23 933d 287f 6a3c fc52 ac3d
00000170: 60fd b2bd e1bb f23c 7ad3 8f3d fc61 143d
00000180: 2353 a83d b512 2a3d 34a5 c5bb cd19 6dbd
00000190: 5b7e 0a3d 2451 78bd 2830 2b3d c6f5 ddbc
000001a0: 5efd 83bd f491 2ebd ef3c e93c 8806 0dbd
000001b0: 6a32 20bd 0dc0 253d 806e b1bd f84f 263d
000001c0: 6fdf 6a3d 04e7 873d a1fb b7bc eb66 7a3d
000001d0: 8f1c 2bbc 2694 163d b670 603d 7440 7b3d
000001e0: 8f11 583d 4618 a83d 3840 b33d de41 8f3d
000001f0: 4473 83bd a483 d93c c3ad aabd 4efe 393d
00000200: dc7a ec3b ac17 953d d819 3bbd 75b1 84bd
00000210: 7ebe b03d 63db 8fbd 317d 35bd 8c34 a5bd
00000220: 7932 c1bc cf97 6b3d 1d6a a93d de63 1a3c
00000230: 009c a5bb 0316 86bd 3206 92bc 2f87 91bd
00000240: b24e 163d 40a6 323a b3c6 a4bd 83c4 983d
00000250: 0fe5 0d3d 6b04 183c 71ac 993d 0e1a 41bc
00000260: 735d ab3d 129e 11bd ea06 993d d142 a53b
00000270: 4959 913b 7e02 533d d074 6cbd c3b8 2fbd
00000280: a475 a63d 8add e0bc e70b 5abd c032 41bd
00000290: a718 86bd c878 87bc 46fa 4ebd 3364 48bd
000002a0: 3187 4e3d 4bf4 acbd 6583 8c3d 8748 a3bb
000002b0: 55c0 57bd c28f 893d d3a9 86bd cb5d d83a
000002c0: 9270 abbc 5106 6e3d 3871 8d3d 4fa0 8bbd
000002d0: 8da1 9a3d 0097 a73d ab54 82bd 9fee 32bd
000002e0: ffad 6f3d 6d28 8f3d b83c ad3c f8b4 1d39
000002f0: 4974 72bc 18b3 b03d 310e 08bd de33 c53c
00000300: a44c a7bc 8aab 483d ce57 0fbd 604c bcbc
00000310: 9b05 7c3d 2250 5d3c b518 00bd ab6a efbc
00000320: b6b6 26bd 46f2 63bd 39af 8a3d 5401 84bd
00000330: cd83 043c 7459 8ebb 1bdb 903d 0a6e ab3d
00000340: 0e3d a4bc 37c8 9f3d 693b 58bd e70d 34bc
00000350: ff86 2e3d fac3 be3c e2f3 573d 4080 57bc
00000360: b6d0 b8bc 541b 58bb e13c 82bd b10a a53a
00000370: 98fd 93bd c828 4ebd abee af3d a91a a53d
00000380: 507b 463d 4140 64bc eefe 3ebc 85fc 89bd
00000390: 6b4f 023d 1f09 3abd 9f49 193d 1722 36bd
000003a0: 5b1b 31bd 15e3 903d 6b8e eb3a abf9 863d
000003b0: 4ff0 02bc 4749 6b3d 0fc4 883c 26f1 503d
000003c0: 72f6 53bd c59b 833d 2560 e33c 53fa d53b
000003d0: df3e 433d b993 e7bc 0919 6abd 8047 d83c
000003e0: 5e3c 2f3d b684 953d 9987 443d 6e3f 953c
000003f0: 4e22 423d 34e0 38bc b16a a33c 4c7c 0bbd

embed.3.bias f4 [256]
-0.0019111277 0.026058385 0.017116046 0.018217217 0.045812096 -0.01888086 0.017393393 -0.07138985
0.048403874 -0.08722238 0.07150523 0.027265744 -0.02315078 0.08667633 -0.06252708 0.010272125
0.02080693 0.010120502 -0.0039263475 -0.012542386 0.06282567 0.032008413 -0.00784493 0.08285016
0.03298916 0.024767669 -0.02889258 -0.06715317 0.04051214 -0.02140238 0.012841933 -0.013645527
-0.01180451 -0.03332882 0.038113754 -0.054907016 0.0847865 -0.082676254 0.066436954 0.047151964
-0.032197338 -0.08532487 -0.006625706 0.056189682 -0.08162294 -0.037785534 -0.02197956 0.002210381
-0.08553388 -0.053295396 0.03946653 -0.046124574 0.07724926 0.034423545 0.026452236 -0.032007948
0.07843707 -0.08617672 -0.06340797 -0.009742339 0.08802502 0.02590087 -0.050588556 -0.0014209389
0.008211987 0.0007781046 0.06729183 0.002778257 0.087546855 0.008252679 -0.037243187 0.07874044
-0.07076005 -0.013583023 0.03259538 -0.08465616 -0.04900431 -0.05049518 0.081583135 0.051382266
-0.022774091 0.016265849 0.04094539 -0.04554757 0.03849436 -0.067955345 -0.0009520973 0.07256114
-0.044996556 -0.039151996 0.030582964 -0.082876034 -0.06960344 -0.026849996 -0.003349273 0.02850208
0.033297125 0.032760188 -0.054368265 -0.0853084 0.058051057 0.027715735 0.07869735 -0.05210033
-0.0077865035 0.003140235 0.038496792 0.070414506 0.08276065 -0.050947793 -0.061331008 -0.0248906
0.08748975 0.061785046 -0.047889534 0.028382678 -0.052583817 0.06552219 0.06958245 0.056274746
0.026062177 -0.034471318 -0.027424216 0.040115505 0.06951033 -0.08738098 0.0785852 -0.055690948
0.025650878 0.048875425 0.07352517 0.032421358 0.073771074 0.033638578 -0.08560593 -0.06650661
0.07733018 -0.02753679 -0.0704913 -0.06821303 -0.060773533 -0.06824519 0.038719255 -0.08805885
-0.053467028 0.06392138 0.0031772717 0.03276594 0.08657367 0.02638536 0.06318397 -0.045816597
0.07837517 0.07856776 0.038958218 -0.023388708 0.030998932 -0.051898807 0.02209696 0.050010923
-0.05616137 0.00711757 0.0016077547 0.029272946 0.02209518 -0.08602965 -0.062913924 0.039217714
-0.0033392948 -0.008394124 -0.016093163 -0.08064521 -0.060630284 0.018874781 0.08151372 0.057157088
0.026979957 -0.03418551 0.08381917 0.011817018 0.03785516 -0.08432427 0.06664505 0.07965516
0.063822106 0.06386554 0.059561674 -0.033295885 -0.024785655 -0.07822086 -0.054995958 -0.0005881382
-0.03676993 0.031038994 -0.05943211 0.0001751623 -0.0244477 -0.0028702952 -0.07937942 0.054381542
0.012294362 0.042072933 0.046787437 0.0053688656 -0.043894213 0.04511589 -0.03263417 0.003538407
-0.06596283 0.081414275 0.037433553 0.08155138 0.03048705 -0.06771709 0.046265416 -0.038089402
0.019966984 0.050994217 0.08474277 -0.035810765 0.05497167 -0.004568044 0.06912278 -0.035766974
-0.02320126 -0.046682924 -0.037706476 -0.06345564 0.06407523 0.026929708 0.013876681 -0.07442308
8.2565675e-05 0.082675375 0.021423453 0.06643323 0.061802726 0.05838525 -0.0009019952 -0.015353623
0.036525227 0.038684126 0.0115714595 0.03740698 -0.05385067 0.070044324 0.063754685 -0.05632388
0.006734213 0.003333057 -0.08131496 0.059012394 0.06724354 0.010215784 0.017259356 0.0659876
00000000: ce7e faba 6578 d53c f336 8c3c 463c 953c
00000010: 77a5 3b3d 09ac 9abc 977c 8e3c d734 92bd
00000020: 2443 463d a6a1 b2bd 5671 923d 695c df3c
00000030: b4a6 bdbc 5c83 b13d 330e 80bd 6a4c 283c
00000040: 4b73 aa3c 76d0 253c 97a8 80bb 947e 4dbc
00000050: bfaa 803d 411b 033d 0588 00bc 58ad a93d
00000060: a41f 073d 91e5 ca3c 22b0 ecbc 9a87 89bd
00000070: 0ff0 253d 0b54 afbc f966 523c 7d91 5fbc
00000080: b467 41bc cd83 08bd 2b1d 1c3d 2ee6 60bd
00000090: 8ba4 ad3d 2b52 a9bd 1910 883d 6b22 413d
000000a0: 5be1 03bd cebe aebd 731c d9bb 2727 663d
000000b0: ee29 a7bd 01c5 1abd 7a0e b4bc 0adc 103b
000000c0: 632c afbd 464c 5abd a8a7 213d 1fed 3cbd
000000d0: dc34 9e3d b4ff 0c3d 5cb2 d83c c41a 03bd
000000e0: 9da3 a03d 6c7d b0bd 0adc 81bd 559e 1fbc
000000f0: 7646 b43d 102e d43c f235 4fbd cc3e baba
00000100: 928b 063c b7f9 4b3a 4dd0 893d 6b13 363b
00000110: c44b b33d 3f36 073c 508c 18bd ab42 a13d
00000120: a5ea 90bd 548b 5ebc bc82 053d 3560 adbd
00000130: beb8 48bd 09d4 4ebd 0f15 a73d 3676 523d
00000140: bb90 babc f53f 853c 5ab6 273d 1790 3abd
00000150: 43ac 1d3d 2c2c 8bbd 2b96 79ba ef9a 943d
00000160: 4f4e 38bd d85d 20bd 2089 fa3c e9ba a9bd
00000170: 408c 8ebd 86f4 dbbc 7a7f 5bbb 327d e93c
00000180: 9162 083d 8c2f 063d 42b1 5ebd 2cb6 aebd
00000190: f2c6 6d3d 1c0c e33c 142c a13d 2867 55bd
000001a0: ed25 ffbb 67cc 4d3b d0ae 1d3d 7b35 903d
000001b0: 6a7e a93d a2ae 50bd 3936 7bbd 5fe7 cbbc
000001c0: d32d b33d 5112 7d3d d127 44bd ca82 e83c
000001d0: 2162 57bd 7f30 863d 3e81 8e3d 5980 663d
000001e0: 5980 d53c cc31 0dbd c0a8 e0bc 2850 243d
000001f0: 6f5b 8e3d cdf4 b2bd 47f1 a03d 311c 64bd
00000200: ca21 d23c 9931 483d 5d94 963d 42cc 043d
00000210: 4a15 973d 9bc8 093d 2952 afbd 9e34 88bd
00000220: 495f 9e3d d694 e1bc be5d 90bd 46b3 8bbd
00000230: abed 78bd 22c4 8bbd 1598 1e3d 3358 b4bd
00000240: 3e00 5bbd 36e9 823d c639 503b 9435 063d
00000250: 894d b13d 1c26 d83c 9966 813d 2faa 3bbd
00000260: 2983 a03d 22e8 a03d a792 1f3d ad99 bfbc
00000270: 79f1 fd3c d893 54bd af04 b53c 41d8 4c3d
00000280: 7709 66bd 813a e93b 4cbb d23a d1cd ef3c
00000290: f300 b53c 5030 b0bd 04d9 80bd c1a2 203d
000002a0: 12d8 5abb 8287 09bc cfd5 83bc 5129 a5bd
000002b0: 7657 78bd 499f 9a3c aaf0 a63d 8d1d 6a3d
000002c0: 1205 dd3c 1b06 0cbd 63a9 ab3d 2a9c 413c
000002d0: 030e 1b3d 34b2 acbd 337d 883d 3f22 a33d
000002e0: 2ab5 823d f0cb 823d f1f6 733d 4461 08bd
000002f0: 490b cbbc 4232 a0bd 7143 61bd 492d 1aba
00000300: 119c 16bd 7d45 fe3c 166f 73bd c6ab 3739
00000310: 8b46 c8bc 901b 3cbb ad91 a2bd 2ebf 5e3d
00000320: 4b6e 493c ab54 2c3d 2fa4 3f3d 4fed af3b
00000330: 6bca 33bd 71cb 383d 68ab 05bd 9ee4 673b
00000340: 8517 87bd 87bc a63d ed53 193d 6904 a73d
00000350: fabf f93c 42af 8abd ce80 3d3d a203 1cbd
00000360: cd91 a33c 50df 503d 9e8d ad3d 4fae 12bd
00000370: f929 613d 88af 95bb 3e90 8d3d 6480 12bd
00000380: 9210 bebc 9836 3fbd 1b72 1abd 08f5 81bd
00000390: e039 833d b19b dc3c 055b 633c 216b 98bd
000003a0: 1c27 ad38 b551 a93d 3d80 af3c 250e 883d
000003b0: db24 7d3d 5f25 6f3d e073 6cba c38d 7bbc
000003c0: 7a9b 153d 3f73 1e3d 3896 3d3c 1038 193d
000003d0: 8592 5cbd 6673 8f3d d191 823d deb3 66bd
000003e0: acaa dc3b 6b6f 5a3b 7588 a6bd fbb6 713d
000003f0: fbb6 893d 1b60 273c 7e63 8d3c 8224 873d

conv_spatial.mlp.0.weight f4 [256, 2]
0.12847008 -0.27335894 0.21660759 -0.18039908 0.23241861 0.20737079 1.6781013 2.0089684
-0.19941531 -0.025224432 0.13829486 -0.3054019 0.27212209 -0.21846738 -0.040757693 0.2148043
-0.00045590446 -0.00041607113 0.22892445 -0.19967756 0.15605453 0.11796627 0.017346296 0.33491147
0.2531913 -0.011307901 0.2349516 0.25634313 -0.18174626 0.27382866 0.23851748 0.26899788
-0.033212066 -0.23631753 0.24159427 -0.23027317 0.04516675 0.2592315 -0.101268366 -0.1898348
-0.1682969 0.0071786684 0.18777798 -0.12217134 -0.25639713 -0.07621252 0.26803932 0.21575062
-0.14705756 0.21702777 4.390564 -0.3963227 -1.3877572 1.6895136 -1.1794499 -0.70462066
0.2881054 0.08134302 0.08971764 0.21014194 0.10072773 -0.3106091 2.6151593 -1.4395221
-0.12685694 0.27715147 -1.2158657 -2.7044919 -0.0006886445 0.00030173393 0.29465267 0.16383272
-0.027850246 0.28633153 0.19012083 0.28875288 0.00018480864 0.00038173902 1.1446722 -1.8064814
-0.21114387 0.28779912 -0.272285 0.20904063 0.051087808 -0.00011079881 0.10911849 0.24235085
0.011329256 0.29620743 -0.26650915 -0.15251651 -0.28437272 -0.16606916 -0.007073006 0.31219473
0.17730421 0.2195252 0.02530189 -0.31274477 -0.110881604 -0.25264102 0.04134554 -0.32455155
-0.26825753 0.2392646 -0.17659448 0.026015906 -0.20545387 0.02061397 0.58581024 -1.2400483
-0.2780777 0.18066296 -0.18610892 -0.23169136 -0.10259158 0.31264144 0.27367848 -0.17541224
0.24309354 0.1629345 -0.20015447 0.07006679 -0.16562979 0.26826355 -0.21824549 0.25827804
0.21712478 -0.2423914 -0.09879489 -0.29808322 -1.7307423 -1.8179349 -0.16713026 -0.23026584
0.06876375 0.29260403 0.00083808025 -0.0021479817 0.11535997 -0.28128973 0.26288992 0.2421394
0.24863516 0.026637472 0.15067764 0.24374953 0.30581534 -0.013888333 0.24301498 0.19904658
-0.13994473 0.19483417 0.09030873 0.24472003 0.034772944 -0.16327834 0.09112064 -0.16948608
-0.16786338 -0.07182261 -0.1250355 0.32142586 0.25706843 0.14787675 0.1282884 0.23378766
0.12674169 -0.1885754 -0.052012876 -0.12950416 -0.044919856 0.14126292 0.23549032 -0.15380543
0.23974915 0.10879207 -1.1437298 0.81000555 0.29758576 0.1686585 0.27098593 0.25796455
-0.09231736 0.23630916 0.2695698 0.21944575 0.22826053 -0.217556 -0.10506083 0.24321054
-0.00031679883 0.0024721182 0.26652044 -0.13257253 -0.15777948 -0.10864117 -0.18985388 -0.12647912
-0.26388237 -0.2484445 0.26784435 0.15054248 0.21254994 0.20142888 0.000270779 -0.00032109427
0.22253618 0.04979609 -0.27182338 0.1664427 -0.06352045 0.061894413 -0.10937143 -0.25654253
-3.592712 -0.46521795 0.11501435 0.26939946 0.07989107 -0.31599858 -0.2395217 -0.16523117
0.20791303 0.2952339 -0.25160536 0.24824908 0.012406759 -0.27235287 -0.19132178 -0.29291546
-0.0013157245 0.0013886915 0.30306467 -0.15181045 -0.27692536 -0.14204437 -0.26602548 0.04957102
0.27047688 -0.10088328 0.1901616 0.24210413 0.019780079 0.31224948 0.02286096 0.050789714
-0.1740687 0.1780177 0.28516242 0.22880779 0.1891282 -0.10855231 0.07241202 0.30850795
00000000: a98d 033e b4f5 8bbe 61ce 5d3e 89ba 38be
00000010: 25ff 6d3e 0259 543e 06cc d63f f092 0040
00000020: 8733 4cbe 78a3 cebc 2b9d 0d3e a35d 9cbe
00000030: 9653 8b3e eab5 5fbe 8af1 26bd a9f5 5b3e
00000040: 7606 efb9 1f24 dab9 2c6b 6a3e 4678 4cbe
00000050: c2cc 1f3e 4d98 f13d d219 8e3c 8479 ab3e
00000060: 4aa2 813e c644 39bc 2797 703e 683f 833e
00000070: b11b 3abe 4533 8c3e ed3d 743e 17ba 893e
00000080: 6009 08bd 39fd 71be 7d64 773e bbcc 6bbe
00000090: c500 393d feb9 843e ca65 cfbd 0e64 42be
000000a0: 0656 2cbe 093b eb3b df48 403e f834 fabd
000000b0: 7c46 83be 4f15 9cbd 733c 893e bbed 5c3e
000000c0: 4296 16be 873c 5e3e 807f 8c40 cfea cabe
000000d0: 07a2 b1bf fb41 d83f 37f8 96bf 0562 34bf
000000e0: 8d82 933e 2b97 a63d e2bd b73d 732f 573e
000000f0: 574a ce3d 2808 9fbe c55e 2740 4342 b8bf
00000100: c9e6 01be cce6 8d3e 7da1 9bbf 6516 2dc0
00000110: 2686 34ba 0b32 9e39 b7dc 963e c4c3 273e
00000120: 3326 e4bc 0c9a 923e 09af 423e 6bd7 933e
00000130: 31c9 4139 2524 c839 9e84 923f c83a e7bf
00000140: 1936 58be 685a 933e f168 8bbe bf0e 563e
00000150: 7341 513d a85c e8b8 8479 df3d d22a 783e
00000160: 589e 393c 80a8 973e e373 88be 4a2d 1cbe
00000170: 4d99 91be 090e 2abe adc4 e7bb fdd7 9f3e
00000180: 3c8f 353e 37cb 603e e945 cf3c 1520 a0be
00000190: e515 e3bd 2a5a 81be f159 293d 9f2b a6be
000001a0: 0d59 89be c801 753e 2fd5 34be 4f1f d53c
000001b0: 8062 52be a1de a83c a9f7 153f e7b9 9ebf
000001c0: 3360 8ebe b6ff 383e 5693 3ebe 8040 6dbe
000001d0: 891b d2bd 8a12 a03e 961f 8c3e 449f 33be
000001e0: 83ed 783e 4dd8 263e 4bf5 4cbe 2d7f 8f3d
000001f0: db9a 29be d759 893e bf7b 5fbe 053d 843e
00000200: f555 5e3e 7335 78be fa54 cabd 5d9e 98be
00000210: f788 ddbf 17b2 e8bf 3224 2bbe cfca 6bbe
00000220: 02d4 8c3d 32d0 953e 9db2 5b3a 27c5 0cbb
00000230: d941 ec3d 3505 90be 8299 863e 64f3 773e
00000240: 379a 7e3e d436 da3c 3d4b 1a3e 7a99 793e
00000250: d493 9c3e e48b 63bc ebd8 783e ded2 4b3e
00000260: ac4d 0fbe 9c82 473e c9f3 b83d e397 7a3e
00000270: 136e 0e3d 7032 27be 759d ba3d c28d 2dbe
00000280: 61e4 2bbe bc17 93bd 4e09 00be ee91 a43e
00000290: 799e 833e 016d 173e 095e 033e 0866 6f3e
000002a0: 93c8 013e e919 41be 740b 55bd bd9c 04be
000002b0: e2fd 37bd 3aa7 103e 6024 713e 2c7f 1dbe
000002c0: cd80 753e 60ce de3d bd65 92bf 865c 4f3f
000002d0: 295d 983e d0b4 2c3e abbe 8a3e ee13 843e
000002e0: e210 bdbd 07fb 713e 0e05 8a3e 63b6 603e
000002f0: 21bd 693e 00c7 5ebe 222a d7bd 2f0c 793e
00000300: 0518 a6b9 4303 223b 5e75 883e 18c1 07be
00000310: f290 21be 437f debd 0e69 42be be83 01be
00000320: 971b 87be 3c68 7ebe e522 893e cf27 1a3e
00000330: b1a6 593e 5f43 4e3e 58f7 8d39 8b58 a8b9
00000340: 86e0 633e fcf6 4b3d 6f2c 8bbe f56f 2a3e
00000350: 0217 82bd ff84 7d3d 21fe dfbd 8b59 83be
00000360: feee 65c0 0c31 eebe a58c eb3d baee 893e
00000370: ee9d a33d 91ca a1be 2d45 75be 5c32 29be
00000380: 27e7 543e e628 973e 6bd2 80be 0235 7e3e
00000390: b845 4b3c d671 8bbe dbe9 43be 04f9 95be
000003a0: 6374 acba c104 b63a 4b2b 9b3e 3374 1bbe
000003b0: 29c9 8dbe 1474 11be 7e34 88be fb0a 4b3d
000003c0: f27b 8a3e e59b cebd b9b9 423e 25ea 773e
000003d0: d509 a23c 2adf 9f3e e846 bb3c e008 503d
000003e0: 113f 32be 464a 363e cf00 923e 974c 6a3e
000003f0: d3aa 413e ac50 debd c14c 943d c1f4 9d3e

conv_spatial.mlp.2.weight f4 [256, 256]
0.048170414 0.11492324 0.36029863 -0.119055614 -0.26199073 -0.018482167 0.12087704 -0.0176074
0.011721206 0.073411494 0.23543666 0.03532948 0.26706332 0.25048906 -0.031445265 0.21518618
-0.14435981 0.029590648 0.14414467 -0.09867803 -0.17500092 0.12596639 -0.28476137 0.37173632
0.035781946 -0.4651174 0.07878397 -0.115402594 0.3886274 0.055985365 0.003237759 -0.35601875
0.018389618 0.110974565 0.04013903 0.37860146 0.0066663227 0.16562028 0.046172787 -0.024543874
-0.055190735 -0.08583079 0.22373347 0.15726897 0.13808551 -0.3258394 -0.21898831 0.045233376
0.21470466 -0.06209067 -0.12697394 -0.09628369 -0.12720501 -0.16508754 -0.19172306 -0.03715686
-0.13415837 -0.22034739 -0.014003228 0.09050853 0.365043 -0.12909077 0.008754989 -0.1280225
0.07242992 -0.14572991 0.041478552 -0.21498987 0.07728134 -0.04060589 -0.025319455 0.24575314
0.23067406 0.16752787 0.22580361 0.30356112 -0.05973937 0.1066622 0.01592056 -0.0009750474
-0.3077902 0.04369429 0.39947668 0.21243432 0.02398124 -0.12239397 0.032314304 0.1475908
0.3513785 -0.0062444527 0.29834026 0.29034796 0.07387044 0.357645 0.07269338 0.045965623
0.12091181 0.17461045 -0.21665238 -0.25785795 -0.33463904 0.3726227 0.23027217 0.049355276
0.2991295 -0.071617424 -0.063263826 -0.0829237 0.24377589 0.17148449 0.007654658 -0.24404322
0.22798699 -0.022273295 -0.10934079 -0.23186767 0.032645885 0.16403477 -0.3520735 -0.21808438
0.12775443 0.19206856 0.08056114 0.07814938 -0.021947669 0.36159527 0.09508029 0.09441785
-0.10179633 0.40055838 0.09406856 -0.13546747 -0.015126693 0.16100739 -0.03571465 0.16026276
-0.104587525 -0.0038373186 0.08589676 0.25401986 -0.087080926 -0.124714285 0.02107061 0.087252356
-0.092387885 -0.056015003 0.06613064 -0.06746321 -0.19389313 0.09089923 0.27019632 0.11557281
0.16508509 0.015072745 0.10978269 0.17014647 -0.059938144 -0.04308087 -0.36522555 -0.22834064
-0.24973515 0.22558382 -0.043643188 0.23653993 0.1627496 0.20587154 0.2370302 -0.36164665
0.14659573 -0.24361074 -0.0017779521 0.298307 0.16635908 -0.07732259 0.2267857 -0.042349495
-0.10461197 -0.11247429 0.022868406 -0.18363126 -0.20144044 -0.018637054 -0.13045341 0.2587081
-0.008747399 0.030416666 0.04587797 0.27035543 -0.036365844 -0.15862626 -0.20112151 0.3868368
-0.2973483 0.021909649 -0.07451882 -0.36072212 -0.22739926 0.06278638 0.017181018 -0.1177693
0.034946162 0.13774548 -0.092516 0.121007435 0.110981986 0.1115495 -0.023991285 -0.12068702
-0.2571633 0.27508095 -0.07752097 -0.02413815 0.006437079 0.038310282 -0.16525196 -0.25020513
-0.12039372 0.106883906 -0.195944 -0.08451469 -0.03941252 0.085206755 0.037248727 0.24840619
0.06770302 0.15781683 -0.18322821 0.20502447 0.047295168 -0.08031757 0.0860977 -0.17066264
-0.03530481 -0.30376217 -0.07905113 0.25759804 0.20049754 0.031278934 0.3483835 0.0057815127
-0.0630049 0.19595237 0.32848838 -0.3425558 -0.0111720385 -0.08942829 -0.09568093 0.07892677
-0.0061153006 -0.048902612 0.101039335 0.37005943 -0.052620612 -0.31906903 -0.053731006 0.056043483
00000000: 574e 453d e05c eb3d 1079 b83e 6ed3 f3bd
00000010: a623 86be ea67 97bc 628e f73d 653d 90bc
00000020: 4d0a 403c c458 963d 4f16 713e a5b5 103d
00000030: 86bc 883e 1a40 803e c0cc 00bd c459 5c3e
00000040: 0fd3 13be 1668 f23c a99a 133e b517 cabd
00000050: 7133 33be 55fd 003e 3ecc 91be 3954 be3e
00000060: 1790 123d de23 eebe 7d59 a13d 3258 ecbd
00000070: 2cfa c63e e950 653d 9530 543b 1748 b6be
00000080: d3a5 963c a246 e33d d368 243d 0dd8 c13e
00000090: 2b71 da3b 5d98 293e ad1f 3d3d 3c10 c9bc
000000a0: ae0f 62bd 0ec8 afbd 631a 653e 1e0b 213e
000000b0: 4a66 0d3e 6cd4 a6be 793e 60be a246 393d
000000c0: 8adb 5b3e c952 7ebd 7505 02be 6230 c5bd
000000d0: 0842 02be b50c 29be 0d53 44be cb31 18bd
000000e0: d060 09be bfa2 61be cc6d 65bc 895c b93d
000000f0: ebe6 ba3e 5f30 04be 1671 0f3c 5518 03be
00000100: 2356 943d 393a 15be 6ae5 293d 4e26 5cbe
00000110: ae45 9e3d 5d52 26bd bf6a cfbc b6a6 7b3e
00000120: d235 6c3e 6d8c 2b3e 1039 673e 5d6c 9b3e
00000130: 45b1 74bd b671 da3d d66b 823c 539a 7fba
00000140: ad96 9dbe c9f8 323d 3588 cc3e 6288 593e
00000150: 4e74 c43c b1a9 fabd 015c 043d 0b22 173e
00000160: e2e7 b33e 449e ccbb 0ec0 983e 7da8 943e
00000170: 6349 973d 3f1d b73e 44e0 943d 7346 3c3d
00000180: 9ca0 f73d 15cd 323e 1fda 5dbe f505 84be
00000190: cf55 abbe 67c8 be3e 78cc 6b3e c228 4a3d
000001a0: 8027 993e 28ac 92bd 7790 81bd e7d3 a9bd
000001b0: 63a0 793e a199 2f3e edd3 fa3b 77e6 79be
000001c0: 6c75 693e 7c76 b6bc 10ee dfbd b86e 6dbe
000001d0: b1b7 053d bbf8 273e fa42 b4be 8351 5fbe
000001e0: 0fd2 023e 9fad 443e 3dfd a43d c80c a03d
000001f0: 99cb b3bc 0423 b93e 75b9 c23d 255e c13d
00000200: 987a d0bd fd15 cd3e 04a7 c03d fcb7 0abe
00000210: f3d5 77bc 1fdf 243e 8649 12bd ec1b 243e
00000220: fc31 d6bd 867b 7bbb a4ea af3d e40e 823e
00000230: 7c57 b2bd 346a ffbd 469c ac3c 5db1 b23d
00000240: dc35 bdbd fd6f 65bd 806f 873d 272a 8abd
00000250: ec8b 46be 6029 ba3d 2c57 8a3e 70b1 ec3d
00000260: 110c 293e adf3 763c bfd5 e03d e03a 2e3e
00000270: b381 75bd 9175 30bd d8fe babe 21d2 69be
00000280: 92ba 7fbe 72ff 663e 33c3 32bd 8637 723e
00000290: d5a7 263e fdcf 523e 0bb8 723e c029 b9be
000002a0: 311d 163e 1875 79be 2c0a e9ba b2bb 983e
000002b0: 095a 2a3e 4e5b 9ebd 833a 683e aa76 2dbd
000002c0: cd3e d6bd ec58 e6bd 8656 bb3c d509 3cbe
000002d0: 6746 4ebe bcac 98bc 9495 05be 6375 843e
000002e0: 4051 0fbc 5f2c f93c 8aea 3b3d 076c 8a3e
000002f0: 5af4 14bd ec6e 22be ccf2 4dbe 790f c63e
00000300: 093e 98be dd7b b33c 539d 98bd 92b0 b8be
00000310: 5adb 68be 2596 803d 35bf 8c3c 0831 f1bd
00000320: b523 0f3d 270d 0d3e 0779 bdbd bfd2 f73d
00000330: 864a e33d 1074 e43d 5f89 c4bc c22a f7bd
00000340: e8aa 83be 69d7 8c3e 50c3 9ebd 5fbd c5bc
00000350: 22ee d23b 3eeb 1c3d cf37 29be e31a 80be
00000360: fc90 f6bd f3e5 da3d 8ba5 48be 0a16 adbd
00000370: 066f 21bd e180 ae3d 1f92 183d 315e 7e3e
00000380: e2a7 8a3d bc9a 213e 2da0 3bbe eff1 513e
00000390: 94b8 413d 8a7d a4bd fe53 b03d 30c2 2ebe
000003a0: c79b 10bd b786 9bbe 8fe5 a1bd e4e3 833e
000003b0: 3a4f 4d3e 571e 003d 525f b23e d872 bd3b
000003c0: b708 81bd bda7 483e a12f a83e 7963 afbe
000003d0: ed0a 37bc 2e26 b7bd 5df4 c3bd 5ca4 a13d
000003e0: dc62 c8bb 1b4e 48bd b6ed ce3d 6e78 bd3e
000003f0: b688 57bd 045d a3be 0b15 5cbd da8d 653d

conv_spatial.mlp.4.weight f4 [2, 256]
0.37178183 -0.1939041 0.08152261 0.18379684 -0.3845165 -0.20005457 -0.43393117 -0.0044223815
-0.10289072 -0.0013008219 0.27705416 0.25166553 -0.21090972 0.25241455 0.19264111 0.036965605
-0.33652696 -0.3133722 0.21708685 0.2771414 -0.12723874 -0.025980996 -0.09208857 -0.3391822
0.81084716 -0.045696862 0.866743 0.2743469 0.099051334 -0.45076331 -0.10612072 0.513506
-0.42754483 -0.78983235 8.784642e-05 -0.17828698 0.4404513 0.026807275 -0.034900464 0.2835576
0.16187298 -0.011526114 -0.17485185 -0.34773344 0.05891929 0.019981384 0.20754878 0.21293873
0.492714 -0.3238417 -0.27433336 -0.0056099514 0.33020818 -0.2303131 -0.23057573 0.33389577
0.17927633 0.00056173163 -0.07207317 -0.20587403 0.23225512 -0.12497393 0.4750983 -0.00021134593
0.069718525 -0.09191084 0.055010535 0.00012301502 0.109103344 -0.24052434 0.0064941393 0.06423986
-0.91730326 -0.14429587 0.36596742 0.32685417 0.0018033232 -0.09081131 -0.00015178444 0.16740447
-0.07907533 -0.26063392 -0.13248776 -0.4528598 -0.14595322 -0.79533136 0.20297547 -0.23920561
0.00022434877 0.05591848 0.22088529 -0.27675048 0.040043365 -0.29619935 0.35209903 -0.31491435
-0.23843881 0.083082 -0.16667926 -0.29159528 -0.17537649 0.0005320822 0.2715985 0.10503629
-0.05683845 0.26478347 0.0002319503 -0.86950934 -0.28864202 -0.19902726 0.015514728 -0.407467
-0.30460477 0.26822853 -0.49678662 -0.23202214 0.36501107 -0.106865704 -0.06299858 0.46639916
4.6874946e-05 0.25346586 -0.03945084 -0.7517089 -0.048949312 -0.4967668 -0.14819843 -0.34020343
-0.052535165 0.30769047 -0.6660545 -0.021805737 0.19140112 -0.18817084 0.0002798519 0.0077597094
0.3139157 0.39643994 0.3543165 0.3536756 0.33288544 -0.2482786 -0.32710087 -0.007901427
-0.33292183 -0.73876685 0.4075394 -0.81186324 0.3855659 0.068460524 -0.28319594 -0.2230565
0.21406122 -0.70097744 -0.12300691 -0.51367354 -0.21091665 -0.044902623 0.12678392 -0.106651016
-0.0003861705 -0.3029222 0.8332444 -0.14905627 -0.19237871 -0.15838759 8.248926e-05 0.15641378
0.000103156315 -0.20443268 0.7798982 0.087834254 -0.13891785 0.13124593 0.3225526 0.13734297
0.14983803 0.12830822 -0.14801705 0.066243425 -0.0002532086 0.3268532 -0.015695343 -0.3500683
0.0006862134 0.82126 -0.00047786537 -0.5486516 0.18823805 -0.012164272 -0.07865928 0.918609
0.00017870218 0.108349 -0.1573019 0.3042813 0.18098746 0.26930475 0.26209486 -0.32405597
0.17474593 0.0004994696 0.25570044 0.16792174 -0.21197422 0.042165607 -0.23080112 -0.35903412
0.20892827 0.14696983 0.001116372 -0.32727614 -0.39592168 -0.19188613 0.041789714 0.106155865
-0.8395773 -0.02077764 -0.085316874 0.058285266 -0.7251377 0.14292309 0.16626175 0.13371907
-0.24840495 0.07007299 0.0035033822 -0.16507305 -0.27974814 -0.48279747 0.19140084 6.565599e-05
0.20621602 0.3966255 -0.23499858 0.1629498 0.11646001 -0.38343924 -0.16595662 0.13919567
0.27802807 0.18025921 0.26281977 0.22178935 -0.35274985 0.804291 -0.06305624 0.38130265
-0.33555502 0.0005095917 0.03807004 0.26440877 -0.3129666 -0.3032091 -0.025520476 0.066115655
00000000: 305a be3e cc8e 46be 53f5 a63d 3d35 3c3e
00000010: 59df c4be 1bdb 4cbe 3a2c debe a0e9 90bb
00000020: 5fb8 d2bd 5780 aaba 0bda 8d3e 4eda 803e
00000030: b8f8 57be 7b3c 813e b643 453e 3f69 173d
00000040: 434d acbe 5272 a0be 044c 5e3e 7ae5 8d3e
00000050: df4a 02be 19d6 d4bc ef98 bcbd 4aa9 adbe
00000060: ae93 4f3f a22c 3bbd dfe2 5d3f 3277 8c3e
00000070: 6ddb ca3d 73ca e6be d255 d9bd 2175 033f
00000080: 28e7 dabe 7432 4abf 303a b838 dd90 36be
00000090: d582 e13e ee9a db3c caf3 0ebd 762e 913e
000000a0: 08c2 253e 07d8 3cbc 5d0c 33be 1e0a b2be
000000b0: 5a55 713d 00b0 a33c ab87 543e 9c0c 5a3e
000000c0: 0245 fc3e 94ce a5be 6c75 8cbe afd3 b7bb
000000d0: 0c11 a93e 33d7 6bbe 0b1c 6cbe 63f4 aa3e
000000e0: 3794 373e 2c41 133a 199b 93bd a4d0 52be
000000f0: 49d4 6d3e 55f2 ffbd 1640 f33e be9c 5db9
00000100: 96c8 8e3d c03b bcbd ba52 613d 98fd 0039
00000110: 9371 df3d 034c 76be cacc d43b 3090 833d
00000120: 63d4 6abf 4cc2 13be 1560 bb3e 6e59 a73e
00000130: 7c5d ec3a 48fb b9bd 5328 1fb9 146c 2b3e
00000140: 3ff2 a1bd cf71 85be dfaa 07be 3ddd e7be
00000150: c374 15be d69a 4bbf cdd8 4f3e 51f2 74be
00000160: 2a3f 6b39 c70a 653d c12f 623e 3db2 8dbe
00000170: 8304 243d 71a7 97be 5346 b43e 743c a1be
00000180: 4e29 74be e526 aa3d f8ad 2abe fa4b 95be
00000190: e595 33be 6f7b 0b3a f50e 8b3e 441d d73d
000001a0: 6fcf 68bd b391 873e af37 7339 2a98 5ebf
000001b0: e3c8 93be cdcd 4bbe 7c31 7e3c 849f d0be
000001c0: 28f5 9bbe 4055 893e d15a febe 3697 6dbe
000001d0: bbe2 ba3e 68dc dabd 6605 81bd dfcb ee3e
000001e0: 979b 4438 47c6 813e 3497 21bd ff6f 40bf
000001f0: 137f 48bd 3858 febe 54c1 17be 252f aebe
00000200: 1d2f 57bd 9b89 9d3e 8c82 2abf f2a1 b2bc
00000210: a8fe 433e dbaf 40be 16b9 9239 2945 fe3b
00000220: 8fb9 a03e 2dfa ca3e f968 b53e f814 b53e
00000230: f66f aa3e bf3c 7ebe c479 a7be fd74 01bc
00000240: bb74 aabe d31f 3dbf 01a9 d03e 45d6 4fbf
00000250: e568 c53e 0835 8c3d 0fff 90be ec68 64be
00000260: dd32 5b3e 4273 33bf 0ceb fbbd 1c80 03bf
00000270: 89fa 57be d0eb 37bd a5d3 013e d96b dabd
00000280: ed76 cab9 9e18 9bbe 814f 553f 35a2 18be
00000290: edfe 44be 5b30 22be 16fe ac38 ef2a 203e
000002a0: a055 d838 cd56 51be 69a7 473f 72e2 b33d
000002b0: 7b40 0ebe 5565 063e 9d25 a53e a3a3 0c3e
000002c0: 246f 193e 3b63 033e c891 17be a2aa 873d
000002d0: 15c1 84b9 4d59 a73e 8593 80bc 273c b3be
000002e0: 00e3 333a 183e 523f 018a fab9 6e74 0cbf
000002f0: 7ac1 403e a84c 47bc 1e18 a1bd f629 6b3f
00000300: 0062 3b39 15e6 dd3d c013 21be c2ca 9b3e
00000310: c754 393e 50e2 893e 4c31 863e aaea a5be
00000320: 99f0 323e d6ee 023a 2beb 823e adf3 2b3e
00000330: c50f 59be d8b5 2c3d 2157 6cbe 52d3 b7be
00000340: 4bf1 553e 427f 163e 3a53 923a bd90 a7be
00000350: 3fb6 cabe cc7d 44be b12b 2b3d 3f68 d93d
00000360: 8aee 56bf df35 aabc 9dba aebd 88bc 6e3d
00000370: a0a2 39bf 6e5a 123e 8540 2a3e a7ed 083e
00000380: de5d 7ebe 6e82 8f3d 0099 653b e908 29be
00000390: 263b 8fbe 3b31 f7be 95fe 433e cbb0 8938
000003a0: 4b2a 533e 7f12 cb3e 78a3 70be 50dc 263e
000003b0: 9682 ee3d 2652 c4be 88f0 29be 4f89 0e3e
000003c0: b259 8e3e df95 383e 5090 863e bf1c 633e
000003d0: a19b b4be 04e6 4d3f a123 81bd 1a3a c33e
000003e0: decd abbe 1f96 053a 55ef 1b3d 9660 873e
000003f0: 283d a0be 393e 9bbe 5110 d1bc a567 873d

tail.0.weight f4 [256, 256]
0.04546357 -0.030831493 0.0067183375 0.05153264 0.06146325 -0.018614396 -0.05339876 0.031162545
0.0039344877 -0.006950371 0.015216805 0.0582233 -0.009663381 -0.005466409 -0.024049543 -0.0136407465
0.005036466 0.00075208396 0.038099475 0.03250692 0.04219503 0.060689643 0.044459723 0.05537086
0.0290054 0.055686057 -0.011394955 0.05121149 -0.053593867 -0.038097344 -0.01006671 0.013164207
0.027218208 -0.03674125 0.010403074 -0.022621058 0.049531303 0.05360595 -0.04258638 -0.032654107
-0.02128233 0.018485367 0.034373887 0.022724852 -0.021955974 0.052328795 -0.03641852 -0.05441434
-0.04478606 -0.025088139 -0.04563061 -0.049988978 -0.016835265 -0.05941256 -0.033952028 0.05189918
-0.0501682 -0.048657753 -0.026283115 0.043383755 -0.058275945 0.060703278 0.02780462 0.047573447
0.0054755583 -0.033436388 0.021475866 0.0067564026 -0.010904409 -0.021625645 -0.04209674 0.0072028413
-0.035627544 -0.056618847 -0.0037177578 -0.015231676 -0.05358567 -0.041536294 -0.041614763 0.062361717
-0.046600133 -0.05379489 0.029302746 0.011210412 -0.053108633 -0.035405457 0.06090405 -0.014758483
0.041079216 0.05893629 -0.05170974 -0.019841038 0.036317512 0.014913537 -0.033372775 -0.040245168
-0.034968033 -0.007289186 -0.03220582 -0.0034708306 -0.026920155 -0.061234795 0.060872674 0.03800237
0.0066841915 0.0021409467 0.053708635 0.033405438 0.029564403 0.049911655 0.010224864 0.050207637
-0.015978359 0.059163176 -0.0128763765 -0.05678135 -0.047252536 0.0017141402 -0.059703067 0.03665585
-0.016011722 0.051699705 0.03184072 0.007097833 0.0071309507 -0.055710427 -0.0071665123 0.028739333
0.03355941 -0.034737848 0.014498793 -0.051706903 -0.013419449 -0.058058225 -0.05853477 -0.014639139
0.0481646 -0.05168788 0.04635331 -0.0029016584 0.0394573 -0.022772588 -0.048331343 -0.044145115
-0.04970467 0.05609373 0.02173739 -0.011895321 0.049766153 -0.02353549 0.021116212 0.009134032
-0.02290602 0.033803463 -0.0050045922 -0.029296026 -0.05845063 0.045030035 -0.037165113 -0.014899835
0.035580136 0.038412564 -0.06198305 0.03981086 0.027999736 -0.015405744 -0.04435841 0.044551447
-0.06226243 -0.050877675 0.048055105 -2.1778047e-05 -0.050533637 0.05111257 0.025313228 0.0043148994
0.048386946 -0.025351211 -0.04802134 0.043056816 0.013163321 0.052379325 0.005844228 0.041165516
0.031823874 -0.0022380874 -0.06171132 -0.0016229451 0.030082762 0.041320324 -0.053617224 -0.05575732
0.030198656 -0.0552072 -0.023918644 0.045140333 -0.062113956 -0.051622108 0.017807074 -0.061386354
-0.041790344 0.05553616 0.020480141 -0.007644348 -0.0040096566 0.056266084 0.01846522 0.053740606
0.018605784 0.016176924 -0.0023460984 -0.037993856 0.026644692 -0.009893335 -0.0096172765 -0.048633114
0.006738767 -0.022227913 0.011188239 0.001505278 -0.019218132 0.006072119 -0.029677376 0.047172867
-0.0011051819 0.011642203 -0.011522107 -0.04406371 0.031010471 0.05801478 -0.03266932 0.027391307
0.037976034 -0.05514986 -0.008936867 -0.04167013 -0.011235781 0.005427256 -0.046525143 -0.008892156
-0.037071027 0.029354475 -0.01321432 0.0042997226 -0.00063639134 0.0029364452 0.04879544 0.009616397
-0.051343054 -0.0127067715 -0.037453465 0.055617154 -0.029720753 -0.02131062 -0.01659149 -0.040681094
00000000: 0238 3a3d 5492 fcbc 8025 dc3b e413 533d
00000010: e4c0 7b3d 387d 98bc a8b8 5abd 9848 ff3c
00000020: e0ec 803b f0bf e3bb e84f 793c 8e7b 6e3d
00000030: 2853 1ebc 901f b3bb 8c03 c5bc 707d 5fbc
00000040: f008 a53b 8027 453a 320e 1c3d fa25 053d
00000050: b2d4 2c3d b495 783d 661b 363d 8ecc 623d
00000060: bc9c ed3c 1017 643d e8b1 3abc 24c3 513d
00000070: 3e85 5bbd f60b 1cbd d8ee 24bc b0ae 573c
00000080: b8f8 de3c fe7d 16bd a871 2a3c cc4f b9bc
00000090: 56e1 4a3d ea91 5b3d 0e6f 2ebd 50c0 05bd
000000a0: 4858 aebc a06e 973c a2cb 0c3d 7829 ba3c
000000b0: 04dd b3bc b856 563d 962b 15bd 92e1 5ebd
000000c0: 9671 37bd a485 cdbc 2ae7 3abd 3ec1 4cbd
000000d0: 1cea 89bc 965a 73bd 4811 0bbd 3c94 543d
000000e0: 2c7d 4dbd 5a4d 47bd b04f d7bc 2ab3 313d
000000f0: c2b2 6ebd 00a4 783d 84c6 e33c 60dc 423d
00000100: 506c b33b 98f4 08bd 28ee af3c d064 dd3b
00000110: 68a8 32bc 4428 b1bc a26d 2cbd d005 ec3b
00000120: 30ee 11bd 2ae9 67bd a0a5 73bb 488e 79bc
00000130: a67c 5bbd f621 2abd 3e74 2abd 006f 7f3d
00000140: c8df 3ebd 0858 5cbd 500c f03c e0ab 373c
00000150: 7088 59bd 5005 11bd 8676 793d 90cd 71bc
00000160: ae42 283d 2e67 713d 98cd 53bd ac89 a2bc
00000170: acc1 143d e857 743c e4b1 08bd 1ed8 24bd
00000180: a43a 0fbd 20da eebb 40ea 03bd e076 63bb
00000190: a887 dcbc 56d1 7abd a055 793d 60a8 1b3d
000001a0: 1007 db3b 204f 0c3b 96fd 5b3d 24d4 083d
000001b0: 0c31 f23c 2a70 4c3d 3086 273c 86a6 4d3d
000001c0: 0ce5 82bc 1655 723d 70f7 52bc 9093 68bd
000001d0: e08b 41bd 00ad e03a 348b 74bd 7224 163d
000001e0: 042b 83bc 12c3 533d 6a6b 023d f094 e83b
000001f0: c0aa e93b 9e30 64bd 10d5 eabb c06e eb3c
00000200: 9875 093d 4649 0ebd 588c 6d3c 9eca 53bd
00000210: 40dd 5bbc 76ce 6dbd 28c2 6fbd 00d9 6fbc
00000220: 3e48 453d acb6 53bd f8dc 3d3d c029 3ebb
00000230: fa9d 213d 948d babc 16f7 45bd 82d1 34bd
00000240: 2097 4bbd 8ac2 653d 9c12 b23c 98e4 42bc
00000250: 98d7 4b3d 80cd c0bc e8fb ac3c e8a6 153c
00000260: 68a5 bbbc 8075 0a3d 90fd a3bb 38fe efbc
00000270: ee69 6fbd 6a71 383d 723a 18bd 701e 74bc
00000280: 7abc 113d 7e56 1d3d f0e1 7dbd b610 233d
00000290: b45f e53c 6068 7cbc 2ab1 35bd 947b 363d
000002a0: e406 7fbd 1c65 50bd 6ed5 443d 00b0 b6b7
000002b0: 5cfc 4ebd 6a5b 513d b05d cf3c 0064 8d3b
000002c0: 6431 463d 58ad cfbc 06b2 44bd 585c 303d
000002d0: f8aa 573c b48b 563d f080 bf3b 2c9d 283d
000002e0: c059 023d e0ac 12bb 02c5 7cbd 00b9 d4ba
000002f0: 2070 f63c 803f 293d bc9d 5bbd ca61 64bd
00000300: 2c63 f73c f220 62bd 08f1 c3bc 12e5 383d
00000310: 346b 7ebd b471 53bd 24e0 913c 4270 7bbd
00000320: 5a2c 2bbd e279 633d f8c5 a73c 707d fabb
00000330: 7063 83bb 4477 663d 6044 973c 1c1f 5c3d
00000340: 286b 983c 7885 843c 00c1 19bb 729f 1bbd
00000350: f845 da3c a817 22bc c891 1dbc 8433 47bd
00000360: e0d0 dc3b 5017 b6bc e04e 373c c04c c53a
00000370: 586f 9dbc a0f8 c63b f81d f3bc 5638 413d
00000380: c0db 90ba f0be 3e3c 38c7 3cbc 267c 34bd
00000390: ac09 fe3c e8a0 6d3d 44d0 05bd bc63 e03c
000003a0: c28c 1b3d d2e4 61bd f06b 12bc 4cae 2abd
000003b0: 4816 38bc 20d7 b13b 2691 3ebd 68b0 11bc
000003c0: cad7 17bd cc78 f03c e080 58bc b0e4 8c3b
000003d0: 80d3 26ba 6071 403b badd 473d 188e 1d3c
000003e0: 184d 52bd 1030 50bc ce68 19bd d0ce 633d
000003f0: f078 f3bc 9c93 aebc e0ea 87bc 38a1 26bd
