logs/M3D26_wmd_debug_lr2e5_bs1024_tscale10_r08_randommask8/score.pt (torch, 799589 bytes, 13 tensors)

embed.0.W f4 [64]
-45.075726 44.887077 16.722359 -13.418233 0.90137565 -47.247692 4.80163 -42.24242
-46.4356 -20.91976 52.011772 -20.230917 -4.8435373 63.17499 21.336948 -20.484158
16.324486 -44.5978 -46.027008 61.54174 44.44806 30.276207 10.715253 75.77321
15.0269165 -14.378873 1.0402926 -38.834106 49.17695 -26.239555 13.6162815 -80.1792
33.498856 18.516582 -60.622295 21.31203 39.612206 -27.713863 -2.6607068 -65.4937
-11.375788 -51.273605 39.081005 35.579517 -6.8859324 42.180252 56.88426 -19.176065
-29.759611 -18.985073 -24.293451 45.08132 -35.610264 -11.2035 17.01249 -28.427559
-16.251581 15.501262 -15.736497 0.47734168 -16.636583 37.469822 -19.15879 42.775288
00000000: 8b4d 34c2 5e8c 3342 64c7 8541 15b1 56c1
00000010: 8ec0 663f a3fd 3cc2 f4a6 9940 3df8 28c2
00000020: 0ebe 39c2 ab5b a7c1 0e0c 5042 ebd8 a1c1
00000030: 42fe 9ac0 31b3 7c42 12b2 aa41 8edf a3c1
00000040: 8c98 8241 2664 32c2 a81b 38c2 be2a 7642
00000050: d0ca 3142 ac35 f241 ad71 2b41 e28b 9742
00000060: 406e 7041 dd0f 66c1 4f28 853f 2056 1bc2
00000070: 32b5 4442 9cea d1c1 4adc 5941 c05b a0c2
00000080: d4fe 0542 f621 9441 3b7d 72c2 0a7f aa41
00000090: e672 1e42 feb5 ddc1 0549 2ac0 c6fc 82c2
000000a0: 3a03 36c1 2c18 4dc2 f352 1c42 6d51 0e42
000000b0: 8f59 dcc0 94b8 2842 7b89 6342 9568 99c1
000000c0: af13 eec1 6ee1 97c1 fd58 c2c1 4653 3442
000000d0: e970 0ec2 8941 33c1 9419 8841 a46b e3c1
000000e0: 3d03 82c1 2b05 7841 b1c8 7bc1 2166 f43e
000000f0: b917 85c1 19e1 1542 3445 99c1 e519 2b42

embed.1.weight f4 [128, 128]
0.23939607 -0.14578849 -0.25493878 0.068748295 -0.21022226 0.402183 -0.08428592 0.24630591
0.4457234 0.26127496 -0.45624626 0.075383104 0.14688452 -0.25756043 -0.097690046 0.13335496
-0.09377669 0.13313504 0.3281453 -0.34708017 -0.20360947 -0.18502532 -0.15511803 -0.32663995
-0.19498247 0.24673647 0.02726116 0.19333245 -0.2838864 0.17757015 -0.04207313 0.34056464
-0.2861522 -0.29122803 0.2926674 -0.1303092 -0.22673523 0.0805058 0.37276343 0.2673929
0.15767036 0.42590517 -0.41970554 -0.16250932 0.114321224 -0.22670089 -0.33535498 0.21992145
0.29224354 0.17137045 0.28081933 -0.19099364 0.20632492 -0.05490541 -0.35591474 0.32703534
0.05468329 -0.031688068 0.119544305 -1.3532985 0.08430214 -0.2785198 0.2777898 -0.43809927
0.008701185 -0.07142619 0.04602444 0.1533923 0.006104154 -0.07316345 -0.059033148 0.074007295
-0.06355884 0.06873491 0.028596507 0.12790108 0.05886391 0.13070701 -0.027152827 0.05922476
0.068706915 0.067264326 0.08076043 0.16656016 0.21415126 -0.032006714 0.19198143 0.22440235
0.114333615 0.0067155776 -0.08214298 0.25032955 0.10794707 0.04208281 0.18065847 0.10374371
0.1567005 4.994076e-06 0.15892768 -0.045753498 0.12218488 0.05884432 -0.0695167 0.17981993
0.07355374 0.0949804 0.15881741 0.122154914 0.09510485 0.20615475 0.091857426 0.00081291824
0.13350634 -0.03822816 -0.0013466139 -0.0279942 0.0075233295 0.19831122 -0.048925664 0.022762515
0.05951902 0.16540906 0.11945126 -0.08447896 0.017977638 0.15474541 -0.028218461 0.02278484
0.044728335 0.0110360505 0.10861739 0.020798933 -0.13364807 -0.050343223 0.019852316 -0.016241979
0.038818393 -0.008668972 -0.09712438 0.03501038 -0.048665635 0.012388586 -0.08727241 0.007145883
0.018762158 0.06323989 -0.051119 -0.050477047 -0.018789165 -0.026958497 -0.020617716 0.07147941
0.027310384 0.014170129 0.0058710882 0.0039724726 -0.06414282 -0.033975106 -0.07153362 -0.055182725
-0.034739595 -0.02759609 0.07256309 0.018312482 -0.005111258 -0.034718994 0.16120847 0.057072856
0.04862105 0.019454975 0.036647018 -0.037805755 -0.04941865 0.09774798 -0.0801719 -0.06836127
0.008913824 0.06756485 0.049198207 -0.00826501 -0.008463749 -0.02243963 -0.04217731 0.022452071
0.03269608 -0.016613109 0.010445256 -0.672536 0.077842064 -0.06386218 0.03692023 -0.097116016
0.0055809524 0.00930793 -0.052354995 -0.083324626 0.18997458 0.050520584 0.046329066 0.04638691
-0.08845867 0.042441946 0.05034591 0.091911115 0.01716926 0.027264085 -0.10198219 -0.017856417
-0.01986483 -0.0011751531 0.04169786 0.0145635065 -0.040723808 -0.022718368 0.019596934 0.042896688
-0.053313438 -0.0294228 -0.052644636 0.01402183 0.041185495 -0.041232556 0.002829727 0.070953466
0.024791911 0.07521956 -0.0075752265 -0.015746545 0.032241564 -0.053339604 -0.013013178 -0.021204697
0.023567313 -0.04880877 -0.014631781 0.07847691 0.0016245199 -0.0034583723 -0.015932227 0.00821376
0.05661197 -0.016748266 -0.04568896 -0.086054996 -0.020422583 -0.042703703 -0.0005995961 0.08147191
0.07765767 -0.11279653 0.038578 -0.04110015 0.027219394 -0.038673792 -0.03012474 0.047622804
00000000: 3e24 753e 9449 15be 5687 82be e8cb 8c3d
00000010: 8144 57be eeea cd3e 199e acbd 9e37 7c3e
00000020: dc35 e43e d5c5 853e 1c99 e9be 7562 9a3d
00000030: e568 163e f6de 83be b811 c8bd 348e 083e
00000040: fe0d c0bd 8d54 083e a902 a83e 7eb4 b1be
00000050: 007f 50be 4777 3dbe 43d7 1ebe 5a3d a7be
00000060: 7ca9 47be 7ca8 7c3e cc52 df3c f1f8 453e
00000070: 8f59 91be f3d4 353e e054 2cbd 7d5e ae3e
00000080: 8b82 92be d71b 95be 80d8 953e c66f 05be
00000090: 482d 68be 3ae0 a43d d9da be3e b9e7 883e
000000a0: 5774 213e 3e10 da3e a5e3 d6be d868 26be
000000b0: 3f21 ea3d 4724 68be a6b3 abbe 1733 613e
000000c0: f2a0 953e bc7b 2f3e 8dc7 8f3e d693 43be
000000d0: d746 533e 7fe4 60bd 753a b6be 2d71 a73e
000000e0: 96fb 5f3d 59cb 01bd a5d3 f43d e338 adbf
000000f0: 9aa6 ac3d 269a 8ebe 773a 8e3e 8c4e e0be
00000100: 6a8f 0e3c e547 92bd 2084 3c3d df12 1d3e
00000110: 5b05 c83b b8d6 95bd becc 71bd 2391 973d
00000120: 232b 82bd e3c4 8c3d 3943 ea3c 80f8 023e
00000130: 491b 713d 0fd8 053e 9b6f debc a995 723d
00000140: 36b6 8c3d e1c1 893d b965 a53d bf8e 2a3e
00000150: 784a 5b3e 7919 03bd c896 443e bbc9 653e
00000160: be27 ea3d 590e dc3b 943a a8bd 322b 803e
00000170: 5a13 dd3d 065f 2c3d 89fe 383e 9577 d43d
00000180: 1976 203e c992 a736 f0bd 223e 0568 3bbd
00000190: 113c fa3d be06 713d c65e 8ebd b722 383e
000001a0: 58a3 963d 1585 c23d 08a1 223e 5b2c fa3d
000001b0: 55c6 c23d 3b1a 533e bf1f bc3d 051a 553a
000001c0: e3b5 083e 2295 1cbd dd80 b0ba 1854 e5bc
000001d0: 4386 f63b 1912 4b3e 4766 48bd 7478 ba3c
000001e0: 37ca 733d fe60 293e dda2 f43d 4e03 adbd
000001f0: d745 933c 9575 1e3e 672a e7bc 46a7 ba3c
00000200: 0f35 373d 8dd0 343c cb72 de3d 8662 aa3c
00000210: 0adb 08be b234 4ebd 53a1 a23c e60d 85bc
00000220: 0900 1f3d 4e08 0ebc 26e9 c6bd 0b67 0f3d
00000230: 9e55 47bd 7ff9 4a3c e1bb b2bd 0328 ea3b
00000240: 19b3 993c ea83 813d 2862 51bd 05c1 4ebd
00000250: bceb 99bc 11d8 dcbc 7ce6 a8bc cc63 923d
00000260: 07ba df3c d429 683c 4262 c03b 842b 823b
00000270: 505d 83bd 7b29 0bbd 3880 92bd 4807 62bd
00000280: 1b4b 0ebd 3211 e2bc f59b 943d 0f04 963c
00000290: 577c a7bb 8135 0ebd d513 253e 3ac5 693d
000002a0: de26 473d 0a60 9f3c 2f1b 163d 35da 1abd
000002b0: 366b 4abd 1830 c83d 2a31 a4bd fe00 8cbd
000002c0: 4a0b 123c 715f 8a3d 0f84 493d f769 07bc
000002d0: 89ab 0abc 51d3 b7bc 1dc2 2cbd 68ed b73c
000002e0: 53ec 053d 3718 88bc 9422 2b3c 522b 2cbf
000002f0: a96b 9f3d 2dca 82bd ab39 173d c3e4 c6bd
00000300: 6ce0 b63b 4a80 183c 3172 56bd 1aa6 aabd
00000310: b288 423e acee 4e3d 8cc3 3d3d 3300 3e3d
00000320: d229 b5bd 9bd7 2d3d 8337 4e3d e53b bc3d
00000330: 8ca6 8c3c ee58 df3c 0adc d0bd 9f47 92bc
00000340: 91bb a2bc 9807 9aba 60cb 2a3d c69b 6e3c
00000350: 02ce 26bd df1b babc c089 a03c 70b4 2f3d
00000360: 315f 5abd 1508 f1bc e7a1 57bd d1bb 653c
00000370: 1fb2 283d 78e3 28bd f172 393b 0d50 913d
00000380: 6818 cb3c b60c 9a3d 9b39 f8bb e6fe 80bc
00000390: bb0f 043d a17a 5abd 3935 55bc 79b5 adbc
000003a0: 3d10 c13c b4eb 47bd 23ba 6fbc 81b8 a03d
000003b0: d8ed d43a dca5 62bb 4d84 82bc 0293 063c
000003c0: f4e1 673d a933 89bc 5924 3bbd 9a3d b0bd
000003d0: 434d a7bc 14ea 2ebd 372e 1dba bfda a63d
000003e0: fc0a 9f3d de01 e7bd f703 1e3d a258 28bd
000003f0: 35fb de3c 6968 1ebd 29c8 f6bc 2110 433d

embed.1.bias f4 [128]
-0.63349295 -0.60093486 -0.38121545 -0.37808684 -0.39136428 -0.18775992 0.25169104 -0.2573046
-0.61976767 -0.5436659 -0.43954283 -0.43546164 -0.5225706 -0.52612156 -0.46860316 -0.40831715
-0.50593007 -0.59123725 -0.31342214 -0.5479214 -0.011244586 -0.12638575 -0.38160807 0.41463646
-0.38681763 -0.5568927 -0.15810025 -0.48560125 0.12634267 -0.5547981 -0.56228894 -0.4711779
-0.39801997 -0.1918131 -0.41200292 -0.6599849 0.43571463 -0.0033375218 -0.4221806 -0.63212717
-0.5299242 -0.04028822 -0.14246468 -0.67189044 -0.3699873 -0.60675395 -0.36344004 -0.71947086
-0.30350736 -0.17774661 -0.36802125 -0.54997945 -0.39466628 -0.63641936 -0.5724629 -0.10214796
-0.615518 -0.68758756 -0.3386774 -0.5328258 -0.23668204 0.08039399 -0.57110876 -0.620584
-0.10792139 -0.4952651 -0.23584385 -0.6076166 -0.5432096 -0.46508592 -0.5010521 -0.3540565
-0.4264921 -0.69107914 -0.51674205 -0.37624833 -0.5555227 -0.13747407 -0.47917768 -0.46227735
-0.70082384 -0.3664912 0.6372324 -0.5042692 -0.49424228 -0.5914222 -0.43042204 -0.29133537
-0.6785884 -0.512385 -0.6164926 -0.14401108 -0.6878628 -0.23314863 -0.4913819 0.3573873
-0.30362034 -0.53913295 -0.4558811 -0.13052522 -0.46902892 -0.3529895 -0.44393122 -0.27580482
-0.74547625 -0.1451241 -0.5507955 -0.7514877 -0.5033398 -0.39764297 0.01530439 -0.08533739
-0.50103545 0.26128662 -0.57988405 -0.44584623 -0.38857886 -0.60367256 -0.20663835 -0.6575985
0.37604183 -0.43687308 -0.31080422 -0.47623786 -0.6108878 -0.30816698 -0.1821298 -0.70102155
00000000: 982c 22bf ded6 19bf ac2e c3be 9994 c1be
00000010: e660 c8be 2344 40be a6dd 803e 6ebd 83be
00000020: 18a9 1ebf b02d 0bbf c20b e1be d4f4 debe
00000030: 30c7 05bf e7af 06bf c1ec efbe f20e d1be
00000040: a284 01bf 535b 17bf de78 a0be 9444 0cbf
00000050: 363b 38bc 446b 01be 2262 c3be 3b4b d43e
00000060: f60c c6be 8590 0ebf 08e5 21be baa0 f8be
00000070: f95f 013e 4007 0ebf 2bf2 0fbf 3b3e f1be
00000080: 46c9 cbbe a76a 44be 0cf2 d2be c5f4 28bf
00000090: fd15 df3e 53ba 5abb 0e28 d8be 16d3 21bf
000000a0: 1da9 07bf 4305 25bd 43e2 11be 0301 2cbf
000000b0: fa6e bdbe 3a54 1bbf d014 babe 3e2f 38bf
000000c0: 5165 9bbe 3503 36be 486d bcbe 74cb 0cbf
000000d0: b311 cabe 61ec 22bf ee8c 12bf f332 d1bd
000000e0: 9692 1dbf bd05 30bf 2067 adbe 4667 08bf
000000f0: c75c 72be 9ba5 a43d 2f34 12bf 98de 1ebf
00000100: e405 ddbd 6393 fdbe 0d81 71be c38c 1bbf
00000110: c90f 0bbf be1f eebe f344 00bf e546 b5be
00000120: 2c5d dabe 90ea 30bf 3549 04bf 9fa3 c0be
00000130: bc36 0ebf 01c6 0cbe c756 f5be 9eaf ecbe
00000140: 3169 33bf bca4 bbbe aa21 233f c917 01bf
00000150: 530d fdbe 7267 17bf 4760 dcbe e929 95be
00000160: f8b7 2dbf aa2b 03bf 76d2 1dbf a477 13be
00000170: c717 30bf 84be 6ebe 6996 fbbe 78fb b63e
00000180: 2074 9bbe 9e04 0abf 3f69 e9be 67a8 05be
00000190: 8f24 f0be 0abb b4be f44a e3be 4a36 8dbe
000001a0: 88d7 3ebf 699b 14be ef00 0dbf 7f61 40bf
000001b0: e1da 00bf dc97 cbbe 44bf 7a3c 5fc5 aebd
000001c0: dc43 00bf 5cc7 853e 4873 14bf f545 e4be
000001d0: cff3 c6be 498a 1abf 0199 53be 6058 28bf
000001e0: 8e88 c03e d4ad dfbe bb21 9fbe 73d5 f3be
000001f0: 2563 1cbf 10c8 9dbe 3c80 3abe 2676 33bf

embed.3.weight f4 [128, 128]
-0.07145572 -0.02012705 0.056819566 -0.062857814 -0.06333826 -0.05501365 -0.03732844 -0.11364238
0.026784934 0.060375005 -0.08076537 -0.05845621 -0.11227644 0.041940305 0.04100876 -0.02930729
-0.005694713 -0.01821907 -0.08951208 -0.041135397 -0.032496683 -0.006046464 0.054185644 0.017161148
0.03469551 0.042581785 -0.052924104 -0.077093385 -0.12570208 -0.11391482 -0.062340327 0.040082622
-0.06833526 0.0067073 0.048093706 0.0048079705 -0.009838817 -0.042215724 0.0054591643 -0.05523244
-0.040224046 0.07330696 -0.06551391 0.012863422 0.007918307 -0.07706934 -0.046578433 -0.079496145
-0.05733638 -0.02802806 0.024347452 0.0036041127 -0.0108498195 -0.12346123 -0.09936452 -0.06775498
0.025895214 -0.02702773 -0.123474404 -0.05223859 0.0010983835 0.01265336 -0.07840623 -0.031114837
-0.045313563 -0.08257558 -0.010284237 -0.06399762 -0.04161906 0.023084333 -0.034773897 -0.004343834
-0.013176072 -0.074709944 0.014452539 0.004463294 0.047227573 -0.05876042 -0.07583369 0.00039890234
-0.012169411 0.052906994 0.02158421 0.010910324 -0.02307422 -0.044846937 -0.065562226 -0.0794125
0.021727785 -0.09949455 -0.04928416 0.0333107 -0.07589776 -0.071990125 0.03636477 -0.022760369
0.046210013 -0.052640136 0.033340603 0.00029187472 -0.012086075 -0.11243701 -0.08564477 -0.09333685
-0.023985876 -0.08487749 -0.057629567 -0.0050019906 -0.094024524 -0.008078073 -0.0994763 0.0096874675
-0.027570652 0.01320219 0.0051818797 0.011398296 -0.00811623 -0.042629186 -0.09002602 0.034636367
-0.06446978 0.037111837 -0.050836697 0.039968457 -0.069761306 -0.07669906 -0.06504278 -0.056878682
-0.08406043 -0.10576308 0.021592742 -0.014590295 0.05103959 -0.027724748 -0.025999615 -0.05689552
0.037975762 -0.014795952 -0.103625074 -0.038309563 -0.03781519 -0.1147339 0.05383388 -0.0660848
-0.09034846 -0.029675843 -1.3025128e-05 0.031716857 -0.028209908 -0.06091453 -0.026983896 -0.055083174
0.026581414 -0.064871766 -0.095891386 -0.024758039 0.03092258 -0.09081477 -0.039845508 0.004941615
0.016225358 -0.08893329 -0.07113534 -0.06135288 -0.0753864 -0.050708223 -0.104947515 0.029439932
0.015224533 -0.0526378 -0.103876404 0.08880625 0.010420304 -0.10284365 -0.018695813 0.021040233
-0.040990625 -0.07670465 -0.04825857 -0.07125358 0.013662429 -0.013503992 -0.048273686 -0.0026564682
-0.057054777 0.025103955 -0.04144672 -0.11700286 -0.1027622 -0.112774566 0.010093997 -0.024971686
-0.046319183 -0.0039933324 0.0060159652 -0.055967614 0.01868666 0.007856457 0.030100547 -0.12621468
-0.08204544 -0.025275353 0.033234913 0.011020638 0.09792775 -0.055984948 -0.0974907 0.0020237323
-0.05152051 -0.096905746 -0.032122444 0.023043705 -0.03776061 0.010096655 -0.071262725 0.018559119
-0.051047366 -0.075025156 0.036958054 -0.062864825 -0.12817262 -0.08136362 0.011553831 0.025608184
-0.105317615 -0.03783303 -0.12617287 0.012212487 -0.06264291 -0.027914817 -0.06362858 -0.016388964
0.063878566 -0.020935658 -0.026924077 0.039877377 -0.022203935 -0.063000955 -0.124473035 0.014142032
-0.050968245 0.010852381 -0.009593145 -0.004821029 -0.01601978 -0.051842254 -0.049646676 -0.065577105
-0.013916952 0.0003228769 -0.033919174 -0.024280796 -0.051091492 -0.003963703 -0.077105045 -0.11283274
00000000: 6057 92bd 7ce1 a4bc a2bb 683d 99bb 80bd
00000010: 7db7 81bd fe55 61bd b5e5 18bd 56bd e8bd
00000020: 146c db3c c84b 773d 5068 a5bd c76f 6fbd
00000030: 31f1 e5bd 99c9 2b3d cdf8 273d d815 f0bc
00000040: b79a babb 2940 95bc 1c52 b7bd 977d 28bd
00000050: 3e1b 05bd 6b21 c6bb c4f1 5d3d 8995 8c3c
00000060: e11c 0e3d 3d6a 2e3d f2c6 58bd 23e3 9dbd
00000070: 0cb8 00be 2c4c e9bd 9258 7fbd ad2d 243d
00000080: 5bf3 8bbd e9c8 db3b e8fd 443d 2e8c 9d3b
00000090: fd32 21bc 65ea 2cbd cae2 b23b 693b 62bd
000000a0: f8c1 24bd f621 963d 282c 86bd 1ac1 523c
000000b0: c9bb 013c 88d6 9dbd 07c9 3ebd e0ce a2bd
000000c0: 8dd9 6abd 1a9b e5bc 4f74 c73c fa32 6c3b
000000d0: 71c3 31bc 3ed9 fcbd a07f cbbd 1fc3 8abd
000000e0: 3322 d43c 4269 ddbc 26e0 fcbd 22f8 55bd
000000f0: a2f7 8f3a 0a50 4f3c 7293 a0bd 8be4 febc
00000100: b79a 39bd 631d a9bd 377f 28bc 2f11 83bd
00000110: bf78 2abd 5b1b bd3c 136f 0ebd b856 8ebb
00000120: 74e0 57bc 8701 99bd 58ca 6c3c d340 923b
00000130: b371 413d c4ae 70bd b24e 9bbd c423 d139
00000140: 3662 47bc 01b5 583d 5fd1 b03c 37c1 323c
00000150: 2606 bdbc 6cb1 37bd 7d45 86bd 05a3 a2bd
00000160: 78fe b13c ccc3 cbbd 30de 49bd cd70 083d
00000170: 4970 9bbd 8f6f 93bd 3af3 143d f473 babc
00000180: b646 3d3d 2f9d 57bd 2890 083d c306 9939
00000190: ac04 46bc 6045 e6bd 8666 afbd 6427 bfbd
000001a0: 077e c4bc 40d4 adbd fb0c 6cbd bde7 a3bb
000001b0: ee8f c0bd e559 04bc 3bba cbbd 2fb8 1e3c
000001c0: d9db e1bc 004e 583c c2cc a93b ebbf 3a3c
000001d0: f0f9 04bc f19b 2ebd 905f b8bd ddde 0d3d
000001e0: bb08 84bd 9502 183d 243a 50bd f7b5 233d
000001f0: 04df 8ebd 6614 9dbd 2635 85bd 9ff9 68bd
00000200: e027 acbd 509a d8bd 43e3 b03c 220c 6fbc
00000210: e40e 513d 031f e3bc 25fd d4bc 470b 69bd
00000220: 798c 1b3d b86a 72bc 6239 d4bd 7dea 1cbd
00000230: 1ae4 1abd 9bf9 eabd ea80 5c3d 7857 87bd
00000240: 9d08 b9bd c11a f3bc 8086 5ab7 89e9 013d
00000250: 7718 e7bc 8481 79bd 550d ddbc e59e 61bd
00000260: 44c1 d93c 7ddb 84bd b462 c4bd 5fd1 cabc
00000270: 5a51 fd3c 18fd b9bd 0b35 23bd 45ed a13b
00000280: 0beb 843c a822 b6bd 68af 91bd 284d 7bbd
00000290: 2f64 9abd 6db3 4fbd b9ee d6bd 032c f13c
000002a0: 5270 793c bc9a 57bd 27bd d4bd 0de0 b53d
000002b0: ecb9 2a3c b19f d2bd f627 99bc 915c ac3c
000002c0: c9e5 27bd 5417 9dbd c7aa 45bd 66ed 91bd
000002d0: 61d8 5f3c d93f 5dbc a1ba 45bd 2418 2ebb
000002e0: 45b2 69bd cfa6 cd3c 09c4 29bd 329f efbd
000002f0: fd74 d2bd 5af6 e6bd 4b61 253c 6c91 ccbc
00000300: 2fb9 3dbd 80da 82bb 9321 c53b 4c3e 65bd
00000310: c414 993c 5eb8 003c 6c95 f63c 6c3e 01be
00000320: 7107 a8bd 420e cfbc 5521 083d e88f 343c
00000330: 588e c83d 7950 65bd 34a9 c7bd 98a0 043b
00000340: 2c07 53bd 8576 c6bd d392 03bd 27c6 bc3c
00000350: dfaa 1abd 716c 253c 31f2 91bd 4b09 983c
00000360: 0b17 51bd caa6 99bd 5461 173d 46bf 80bd
00000370: af3f 03be f8a1 a6bd 484c 3d3c 41c8 d13c
00000380: c3b0 d7bd cff6 1abd 7633 01be e216 483c
00000390: ed4a 80bd 9dad e4bc b34f 82bd 2642 86bc
000003a0: c4d2 823d 4281 abbc e28f dcbc 7656 233d
000003b0: 07e5 b5bc a506 81bd b8eb febd fbb3 673c
000003c0: 14c4 50bd 2fce 313c 912c 1dbc b9f9 9dbb
000003d0: ea3b 83bc 8b58 54bd 505a 4bbd 4a4d 86bd
000003e0: ed03 64bc ce47 a939 d5ee 0abd 85e8 c6bc
000003f0: 5045 51bd f3e1 81bb 40e9 9dbd da14 e7bd

embed.3.bias f4 [128]
-0.07253863 -0.11586839 -0.12513797 -0.06641331 -0.009059317 0.2964543 -0.026184335 -0.13898037
-0.081524335 -0.08019378 -0.09344391 -0.077623874 0.0016935902 -0.13482101 -0.07984565 -0.1839625
-0.026433567 -0.016994648 -0.005444373 -0.055211738 -0.07685757 -0.11957835 -0.029664077 -0.089103356
-0.07928355 -0.12473366 0.300449 -0.07327756 0.17281748 -0.03923353 -0.0131493 -0.057954513
-0.020441294 -0.07122893 -0.10158665 -0.009825798 -0.09321598 -0.11222211 -0.1311086 -0.18186179
0.34452525 -0.12279774 0.0046348204 -0.10277071 -0.08710323 0.050869375 -0.14981414 -0.09398186
-0.05971661 -0.122078516 -0.062055636 -0.03488433 -0.09705466 -0.08213792 -0.11378783 -0.10238847
-0.26524252 -0.13920128 0.19222428 -0.067102045 -0.060932435 -0.161458 -0.033664104 -0.053436518
-0.09964576 0.42253426 -0.042533536 0.0953703 -0.17663194 -0.054824673 -0.18194659 -0.054037098
-0.17371145 -0.18745172 -0.101502456 -0.15131713 -0.14451803 -0.04676204 -0.048781253 -0.08901051
-0.15443762 -0.14083686 -0.1871225 -0.0592996 0.27932596 -0.09722039 0.00519823 0.27367768
-0.11016674 -0.12942621 0.024188057 -0.03063185 -0.12998557 0.4035078 -0.117274575 -0.028315382
-0.046888772 -0.054197248 0.11669775 -0.15720895 0.09415696 -0.041086845 -0.058102716 -0.1007568
-0.09968109 -0.056399267 -0.054991074 0.26417974 -0.1098888 -0.14919376 -0.07728277 -0.15066722
-0.08044559 -0.18526359 -0.01969345 -0.124933094 -0.017305147 -0.03581429 -0.084842965 -0.037201326
-0.09270337 -0.10925884 -0.18537565 -0.022541884 -0.028077804 -0.09409618 -0.09082196 -0.108830236
00000000: 228f 94bd 684c edbd 2b24 00be b403 88bd
00000010: 886d 14bc dcc8 973e 8880 d6bc df50 0ebe
00000020: 3bf6 a6bd a33c a4bd 855f bfbd 44f9 9ebd
00000030: 75fb dd3a 850e 0abe 1e86 a3bd aa60 3cbe
00000040: 358b d8bc 5c38 8bbc b666 b2bb b425 62bd
00000050: 8067 9dbd 7ee5 f4bd 1402 f3bc d27b b6bd
00000060: 6a5f a2bd 5c74 ffbd 74d4 993e 8c12 96bd
00000070: 11f7 303e 57b3 20bd 2970 57bc b661 6dbd
00000080: 8074 a7bc 79e0 91bd a90c d0bd 62fc 20bc
00000090: 05e8 bebd b5d4 e5bd 5541 06be fa39 3abe
000000a0: 9d65 b03e 627d fbbd b1df 973b 7379 d2bd
000000b0: 2e63 b2bd 685c 503d e168 19be 9079 c0bd
000000c0: 6799 74bd 4d04 fabd 0d2e 7ebd dfe2 0ebd
000000d0: 98c4 c6bd ed37 a8bd 9809 e9bd 0cb1 d1bd
000000e0: decd 87be c88a 0ebe 71d6 443e cc6c 89bd
000000f0: 4a94 79bd 3f55 25be 5fe3 09bd 40e0 5abd
00000100: 1413 ccbd 6956 d83e a537 2ebd 8151 c33d
00000110: 01df 34be d68f 60bd 3550 3abe 0156 5dbd
00000120: 6ae1 31be 58f3 3fbe 85e0 cfbd e1f2 1abe
00000130: 89fc 13be 8e89 3fbd dace 47bd 244b b6bd
00000140: e524 1ebe 8a37 10be 0a9d 3fbe 23e4 72bd
00000150: d003 8f3e 7c1b c7bd ea55 aa3b 7b1f 8c3e
00000160: 1a9f e1bd 4e88 04be 0826 c63c a5ef fabc
00000170: f01a 05be 9398 ce3e a72d f0bd a9f5 e7bc
00000180: 710e 40bd effd 5dbd 3bff ee3d 62fb 20be
00000190: 5dd5 c03d ae4a 28bd 1dfd 6dbd 9559 cebd
000001a0: 9925 ccbd eb02 67bd 523e 61bd 9142 873e
000001b0: 610d e1bd 40c6 18be 6e46 9ebd 8248 1abe
000001c0: a8c0 a4bd bdb5 3dbe 2854 a1bc ecdc ffbd
000001d0: 86c3 8dbc 01b2 12bd 26c2 adbd 6b60 18bd
000001e0: 44db bdbd 19c3 dfbd 1dd3 3dbe c2a9 b8bc
000001f0: 6c03 e6bc 7fb5 c0bd dd00 babd 63e2 debd

conv_spatial.mlp.0.weight f4 [256, 2]
0.9295049 0.8434846 -0.034239568 0.015168885 -0.032342628 -0.0071848785 0.22427948 0.10567597
-0.15879723 -0.7134536 0.07069957 -0.26697284 -0.90462106 -0.37330115 -0.016338026 -0.027125476
0.1220772 -1.0578475 -0.21044274 -0.043240353 -0.19310398 0.21908511 0.1260968 0.09921199
0.17147066 0.42783806 -0.20984602 0.25038567 0.023084572 0.5452675 0.6160563 -0.01753781
-0.7597386 0.30513373 -0.62524956 -0.6279832 0.3101468 -0.33057234 -0.03856317 -0.12391725
-0.120459184 0.18208425 0.40035808 0.40728295 0.035141326 0.014540291 0.32332364 -0.4972554
0.6274569 -0.068418086 0.004264664 0.046451773 0.3739962 -0.6444366 -0.3226632 0.16737972
-0.4018961 0.4478266 0.025716174 0.009963413 0.2584321 0.23645426 -0.83439153 0.8364494
0.66256475 0.3108837 -0.6157187 0.11090699 -1.0017047 -0.36634502 0.03667221 0.05411167
0.5741612 0.6513339 -0.060139317 -0.09860066 -0.2225656 0.25044954 -0.1796152 -0.08874229
-0.33978853 -0.28514826 -0.32219997 0.25822955 0.40389544 -0.20711239 0.51134413 -0.8468189
0.11149344 -0.21411423 0.024504088 -0.005901302 -0.32822162 -0.14068474 0.017682137 0.023611527
0.13496976 0.34042403 0.79980206 -0.22031693 -0.29075116 -0.7450957 -0.30860713 0.438666
-0.03333067 -0.016330298 -0.35430884 0.19902347 -0.965674 -0.19718541 -0.040213775 0.02143478
-0.14806272 -0.5857824 -0.058583487 -0.022545751 -0.27884898 0.7228818 0.8858537 -0.7324866
-0.8282375 0.4318617 0.08026092 -0.31745142 -0.019584436 -0.023522712 -0.18458994 -0.21856795
-0.6800646 -0.2492863 -0.012415494 0.013117067 -0.06172996 0.35201275 0.74303037 0.848006
-0.00025937884 0.031407986 -0.1878702 1.1387473 0.029205572 0.06826519 -0.30428362 -0.4399917
0.04448614 0.0013086941 0.49385846 -0.48182267 0.6052468 -0.3015313 -0.4269914 -0.29443517
-0.5221034 -0.023730867 0.6687433 0.6602958 -0.13259828 0.056717265 -0.3697499 0.17821474
-0.057427883 0.009372664 0.10245017 -0.5793848 -0.5062043 -0.5709856 0.15191215 0.106962375
0.10304295 0.006190896 -0.050248742 -0.013722746 0.019827217 0.0054706964 0.42614678 0.24252419
-0.13483192 -0.35612404 0.68500304 0.2836623 -0.57289904 -0.30268124 0.6546046 0.037401073
-0.015039671 0.03619327 0.17425083 -0.3957712 -0.5379645 0.5611564 0.6172309 0.045767937
0.004468818 -0.047722735 0.4256506 0.13364966 -0.01535876 0.43621367 0.13485764 0.7945883
0.5652988 0.22316849 0.31217074 -0.05571417 -0.39130765 -0.6796577 0.38088173 0.61256045
-0.078309655 -0.69870126 0.14874384 0.29329154 0.34165013 0.1049287 -0.84647197 -0.44850597
0.008368315 0.0010067709 -0.0751858 0.00927999 -0.0958055 0.0017364393 0.28091124 -0.023737483
0.83862233 -0.15885884 -0.5094863 -0.87320894 0.45603484 -0.4536289 -0.023377508 -0.3491429
-0.011263452 0.028959757 0.91550463 -0.3251804 0.01773405 -0.00056666747 -0.5934437 0.73573667
0.044382233 0.002662951 -0.06270306 0.47726768 -0.0605077 -0.07218364 -0.27608952 0.5087016
0.13461636 -0.2595691 0.028527783 -0.081530176 -0.08856688 0.12795469 -0.105563544 -0.4954826
00000000: 08f4 6d3f 9bee 573f ca3e 0cbd ea86 783c
00000010: b479 04bd 216f ebbb 85a9 653e a56c d83d
00000020: be9b 22be e5a4 36bf f0ca 903d aab0 88be
00000030: 3f95 67bf 5421 bfbe 53d7 85bc 3f36 debc
00000040: 9c03 fa3d 8c67 87bf 4d7e 57be cc1c 31bd
00000050: 0dbd 45be d957 603e 851f 013e a82f cb3d
00000060: 0196 2f3e 970d db3e e0e1 56be 8d32 803e
00000070: db1b bd3c a796 0b3f deb5 1d3f 74ab 8fbc
00000080: 3b7e 42bf 7d3a 9c3e 5b10 20bf 82c3 20bf
00000090: 90cb 9e3e c740 a9be 6af4 1dbd 54c8 fdbd
000000a0: 4eb3 f6bd 4b74 3a3e bcfb cc3e 6487 d03e
000000b0: 5af0 0f3d 673a 6e3c ad8a a53e 4398 febe
000000c0: 04a1 203f c81e 8cbd 98be 8b3b 3744 3e3d
000000d0: 6e7c bf3e ccf9 24bf 1c34 a5be 9765 2b3e
000000e0: 53c5 cdbe 8749 e53e baaa d23c 953d 233c
000000f0: 3651 843e 1121 723e af9a 55bf 8c21 563f
00000100: d89d 293f 262c 9f3e be9f 1dbf 3423 e33d
00000110: dc37 80bf 9391 bbbe 9935 163d 33a4 5d3d
00000120: 3afc 123f d2bd 263f a554 76bd 25ef c9bd
00000130: 3de8 63be ec3a 803e 0ced 37be 85be b5bd
00000140: c3f8 adbe f4fe 91be 65f7 a4be aa36 843e
00000150: 62cb ce3e 4515 54be 73e7 023f 20c9 58bf
00000160: ac56 e43d c340 5bbe ccbc c83c b65f c1bb
00000170: aa0c a8be a90f 10be 21da 903c f66c c13c
00000180: 8335 0a3e 0f4c ae3e d4bf 4c3f c39a 61be
00000190: 56dd 94be 97be 3ebf c101 9ebe d498 e03e
000001a0: be85 08bd 1ec7 85bc f867 b5be cfcc 4b3e
000001b0: 6936 77bf f9ea 49be 33b7 24bd fe97 af3c
000001c0: c19d 17be d6f5 15bf 3df5 6fbd deb1 b8bc
000001d0: 4bc5 8ebe c80e 393f 4fc7 623f 3e84 3bbf
000001e0: 5f07 54bf fa1c dd3e d65f a43d fe88 a2be
000001f0: 8a6f a0bc b4b2 c0bc 2505 3dbe 47d0 5fbe
00000200: b718 2ebf e844 7fbe 5b6a 4bbc f7e8 563c
00000210: 8ed8 7cbd 043b b43e 3d37 3e3f ec16 593f
00000220: 3dfd 87b9 a9a5 003d 0c61 40be 79c2 913f
00000230: 8640 ef3c 9fce 8b3d 10cb 9bbe 9846 e1be
00000240: 1937 363d 7d88 ab3a 04db fc3e 76b1 f6be
00000250: 74f1 1a3f 5062 9abe 9e9e dabe 35c0 96be
00000260: 92a8 05bf 3c67 c2bc c332 2b3f 2509 293f
00000270: d8c7 07be 5d50 683d dc4f bdbe ed7d 363e
00000280: 8039 6bbd cd8f 193c 65d1 d13d 9052 14bf
00000290: 9b96 01bf 1d2c 12bf dc8e 1b3e 170f db3d
000002a0: 2f08 d33d 00dd ca3b a0d1 4dbd 5ed5 60bc
000002b0: b06c a23c 8743 b33b e92f da3e 4358 783e
000002c0: 6111 0abe e455 b6be 5c5c 2f3f 2f3c 913e
000002d0: 83a9 12bf 09f9 9abe 2b94 273f de31 193d
000002e0: f468 76bc 653f 143d cf6e 323e 86a2 cabe
000002f0: 0bb8 09bf f2a7 0f3f d802 1e3f 2977 3b3d
00000300: 2a6f 923b ea78 43bd e0ee d93e 75db 083e
00000310: 4fa3 7bbc 6657 df3e 1f18 0a3e 246a 4b3f
00000320: 6cb7 103f 4886 643e d8d4 9f3e 8b34 64bd
00000330: 7a59 c8be 0cfe 2dbf ee02 c33e c3d0 1c3f
00000340: d060 a0bd 16de 32bf 4e50 183e 4f2a 963e
00000350: c4ec ae3e dce4 d63d 63b2 58bf 93a2 e5be
00000360: 421b 093c a0f5 833a 03fb 99bd 190b 183c
00000370: ad35 c4bd 3c99 e33a 99d3 8f3e 1c75 c2bc
00000380: f4af 563f e4ab 22be b26d 02bf 9f8a 5fbf
00000390: 667d e93e 0c42 e8be 3082 bfbc dcc2 b2be
000003a0: 578a 38bc 033d ed3c 835e 6a3f 0c7e a6be
000003b0: 0047 913c 698c 14ba edeb 17bf 3d59 3c3f
000003c0: 25ca 353d e784 2e3b 766a 80bd 6e5c f43e
000003d0: ecd6 77bd 04d5 93bd 9b5b 8dbe 453a 023f
000003e0: dfd8 093e 3ee6 84be 19b3 e93c 4bf9 a6bd
000003f0: 8d62 b5bd 8e06 033e b331 d8bd e5af fdbe

conv_spatial.mlp.0.bias f4 [256]
-0.57639235 -0.029968891 -0.026529877 -0.42271072 -0.16364832 0.037377093 -0.23479797 -0.02535591
-0.26626065 -4.1737774e-05 0.1048707 -0.4798686 -0.37353444 0.16757047 -0.1553186 -0.6522297
-0.09109434 -0.12073549 0.22670168 0.012541563 0.1002556 0.14335814 -0.030486016 -0.60486406
-0.16739313 -0.037396062 -0.65892994 -0.54607743 -0.10757576 -0.022092976 0.1391395 -0.2894627
-0.1245836 -0.61445606 -0.3917046 -0.052316017 0.04478599 0.047437966 0.1519742 -0.69086766
0.07420206 0.05680103 -0.583288 -0.2897387 0.11588768 -0.020190857 -0.3368166 -0.023686633
0.025565032 -0.1311221 -0.0877025 -0.49824125 -0.02971074 0.104810975 -0.21147048 -0.042825606
-0.4872859 -0.050253533 -0.068961546 -0.25870034 -0.19730386 -0.60279274 -0.02450211 0.07833148
-0.6867458 -0.014463939 -0.45369455 -0.2525405 -0.03579525 -0.38096207 -0.05941303 0.015969539
-0.036966555 -0.6717209 0.03152774 -0.010302474 -0.51488376 -0.28685716 -0.4780567 -0.5819071
-0.046897978 -0.031601295 0.07343517 -0.28838423 -0.09305874 -0.044733554 -0.01646734 0.04070502
0.14815131 -0.6453224 0.04102815 -0.07769246 -0.03141395 -0.3869648 -0.13187192 -0.5016084
-0.03836155 0.121203706 0.15020828 -0.2823804 -0.61243963 -0.31742644 -0.16004197 -0.032099426
-0.048247382 0.12930329 0.031717412 -0.13874167 -0.0067474726 -0.060647782 -0.087401204 0.11773132
-0.18596792 -0.25115293 0.040294334 0.14350206 -0.034565303 -0.35194016 -0.020247422 -0.04982264
-0.03560184 0.10251814 -0.4065194 0.061967533 -0.36116695 -0.06922093 0.035194777 0.0052190446
0.12789069 -0.023208506 -0.09913817 0.1370734 0.052391253 0.093620986 -0.5135698 -0.55463547
-0.44791597 0.21356554 0.032937992 -0.5077414 -0.403082 -0.4023246 -0.03203485 -0.3596296
-0.4333185 -0.033324312 -0.49236083 -0.06410926 -0.22947608 -0.3171565 -0.03709151 -0.21779409
-0.4977718 -0.5749978 0.027553432 -0.42050844 -0.39104474 -0.030516014 -0.08650953 0.020807566
-0.6956967 -0.6062466 -0.044343036 -0.030387735 -0.10836156 0.033889245 -0.44284096 -0.11190875
-0.025022801 -0.059624884 -0.43936196 -0.08061504 -0.3688447 -0.0864708 -0.37282187 -0.49301904
-0.23117223 -0.02180368 -0.043029357 -0.44482946 -0.03100011 -0.22114286 -0.6578812 -0.22449833
-0.035561934 -0.24492742 -0.031415626 -0.018494576 0.033579417 -0.64109635 -0.18904272 -0.37850145
-0.5655364 -0.59937507 -0.026300028 -0.62431496 -0.04483669 -0.19690849 -0.560185 -0.55893075
-0.110720985 -0.3749684 -0.3109968 -0.5080104 0.1111255 -0.04144152 0.030285632 0.1002861
-0.015930401 -0.22854988 -0.55593395 0.022609832 -0.3542114 0.008460703 -0.63210416 -0.12178524
-0.4679838 0.07275527 0.07026117 0.07950441 -0.02166141 0.070681304 -0.13378024 -0.47459534
-0.17073673 -0.46128175 -0.048655864 -0.0024904471 -0.023464665 -0.15325001 -0.0381352 0.21917242
-0.60792565 -0.48685822 -0.060326554 -0.023155043 -0.46351787 -0.56374824 -0.46643516 -0.41931924
-0.3904993 -0.65134245 -0.6180824 -0.12250092 0.077795066 -0.31500047 -0.6088657 0.009534736
0.089807466 -0.023979133 -0.4529774 -0.37786672 -0.044172257 -0.034380335 -0.51343906 -0.025846025
00000000: 738e 13bf 5281 f5bc 2f55 d9bc 8a6d d8be
00000010: 6d93 27be b918 193d e16e 70be 33b7 cfbc
00000020: 5153 88be 980f 2fb8 73c6 d63d 56b1 f5be
00000030: e83f bfbe 9897 2b3e d70b 1fbe 87f8 26bf
00000040: ab8f babd 2b44 f7bd 7c24 683e 217b 4d3c
00000050: cf52 cd3d 7acc 123e cfbd f9bc 5fd8 1abf
00000060: 1b69 2bbe 9d2c 19bd a2af 28bf bbcb 0bbf
00000070: ae50 dcbd 54fc b4bc 967a 0e3e 7434 94be
00000080: b025 ffbd fe4c 1dbf 818d c8be 5249 56bd
00000090: 8471 373d 504e 423d 209f 1b3e b4dc 30bf
000000a0: 40f7 973d 32a8 683d 5d52 15bf a258 94be
000000b0: 8556 ed3d 4c67 a5bc 3a73 acbe 780a c2bc
000000c0: c26d d13c df44 06be 5e9d b3bd 7a19 ffbe
000000d0: f063 f3bc 23a7 d63d b88b 58be e769 2fbd
000000e0: 8a7d f9be a6d6 4dbd b63b 8dbd 5f74 84be
000000f0: 060a 4abe a050 1abf a6b8 c8bc 416c a03d
00000100: 93ce 2fbf 28fa 6cbc a74a e8be fd4c 81be
00000110: 0a9e 12bd 760d c3be 145b 73bd 8dd2 823c
00000120: 3e6a 17bd e7f5 2bbf 3b23 013d b5cb 28bc
00000130: 6ccf 03bf f1de 92be d9c3 f4be ddf7 14bf
00000140: 1818 40bd 5c70 01bd 2e65 963d 19a7 93be
00000150: 9595 bebd 883a 37bd 84e6 86bc 4fba 263d
00000160: fab4 173e d933 25bf 220d 283d 391d 9fbd
00000170: eaab 00bd 4020 c6be 6f09 07be 6869 00bf
00000180: 0021 1dbd a639 f83d 33d0 193e 2a94 90be
00000190: d8c8 1cbf b885 a2be 0be2 23be b07a 03bd
000001a0: 0c9f 45bd 1568 043e 1eea 013d 4c12 0ebe
000001b0: e719 ddbb cf69 78bd 67ff b2bd 1e1d f13d
000001c0: 606e 3ebe 1e97 80be ac0b 253d 34f2 123e
000001d0: 5994 0dbd 8031 b4be ecdd a5bc d312 4cbd
000001e0: 3cd3 11bd 08f5 d13d 5023 d0be abd1 7d3d
000001f0: e0ea b8be b4c3 8dbd 6628 103d 8504 ab3b
00000200: c7f5 023e c41f bebc f408 cbbd f85c 0c3e
00000210: 3698 563d 5cbc bf3d 4f79 03bf 97fc 0dbf
00000220: 3e55 e5be edb0 5a3e fde9 063d 57fb 01bf
00000230: c460 cebe 7dfd cdbe fa36 03bd 5f21 b8be
00000240: ecdb ddbe 137f 08bd b816 fcbe b74b 83bd
00000250: c7fb 6abe 5662 a2be 44ed 17bd 6a05 5fbe
00000260: f2db febe 0e33 13bf bcb7 e13c e24c d7be
00000270: 0437 c8be b8fc f9bc e92b b1bd a174 aa3c
00000280: 2e19 32bf fa32 1bbf 0ba1 35bd b3ef f8bc
00000290: aaec ddbd 73cf 0a3d 0dbc e2be 6a30 e5bd
000002a0: 9efc ccbc 3939 74bd 0df4 e0be 8019 a5bd
000002b0: 36d9 bcbe 9a17 b1bd 82e2 bebe fe6c fcbe
000002c0: 6ab8 6cbe a29d b2bc 8d3f 30bd b0c0 e3be
000002d0: f1f3 fdbc 4673 62be e76a 28bf e4e2 65be
000002e0: 64a9 11bd 41ce 7abe acad 00bd f081 97bc
000002f0: 928a 093d e41e 24bf 6a94 41be f1ca c1be
00000300: fec6 10bf a570 19bf 2873 d7bc 1bd3 1fbf
00000310: ada6 37bd 61a2 49be 4968 0fbf 1616 0fbf
00000320: afc1 e2bd dcfb bfbe f93a 9fbe f80c 02bf
00000330: c495 e33d 95be 29bd 9319 f83c cc62 cd3d
00000340: 7980 82bc fb08 6abe b051 0ebf 4138 b93c
00000350: 325b b5be c39e 0a3c 94d1 21bf 8a6a f9bd
00000360: 939b efbe b700 953d 17e5 8f3d 35d3 a23d
00000370: 4573 b1bc 5cc1 903d b0fd 08be 29fe f2be
00000380: 9cd5 2ebe 1f2d ecbe 5f4b 47bd c536 23bb
00000390: f838 c0bc 92ed 1cbe a833 1cbd bc6e 603e
000003a0: 04a1 1bbf 7b45 f9be fa18 77bd a5af bdbc
000003b0: 3752 edbe ce51 10bf 97d0 eebe 03b1 d6be
000003c0: 86ef c7be 61be 26bf a63a 1ebf c3e1 fabd
000003d0: 0553 9f3d be47 a1be 9fde 1bbf 9537 1c3c
000003e0: faec b73d e36f c4bc a7ec e7be bf77 c1be
000003f0: f8ed 34bd 65d2 0cbd be70 03bf 0bbb d3bc

conv_spatial.mlp.2.weight f4 [256, 256]
-0.7610418 0.0013803837 0.06057808 0.0018087476 -0.04230907 -0.39768192 1.0371961e-05 -0.016061079
-0.051307227 0.17918843 0.091971345 0.011102349 0.0073414296 0.08263829 -0.16471988 -0.018018477
0.013578595 -0.114028335 -0.022632506 -0.44243717 0.0892678 0.04866398 0.03940405 -0.040665396
-0.062221885 -0.036583573 0.057453856 0.061876923 -0.13097444 0.061309442 0.07072931 -0.1610835
0.039874237 0.060049303 0.002366085 0.059460092 0.06115262 -0.15768859 0.014500805 -0.025627144
-0.44901875 0.016251022 0.022832423 -0.21061759 -0.00024153882 -0.0025988324 0.03035336 0.04896178
0.0822064 -0.059116762 -0.12476565 0.0038226917 0.020593246 0.06463116 -0.16508293 -0.0056025814
0.05836489 -0.11381372 0.02379437 0.10913169 0.12200131 0.048181087 -0.05797753 -0.88506734
-0.03629026 0.050300058 -0.026004344 0.026238566 0.013505108 -0.9028665 0.052928403 -0.07408084
0.06264155 0.035038427 0.08006252 -0.19968133 -0.017364502 -0.55364096 0.0435459 0.042623833
-0.14392659 -0.41985682 -0.36126792 0.05440019 0.073737174 -0.30192733 -0.046142343 0.03482027
-0.8019628 0.052889317 -0.14664869 0.028480334 -0.037411943 -0.021816649 -0.19159685 0.034248725
-0.10760525 0.05242133 0.06645447 -0.8245015 -0.028464623 -0.03657657 -0.032906756 0.10276902
-0.16981615 0.10516824 0.10857414 -0.05802186 -0.049251977 0.013583506 0.023438182 0.05042329
-0.048321888 -0.10481707 -0.21057415 -0.512577 0.025702147 -0.02806839 0.048673183 -0.04494422
0.0006881036 0.112138875 0.04671914 0.11417936 -0.0012612417 -0.25044385 0.082603514 -0.07262916
0.09730128 -0.16188239 -0.17979047 0.06282224 0.11222829 -0.32712996 -0.007155873 0.02123294
0.0042149276 0.08860093 -0.08703508 -0.050554857 -0.47916496 0.050120305 0.039477758 0.055166386
0.012288205 -0.13564341 -0.05251327 -0.03197368 -0.03612686 -0.22918555 0.055182237 -0.052191675
-0.0597978 0.047199577 0.15210882 -0.025426999 -0.23257183 -0.0012192263 0.04204549 0.090089865
-0.05558624 0.044914737 0.16297732 0.0933457 0.12938856 0.102325596 0.050216854 -0.0006751735
0.008992715 -0.08339468 0.008877401 -0.27574053 0.050150886 0.315529 -0.55026627 -0.9573092
-0.29059124 -0.05110152 -0.044852793 -0.013831869 0.18016289 -0.18929762 0.04037866 -0.18618093
0.10098755 -0.15500154 0.046487123 0.032072674 -0.11398947 0.034624703 0.15759501 0.017016672
0.029886708 -0.03233183 -0.060248204 0.04101146 -0.028601497 -0.11013718 -0.0074675884 0.0059131533
0.14477073 0.058631234 -0.75989103 0.041601196 0.015219908 0.0799582 -0.039609354 0.10442958
-0.030183677 0.040880866 0.013695143 0.12446573 -0.053847373 -0.36653724 -0.023862854 -0.04862191
-0.15863189 0.07673001 0.034568407 -0.45804858 0.054202043 0.03366135 -0.13360657 0.03043209
0.15142904 0.04928188 0.023770554 0.020849187 -0.056744583 -0.08823588 -0.0023940406 -0.1119258
-0.031487703 -0.021009564 0.030089654 0.03301668 0.04558362 0.017366186 0.049902342 0.0050892383
0.3781398 -0.030834742 0.030721687 0.21396878 0.10491486 -0.048507422 -0.006727807 0.06330119
-0.31107563 0.023537017 0.006334178 -0.02420593 0.06553851 0.080158114 -0.01546739 0.011746166
00000000: a3d3 42bf feed b43a b920 783d 8013 ed3a
00000010: 464c 2dbd f79c cbbe 3c03 2e37 8692 83bc
00000020: 8727 52bd 2c7d 373e 795b bc3d a0e6 353c
00000030: 6090 f03b 443e a93d 54ac 28be 7c9b 93bc
00000040: c178 5e3c b087 e9bd ce67 b9bc 2087 e2be
00000050: 09d2 b63d e253 473d 2466 213d c290 26bd
00000060: 60dc 7ebd a8d8 15bd bc54 6b3d a872 7d3d
00000070: 2a1e 06be 9c1f 7b3d 87da 903d 13f3 24be
00000080: 2b53 233d 42f6 753d 5210 1b3b 6d8c 733d
00000090: 2b7b 7a3d 1e79 21be c994 6d3c 04f0 d1bc
000000a0: c9e5 e5be dd20 853c 100b bb3c 23ac 57be
000000b0: 9545 7db9 2c51 2abb 9ca7 f83c 268c 483d
000000c0: d45b a83d 6b24 72bd 2285 ffbd 2086 7a3b
000000d0: 2bb3 a83c 575d 843d 800b 29be dc95 b7bb
000000e0: 0610 6f3d 2b17 e9bd 69ec c23c 6f80 df3d
000000f0: d3db f93d 8859 453d d979 6dbd c693 62bf
00000100: 18a5 14bd 6f07 4e3d 1007 d5bc 43f2 d63c
00000110: 8744 5d3c 4222 67bf 74cb 583d b2b7 97bd
00000120: 374a 803d 7484 0f3d d2f7 a33d 4379 4cbe
00000130: 0040 8ebc 6abb 0dbf 305d 323d 5496 2e3d
00000140: 7e61 13be 79f7 d6be 1cf8 b8be bcd2 5e3d
00000150: 8403 973d 3896 9abe c1ff 3cbd b39f 0e3d
00000160: 6f4d 4dbf 78a2 583d 132b 16be 974f e93c
00000170: 443d 19bd d4b8 b2bc f731 44be 6448 0c3d
00000180: 2460 dcbd c0b7 563d 4819 883d 8812 53bf
00000190: a42e e9bc 50d1 15bd 3cc9 06bd 9078 d23d
000001a0: 49e4 2dbe 7262 d73d 1e5c de3d 54a8 6dbd
000001b0: 71bc 49bd 5b8d 5e3c 6e01 c03c a788 4e3d
000001c0: 2ced 45bd 55aa d6bd c0a0 57be 3f38 03bf
000001d0: 4f8d d23c aeef e5bc 885d 473d 6e17 38bd
000001e0: da61 343a 11a9 e53d 925c 3f3d ded6 e93d
000001f0: 4050 a5ba 2d3a 80be 082c a93d 99be 94bd
00000200: e545 c73d 7fc4 25be fe1a 38be f2a8 803d
00000210: f2d7 e53d 947d a7be d07b eabb b4f0 ad3c
00000220: 601d 8a3b 6874 b53d 733f b2bd 9c12 4fbd
00000230: 1c55 f5be f34a 4d3d 6eb3 213d 26f6 613d
00000240: 7854 493c 1be6 0abe 2818 57bd d5f6 02bd
00000250: c2f9 13bd 9eaf 6abe c506 623d f0c6 55bd
00000260: 8aee 74bd 5854 413d 6ac2 1b3e 484c d0bc
00000270: 4f27 6ebe 72ce 9fba e437 2c3d 0981 b83d
00000280: 66ae 63bd 84f8 373d 87e3 263e 082c bf3d
00000290: 6f7e 043e 1590 d13d 30b0 4d3d 20fe 30ba
000002a0: 2e56 133c d4ca aabd 8572 113c dd2d 8dbe
000002b0: 046b 4d3d 048d a13e 40de 0cbf 3712 75bf
000002c0: 60c8 94be d44f 51bd 90b7 37bd 109f 62bc
000002d0: 9f7c 383e 3cd7 41be 1864 253d 37a6 3ebe
000002e0: 90d2 ce3d b9b8 1ebe 4869 3e3d a35e 033d
000002f0: 5073 e9bd a2d2 0d3d 9660 213e 8c66 8b3c
00000300: f8d4 f43c 626e 04bd d2c6 76bd a2fb 273d
00000310: b04d eabc 9a8f e1bd acb2 f4bb 20c3 c13b
00000320: c73e 143e 4e27 703d 3888 42bf 0466 2a3d
00000330: ec5c 793c 20c1 a33d 6b3d 22bd 2ddf d53d
00000340: c243 f7bc b272 273d 9861 603c e3e7 fe3d
00000350: 108f 5cbd c5aa bbbe 087c c3bc c527 47bd
00000360: 6670 22be a024 9d3d 9a97 0d3d 5885 eabe
00000370: f602 5e3d 7ce0 093d 29d0 08be b84c f93c
00000380: 3710 1b3e ccdb 493d 77ba c23c eacb aa3c
00000390: 026d 68bd 03b5 b4bd 56e5 1cbb 5b39 e5bd
000003a0: 40f9 00bd 401c acbc 947e f63c 803c 073d
000003b0: e4b5 3a3d 8843 8e3c 6666 4c3d a0c3 a63b
000003c0: 8a9b c13e 2499 fcbc 0cac fb3c a21a 5b3e
000003d0: 9add d63d b8af 46bd f074 dcbb 0ea4 813d
000003e0: 4e45 9fbe b4d0 c03c f08e cf3b 844b c6bc
000003f0: 0e39 863d f029 a43d f06a 7dbc fe72 403c

conv_spatial.mlp.2.bias f4 [256]
0.01748321 -0.003938109 0.012418606 0.06876126 -0.044791896 0.1583421 -0.032625057 0.03994025
-0.07781115 -0.023434909 0.031329453 -0.004659577 -0.025900122 -0.1022358 -0.0753504 -0.023673836
-0.0025890267 0.062627904 -0.036079664 0.015228544 0.008225192 -0.04639025 -0.03821462 -0.060123313
-0.05159319 -0.03192866 -0.009672478 -0.032904353 0.04853441 0.14294325 -0.035205923 -0.07186119
-0.037643064 -0.0034538058 0.08020715 0.11177944 -0.07595909 0.03617456 -0.05990157 0.022770822
-0.043961648 0.10794877 -0.037373815 -0.016698468 0.04979424 0.021558281 0.0057199127 0.017281212
-0.000180506 0.13915974 -0.0155973155 0.1059288 0.023631798 0.045084957 0.0042166263 0.013533212
-0.0042505832 0.121650085 -0.0466084 0.007194787 0.017880136 -0.044757634 0.017034909 0.045638908
-0.00078067236 -0.050153095 -0.05072127 -0.026673408 -0.0856399 -0.059481945 0.1063599 -0.042679075
0.06034087 0.055450033 0.018902155 -0.05122009 0.044126477 -0.029731289 0.031625476 0.0067624003
-0.0705395 0.01215049 -0.08342303 -0.04322907 -0.06492719 0.14137478 -0.06382176 0.060466263
-0.02141076 0.017150866 -0.013198877 -0.024382107 -0.010668094 -0.05682712 -0.031545226 -0.048905786
-0.042734265 -0.0032541077 -0.05027082 -0.041547503 0.047668148 -0.056795016 0.1676854 -0.01792707
-0.08544199 -0.0056852438 -0.06492171 0.0948619 0.05731294 -0.06732123 -0.042779982 -0.0638502
-0.051291604 0.113459975 -0.0057105133 -0.06735345 -0.008581745 0.009690359 -0.015872117 0.009233759
-0.032095324 0.020618726 0.023325713 -0.06612145 0.08893988 0.018516313 0.027431957 -0.04524777
0.030835992 0.06159517 0.043837182 -0.034307852 -0.080028065 0.14895973 -0.056560393 -0.05635916
-0.030528752 -0.06438619 -0.03560954 0.042554796 -0.06337228 -0.048724577 0.014072441 -0.11270223
0.016345076 -0.15372752 -0.07315366 -0.017465645 0.10943029 -0.0616611 -0.07250687 -0.033394422
0.097603366 0.042078607 -0.0840126 -0.02682635 -0.019683843 -0.03460485 0.10672839 0.012911272
-0.063020244 -0.015980016 0.01928874 -0.005009818 -0.06121069 -0.098251164 -0.038203266 -0.0067977607
-0.016183505 -0.07404541 0.1395866 0.05633012 0.02141191 0.00787322 -0.039565373 -0.022974182
-0.024489675 -0.01110913 -0.0381393 0.038143806 -0.045987744 -0.020731572 -0.06591931 -0.00072348054
0.08138402 -0.030751323 -0.030416746 -0.022122623 -0.022747636 -0.032212183 -0.058932886 -0.09256628
-0.060114563 0.06863908 -0.014191844 -0.011477701 -0.019467384 -0.025365762 -0.074614234 -0.0286413
-0.027683483 0.06414406 -0.037666034 -0.009568981 -0.0525661 -0.0091357175 0.020923967 0.13140115
-0.047887985 -0.006374038 -0.026519494 0.00010406023 0.04722492 -0.027126972 0.14040548 0.0011883194
-0.0829227 0.010204717 -0.0025535536 -0.020804023 -0.02563804 0.0023190305 0.02484903 -0.002363999
0.03599165 -0.041187193 0.026263842 0.1033565 -0.015915664 0.03407422 -0.009688514 0.0019565516
-0.01268361 -0.049191706 0.033524808 -0.025118167 0.14844136 0.1211328 -0.030495346 -0.036343053
-0.12633368 0.0315787 0.042162612 -0.07599854 -0.06809792 -0.08217599 0.044414446 0.0331358
-0.050128393 0.14227232 -0.057219904 -0.035627246 0.02576886 0.010339197 0.034738027 -0.045064326
00000000: f338 8f3c 410b 81bb 6977 4b3c b4d2 8c3d
00000010: b577 37bd 6e24 223e daa1 05bd 6398 233d
00000020: 745b 9fbd 91fa bfbc 5053 003d 5daf 98bb
00000030: 7e2c d4bc 0161 d1bd 4f51 9abd a2ef c1bc
00000040: a9ac 29bb 0f43 803d 45c8 13bd 2581 793c
00000050: f5c2 063c b403 3ebd ef86 1cbd dd43 76bd
00000060: 6153 53bd a0c7 02bd 5079 1ebc b7c6 06bd
00000070: 04cc 463d b75f 123e 1634 10bd f62b 93bd
00000080: 9d2f 1abd 3f59 62bb a543 a43d 9eec e43d
00000090: 7090 9bbd c72b 143d 595b 75bd e089 ba3c
000000a0: 2111 34bd 3f14 dd3d 4915 19bd 3acb 88bc
000000b0: 0cf5 4b3d fe9a b03c 1b6e bb3b 5491 8d3c
000000c0: 3646 3db9 e47f 0e3e e28b 7fbc 33f1 d83d
000000d0: 7997 c13c 01ab 383d a02b 8a3b 68ba 5d3c
000000e0: 7a48 8bbb ae23 f93d 73e8 3ebd 3fc2 eb3b
000000f0: 5d79 923c c853 37bd cb8c 8b3c ddef 3a3d
00000100: 09a6 4cba 556d 4dbd 1bc1 4fbd 3182 dabc
00000110: f963 afbd 57a3 73bd 38d3 d93d 41d0 2ebd
00000120: fd27 773d 931f 633d b1d8 9a3c 28cc 51bd
00000130: f7bd 343d 088f f3bc b789 013d 2097 dd3b
00000140: 0377 90bd d912 473c b2d9 aabd f710 31bd
00000150: 8cf8 84bd 8dc4 103e fcb4 82bd 79ab 773d
00000160: 9e65 afbc f97f 8c3c 1a40 58bc fcbc c7bc
00000170: 3bc9 2ebc 8ec3 68bd 9135 01bd 6f51 48bd
00000180: 200a 2fbd de42 55bb c6e8 4dbd b72d 2abd
00000190: ad3f 433d e4a1 68bd b9b5 2b3e cadb 92bc
000001a0: 36fc aebd 484b babb acf5 84bd f546 c23d
000001b0: f9c0 6a3d b7df 89bd 103a 2fbd e5c3 82bd
000001c0: 2517 52bd b45d e83d 421f bbbb 9bf0 89bd
000001d0: 739a 0cbc 50c4 1e3c 3e06 82bc 3149 173c
000001e0: 6376 03bd 9ae8 a83c 9115 bf3c af6a 87bd
000001f0: 1d26 b63d 86af 973c fcb8 e03c ba55 39bd
00000200: c39b fc3c 384b 7c3d 9e8e 333d 6486 0cbd
00000210: c1e5 a3bd e688 183e dfab 67bd ddd8 66bd
00000220: 6f17 fabc e8dc 83bd 4fdb 11bd f04d 2e3d
00000230: 53c9 81bd 6c93 47bd 1890 663c 6dd0 e6bd
00000240: 1ce6 853c bf6a 1dbe 96d1 95bd 1d14 8fbc
00000250: fd1c e03d 5990 7cbd 7b7e 94bd 97c8 08bd
00000260: 46e4 c73d 9e5a 2c3d cc0e acbd efc2 dbbc
00000270: 0340 a1bc d1bd 0dbd 6a94 da3d cd89 533c
00000280: c210 81bd 86e8 82bc 6b03 9e3c 6629 a4bb
00000290: 0fb8 7abd e837 c9bd 077b 1cbd c0bf debb
000002a0: 4593 84bc 1fa5 97bd caef 0e3e 69ba 663d
000002b0: 0868 af3c aefe 003c 4d0f 22bd 5a34 bcbc
000002c0: 929e c8bc 1203 36bc f437 1cbd ae3c 1c3d
000002d0: a55d 3cbd 42d5 a9bc b400 87bd f5a7 3dba
000002e0: aaac a63d 33ea fbbc 8a2c f9bc 813a b5bc
000002f0: 4059 babc ecf0 03bd 9c63 71bd 6493 bdbd
00000300: b03a 76bd a592 8c3d e884 68bc f80c 3cbc
00000310: 107a 9fbc dccb cfbc 59cf 98bd 29a1 eabc
00000320: 79c8 e2bc f65d 833d b347 1abd 37c7 1cbc
00000330: 8d4f 57bd faad 15bc bd68 ab3c 068e 063e
00000340: 3126 44bd 4edd d0bb 693f d9bc e93a da38
00000350: eb6e 413d 6239 debc 74c6 0f3e 62c1 9b3a
00000360: 60d3 a9bd af31 273c 8559 27bb 336d aabc
00000370: de06 d2bc e0fa 173b 3190 cb3c 52ed 1abb
00000380: fb6b 133d e7b3 28bd 4527 d73c 93ac d33d
00000390: 9161 82bc 6991 0b3d 93bc 1ebc 7d39 003b
000003a0: ebce 4fbc 3e7d 49bd 4f51 093d 9dc4 cdbc
000003b0: 0301 183e 7914 f83d 60d1 f9bc 74dc 14bd
000003c0: 9e5d 01be ab58 013d b4b2 2c3d 1fa5 9bbd
000003d0: ec76 8bbd e34b a8bd eceb 353d 68b9 073d
000003e0: 6e53 4dbd d6af 113e 6b5f 6abd e0ed 11bd
000003f0: 3719 d33c bc65 293c 7649 0e3d 5f95 38bd
