logs/M5D7_r04_scale0008/score.pt (torch, 731911 bytes, 10 tensors)

embed.0.W f4 [64]
000000 4e 45 28 42 3e fa 20 c2 da d2 86 41 82 44 96 bf
       42.06768 -40.244377 16.852955 -1.1739657
000010 9c f7 4d c2 ec f4 1e c1 0e 39 36 40 7a 58 9f c1
       -51.491806 -9.934795 2.8472323 -19.918201
000020 60 82 8d 42 67 c7 9b 41 90 16 6f 42 fa 93 03 42
       70.75464 19.472364 59.772034 32.89451
000030 ec 27 61 c2 10 4d 12 c2 48 a1 96 40 98 9e 0b c1
       -56.288986 -36.575256 4.7071877 -8.726219
000040 60 21 74 c0 c7 fd c1 41 1c 36 05 42 f6 21 32 c2
       -3.814537 24.248915 33.30284 -44.533165
000050 96 a6 6e c1 a4 c4 4d 42 57 14 ac c0 dc ab 59 42
       -14.91567 51.44203 -5.377483 54.41783
000060 ed 26 05 41 34 5c 8d c1 60 8b 5f c1 5d cd 90 41
       8.322003 -17.670021 -13.971527 18.100275
000070 94 57 83 c0 9e 0d 5f 41 a9 a6 bf 41 c1 90 8d c1
       -4.1044407 13.9408245 23.956377 -17.69568
000080 1b 6c ca c0 54 dd 54 40 6a e6 7f 41 53 19 47 c1
       -6.3256965 3.3260088 15.993753 -12.443683
000090 f4 01 d7 c1 b6 2a 1d c1 cc 8b db c1 f5 c1 01 42
       -26.875954 -9.822927 -27.44326 32.43941
0000a0 8c 82 da c0 7d 4f 31 41 33 f6 49 c2 e3 6a 63 3f
       -6.828436 11.081906 -50.49043 0.8883497
0000b0 db 0f 3d c2 7c de 61 42 dd a5 c5 41 ab b3 99 c1
       -47.265484 56.46727 24.705988 -19.212729
0000c0 c2 d6 39 c2 7d 0c b5 c2 bb 19 a2 41 ee 9b 49 42
       -46.459724 -90.52439 20.262564 50.402275
0000d0 19 bd bc 40 60 23 99 41 59 25 63 41 c2 2e cb 41
       5.898083 19.142273 14.196618 25.397831
0000e0 df 2a b7 41 c1 37 fb 41 68 ed 23 41 51 69 15 40
       22.895933 31.402224 10.2454605 2.334553
0000f0 ac 4a f5 c1 d6 d6 0c c1 69 05 10 42 84 e7 b9 c1
       -30.66146 -8.80245 36.005283 -23.238045

embed.1.weight f4 [128, 128]
000000 8c 94 33 3d b3 2b 85 3d c9 6f 60 3b 2c 20 87 bd
       0.043842837 0.065024756 0.0034246317 -0.06597933
000010 0f 28 31 bd 05 e4 8f 3b e5 cb 8d bd b7 09 17 bd
       -0.043251093 0.0043911957 -0.069236554 -0.0368745
000020 84 52 38 bc 51 95 51 3b b4 51 20 bd 8c 46 00 bd
       -0.011250142 0.0031979869 -0.03914042 -0.03131728
000030 e3 bb 93 bd 11 9f 22 3d 04 1f aa 3d 06 f3 13 3c
       -0.07213571 0.03970248 0.08306697 0.009030109
000040 55 2b 0f 3d e1 d3 e9 3c ff 94 ac bd bf 33 6f bd
       0.034953434 0.028543415 -0.08426856 -0.05839896
000050 9a d3 28 3c 57 d1 7a 3d a8 ad 55 bd ee dd 6e 3d
       0.010304356 0.0612348 -0.052167565 0.058317117
000060 05 9c aa bd 86 e1 82 bd df d2 ae bd cb 16 0f bd
       -0.083305396 -0.063906714 -0.08536314 -0.034933846
000070 be 0e 56 3c ce d9 dc 3c 95 92 ac bd e2 d0 59 3d
       0.013065038 0.026959326 -0.08426396 0.05317772
000080 d9 19 8e 3d 46 91 c0 3b b1 74 75 3b 4c 66 b3 3d
       0.06938524 0.005876693 0.0037453587 0.08759746
000090 af 31 9b 3d 0f 5d 55 3d 41 d1 81 3d ef c1 05 3d
       0.07577836 0.0520907 0.0633874 0.032655653
0000a0 7b b3 42 3d c5 a5 18 3c 67 66 86 39 9c 1b 92 3d
       0.047534447 0.009316866 0.00025634767 0.07134172
0000b0 72 6c 21 3d fd 70 b4 bd 8b 2e 23 3d d6 46 b2 3d
       0.039410062 -0.08810613 0.03983931 0.08704917
0000c0 bb 12 f1 3c dc 70 ff bc 37 0d 98 3d e9 37 5a bd
       0.029427877 -0.031181745 0.074243955 -0.053275976
0000d0 21 45 70 bd 6a f7 8d 3d fe 44 5c 3d b0 42 8e 3d
       -0.058659676 0.06931956 0.053776734 0.069463134
0000e0 ff c1 9f bc 6c 1d c8 bc 83 bb 3e 3d ca 36 48 3d
       -0.019501684 -0.024428092 0.046565544 0.048880376
0000f0 76 84 94 3d 23 5f 7b bc 58 19 c6 ba 19 07 3a bd
       0.072518274 -0.015342507 -0.0015113754 -0.045416925
000100 d7 2f 87 bd 5e 5b 6a bd c2 83 a0 bd fb e1 5c 3d
       -0.066009216 -0.05721604 -0.07837631 0.05392645
000110 57 57 a3 3d 0a df 97 bd f5 90 9c bc b4 72 7d 3a
       0.07975643 -0.07415588 -0.01911209 0.0009668276
000120 d3 9b 98 bb 21 91 5c bb fc ec 1f 3d f4 07 03 3d
       -0.0046572476 -0.003365584 0.039044365 0.031990007
000130 b9 04 f1 3a 75 21 2a bd 7a 39 af 3d 1a 9d bf 3c
       0.0018388248 -0.041535813 0.08555885 0.023390342
000140 51 ac 9f 3d 00 46 64 3d d9 4c 8b 3d c9 d9 07 bd
       0.077965386 0.05573082 0.06801767 -0.03316668
000150 d4 4f bf bc 0f 04 87 3d c0 9f 59 bc 80 14 25 3d
       -0.023353495 0.06592571 -0.013282716 0.040302753
000160 b4 01 c1 bb 5c 64 0e 3d 4a f4 96 3c 2b ae 6a 3d
       -0.0058900956 0.03476368 0.018427033 0.057295006
000170 11 2f 4a bd c6 87 48 3c e9 5b 59 3c 18 c3 57 bd
       -0.049361292 0.012239402 0.013266542 -0.05267629
000180 9d cd 8a bd ae 2c 57 3b e1 4b 99 3d 60 a6 49 bd
       -0.06777499 0.0032833028 0.07485176 -0.049230933
000190 c9 3e 77 bd 38 88 15 3d e9 ae 37 3d ca 2a 98 3d
       -0.06036261 0.03650686 0.04484454 0.07430036
0001a0 48 11 aa 3d 7d 91 93 bc b1 0c 38 bd 69 6f 59 3d
       0.083040774 -0.01801371 -0.04493398 0.053084765
0001b0 b8 1a 85 bd 79 f9 6e bd 7e 76 57 bd 42 27 d8 3b
       -0.06499237 -0.058343384 -0.052603237 0.006596477
0001c0 5d c7 56 3d 5e 1c a7 3d 55 42 1a bd e2 18 ad bd
       0.05243622 0.081597075 -0.037660915 -0.08452012
0001d0 48 92 ec ba a8 8b 9b bd 52 60 b5 3c af ea 98 3d
       -0.0018048966 -0.07594997 0.022140656 0.07466637
0001e0 5a db 25 bd 37 7c b8 bc cf 3a b1 bd 20 fb 04 3b
       -0.040492393 -0.022520168 -0.08653795 0.0020291284
0001f0 87 27 95 bd 04 7d 4c bc 35 2e ae bd 3b 46 64 3d
       -0.0728293 -0.012480978 -0.08504907 0.05573104
000200 5d f2 43 3d 2a 59 93 3d b4 c2 a8 bd 3f 77 20 bd
       0.047838558 0.07194741 -0.08240262 -0.039176222
000210 7d 51 71 3d f4 6f 18 3d 9a 71 df 3c 9e e3 83 bd
       0.058915604 0.03721614 0.02727585 -0.06439899
000220 36 34 4b 3c b7 b5 8b bd 2b a5 0c bc 1d f7 6b bd
       0.012402585 -0.06821769 -0.008584301 -0.057608712
000230 56 67 f2 3a 5a e2 9e 3d a3 67 aa bd d3 59 4e bd
       0.0018493931 0.07758017 -0.083205484 -0.05037863
000240 f0 ed 01 3d ec 27 aa bd ab f9 0c bc 96 aa 3c bd
       0.031721056 -0.08308396 -0.008604447 -0.04606112
000250 39 dc d2 bc 09 8d 4c 3d 22 b6 27 3d e5 41 8c bd
       -0.025739776 0.04993919 0.04094518 -0.06848506
000260 b8 98 10 3d 01 55 a8 3d 08 fe 6f bc 0f e9 b9 3c
       0.035301894 0.08219338 -0.014647968 0.022694139
000270 d8 7b dd bc 9b c9 17 3d 5e a3 ab bd 63 35 8f 3d
       -0.027036592 0.0370575 -0.08380769 0.069926046
000280 d2 50 61 bb 0a 39 9f 3c bc 38 46 bd 6f fb 97 bd
       -0.0034380448 0.019436378 -0.04839395 -0.07421004
000290 8e a9 2e bd a1 47 91 3c ce b8 5e 3c 98 28 78 3d
       -0.04264217 0.01773435 0.013593866 0.06058559
0002a0 22 1e 06 bd 60 c8 18 3b c6 7f 82 3d 8e 97 4e bd
       -0.03274358 0.0023312792 0.06372027 -0.050437503
0002b0 2a 73 64 bc 81 86 07 3c dd f4 0e 3d 59 f3 84 3b
       -0.013943473 0.008271814 0.03490149 0.0040573296
0002c0 cc ac 70 3d 4b de ad 3c 39 3d 86 bd 7b 18 94 3c
       0.058758542 0.021224162 -0.06554646 0.01807808
0002d0 db 78 de bc 1a 17 8a 3d 4f 0b dc 3c 68 62 ae 3d
       -0.027157238 0.067426875 0.026860861 0.08514863
0002e0 f0 c1 9d bd c3 df 91 3d 8e 17 a5 bd 6c c1 0c bd
       -0.07703006 0.07122757 -0.08061133 -0.03436415
0002f0 10 3f a8 3d 44 2c 0a 3c 66 1a 9d bd 3e 29 18 bd
       0.08215153 0.008433405 -0.07671051 -0.037148707
000300 c9 d4 22 3d ac ff 80 3d 21 56 88 bc 07 fb 77 3c
       0.03975371 0.062987655 -0.016642632 0.015135533
000310 4c 73 5c bc d2 50 8f bd 11 90 3a bd 45 ac 8b bc
       -0.013455223 -0.06997837 -0.04554755 -0.017049918
000320 1e ea 89 bd f0 3a 43 3d 2d 34 0a 3c 12 2c d9 bc
       -0.067341074 0.04766363 0.008435291 -0.026510272
000330 0f e7 7c bd 77 2c a7 3c fb ca 6e bd 84 86 74 bd
       -0.061743792 0.020406945 -0.058299046 -0.059698597
000340 e1 6d 96 3d 31 cb af bd 81 92 f0 bc 99 a0 42 bc
       0.073451765 -0.085836776 -0.029366734 -0.01187911
000350 73 a2 3f bd e9 dd a4 3d 4c 26 6d 3d 05 8b bc 3b
       -0.046785783 0.080501385 0.05789785 0.005753877
000360 69 e3 44 bd cb 1c b2 3d 89 f8 18 3d 7c 88 95 bd
       -0.048068438 0.08696898 0.037346397 -0.07301423
000370 1d 6f 89 bc bf 1a 44 3d a7 98 9f bc cd d0 90 3d
       -0.016776616 0.04787707 -0.01948197 0.070710756
000380 ff 94 97 3d 97 3b dc 3c 89 63 8b bd 1c c9 8e bc
       0.074014656 0.026883883 -0.06806094 -0.01742988
000390 4d 25 69 bd f3 06 78 3d 20 31 8a bc 8d 46 5c 3d
       -0.05692034 0.060553502 -0.016869128 0.05377822
0003a0 96 60 39 bd 35 23 10 bd 15 79 61 3d e9 e2 dc 3c
       -0.045258127 -0.035189826 0.055047113 0.026963668
0003b0 3a e0 2f 3c 8f 08 05 bb 85 e5 b0 3d 00 4a 93 3d
       0.010734612 -0.002029929 0.086375274 0.07191849
0003c0 96 f9 f4 bc ee 33 00 3d 59 62 62 3d 34 f6 8b bc
       -0.029904168 0.031299524 0.055269573 -0.017085172
0003d0 42 28 03 bd b8 f2 1b bc b4 84 5b 3d dd 5a b1 3c
       -0.032020815 -0.009518318 0.053593352 0.021649772
0003e0 23 5c 02 bd 57 44 10 bd eb 35 98 3d d3 7b 41 3d
       -0.03182615 -0.035221424 0.07432159 0.04723723
0003f0 7f 26 69 3d 75 a8 76 3d 65 3a 13 bd 61 18 cd 3c
       0.05692148 0.060219247 -0.03594436 0.025036039

embed.1.bias f4 [128]
000000 2d 14 74 bd 37 71 7c 3d 4e 70 a9 bd 55 f9 61 bd
       -0.059589554 0.061631408 -0.082733735 -0.055169422
000010 ad 4a 8f 3d 71 fa fe b9 3e f7 b0 3d 94 ee 95 bd
       0.06996665 -0.0004863325 0.08640908 -0.07320896
000020 99 6f f7 3b 4d f6 0c 3d 49 44 5a 3c d2 4c 88 bd
       0.0075511453 0.03441458 0.0133219445 -0.06655277
000030 dc bc 75 bd a1 12 82 3d 1c 30 6d bd 80 06 36 bd
       -0.059994563 0.063512094 -0.05790721 -0.044439793
000040 22 ef 96 bd de 67 0b 3d 75 92 c2 bb 4d b9 1d bd
       -0.0736983 0.034034602 -0.005937869 -0.038506795
000050 bd 77 8c 3c 43 2b 4f bc af 0c 8d 3d 7a 05 94 bc
       0.01714694 -0.012644592 0.06887185 -0.018069018
000060 37 3d 8e 3c c7 cf 44 bd e5 73 ac 3d d3 e5 99 bd
       0.017363174 -0.048049714 0.08420543 -0.075145386
000070 f6 e0 67 bd 06 1b 31 3c 79 1f 16 3d 26 62 10 3d
       -0.056611024 0.010809666 0.03665111 0.03524985
000080 2e f1 67 3d ca 2a 81 3a 8b 0f d9 3b 69 e1 ec 3c
       0.05662649 0.0009854671 0.0066241673 0.028916078
000090 c7 5d a9 bc bb 58 8c bd 31 b9 95 3d 45 2b 99 bd
       -0.0206746 -0.068528615 0.07310713 -0.07478956
0000a0 6a b3 6e bc ef eb 3f 3d 7b 98 4c 3d ed a3 b4 bd
       -0.014569143 0.046855863 0.049950104 -0.08820329
0000b0 7c df 36 bd ee ef 20 bb e1 26 b7 3c 64 22 86 bd
       -0.044646725 -0.0024557072 0.022357406 -0.06549528
0000c0 38 35 ab 3d 5e 72 08 bb 58 8f f0 bb d3 9b f1 3c
       0.0835976 -0.0020820121 -0.0073413067 0.029493248
0000d0 01 98 05 bd 81 54 9d 3d fb c9 08 3d 63 63 a7 bd
       -0.032615665 0.076821335 0.03339575 -0.081732534
0000e0 43 14 df 3c 90 05 f9 3c 95 a0 17 bc f1 3c af 3d
       0.027231341 0.03039816 -0.009254594 0.085565455
0000f0 0b 87 d9 bc 31 e7 50 3d 65 f1 e2 bc 5e 43 fe bc
       -0.026553651 0.05100173 -0.027702997 -0.031037983
000100 2b 6d c0 bc 83 6c 9d bd c2 73 7c bd 6e 8d 18 bd
       -0.023489555 -0.076867126 -0.061633833 -0.037244253
000110 d0 5f f8 bc 13 67 89 bd 1a bf 81 bc 93 9d f0 bc
       -0.030319124 -0.06709113 -0.015838195 -0.029372012
000120 48 cf a2 bc ce ce 05 3d 4f 85 68 3d e4 c7 4c bd
       -0.01987423 0.032667927 0.056767758 -0.049995318
000130 bf 5c 8f bd f2 14 9d bd 0f e0 b1 3d 84 71 7a 3d
       -0.07000112 -0.076700106 0.08685314 0.061143413
000140 9f 72 04 3d 08 e3 77 bd 30 da 15 3d a9 bb 0b 3d
       0.032335874 -0.06051925 0.036585033 0.034114514
000150 72 4c a2 3b 26 97 9d 3d 9e 23 40 3d f4 43 87 bd
       0.0049529606 0.07694845 0.046908967 -0.06604758
000160 57 56 66 bc ad 88 b4 bd 62 01 7c 3d 15 6d c4 bc
       -0.014058671 -0.08815131 0.061524756 -0.023977796
000170 86 fc 6e 3d d7 e8 2c bc 84 4b 91 3d d8 7a 49 bb
       0.058346294 -0.01055356 0.070944816 -0.0030743387
000180 58 a5 92 3d a3 f9 12 bd c3 88 d6 bc d4 36 73 3c
       0.07160443 -0.035882603 -0.02618826 0.014844615
000190 b0 2c a8 3d 3e f9 ab 3d 48 e7 d4 bc 3d f2 c4 3c
       0.082116485 0.083971485 -0.02598919 0.02404129
0001a0 4a fc 49 3d 4c 37 ff 3c 47 9e 25 bd 87 c9 b0 3d
       0.049312867 0.031154297 -0.04043415 0.08632188
0001b0 49 13 14 3d 41 97 74 bd 57 75 e2 3c cb 50 9f 3c
       0.036151204 -0.05971456 0.027643843 0.019447705
0001c0 b1 0c 7d 3d d3 ab 66 bd b8 b1 ed ba f8 f2 82 bd
       0.06177968 -0.056316208 -0.0018134629 -0.06393999
0001d0 90 d4 ee 3c dd ca 74 bd 41 f4 71 bb d4 29 ca 3c
       0.029154092 -0.059763778 -0.0036919268 0.024678148
0001e0 85 8a 4b 3d 5d 60 98 3c b1 65 65 3d ea 33 2f 3d
       0.04969265 0.018600637 0.056005184 0.04277412
0001f0 9e fd 72 3d 70 14 16 bd 74 b5 c3 bc 16 13 cb bc
       0.0593239 -0.036640584 -0.023890235 -0.024789374

embed.3.weight f4 [256, 128]
000000 9e 18 5f 3c d6 74 66 3c 47 06 13 3d 15 e5 28 3d
       0.013616709 0.014065942 0.03589466 0.041234095
000010 10 4b c2 3c c0 f3 7d 3d 51 ea 98 3d 88 88 21 bc
       0.023717433 0.062000036 0.07466567 -0.009859212
000020 59 37 45 3d 26 39 64 bd 85 9d d4 bc 62 37 ad bd
       0.048148487 -0.055718563 -0.025954017 -0.08457829
000030 b5 bf c3 3c 66 0e 7e 3c 14 d3 d5 bc 76 85 7b 3d
       0.023895124 0.015506363 -0.026101626 0.061406575
000040 f3 7c 5d 3d 17 7c 34 3d e4 84 b5 bc c1 18 94 bd
       0.05407424 0.044063654 -0.022158094 -0.07231284
000050 87 87 8a 3a 3f 95 15 3d 84 01 99 bc 43 30 74 3c
       0.0010568955 0.036519285 -0.01867748 0.014904085
000060 04 3c 91 bd 19 bd 3f bd a2 d9 5d bd a6 74 07 3c
       -0.07091525 -0.046811197 -0.05416263 0.008267557
000070 e8 f8 9d 3d 9e fb 20 3d 34 2d 3f bc e3 5a a7 3d
       0.07713491 0.03930246 -0.011668492 0.08171632
000080 d2 d4 19 bd 87 6d ed 3c 00 8c 32 bd 2a 74 31 bc
       -0.037556477 0.02898289 -0.043590546 -0.010830918
000090 bd fd 29 3d 6b f7 ab bd 94 f7 a8 3c 3a d0 da bc
       0.04150175 -0.083968006 0.020625867 -0.026710618
0000a0 27 56 e8 bc 51 64 10 3c a7 69 25 3d de 79 78 3c
       -0.028361393 0.00881298 0.04038396 0.015165774
0000b0 7b 8e b0 bd 4d 35 19 bd 38 99 be bc b0 1a 75 bd
       -0.08620926 -0.037404347 -0.02326642 -0.059839904
0000c0 f0 82 22 3d 5c 66 16 bd ba e9 9e bd 02 7e 8f 3d
       0.039675653 -0.03671871 -0.077594236 0.07006456
0000d0 3d d4 a9 bd 67 85 2c 3c 6d a4 7c 3d a1 5b 99 bd
       -0.08292434 0.0105298525 0.061680246 -0.0748818
0000e0 47 4c df ba ea 0c 57 3d d0 3a 83 bd 07 5d ca 3b
       -0.0017036282 0.05250255 -0.06407702 0.0061756405
0000f0 62 73 fe 3c ab d9 26 3b e9 29 88 bd e4 0b 43 bd
       0.031060878 0.002545933 -0.06648619 -0.04761876
000100 01 57 a7 3c bc eb 84 3d 46 9a d8 bc 7d e8 62 3d
       0.020427229 0.06490275 -0.02644075 0.0553975
000110 2f 90 a2 bd 0b 46 83 3d 09 33 17 3d cd 0a 77 3d
       -0.07937657 0.06409844 0.036913905 0.060313035
000120 50 00 99 bd 28 d2 37 bd 50 94 83 3c b9 a7 96 bd
       -0.07470763 -0.044878155 0.016061932 -0.07356209
000130 c4 16 14 3d 2d 27 14 bd 1f 9b 74 3d 8a 21 23 bd
       0.036154523 -0.036170173 0.059718248 -0.039826907
000140 44 c6 61 bd bb c1 a3 bc 2a b0 a1 3d 3c 60 04 bd
       -0.05512072 -0.019989839 0.07894929 -0.03231834
000150 b4 4b e8 3c 61 c7 b1 bd 0f d8 8d bd b7 49 61 bd
       0.02835641 -0.08680607 -0.069259755 -0.05500194
000160 76 e4 35 3d 1f ff 59 bd 97 b2 8c 3d c5 d5 1b bc
       0.04440733 -0.053221818 0.06870001 -0.009511416
000170 19 12 74 3d 54 e5 19 bd f6 f1 03 bd 10 4d 74 3d
       0.05958757 -0.03757222 -0.032213174 0.059643805
000180 8d 9f 9e 3c 00 23 8e 3d 85 f0 a1 bb 00 e4 9b bc
       0.01936319 0.069402695 -0.0049420022 -0.019029617
000190 75 76 9e 3d aa 23 4a bc 7d 48 57 bd a0 a7 ec 3c
       0.07737438 -0.012337605 -0.052559365 0.028888524
0001a0 1e 6d 69 3d 86 1a 8e bd 33 20 ac bd 90 99 9d 3d
       0.056988828 -0.06938653 -0.08404579 0.07695305
0001b0 c1 59 cf bc 1b 51 9a 3d 1f b2 2b 3d 18 c4 90 bd
       -0.025311353 0.07535001 0.041917916 -0.07068652
0001c0 ee 95 50 3d 3d f0 b3 bd c8 66 55 3d 5a 79 b0 3d
       0.050924234 -0.08786056 0.052099973 0.08616896
0001d0 ce 5b 6d bd 07 5d 0b 3d 9f d8 1b 3d e0 66 aa bc
       -0.05794888 0.034024265 0.038048383 -0.020801008
0001e0 db d1 92 bd 4f 8f 7f bd de 19 ed bb 55 7d 4f bc
       -0.07168933 -0.06239253 -0.0072357496 -0.012664159
0001f0 7e fd a5 bd c5 57 f0 bc ea cf a8 3c 1c 00 ac bd
       -0.081049904 -0.029338727 0.020606954 -0.08398458
000200 cf 56 9e bd 2c b9 8f bc 49 22 13 3d 1a b4 a6 3c
       -0.07731401 -0.017544352 0.03592137 0.020349551
000210 d8 03 ce bc ac 5b 99 3d 8a c9 2e 3b 8f bd 35 bd
       -0.025148317 0.07488188 0.002667042 -0.04437023
000220 af ff 0b bd b2 20 88 3a 7b 24 9c bd 29 3f 10 3d
       -0.034179386 0.001038572 -0.076241456 0.035216484
000230 6a 7c 96 3b 11 9e 27 39 a9 d5 43 bd 8b d9 03 bd
       0.004592468 0.00015985245 -0.047811184 -0.032189887
000240 db 0f cc 3c f2 eb 82 3d 54 2e 58 bd 0c 23 a8 3c
       0.024909904 0.06392659 -0.052778557 0.020524524
000250 38 59 2c 3d 4b 77 2c 3d cf 62 a9 3d 0c 6e 06 3d
       0.042077273 0.042105954 0.08270799 0.032819793
000260 51 db eb 3b e2 b9 54 bd 70 0e a6 3d 7b 1c ec bc
       0.0071977754 -0.051935084 0.081082225 -0.028822174
000270 06 9f 06 bd 1e c6 8a bd f3 86 d6 bb 10 0c 6c 3c
       -0.0328665 -0.06776069 -0.006546849 0.014407173
000280 0e eb 99 3d 03 c3 9b 3c 5b f7 3d bd 77 0c 88 3d
       0.07515536 0.019013887 -0.046378475 0.066430025
000290 97 fa fb 3c b4 0b ae 3d 25 4a 05 39 ee 28 da bc
       0.030759139 0.08498326 0.0001271149 -0.026630845
0002a0 01 d4 88 bd 45 fe f0 3b b8 92 dc ba b9 6e 91 3d
       -0.066810615 0.00735453 -0.0016828394 0.07101197
0002b0 7b 60 41 3d 6b 89 14 bd b3 7e 0c bd c0 a3 46 3d
       0.04721115 -0.036263864 -0.034300517 0.048496008
0002c0 a0 72 03 3d 3c f0 f5 bc 10 be 45 3d cf c2 13 3d
       0.032091737 -0.03002178 0.04827696 0.036074456
0002d0 bb 9b 28 bd 99 d1 14 bd e9 54 99 bc b9 41 a7 3d
       -0.04116414 -0.0363327 -0.018717246 0.081668325
0002e0 56 1a 05 3d 36 97 b4 bd 6b e8 84 3d 2c 04 f9 bc
       0.03249582 -0.08817904 0.06489643 -0.030397497
0002f0 3c c5 82 3d 6e 4a 4d 3d 37 99 90 bd 7d 99 e7 3c
       0.06385276 0.05011981 -0.070604734 0.028271431
000300 9e 8a 95 3d df fa 63 3c 50 29 93 bd d8 0e 9d bc
       0.0730183 0.013914793 -0.07185614 -0.019172117
000310 7f 17 77 3d 87 76 97 bd e4 df 89 3d 27 61 bf bc
       0.060325142 -0.07395654 0.06732157 -0.023361756
000320 32 bb a2 3a 86 2d 56 bd 83 d8 86 3d 55 12 1b 3d
       0.0012415408 -0.05228951 0.06584265 0.03785928
000330 05 a7 a3 bd 90 94 d6 3b dd 41 28 3d 75 88 18 3d
       -0.07990841 0.0065484717 0.041078437 0.03723951
000340 a4 1d ae 3d 2c db d8 3c 61 5c f6 bc 74 7a 00 bd
       0.08501747 0.026471697 -0.030073347 -0.03136678
000350 e5 12 a4 bd 34 58 b3 bd 9a 0c 40 bd 3a a3 53 bb
       -0.08011416 -0.08757058 -0.046887018 -0.0032293336
000360 a1 92 95 3c 43 db 8d 3d e0 c2 92 bd 9f c2 52 3d
       0.018258395 0.069265865 -0.07166076 0.051455136
000370 b8 67 90 bc 0f 0c 8c 3c 1d d4 54 3d b4 59 0f bd
       -0.017627582 0.017095594 0.0519601 -0.034997657
000380 7a ec 36 bd b7 ce 62 3d 33 44 97 bd e0 c3 4d bd
       -0.044659115 0.05537292 -0.07386055 -0.05023563
000390 78 42 35 3c 46 8f 6a bd 68 ea 8a 3d 70 3e 15 3d
       0.011063211 -0.057265542 0.06782991 0.0364365
0003a0 cf 57 75 bd 82 1c 6d bd f2 fb 4d 3d b5 dc 91 bd
       -0.059898194 -0.057888515 0.050289102 -0.07122175
0003b0 08 c5 ed 3c 27 4c a7 3c e3 86 97 3d dd dc 99 3d
       0.029024616 0.020422054 0.073987745 0.075128295
0003c0 48 fa 8c 3d 26 8c 7d 3d 17 f6 a6 bd 94 69 4a 3c
       0.06883675 0.061901234 -0.08152407 0.012354273
0003d0 69 e7 ff 3b 0e cd cf bc 15 85 5a 3d 07 58 ed 3c
       0.0078095687 -0.025366332 0.053349573 0.028972639
0003e0 03 21 1a 3d 00 7f 31 bd c3 a9 9f bd a5 b5 2b 3c
       0.03762914 -0.043334007 -0.07796051 0.010480319
0003f0 7e be 60 3c 22 f5 8c 3d 7d 89 ca bb 9b 4c e8 3c
       0.013717292 0.06882693 -0.0061809407 0.02835684

embed.3.bias f4 [256]
000000 ce 04 35 bd 9f ec b2 3d 59 8f 1f bc aa c3 9d bd
       -0.044194035 0.08736538 -0.009738767 -0.077033356
000010 5e 3a 51 3d 67 3c 8d bb f0 06 df 3c 83 cf 68 bd
       0.051081054 -0.004310179 0.027224988 -0.056838524
000020 b7 3b af bc 6e d2 31 bd 01 08 ae bd 19 d7 8e bd
       -0.021390779 -0.043413572 -0.084976204 -0.0697462
000030 d0 ca 64 3d 93 a9 67 3d 11 91 46 3c 65 24 8f 3d
       0.05585748 0.056558203 0.012119547 0.069893636
000040 e1 25 1b 3d c1 2e 85 3d 51 82 57 3d cc 31 a7 3d
       0.03787792 0.06503058 0.052614514 0.08163795
000050 3a f1 9e 3d 0e be ad bd 48 6d d0 3c 89 f7 da 3a
       0.07760854 -0.08483516 0.025442734 0.0016705851
000060 25 8b 2f 3d 3f d8 9c 3d 18 28 59 bd 17 57 8a bd
       0.042857308 0.07658433 -0.053016752 -0.06754892
000070 db 50 02 3d 13 bb 90 bd 03 53 54 bd 6a 1a 07 3d
       0.03181539 -0.070669316 -0.05183698 0.032984175
000080 32 4e 64 3d 98 1b 75 3c 5e 02 b1 3d e3 a5 0c bd
       0.055738635 0.014960192 0.0864303 -0.03433789
000090 db 7d 63 bd b8 ce 83 3d 63 ee aa 3d 05 3d 31 bd
       -0.055539947 0.06435913 0.0834625 -0.043271083
0000a0 19 8f ae 3d 21 70 e6 3c 95 f7 55 3c ee 34 23 bd
       0.085233875 0.02812964 0.013059516 -0.0398454
0000b0 4c 8b b0 bd 3e ee af bd a1 18 65 bc 23 32 87 bb
       -0.08620319 -0.08590363 -0.013982923 -0.00412585
0000c0 7e 43 f7 3c 7c cc 83 3c ca 93 9f bc ab f9 8c 3c
       0.03018355 0.016088717 -0.019479651 0.017208895
0000d0 14 e1 fd 3c a3 fe 8c 3d 2b 2a 25 bd 1c b6 ab 3c
       0.030991115 0.068845056 -0.040323418 0.02096086
0000e0 94 ec 18 bd 44 a0 be bc d7 d9 29 bd d3 e6 09 3d
       -0.037334993 -0.02326978 -0.041467514 0.033667397
0000f0 6f 3d 23 3c 7a af ef 3c 42 89 d8 bc e5 93 88 3d
       0.009963377 0.029258478 -0.026432637 0.06668834
000100 dd 85 31 3d b5 91 74 3d 59 f2 dd bc c4 fa ea 3c
       0.043340553 0.05970927 -0.0270931 0.028684027
000110 3d 46 04 3c b7 be b6 3c e4 45 b2 3d 5f 4f c6 bc
       0.008073387 0.022307737 0.08704737 -0.024207769
000120 77 be b7 3c c2 57 6e bd 5d 19 a3 3d 85 84 de 3a
       0.022429688 -0.05818916 0.07963822 0.001697675
000130 cd 89 f3 3c 9e 5c ff 3c 2c 92 78 bc 26 f5 7a bd
       0.029728794 0.031172093 -0.015171569 -0.061268948
000140 bd ad 4c 3d 2c 10 31 bd 8f 80 5b bd 67 db 67 bd
       0.049970377 -0.043228313 -0.0535894 -0.056605723
000150 a8 bf ad 3d f8 a8 1b bd ad 07 6a bd ff d7 97 bd
       0.08483821 -0.038002938 -0.057136226 -0.07414245
000160 21 0f 6f bd 4b 0e 87 3c 46 94 a4 bd b9 91 9c bd
       -0.058364037 0.016486308 -0.080360934 -0.07644982
000170 cd 1c bc ba 22 e5 05 bd 75 e6 a2 bd f0 56 66 3d
       -0.0014351845 -0.03268922 -0.079541124 0.056235254
000180 9a 1c 91 3d 44 d7 53 bd bb 9e 40 bd ea 95 77 3c
       0.070855334 -0.051718965 -0.047026377 0.015111426
000190 44 c8 e3 3b d4 b6 03 bc ea fb d5 3a 60 1b 7d bc
       0.0069513638 -0.008039195 0.0016325687 -0.015448421
0001a0 f4 d1 3c bd 08 25 82 bd c4 01 b4 bd 57 05 19 3d
       -0.046098664 -0.063547194 -0.08789399 0.037358608
0001b0 a3 6b 24 3d 48 74 c0 3b 12 99 49 3c 27 66 94 bc
       0.040141713 0.005873237 0.012304561 -0.018115116
0001c0 9a 77 50 3c aa 7c 85 bd e5 03 f3 bc aa d8 04 bd
       0.012723828 -0.065179184 -0.029664943 -0.03243319
0001d0 41 a4 b4 3b ca b3 85 bd ea ec 15 bc e1 9f a8 bd
       0.0055127447 -0.06528433 -0.009150723 -0.082336195
0001e0 91 30 87 3c cf 08 99 bd 13 02 ab 3d 42 47 94 bc
       0.01650265 -0.07472383 0.08350005 -0.018100385
0001f0 0e 56 f2 bc 27 14 a4 bd f0 f7 81 3d 00 bc 7d bd
       -0.02958205 -0.08011656 0.063461185 -0.06194687
000200 46 6e d5 3c 2c 5d 9e 3c 1c 9f 74 bd 33 bd b0 3b
       0.026053559 0.019331537 -0.05972205 0.005393648
000210 58 0a 98 3d ae 23 c3 38 98 30 af bd f8 f7 f1 39
       0.07423848 9.3049704e-05 -0.085541904 0.00046151853
000220 a1 dd e4 3c f1 70 b3 bd 71 85 96 bd aa cb 60 bc
       0.027937712 -0.08761776 -0.07349671 -0.013720432
000230 74 68 95 bd 0d 72 77 3d 5f db 95 bd 75 81 99 3b
       -0.072953135 0.0604115 -0.07317232 0.004684622
000240 f5 97 3e 3b f3 fd ab bb 7c 3b a6 bd 8e dd 16 3c
       0.0029082273 -0.005248779 -0.081168145 0.009208096
000250 5e 2d 39 3d 59 eb 17 bd d0 d9 ce ba b0 6b a7 bd
       0.04520928 -0.03708968 -0.0015781466 -0.08174837
000260 9e 1e 43 bd 82 27 9c 3d 7e 40 67 bd a5 c3 46 bd
       -0.04763662 0.07624723 -0.05645799 -0.048526425
000270 44 b3 6d bd d4 bf 82 bc d6 cc 6a 3d 39 63 de 3c
       -0.05803229 -0.015960611 0.057324253 0.027146922
000280 cd 1e 0b 3d 5f 2d 8a 3d 89 fd dc bc fb e5 b2 3b
       0.03396492 0.06746935 -0.026976364 0.0054595447
000290 81 bc 0a 3d 2f 23 92 3d e8 3e 68 bc d6 ee e5 bc
       0.033871178 0.07135617 -0.014175154 -0.028067987
0002a0 64 8f 9b bd e5 0a 83 3d f5 b9 31 3d 66 49 b4 bd
       -0.07595709 0.06398562 0.043390233 -0.08803062
0002b0 31 64 9e bd ac 97 3c bd fa 9f 6b 3d f3 80 76 bd
       -0.07733954 -0.046043083 0.057525612 -0.06018157
0002c0 ca 18 6a bd 2b f8 42 bd df db f7 3b 51 e1 21 bd
       -0.057152547 -0.047599953 0.0075640525 -0.03952152
0002d0 a1 9b 9e 3d 04 ad 73 3d ae 8f 9b 3c 79 5f 50 3c
       0.077445276 0.059491172 0.01898941 0.012718075
0002e0 52 14 98 bd 89 cc 88 3d c2 f4 44 bd a2 9c 07 3d
       -0.07425751 0.06679637 -0.04808498 0.03310836
0002f0 1e f1 b0 3d d4 09 b3 3d 6a 67 07 3d e7 16 b2 3d
       0.086397395 0.08742109 0.033057608 0.086957745
000300 54 f2 89 bd 8f c6 c7 3c fd 9c 11 3c 34 a3 06 bd
       -0.067356735 0.024386672 0.008887527 -0.032870486
000310 4e 0f 26 bd 12 ae 89 3c bb 68 2a 3c a6 80 f0 3c
       -0.04054194 0.016806636 0.010400946 0.02935822
000320 bb 7f 09 3d 5f c0 08 3c ff d3 42 3c ff 9a 8e bc
       0.03356908 0.008346646 0.011891364 -0.017407892
000330 ab cc 6f 3c b1 01 99 bd 5c 0f 0f bc eb e2 3b 3d
       0.014636199 -0.07471026 -0.008731689 0.045870703
000340 c6 ce 89 bc 81 b1 4a 3d 6d 4f c8 3c 7f 0a 90 3d
       -0.01682223 0.049485687 0.024451936 0.07033252
000350 cb 54 8b bd db 83 9a bd 21 ee 22 3d 7e 0f 4e 3d
       -0.06803282 -0.07544681 0.03977788 0.050307743
000360 9a 97 2e bc 70 bb f6 3c aa 38 94 bd 32 7d 0c bd
       -0.010656262 0.030118674 -0.0723737 -0.034299083
000370 13 74 84 3d fc d6 76 bd d0 dc 94 b9 14 44 70 3c
       0.06467452 -0.06026362 -0.00028393278 0.014664669
000380 24 f7 ff 3b 79 44 27 3d 03 98 0a 3d bd dc a6 3c
       0.007811444 0.040836785 0.033836376 0.020368928
000390 26 ad ad bc 74 a2 29 bd 2a 99 5d bd 3a 79 7a bd
       -0.021200728 -0.041414693 -0.054101147 -0.061150767
0003a0 df 99 59 ba c0 24 8a bd 5a fc d2 ba c2 77 82 bd
       -0.00083008216 -0.06745291 -0.0016096935 -0.06370498
0003b0 a8 64 af 3d d9 b2 4b 3d 44 cb 91 3d d3 75 4e bd
       0.085641205 0.04973111 0.07118848 -0.050405335
0003c0 bc 5f ac 3d 6c 7c 38 3d fb a6 a1 3d f6 1e c5 bc
       0.084166974 0.045040533 0.07893177 -0.024062615
0003d0 79 dd b1 3d 02 d0 88 bd 3c 40 09 bd f7 f2 a6 3d
       0.08684821 -0.06680299 -0.033508524 0.081518106
0003e0 87 0f 43 bd 3e 2f c2 3c 80 30 12 bd b2 ed 46 bd
       -0.04762223 0.023704167 -0.035690784 -0.048566528
0003f0 4a 00 39 3d a4 69 cb bc a6 06 42 bd d4 6f 60 bc
       0.04516629 -0.024830647 -0.04736962 -0.013698537

conv_spatial.mlp.0.weight f4 [256, 2]
000000 ae 18 9e bd 95 03 63 3d 63 21 82 be f9 8c 4c 3d
       -0.07719551 0.055423338 -0.25416097 0.04993913
000010 b0 2d 0f bd c3 20 90 3e 7f 58 b2 bd f5 2f 15 3e
       -0.03495568 0.28149995 -0.087082855 0.14569075
000020 c9 e6 8d 3d 4b 67 4d be b2 a1 6a be 4e f3 c7 bd
       0.069287844 -0.20058934 -0.22913244 -0.097632036
000030 8a f7 5b be 03 bd 67 3e 23 00 a0 bd 2b f7 5c 3d
       -0.21481147 0.22630696 -0.07812526 0.053946655
000040 e9 a5 68 3d ad bb 90 3e 32 30 a0 3e 8d e5 73 be
       0.05679885 0.28268185 0.3128677 -0.23818035
000050 e3 e1 a3 3d 7b 77 34 be 84 f3 ad 3d 98 19 49 3d
       0.08002069 -0.17623703 0.084937125 0.049096674
000060 0f 29 33 bd 17 0e 31 be 94 25 9f 3a ec cf 16 3e
       -0.04374033 -0.17290531 0.0012141936 0.14727753
000070 e0 e4 00 3d d4 82 9a 3d f9 c4 b2 3d f6 90 31 be
       0.031468272 0.07544485 0.08728976 -0.17340454
000080 e8 ad 11 bd bd 84 fc 3b 97 3d d8 be 44 35 b0 be
       -0.03556624 0.0077062533 -0.4223449 -0.34415638
000090 7b 07 6c b9 c1 06 14 ba a9 4c 33 be 0d 90 4a be
       -0.000225095 -0.00056467584 -0.17509712 -0.19781514
0000a0 45 2f 83 bd aa 7b f8 3c 28 10 37 be ba 04 50 bd
       -0.064055 0.030332405 -0.17877257 -0.050785758
0000b0 5b 9e 9b 3e 06 25 ac 3e 8b ab a5 3d 06 9e 0e 3e
       0.30394253 0.33621997 0.0808936 0.13927469
0000c0 56 0b 37 3e 0a c7 0a 3d b8 19 c1 bc ba 2f 87 3e
       0.17875418 0.033881225 -0.023571834 0.264036
0000d0 83 1d 8d be c0 6d 99 3d 06 c0 f6 bd 49 0d 7f 3d
       -0.27561578 0.07491636 -0.12048344 0.06226853
0000e0 cb b8 de 3d a2 44 28 3e f9 58 17 3d d6 7c 01 3e
       0.1087509 0.16432431 0.036950085 0.12645277
0000f0 2e b4 59 be e1 3d 67 3e df c1 b9 3d e4 87 64 3e
       -0.2126014 0.22582199 0.09070181 0.22317463
000100 23 cb 4a bd 15 43 5c 3e 0a e8 2a 3e 6b b5 04 be
       -0.049510133 0.21509965 0.16690078 -0.1295983
000110 e7 50 99 bb 3f 23 86 bb 3b a6 59 be 07 21 fa 3c
       -0.0046788338 -0.004093557 -0.21254818 0.030533327
000120 fd 92 90 bd e1 6e 3f 3e ba 69 61 3d ff 09 28 bd
       -0.07059286 0.1869464 0.05503247 -0.041025158
000130 fe 76 23 3e b4 80 f1 3c 25 e6 13 be 44 25 f4 bd
       0.1596336 0.029480316 -0.14443262 -0.1192117
000140 55 e7 8e 3e 80 77 68 3e bc 29 df 3d 14 dc 42 3e
       0.27910867 0.22701836 0.10896632 0.19029266
000150 71 63 97 bd df e4 6a 3e ed 0a 7f 3d 7a dc bd 3d
       -0.07392014 0.2293887 0.06226628 0.09270568
000160 c9 ef bf b9 7d 52 0b ba b6 13 aa 3c 64 75 47 3e
       -0.00036609013 -0.0005314721 0.020761352 0.19478375
000170 f0 ed 59 3c 8c 76 25 3d 78 7b 13 3d a8 78 89 3e
       0.013301358 0.04039626 0.03600642 0.26849866
000180 1b e3 98 bd c7 13 51 3d 9d 1d 96 bc 7c ca 27 3d
       -0.07465192 0.05104425 -0.018324668 0.04096459
000190 92 ed 69 be de 25 22 3c 41 1a d6 bd 70 94 5d be
       -0.22844532 0.009896724 -0.10454226 -0.21638656
0001a0 c4 cf a8 bd 0b 2f a4 bd 85 8a df bd e8 31 a2 3d
       -0.08242753 -0.08016785 -0.109150924 0.07919675
0001b0 93 f3 2c bd 53 b9 42 be 12 08 0c be 98 fa 2b 3b
       -0.042224478 -0.19016008 -0.13674954 0.0026241895
0001c0 7c d2 a8 bd e6 7c 4c 3e 56 8a a1 bd 9f 9e 87 be
       -0.08243272 0.1996952 -0.078877136 -0.26488206
0001d0 e5 05 ca bd aa eb eb bd ae a4 a9 bd d1 94 7f be
       -0.098644055 -0.11519559 -0.08283363 -0.24959113
0001e0 15 6d dd 3e 46 07 fb be 77 9d 81 3e 07 d2 b6 be
       0.43247285 -0.49028987 0.2531545 -0.35707113
0001f0 08 3d 4c be 5a d8 30 be bc 7c ee bd 36 86 af bd
       -0.19945157 -0.17270032 -0.11644885 -0.085705206
000200 43 09 84 3d 8a 20 7d 3e 74 f1 d4 3d 29 2f 4d be
       0.06447079 0.24719444 0.10397616 -0.20037521
000210 89 87 3b 3d e8 20 1e be 3e c8 b3 be 9e a5 a4 3e
       0.045783553 -0.1544224 -0.3511371 0.32157606
000220 a2 99 54 be 72 e4 4f be 19 a8 30 bd 28 1f 11 bd
       -0.20761731 -0.20301989 -0.04312906 -0.035430104
000230 20 06 c2 bd 9a cb 51 3e 4c 5d 12 bc 65 45 c5 bd
       -0.094738245 0.20487824 -0.0089333765 -0.096323766
000240 2d a6 e9 bc be ac 66 be e8 97 98 3c 98 1c 51 be
       -0.028521622 -0.22526833 0.018627122 -0.20421064
000250 df 11 5f bd 93 af 2f 3e 8d ab 04 3e 06 1d 11 bd
       -0.054460403 0.1715682 0.12956066 -0.03542807
000260 6c a6 99 3a d0 7f 09 3a 56 82 30 3d e3 29 c0 3d
       0.0011722571 0.0005245181 0.043093048 0.09382989
000270 98 0a 9d bd 87 f5 c5 bd b2 b0 41 bc b7 57 2c 3e
       -0.07668036 -0.09665971 -0.011821913 0.16830336
000280 38 3b 9f bd 49 dd ed 3d 29 99 55 3e 51 66 16 bc
       -0.07774967 0.116144724 0.20859207 -0.009179668
000290 bf bf 0d 3d f0 cf 6f 3d 0d 27 89 bd 22 9a 40 be
       0.03460669 0.058547914 -0.066969015 -0.18808797
0002a0 9a ff 95 bd 85 03 2f be 65 40 ae 3d 54 6f 37 bd
       -0.07324143 -0.17091186 0.08508376 -0.044783905
0002b0 d8 7e 88 3d 48 33 f1 3d 73 b4 60 3e 0c 5d 80 bd
       0.066648185 0.11777359 0.21943836 -0.06267747
0002c0 ab af 66 be 78 1c 4c 3e a0 5c 09 3e 8b ed 11 bc
       -0.2252795 0.19932735 0.1341424 -0.008906732
0002d0 3e fe 6b 3e d7 33 1f 3e f8 ef 9e 3a 83 2e 23 3a
       0.23046204 0.15547119 0.001212596 0.00062248873
0002e0 d7 f3 56 bd e6 f3 57 bd 8f b3 11 be 49 7e c4 3d
       -0.052478638 -0.052722834 -0.14228652 0.095943995
0002f0 c7 1c 69 3e e5 35 45 3d db ee 96 3e 80 30 38 be
       0.22764884 0.0481471 0.29479107 -0.17987251
000300 2c 09 9b be ca 80 ba 3e e9 e2 97 be 19 e0 4a bd
       -0.30280435 0.36426383 -0.29665306 -0.049530122
000310 ae 52 7f 3a 4a e1 2c 3a 0d 44 52 bc 9b dd 08 3e
       0.0009739798 0.000659485 -0.012833607 0.13365786
000320 93 42 94 3d 0e 45 37 3e 31 e4 09 be fe af af 3d
       0.072392605 0.17897436 -0.13465954 0.0857849
000330 ba 31 16 3e 62 9b c1 bd 6a 8d 9c 3a 95 51 90 39
       0.14667407 -0.09453465 0.0011944 0.00027526604
000340 16 5f 59 be c4 ee e7 3c d3 e9 d4 bd c8 54 22 3e
       -0.21227679 0.028312095 -0.10396161 0.15852654
000350 e3 6b e2 3d f8 97 71 bd bc 03 11 be ca 2b 13 3d
       0.11055734 -0.05898282 -0.14161581 0.035930432
000360 b0 79 19 be 4e c4 19 be 20 bf 1d be 1c 51 47 bd
       -0.14987826 -0.1501629 -0.1540494 -0.048661336
000370 d4 6d b1 bd 91 90 3c be 28 dd 65 be c7 dc 82 3e
       -0.08663526 -0.18414523 -0.22447646 0.25559065
000380 80 44 e2 3d 56 74 4e 3e 10 24 78 3e b8 87 3a bc
       0.110482216 0.20161566 0.24232507 -0.011384897
000390 26 7c af 3e 57 1b 38 3e 91 be 39 3d ab 76 24 3e
       0.34274405 0.1797918 0.045347754 0.16060893
0003a0 70 26 ca 3d ed 05 0b be 33 15 3c 3e c2 2f ed ba
       0.098706126 -0.1357648 0.18367462 -0.0018095898
0003b0 20 ea 2d 3c db ab 47 3e 59 d6 cf bc 20 c3 59 be
       0.010614902 0.19499151 -0.025370764 -0.2126584
0003c0 d1 17 1c be 89 86 ec 3b 28 b7 fd 3d 0e fe ad 3e
       -0.1524346 0.0072181863 0.1238845 0.3398289
0003d0 85 b3 80 3e 6e 55 f3 3c 98 58 64 3d 4e c9 a2 bb
       0.25136963 0.029703822 0.055748552 -0.004967845
0003e0 70 93 a7 3b 57 5f cd bd c9 68 50 bd dc 16 36 bd
       0.0051140115 -0.1002795 -0.05088118 -0.044455394
0003f0 88 17 55 be 55 b7 1e be 60 47 ab bc 0f 7e 14 3e
       -0.20809758 -0.15499623 -0.020908058 0.14501213

conv_spatial.mlp.2.weight f4 [256, 256]
000000 7c 91 46 be b6 44 db bd 68 3f 2f bf e5 0c ae be
       -0.19391435 -0.10706465 -0.68456125 -0.33994213
000010 6a 34 0a 3f 87 93 39 3e 6e 22 8f be 40 b8 79 be
       0.5398623 0.18122683 -0.27955955 -0.24386692
000020 d3 fe 40 bf 79 c0 91 3e 8c 16 e5 3e 75 0c 8f be
       -0.7538883 0.28467157 0.44743764 -0.2793919
000030 1d e8 27 3f 13 cd 40 bf 2a fd da be 70 19 dd 3e
       0.6558855 -0.7531292 -0.42771274 0.4318347
000040 c5 32 53 bd 32 ff ad 3e 3b 70 bc bc 1e 8b ac 3e
       -0.05156209 0.3398376 -0.023002734 0.33699888
000050 03 25 28 be 18 98 45 3e 38 ce a7 be 65 f1 f4 be
       -0.16420369 0.192963 -0.3277452 -0.4784042
000060 59 e3 c2 bd b7 db 2f bf 49 9e 09 be 10 90 28 be
       -0.095160194 -0.68694633 -0.13439287 -0.16461205
000070 c1 ed ca be bb 80 0e bf 43 c7 ac be 2c e3 0d bf
       -0.39634517 -0.5566518 -0.33745775 -0.5542476
000080 59 5c 16 bf a4 a4 8c 3e bb 30 71 3e d1 54 30 bd
       -0.5873466 0.2746936 0.23553745 -0.043049637
000090 3e 77 e1 be 51 0e 92 3e ab ae db bd be 03 a9 3e
       -0.44036287 0.28526548 -0.10726675 0.33010668
0000a0 87 50 70 be 16 13 d1 be b8 ad f2 be dc b9 ae be
       -0.23468219 -0.40834874 -0.47398162 -0.34126174
0000b0 08 80 3d 3d 66 32 4e bf a9 f0 d3 be 0b ab 5b bf
       0.04626468 -0.8054565 -0.41394547 -0.85807866
0000c0 85 c7 61 be 9e 62 e2 be df 81 f9 bc 65 c7 ff 3e
       -0.22048767 -0.44215864 -0.030457435 0.49956813
0000d0 29 f8 a0 3e f8 1d 55 be a6 5f 2b 3f a4 0f b0 b9
       0.3143933 -0.20812213 0.6694282 -0.0003358099
0000e0 52 51 f1 be db 98 1a 3f d9 51 d3 3e 65 75 15 3f
       -0.47132355 0.6038949 0.41273382 0.58382255
0000f0 d8 dc a6 3e 33 d6 8e 3e 8f b4 92 3e b4 71 67 3e
       0.32590365 0.27897796 0.2865338 0.22601968
000100 d4 a6 34 bf a9 22 c8 3e 8a 4f fe 3e ab ea 69 be
       -0.7056706 0.39088944 0.49670058 -0.22843425
000110 f7 81 88 3e 6c 06 ad 3e 4f 20 ef be 63 97 3a 3f
       0.26661655 0.33793962 -0.46704337 0.7288725
000120 ad 4e 5d 3f 04 8e 2b 3f 32 02 fc be 4c 15 07 3e
       0.86448175 0.67013574 -0.49220425 0.13191718
000130 7d 39 71 3d 62 d7 01 bf 88 ee b6 3e b5 44 38 bf
       0.058892716 -0.50719273 0.3572886 -0.7197984
000140 e2 44 c4 be dd 79 27 3d fe 73 e8 be b8 e5 14 3f
       -0.38333803 0.040887702 -0.45400995 0.58163023
000150 ac dc f7 3e ee 00 36 3e 8d ce cc be 95 41 4f 3d
       0.48410547 0.17773792 -0.40001336 0.050599653
000160 47 43 88 be e7 fa 0e bc 5a 18 94 be 7c f4 d5 3b
       -0.2661383 -0.008726812 -0.2892483 0.006529389
000170 e3 a9 9f 3e 0b 32 38 be ee 3c df bd b3 e9 4e 3e
       0.311843 -0.1798784 -0.10900293 0.20206337
000180 dc 8a ae be 0e b0 0e 3e 2b 15 fd bc b4 59 33 bf
       -0.34090316 0.13934347 -0.030893883 -0.7005875
000190 d4 ac 04 bf 2a 07 3e be b5 10 7b 3e 4f 6c 69 3d
       -0.51826215 -0.1855742 0.24518092 0.056988057
0001a0 34 3a a8 bc 59 ef b0 be d6 dd 09 3e e5 23 e8 bd
       -0.020535566 -0.34557608 0.1346353 -0.11334971
0001b0 4f dd b5 3e 7d 38 13 3e 66 be 03 3f 6f 37 82 be
       0.35520408 0.14377017 0.514624 -0.25432917
0001c0 59 4c fb be 2f 73 1f 3d c9 34 2e be 5c d1 26 bf
       -0.49081686 0.038928207 -0.17012323 -0.6516321
0001d0 f7 46 aa 3e d3 21 04 bd 58 07 47 bf d4 80 56 3f
       0.33257267 -0.03225882 -0.7774558 0.83790326
0001e0 53 32 0a bc 89 6f 23 bf 96 d3 76 bd 2b a7 87 3d
       -0.00843485 -0.63842064 -0.060260378 0.06623682
0001f0 1e 37 20 3f 93 53 8b 3e 9d b0 6e 3e 33 20 1a bf
       0.625841 0.272122 0.2330956 -0.6020538
000200 5d b7 52 3f 9c 88 ab be c4 91 96 bb d8 ed aa bc
       0.8231104 -0.33502662 -0.0045950133 -0.020865366
000210 60 3c 15 be 33 13 bd 3d e8 dd 83 3e 82 09 3c 3e
       -0.14573812 0.092321776 0.2575524 0.18363002
000220 23 3f 89 3e dc 00 24 be 92 05 3c 3e 8d 58 04 bf
       0.26805982 -0.16015953 0.183615 -0.5169762
000230 53 03 4a 3f 3c 28 a4 3d 4f f3 0c 3e c4 32 d6 be
       0.7891132 0.080154866 0.1376469 -0.41835606
000240 41 f6 ff 3d 0d 61 98 3e 29 94 5b be 09 65 06 be
       0.12498141 0.29761544 -0.21443237 -0.1312448
000250 fe f0 36 3f 48 f2 f0 be 1c 91 75 3e 74 98 f4 3e
       0.71461475 -0.47059846 0.23981136 0.47772563
000260 93 ff 28 3f cc 6c af 3e cf 86 0d 3f bd cf f5 be
       0.66014975 0.34262693 0.55283827 -0.48010054
000270 d6 b4 ed bd a2 66 73 3d e5 9e a8 be 64 b8 b6 bd
       -0.11606757 0.05942405 -0.32933727 -0.089218885
000280 6f 6d f5 3d 8c 7c 03 3f 14 ba 4e 3d 19 b2 75 3e
       0.119837634 0.5136192 0.050470427 0.2399372
000290 da 3a cf be af ef b1 3e ad fc 43 bf 98 18 5a 3e
       -0.40474588 0.34753177 -0.7655743 0.21298444
0002a0 78 b6 60 be 2c 38 7d bd 61 80 2f bf 05 f2 cd be
       -0.21944606 -0.061821148 -0.68555266 -0.4022371
0002b0 9a 22 c5 be 97 c0 d1 3e 1b 3d 0d 3f 10 67 88 be
       -0.3850296 0.40967247 0.55171365 -0.2664113
0002c0 65 28 28 be cd e3 6a be 5d 12 50 bc b4 8a 9c 3e
       -0.1642166 -0.22938462 -0.012699691 0.30574572
0002d0 da 93 42 3e 56 cd 30 be 3b b8 c5 be 04 00 41 bf
       0.19001713 -0.1726583 -0.3861712 -0.7539065
0002e0 31 db 31 be 96 ec 1c 3e 40 d7 d2 3e 00 a5 3e 3f
       -0.17368771 0.15324625 0.41179848 0.7447052
0002f0 71 be b5 be 53 c7 a7 3d 95 46 ca be a2 ff dc be
       -0.35496858 0.08192315 -0.39506975 -0.43163782
000300 9f 49 9d be 9d 81 87 3e e0 d1 84 3e 97 7a d3 3c
       -0.3072023 0.26466075 0.25941372 0.025815291
000310 9f 5d 01 bd 98 0e d5 3d 8b 2e c2 3d 5a 67 86 3e
       -0.031583425 0.10403174 0.094815336 0.26250726
000320 8d 4a 16 3e 8c b2 40 3f 21 2e 87 be 82 19 6c bd
       0.14676876 0.7527244 -0.2640238 -0.057641514
000330 0b 59 9d be eb 09 2a be 77 94 18 3e fa 2a 96 be
       -0.30731997 -0.16605346 0.14900385 -0.29329664
000340 ea 3e 06 bd f8 fa a8 3d cb 65 93 be 87 ec 1f 3e
       -0.032774843 0.082509935 -0.287886 0.15617572
000350 ca 4d a4 3d 0f 29 fd be 78 20 e0 be 43 85 e6 3e
       0.080226496 -0.49445388 -0.43774772 0.45023546
000360 61 ce 79 3e 7e cc 67 3d 0d 68 93 bc 96 42 42 3c
       0.24395134 0.056591503 -0.017993951 0.011856696
000370 ae 3e 8e 3e c0 50 03 bc 1f 82 a7 3e 7c f1 cf be
       0.27782196 -0.008014858 0.32716462 -0.40613925
000380 f0 f9 ca 3d 27 31 0f 3f c4 81 55 3e fe 79 32 3e
       0.09910953 0.55934376 0.20850283 0.17429349
000390 9f 55 21 3e 97 be 41 3d df be f7 bd 82 eb 12 3f
       0.15755318 0.0473009 -0.12096953 0.57390606
0003a0 f5 6b 42 3e f1 10 79 be 9a 96 58 3e b4 84 92 3e
       0.18986495 -0.24322869 0.211512 0.2861687
0003b0 a1 6c 97 3e 71 9a bd 3e 7e e6 97 3e 17 0b 9b be
       0.29575065 0.37031892 0.2966804 -0.30281898
0003c0 3a b3 95 be f8 21 17 3f e2 4b 0a 3f 79 cb 71 be
       -0.29238302 0.5903621 0.5402204 -0.23612775
0003d0 8d ba 9e bd c4 bc cb 3e 45 fd 0f 3f 72 8b 9f be
       -0.077504255 0.39792454 0.56245834 -0.31161076
0003e0 44 73 a8 3e 8f 97 00 bf 42 b9 77 be 2d 78 d0 3e
       0.3290044 -0.5023126 -0.24191764 0.40716687
0003f0 db c4 85 3d 80 58 5f bb 83 6a 7f be 85 1c 57 bf
       0.06531688 -0.003407985 -0.24942975 -0.8402789

conv_spatial.mlp.4.weight f4 [2, 256]
000000 1e 5b 9f 3c b0 10 4f 3e 93 1e 1c 3e af bd 76 3e
       0.019452628 0.2022121 0.15246038 0.24095796
000010 9f a1 73 3e f5 61 8a 3d 5e 27 12 be f4 6f a1 3c
       0.23792122 0.06756965 -0.1427283 0.019706704
000020 f5 46 f7 bc b4 0a 72 be af ae a8 be 08 ea 7d 3e
       -0.030185202 -0.23636895 -0.32945773 0.24796307
000030 ff 2e 0b 3e ea 36 71 bc 41 9a bc be a7 0b 92 be
       0.13592146 -0.014722565 -0.36836436 -0.28524515
000040 d3 c7 fb 3c 97 2d 70 3d 15 07 c7 3c 8a f2 8f 3e
       0.030734932 0.058637228 0.02429537 0.2811473
000050 96 01 6a be bd f4 f2 bc 0a ef 77 3e e3 86 20 be
       -0.22852167 -0.029657716 0.2421228 -0.15676455
000060 ea 61 c8 3e da 44 86 be 6e a0 9e be 8d b0 bf be
       0.39137203 -0.26224405 -0.30981773 -0.37439385
000070 91 c1 f6 bd e8 38 9d be 2b 88 84 be 20 a3 2a be
       -0.120486386 -0.3070748 -0.25885138 -0.1666379
000080 fe 68 a0 3e 4f 28 f1 3d 98 ee ef bd d1 86 84 be
       0.31330103 0.117752664 -0.1171543 -0.25884107
000090 d8 ac 68 be ce e0 a5 be 4b c9 a3 be 4b b4 80 be
       -0.22722185 -0.32398075 -0.31989512 -0.25137553
0000a0 14 71 1b be 2a fa f4 bd 80 8d 94 3e bc b0 8e be
       -0.15179855 -0.119617775 0.29014206 -0.27869213
0000b0 84 e7 a3 be 9b 4f 0e 3e e8 03 97 3e 02 27 20 3e
       -0.3201257 0.13897555 0.29495168 0.1563988
0000c0 93 64 87 3d 5a df 21 3e de 22 9a 3e 70 85 f8 3d
       0.0661098 0.15807858 0.30104727 0.12134826
0000d0 47 30 f9 bc f6 8c a1 be c8 1b b8 3d eb e2 80 be
       -0.030418528 -0.31552857 0.08989674 -0.25173125
0000e0 38 e6 8c be f4 91 bb be da 3e b7 3e 6c 69 ac 3e
       -0.27519393 -0.3663479 0.3579014 0.3367418
0000f0 b6 2b 9a be bf c4 87 bd e4 c6 82 be 67 e3 a0 3e
       -0.30111474 -0.06629323 -0.25542367 0.31423494
000100 b9 b3 08 be 7c bb a0 be ba 9d 14 3d 23 96 5e be
       -0.13349809 -0.3139304 0.036283232 -0.2173696
000110 5b 1e 2b 3e d3 d1 c2 be 12 b9 8c 3e 9f b5 b8 be
       0.16710798 -0.38050708 0.27484947 -0.36076066
000120 47 a8 f5 3d c2 d2 2b bd 0f c4 ed bd f5 33 04 be
       0.11994987 -0.04194904 -0.11609661 -0.12910445
000130 7f 0b 6b be 18 58 c6 bd bd 56 c9 be 67 ef a9 3e
       -0.22953604 -0.09684771 -0.3932399 0.33190462
000140 2d 0d 9f 3e 1a 3a 88 3e 04 c2 65 3e 0c f9 ab 3e
       0.3106474 0.26606828 0.22437292 0.33588445
000150 fb 6d 48 be 2d cc 03 be b8 2e 33 bd 5e 16 22 be
       -0.19573204 -0.12870856 -0.043745726 -0.15828845
000160 8a 97 84 3d 30 cc 1b 3e 8a bd b5 3c 7b 83 cf be
       0.06474216 0.1521461 0.022185106 -0.4053
000170 b8 3d 28 be 2d a4 30 3e 54 d3 2a 3e 85 f8 92 3d
       -0.16429794 0.17250128 0.16682178 0.071763076
000180 76 94 9d be e1 ee 59 3e 60 a9 a4 be 2c 53 9f 3e
       -0.3077733 0.21282531 -0.32160473 0.31118143
000190 ab a9 27 3d 94 e1 82 3e aa 16 13 be a9 02 b9 3e
       0.040933292 0.25562727 -0.14364114 0.36134842
0001a0 36 00 b8 3e 0a 78 44 3e 8d f3 a2 bd a6 30 00 3e
       0.3593766 0.19186416 -0.0795661 0.12518558
0001b0 c9 92 5b be 38 0c 7e be f9 ce 7e bd 07 06 a3 be
       -0.21442713 -0.24809349 -0.062209103 -0.31840536
0001c0 a7 5e c2 3e 36 ff 6e 3e 4d 96 75 3e 63 39 b0 be
       0.3796284 0.23339543 0.23983116 -0.34418783
0001d0 34 1a 94 be 87 d8 2d be 30 c4 87 3e d6 a9 b0 bd
       -0.2892624 -0.1697713 0.26516867 -0.08626144
0001e0 26 bd 3b be 21 2a 97 3e 17 61 9b 3e 52 02 f1 3c
       -0.18333873 0.2952433 0.3034751 0.029420052
0001f0 a4 d1 f2 bd e3 bc e7 3d c3 45 72 3e b1 4c aa 3d
       -0.11856392 0.11315324 0.23659424 0.08315409
000200 30 df 46 be 45 41 91 3d 04 83 10 be f4 22 91 be
       -0.19421077 0.07092527 -0.14112478 -0.2834698
000210 58 9c 53 3e be 0b b1 3e c2 13 ca be 5f 0b 38 3d
       0.20665109 0.3457927 -0.394682 0.04493272
000220 e8 53 b1 3e 78 4e 7f 3e 94 11 4f be 6b 3f 8d bd
       0.34634328 0.24932277 -0.2022155 -0.06896862
000230 e6 65 a6 3e 85 5b a9 be fd 12 38 3e 61 e5 9b 3e
       0.32499617 -0.33077636 0.17975993 0.3044844
000240 0b 4d 93 be dd 94 b0 be 9a 22 b9 3d fd 51 ba 3e
       -0.28769717 -0.34488574 0.09039803 0.36390677
000250 a3 41 26 be da ec 00 3e 90 9e ad be 9d 79 bb be
       -0.16235976 0.12590352 -0.33910036 -0.3661622
000260 e9 32 8f be 45 d8 89 be e1 3a b7 be 0d 72 9a 3e
       -0.2796853 -0.26922813 -0.3578711 0.3016514
000270 d0 42 7a 3d fe cf a1 be f7 d8 fd bc ab 61 cd 3e
       0.061098874 -0.31603998 -0.030987246 0.40113577
000280 b2 05 3e 3c 74 be 29 be bd 86 c1 3e 6a f5 9e 3e
       0.011598038 -0.16576558 0.3779811 0.3104661
000290 82 da 91 bd 79 87 4a 3e 5d ba a3 be 66 a9 03 be
       -0.07121755 0.19778241 -0.3197812 -0.12857589
0002a0 0c 8b b2 39 d0 1b c9 be 0d 96 6e be 62 5c 38 be
       0.00034054404 -0.39279032 -0.23299427 -0.18003991
0002b0 00 c4 8d 3e c2 3b 87 3e 84 cf 23 be 43 d2 66 3e
       0.276886 0.2641278 -0.1599713 0.22541146
0002c0 9a 94 f1 3d 9a af c5 bd d2 6c c4 be 87 65 4a be
       0.117959216 -0.09652634 -0.38364273 -0.19765292
0002d0 44 e5 ae be 8d 09 e0 bd 7a 95 88 bd c3 42 d0 3c
       -0.3415929 -0.10939322 -0.066691354 0.02542246
0002e0 2a 1b 39 bd 03 ad 49 be 75 c2 3a 3e a8 54 45 be
       -0.04519192 -0.19694905 0.18238242 -0.19270575
0002f0 20 c3 cb 3e f5 4c a1 bd d9 43 a6 be d0 eb 2f be
       0.39797306 -0.078760065 -0.3247364 -0.17179799
000300 ff bf bd 3d fd a4 94 be 28 30 ae 3e 8f 22 fe 3d
       0.09265136 -0.29032126 0.34021115 0.12408935
000310 4d 90 57 3d bb 2b 85 be ee 5c 77 3e 4b ae a2 3e
       0.05262785 -0.26009926 0.24156544 0.317736
000320 02 58 43 3d d3 36 b3 3e 3c a8 b6 be 50 9b 0a bd
       0.047691353 0.35002765 -0.35675228 -0.033839524
000330 79 dd 47 3e e3 26 be 3d 53 0c a3 3e e2 c4 c5 3c
       0.19518079 0.09284761 0.3184534 0.024141733
000340 17 89 cf 3e 86 05 88 be ed 1d 6d bd a9 02 3e be
       0.4053428 -0.26566714 -0.057889868 -0.18555702
000350 7e cd 97 be da ea 7a 3e 63 a1 cb 3d e3 3f b2 be
       -0.29648966 0.24503651 0.099428914 -0.34814367
000360 9f e5 b4 be 25 2b d8 3d 9a 87 84 be 7e 9a 90 3d
       -0.35331437 0.10555104 -0.25884706 0.07060717
000370 ad 13 9c 3e 57 9b 43 3e de 2f a0 be 6e 6d d0 3d
       0.3048376 0.19102226 -0.3128652 0.10177122
000380 ec f4 f4 3d 93 ae 9e be 66 bb 93 3e 15 53 71 3e
       0.11960778 -0.30992565 0.2885391 0.2356685
000390 a0 81 3d be a9 df 6b 3e 0a 1f bb 3c a7 5d 04 be
       -0.1850648 0.23034538 0.022841949 -0.1292635
0003a0 4f 7e 96 bd 03 18 13 be 2f 3f 2e 3e 62 db ab be
       -0.0734831 -0.14364628 0.1701629 -0.33565813
0003b0 fd ef 87 bc ec 40 59 bd 77 e5 57 be ff 84 a0 3e
       -0.016593928 -0.05304043 -0.21083628 0.31351468
0003c0 87 7d cf be 6a 99 7d 3d 17 5f 18 be c8 e5 06 3e
       -0.40525457 0.061913885 -0.14880024 0.13173592
0003d0 7d 98 8b 3e b7 55 7f 3e bf ee 81 3e 86 41 c2 be
       0.27264777 0.24935041 0.2537746 -0.37940615
0003e0 6f fc a0 be 80 c1 44 3e c2 c7 a7 be 1f 5f 80 3e
       -0.31442592 0.1921444 -0.3276959 0.25072572
0003f0 63 00 c2 bc 65 f5 e7 bd 53 cf b9 be f0 8c 15 3e
       -0.023681825 -0.11326102 -0.36290988 0.14604545
