logs/M3D26_wmd_debug_lr2e5_bs1024_tscale10_r08_randommask/score.pt (torch, 799589 bytes, 13 tensors)

embed.0.W f4 [64]
00000000: 8db0 95c1 fd09 1bc1 62a1 8240 f033 9f41
00000010: 33d0 e0c1 c9f7 2ec0 b78d 06bf 4b91 0d42
00000020: b001 1f41 8e40 0ac2 f1cf 9742 1377 81c2
00000030: f653 4b42 baca 49c1 c140 45c1 8bdd 5240
00000040: 10f7 4941 9309 0bc2 a0c1 b141 01a1 d7c1
00000050: b185 bac0 21be 0a42 f400 0e42 0ff4 10c2
00000060: 9282 1642 77ef 06c2 ef07 2b41 75f9 23c2
00000070: a0f2 0042 7c0f 81c2 9662 21c1 f97c 0342
00000080: 13fe 64c1 2e09 9340 a8c2 b9c1 811f 82c0
00000090: 235a 9e41 897d 0e42 6482 e9c0 e16c 6c42
000000a0: 3f8a 7741 9ec1 9ac2 f781 5241 cc72 6fc2
000000b0: b94d db41 34d9 10c1 3d18 5141 3cd2 bcc1
000000c0: ac56 07c2 e27f 3dc1 088c bec1 2c9f d141
000000d0: ac5e ddc1 e4e6 1641 ab9d ff40 f2c9 61c2
000000e0: e4fb db41 1413 2bc0 6905 2542 d560 d4c1
000000f0: f92a eb41 6bef 1842 51ee 1242 7fab 09c0
-18.711206 -9.689939 4.0822 19.90036 -28.10166 -2.7338736 -0.5255999 35.391888
9.937912 -34.56304 75.906136 -64.73257 50.831993 -12.611994 -12.328309 3.294772
12.622818 -34.75935 22.219543 -26.953615 -5.8288198 34.685673 35.50093 -36.23834
37.62751 -33.733852 10.689437 -40.99361 32.23694 -64.53024 -10.086569 32.872044
-14.31203 4.5948706 -23.220047 -4.0663457 19.794012 35.622593 -7.297167 59.106327
15.4712515 -77.37816 13.15673 -59.862106 27.41295 -9.053028 13.068418 -23.602654
-33.83464 -11.843721 -23.818375 26.20272 -27.671227 9.43137 7.9879966 -56.447212
27.497993 -2.6730394 41.255283 -26.547281 29.395983 38.233807 36.73273 -2.1510923

embed.1.weight f4 [128, 128]
00000000: 1c24 f8bc 9fc5 65bb 1f76 433d 1faf a23d
00000010: a6cc 34bd e4e6 253d c455 ac3e 3623 6e3a
00000020: 1893 16bd b930 c1bd bcf2 683d 6c74 5cbd
00000030: 3b23 1c3d a4af dc3b b3a4 13bd 7500 6cbd
00000040: 2d41 f53c dc10 0f3d aa55 92bc c81c a63d
00000050: f7b6 c13c 1d7b 4cbc 047b 9ebd 97fc 553d
00000060: 63cd f8bc bd72 b6bd f319 2fbc 7565 61bd
00000070: fafe 17bc b51a 0a3d 675e 13bb 6c9e 0cbd
00000080: 9129 17bd 1da9 a43c 8033 17bc 8c3f d83b
00000090: 4256 64bd eb0d 523d 8b10 613c eb8e 6bbc
000000a0: 219f 8cbc 014c 26bd d40a 413d a22d 043d
000000b0: e434 043d 74d4 09bd b385 f9bc 8700 033d
000000c0: 2e2c 04bc b579 e4ba 6e2e 91bc 6aaf 853d
000000d0: 2581 723d 3430 1d3d 11bc 5cbd dfb2 0e3d
000000e0: 90d7 dc3c 93aa 143d 2695 903d 4e39 813d
000000f0: 3acc 463b aa9a 1b3c 369f c33b d227 03bd
00000100: 22ef 763d e8c8 ad3c 530e 2ebd 9a73 96bb
00000110: b4b4 4abd 3bea 8ebc 8cd3 83bc 6ecd dcbc
00000120: ddb8 bcbb c3d1 4f3d 27d8 093e 2f59 aabc
00000130: 7020 693c d7cc a6bd a09a 9dbd beda ed3b
00000140: 48f7 843d 3c0d c0bb af08 703d 8a88 28bd
00000150: e88b 133c 5303 2a3d 9deb e33c 11eb ba3c
00000160: edb3 41bd 3247 92bd bfe8 a4bc c0bf a1bb
00000170: cf94 34bd 0508 b63c e182 0dbd 9c38 f8ba
00000180: 2acc 523d 1fc8 36bd 41fc 543c be87 18bd
00000190: d272 473d 10aa 30bd bbe6 68bd 9517 c23b
000001a0: 1ecd 863b 5193 5d3d 244b 90bc 4bdf 7f3d
000001b0: dfb8 5cbb 217d 43bd 517b c83c d10e c6ba
000001c0: 69bd 0c3d d99b 89bd 78db 773c 2c92 3ebc
000001d0: 2853 943d 692f e8bc c19e 2ebd 1d96 34bc
000001e0: 011b 423d e005 b4bc 153b 91bc 425d 123d
000001f0: 5d1f f43b ec88 153d 6857 29bd fc58 60bd
00000200: 27c9 9a3c 26b8 08be 25c4 153d fe7f 59bd
00000210: 58ae cabd dbfd 653d dfd6 153f 9894 ef3b
00000220: f2f4 37bd 617f 0d3d d987 963c cfec 933d
00000230: 29d4 183c 0749 5f3c 8a97 1fbd 1e10 81bd
00000240: be03 963d e161 423c fdb3 f1bc 50d0 833d
00000250: 535d 323d 1bc6 b2bd b7f8 8b3d 43bc 543d
00000260: d09d 37bd 4504 1e3d 085d b4bd 51fd bf3d
00000270: dc69 7ebc 761b b1bd bff5 ddbc b68b dd3d
00000280: d036 fbbc 364d cabd 7f45 fcb9 c95d ac3d
00000290: 96a1 a33c 4d11 8dbd 41b4 c83d 7dbf 373c
000002a0: ae29 373d 6814 16be 9a49 11bd 0de0 14bd
000002b0: 592d 6bbd 9c80 c2bc 56cb cabc 06aa d93c
000002c0: e173 68bd 57cf 5e3d fa7f f6bd 1142 3cbd
000002d0: 1b96 44bd c735 b9bd 2ea5 203d d0d0 5bbd
000002e0: 4a43 65bc 11f7 eb3c 6a40 9abd 7843 e8bd
000002f0: 0221 833d b333 b0bc 67b9 8e3d bd9a 8b3d
00000300: a500 5c3c 8444 15bd a0fe 31bd dea6 923c
00000310: c3c0 55bd 4d31 e1ba 8975 03be f3c7 7d3d
00000320: 23b9 13bc 9c2d 78bd 1c45 64bc 179f 243d
00000330: 8455 d9bd 49ed 4a3d b49f 253d 148e 19bb
00000340: cda8 6a3d 5cf8 263c 6cff e33b 6eb3 fd3a
00000350: 0cb0 20bd b0e1 913d ec0c 80bd 35f3 4e3d
00000360: 7cf9 cf3d 23b1 b53d 7cef a63c 86d1 cdbd
00000370: 4eb5 d63c dc49 94bd 986b a6bd 06e7 0e3c
00000380: 6ff8 143b c273 8ebc d271 1b3b e37f b43d
00000390: 186d d03c 6e69 d6bc ff63 79bc 7e92 423d
000003a0: 4749 8ebd 3164 8a3d 4f39 b1bc dba5 d6bd
000003b0: 90ce 903c e2e7 dabb 383f a3bd da4a 573d
000003c0: a050 e3bb 3823 24bd 9de5 043e 8b1c 8f3c
000003d0: 3e5d 383d b361 cebd 595d 9ebc 7fdc 04bd
000003e0: 1746 b9bb 8a33 933b 07fd e63d c151 acbc
000003f0: f1ff edbc 5141 7fbd af1f acbb a10a 96bc
-0.030290656 -0.0035060418 0.04772007 0.07943558 -0.04414048 0.040503398 0.33659184 0.00090842263
-0.036761373 -0.09433121 0.056872115 -0.053821966 0.038119536 0.006734805 -0.03604574 -0.057617623
0.029938305 0.034928188 -0.017863113 0.08110958 0.023646815 -0.012480524 -0.07738307 0.05224284
-0.030371374 -0.08908603 -0.010687339 -0.055028398 -0.0092771 0.033716876 -0.0022486688 -0.03433077
-0.036904875 0.02010017 -0.009228587 0.0065993723 -0.055746324 0.051282804 0.013736854 -0.014377336
-0.017165722 -0.040599827 0.047129467 0.03227008 0.032277003 -0.033649877 -0.03045926 0.031982925
-0.008067174 -0.0017431291 -0.017722335 0.06527598 0.059205193 0.03837605 -0.05389029 0.034838554
0.026958257 0.036295485 0.07059698 0.06309758 0.003033413 0.009497324 0.005969907 -0.032020397
0.06028665 0.021213964 -0.04249413 -0.0045914175 -0.04948874 -0.017445674 -0.016092084 -0.026953425
-0.005759342 0.050737154 0.13461362 -0.02079448 0.014228925 -0.08144539 -0.07695508 0.007258742
0.06492478 -0.0058609527 0.05860203 -0.04114584 0.009005524 0.041507076 0.02782231 0.022817167
-0.04729073 -0.07142486 -0.020130513 -0.0049361885 -0.044087227 0.02222062 -0.034548644 -0.0018937769
0.051464237 -0.044624444 0.012999595 -0.03723883 0.048693486 -0.043130934 -0.056860667 0.0059232214
0.0041138073 0.05409557 -0.017613955 0.06246881 -0.0033679528 -0.047726754 0.024472864 -0.0015110617
0.034360323 -0.06719179 0.015128009 -0.01163153 0.07242423 -0.02834292 -0.04263187 -0.011022118
0.047389034 -0.021975458 -0.017728368 0.03573347 0.007450028 0.036507532 -0.041343123 -0.054772362
0.018894745 -0.13351497 0.03656401 -0.05310058 -0.09896535 0.0561503 0.5853099 0.007311415
-0.044911332 0.034545306 0.018375324 0.07222902 0.009327927 0.013628251 -0.03896288 -0.06301902
0.073249325 0.011864156 -0.02950477 0.06436217 0.043546032 -0.08729192 0.06834548 0.051937353
-0.044828236 0.03857829 -0.08806807 0.09374488 -0.0155281685 -0.08647816 -0.02709472 0.10817663
-0.030665785 -0.09878008 -0.00048116964 0.084163256 0.019974511 -0.068880655 0.09800006 0.011215088
0.044717483 -0.14656222 -0.035470583 -0.036346484 -0.057416294 -0.023742966 -0.024755161 0.026570331
-0.056751136 0.054396953 -0.12036128 -0.045961443 -0.047994714 -0.0904346 0.039220028 -0.053665936
-0.013993094 0.028804334 -0.07531817 -0.11340994 0.0640278 -0.021509027 0.069689564 0.06816623
0.013427888 -0.036442295 -0.04345572 0.017901834 -0.052185785 -0.001718083 -0.12837805 0.061958265
-0.009016308 -0.06059037 -0.013932493 0.040190782 -0.10612014 0.0495427 0.040435508 -0.0023430632
0.057289887 0.010191049 0.006957939 0.0019355842 -0.03923039 0.071231246 -0.06252465 0.05052491
0.10155007 0.08871677 0.020377867 -0.10049729 0.0262095 -0.0724065 -0.08125991 0.0087220725
0.0022731086 -0.017389182 0.0023718965 0.08813455 0.025442645 -0.02617332 -0.015221595 0.047502987
-0.0694757 0.06757391 -0.021633772 -0.10480853 0.017676622 -0.0066804746 -0.079710424 0.05256162
-0.0069371015 -0.04007265 0.12978216 0.017469665 0.045010798 -0.100772284 -0.019331621 -0.032436844
-0.0056541073 0.004492228 0.1127873 -0.021035077 -0.029052706 -0.06231815 -0.0052528004 -0.018315615

embed.1.bias f4 [128]
00000000: e56e d2be 8baa 41bf a706 243e 8273 f3be
00000010: 115d 21bf 6612 13bf cc36 f5bd 0063 d3be
00000020: e57a 22bf f369 08bf 19d0 013e 3e6c edbe
00000030: 50bb 46bb f8d5 26bf 7b91 bbbe a1c0 d8be
00000040: 358d a1be bd46 e2be feda 11bf e6ca fcbd
00000050: ade1 2fbf b622 3cbe 10bb 2ebf af27 2abf
00000060: a231 75be 52f5 febe c53f 73be 6df7 f6bd
00000070: 7ea1 10bf c0d1 04bf a0b9 09bf fd34 15bf
00000080: 7e8c 983d c43f 22bf 59b4 aebe 0d39 fdbe
00000090: e85e cabe 6a1b aa3c 6520 463e 4d86 a2be
000000a0: ab5a 21bf ffca 82be ff31 3bbf 8c4d efbe
000000b0: c1e7 ecbe 80d2 12bf fe1e bbbe d56d a7bd
000000c0: e2a2 0dbf 69fc c2be 12e3 4fbc 63a3 d9be
000000d0: 17f4 69be 12e7 2fbf 1a4e 1fbf b37c 1cbf
000000e0: 8143 01bf 6bd5 bf3e 4652 abbe 6eeb e7be
000000f0: 2b5b 96be d763 c4be 80db 03bf d577 19bf
00000100: 79eb 3bbe ae35 48be 2530 d2be 0971 8fbe
00000110: a421 16bf 9954 57be 4b3a a4be b74d 34bf
00000120: cad0 22be 95c8 fb3d 6f78 f2be e548 19bf
00000130: 901d 13bf cf0a b9be 0d38 1abf 0355 3ebf
00000140: 85d0 93be 36bf 733d 58bd 97be fb8c e23c
00000150: 8fda 8ebe 860b 01be 1028 e1be 5b8c d83e
00000160: 396f f1be d73e afbe 09fc e7be 5d52 aabe
00000170: bc0c a2be 4dd1 b4be d146 9abe 42de bcbe
00000180: 9b3a b3be 21ce 1cbf e99b 06bf 63da 20bf
00000190: 01b3 1cbf 6208 063f 2b35 91be 3c7e aabe
000001a0: 533d 08bf 05ba 333d b283 cbbe fb22 aabe
000001b0: 6519 05bf d3a5 cebe e67c b9be be0a e73d
000001c0: f9e0 00bf 202b 08bf 9a76 33bf 84ad 833e
000001d0: 9938 c2bd f1b7 debe 006e 41bf b9d6 02bf
000001e0: 2b9e 2bbf 8280 dbbe 80a2 5dbe 3f6f 4e3d
000001f0: e801 35be c6ba 0a3e 92bd 59be 4d3a 42bf
-0.4110023 -0.7565085 0.16018163 -0.47549063 -0.63032633 -0.5744995 -0.11973342 -0.41286469
-0.6346877 -0.53286666 0.12677039 -0.46371645 -0.003032405 -0.6517024 -0.3663443 -0.42334464
-0.31553045 -0.44194594 -0.5697478 -0.12343387 -0.6870373 -0.18372616 -0.68254185 -0.664668
-0.23944715 -0.4979654 -0.23754795 -0.120589115 -0.5649642 -0.51882553 -0.53798866 -0.5828398
0.07448672 -0.6337855 -0.3412197 -0.4945759 -0.39525533 0.020765025 0.19348295 -0.31743088
-0.63028973 -0.255455 -0.73123163 -0.4673885 -0.46270564 -0.5735245 -0.36547083 -0.08175246
-0.55326664 -0.380832 -0.012688415 -0.42507467 -0.22847019 -0.6871196 -0.6222855 -0.61127776
-0.5049363 0.37467512 -0.33461207 -0.45296806 -0.2936643 -0.38357422 -0.51506805 -0.59948474
-0.18351544 -0.19551727 -0.41052356 -0.28015926 -0.5864508 -0.21028365 -0.32075724 -0.70431083
-0.15899959 0.12294117 -0.4735751 -0.59876853 -0.57466984 -0.3614106 -0.60241777 -0.7434847
-0.28870025 0.059508525 -0.29636645 0.027655115 -0.27901122 -0.12602052 -0.43975878 0.42294583
-0.4715517 -0.3422763 -0.45309475 -0.33265963 -0.3165034 -0.35315934 -0.30132154 -0.3688832
-0.3500565 -0.6125203 -0.5258165 -0.6283323 -0.6121064 0.5235654 -0.28360876 -0.33299434
-0.53218573 0.043878574 -0.39748913 -0.33229813 -0.51991874 -0.4036089 -0.36228102 0.11281346
-0.5034328 -0.53190804 -0.70102847 0.2571832 -0.094834514 -0.4349971 -0.7555847 -0.5110889
-0.6703822 -0.4287148 -0.2164402 0.05039906 -0.17676508 0.13547811 -0.21263722 -0.7587021

embed.3.weight f4 [128, 128]
00000000: 2ab4 91bd fad0 9fbd e77f 91bd afc8 1c3d
00000010: 452c bc3b 9afe edbc 3326 35bc 107c 143d
00000020: 3812 4b3d 4c19 05bd bbb3 9fbd c7af e03c
00000030: 93da 433d dab2 c5bd c896 06bd d1ed 9a3c
00000040: a45e 47bd e81f 34bd d2b1 5fbd f27f 013d
00000050: 3447 ccbd 15cc c0bd 6324 88bc f6d6 60bd
00000060: 8343 143c 7c4a 3ebd 276a 8bbb 9dba 5bbd
00000070: e103 b03c 999f cabd abd9 d8bb 2033 8bbd
00000080: 7f16 0fbd 748a 6dbd 2d60 6dbd 3e88 f5bd
00000090: 02f9 e33b e468 65bd ec58 f83c b194 2f3d
000000a0: dbb0 dfbd e146 d73b d7ae 1cbd 6571 83bd
000000b0: e06a 45bd 6b49 263d c2e7 9abd 7644 493c
000000c0: 229f 15bd 743a d2bb d46f d0bd 3a17 583c
000000d0: 74b6 a9ba e7ef 193d 5a16 1b3d 9370 e2bc
000000e0: 0889 6ebd d856 e5bd 2ac1 8abd f943 38bd
000000f0: bc4f 91bd 814a 02bd ca65 93bd e551 74bd
00000100: 4862 313d 4426 193d c2eb d4bd 413c e3bb
00000110: 7823 373d 85ab a0bd 80d2 c0bc 7827 b7bd
00000120: 8e2d f83c f514 d43c 1568 dfbd d5b2 e6bc
00000130: 71c2 ba3c d196 2cbd fa1d 91bb 1b64 c7bd
00000140: 98fd e1bc 0ad2 3a3d 1a05 013b 9bdb 65bd
00000150: c01e d8bc 3f94 afbd baae 77bd 61f9 16bd
00000160: bb30 a0ba 80fc 2cbb e86a 213c 54db e0bc
00000170: e85b 92bc c866 bdbd 0a3d 5ebd 1755 773c
00000180: 88be 4a3d 868d 2ebc 1022 19bd ef67 2d3d
00000190: 48b8 ffbc 298c 80bd 5e78 9fbd 150e 52bc
000001a0: 954c 723c 3f8b 39bd 6800 32bc be99 213d
000001b0: bde7 863c 3800 1a3d c847 6f3c 5bd5 0cbd
000001c0: 9fc5 07bd c9c9 6d3d 1721 8d3b 7903 6ebd
000001d0: 5101 9cbc 8d43 aebd 4fc8 d1bd 6598 0ebd
000001e0: d37e bfbc e43f d8bd f01b b23a 24b4 69bd
000001f0: d824 2c3d 0a1e eb3b 3020 e9bd a56f 61bd
00000200: d913 ac3a acb5 253c d9a9 58bd 8d9c d63b
00000210: 221b 9bbd fe7e 863a 59f6 3ebd 862a 36bd
00000220: e423 b5bc 52e8 a83d a92f 7dbd 4efc 00bc
00000230: 00e2 10be e63d d93c b522 233c d035 dfbd
00000240: 57b3 56bd af96 073d 8c29 0bbd 5948 2cbe
00000250: 07e4 e5bc c7f8 11bd b167 8abd 87b6 15bd
00000260: c67e b7ba 12f7 673d 216e 57bc f627 8fbd
00000270: 34f6 8ebd b547 3cbe cb27 9bbc bc74 e83b
00000280: 8b9e 38be c1d5 9bbd edd0 963c 937d efbd
00000290: 835c 1d3d 9560 a6bd 73f1 09be 22e4 babd
000002a0: b939 5abb 3c4e 43bd c13c 863b 349d 1fbc
000002b0: dbf2 67bd 8c07 a7bc d0ba d5bd a483 07be
000002c0: 3b8a 40bc bed5 bdbc c816 7cbe b4ae 3bbd
000002d0: ce39 ebbd ed76 1a3d 8f19 9ebd a25b b1bd
000002e0: e719 61bd d9b7 85be ae15 dcbd 9266 a73c
000002f0: 8232 003d 4ad5 d0bd 73e5 7bbd d32d 3e3d
00000300: 0db6 1dbd 09d7 31bd 0338 43bc 4519 86be
00000310: f222 b03c 5119 92bd 7b27 dcbd eb8c a9bc
00000320: ec2b 12be 5b19 4dbd d3bc ddbd 9855 a1bd
00000330: 17db 4dbd aac1 213d 8b71 9d3d d83f 1abc
00000340: 8378 8bbd e9e0 4ebe ca89 24bc f930 1ebe
00000350: d18f bebc ff31 48be c443 403d 3254 16bd
00000360: e205 66bd 6549 473c 4652 3dbb aca6 96bc
00000370: 7ff9 c83c da16 84bb ef4e dfbc 8ebc c8bc
00000380: a3b8 fa3b 723a bebd fdbf 853c f6ee 51bd
00000390: 760b e0bc 2d9a 1cbd e710 5bbe 201d 01bd
000003a0: fa6f 263d 538f d03c 1cad 29be fb69 343b
000003b0: 2e31 77bc 5c5d a1ba 70e3 4dbd ed9d 2239
000003c0: 1bb3 af3b f050 293c 6741 febc 3546 c5bb
000003d0: ebae 7cbd ac01 57bc fc33 d83b 310e 1bbe
000003e0: da51 37bd 7bb6 65bc 6d29 30bd 39ee 1b3d
000003f0: ec60 dd3c 0b6d aebd a1aa 09be 94c1 6e3d
-0.07114442 -0.07803531 -0.071044736 0.038277324 0.005742582 -0.029052068 -0.011056471 0.036251128
0.04957792 -0.032494828 -0.07797953 0.027427567 0.04781587 -0.09653254 -0.03285864 0.018912228
-0.04867424 -0.04397574 -0.054612942 0.03161616 -0.099745184 -0.094139256 -0.016618913 -0.054892503
0.009049299 -0.046457753 -0.0042545977 -0.053644765 0.021486225 -0.09893722 -0.006617745 -0.06796861
-0.034933563 -0.057993367 -0.05795305 -0.11988877 0.0069571743 -0.056008235 0.030315839 0.042866413
-0.109224044 0.0065697287 -0.038252678 -0.06418113 -0.048197627 0.04059736 -0.075637355 0.012284389
-0.036528714 -0.0064156596 -0.101775795 0.013189131 -0.0012948052 0.037582304 0.037863113 -0.02764157
-0.058236152 -0.11198205 -0.06775124 -0.0449867 -0.07095286 -0.031809334 -0.07197149 -0.059648413
0.04330662 0.03739001 -0.1039653 -0.006934673 0.04471156 -0.07845215 -0.023537874 -0.08943075
0.03029516 0.0258889 -0.10908524 -0.028161446 0.022797795 -0.042136017 -0.0044286223 -0.097358905
-0.027586743 0.045610465 0.0019686879 -0.056117635 -0.02638185 -0.085731976 -0.060469367 -0.03685892
-0.0012221554 -0.002639562 0.009852149 -0.027448334 -0.01786609 -0.092481196 -0.05425743 0.015095971
0.04949811 -0.010653859 -0.037386 0.042335447 -0.031215802 -0.062767334 -0.0778663 -0.01282074
0.014788766 -0.04529881 -0.010864355 0.03945326 0.016467923 0.037597865 0.014604516 -0.03438316
-0.03314745 0.058053765 0.004306923 -0.05810878 -0.019043596 -0.08508978 -0.10243284 -0.034813304
-0.023375904 -0.10559061 0.0013588648 -0.05705656 0.042027324 0.007175212 -0.113830924 -0.055038113
0.0013128474 0.010114115 -0.052896354 0.006549424 -0.075735345 0.0010261235 -0.046621654 -0.044474147
-0.02211184 0.082474366 -0.06181303 -0.007872654 -0.14148712 0.026518773 0.009957005 -0.10898936
-0.052417126 0.033102687 -0.03397517 -0.16824473 -0.028062833 -0.035637643 -0.06758059 -0.036551025
-0.0013999573 0.05663211 -0.013148815 -0.06990044 -0.06980553 -0.18386729 -0.018939873 0.007093994
-0.1802923 -0.0760913 0.01841017 -0.11693873 0.038418304 -0.0812389 -0.13471012 -0.09125544
-0.0033298566 -0.047682032 0.004096598 -0.00974207 -0.05662809 -0.02038934 -0.10436022 -0.1323381
-0.011751707 -0.02317321 -0.24618065 -0.045820907 -0.11485635 0.037711073 -0.07719719 -0.08660056
-0.054956343 -0.26116827 -0.107463226 0.020434652 0.031298168 -0.10196932 -0.061498117 0.04643042
-0.038503695 -0.043417964 -0.01191521 -0.26191154 0.021501038 -0.07133735 -0.10749718 -0.020697078
-0.14274567 -0.05007301 -0.10827031 -0.07877654 -0.05025777 0.039491333 0.07687672 -0.009414636
-0.06810095 -0.20202984 -0.010042617 -0.15448369 -0.023261936 -0.19550322 0.046939626 -0.03670139
-0.056157954 0.012163495 -0.002888815 -0.018390022 0.024533032 -0.0040310444 -0.027259318 -0.024503972
0.007651405 -0.09288491 0.016326899 -0.05125328 -0.027349215 -0.03823297 -0.21393166 -0.031521916
0.040634133 0.025458967 -0.16569942 0.002752899 -0.015087409 -0.0012311148 -0.05026573 0.00015508356
0.005361927 0.010334238 -0.031037046 -0.006020332 -0.061690252 -0.013122957 0.006597994 -0.15142132
-0.044755794 -0.0140205575 -0.043008257 0.038068984 0.027023755 -0.08516892 -0.13443996 0.05829008

embed.3.bias f4 [128]
00000000: a0e3 16be feb4 9d3e 9d09 773c c9fa bebd
00000010: 8946 90bd cccd 4cbe ae3d 0ebe 35f5 9abd
00000020: e199 febd 0e8a cb3d bba8 85bd 961b b2bd
00000030: 00ba 7bbd caaf 11be 4c63 76bd c42a c4bd
00000040: 7abe 2dbe 07a7 d7bd 95f4 87bd 277d 0dbe
00000050: c0d0 3bbe d86e 883e 499b 6dbe 1a38 c0bd
00000060: a60f 02be 8ed4 14be 6706 fdbd cbf9 72bd
00000070: ae42 c1bd d2fa fabd b3f1 17be 01b9 c4be
00000080: 1002 92bd 55cd 03be 51f2 37bd 3b76 cfbd
00000090: dcbd b1bd f413 53be 9805 a0bc 356b c9bd
000000a0: 97f2 b2bd 19de c7bd 6aee abbd d714 1abe
000000b0: 7c26 21bd 08b2 43bd 5215 bdbc b196 03be
000000c0: 5399 e9bd eea0 9fbd 1229 26be e6c9 2fbd
000000d0: bc5d b2bd 8f98 d43d 8e9d d8bd 7d64 09be
000000e0: 8de6 e2bd e913 623e 419d a0bd a5bc f2bd
000000f0: 30a3 fbbd a60b 13be 9a19 9e3e 4ddb 74bd
00000100: 1462 1dbd b202 00be 84f4 03be 24bd f5bd
00000110: d47f 41be 69b8 8fbd 411a d6bc 228f 58bd
00000120: 0093 093e 1cc6 a63a f58c 9bbd 40a6 bcbd
00000130: 47b0 2ebd 47fe eabd 4ffe 38bd cb34 e2bd
00000140: 2ad3 2abe 0cb0 eebd d51a aebd 779f 54be
00000150: 160e a0bd 4398 48be e191 63bd 67ba a5be
00000160: a11b 19be 8a89 8bbd e263 0fbe c98b 63bd
00000170: 51ae 4bbd b716 1dbe 1558 c9bd 9c61 b9bd
00000180: c7cf 34be 732e 7dbd 56ea 1bbe 3a26 3bbd
00000190: 4ab9 3ebe 8773 3dba b4d8 dcbd 81a0 15be
000001a0: 16db 26be d161 26be be87 62bd d1af 5dbe
000001b0: 5461 6ebd 9d3a 40be 988e f4bd 9baf a93e
000001c0: 9a9d 2fbe 30c5 43be 61de 91bd 8f48 24be
000001d0: 4a84 32be 3f68 96bd d623 b5bd 0a13 2cbe
000001e0: 109c d53d 4543 e0bd b356 f6bd 07f8 debd
000001f0: d508 2fbe e9d9 18be 42f7 19be 55d1 f0bc
-0.1473527 0.3080215 0.015077976 -0.09325177 -0.070447035 -0.2000038 -0.13890716 -0.07566301
-0.12431694 0.09938441 -0.065263234 -0.08696668 -0.06145668 -0.14227214 -0.06015329 -0.095784694
-0.16967192 -0.10529905 -0.06638447 -0.13817273 -0.1834135 0.26647067 -0.23203768 -0.093857005
-0.12701282 -0.14534208 -0.12354737 -0.059320252 -0.09436546 -0.122548714 -0.14838295 -0.38422397
-0.071293 -0.12871297 -0.044908825 -0.101299725 -0.08678791 -0.2061308 -0.019533917 -0.09834901
-0.087376766 -0.09759159 -0.08395083 -0.15047012 -0.039343342 -0.047777206 -0.023081455 -0.12850453
-0.114061974 -0.07794367 -0.16226605 -0.042917155 -0.08709285 0.10380661 -0.10576926 -0.1341724
-0.1107913 0.22077908 -0.07842494 -0.11852387 -0.12286985 -0.14359912 0.30878907 -0.059779454
-0.038423613 -0.12501028 -0.12886244 -0.11998966 -0.18896419 -0.07017595 -0.026135566 -0.052870877
0.13434982 0.0012723836 -0.07595245 -0.09211397 -0.04264858 -0.11474281 -0.045164403 -0.11045226
-0.16682115 -0.11654672 -0.085012116 -0.20763956 -0.07815187 -0.19589333 -0.055559043 -0.32368776
-0.14951946 -0.06813343 -0.14002946 -0.05555323 -0.049726788 -0.15340696 -0.098312534 -0.09051821
-0.17657386 -0.061811876 -0.15226111 -0.045690753 -0.1862537 -0.0007226993 -0.1078352 -0.14612009
-0.16294512 -0.16248251 -0.055305235 -0.216491 -0.058198288 -0.18772359 -0.1194126 0.3314179
-0.17149964 -0.1911819 -0.071224935 -0.16043304 -0.17433277 -0.07344102 -0.08844726 -0.16804138
0.10430157 -0.10950331 -0.12028255 -0.10887151 -0.17093213 -0.14926876 -0.15035728 -0.029396692

conv_spatial.mlp.0.weight f4 [256, 2]
00000000: 801d cebd bb69 96be 6b5f 263f b731 82be
00000010: d9dc 28be 5107 c2be ded3 cdbe d6f0 b93d
00000020: d115 553e f444 093f 353d c63c 43df fa3d
00000030: c02d e73c d29e d03c 9e3a 0cbd 5bf5 35bc
00000040: 1ed5 97be 3650 b63d 7c2f fdbd 63fd b7be
00000050: bf1d 0d3f 7994 aabe 9984 8c3d 4afb 41be
00000060: 85fe 83bd febe a1bc 4d7b 53bf e147 b3be
00000070: 47b3 143f 6094 5d3f da5f d3bb 4bba 46bd
00000080: d843 09bc 00d4 ea3e e8bd 84be f953 023e
00000090: f574 1e3f f1f5 2cbe 43d3 363f e4e2 90bd
000000a0: 716c 77bf 6ea9 e7bd e2ad 6cbf 6ba8 80bf
000000b0: 29ff 23be 5f33 813e e4c8 cfbe 5c88 0bbe
000000c0: 5034 673f b299 ff3e 9ceb ee3e fc1b ab3e
000000d0: 0518 373e 6905 63bf 3b48 d13d 0bcb 043c
000000e0: 96e5 84bb c617 bd3c 7486 b03d b778 873b
000000f0: 23be 3b3e b926 f93e 5b94 063e e644 1d3f
00000100: 2753 8b3c ac9f b0ba 4598 fe3c f76e 923b
00000110: 0784 c5bc 7def 993b c99a 0b3f 9af4 8dbd
00000120: cd9b 04be 86f4 c5be 725a 803e 5dff f2bc
00000130: 3fea 17be 9194 2bbf 9676 4abd 4288 a33e
00000140: 8f07 0b3e d6dc 603f 872e 13bd 0e45 32bd
00000150: d7be 9fbe b373 013f 2180 513d 6a46 07bc
00000160: f33a 02bc ca78 47bd 465f b93e 1fc5 36be
00000170: f45c 733c 7a46 2fbd 058c 00bf b0a1 973e
00000180: 17fb 1fbf 1609 f4be dc1b 5a3b 7245 3a3d
00000190: 80e8 debe 76a7 82bf c338 05be b87f e8be
000001a0: f30a f7bc 734e 88bd 3b70 4f3a 95d1 153d
000001b0: 07a1 e1bb 8972 7c3e 519e 023f 2b62 153e
000001c0: 9d5a 40bf cdf8 963e a4b4 1a3d e690 03bf
000001d0: 9cbf 8dbd 32df 823e 0cf2 8c3e 998b b7bd
000001e0: e8d1 0a3e 473f 73bd cf99 91bc 72a0 47bd
000001f0: fab2 593e 89ff 6abf fef8 0abf f564 e2be
00000200: 5acc bdbd d859 17be d40a 14bf 3e82 20bf
00000210: a895 f03e 3076 01bf fca5 89bf 8da9 913e
00000220: abdc 053e fb93 89be e2e0 cabe 1ddd 033e
00000230: a798 d03e dab1 a73d a468 6cbf 1a43 0b3e
00000240: e399 77bb 09b1 12bd 800a 4cbb 6ef8 013d
00000250: 2998 98bd 023d 8cbe b9c6 1f3e 8248 813e
00000260: 8dd5 cd3c 01c5 18bd f634 9b3b 35f9 17bd
00000270: 63b7 563b 7a91 dabc 3bee 9d3d 06ef dc3e
00000280: 51e0 b13e 4f2f 703e 19a4 59bf a28c 3fbf
00000290: 8c5f 2abb 6865 263d b63c 593d 7fc8 1bbf
000002a0: f798 10bf 9d45 22bf 835f 08bf 9e6d 2e3f
000002b0: 78e4 b4bc 3f11 903b 52cc a53e 3731 b8bd
000002c0: 0832 22bd 3d16 0e3e a2e7 07bd 6a00 55bd
000002d0: f64c 85bc d15a debc 8a2f 083f 5cd1 673e
000002e0: 9c86 603b 71e4 d63c b7a3 d7be 7397 3a3e
000002f0: 4220 263e ae5b 9c3d fba5 153e 78ea 2e3e
00000300: 6be2 c0bb d4ab 7a3c ff05 b13e 1c0f 823f
00000310: dd42 0d3f 1307 c8be f7a3 b83b d583 e1be
00000320: c75f 94bb 3d99 f3bc f643 8fbe 6765 20be
00000330: c4ed c1bc 904a bb3c 6b9e b4bb 5d75 923e
00000340: 6484 22bf 31e5 ec3d c765 14bb 3e71 59bd
00000350: ea87 00be 9136 45be e772 e43c 79d5 91bd
00000360: 811f 5dbc 6c8f b53c c9a7 48bc 61c9 04bd
00000370: 7007 5f3d db19 43bd a20d 5b3c 4059 8c3f
00000380: 6294 993e 6507 6a3e 3085 923d 4384 a23e
00000390: f0d6 383e 97fd e13e b8f5 3a3e 6244 93bd
000003a0: ba3e debd f037 e1be 89f1 633d 3797 69bb
000003b0: 1545 eebe 2067 363f 35d6 fbbe 8d23 90be
000003c0: 0895 553c dba4 333f fce7 613d b7e3 a43c
000003d0: 1249 e0b9 2760 05be 0c87 9c3d 6a8d aebc
000003e0: 525c 263f 205b 5fbf 9a9d 603c fd1c 2c3c
000003f0: e3e9 a93e 8a6f f43e f0f0 83bf c0ba 3f3f
-0.100642204 -0.2937754 0.64989346 -0.25428554 -0.16490497 -0.37896207 -0.40200704 0.09079139
0.20809104 0.5362084 0.024199108 0.12249615 0.028220057 0.025466356 -0.03423559 -0.011105861
-0.29654783 0.08902018 -0.123625726 -0.35935506 0.55123514 -0.333164 0.068612285 -0.18943515
-0.0644503 -0.019744392 -0.8261002 -0.35015777 0.58086056 0.8655453 -0.0064506354 -0.048517507
-0.008377992 0.45864868 -0.25926137 0.12727346 0.6189721 -0.16890694 0.7141611 -0.07074526
-0.96649843 -0.11311613 -0.92452824 -1.0051397 -0.16015305 0.25234506 -0.40582955 -0.13626236
0.903142 0.49921948 0.4666413 0.33419788 0.17880256 -0.8868013 0.10218855 0.00810505
-0.004055689 0.023082625 0.08619395 0.0041342634 0.1833425 0.48662356 0.1314253 0.61433256
0.017007424 -0.001347532 0.031078467 0.0044687944 -0.024110807 0.0046977387 0.5453306 -0.0693142
-0.12950058 -0.3866312 0.25069004 -0.029662782 -0.14835452 -0.6702357 -0.0494295 0.31939894
0.13577102 0.8783697 -0.035933044 -0.043522887 -0.31200287 0.5056717 0.051147584 -0.008256534
-0.007948625 -0.048699178 0.362055 -0.17848633 0.014853705 -0.04279182 -0.5021365 0.29615545
-0.6249251 -0.47663182 0.0033280766 0.045476384 -0.43536758 -1.0207355 -0.13009934 -0.45409942
-0.030156588 -0.06655588 0.0007913147 0.036576826 -0.006885651 0.24653067 0.5102282 0.1458823
-0.75138265 0.29486695 0.03776993 -0.5139297 -0.06921312 0.2556091 0.27528417 -0.08962173
0.13556635 -0.059386518 -0.017773537 -0.048736997 0.2125968 -0.91796166 -0.5428618 -0.4421765
-0.092674926 -0.14780366 -0.5782902 -0.62698734 0.4698918 -0.50570965 -1.075378 0.2844967
0.1307246 -0.26870713 -0.39624697 0.12877317 0.40741464 0.08188219 -0.9234717 0.13599816
-0.0037780933 -0.035813365 -0.0031134188 0.03173106 -0.07450897 -0.27390295 0.1560315 0.25250632
0.025126243 -0.037297253 0.004736538 -0.037102897 0.0032763116 -0.026680697 0.077114545 0.4315111
0.34741452 0.23455547 -0.8501602 -0.74823964 -0.0025996892 0.040624052 0.053036414 -0.6085281
-0.56483406 -0.6338747 -0.5327074 0.6813601 -0.022081599 0.004396587 0.32382447 -0.08993762
-0.039598495 0.1387567 -0.033179887 -0.052002348 -0.01627205 -0.027142914 0.5319754 0.22638458
0.003425992 0.026231976 -0.42117092 0.18221836 0.16223243 0.07634674 0.14614098 0.1708163
-0.005886366 0.015299756 0.34574887 1.0160861 0.5518015 -0.39067897 0.0056347805 -0.44045892
-0.004528019 -0.029736156 -0.27981538 -0.15663682 -0.023672946 0.022862703 -0.005512049 0.28605166
-0.6348326 0.11567152 -0.0022643672 -0.05308651 -0.12551847 -0.19259097 0.027886821 -0.07120795
-0.013496281 0.022163115 -0.012247034 -0.032418612 0.054450452 -0.04763208 0.01336995 1.0964737
0.2999602 0.22854383 0.0715431 0.31741533 0.18050742 0.44138786 0.18257797 -0.07190777
-0.10851808 -0.4398799 0.055650268 -0.003564311 -0.4653708 0.71251106 -0.49186864 -0.28152123
0.01303602 0.70173424 0.05515288 0.020128114 -0.0004277905 -0.1302496 0.07642946 -0.021307666
0.6498462 -0.8724842 0.01370945 0.010504958 0.33186254 0.47741348 -1.0307903 0.7489433

conv_spatial.mlp.0.bias f4 [256]
00000000: d932 c3be 2bee dd3c 0690 f83d 9503 bd3c
00000010: 08a4 32bf bb3b 213d 159e f9bc 3645 ecbc
00000020: f71f 17be aace acbe 0d6c 0fbf 185f 85be
00000030: 7e29 5dbd c3db 39be e613 8bbe ecc9 20bd
00000040: 6493 e2bd 5100 b8be 3ade 23bf eca9 d3bd
00000050: 5906 aabe 1743 8abe 1484 0cbf abcb 1fbf
00000060: bd00 6ebe ab3f 0bbf a5cc 40be c8f8 a7bd
00000070: 01ac 99bc 457a 8dbd 37e8 eabe e811 913b
00000080: 6b66 60bc 560c cebc 644c a1bc 7662 1abf
00000090: 7936 a53c 53ac fabe 3aad 4cbe f249 30be
000000a0: d88a 8bbd 21f9 38bd 4a34 2e3d 4306 2abd
000000b0: 0a31 22bd 7cde e5be a07b 14bd c1f8 f3be
000000c0: c315 95bd 9187 15bd e977 ccbe 76e8 343d
000000d0: 347c 6fbd 75f4 efbc 0aa3 fa3b 7c8d fdbe
000000e0: 7124 97bd 8442 3bbe ae96 923d 4677 d8be
000000f0: 9122 803d 940d 2abd d992 88be 2877 0fbf
00000100: 63fe 0ebe 063b 8a3d ca2e 3bbe c2d6 afbe
00000110: 2ce6 b83d b59c ac3d 788c 983c 3cb7 55be
00000120: 8c32 ecbc aa1b d1bc c9bf cc3d 6006 d0be
00000130: 347f 13bd 3549 f5bc 7e5c b0bc b850 963d
00000140: 7a3d 25bf d935 d8be 158b 05bd 5749 0bbf
00000150: 04b9 c83c 77dc 90bd 54e3 93bc 81e7 15be
00000160: acea 843d 685b 4abd 7a77 cfbc 9bb0 923d
00000170: 257f adbc 8a64 dbbe 2bf7 c7bc e139 38be
00000180: bfed 56bc ad24 46be e024 6abd ea5b 10bf
00000190: 3b44 c5bc dc0a b9be 8fb4 d7bc ffac 96be
000001a0: 51de f4bd 7d3a 2ebd 643a 593d 43fe 90bd
000001b0: b62e aabc 9373 e3bc f254 6dbd 71b6 b7be
000001c0: 75b0 ee3d a603 1abf 3884 ed3c 2e93 af3d
000001d0: 49c7 b9be d627 4ebd 472a 42be 8a05 1abf
000001e0: 63cf 22bf 6c76 40bd 9d39 0dbf 8e53 82bd
000001f0: 1db6 5fbe 503c 63bc c3e1 b23d c503 82be
00000200: 4bb2 32bd 94c8 03bf a4ca 1bbd c875 97be
00000210: e635 20be 2ac3 8cbe 7c69 c8be 2100 d3bd
00000220: d820 fdbe c536 63bd 5efd 1bbf b52e 433e
00000230: 8603 ecbe b738 d33d daf5 1abd 0e9c 59bc
00000240: 3822 23be 2d57 3a3d e426 efbb 6efc 14bd
00000250: a05e 57bd 4539 543d a71e 14bf 91c6 e6bc
00000260: 9656 a2be 1ebd 15be 25fd 02bf 0ca2 36be
00000270: a374 623e 9f17 09bf 7b95 dfbc c304 923d
00000280: 07d5 8d3c a6b2 2d3d c55b ce3d d2a5 2ebf
00000290: d775 a83c ad13 dbbc 0c71 a3be 4432 753d
000002a0: 3b4f 78be 6bc2 c4bd b8bc d4bc 7526 e4be
000002b0: ebc8 cdbe 1b69 f1bd ee9a bebd b9cb 63be
000002c0: 8244 3f3d 554d c3bd 93ef ffbe 4e59 9b3b
000002d0: 7a14 4ebd 298e 153e 42d1 8bbd 5472 98bd
000002e0: 8f6b debc aa79 d1be dcd9 25be 7f4c 30be
000002f0: c289 f7be 278a b83c 82e1 19be 03de c9be
00000300: 2caa 23bd db06 6cbd 74bb 5fbe f550 b0bd
00000310: 26ae 843b a95a 6f3e 3e20 03be 6dc8 8cbc
00000320: 9dd7 07be d4d6 e3bd 037a c0be 8b4a 07bd
00000330: ae8e a8be f51f 41bd 78f5 84be 3d4d ecbd
00000340: 4b22 283d 7cb7 5dbe 0762 9abd 87e1 d0bc
00000350: 9d9e b4bc 94b5 4abd 4153 fdbc 9534 02bd
00000360: 2f5a fbbc 1402 813d 0f80 6c3b b799 d9be
00000370: 387e c5bc 39d3 9dbd 7996 e5bd 4bd4 40bd
00000380: 7758 3dbd a2e4 00bd f8e0 053e 0800 d4bc
00000390: 901c a8bc 6137 a83c b4dd 34bd efc3 30bf
000003a0: 0481 d8be 4cc4 e6be 4468 50be e159 583d
000003b0: 0f02 5cbd fc4c 0bbd a471 b6be 6d11 5bbb
000003c0: ea68 19bf b275 b43d 25bb f3bb 6bb1 a9bd
000003d0: 8179 1a3d 8658 2abf 1ab9 c1be 5f4f 2cbd
000003e0: c894 a33d 831e 263d 2223 873d 1f9d e33d
000003f0: 7114 bc3d 44c1 0bbf 0f64 11bf 2b97 bfbe
-0.3812473 0.027091106 0.12136845 0.023072997 -0.6978154 0.039363604 -0.030470887 -0.028841596
-0.14758287 -0.33751422 -0.5602425 -0.26049113 -0.05399465 -0.18150239 -0.2716362 -0.039255068
-0.11063269 -0.3593774 -0.64010966 -0.103351444 -0.33207968 -0.2700431 -0.54889035 -0.6242015
-0.23242469 -0.54394025 -0.18828066 -0.08201748 -0.018758776 -0.06908087 -0.4588029 0.0044271834
-0.013696293 -0.025152367 -0.019689746 -0.6030649 0.020167576 -0.48959598 -0.19987956 -0.17215708
-0.06813592 -0.045159463 0.042530335 -0.041509878 -0.03959755 -0.44896305 -0.03625071 -0.47650722
-0.07279541 -0.03650624 -0.39935234 0.044167005 -0.05846806 -0.02929137 0.0076488303 -0.49522007
-0.073799975 -0.18287092 0.07157646 -0.42278498 0.06256593 -0.041516855 -0.26674536 -0.56041193
-0.13964228 0.06749539 -0.18279567 -0.34343535 0.09028277 0.08428327 0.018621668 -0.2087068
-0.028832696 -0.025525887 0.099975176 -0.40629864 -0.036009982 -0.029942134 -0.021528479 0.07339615
-0.6454693 -0.42228583 -0.032603342 -0.5440878 0.024502285 -0.070733 -0.018052734 -0.14639093
0.064900726 -0.049403578 -0.025325526 0.07162591 -0.021178791 -0.42850143 -0.024409851 -0.17990829
-0.0131182065 -0.19349928 -0.057164073 -0.5639025 -0.024080386 -0.36141098 -0.026331214 -0.2942886
-0.11956466 -0.042536248 0.0530342 -0.070797466 -0.020774227 -0.027765071 -0.05794234 -0.3588138
0.1165475 -0.6016182 0.02899371 0.08572994 -0.36284855 -0.05033096 -0.1896144 -0.601647
-0.63597697 -0.046987936 -0.55166036 -0.06363593 -0.21846814 -0.01386936 0.08734467 -0.253935
-0.043627065 -0.5147793 -0.03803505 -0.29582047 -0.1564556 -0.27492648 -0.39142978 -0.10302759
-0.4943912 -0.055472154 -0.6093348 0.19060786 -0.46096438 0.10313552 -0.03783212 -0.013281835
-0.15931022 0.045493294 -0.0072983373 -0.03637355 -0.052580476 0.05181243 -0.5785927 -0.028170856
-0.31706685 -0.14622924 -0.5116752 -0.17835253 0.22114806 -0.5355167 -0.027292958 0.071298145
0.017313493 0.0424067 0.100760974 -0.6822177 0.020564003 -0.02674278 -0.31922185 0.05986239
-0.24248974 -0.09607395 -0.025968894 -0.4456059 -0.4019235 -0.117876254 -0.09306894 -0.22245683
0.046696194 -0.09536234 -0.49987468 0.0047408706 -0.050312497 0.14605011 -0.06827022 -0.07443681
-0.027150897 -0.40913135 -0.16196388 -0.17216681 -0.48347288 0.022526814 -0.1502743 -0.39427194
-0.03995721 -0.057623725 -0.21848851 -0.08609191 0.0040490804 0.23374428 -0.12805268 -0.017185414
-0.13265844 -0.111249596 -0.37593088 -0.033030074 -0.32921356 -0.047149617 -0.25968528 -0.115381695
0.04104833 -0.21652025 -0.075382285 -0.025498165 -0.022048289 -0.049489573 -0.030923488 -0.031788427
-0.030682651 0.062992245 0.003608707 -0.42500088 -0.024108037 -0.07706303 -0.11210341 -0.04707746
-0.046226945 -0.03146804 0.130741 -0.025878921 -0.020521432 0.02053422 -0.044156745 -0.6904897
-0.4228593 -0.45071638 -0.20352274 0.05282009 -0.0537129 -0.034008965 -0.35633576 -0.0033427135
-0.5992571 0.08811511 -0.007438081 -0.08285793 0.03771353 -0.66541326 -0.37836534 -0.04206788
0.07987362 0.040556442 0.06598498 0.11113953 0.091835864 -0.54591775 -0.567933 -0.3742002

conv_spatial.mlp.2.weight f4 [256, 256]
00000000: d48a 2cbd bbfd c63b fc24 c63c 5c8a 59bd
00000010: c8a2 413d 58ef 02bd 675c bb3c 18d6 823c
00000020: 52b4 9cbd 00e9 ffba e2c5 103d e489 f23c
00000030: b34f 023d 1f76 44bd dc6c 673c 6887 493c
00000040: 4ada e73b fc9b 22bd 5e6e 0cbd d33a 583d
00000050: 1034 dd3c 1ef5 2fbd ca8f 003d b88f 043d
00000060: 39fe 93bd 3a67 013d 629e d33c 3196 69bd
00000070: 433a 87bd d467 96bd de6b 203d 24a6 dabb
00000080: ace2 20bc d451 93bd 007c 09b9 785c 163d
00000090: f748 003d a011 4cbc 0cc5 7dbd b602 2bbc
000000a0: b494 2c3d 9e49 6dbb cf2d 13bd f13c b03c
000000b0: d953 df3c 401a 083b 5724 8bbd 2081 df3b
000000c0: a23e 90bd c3fb 8cbd a338 083d 2840 94bd
000000d0: 5800 44bd 3683 0f3c 1545 b7bc 4c55 ff3c
000000e0: 1809 9fbc b63b cc3c bf7b 33bc 8881 23bc
000000f0: da91 963c ee6b 4cbc 4718 67bc a71c 8dbc
00000100: f692 45bd 996d cabc f424 25bc 5fbf 1b3d
00000110: ebe0 343b 5f60 babc 4cb7 afbc d956 19bd
00000120: a373 93bd 6a76 89bd 67e8 49bc 004b 2b3c
00000130: a59d a8bb 69d5 b0bb 8081 113b 15ba 33bd
00000140: e08e 18bc 2da9 193c 1792 8d3c 3605 163d
00000150: 24c2 54bd 6769 1cbc ba04 abbb 4187 e83b
00000160: 2be4 99bb fb21 74bd 2dc1 79bd 3cdb 0dbc
00000170: 1e89 c3bd 3a23 643d 8db0 80bc 4bbb bbbc
00000180: 0fbd 5f3c 03f7 cb3b 12b2 e03c 106d 923b
00000190: a634 cfbc dc75 d43c c8da 5dbd a0a6 7e3b
000001a0: 29c6 20bc 17d0 08bd 8f51 6fbd a032 3f3b
000001b0: c934 75bc 4033 0dbd 4473 67bd d44c 863c
000001c0: b2c6 69bd 1c1e 2ebd 6ad5 0e3d 7101 4abd
000001d0: 4d62 973b 29ea 0ebd 2dcc 24bd f801 55bc
000001e0: 4656 323d 2d09 f63c 06ff 20bd ed59 3ebd
000001f0: e9e7 d3bb 4fa2 48bd 0fda 1bbd 1b8c c3bc
00000200: 7146 aa3c 613b bd3c d751 ab3c aa7a 76bc
00000210: 92f7 55bc 6d5b 00bb 993e e3ba e1be 0b3c
00000220: 0852 683c bd30 1bbb 588a 0bbd f0f9 4cbd
00000230: 7815 ecbc e6b0 dbbc f9b5 c7bc 3976 693c
00000240: bc01 c539 10ce 2abd a0fc d23c 91ce eabc
00000250: 4cf0 213d 070e 38bd 4f66 fcbc 70a3 93bd
00000260: d06b 92bc 5034 24bd 9a68 2fbd 73a8 563d
00000270: be41 e63c be2b 5c3d 3ce7 423b 5392 11bb
00000280: e3b8 d53a dd48 953c 91cb 8ebd f0e6 acbb
00000290: 04b1 44bd 1bb0 b33c 016a a83c b9ac 5ebd
000002a0: 800a 4c3d 131a 3dbc ce07 693c 26d1 703d
000002b0: 851c a8bb de6f b1bb b09a 96bd 44e7 27bc
000002c0: f9dd 283d 1838 79bd 308e c93c d093 16bd
000002d0: 4563 593c a0f3 afbb e052 d43c f885 1e3c
000002e0: 3ff4 80bc 00b6 8039 b49f 1fbd 475c f3bc
000002f0: 54c3 9a3c b1ea 5fbd e783 bd3c 8588 8c3c
00000300: dc74 6c3c e120 73bd c7d4 cd3c 683c db3c
00000310: e97d 393d 16c8 363d 260a 10bd bd0b 5dbd
00000320: 2fc3 73bd 103b 013c 1bfd 983c aa86 2c3d
00000330: a685 28bd 62f8 fcbb 408d 25bb de77 963c
00000340: 22f9 c03c 5236 193d 4b9e 593d aa63 8cbd
00000350: f806 72bd 453d 91bd 79cb e53b e497 1ebd
00000360: 581f 13bd 6f21 b4bb 39e6 ef3c 285b 8fbc
00000370: ba15 14bd 6e97 a8bc f3eb 30bd 8f95 61bd
00000380: 79b0 133d 6a11 013d ce2f 95bd 0b0a f73b
00000390: 29be 0b3d 08c0 4ebd db4d febc 3e2e 04bd
000003a0: f8cc d3bc bc06 4d3d 0503 d4bc dcec 82bd
000003b0: e82a 1cbd 69a9 10bd cc8b d53c 35db 9abc
000003c0: 2050 613b b849 923b c5d3 8c38 7c88 bdbb
000003d0: 0366 c43c 6065 4ebd 9b54 a3bc 10c5 35bd
000003e0: 370c 093d 6938 3ebd fb0b 93bd a007 c83c
000003f0: 9af4 483d 3850 ec3c 036f 663d dca0 f7bc
-0.042124584 0.0060727275 0.024187557 -0.053110465 0.04727438 -0.031966537 0.02287121 0.015971228
-0.07651581 -0.0019524395 0.035344966 0.029606767 0.03181429 -0.04796421 0.014125075 0.01230035
0.0070755826 -0.03969954 -0.03428494 0.052790474 0.027002364 -0.04295837 0.031387128 0.032363623
-0.072262235 0.031592585 0.025832359 -0.057028 -0.066029094 -0.073440224 0.03916537 -0.0066726375
-0.009819668 -0.07193342 -0.00013111532 0.03670928 0.031319585 -0.012455374 -0.061955497 -0.010437658
0.042134 -0.003620721 -0.03593236 0.021513434 0.027261661 0.00207676 -0.06794041 0.006820813
-0.07043196 -0.06883957 0.033257138 -0.07238799 -0.04785189 0.0087593105 -0.022371808 0.031168602
-0.019413516 0.024930816 -0.010954796 -0.009979613 0.018380094 -0.012476904 -0.014104909 -0.017225577
-0.048235856 -0.024710463 -0.010079611 0.038024303 0.0027599882 -0.022751031 -0.021449707 -0.03743634
-0.0719979 -0.06712039 -0.012323475 0.010454893 -0.005145746 -0.005396534 0.0022202432 -0.043878634
-0.009311408 0.009378714 0.017281575 0.036626063 -0.05194296 -0.009546614 -0.0052190693 0.0070962016
-0.004696389 -0.05960272 -0.060975242 -0.008658227 -0.095476374 0.055697657 -0.015709186 -0.022916457
0.013655915 0.0062245145 0.02742866 0.0044685677 -0.02529366 0.025935106 -0.054163724 0.003885664
-0.00981287 -0.033401575 -0.05842739 0.0029174462 -0.014966198 -0.034472704 -0.05650641 0.016394056
-0.057074256 -0.042509183 0.034871496 -0.04931778 0.0046198727 -0.03489128 -0.04023378 -0.013000958
0.043539308 0.030033672 -0.03930571 -0.04647248 -0.006466855 -0.048982915 -0.038049754 -0.023870518
0.020785542 0.023099603 0.020913048 -0.015043894 -0.013059514 -0.0019585744 -0.0017337381 0.008529396
0.014179714 -0.0023680173 -0.03406748 -0.050043046 -0.02881883 -0.02681775 -0.024378764 0.014249378
0.0003757606 -0.041700423 0.025755227 -0.028662952 0.039535806 -0.044935253 -0.030810503 -0.072089076
-0.017873675 -0.04008895 -0.042824365 0.05240674 0.02810752 0.053752653 0.0029739877 -0.002221246
0.0016305711 0.01822322 -0.06972421 -0.0052765533 -0.048020378 0.02193456 0.02055836 -0.05436394
0.0498147 -0.011541861 0.014223052 0.05879321 -0.005130353 -0.005414947 -0.07353723 -0.010248009
0.041227315 -0.06084451 0.024603933 -0.03676206 0.013268297 -0.0053696185 0.025918424 0.009675495
-0.015741466 0.00024549663 -0.038970664 -0.029707087 0.018891968 -0.05466718 0.023134185 0.017154941
0.014432158 -0.059357528 0.025125874 0.026762202 0.045286093 0.04462441 -0.03516593 -0.053966273
-0.059512313 0.007887617 0.018675378 0.042120613 -0.041143082 -0.007720039 -0.0025261194 0.018367704
0.023556296 0.03740532 0.053129476 -0.06854947 -0.059088677 -0.07091764 0.007012781 -0.038719073
-0.035918564 -0.0054971497 0.029284583 -0.017499521 -0.036153533 -0.02058002 -0.04319377 -0.05507427
0.03605697 0.031510748 -0.07284509 0.007539039 0.034116898 -0.050476104 -0.031042984 -0.032270662
-0.025854573 0.05005525 -0.025880346 -0.063928336 -0.038126856 -0.035317812 0.026067637 -0.018903354
0.0034380034 0.0044643544 6.7151654e-05 -0.0057840925 0.023974424 -0.050389647 -0.019937804 -0.044377387
0.033458915 -0.046440516 -0.071800195 0.024417698 0.049061395 0.028846845 0.056258213 -0.03022807

conv_spatial.mlp.2.bias f4 [256]
00000000: 0435 013c f83e cdbc afba 11bd e209 83bc
00000010: 0ef4 3f3c fe48 96bd d34c 31bd 4bb8 f63b
00000020: 0a97 41bd 0fce 5e3c 7359 e93c a403 25bd
00000030: 0f43 6c3c 3e66 4b3c 71d2 6dbc 4fdb bfbb
00000040: 2803 30bc 8547 78bc 390b fabc d7d5 9bbc
00000050: fc8a 0cbd 05bc 27bd 614f af3b 7023 0d3d
00000060: 585c 183d 07a2 9a3d 6b6f 453d aeeb 32bd
00000070: 56ee 77bc ec58 8aba b914 6abd b34c 78bc
00000080: 9a98 78bd 4124 cd3c 5e9b 22bc 1f58 5bbc
00000090: 0c11 2a3c a5b4 853d f3aa 69bd b77d 70bd
000000a0: 9879 29bd 7914 7dbd aaef 84bc 6e55 77bd
000000b0: 8f16 063e 9f76 43bd 14ce 1bbd 234d d3bc
000000c0: bcd9 f4bc fe60 30bc b28e 9a3c 2c18 0f3d
000000d0: b3d9 2c3d c963 f8bc def5 163e b952 a03c
000000e0: e5e2 033e 7412 dd3c d39d 9abd 0ae7 46bd
000000f0: dbf6 28bd a6be 223c 3dfa 92bd 7217 0bbd
00000100: 81f8 273d de30 f03d b532 0abd d8a0 213b
00000110: c552 493c 27f6 95bd 02c4 60bd c7ae 22bb
00000120: f973 e5bc 4376 45bd 4766 0b3e 1bee f1ba
00000130: 51b1 e63c cd7c 123d ee01 01bd 2993 003d
00000140: 81a1 c63c 385a 25bd e6e3 9f3c 1179 89bd
00000150: 26ce 8abd faf6 37bd 1a46 71bd f7e7 a1bd
00000160: 1426 28bd ad34 d3bb 5d16 0abd 9488 3f3e
00000170: 3e03 7d3d d813 da3d 76f5 c5bc 11b4 bebd
00000180: 3295 213e 9422 2f3c b255 bfbc b9fb 9c3c
00000190: 04f0 16bd d64f 29bd a4aa 0fbc dc6c 9dbc
000001a0: 4276 a33b 4e86 043d e365 423b a3d0 52bc
000001b0: be73 1bbd be64 ae3c 6553 18bd ea90 803c
000001c0: 7e8b dd3c 1a96 6bbb 58a5 593d 8f73 323e
000001d0: 743f 0d3e 6602 e63c 2103 2fbd a2ad 44ba
000001e0: 18e4 c3bd 4698 17bc 5432 49bd 75ab 23bd
000001f0: 0c2f 0e3e 8322 12bd 9685 b2bc 2f36 ed3c
00000200: 5854 08bd 2fb1 e63c 8075 8abd ceff e8bd
00000210: 12ed c83d 24ce 183e 8a4d 61b9 57b4 31bd
00000220: 93cb 213d bef4 f13c e1d6 a2bc 054a 7e3c
00000230: d9ae 53bd 83cd 31bc 6b62 24bd 4dd8 4d3a
00000240: 909c 1c3d b0f7 af3d 928a e4bc 431d 873c
00000250: bd96 e6bc 554c 13bd b09c 303c 2ab6 48bd
00000260: f96a 55bd 1c99 25bd 86f0 cbbc 9c2e 2d39
00000270: 6ef3 babc 65a2 933c 73eb a1bd fc9d 143d
00000280: 115d 0d3c bbcf 90bd 113b 89bd 256f 903c
00000290: 8950 9d3c 7226 e73b 233f 51bd 6be3 8fbc
000002a0: 385a 65bd 076b a9bc 5e6e 7c3b 7fa6 cf3c
000002b0: c67e 113d c548 10bd 5378 9dbd 4136 93bb
000002c0: 5987 22bd 90ca 80bd 2325 8ebd 607c 65bc
000002d0: f36f 39bc b918 86bd 0e10 fabc 81ce 4c3c
000002e0: 2b6e 343e 6231 56bd a57b 163e 4600 cf3c
000002f0: 082d ad3d e623 213e 1f7a 933c 21ef 39bd
00000300: 54d4 2e3e e077 e1bc 5646 94bd e71e 003e
00000310: a18a 55bc 4cfe 463b 3475 0d3d 439b fabc
00000320: 4f6c f6bc ed42 8cbc 638d 343c 4179 1dbd
00000330: 2a0b febc 89c3 adbb 13b6 0b3d 3c82 093e
00000340: 92fe 80bb 6b1c 2fbd 1068 d8bb 8e82 d4b9
00000350: 51f5 f8bc 5355 83bd b6f7 cbbc 5bd6 2a3d
00000360: 1768 8bbc ef96 86bd ac4e 51bc 956c 0a3d
00000370: 69a8 9dbd 7c6a 9fbd 4614 373a 3b2b edbc
00000380: b488 60bd 1549 38bd 26b9 f43d 1ae6 a8bc
00000390: 150d 44bc ea98 debb 7a0e c53c f018 d9bc
000003a0: 8a6c bebd bed0 2fbd 17a7 bebc 821f 57bb
000003b0: e5b2 e4bc 090f b4bb 34d4 56bd 5815 89bd
000003c0: 9ac7 973c 48f3 7cbd ebba 0f3d 04a1 3c3d
000003d0: de60 173a dad4 a3bc ae40 66bd 1cb8 913d
000003e0: a01f 5dbc 442b 95bd 3d66 003e 0c97 27ba
000003f0: 6e06 32bd aa5c 47bd ec96 b93b c8ed 04be
0.007886175 -0.02505444 -0.035578426 -0.015995923 0.011715902 -0.07338141 -0.043286156 0.0075292937
-0.047263183 0.013598933 0.028485036 -0.040286675 0.014420285 0.012414513 -0.014515505 -0.005855001
-0.01074294 -0.01515377 -0.03052293 -0.019022865 -0.034312233 -0.040950794 0.005350039 0.034457624
0.03719744 0.075504355 0.04820196 -0.043681793 -0.015132507 -0.0010555065 -0.05714867 -0.015155005
-0.060692407 0.025041701 -0.009924738 -0.013387709 0.010380041 0.06528596 -0.057047796 -0.05871364
-0.041375726 -0.061787102 -0.016227562 -0.060384206 0.13094543 -0.047720548 -0.03803833 -0.025793618
-0.02988898 -0.010765312 0.01886687 0.03493516 0.0421998 -0.030321019 0.14742228 0.019570695
0.12879522 0.026986338 -0.07549634 -0.04856018 -0.041251045 0.009933149 -0.071766354 -0.033957906
0.041008476 0.11728071 -0.033739764 0.002466252 0.0122878 -0.073223405 -0.054874428 -0.0024823414
-0.028009402 -0.048208486 0.13613234 -0.0018457802 0.028160723 0.03576355 -0.03149598 0.031390343
0.024246933 -0.040369242 0.01951785 -0.06712545 -0.06777601 -0.04491327 -0.058904745 -0.07905572
-0.04105194 -0.0064454884 -0.033712734 0.18704444 0.06177067 0.10648316 -0.024164896 -0.09311689
0.1577957 0.010689396 -0.023356292 0.019163 -0.03684999 -0.041335903 -0.008768711 -0.019216947
0.0049884627 0.032354645 0.002966278 -0.012867126 -0.037952177 0.021288272 -0.037188906 0.0156941
0.027044054 -0.0035947622 0.0531362 0.17426895 0.13793737 0.028077316 -0.042727593 -0.000750268
-0.0956499 -0.009252613 -0.049120262 -0.039958436 0.13885134 -0.035677444 -0.021792214 0.0289565
-0.03328356 0.02816066 -0.067606926 -0.11376916 0.098108426 0.14922386 -0.00021486558 -0.043384876
0.039500784 0.029535647 -0.019877853 0.015520577 -0.05168042 -0.0108522205 -0.04013292 0.0007852361
0.038235247 0.085921645 -0.027898107 0.016493445 -0.02814805 -0.035961468 0.010779545 -0.04900185
-0.05210397 -0.04042922 -0.024894964 0.00016515929 -0.022821154 0.018021772 -0.079062365 0.03628348
0.008628146 -0.070708714 -0.06700719 0.017631123 0.019203441 0.0070541436 -0.051085602 -0.017564496
-0.055994242 -0.020680917 0.0038517932 0.025347946 0.03552129 -0.03522565 -0.07688966 -0.0044925516
-0.03967986 -0.06288636 -0.06940677 -0.014006704 -0.011318195 -0.06547684 -0.030525234 0.012500406
0.1762015 -0.05229319 0.14695604 0.025268685 0.08455855 0.1573635 0.018002568 -0.045394067
0.17073184 -0.027522981 -0.07239978 0.12511788 -0.01303354 0.0030363975 0.0345356 -0.030591613
-0.030080942 -0.017121756 0.011020037 -0.038445715 -0.031011183 -0.0053028506 0.034109186 0.13428587
-0.003936597 -0.04275171 -0.006604202 -0.00040533062 -0.030390413 -0.06412759 -0.024898391 0.04170833
-0.017017407 -0.06571757 -0.0127751045 0.03379496 -0.07698137 -0.07783982 0.0006983917 -0.028951278
-0.05481787 -0.04499157 0.11949377 -0.020617533 -0.01196601 -0.006793131 0.024054755 -0.026501149
-0.09298046 -0.04292368 -0.023273034 -0.0032825177 -0.027917335 -0.0054949564 -0.052448466 -0.06693524
0.018527795 -0.06175545 0.03509037 0.046051994 0.0005774627 -0.019998956 -0.056214027 0.07115194
-0.0134963095 -0.07283643 0.12539001 -0.0006393052 -0.043463163 -0.048672356 0.0056637432 -0.12981331
