logs/M5D1_r08_scale0001/score.pt (torch, 732745 bytes, 10 tensors)

embed.0.W f4 [64]
00000000: 8c5f 9941 db9b a541 1311 9e40 4f89 8840
00000010: 940b 7442 9ddc 6940 c0cf 9e41 fee5 23c1
00000020: 9ef2 f541 3af9 16c2 bdf3 e7c1 4300 2b42
00000030: c30b b4c1 169a 313f 9b2f 3ec2 bdcd 1742
00000040: b8a1 3142 14cf 40c2 7418 5441 ae84 bbc0
00000050: 2261 c441 109a cd41 bf5e d241 f81d 7242
00000060: 5f88 1741 5cc0 21bf 482d 16c2 f6a3 adc1
00000070: 881c 4bc2 b939 d8bf 8658 0cc2 6647 cebe
00000080: 4406 54c0 0f89 b0c1 ca48 89c1 227c 22c1
00000090: 97db 44c1 9ca4 543f b8c8 acc1 5f56 51c2
000000a0: fe9e 7fbf ef02 3840 b258 b0c1 2e67 83c0
000000b0: f8e5 9041 e5bb 8a41 1354 10c2 ecbf 2b41
000000c0: 8071 5140 0d81 0141 e214 aa41 d2a3 0c42
000000d0: 5fe0 7541 34e1 19c2 452c e2c1 8aa8 0cc1
000000e0: a261 4842 4c39 7fc1 43c7 b3c1 083b e5bf
000000f0: 8c6d 18c2 006b d8c0 f458 4e41 ffe7 e640
19.171654 20.701101 4.9395843 4.2667613 61.011307 3.6540902 19.85144 -10.24365
30.743465 -37.743385 -28.994013 42.750256 -22.505743 0.6937574 -47.54649 37.950916
44.40793 -48.202225 13.25597 -5.8599463 24.547428 25.700226 26.296263 60.529266
9.470794 -0.6318414 -37.54422 -21.70506 -50.777863 -1.6892616 -35.08645 -0.40288848
-3.3128824 -22.066923 -17.160542 -10.155306 -12.303611 0.83063674 -21.598007 -52.334347
-0.9985198 2.875179 -22.043308 -4.106345 18.11229 17.341745 -36.082104 10.734356
3.2725525 8.094007 21.260197 35.15998 15.367278 -38.469925 -28.271616 -8.791147
50.095345 -15.9514885 -22.472296 -1.790864 -38.10698 -6.7630615 12.896717 7.21582

embed.1.weight f4 [128, 128]
00000000: a677 603c 593f 62bd 9414 c93b a6bb 48bd
00000010: 3fa0 88bd bb6e 2e3d c970 22bd faf2 25bb
00000020: ce94 9abd e22f f0ba 0d3d 10bd d43f 243d
00000030: 2a1a b9bc fe47 a8bc 6b30 17bc e3c6 3b3c
00000040: f8d6 3ebd 2fa9 9d3d b4c5 3b3d 2093 993d
00000050: 31ca 8cbd 3566 863d 89f3 0a3b ba55 8dbc
00000060: b108 643d 6986 583d ad7c a13d 71bc 48bd
00000070: 1c95 83bd 933f 8bbc bc2e adbd b69c 9b3d
00000080: eb0f e23c 74a4 2d3d b750 32bd 1e8a 8d3d
00000090: 489b 5c3d 5de1 e0bc d804 8ebd 6f99 ab3d
000000a0: d20e ae3d 77fe b4bd 97ed 74bd ab35 253d
000000b0: 0573 34bd 2472 9abc 7905 5a3d 3eef ac3d
000000c0: bffa c83c 9f32 7f3d a6e9 2ebd 31b1 0cbb
000000d0: 5409 83bd 48bc b3bd 7bbb 513d 79a8 903d
000000e0: 7a0f b2bd 3a31 1dbc 15ab 84bd e358 783d
000000f0: 34b4 41bd 92b7 05bc f901 0c3d a1dc a53d
00000100: df1c 723c 529a 893d c938 acbd 1f62 333c
00000110: c4ff aa3d 3341 d03c 720b 98bc 8c6c 90bd
00000120: 1cbe f7bc f767 9f3d ede1 dabc 8071 9dbd
00000130: 237b a23d 6d52 82bc f705 44bd 6c63 f33b
00000140: 643d 86b9 8181 a2bd 852b 5bbd c27a 7bbc
00000150: 2421 a53d d279 6e3d 16d8 f0bc b073 723d
00000160: 22a4 5ebd ed68 b33c 1bd0 8f3d df44 913d
00000170: cf7f ec3b cdf6 aabd d129 72bb 9b92 90bd
00000180: f84a 903c c6aa 8e3d 8f8c 46bd 27c3 783d
00000190: 7d7f 8bbd 3392 8e3d a033 233c 8244 25bd
000001a0: 7db2 55bd 1fa0 733d 96f3 20bd 56a8 aa3d
000001b0: bc6e 683d 1797 a23c 916f 87bb cc56 6c3c
000001c0: fa50 9b3d 0410 403d fa61 55bd 8a36 b03c
000001d0: 1f20 453d 2c80 8abd 42b7 de3c 5647 8b3d
000001e0: 99dc 7abd 3b35 353d 2316 adbd 790c 093c
000001f0: 3792 423d beb7 64bd b673 4e3d ac29 f93c
00000200: bde3 96bd 8e89 b1bc 7eec 89bd 7d12 b23d
00000210: 2ab8 813d 2808 453d 16e4 903d 1bd0 a43d
00000220: 3b9b db3a f4b3 30bd 020b 83bd 857e c7bb
00000230: 0df1 21bc f7e4 9fbd fd9b 083d f5a5 07bd
00000240: 2f48 58bd cf4b aebd 7e08 623b fadd 8b3d
00000250: d109 b43d b668 4b3c 5638 923d ddc4 ce3b
00000260: 417f 46bc 9086 45bd 6cad 233d f377 92bd
00000270: 0853 e1bb 9971 9c3c 0b62 07bc 29d2 23bd
00000280: 4611 843d 1c9c b3bd e0e4 49bd d113 5ebd
00000290: 34d8 a3bd bf82 793d c71e 77bd 9e99 1ebd
000002a0: 02d9 b2bd 3fb2 263b 5b07 07bc 8b72 41bd
000002b0: 714c 903d b60c 9dbd 51bb a4bb 4152 1abd
000002c0: 52f5 5fbd f0bc ac3d a86a f5bc cbce 663d
000002d0: dccf 803c c928 383d e845 54bd c158 26bd
000002e0: d38a 6e3d e0f3 e5bc 66dc 3fbd fafc 98bd
000002f0: e3de 083d 388b 733d 7865 743c 60e6 99bd
00000300: 4d89 2abc 745d 1fbd f3a5 93bd 8051 3cbd
00000310: 096d ff3c 4ff4 28ba b5d8 63bd 9f46 31bd
00000320: 4974 31bd 4b50 843d 5fa8 a73d cc11 1abd
00000330: 62ae 6b3d 0d7b 28bd 0934 313d 2a98 f3bc
00000340: 6a7a 51bd 5a39 7d3d 3331 dd3c 0250 9c3d
00000350: 70ee c83c 9667 9e3d a713 1ebd be6a 91bc
00000360: 78ff 9bbc 7e7c 57bd e05d 013b 498d 10bc
00000370: 5daa 5e3d 2c49 85bb 029a 99bd 4183 3ebd
00000380: bbde 853d 44d7 fdbc 5c48 edba 9b0a 1a3d
00000390: 53a7 323d ce46 e2bb 0550 4d3d a6b9 223d
000003a0: fcc9 f13c 0455 053d 0a68 f3bc 69fe de3b
000003b0: c28e 1c3d 7115 79bd 88b3 02bd e354 693c
000003c0: 5e08 3d3d 2400 273d 5d25 98bd 2259 f13c
000003d0: 2c5d a53d be3f 06bd 28c6 003d 554b 82bc
000003e0: b95a 583d 1590 b13d d265 a5bc c79b a0bd
000003f0: ed39 1e3d 4f3f 3b3d a227 7ebc bcce 0ebd
0.013700401 -0.055236194 0.0061364863 -0.04900708 -0.066711895 0.04258607 -0.03965834 -0.0025321827
-0.075479135 -0.0018324817 -0.035214473 0.040099934 -0.022595484 -0.020542141 -0.009227852 0.0114609925
-0.04659173 0.07698285 0.04584284 0.07498765 -0.068745025 0.06562463 0.0021202287 -0.017252792
0.05567235 0.05286256 0.07885108 -0.049007837 -0.06424925 -0.016998088 -0.084561795 0.075982496
0.02759548 0.042393163 -0.043534007 0.069111094 0.053859025 -0.027451212 -0.069345176 0.083788745
0.084989205 -0.08837598 -0.059796896 0.040334385 -0.044055004 -0.018853255 0.053227875 0.08444069
0.024533628 0.062304135 -0.042703293 -0.002146792 -0.063982636 -0.08776146 0.051204186 0.070633836
-0.08694358 -0.009594256 -0.06477944 0.060631644 -0.047290996 -0.008161442 0.03418157 0.08098722
0.014777391 0.067188874 -0.084092684 0.010948687 0.08349565 0.025421714 -0.018560145 -0.07051954
-0.030242018 0.077835016 -0.026719058 -0.07687664 0.07933643 -0.015908444 -0.04785725 0.0074276235
-0.0002560421 -0.07934857 -0.0535083 -0.015349092 0.08062962 0.058221646 -0.029399913 0.05919236
-0.054355748 0.021900618 0.07022115 0.07093214 0.0072173844 -0.08347855 -0.0036951194 -0.07059213
0.017613873 0.06966166 -0.04847389 0.060732987 -0.06811426 0.06961479 0.009961039 -0.040348537
-0.052172173 0.059478875 -0.0392948 0.08332889 0.05674623 0.019847436 -0.004133173 0.014424991
0.075838044 0.046890274 -0.05209539 0.021510381 0.048126336 -0.06762728 0.027186994 0.068007156
-0.061245535 0.044240218 -0.08451488 0.00836479 0.047502723 -0.055839293 0.05040332 0.030415379
-0.073676564 -0.021672036 -0.067345604 0.086949326 0.06333955 0.04810348 0.07074754 0.080475055
0.0016754636 -0.043140367 -0.06398584 -0.0060880804 -0.009884131 -0.078073435 0.033351887 -0.033117253
-0.052803215 -0.08510553 0.0034489925 0.06829448 0.08790935 0.012415102 0.071396515 0.006310089
-0.012115301 -0.048224032 0.03996031 -0.07151785 -0.006876353 0.019097136 -0.008263121 -0.039995346
0.06448607 -0.0877001 -0.049290538 -0.054218117 -0.08000222 0.060915705 -0.060332086 -0.03872072
-0.08732797 0.0025435833 -0.0082415 -0.047228377 0.0704583 -0.0766844 -0.0050272127 -0.0376761
-0.054677315 0.084344745 -0.029958084 0.056349557 0.015724115 0.04496077 -0.05182448 -0.040611986
0.05823786 -0.02807039 -0.046841048 -0.074701265 0.033415686 0.05945894 0.01491677 -0.07514644
-0.010408712 -0.038907483 -0.07209387 -0.045976162 0.031179922 -0.0006445096 -0.05562659 -0.04328024
-0.04332379 0.06460627 0.08186411 -0.03761463 0.05753935 -0.041132975 0.043262515 -0.029735643
-0.051142134 0.061822273 0.027001 0.07632448 0.024527758 0.07734601 -0.03859296 -0.017751094
-0.019042715 -0.05260896 0.0019739792 -0.0088227475 0.05436169 -0.0040675607 -0.07500078 -0.046511892
0.06536623 -0.030986436 -0.001810323 0.03760777 0.043616604 -0.006905413 0.05012514 0.03972783
0.029515259 0.03255178 -0.029712696 0.0068052304 0.038222082 -0.060811464 -0.031909496 0.01424143
0.046150558 0.04077162 -0.074290015 0.029461447 0.08074412 -0.032775633 0.031438977 -0.015905062
0.052820895 0.086700596 -0.020190153 -0.07842212 0.03862946 0.045714673 -0.015512379 -0.034865126

embed.1.bias f4 [128]
00000000: d9d2 acbd bb0a 91bd d742 91bd 828a 713d
00000010: 0867 6fbd 8f67 82bd 98a0 a13c 0de4 163c
00000020: 3647 aa3d bd38 dc3c b8bc a4bd 1aaf 41bd
00000030: 5f8d f9bc c543 fd3c a0ce a5bd 6146 4c3d
00000040: 4729 283d 5a1d b4bd 0aed 1dbd a97e a33d
00000050: 2a4b 84bc a5bf a53d b9c0 7abd d961 30bd
00000060: aff6 0a3d 1fb4 b8bc 265f 8b3d d929 18bc
00000070: 644b dcbb 8631 823d 6801 8cbd 35c8 a4bd
00000080: 80d8 fe38 7ed3 ac3d e779 853d 9eeb b63c
00000090: a56a 86ba 9831 aebd 4b80 7d3d e5b5 aebd
000000a0: 2a76 13bd 4fe1 ff3c ebe6 ef3c 6d74 ae3d
000000b0: dda9 843d 79b3 133b f183 db3c 870f 363a
000000c0: 3417 a03c cf8d 613c 472e bcbc e67d a43d
000000d0: daed cabc ad1f a03d 6c25 8e3d 5c38 11bc
000000e0: 0b3e b2bc 26b0 3f3c 3a29 623d e4b9 b1bd
000000f0: a74c 31bd 9d82 8bbc f676 2cbd dd7c c33b
00000100: 0706 29bc 9030 893d f83f 48bd d644 1dbd
00000110: 9668 8a3d 2f02 a63d 2194 bfbc 5369 31bd
00000120: c257 24bd 1f55 6dbd 5a5e 3abc 5ff7 b4bd
00000130: 5b4d 32bd 9583 b0bd 8a92 9d3d 606b 303d
00000140: 1d99 563d de1a 66bd eb9e 36bd bc19 84ba
00000150: 46f0 a13d a220 983c 885f a93d 6dcf 963d
00000160: 4949 9fbd 1705 ea3b bb8a a53d 9ac5 48bc
00000170: 924e adbd 8da7 a73d 85c0 9a3c 4ba8 783d
00000180: c980 6fbc 9f7c 563d dec4 8a3d 71f8 ab3d
00000190: b446 69ba c0e8 22bd c8f2 5bbc aa53 5ebd
000001a0: 8afc 92bd ee82 6d3d 49ed 62bd 5e30 903d
000001b0: 2a4e 033d f6af cebc 4754 ad3c f490 a6bd
000001c0: adbe 24bd 7a46 863d 9602 3dbd f40f 9d3d
000001d0: cf34 aa3d 8474 07bc 85ae 83bb b794 a2bd
000001e0: d1fe b23b 2ea9 883d ceaf 76bd 64bf a7bc
000001f0: b6b2 203d 0a1e 593d 3dfa b2bd 03e4 6dbc
-0.084386535 -0.07082125 -0.07092827 0.058969982 -0.058447868 -0.063674085 0.019729897 0.009209645
0.08314364 0.026882524 -0.08043808 -0.04728613 -0.030462919 0.030916104 -0.08096051 0.049871806
0.04105499 -0.08794661 -0.038556136 0.07983143 -0.016149122 0.08093194 -0.06121895 -0.043062065
0.033926662 -0.022546826 0.068052575 -0.009287321 -0.0067228545 0.06357102 -0.06836206 -0.08045999
0.0001215199 0.084387764 0.06517392 0.022329148 -0.0010255171 -0.08505553 0.061889928 -0.085307874
-0.036001362 0.031235365 0.029284915 0.085183 0.06477711 0.0022537394 0.026796313 0.0006945063
0.019542314 0.01376672 -0.022971286 0.08031826 -0.02477162 0.07818542 0.069407314 -0.008863535
-0.0217581 0.011699712 0.055215098 -0.08678034 -0.043285992 -0.017030055 -0.042105637 0.0059658126
-0.010316378 0.06698716 -0.04888913 -0.038395725 0.067582294 0.08105885 -0.023386063 -0.043313336
-0.040122755 -0.057942506 -0.011375034 -0.08836245 -0.043530803 -0.08618847 0.07693966 0.04307115
0.052392114 -0.056177966 -0.04458515 -0.001007847 0.07907157 0.018570248 0.08270174 0.07363782
-0.0777765 0.00714172 0.08083101 -0.012254143 -0.08462252 0.08186255 0.018890629 0.06070737
-0.014618107 0.05236494 0.06775831 0.08396996 -0.000889878 -0.03977275 -0.013424583 -0.054279007
-0.07177074 0.057986192 -0.055402074 0.07040475 0.032056965 -0.02523039 0.02115835 -0.08133116
-0.040220905 0.06556411 -0.046145044 0.076690584 0.08310854 -0.008267526 -0.004018607 -0.07938521
0.0054625054 0.066728935 -0.060226254 -0.020477004 0.039232932 0.053007163 -0.087391354 -0.014519694

embed.3.weight f4 [256, 128]
00000000: c085 cbbc 55f3 5bbd 1cc2 9f3d d6df 96bd
00000010: 7edb 173b 8a28 8fbd 694f 433d b1be babb
00000020: c245 643d df88 673c e546 e2bb f189 91bd
00000030: 280a d83c 7c41 6e3d 7ccc 1a3d 5441 9b3d
00000040: 9c43 54bc b4ba 25bd 1726 f1bc 757d bfbc
00000050: 9d0a 903d 3208 293d 19ff ab3d a6a8 debc
00000060: 230a 8abd c920 8f3d c9e3 2fbd 885c 763c
00000070: 1d59 81bd ab21 8abd 04c1 d33c 4b21 cb3c
00000080: 302c e03c 47a4 3ebd 83e4 8bbd 9f5e 35bd
00000090: 202e 013d e529 a33d 0819 a8bd 1351 5bbc
000000a0: 9112 623b 501b 8bbd d350 8bbd 4721 6c3d
000000b0: 9d03 8d3c 2619 f43c df4e 97bd 163d 1c3d
000000c0: 4a3f 2ebd 3af4 85bd de38 b1bd 1b0f 3f3d
000000d0: fa88 1abd 50c2 b7bc c3a4 5a3d 57c0 96bc
000000e0: c636 4bbd 75ea 363d 1294 843d 9ac8 eb3c
000000f0: 1739 4ebd 2412 0fbd d7d5 a8bd ab43 a83d
00000100: 6d1d fabc dc5b 933c 6faa 07bb 3ad4 60bd
00000110: 5bae 893d 7b62 253d 79c5 69bd c52e e53b
00000120: 5008 8ebb bc9f 0cbd ceda 59bd c2e4 40bc
00000130: fec0 903d 95a0 aabd 244e 08bd 549c 85bd
00000140: c867 7cbd 79c1 613d 189f 10bc af22 ae3c
00000150: aa18 c5ba c660 313d 2bff 4ebd 71c1 a9bd
00000160: 341c 123d 297a 853d 2b11 a2bd 2f3f 123a
00000170: 131f d1bc 0407 13bd 33b5 45bc 358e fabc
00000180: ff9e 92bc e0df 1abc aef9 8cbd 4a3c 6abd
00000190: f543 59bb bdb2 34bd 9356 51bd 3e1d 12bc
000001a0: 7a36 773d 6f9a d7bc 280b 643d f1a8 84bd
000001b0: c40c a0bd 9efc 85bd 875a e4bc 736e f73b
000001c0: f82b 8cbd 5001 8dbd b100 d53c 2b59 96bc
000001d0: 8ad9 9abd 58d6 d23b 08ab 3dbd cf8e 823d
000001e0: 7086 57bd 111e 843b 08d9 90ba b153 2fbd
000001f0: a838 74bc d59a b43d 7ff0 453d c229 943c
00000200: 2fef 8d3d 541f 253c 07f9 4dbd 9c4d 063c
00000210: f3a9 dfbc 98ea 8dbd 8eba 913d f212 b03d
00000220: 1ebd 1ebc 586f 1c3b 88cf 983c 30ae 443d
00000230: 8bec 8abd ca1a 253d 1182 bdbc fafe e8bc
00000240: a9ab 9bbd 6b98 54bc 0e69 8f3d 05f3 813d
00000250: fc54 1e3d 9819 f33c 6b3e 36bc c234 f23c
00000260: 4c79 f3bc e661 9abd efe9 083d 527b 163d
00000270: 7a6b 25bc b06e 7cbd 586e 15bd 3804 883d
00000280: 4d6c ac3d 8fae 91bc eea2 273c bbf8 01bb
00000290: f832 81bd 04d1 c63c e9ad a3bd afb3 fe3c
000002a0: 8afd 273d f8d5 41bc 7672 8bbc ffae 8abd
000002b0: 6402 6f3d fbe9 f5bb 12ca 9d3d 5925 45bc
000002c0: c6be c03c b731 033d b35d 9b3d bfd5 76bd
000002d0: 311e 79bd 5176 9dbd 10ea 6a3c a120 04bd
000002e0: 9807 973d e944 28bd e518 58bc c1a3 ae3c
000002f0: 4b48 edbc 2d8e 86bb eeee a6bd 1873 61bd
00000300: d0f1 413d cc75 abbd 5df1 89bd d6fb a13d
00000310: c617 fdbc 927b d2bc 29df 84bd 3832 433c
00000320: 0881 abbd 12a7 14ba b938 f0bb 4d67 94bc
00000330: 840f 523d 174c 8b3d 5329 1b3d c0a4 cfbc
00000340: ac79 a2bd 67d3 4cbd da85 2bbd 7595 323d
00000350: f322 63bd 94d2 b03d ffcf 66bd 3242 00bc
00000360: 2270 963d 1d7f 9d3d 7961 a83c cba5 8f39
00000370: d8e4 4dbd b037 af3d 9f0e 6bbd ae90 4c3c
00000380: 22d2 aa3c eb5e 8abd 434b 48bd 8085 e1bb
00000390: 809a 66bd 9fb1 773d 317f 3d3d 3637 aabd
000003a0: b9a4 483d 18c4 0ebc 33ae b13d 1b5b 313c
000003b0: 04f1 d63c 444b 8abc 84c7 973a b2e1 403d
000003c0: 3331 61bd 12a7 87bd 7036 22bc addc 65bd
000003d0: 9367 943d cf15 b1bd 3c12 9b3c 1087 a03d
000003e0: 932a 08bd a5ec 66bc ade7 70bd 9ba1 973d
000003f0: 5c4b 82bd 101f 323c 7db8 09bd 5716 c63b
-0.02484405 -0.053698856 0.07800695 -0.07366912 0.00231716 -0.06990154 0.047683153 -0.0056990017
0.05573059 0.014131754 -0.006905424 -0.07106388 0.02637203 0.05816792 0.037792668 0.0758082
-0.012955572 -0.040461257 -0.029437108 -0.023375252 0.07033274 0.04126758 0.083982654 -0.027180027
-0.06740215 0.06988675 -0.042941842 0.01503671 -0.06315825 -0.06744703 0.025848873 0.024796149
0.02736482 -0.046543386 -0.068306945 -0.04427969 0.03153813 0.07966975 -0.08207899 -0.013386029
0.003449593 -0.06792319 -0.06802525 0.057648923 0.017213637 0.029797148 -0.0738809 0.038144194
-0.042540826 -0.06540723 -0.08653425 0.046645265 -0.037728287 -0.022431523 0.053379785 -0.018402262
-0.049612783 0.04465719 0.06473555 0.028782178 -0.050347414 -0.03492941 -0.08243912 0.08216032
-0.03053161 0.017988138 -0.0020700952 -0.054889895 0.06722709 0.04037712 -0.05707309 0.0069941008
-0.004334487 -0.034332022 -0.053187184 -0.01177329 0.0706806 -0.0833141 -0.033277646 -0.06523958
-0.06162241 0.05511615 -0.008826993 0.021256773 -0.0015037258 0.04330518 -0.050536316 -0.08288849
0.035671428 0.06517441 -0.07913431 0.0005578873 -0.025527513 -0.035895362 -0.012067127 -0.030585388
-0.01789808 -0.00945279 -0.0688356 -0.057186402 -0.0033152078 -0.04411577 -0.051107954 -0.008918105
0.060354687 -0.026318757 0.055674702 -0.064775355 -0.07814935 -0.065423235 -0.027875198 0.0075510084
-0.06844324 -0.06885016 0.026001306 -0.018353065 -0.075610235 0.006434243 -0.046305686 0.06374895
-0.052618444 0.0040319045 -0.0011051008 -0.042804424 -0.014906086 0.08818594 0.048325058 0.018086318
0.06930386 0.01007827 -0.05028632 0.008197214 -0.027302718 -0.06929511 0.071156606 0.085973635
-0.009688644 0.0023870077 0.018653646 0.04801768 -0.06783398 0.04030875 -0.02313331 -0.028441895
-0.07601101 -0.012975792 0.070024595 0.063451804 0.038655266 0.02967529 -0.01112328 0.029566173
-0.029720925 -0.07538204 0.03342622 0.0367387 -0.010096425 -0.061628997 -0.036482185 0.0664143
0.08419094 -0.017783431 0.010231717 -0.0019832093 -0.0630855 0.024269588 -0.07992155 0.03109154
0.041013278 -0.011830799 -0.017022353 -0.06771659 0.05835189 -0.0075046993 0.077045575 -0.01203283
0.023528468 0.032029834 0.07586231 -0.060262438 -0.06081981 -0.07688583 0.014338031 -0.03225768
0.07374495 -0.041081343 -0.013189529 0.021318318 -0.028965136 -0.004106304 -0.08151041 -0.055041403
0.04734975 -0.08372077 -0.067354895 0.07909362 -0.030895125 -0.025693689 -0.06487877 0.011913829
-0.0837422 -0.00056706474 -0.0073309806 -0.018115664 0.051284328 0.06801622 0.037881207 -0.025347114
-0.07933363 -0.050006296 -0.041875698 0.043599565 -0.055453252 0.086339146 -0.056350704 -0.007828282
0.073456064 0.076902606 0.020554291 0.0002739861 -0.05026707 0.085555434 -0.05738699 0.012485666
0.020852152 -0.067563854 -0.0488999 -0.0068823695 -0.056299686 0.060472127 0.046263877 -0.08311312
0.048985217 -0.008713745 0.08675804 0.010824944 0.026237972 -0.016881593 0.0011579846 0.04709024
-0.05497856 -0.06623663 -0.009900674 -0.056118656 0.07246318 -0.08646738 0.018929593 0.07838261
-0.033243727 -0.014094506 -0.058814693 0.07403871 -0.0636203 0.010871664 -0.033623207 0.0060451436

embed.3.bias f4 [256]
00000000: 9e5a c2bc ffa3 83bd 8681 413d eeda 5c3d
00000010: 964c ae3d 12e6 98bd 29cc 47bd 9775 39bd
00000020: cbed a3bc 2cef af3d 56dd 4cbd ba30 eb39
00000030: e4d9 d0bc e820 153d d16e 5dbd 3e31 e1bc
00000040: 4846 adbd ac18 5d3d e1dc 2b3d 80e5 a2bd
00000050: 9f89 a1bd d0d2 55bc 5a4d a8bd 549b f7bc
00000060: c039 743d 6669 8d3d 5416 0bbd bf9b 77bc
00000070: cd36 523c f66d 643d df81 83bd 7dc1 913d
00000080: 8e86 8cbd 226b abbc 6a33 e03c 4f4f 503d
00000090: 3e1f 9b3d 201e f7bc 736f 96bd 9462 83bd
000000a0: 4bd9 153d 24f5 253c 6ce9 1e3d 9a2f 413d
000000b0: 8417 69bd 7119 99bd 971d 82bc dc19 b43c
000000c0: 2a7b 77bd 4054 d8bc 070a c73b 516f b13d
000000d0: 2076 79bc 1160 223c 466a 87bd 4391 753d
000000e0: 20d1 8a3d 3812 443d 0f2b 91bc 04f0 9e3d
000000f0: 93ae 2b3b 14e2 5c3d a663 993d 8a4a de3c
00000100: b8b9 4b3c bbad abbd 0b6f 4b3d 2ee0 a6bd
00000110: 0384 e73c c532 d43c e04d f73c 6554 a53d
00000120: 3481 a83c 9444 80bc 33b0 943d b3b6 2abd
00000130: 5a2b 83bd c292 a5bd aef5 30bc 189f a5bd
00000140: cdb9 4f3d 61d3 843d dd46 593d cba6 85bd
00000150: 095c 933c 03fe c5bc eb9e ba3c ae5d aebd
00000160: 8403 30bd 5aa5 09bd 406b 67bd dca4 603c
00000170: ac56 e6bc 07f7 88bd c622 aa3d 2357 79bd
00000180: 4345 6aba 9e85 4d3d bde5 533c ce2b 843d
00000190: fbfc ac3d acfc c3bc 8668 9bbc 2ced 88bd
000001a0: 9d33 b23c 94dc 1f3d c4af 1b3c 3f8e a3bd
000001b0: 9eaa 29bd dc7e 72bd 8daa bc3c faf6 81bd
000001c0: 6084 503c 06cb 4f3c 4e27 ae3d cde5 983d
000001d0: 567f 26bc f028 853d 2a37 85bc 142b d0bc
000001e0: 5d4c 033d 1f13 8e3d 2a35 42bc cbe5 b3bd
000001f0: 7f43 dd39 5a0d a1bd e952 2a3d 3551 11bd
00000200: b7d4 ad3d d554 a73d 5b38 2f3d 7a44 acbd
00000210: 48bc 6d3c 5007 b43d d400 1abd 25d5 833c
00000220: 41fd 8f3c cd0f 74bd 1d01 01bc bb3e 2bbd
00000230: ed6a 5b3c 38be 4d3d cbf1 b83c cc21 a7bd
00000240: f026 da3a 4686 393d d4a6 be3c 752a 29bd
00000250: 6db0 afbd 2573 033d ffb9 4bbd 7938 523d
00000260: ab14 2f3d 2039 173d 8a8a e53c 856a 783d
00000270: ff51 a1bc 7d52 31bc 00d4 543d d9cd 90bd
00000280: a35f 703d 8376 88bd 695b 89bd 3670 393d
00000290: ee16 823d 89bc 803d 46cd 6fbd 3511 253d
000002a0: 1069 043d c925 f43c a8d5 0b3d 9ef9 9fbd
000002b0: c032 5abd a1c7 1fbd 8d66 b3bd 1ead 6a3d
000002c0: 617c 3abd 3fb0 0b3d 54e7 383d 8bd7 6a3d
000002d0: 5cbc 983d dc69 abbd d71b 27bd befb 953c
000002e0: a497 9a3d 4be3 aabd eec8 a6bd f05e a0bd
000002f0: d216 f5bc 9be3 473d 351d 9dbb 8dec 963d
00000300: 9412 ba3c a8ac 8a3d f82f 3cbd d08b b03d
00000310: 991a 963d 93eb 6abd a3e4 d3bb c10e 58bd
00000320: e810 b03c 10e9 a0bd 151b ccbc 2d8d d7bc
00000330: f130 643d d51b 2c3d b556 a9bd e46f 54bc
00000340: e7ab 5f3d 6b3f b13c 30f4 5c3d 141b fb3b
00000350: fdf5 a2bd 40f2 0bbd c6cf 143d 753e b7bc
00000360: 8f73 56bd ba7c 703d b8f0 58bd 381e a23d
00000370: cb5c 51bd a842 a63c edd8 9bbd 643b cfbb
00000380: 3b77 71bc 1bc6 b33d e40c 1c3d 7f41 28bc
00000390: 9212 6c3d 4493 b3bc 4129 68bc 7a41 153d
000003a0: c3dd babc 76aa a23d 5cc4 a13d 65a9 18bd
000003b0: 544c 85bd 040d 223d 18f8 443d 0ad8 b6bc
000003c0: 50bc 81bd dae4 f1bc edd3 17bd 456b 853c
000003d0: b6dd 803d 47cd 81bd 7e27 c5bc 1eaf 683c
000003e0: c5b0 453d 179d 94bd c2e4 96bc 4f81 843d
000003f0: 56ef 503d b599 93bc 90ba ac3d 717a 413d
-0.02372485 -0.06427764 0.047242664 0.053919725 0.08510701 -0.074657574 -0.048778687 -0.045278158
-0.02001085 0.0859054 -0.05001577 0.00044858997 -0.025494523 0.036408335 -0.05406076 -0.0274893
-0.08460671 0.053978607 0.041958693 -0.0795393 -0.07887577 -0.01305075 -0.08217879 -0.030225433
0.059625387 0.06904869 -0.03395684 -0.015112816 0.012830448 0.05576893 -0.06421255 0.07116983
-0.06861602 -0.020925108 0.027368266 0.050856885 0.07574318 -0.030165732 -0.07345476 -0.06415287
0.03658418 0.010129247 0.038796827 0.047164537 -0.056907192 -0.07475556 -0.01588325 0.021984987
-0.060420193 -0.026407361 0.0060741934 0.0866381 -0.015225917 0.009910599 -0.06612067 0.059952985
0.06778169 0.047868937 -0.017720727 0.07760623 0.0026196584 0.053926542 0.074897096 0.027135152
0.0124344155 -0.08382746 0.049666446 -0.08148228 0.02826119 0.025903115 0.0301885 0.080727376
0.020569421 -0.0156577 0.0726017 -0.04167814 -0.06404753 -0.080846325 -0.010800762 -0.08086985
0.050714303 0.0648563 0.053046096 -0.06525954 0.017988222 -0.024168974 0.022780856 -0.08513962
-0.042972103 -0.033604957 -0.056498766 0.013711181 -0.0281175 -0.06687742 0.08307414 -0.060874116
-0.00089367124 0.050176255 0.012933192 0.064536676 0.0844669 -0.023924194 -0.01897074 -0.06685862
0.021753127 0.03902872 0.009502355 -0.07986116 -0.04142248 -0.059203014 0.023030544 -0.06345935
0.012726873 0.012682682 0.085035905 0.07465706 -0.010162195 0.06501949 -0.016261656 -0.025411166
0.032055248 0.06937241 -0.011853496 -0.08784064 0.00042202693 -0.07863875 0.041582976 -0.035477836
0.08487838 0.08170477 0.042778354 -0.08411498 0.014510222 0.08790457 -0.037598446 0.016092846
0.017576816 -0.05958538 -0.007873801 -0.04180787 0.013392192 0.050230235 0.022576233 -0.08160743
0.0016643684 0.04529407 0.02327291 -0.041300256 -0.085785724 0.032092232 -0.049737927 0.051323388
0.04274432 0.036919713 0.028020162 0.06064846 -0.01969242 -0.010822889 0.05195999 -0.07070512
0.058684956 -0.06663229 -0.06706888 0.04527303 0.0635203 0.0628596 -0.058545373 0.040299613
0.032326758 0.029803174 0.034139305 -0.078112826 -0.053271055 -0.03900874 -0.087597944 0.057294004
-0.045528773 0.03410363 0.045142487 0.057334464 0.07457802 -0.083698004 -0.040798035 0.018308517
0.075484544 -0.08344134 -0.08143793 -0.07830608 -0.029918108 0.048801046 -0.0047947415 0.07369337
0.022713937 0.06771213 -0.045944184 0.08620417 0.07329292 -0.057353567 -0.0064664646 -0.052748445
0.021492437 -0.07856953 -0.024915257 -0.026312435 0.055710737 0.04201873 -0.08268491 -0.01296613
0.0546073 0.021636685 0.053943813 0.00766314 -0.07957075 -0.034166574 0.03633096 -0.022368649
-0.0523563 0.0587127 -0.052963942 0.0791592 -0.051113885 0.020295456 -0.07609735 -0.0063242186
-0.014737899 0.0877802 0.03809823 -0.010269522 0.057634898 -0.021920808 -0.014169992 0.036439396
-0.022810822 0.07942669 0.07898781 -0.037270922 -0.06508699 0.039563194 0.048088163 -0.022319812
-0.06334746 -0.02952807 -0.037067343 0.016286502 0.06292288 -0.06337982 -0.024066683 0.014201907
0.048264284 -0.07256525 -0.018419627 0.06469976 0.0510095 -0.01801763 0.084340215 0.04723591

conv_spatial.mlp.0.weight f4 [256, 2]
00000000: 73e7 f33f 5306 3ec0 552a c6bd 82ee 3bbf
00000010: f7ea 2bbf 0dc9 9cbe 14da 373f 1179 0b3d
00000020: 817b bd3e e90a 293f a7f1 0f3d 014f 3c3f
00000030: 795d 3cbf 0a7b cd3b 63b8 393f 17b4 f63d
00000040: f05c 333f 357f a33e dd3d 19bf a790 d83e
00000050: f04c 35bf 4a80 323e 631c 2fbe bd88 39bf
00000060: f265 a93c d5e9 38bf 4239 0fbe 952f 2d3f
00000070: 22ca 16bf 51af 05bf d89b 8bbf 6665 7140
00000080: 6a4c 8ebe ddb1 22bf 29f9 1f3f 6170 f83e
00000090: 5a38 38bf 9f95 923d 5797 9c40 887d 4abf
000000a0: f37f 083f 12e0 ff3e e578 be3e c940 303f
000000b0: dcbe 023f 6074 fdbe d552 31bf 447d 763e
000000c0: 6f12 21bf 310a bf3e a693 f53e 2ef0 11bf
000000d0: ce4a 1a3e b36c 34bf c959 dbbe e15c 22bf
000000e0: 9093 3dbf 9039 c3bd 2bf1 88be 089b 2d3f
000000f0: 2516 323f 9d43 5abe 4990 393f 9c8e fe3d
00000100: 8111 7e3b 26d0 3b3f 6304 103f f573 d8be
00000110: 6d5c 0a3f 5dea 0e3f f87f 203e 6cd6 36bf
00000120: d99b 1abf 8524 dfbe b694 1abd 89f1 363f
00000130: d142 ccbe e1ab 27bf 0324 d6be 3464 1abf
00000140: c1c1 8cba b881 3cbf ce1b 683e 7657 32bf
00000150: cfc7 603f 1ace 0040 c9f2 c9be 01f9 1bbf
00000160: f314 613e 0b26 313f 22f4 f03e 0723 0cbf
00000170: 5ba0 a43e e607 243f f200 28bf 077f 9a3e
00000180: b130 c03c e0d0 3b3f 78a5 06bf 785f eb3e
00000190: 0355 323f 23fe 873e 76a0 51be 0652 2ebf
000001a0: 661b 533e b8b3 33bf f78a 2dbf 5184 b6be
000001b0: 9707 5240 106e dc3f b500 2ebf ed1e 823e
000001c0: 2045 f9be a95f 603f 9733 333f b881 1abe
000001d0: 3bd3 703f 5301 9340 3257 edbd a355 353f
000001e0: 538f 8fbe 8902 35bf 446a ddbe 4090 163f
000001f0: e9ec cebf bdc9 5b40 887e 4b3f bdad 533f
00000200: 1925 be3e bea0 243f 1c4e c1be c488 133f
00000210: c0dd 9cbd b99e 32bf bc44 c83e a330 18bf
00000220: 2ad8 2dbf 237a c2be f71b 3cbf 5222 f7bc
00000230: 657f 20bf 4114 c93e a1ae 3cbf ce33 353c
00000240: 4f91 1cbf ebee d73e d31a 183f a892 ddbe
00000250: eabe 26bf 28d1 a63e 5e98 c1c0 3715 88bf
00000260: 36e4 023f 481c d5be 6619 16bf 2a43 d13e
00000270: aaab 363f 0328 543e 7a11 9540 2111 6040
00000280: 0198 c03d c3f0 3c3f d76c ccbe b240 21bf
00000290: 090b 64be 6116 37bf fff8 0dbe a7f1 39bf
000002a0: 4bbc 2dbe 2f87 39bf 6db1 efbf 0e9a 36c0
000002b0: 4a5d 02bf db32 16bf 8509 aebe 4e82 2d3f
000002c0: 8dbe 09bf 16b5 0dbf 758f 2ebf 5edf 91be
000002d0: 9b00 9bc0 48a2 0040 69cd 15bf b89d f03e
000002e0: 5276 3b3f 40dd db3c 9183 fcbd 874e 3bbf
000002f0: 5612 24bf f98b d43e 76d8 d1be ca7d 193f
00000300: 9266 26bf 7c8a dabe 1a55 393f 9065 f43d
00000310: 404c 31bf fb88 533e 54ca 86bd 5afa 353f
00000320: a68b aac0 a2c3 59bf 9ad8 2f3e c102 34bf
00000330: 38a5 23bf 7bd7 b03e 2cdf fcbe 99f4 fc3e
00000340: 95b8 243f 3c69 d43e 4cef d03f dfa1 8040
00000350: 8f83 3a3f a9f6 8d3d dbbf 37bf 1716 1a3e
00000360: dd43 ae3e bc4e 19bf 48dc 90be 739c 25bf
00000370: d932 a3be 5f3e 16bf 3b66 1f3e 5865 393f
00000380: db57 ea3e 0cd3 9140 50ca 2abf b32d c2be
00000390: 9840 31bf cdec 5a3e dc3a 053f 3f47 00bf
000003a0: a2f1 ce3e 176c 15bf d550 6f3e 9400 383f
000003b0: 6098 573e 7bd2 32bf 267f 4fbe adfd 37bf
000003c0: 8a86 313f 99e9 ae40 22c0 1f3f 14e3 e63e
000003d0: efe8 443f d557 493f 2b76 ac40 f7fd 39bf
000003e0: 1b98 1b3e 43d8 35bf 0dbd 3cbf 5309 9f3c
000003f0: 22eb d13e 6669 153f bad2 2d3f 5b41 ab3e
1.9055008 -2.969136 -0.09676043 -0.7341081 -0.671554 -0.3062214 0.71817136 0.034051005
0.37008289 0.6603227 0.035142567 0.7355805 -0.7358013 0.006270771 0.72546977 0.12046068
0.70063686 0.3193299 -0.5986002 0.4229786 -0.7082052 0.17431751 -0.17100672 -0.7247427
0.020678494 -0.722318 -0.13986686 0.6765073 -0.5890218 -0.52220637 -1.0906935 3.7718139
-0.27792674 -0.6355265 0.62489563 0.48523238 -0.71960986 0.07157444 4.893474 -0.79097795
0.53320235 0.4997564 0.3720161 0.68848854 0.5107248 -0.4950285 -0.69267017 0.24071223
-0.6291875 0.37312463 0.4796421 -0.5700711 0.15067598 -0.7047836 -0.42841938 -0.6342297
-0.7405329 -0.095324636 -0.26746497 0.67814684 0.6956504 -0.21314855 0.72485787 0.12429544
0.0038767757 0.73364484 0.56256694 -0.42275968 0.5404728 0.5582636 0.15673816 -0.7142093
-0.60394055 -0.4358255 -0.037739478 0.71462303 -0.39894727 -0.6549664 -0.4182435 -0.6030915
-0.0010738896 -0.73635435 0.22666857 -0.69664705 0.87804884 2.0125794 -0.39443043 -0.60926825
0.21980648 0.69198674 0.4706126 -0.5474095 0.32153592 0.6407455 -0.6562644 0.3017504
0.023460718 0.7336559 -0.52596235 0.45971274 0.6966097 0.26561078 -0.20471367 -0.6809391
0.2061592 -0.70196104 -0.6779017 -0.35647824 3.2817132 1.7221088 -0.6796983 0.2541422
-0.4868555 0.87645966 0.70000595 -0.15088546 0.9407231 4.5939116 -0.11588897 0.70833796
-0.28039035 -0.70706993 -0.43245137 0.5881386 -1.6166049 3.4341881 0.79489946 0.8268698
0.37137678 0.64307773 -0.37754905 0.5763056 -0.07659483 -0.6977344 0.3911494 -0.59449214
-0.67907965 -0.37983808 -0.7348017 -0.030167732 -0.6269439 0.39273265 -0.7370396 0.0110597145
-0.61159223 0.42174467 0.5941593 -0.43275952 -0.6513506 0.3258145 -6.0498495 -1.0631474
0.5112947 -0.4162314 -0.58632505 0.40871555 0.7135569 0.20718388 4.6583834 3.5010455
0.094039924 0.73804873 -0.39926788 -0.6298934 -0.22269835 -0.7151852 -0.13864516 -0.7263436
-0.1696636 -0.724719 -1.8726021 -2.8531528 -0.509236 -0.5867135 -0.33991638 0.67776954
-0.5380638 -0.5535444 -0.6818765 -0.28490728 -4.843824 2.0099049 -0.58516556 0.4699533
0.7322742 0.026838899 -0.12329782 -0.731667 -0.6409048 0.4151304 -0.4098546 0.59957564
-0.6500026 -0.4268378 0.7239548 0.11933434 -0.69256973 0.20657723 -0.0658156 0.7108513
-5.329547 -0.85064137 0.1717247 -0.703167 -0.6392398 0.345394 -0.49389017 0.49405363
0.6434415 0.41486537 1.6323028 4.0197597 0.7285699 0.06931812 -0.71777123 0.15047489
0.3403615 -0.59885764 -0.2829306 -0.6469185 -0.3187473 -0.5868892 0.15566342 0.72420263
0.45770153 4.5570126 -0.66714954 -0.3792549 -0.6923919 0.21379395 0.5204294 -0.5010871
0.40418726 -0.58368057 0.23370679 0.7187588 0.2105422 -0.6985242 -0.20263347 -0.71871454
0.69345915 5.4660153 0.62402546 0.45095122 0.7691793 0.78649646 5.389425 -0.72653145
0.15194742 -0.71033114 -0.7372597 0.019413626 0.40999705 0.5836395 0.6789967 0.334483

conv_spatial.mlp.2.weight f4 [256, 256]
00000000: 83f8 af3e 4b64 ac3e 2d23 453d 1cad a73d
00000010: 63a6 61be bf7a efbe b9db 94bd ee53 7d3d
00000020: 08f8 48bd 1ab2 34be 2f1b 16be 7468 a23e
00000030: 2ec5 be3e 30f0 75bf 572a 103e 7fbc 82bf
00000040: 5d2b 043e 156e 13be 61fe cbbd fd5c aa3e
00000050: 2567 66bd 9371 46be c3e6 633e 6f81 27be
00000060: e04f d8bd f7f7 9c3e 5f91 713f 67ef f83d
00000070: b33a 613c 11ba 7cbf feab bf3d 0c40 343d
00000080: 40e0 cbbe 4e3f 643e f144 8bbd e355 543f
00000090: 593c 8f3c 79ca 00bf a440 6d3e e820 be3d
000000a0: 91d3 e43e ce54 ce3f abc1 01be 11fd e93d
000000b0: d63b 81be ef58 813e aab6 0ebe 3353 2ebe
000000c0: cda5 c6be bb94 81be 43e7 bcbc 8fba 663e
000000d0: 7552 de3f a863 973d eac7 84bd 2642 a8bd
000000e0: 4289 e4be 0643 d83d 16db 58be ec89 2bbf
000000f0: b6e4 9f3e dfa4 bbbe f0a4 f4be 3da9 2dbe
00000100: 98c7 27be 0f64 a7be 5557 863e 81e9 c43e
00000110: 1fe7 953c 206c a53c d3eb 0abe d42e 6abd
00000120: 094a 48be 09ef 683e 3d44 1ebe 48b6 f1bd
00000130: d4d6 303e d0e6 f1bd dc79 79bd cbf4 6bbd
00000140: 5f33 a2be ae26 543e 09e3 913e 88d1 9d3e
00000150: e1e9 793e dac6 153e ed73 113e 150b 11bf
00000160: 8a1e 963d bf53 813d 86d1 d6be d61a 51be
00000170: cf9b b8bc 9c49 bc3e db6f 74be 8d20 c4be
00000180: 35c6 ae3c 84c2 bb3c b7cb 21bd e8f5 12bf
00000190: 8069 8bbd a45b 853f 3bf7 0fbe 47aa 4dbe
000001a0: 915f 3bbd 4378 12be eedf 7c3d 38a0 04bd
000001b0: 8da6 c23e f633 713e 6dcf da3d 4b25 60be
000001c0: 1117 8bbe 8960 dd3d 634e 0fbd 4fef 793e
000001d0: 721a c83e 9fcf a2be 3b29 d73f 05c8 a63e
000001e0: 1c3a 89be ca11 0ebe 82d4 16be d8eb 8d3e
000001f0: 6712 613f 1d8d 97bd bd1b 9fbd 4633 c6bc
00000200: 47f6 dc3d 02e8 d9bd 1f0d be3d 4f8a a33e
00000210: eb57 743e 4777 12bd 420f c43e 0766 b5be
00000220: f1f0 183e b8bb a93d bc5c a23e 485d 4b3d
00000230: e8ce e6bd 0bc4 86be 4959 a8bd 07b1 a73d
00000240: d951 593c 6069 ea3d 69df d63e f25e 153e
00000250: 64b1 b93d d15c 03be 453d 46be 3f41 db3d
00000260: c310 973f 549a f9bd 41b2 a93c 1304 86be
00000270: 4a85 683e c5b5 c9be 4f8e d7be b3c6 a13b
00000280: c6c2 97be db88 0f3d ad24 dbbd d5bc c6be
00000290: eb1d 16bd e551 36be 0125 41be 2c17 e3bb
000002a0: 13e2 843f 06a7 273f 9994 34be fb5b bb3f
000002b0: 6bae 2c3e bd66 9e3e 6e39 15be a5fc 1bbd
000002c0: efb6 86be fa69 a4be fc37 ad3a 25f9 903f
000002d0: cccd 023e 364d 123d fd1d 36bd c738 5dbd
000002e0: d59c 0c3d 911b dfbd ae77 723f f798 583f
000002f0: 9bed 90be 8bf8 c4bd efa3 a93e 09eb fb3d
00000300: 3737 91be c3ea cc3e 1c2f cbbe e39d 83bf
00000310: 73d2 803e e1d6 9f3e 3d03 4a3c f5e3 57be
00000320: d767 9fbe a65d 18bf beb5 f63d cb03 83be
00000330: 0b6d 4f3d fd18 853d 4783 3f3e 5588 8cbe
00000340: 803a 573c 9926 e2be 0c91 29bc 9e98 013e
00000350: 0217 a2be 008d 163f 3b19 2c3e dd65 e33e
00000360: e0d1 143f b3a1 36be f801 813c a783 10bf
00000370: 53ce cd3d 6125 973e 53e2 213e 2fdb adbe
00000380: 1b93 f0be b4f6 84be 2f5b b33d 3b60 ad3b
00000390: 4f01 2d3c 2895 fd3d 6ace b93e e357 9e3c
000003a0: 3062 1c3e 3c2c 0e3f f1e1 2f3e 6328 d13c
000003b0: 7d37 32be d397 24bf be97 7c3e 734f b23d
000003c0: f3cd 043f cb08 f53d 5d55 443e 6cf8 1fbd
000003d0: a9e5 5ebd 017b 76be 174d 99be e905 64bd
000003e0: d792 a7be 83d3 a0bb 919d d43e 6d77 bbbb
000003f0: 21dd db3d de35 51be fa64 4cbe efd1 833e
0.34369287 0.33670267 0.04812925 0.08187315 -0.22036128 -0.46773335 -0.07268471 0.06184762
-0.049064666 -0.17646065 -0.14658807 0.31720316 0.3725981 -0.9606962 0.14078651 -1.0213774
0.12907167 -0.14397462 -0.09960628 0.3327407 -0.05625071 -0.19379263 0.22255997 -0.16357969
-0.1056211 0.30657932 0.94362444 0.121550374 0.013746905 -0.98721415 0.09358977 0.044006392
-0.39819527 0.22289774 -0.06800259 0.8294355 0.01748483 -0.5030895 0.2316919 0.0928362
0.44692662 1.611963 -0.12671535 0.11425222 -0.25240964 0.25263163 -0.13936868 -0.17023925
-0.3879837 -0.25308785 -0.023059493 0.22532104 1.7368914 0.07392055 -0.06483443 -0.08215742
-0.4463597 0.10559659 -0.21177325 -0.6700733 0.3122918 -0.36649224 -0.47782087 -0.1695909
-0.16384733 -0.32693526 0.26238504 0.384594 0.018298684 0.02019316 -0.13566522 -0.057173565
-0.19559492 0.22747435 -0.15455718 -0.118023455 0.1726945 -0.11811602 -0.06090723 -0.0576065
-0.31679818 0.2071788 0.28493527 0.30823922 0.24405624 0.14626637 0.14204378 -0.56657535
0.073300436 0.063148014 -0.4195673 -0.20420393 -0.022535233 0.3677491 -0.23870794 -0.38306084
0.021334747 0.0229199 -0.03950092 -0.57406473 -0.06807232 1.0418591 -0.14059155 -0.20084487
-0.045745436 -0.14303689 0.061736993 -0.03237936 0.38017693 0.23554978 0.106840946 -0.21889226
-0.27166036 0.10809428 -0.034986865 0.24407695 0.39082676 -0.31799027 1.6809458 0.32574478
-0.26802146 -0.13873973 -0.14729503 0.27718997 0.87918705 -0.07399962 -0.077689625 -0.024194371
0.10789161 -0.10639955 0.092798464 0.3194146 0.23861663 -0.035758283 0.3829289 -0.35429403
0.14935662 0.08287758 0.31711376 0.049649507 -0.11269933 -0.26321444 -0.08220155 0.08188062
0.013264143 0.1144588 0.41967323 0.14587 0.09067038 -0.12828375 -0.1935931 0.10705804
1.180199 -0.12187639 0.02071488 -0.26174983 0.22707096 -0.39396492 -0.4210076 0.004937017
-0.29640788 0.035042625 -0.10700355 -0.38815942 -0.036649626 -0.17804678 -0.18861772 -0.0069302525
1.0381492 0.6548923 -0.1763481 1.4637445 0.1686341 0.30937758 -0.14572689 -0.038082737
-0.26311442 -0.32112104 0.0013215537 1.1326033 0.12773818 0.035718165 -0.044462193 -0.054009225
0.034329254 -0.1089393 0.94713867 0.84608406 -0.2830628 -0.09617718 0.33132884 0.12300689
-0.28362438 0.4002286 -0.3968438 -1.0282558 0.2516056 0.31218627 0.012329874 -0.21083052
-0.3113391 -0.59517896 0.12046383 -0.2558883 0.0506411 0.06498907 0.18702422 -0.27447763
0.013136506 -0.44170073 -0.010349523 0.12655875 -0.3165818 0.588089 0.168065 0.44413653
0.58132744 -0.17835121 0.01574801 -0.56450886 0.10049119 0.29520705 0.15808992 -0.33956286
-0.46987233 -0.2596947 0.08757626 0.0052910126 0.010559394 0.12381965 0.36290294 0.019329017
0.1527183 0.55536246 0.17176034 0.025531953 -0.1740398 -0.64294165 0.2466726 0.0870656
0.51876754 0.11964568 0.19173189 -0.039055273 -0.05441824 -0.2407036 -0.29941627 -0.0556697
-0.32729217 -0.0049080267 0.41526464 -0.005721024 0.10735536 -0.20430705 -0.19960395 0.25746104

conv_spatial.mlp.4.weight f4 [2, 256]
00000000: 0223 2bbf c685 22c0 16b9 803e 0f00 e13e
00000010: 66a5 973f f911 b7bd 7290 ab3f e03c aebf
00000020: c91d f33e a569 80be 3fa7 abbf decf 0dbf
00000030: 21c8 0cbf d646 97be 14fb a23e e366 74bf
00000040: f386 42bf 9412 53bf d3b7 8f3e 47d6 593f
00000050: d010 6a3e e24d a83e 24a6 0ac0 42af 17c0
00000060: aaa2 063f 7d1f d1be c0a0 d73f 061c f4be
00000070: cffb 463f ec8b 8e3f d45a 8b3f 2c06 ec3c
00000080: 1dcd 21c0 3fc3 8ebf ad94 183f 5e29 c4bf
00000090: f263 1a40 8798 f83d 1999 00bf a2ee 1440
000000a0: cdc0 563f 301c c0bf 7f2b b9bf f1be a7be
000000b0: c1c0 43bf 5e44 fbbf 8349 b6bf e746 91be
000000c0: 64aa 1140 bfbd 273f 0270 9bbf b839 ce3f
000000d0: 4498 b63f ccdb 873f c4c8 1c3f ba71 963f
000000e0: e67e 5fbe dc6b ae3f 8404 4ebf 73f3 69bf
000000f0: f51c 363f 85c3 1640 02cb 1d40 3237 663f
00000100: 0e39 fb3e 295e 6abe 40df 1f40 fd31 05bf
00000110: b717 a9bf c99f 843f 4e0a bf3f 5bb7 ce3f
00000120: 9d4d 1940 f807 963b 47bf cf3f 43df a7bf
00000130: 1eef ef3d a9d0 c4be ab73 8fbf 3d14 9dbf
00000140: 37cc a9bf a3e0 94bf 9d4c 0cbf 1676 263f
00000150: 60e9 523f 9c00 aebe be79 bbbf 2134 9ebf
00000160: 2783 9cbe 7465 18bf b0c7 0a3f a8f4 d83e
00000170: f6e3 aabf ddce a0bf 0c63 613f a9b5 3240
00000180: 2af1 973f 978a bf3e c18e bebf 3844 553f
00000190: 8a9c b13f dbcd 2cbf 4cb3 fa3e 2492 f43e
000001a0: 9bc3 573e 825c 903e 6ac9 64bf c42c 00bf
000001b0: bc00 803e 91ca 483f 198a 49bf 1e87 0840
000001c0: 7bd9 793f 0b55 42bf 22a4 5b3f f380 ba3f
000001d0: 8945 d0be 2518 1ec0 682d 8abf a01a 0b40
000001e0: 940a 7fbd 43d4 cbbf 5019 9e3f 705c 0440
000001f0: 6f90 84bf 783d af3f f467 0340 015a 00c0
00000200: 6bd7 9fbf 79e6 8cbf e702 07c0 246f 413f
00000210: 0c35 3e3e c645 ecbf fb0a 0cbf 171b 14c0
00000220: a25a 65bf 806c ec3e ed6c 97bf 76b5 6dbf
00000230: 86b6 71bf 7edc a5be bcb0 373e a959 f2bd
00000240: f538 3bbf af1c c0be ac64 893f e1ed b9bf
00000250: 817c 55be fb3f 1dc0 fcdd 153f e501 1abf
00000260: 7107 7fbf 7d91 433f 407a 56bf 3efd dd3e
00000270: 6534 f23d 7737 683f 8e68 673f 6617 b33f
00000280: 00c9 283f 7d69 a9bf ca86 71bf 0e48 77bf
00000290: e7d3 b4bf 7728 ab3f 9379 9e3f c0d0 ec3e
000002a0: f9bd 1fc0 23df 1bc0 2755 a9bf 9465 49bf
000002b0: b600 a13f 0dc4 973e a9ee 1b3f 8100 b73e
000002c0: c5b6 7e3e 35cc 5e3f 5ce7 30bf c3b0 44bf
000002d0: 76b5 69bf d9bc 8fbe 5ebe c5bf 2513 8ebf
000002e0: 1048 0bbe cf1f 43bf aa5a 0740 867a d1be
000002f0: da31 313f 2d90 19bf d7be 343f 90b7 83bf
00000300: c264 2dbe 5538 ba3f 079b ddbf c9e0 0ebf
00000310: 4a42 8cbf 50d3 a5bc 2c26 763f a2f6 0740
00000320: 3ffa 9bbe f3d5 383f 35b9 04bf 6562 d8bf
00000330: 28ef fd3f 8ae7 1140 7acf 4ebf 6682 0240
00000340: a4d4 1740 b276 ec3e 08c8 cdbf a371 fcbe
00000350: 78e5 a13f 492c 723f 357b 80bf ea7a 893e
00000360: 0e50 be3e aaa5 a93f 2c4a a0bf 7ea1 5abf
00000370: cfbf a73f e958 85be b0f2 053f 93d9 603f
00000380: 6ba9 583f e948 44bf 7806 b7be 61b3 1f40
00000390: bd3c ba3f 6071 1ac0 dd3c 3140 4f79 703f
000003a0: 0acd 21be 427d cbbf ae3e 853d 3385 07bf
000003b0: a3bd 1bc0 bad2 a9bf 8ed2 0abf 7a1d 2140
000003c0: 10f7 9fbd 8a3c b5be 75a4 a1bf 5ad3 1240
000003d0: 2cf5 6d3f 9386 233e 05a4 e0bb 931c 243e
000003e0: 5daf b9bf 404f 30bf a25b 69bf e887 76bf
000003f0: 6308 853f 07f4 a1be 50d5 673e 3697 4c3f
-0.6685029 -2.539415 0.2514121 0.43945357 1.1847351 -0.08938975 1.3403456 -1.3612328
0.47483662 -0.250806 -1.3410414 -0.55395305 -0.5499287 -0.2954623 0.31832182 -0.9546949
-0.75987166 -0.8245022 0.28069934 0.85092586 0.22857976 0.3287192 -2.1663904 -2.370072
0.52591956 -0.40844336 1.6845932 -0.4767763 0.7772798 1.1136451 1.0887094 0.028811537
-2.5281441 -1.1153334 0.5960186 -1.5325124 2.4123502 0.12138467 -0.5023361 2.327065
0.8388794 -1.5008602 -1.4466399 -0.32762864 -0.76465994 -1.9630239 -1.4241184 -0.28374407
2.2760248 0.65523905 -1.2143557 1.6111364 1.4265218 1.0613952 0.61243844 1.1753457
-0.21825752 1.3626666 -0.8047564 -0.913871 0.71137935 2.3556836 2.4655156 0.8992797
0.49066967 -0.22887482 2.498001 -0.520294 -1.3210362 1.0361263 1.492502 1.6149706
2.3953621 0.0045785867 1.6230248 -1.3115009 0.1171553 -0.38440445 -1.1207174 -1.2271801
-1.3265446 -1.1631054 -0.548044 0.65023935 0.8238735 -0.3398484 -1.4646528 -1.2359658
-0.3056881 -0.59529805 0.5421095 0.42374158 -1.3350818 -1.256313 0.8804176 2.7923377
1.1870472 0.37410423 -1.4887315 0.8330722 1.3875897 -0.6750161 0.48964918 0.47767746
0.21070711 0.28195578 -0.89369833 -0.50068307 0.2500056 0.7843409 -0.78726345 2.133247
0.97597474 -0.75911015 0.8579732 1.4570602 -0.4067805 -2.4702237 -1.0795107 2.1735
-0.062265947 -1.5924152 1.2351475 2.068142 -1.0356578 1.3690634 2.0532198 -2.0054934
-1.2487615 -1.1007835 -2.1095521 0.7556021 0.18574923 -1.8458793 -0.54704255 -2.3141534
-0.8959142 0.4617653 -1.1830117 -0.9285501 -0.94419134 -0.32394785 0.17938513 -0.118335076
-0.73133785 -0.37521884 1.0733848 -1.452572 -0.20848276 -2.45703 0.58541846 -0.6015914
-0.9962073 0.7639387 -0.8378029 0.4335727 0.118264 0.9070963 0.9039391 1.3991516
0.659317 -1.3235317 -0.94346297 -0.9659432 -1.4127167 1.3371724 1.2380852 0.46253014
-2.49597 -2.4354942 -1.3229111 -0.7867062 1.2578342 0.29641762 0.6091104 0.35742572
0.24874409 0.87030345 -0.69103026 -0.76832217 -0.9129251 -0.28073767 -1.544872 -1.1099592
-0.13601708 -0.7622041 2.1149087 -0.4091379 0.6921669 -0.5998562 0.706037 -1.0290394
-0.16932967 1.4548441 -1.7312936 -0.55811745 -1.095773 -0.020242363 0.96151996 2.1244283
-0.3046436 0.7220146 -0.51845104 -1.6905028 1.983861 2.279757 -0.80785334 2.039209
2.3723536 0.46184307 -1.607667 -0.49305448 1.2648153 0.94598824 -1.00376 0.26851588
0.37170452 1.3253682 -1.2522635 -0.8540267 1.310541 -0.26044396 0.52323437 0.8783199
0.8463351 -0.7667375 -0.35747123 2.4953234 1.4549786 -2.4131699 2.7693398 0.939351
-0.15800872 -1.5897601 0.06506096 -0.5293762 -2.4334495 -1.3267434 -0.5422753 2.517424
-0.07810795 -0.3539775 -1.2628313 2.2941499 0.9295223 0.15969305 -0.00685549 0.16026525
-1.4506642 -0.68870926 -0.91155446 -0.96301126 1.0393184 -0.3163149 0.22639966 0.7991823

tail.0.weight f4 [256, 256]
00000000: 923b 143d 8845 58bc e018 d63c 2423 573d
00000010: 8e65 0a3d 7e8b 47bd c43b f9bc 50af 083d
00000020: d048 64bd 02b2 323d 10c6 953c 4c99 dd3c
00000030: aa4a 003d 20a2 7abc f083 59bd 0233 23bd
00000040: 18d5 12bc 3061 0abd 0060 6939 ba72 7cbd
00000050: 5e72 3fbd bc87 673d 2884 763d 80d6 7dbd
00000060: 6038 4b3b 9ad0 1bbd 62a4 7a3d c894 85bc
00000070: 6cea 413d ec63 edbc c061 2fbd 963a 033d
00000080: 9062 373c 8016 4cbb 603d 22bd c05d ea3b
00000090: 58e4 323d 702e a43c 8256 54bd c057 7dbb
000000a0: ba50 62bd 483b 493d 30ce 64bc e09a babb
000000b0: f87b 98bc fad1 633d 068c 28bd 9639 6fbd
000000c0: c874 efbc 58c2 59bd f8c2 5f3c 6a32 4f3d
000000d0: f4b2 7fbd a080 cebc 4a09 6b3d b08a 8d3b
000000e0: e8c8 4b3d 8a44 05bd 28d2 283d fce8 d9bc
000000f0: f602 453d acbf eebc 0852 69bd 94f2 adbc
00000100: 4015 75bc 0066 06bd 204d b0bc 88c9 a73c
00000110: c050 69bc 80a3 773a 3442 7abd 0826 9f3c
00000120: e4ce 5fbd 648e 843c 5495 a53c 1aad 18bd
00000130: 6839 d53c fc11 eabc 108f 2b3d 686a 42bd
00000140: 1053 bf3c 6258 4e3d d08a cb3b 8812 da3c
00000150: c2a7 0bbd d836 a73c 6898 303c 72b4 513d
00000160: e8d3 433d 00c7 ffba 205e 503c 08c2 a1bc
00000170: 1c4d 0a3d 92fe 143d 7ccc d23c d4e9 b5bc
00000180: d878 c3bc ca23 5a3d 74ba 40bd 2e44 6d3d
00000190: 00d7 c8ba 0037 f2ba c049 8ebb b01e 15bd
000001a0: 6492 2c3d c491 91bc 347a 0d3d 10ac ccbb
000001b0: ec85 443d 8cce fc3c 7cbb 3f3d 4c4d 36bd
000001c0: b21f 5ebd f420 513d 663a 423d 0020 23bd
000001d0: 1cfd a5bc 4804 6fbd 8849 c1bc 201b dc3c
000001e0: bc46 3abd 108c 293c 7874 14bc 72f8 653d
000001f0: 346f eb3c b0a1 9cbc 008e 4b3a f036 433c
00000200: 6002 ecbb b86d a63c 4ee0 06bd ee84 553d
00000210: daa3 42bd e035 973b b4b0 883c 40eb 8e3b
00000220: a4fd 52bd be10 343d dcb3 4a3d fa29 5cbd
00000230: eccc 893c aee4 6cbd 64b8 5a3d 60c3 353b
00000240: ba11 6c3d 305c 393c a010 6dbb 5405 afbc
00000250: fa2e 193d 5610 13bd 00e8 75ba b0b8 1ebd
00000260: 2066 8abb 805e c93a 90f6 cdbb 507d e73c
00000270: de0b 273d 4e08 213d fac0 2f3d 7625 6fbd
00000280: 54f2 f03c 047b af3c 888a 58bd f04a 9cbc
00000290: 2ce7 793d 1eae 4dbd 7c45 413d 7add 06bd
000002a0: 6058 8d3b 0e5a 4ebd 603f 8abc 60c0 f4bc
000002b0: 8010 6f3d 0c42 7d3d 58a4 12bd 5e32 593d
000002c0: dc1c 013d 0021 0dbb 8aea 2bbd 44e7 4cbd
000002d0: d06c ccbc 922b 3abd 02bf 16bd 5a8d 023d
000002e0: f0e1 243d 2e03 6a3d 8084 623a 1c27 2fbd
000002f0: 8028 00bc eeca 403d 7234 463d 4cf6 e83c
00000300: f8b2 2f3c c0fc 82bc 7c2e 00bd c87b 10bd
00000310: d6e5 6c3d 480b 083d 18c4 e33c fcf8 6ebd
00000320: 50c3 f43b fe76 1cbd c4c0 1ebd f0ef 2ebc
00000330: 00c1 37bc 60cd 153b 9ee7 2b3d d01e 033d
00000340: 9459 863c 2086 8dbc c883 dd3c 0007 5c3d
00000350: c48e d2bc 689b 243c 8ad5 0fbd 1ab3 30bd
00000360: 209a 333c 489a ae3c 2a35 503d 0230 7abd
00000370: a0e4 34bd 400f 2abb 1852 ff3c c0a7 603d
00000380: 207f 30bc d0cf 4d3d 50a0 bb3b 3cc5 233d
00000390: 30ff 7dbc 1875 0c3c e695 493d 34c4 1bbd
000003a0: f83e 653d 0408 713d 8ce3 76bd c016 28bc
000003b0: 8444 6e3d 50e0 15bc 7052 0dbc fc71 5f3d
000003c0: c084 043b 005e 423a 68d7 3dbd a812 04bc
000003d0: 60bd dc3c 6c1d 3fbd d458 cd3c 00dc 61bd
000003e0: 7059 37bd 80f0 e4bc 2229 173d 9c51 b83c
000003f0: f81a 9abc 86ce 61bd 2883 2abc c8c6 253d
0.036189623 -0.013200171 0.026134908 0.052523747 0.033788256 -0.048717014 -0.030424006 0.033370316
-0.055733502 0.043626793 0.01828292 0.027050637 0.031321205 -0.015297443 -0.05310434 -0.039843567
-0.008961938 -0.03378409 0.00022256374 -0.06163285 -0.04673993 0.05652593 0.060184628 -0.06197214
0.0031008944 -0.038040735 0.061191924 -0.016306296 0.047342703 -0.02897831 -0.04281783 0.032038294
0.011192933 -0.003114134 -0.039609313 0.007152289 0.043674797 0.020041674 -0.051840313 -0.003865704
-0.055252768 0.0491288 -0.013965175 -0.005694732 -0.0186138 0.05562017 -0.04114916 -0.058404528
-0.02923049 -0.053163856 0.013657324 0.050585188 -0.062426522 -0.025207818 0.057381906 0.0043195114
0.049752146 -0.032536067 0.041216046 -0.026600353 0.048098527 -0.02914413 -0.056962997 -0.021233834
-0.01495868 -0.03281212 -0.021521151 0.02048184 -0.014240444 0.00094466656 -0.061098292 0.019427314
-0.054640666 0.016181178 0.020212807 -0.037274458 0.02602835 -0.028573029 0.041884482 -0.04746476
0.023355037 0.050377257 0.006211616 0.026620165 -0.034095533 0.020411894 0.010778524 0.051197477
0.04780951 -0.0019514263 0.012717754 -0.019745842 0.033764943 0.03637559 0.025732271 -0.022206225
-0.023861334 0.053256787 -0.047052816 0.05792635 -0.0015322864 -0.0018479526 -0.004342288 -0.03640622
0.042131796 -0.017769702 0.03454037 -0.0062460974 0.04797928 0.030860208 0.04680966 -0.04450731
-0.054229446 0.051056817 0.047418974 -0.03982544 -0.020262294 -0.058353692 -0.023594633 0.026868403
-0.045477614 0.010348335 -0.009060971 0.05614514 0.02873955 -0.019120067 0.0007764995 0.011914954
-0.0072024316 0.02031599 -0.032928757 0.052128725 -0.047519542 0.0046145767 0.016685821 0.00436154
-0.05151142 0.04396128 0.049487934 -0.05375097 0.016821347 -0.057835273 0.053398505 0.002773486
0.057634093 0.011313483 -0.003617324 -0.021364845 0.037398316 -0.03590425 -0.0009380579 -0.03875035
-0.0042236 0.0015363246 -0.006285496 0.028257996 0.0407828 0.03931456 0.042908646 -0.058385335
0.029412426 0.021420963 -0.05286649 -0.019078702 0.06101148 -0.05021488 0.047185406 -0.03292606
0.0043135136 -0.05037885 -0.016875923 -0.029876888 0.058365345 0.061830565 -0.03580126 0.05302655
0.031521663 -0.0021534562 -0.04197172 -0.05002524 -0.02495423 -0.04545171 -0.036803253 0.031873085
0.040254533 0.05713194 0.000864096 -0.042761907 -0.007822156 0.04706853 0.04838986 0.028437756
0.010723822 -0.015989661 -0.03129433 -0.035274297 0.057836376 0.033213884 0.027803466 -0.05834292
0.007469572 -0.038199417 -0.038758054 -0.010677323 -0.011215448 0.0022858009 0.041968934 0.032011807
0.016400136 -0.01727587 0.027040377 0.053717613 -0.025702842 0.010046817 -0.035115756 -0.043139555
0.010962039 0.021313801 0.05083195 -0.06108094 -0.044163346 -0.002594903 0.031167075 0.05484748
-0.010772496 0.050247014 0.005725898 0.03998302 -0.015502736 0.008572839 0.04921522 -0.03802891
0.055968255 0.058845535 -0.0602756 -0.01025933 0.05817081 -0.009147719 -0.008625612 0.054552063
0.0020220727 0.000741452 -0.046348006 -0.008061089 0.02694577 -0.04665892 0.02506677 -0.05514145
-0.04476303 -0.02794671 0.03690446 0.022499852 -0.018811688 -0.055128597 -0.010407247 0.040472776
