logs/M3D27_wmd_debug_lr2e5_bs1024_tscale001_r08_oddfunc_radius2/score.pt (torch, 732745 bytes, 10 tensors)

embed.0.W f4 [64]
00000000: c157 4541 5d5d 05c1 ed27 6041 8344 afc0
00000010: 50f2 9642 db22 b6c1 b827 5ec1 82f2 44c1
00000020: fb3f 8841 a7ce 9641 1be5 96c0 a70a a941
00000030: 5984 a0c0 dcf4 bdc1 70e1 1fc2 b988 8e40
00000040: 30fe 09c1 9eb5 86c1 bd69 1dc2 6315 c1bf
00000050: e5fb 76bf 4cac dd40 46a7 e341 1a9c ff41
00000060: 66e3 aec1 78ba f341 7788 a9c1 2a96 bf41
00000070: 16c7 0b40 345e c841 888a d7c0 8686 3642
00000080: dcc2 90c1 1242 dc41 f8d5 cdbe bb82 82c1
00000090: fda1 d3c1 0449 32c0 d5fc 91c1 1102 dbc0
000000a0: 9afd 5c42 c339 06c2 38a4 7d40 be35 f6c1
000000b0: 1f5b 0d42 4173 30c1 0cd6 a4c0 dbb1 0c41
000000c0: 6114 4bc2 6012 ecc1 fbdc 1941 fa61 24c2
000000d0: f3d5 20c0 6935 8342 7a25 11c2 30b5 59c1
000000e0: 61cb fbc0 5c43 8b41 0699 6a42 9e84 b341
000000f0: c70c 3942 3da9 f1c1 8ef2 60c2 c075 c8c1
12.333924 -8.335294 14.0097475 -5.4771132 75.47327 -22.76702 -13.884697 -12.309206
17.03124 18.850904 -4.715467 21.130201 -5.0161557 -23.74456 -39.970154 4.45419
-8.6245575 -16.83868 -39.35326 -1.5084652 -0.9647811 6.9272823 28.456676 31.951221
-21.861034 30.46605 -21.191633 23.948322 2.1840262 25.045998 -6.7356606 45.63137
-18.095146 27.53226 -0.40202308 -16.313833 -26.454096 -2.7857065 -18.248453 -6.8440022
55.247658 -33.556408 3.963148 -30.776241 35.338985 -11.028138 -5.151129 8.793422
-50.7699 -29.508972 9.61645 -41.09568 -2.5130584 65.60432 -36.2866 -13.606735
-7.8685765 17.40789 58.649437 22.439754 46.262478 -30.207636 -56.23687 -25.057495

embed.1.weight f4 [128, 128]
00000000: ad6d 81bd ef02 913d 2f0b 06bd a660 d7ba
00000010: c8b0 8a3c 521d 99bd 192a 6bbd 86ba 9a3d
00000020: 1cb5 393d a10c 9f3d dd8c 213c 7b9b 94bd
00000030: 5d86 263d 502e 9bbd 86e0 27bd 50f9 953d
00000040: 1da3 c7bc 258d 92bd e468 7bbd ef7b 00bd
00000050: c1f0 923d 5d52 8fbd 590c abbd e4f7 233d
00000060: 29de 98bc 0c73 093b e0fd 78bc c000 053d
00000070: ae16 1cbd 8d0a cc3c 3252 9cbd d425 5f3c
00000080: 8174 e23c 1b2e 523d 3b0f fb3c 5a5f 043d
00000090: 464f 333d 7b71 aa3d 779f b73c c195 aebd
000000a0: 66ef b3bd 0a1f b0bd d234 aabd 48c1 663d
000000b0: b57e a7bd df4f 693d 92ba 10bd 3377 f73b
000000c0: dc71 43bd fd98 0bbd 83b9 143d 9f67 e23c
000000d0: 03e6 343d 73e3 aa3d 0f8d aa3c f275 a7bd
000000e0: 22eb 7bbd f4d1 2f3d 4f83 573d fe9b b1bd
000000f0: ca51 75bd 7972 1abd 8c8c 223d d227 ce3c
00000100: 596b 9c3d 86c0 173d 9713 153d 5704 b4bd
00000110: d895 de3c 9fda af3d 7825 a8bd e43a 88bd
00000120: 5992 abbd 8f8d b83c f7b4 acbd 5570 043d
00000130: 9b75 49bd 6f12 9d3d eac7 a33d bf36 0dbc
00000140: 9ea3 33bd c0b1 37bd f2f2 613d 05ce 843d
00000150: f105 943b dae0 83bd 9e83 123d f6b3 c13c
00000160: 740a 2c3c e075 7bbd 5f65 8fbd 8f8e 0b3d
00000170: 9265 e53c e08d b4bd 5f87 693d 8b4b 5e3d
00000180: 2690 853b 3a3e 8f3c 2edf a0bd c9ea 97bd
00000190: 780a b13d 6be4 3b3d c1de 103d d359 92bd
000001a0: 9d3a 2a3d e9ae 83bd d639 9e3c e888 febc
000001b0: 1be7 54bd 45a5 da3c 1c62 c23c 7ffe b03d
000001c0: 4f1c 96bd 1655 e93c 15e5 7cbd b45a 9d3c
000001d0: 3761 8d3d de23 88bd f620 1fbd 1d8e acbd
000001e0: e094 9a3c 354a 863b 9aac eb3c ba3d 9a3c
000001f0: 6bed 8fbd 5d08 923d 1208 3a3d d870 d8bc
00000200: e873 013d 4190 ef3b a31a b73b 630f 8fbd
00000210: 261d a7bd a114 543d c9cb 81bc 2622 9abd
00000220: 726e 86bc 7a85 b3bd a589 563d f65f 993b
00000230: 3042 ab3d 766b 26bd 22e4 933c 2a35 57bb
00000240: 9d9a a9bd cfdb 68bd c1cb a4bd 8ff4 a63c
00000250: 2f71 56bd 5da2 3a3c fefb 013d 10a0 61bd
00000260: 57aa 06bd 3a46 543d 0d9d 103d 3276 3139
00000270: d279 57bd 5837 4c3d af7a 11bd ea2f 95bd
00000280: 2f29 aa3d fe61 873d e85a a2bd ee38 313d
00000290: 237f 3bbd 174e 8dbd cb3a 5cbd 5ac2 893d
000002a0: 9f25 95bd 97cd 033d 9fd5 7b3d 29eb 2e3d
000002b0: 2a75 a4bd ceaa 253d 3c58 763d b37f f03b
000002c0: d02b 36bc ef23 a2bd 4287 9b3d 010a b13d
000002d0: ae0b abbd d481 92bb ea9e 2a3c 4f3c 7b3a
000002e0: 97a5 b13d 48b0 373d 5bf7 543d 3268 68bd
000002f0: cad4 5e3d 3987 333d b408 b03d b50b f13b
00000300: 0f54 2c3d 35d3 3d39 e2f8 34bd d838 8dbc
00000310: 3b36 903d 65c0 a43d 6013 7b3d 62ca 21bc
00000320: bb86 9c3d 6940 98bd d91f 1fbd 1258 583d
00000330: 9068 b23d fd1d aa3d 24a3 59bd cfa5 2ebd
00000340: 93e5 533d 5a79 49bd bfa2 633c 0b0a 8b3d
00000350: a723 f2bc 9ef6 003d fd22 5bbd a754 703d
00000360: 8ba7 80bd 2ef1 63bd 8d92 ae3d 9af5 52bd
00000370: d51e 733a 4bf3 a03d de1d 153b 2df4 5abb
00000380: 0a36 0f3d c0f3 fdbc 7934 063d 2245 08bd
00000390: f94a 88bd 5dc6 ad3d c7d4 69bd 04ee 05bd
000003a0: a420 b2bd 47dd 03bd b956 b13d b408 b23d
000003b0: 11d2 9e3c 38ca 033d d9c8 c43c ebbb ef3c
000003c0: dec7 24ba bd05 6dbd 6495 d4bc 1e62 6f3b
000003d0: d45d d6bc f29a 2a3d 4359 763d 395c b33c
000003e0: 8070 d23c e7ca 55bd 33fe 0c3d 9f3f 9fbc
000003f0: 3f48 4a3d 3961 a7bd 6f0b 6e3c 6011 853d
-0.06319747 0.07080638 -0.03272551 -0.0016432002 0.016929999 -0.074762955 -0.057413194 0.07555108
0.045338735 0.07766081 0.009860245 -0.07256218 0.040655483 -0.07577193 -0.040985607 0.07322943
-0.02436977 -0.071558274 -0.06137933 -0.031368192 0.071748264 -0.069981314 -0.083519645 0.04003133
-0.018660622 0.0020973114 -0.015197247 0.03247142 -0.038107567 0.024907375 -0.07632865 0.013619859
0.027643444 0.0513135 0.03064691 0.032317497 0.043776773 0.08322426 0.022414906 -0.08524657
-0.08785896 -0.0859967 -0.08310856 0.05633667 -0.08178464 0.056960937 -0.035334177 0.0075520515
-0.047716007 -0.034081448 0.03630973 0.027637301 0.04416467 0.08344164 0.020819215 -0.08176793
-0.061503537 0.042924836 0.05261546 -0.08672331 -0.059892453 -0.037706826 0.039684817 0.025165472
0.076376624 0.03704884 0.036395635 -0.0878989 0.02717106 0.085866205 -0.082102716 -0.066518575
-0.08377523 0.022528438 -0.08432954 0.03233369 -0.049184423 0.076695316 0.07997115 -0.0086190095
-0.04385721 -0.04484725 0.05516333 0.064846076 0.00451731 -0.064393714 0.03577005 0.023645382
0.010500539 -0.06139171 -0.07001757 0.0340715 0.028002534 -0.08816123 0.057013866 0.054271262
0.0040760217 0.017485727 -0.07855068 -0.074178286 0.08644575 0.045872133 0.035368685 -0.07146039
0.041559804 -0.06429846 0.019314688 -0.031071141 -0.05197821 0.026690135 0.023728423 0.08642291
-0.07329618 0.028482955 -0.061741907 0.01920829 0.06903308 -0.06647466 -0.038849793 -0.084255435
0.018869817 0.0040982016 0.028768826 0.018828262 -0.07027706 0.071305014 0.045417853 -0.026420996
0.031604677 0.0073108976 0.005587892 -0.06985357 -0.081598565 0.051777486 -0.015844243 -0.075260445
-0.016410086 -0.08765693 0.05237736 0.004680629 0.08362234 -0.040629826 0.018053118 -0.0032838085
-0.08281443 -0.05685025 -0.080466755 0.020380286 -0.052354034 0.0113912495 0.03173446 -0.055084288
-0.032877292 0.051824786 0.035306025 0.00016924067 -0.05260641 0.049857467 -0.03551739 -0.072845295
0.083086364 0.066104874 -0.07927495 0.043267183 -0.045775544 -0.0689966 -0.053767007 0.06726523
-0.07282566 0.032178488 0.06148302 0.042704735 -0.0803016 0.040446095 0.06014274 0.0073394417
-0.011118844 -0.0791701 0.07594158 0.08644486 -0.08351837 -0.004471043 0.010413865 0.0009583877
0.08674162 0.04484585 0.05199371 -0.056739993 0.05440215 0.04383013 0.0859541 0.007356132
0.042072352 0.00018103125 -0.044182666 -0.01723902 0.07041594 0.08044509 0.061297774 -0.009874912
0.07642885 -0.0743416 -0.03884873 0.052818365 0.0871135 0.08306501 -0.0531341 -0.042638596
0.05173261 -0.049187995 0.013893782 0.06789025 -0.029558016 0.031485192 -0.053500164 0.05867448
-0.06281956 -0.05564993 0.08524046 -0.051503755 0.00092743087 0.078589045 0.0022753398 -0.00334097
0.034963645 -0.031000018 0.032764886 -0.033269055 -0.06654925 0.084851004 -0.057087686 -0.032697693
-0.08697632 -0.03219345 0.08659119 0.08693066 0.019387277 0.032175273 0.024021553 0.029264411
-0.0006285886 -0.0578668 -0.025950141 0.0036526988 -0.026167788 0.041651674 0.06014372 0.021894561
0.02568841 -0.052195456 0.03442211 -0.019439517 0.049385305 -0.081728406 0.014529093 0.06497455

embed.1.bias f4 [128]
00000000: 9f9d d2bc 0fa6 b53c 8a84 aa3d 2cfc 8cbd
00000010: 0dec 5d3c abde 963d 13c0 e23b 45f4 9ebc
00000020: 6618 88bd b89f 82bc ce49 63bd 9d9b f73b
00000030: d4b7 303d 9e32 993d 856a 763d b253 a7bd
00000040: 96f1 03bd cfc0 783d 197b 793d 6235 253c
00000050: bca1 92bb 7552 843d f5d1 0d3c a8d7 723d
00000060: cac3 e63c c9c4 8d3d 9654 863d a22f 973d
00000070: cb54 5e3b be4c 8fbd c43a 7fbd 7f3e 9e3d
00000080: 6cdc 56ba e2f7 953d 165b 0fbd 148a 2e3a
00000090: 58f7 113d 13d9 303d f82b babc 2cb4 5abd
000000a0: 810d 89bd 8147 85bd c3b9 193d 3ef2 80bd
000000b0: d69d 25bd 7ebc 6f3c e2e4 7c3c 8b8f b5ba
000000c0: 9246 8d3d 09f6 0abd 7b43 623d 9cb9 9d3d
000000d0: 56c8 673b 4c67 8d3d fb14 d93c 5363 943d
000000e0: 8666 713c ccae 813d c085 1cbc e152 58bc
000000f0: 87d2 053d e2f7 adbc 7440 e43c f65c 9cbd
00000100: b013 8dbd 6b09 60bd 99b7 ac3d 9f6a 98bd
00000110: b7b7 b4bd 0fea a3bd 877a a4bd 3c05 123d
00000120: d212 32bd 0176 c5bb c785 a83d e36c 7a3d
00000130: f6ca 923d 88da ac3d 44b6 183d cfe6 473d
00000140: 2fac 0abd cc4a 5b3c 9788 1a3c fd6b b93b
00000150: c12b 1b3c 7f63 75bc 0eee 3dbd adbc a63c
00000160: 46d0 2b3d 9b7c b5bc 76df cbbb 80fa 623a
00000170: daef ff3c 614a 0b3d 63c8 91bb 2f71 a83c
00000180: 50b8 543d c469 c0bb e7a7 893d 28ef b53c
00000190: 7cf3 943c ee3d 9dbd ef9a 07bd bb43 8bbd
000001a0: 2fd7 da3b ea0d 213d 4aa7 9ebd 67a4 723d
000001b0: 7f91 d93c d1fa b13d 5ac1 8f3c 5e10 9e3d
000001c0: 8834 8ebc 7153 d2bb e3df 9cbc 5d42 4b3d
000001d0: 70ef 9e3d 28bf f93c 78a1 1fbd b240 643d
000001e0: 3b78 df3c 278b 2d3d c4e7 953d 9bb7 e33c
000001f0: 33eb 29bd e674 9f3c a969 aab8 8946 763d
-0.025709925 0.02217391 0.08326061 -0.068840355 0.013545048 0.07366689 0.0069198697 -0.019403586
-0.06645279 -0.0159453 -0.055490308 0.0075563923 0.043144062 0.074803576 0.06016018 -0.081702605
-0.032212816 0.06073075 0.06090841 0.010083528 -0.0044748466 0.0646104 0.008656015 0.059287697
0.028169531 0.069222994 0.06559102 0.07382132 0.0033925052 -0.06997059 -0.062311903 0.07726764
-0.00081962976 0.073226705 -0.034998976 0.00066581485 0.035636276 0.043175768 -0.022726044 -0.05339448
-0.06692029 -0.06507779 0.03753067 -0.06296204 -0.040433727 0.014632342 0.015435429 -0.0013851983
0.06898226 -0.033926044 0.055240136 0.07701418 0.0035367212 0.06904468 0.026499262 0.07245507
0.014733916 0.06332168 -0.009553373 -0.013203354 0.032671478 -0.021236364 0.027862765 -0.076349184
-0.06888521 -0.05469648 0.08433456 -0.07442211 -0.08824103 -0.080036275 -0.08031183 0.035649523
-0.04347498 -0.00602603 0.08228641 0.061139 0.07167618 0.08440119 0.037283197 0.0488041
-0.033855613 0.013384532 0.00943198 0.005658625 0.009470881 -0.014977335 -0.046369605 0.02035364
0.041946672 -0.022154143 -0.006221707 0.0008658543 0.0312423 0.03400648 -0.004448937 0.020561783
0.051933587 -0.0058719832 0.06721478 0.022208765 0.018182509 -0.07677828 -0.03310674 -0.06800028
0.006678484 0.03931991 -0.077467516 0.059238818 0.026558636 0.086904176 0.017548252 0.077179655
-0.017359033 -0.0064186384 -0.019149726 0.049623836 0.07760513 0.030486658 -0.038972348 0.05572576
0.02727901 0.042369034 0.073195964 0.02779751 -0.04148407 0.019464921 -8.1259124e-05 0.06012586

embed.3.weight f4 [256, 128]
00000000: 673e a6bd ed6c 463d dce0 df3c 0e84 1bbb
00000010: 90c2 f03c a7fe efbc 0630 553d 67d2 f53c
00000020: 33ce 15bc d427 163d a9c9 aa3d 324f 8bbc
00000030: 13d8 6ebd 1b4f 2dbc 171e 993c 4bed 7e3d
00000040: b8ce 003d 416d 4f3d 4a39 84bb 87d6 8dbd
00000050: 1bf3 60bd f2ca aa3d fde9 63bd 4974 1ebc
00000060: 480e 8e3d af71 c3bc be62 a23c 2ad1 5cbd
00000070: 6357 9cbd b034 9d3d 734f 053b c4e8 713d
00000080: c17e 4d3d 938e 9b3d d490 0cbd 0415 90bd
00000090: 4bdf 3b3d 9771 b3bc 23ff 693d 22bf 993c
000000a0: 3cf4 733d 12be adbd 68eb a3bc b480 c83b
000000b0: 0348 80bd ce99 1e3c 7c12 933d dbd7 6e3d
000000c0: e69e 823d 6095 8bbb 65f5 733c 22ec 823d
000000d0: 67b3 2d3d c44f e8bc 02d1 3f3d ab1e 05bd
000000e0: d10a bbbc 99a9 c13c cba7 8e3d 6d59 593d
000000f0: 4f23 183c c647 9bbb bfc0 88bd 4a5a 8c3d
00000100: cbee 80bd aec0 71bc e73d 013d 74cd cbbc
00000110: 787b 37bc 99d9 533d 01e6 0c3c c059 9c3d
00000120: 31fb 9d3c 96e0 3f3d b024 8fbd 64d0 43bc
00000130: c754 543d 8125 de3c cbb1 5fbc f576 5d3d
00000140: 44fc 27bd 8ba7 a93d a22b aabd b348 a63d
00000150: d6ae 9ebd 4fee 653d 38d2 f23c fced ad3b
00000160: c9b6 7fbd 69dc 5c3d 70d5 e3bb a9f7 383d
00000170: a857 033d 7fce 98bd f7db 8b3d dd06 193d
00000180: fc7b 53bb 7f19 05bd 153e ddbc 5b1e d83c
00000190: d846 28bc 1b81 653c 6a5a 7cbd d442 8ebd
000001a0: 24c1 8e3d ac15 b33d 7472 4e3d 230f a4bb
000001b0: 1450 983c cdd2 f9bb 3359 08bd d5b0 a23c
000001c0: d89d 863c 7a4a 963d 8cc7 8cbd 411b 463d
000001d0: 87db 883c 9d19 9fbd cb68 86bd 7c2e 84bd
000001e0: ad80 753d 21da 14bd 7e34 aa3d 746f a9bd
000001f0: 87cc 91bd f0fc 21bc c768 f5bc bf1d 5cbd
00000200: 51f4 4abd 3911 163d c2c7 f4bc 9f35 93bd
00000210: 6750 9dbd e282 743d 644c acbc 96b7 ac3c
00000220: c952 b3bc ca4a 8dbc 5d47 983d 83d4 ae3d
00000230: 6783 edba 3e64 7d3d e0dd af3d bc99 733c
00000240: 9767 39bd ea00 293d 90f3 963d 81ff d3bc
00000250: fef8 a9bd 8f0f a43c 555b 92bd e227 b13d
00000260: acc0 8fbd da3b 98bd 6af1 2c3c 8e1c 9b3d
00000270: b87c 13bd 7b6a 71bd ec59 483d 1c9a 83bd
00000280: e638 593d e427 e2bc eebe 48bd a83b e0bc
00000290: 3685 8cbd 8fb9 07bd 636d 8ebc c22f d13b
000002a0: 20d9 053d 6067 9fbd 2c30 a73d 0862 bc3c
000002b0: a1aa 233d 7545 9f3b 2bbe 4cbd dd8d 933d
000002c0: b36a 3d3d 512d e03b 917a 38bd 16d4 6c3c
000002d0: dc52 18bd 1d34 9a3c da75 123c 84bf 243d
000002e0: 7b11 54bd b8c9 9e3d 2718 96bd 4b2d 32bd
000002f0: a953 8f3d c9b9 ae3c 5e1f aabd 8209 3a3d
00000300: 1412 aa3d 93e6 283d d43a 12bd 2bd7 af3d
00000310: b930 97bd 128b d03c 0b83 c03b b1e8 44bd
00000320: cd0a f1bc ca09 223d 3710 2bbd 754b bebc
00000330: 6fe4 8ebd 8d69 693d 94b8 20bd 544e 2ebc
00000340: bf28 df3b c0e2 613c aeef dc3c 5209 e03c
00000350: dc4c 8e3d 1d07 8b3c a751 f3bc d3ae 1dbc
00000360: 7771 1a3d 23ce c7bc 017a 4bbd e83a 903b
00000370: 4fc7 9b3d 7923 4f3d 75c3 3cbc 3418 183d
00000380: 1470 523d 5ada 6ebc 139d 1e3b a0f6 a0bc
00000390: e503 dabc d1e1 4d3d 5976 423d 8925 6dbc
000003a0: d201 683d 217c e13b 9ee1 8a3d 51b7 98bd
000003b0: d1a7 b3bd b170 ad3d e1ec db3c 916c 343d
000003c0: ab3a 703b 8e41 e03c bbb1 873d 6c80 253b
000003d0: 5a73 0c3d dbec 53bc 4c99 893d fe9b 813c
000003e0: 2abe 2bbd 0b2a 00bd 5da5 e53c 3413 3fbd
000003f0: 4d8b 35bb 6a87 043d 506b 6abc b81f 723d
-0.08117371 0.048443723 0.027328901 -0.0023729834 0.02938965 -0.029296232 0.05204775 0.030007554
-0.0091434 0.036659077 0.08339245 -0.017005537 -0.058311533 -0.010577942 0.018691106 0.06223802
0.031447142 0.050641302 -0.0040351497 -0.069256835 -0.054919343 0.0833949 -0.05564307 -0.009671279
0.06936318 -0.02385792 0.019822475 -0.053910412 -0.07633855 0.07676065 0.0020341545 0.059059873
0.05016971 0.07595553 -0.034317806 -0.070352584 0.045867246 -0.02190475 0.057128083 0.018767897
0.059559092 -0.08483519 -0.020009711 0.0061188582 -0.06263735 0.009680225 0.0718126 0.058311325
0.06377964 -0.0042597502 0.01489005 0.06392695 0.04240742 -0.028358348 0.046830185 -0.03249995
-0.022832306 0.02364044 0.06965598 0.0530638 0.009285762 -0.0047387807 -0.066773884 0.06853159
-0.06295546 -0.014755411 0.031553175 -0.024878241 -0.011198871 0.05172119 0.008599759 0.07634306
0.019284816 0.04684504 -0.069894195 -0.01195154 0.051838662 0.027117493 -0.013653229 0.054068524
-0.041012064 0.082839094 -0.083091035 0.08119335 -0.07748191 0.056135472 0.029641256 0.005307911
-0.062430177 0.053921137 -0.006952934 0.045158062 0.032066017 -0.07461261 0.06829064 0.03736006
-0.0032269945 -0.032495018 -0.027007142 0.026381662 -0.010270797 0.014007832 -0.061609663 -0.0694634
0.069704324 0.08744368 0.05040212 -0.0050066872 0.018592872 -0.0076240064 -0.033288192 0.01985971
0.016432688 0.07338424 -0.06873998 0.048365835 0.016706241 -0.07768557 -0.065629564 -0.06454179
0.059937168 -0.036340836 0.08310793 -0.08273211 -0.071190886 -0.009886965 -0.029957188 -0.053739306
-0.049549405 0.03663752 -0.029880408 -0.07187962 -0.07681351 0.059695132 -0.02103252 0.021083634
-0.021890061 -0.017247576 0.074354865 0.08536627 -0.0018120826 0.061863177 0.08587241 0.014868196
-0.045264807 0.041260637 0.073706746 -0.02587867 -0.082994446 0.02002695 -0.071463265 0.08650185
-0.07019171 -0.07433291 0.0105556045 0.07573806 -0.036007613 -0.05893944 0.04891388 -0.064258784
0.05303278 -0.027606912 -0.04901021 -0.027372196 -0.068613455 -0.033135947 -0.017386144 0.006383867
0.03267777 -0.07783389 0.08163485 0.022995964 0.039957646 0.004860575 -0.049986046 0.07204793
0.046244334 0.0068413396 -0.045038763 0.014454862 -0.037188396 0.018823678 0.008939231 0.040221706
-0.051774483 0.077533185 -0.073288254 -0.043500226 0.06998379 0.021328824 -0.08306764 0.045419224
0.083042294 0.041235518 -0.035700634 0.08585962 -0.0738234 0.025456939 0.0058749965 -0.048073474
-0.029424096 0.039560117 -0.04176351 -0.02322934 -0.06977164 0.056985427 -0.039238527 -0.010638792
0.0068102772 0.013786972 0.026969757 0.027348194 0.069482535 0.016971165 -0.02970202 -0.009624201
0.037705865 -0.024390286 -0.0496769 0.0044015534 0.076063745 0.05057094 -0.01152121 0.037132457
0.051376417 -0.014578426 0.002420251 -0.01964885 -0.026613185 0.050264183 0.047476146 -0.014474281
0.05664236 0.0068812524 0.06781314 -0.0745684 -0.08772243 0.0846876 0.026846351 0.04404885
0.0036656063 0.027375009 0.06625696 0.0025253547 0.034289695 -0.012934889 0.06718692 0.015821453
-0.0419294 -0.031290095 0.028032953 -0.046649173 -0.0027701438 0.032355703 -0.014307812 0.05911228

embed.3.bias f4 [256]
00000000: 3afc 72bd 88aa e23c 9ba2 d83c 16ba a93d
00000010: fefc 413b a917 6dbd 7983 813d 25bb b43b
00000020: fc33 8dbc d5c8 6dbc c257 b3bc 6ad5 22bd
00000030: e00f 57bd 10b5 4ebd a13c 79bc 5a34 0cbd
00000040: 950f b4bd 0aa8 7abc 6762 8bbd 0929 4ebb
00000050: 39b8 463c 43b1 88bd 9340 16bd 0c8b a8bd
00000060: 1880 87bb 131c 893b 7a0b 6ebc d532 ffbb
00000070: 348a 4dbc 6a53 f0bb b379 6cbd c6ee 2ebd
00000080: 9e92 aebd 7af7 223b ba55 633d 19ab 0f3b
00000090: c14c a83d ca31 1dbd cb09 43bd 2534 53bd
000000a0: 1efa c63c fb1e a7bd 5de7 98bd 4d85 1ebd
000000b0: 5563 49bc f048 8a3d 06d5 91bd af1e 193d
000000c0: 2c7e 87bd 8145 fbb9 fcbb 19bd 1b19 13bc
000000d0: 9afe b53c b024 90bd b5a9 e33c 4ac8 a3bd
000000e0: ce38 8d3d fe6b a23d a417 943c 3fd3 5f3d
000000f0: c4a9 993b 15d9 0bbd 96a3 b93a 4727 c4bb
00000100: f52f 96bd dba9 3ebc c0ad 2cbc 91e5 dfbc
00000110: 3297 acbd 4845 38bd 9ef1 14bd 8618 ad3d
00000120: 9d34 6e3d e08b 52bc 05fa 543d 87b8 32bd
00000130: 769c 883c 535d 933d 2203 cf3c 7b57 7dbc
00000140: 7c71 12bd 4bc0 7ebd 0b59 6f3d b7f6 543d
00000150: 5712 d7bc 4431 e13c 1334 b03d 2efb 843d
00000160: 3a3a 783d f68c 0ebd 91e9 9ebd d17f 423d
00000170: a831 a43d 741f 853b fa2e 44bd ff6f 7fbd
00000180: 790c 07bd 6da7 18bd abc9 c4bc 9da9 993d
00000190: 7215 28bd c596 a8bc af87 b83a f89c 02bd
000001a0: f4f5 4c3d 6d40 a6bc 2552 6abd e339 9c3d
000001b0: 790e 4ebc 1b18 59bd 6659 9d3a e6ac e13c
000001c0: a2aa ad3c 2c0e 38bd 80d9 87bd cce3 553d
000001d0: f253 ec3c 811e 74bd 1096 5fbd 0a71 aabd
000001e0: 1d9b af3d 9db7 8b3d eebd 9fbd e200 24bd
000001f0: ac95 443d a2de d63b e426 13bd 6ec0 ffbb
00000200: a690 353c a406 c83c 62df 9d3d 15b8 3b3c
00000210: ef6f 98bd 3b36 b0bd 96b6 7dbb fb25 acbd
00000220: dd10 993d 10f2 b0bd 14ef b3bd b974 cdbb
00000230: 0284 613d ffaa 03bd 663b a4bc cdf6 8b3c
00000240: 06e7 873d ff2d 0d3b 548d 4f3c 1582 1c3b
00000250: 8881 1ebd 9f88 f1bc dfcc ddbc 9380 aebc
00000260: bb1e b1bd 99e2 99bc ba4b 1c3d f40a 693c
00000270: e423 30bd 7656 103d 8137 29bd d92e 933c
00000280: bb1e 71bd a6ca ac3d 916b 8d3d 4a25 26bd
00000290: 960a 78bd d18f 9e3a c972 fa3b f9e7 55bd
000002a0: c8da dbbb 2d1a 3b3d 72eb 983d c4fc 62bd
000002b0: 043f 643d cab9 963d b3d7 7dbd 2f06 4fbb
000002c0: c14a a03d 8bfc 60bd 077c fdbc 0b5d b13d
000002d0: 1ac6 4ebd 80bc 63bd fe1b 94bc 26d5 e33c
000002e0: 6b5a 18bc 05a8 343d b1ce 29bd f7a8 a63d
000002f0: 998f 3338 454f a5bd de6e 643d 426f b23d
00000300: 9a4f abbc 2088 573d fbcd 693c e47d 7e3d
00000310: 2b14 75bc d5dc 19bd 3f88 d3bc 74ed 03bd
00000320: ff03 a93c d08f 6fbc 7b16 afbc 17d8 173c
00000330: 2e4a cebb 6448 b5bc 9278 84bd aa85 6e3d
00000340: d798 8d3d aa80 0cbd 235b 833d cddc 963c
00000350: 5152 5ebd 1e40 133d fbf1 b33d 59f3 58bc
00000360: 0fe4 a23d eb56 09bd 784a 563d 9962 8dbd
00000370: 20a0 c0bc dbc1 683d 49cb 2abd 1a17 a53d
00000380: 082a 9d3d 36b2 b4bd 3d50 b43c b98b b03d
00000390: ae81 15bd a53e b3bd 8044 9d3d dc7f 4d3c
000003a0: 94ed 503d de73 3dbd 57f2 ac3d 1aa2 9b3d
000003b0: aedc 443d 93a4 03bd 67d8 7bbb 57da 87b7
000003c0: 4c0e b43d 9fc8 5637 ba0c 463d afb7 5f3d
000003d0: aa79 ec3c 5a39 ae3d e8c8 0b3b 1b6d a0bd
000003e0: 635c 55bd 99be b2bd 360c c3bc 4a92 84bd
000003f0: e6bf 753d c23e afbd 444e 7f3d 6cc4 a4bc
-0.059322573 0.027669206 0.026444724 0.08287446 0.0029600258 -0.057883892 0.063239045 0.0055154734
-0.017236702 -0.014513214 -0.021892432 -0.03975431 -0.052505374 -0.050465643 -0.015212209 -0.034229614
-0.087920345 -0.015298853 -0.06805878 -0.0031457564 0.012128883 -0.06674435 -0.036682677 -0.08229646
-0.004135143 0.004184255 -0.014529103 -0.007788042 -0.012545157 -0.0073341625 -0.05773325 -0.04270818
-0.08524059 0.0024866746 0.055501677 0.002192205 0.08217765 -0.03837756 -0.04761676 -0.0515634
0.024289187 -0.08160206 -0.07466004 -0.038701344 -0.012291749 0.06752193 -0.07120709 0.037382778
-0.06615862 -0.00047926235 -0.03753279 -0.008978154 0.02221613 -0.070382476 0.027790884 -0.079971865
0.068956 0.07930754 0.018077679 0.05464482 0.004689427 -0.034142572 0.0014163132 -0.0059861275
-0.07333366 -0.011637176 -0.010539472 -0.027331145 -0.08427276 -0.044987947 -0.036363237 0.08451943
0.058155645 -0.012850732 0.05199625 -0.04363301 0.016676169 0.071955346 0.025270049 -0.0154627515
-0.03575276 -0.062195104 0.058434527 0.051993098 -0.026253862 0.027489312 0.08603682 0.06493221
0.060602404 -0.0348024 -0.07759393 0.047485176 0.08017284 0.0040625874 -0.047896363 -0.062362667
-0.03297088 -0.037269045 -0.024021944 0.07503054 -0.041036077 -0.020579705 0.0014078523 -0.03188798
0.050039247 -0.020294392 -0.057207245 0.076282285 -0.012576693 -0.053001504 0.0012004792 0.027548265
0.021199528 -0.04493539 -0.06633282 0.052219197 0.028848622 -0.059599403 -0.05458647 -0.08322342
0.085745074 0.06822131 -0.07799898 -0.040039904 0.0479943 0.0065573016 -0.03592576 -0.007804922
0.01108185 0.024417229 0.077086225 0.011457463 -0.07443225 -0.08604094 -0.0038713566 -0.08405682
0.074739195 -0.0863992 -0.08785835 -0.006270018 0.055057533 -0.032145496 -0.020047855 0.017085457
0.06635861 0.0021542308 0.012667973 0.0023881246 -0.03869775 -0.029484091 -0.02707523 -0.021301543
-0.086484395 -0.018784808 0.038158156 0.014223803 -0.043002978 0.035238706 -0.0413127 0.017966675
-0.058867197 0.084370896 0.06905282 -0.040562905 -0.06055697 0.0012097304 0.007643078 -0.05222318
-0.0067094304 0.04567926 0.07466783 -0.055416837 0.05572416 0.07359655 -0.061973285 -0.003158938
0.07826758 -0.054928344 -0.03094293 0.08660325 -0.050481893 -0.05559969 -0.018079754 0.027811598
-0.009298901 0.04410555 -0.041456882 0.08137696 4.281066e-05 -0.0807176 0.055769794 0.08712627
-0.02091198 0.052620053 0.014270301 0.062131777 -0.014958422 -0.037564117 -0.025821803 -0.032208875
0.020631788 -0.01462169 -0.021373024 0.009267828 -0.006295464 -0.022129245 -0.064683095 0.05823294
0.069139175 -0.03430239 0.06413867 0.018415833 -0.05427772 0.03594982 0.087863885 -0.013241612
0.07953655 -0.033530157 0.052317113 -0.06903572 -0.023513854 0.0568255 -0.041697774 0.08061047
0.076740324 -0.088230535 0.022010917 0.086204 -0.036500625 -0.08752183 0.07679081 0.012542691
0.051007822 -0.046253078 0.0844466 0.07599278 0.04806202 -0.032139372 -0.0038428546 -1.6194927e-05
0.087917894 1.2802105e-05 0.04835198 0.054618534 0.028866608 0.08507033 0.0021329466 -0.0783331
-0.05209006 -0.0872776 -0.023809534 -0.06473215 0.05999746 -0.08556892 0.0623305 -0.020113192

conv_spatial.mlp.0.weight f4 [256, 2]
00000000: 2c1e 3ebe 6372 8bbe 073e fcbe 450a 4abf
00000010: fe37 c53d 5b86 40bc bd67 d63f b7f0 f53f
00000020: dd71 953e c22d 193e 4639 943e e27e fd3d
00000030: a8d0 39c0 d0da f0be 4c7b fbbc acbb 87be
00000040: 90c4 e0bd 075b 713e b24e 723e 7282 623e
00000050: 81fb 023e ebce 9d3d 7043 2f3e 28df 8d3e
00000060: 0c26 5d3e aadd 933e 4a6e 06bf c18d 163f
00000070: 29ee b7bd 53c3 8c3e 9d8d 6bbe 9472 65bd
00000080: 37d7 59bd 0c38 733e 1f31 2a3e 0250 503e
00000090: c1c6 133e b721 80be 7d77 853e 310b 3abc
000000a0: 900e 87be d55a 523e 2f98 80be 7f4e a9bd
000000b0: 632e 863e f6b4 c0bd c414 38be cab9 913e
000000c0: fb07 86be cdd8 42be 7ae4 1abf cc21 1d3f
000000d0: db8f 1ab7 c32e 1eb8 327a 3639 2139 323b
000000e0: c5f3 be3d f10c 23bd cb81 83be 44dc 80be
000000f0: 3e4d 53be 0b5c 5c3e 300a ff39 dfb6 a9ba
00000100: 23b8 0a40 516a bdbf 8033 bb39 8974 33ba
00000110: a7cc 7abe 4fee 80be 7cc5 a4be c113 6fbd
00000120: a875 6c3d 3d2e 87be 10d2 403c c22a 7abe
00000130: 6371 39be ec03 76bb 02f0 60be 30ca 263c
00000140: 9c5a 593e 6f3a 383d 39d9 c739 b261 5a3b
00000150: fc91 1dbe 8bb1 97be 5e66 7e3e 3ea4 703d
00000160: 8dfa 46bc 48e6 5b3e 4420 543d c5ac 8b3e
00000170: bffa 34bf 9ac8 21be 0819 503e 6a8b 653e
00000180: 0eca 603e d814 0abe 3739 573e 2fa5 863e
00000190: ceb8 303e 8752 913e 1fa1 323e 7ea0 3a3e
000001a0: 6894 7c3e bd5e 1bbe bc2e 913e 6284 9b3d
000001b0: abc6 19bc a6ad 30be b253 6e3f dce3 b03f
000001c0: 212d 34be 08df 393e 0997 56be 0992 723e
000001d0: 4129 7b3e fb87 813e ea69 82be 2817 41be
000001e0: 079c 91be ba25 b33d 3f98 193e fc26 82be
000001f0: 9800 89bd 9bb6 4e3e 5e44 98be c133 1abe
00000200: a124 17be a6a2 fe3d cfb8 a03e 8676 673d
00000210: 1ce7 46be 7bdf 6a3e 8688 85be 9401 5abe
00000220: 8278 1e3e edab 79be 72b3 8c3e 3d53 273e
00000230: b0e5 6f3e b984 bbbd bbc4 29be 5ef9 74be
00000240: cac5 b8bd 2339 983e 76a2 a0b8 7000 e939
00000250: 16c0 4b3e 0665 53be 3c7d 20be 56ba 5d3e
00000260: b4ea 993e af66 d7bc 5280 54be cfda 04be
00000270: ed03 55be 514a 7abe 9c84 9cbd 44d2 94be
00000280: d7a9 a5ba 53e8 9aba 995c 76be 1a88 203e
00000290: 9b31 fe39 c77f 0cbb 7736 8bbe a4eb dd3d
000002a0: c0a8 873e 06cc 1cbe 49a2 61be 68af 833e
000002b0: 9f9d 663e 0902 1e3e 12cd 6e3c eeed 9fbe
000002c0: ecd7 d43a 6ca8 133b 68ff 23be d423 2cbe
000002d0: b3b1 ea3c d087 7fbe 2cb0 6d3e 1c8c bf3d
000002e0: f038 6c3e 61df 863e 3477 b039 998c 8e3a
000002f0: 5d0a b43d e097 7cbb 02ad 69be 8ae9 ddbc
00000300: eac1 db3d 56fb 973e 6ced 4b3e 8533 8f3e
00000310: a89c c3bd c278 7fbd 5372 be3a 9dcc 07bb
00000320: e786 59bd 3bdd 9fbe 6264 2d3e 892b 483e
00000330: 0227 7f3f 869b 963f 2d70 24be 8538 833e
00000340: 61d4 99be 70d1 f73d 49ba 1140 715c 19c0
00000350: cec2 46be 7958 83be 7f31 843d 8efe 83be
00000360: 2952 873e 3743 23bd 5094 763d 4f35 133e
00000370: f4bc 9d3d b2dc 9f3e e5ee 86be d709 483c
00000380: ca0b ee3a 802d 0e3c cf56 243d 5198 583e
00000390: 1886 4640 6006 c23f 1ede 053d c699 e6bd
000003a0: 5ed6 27be d07b a83c 82db 733e dfae 663e
000003b0: c339 843e b040 063d 8ad2 99bf be00 66c0
000003c0: c77f 7d3d f1e2 853e 5bbe 6cbe 9a89 69be
000003d0: 590a 653f 3534 f23e 3867 b739 2258 853a
000003e0: 878c 0a39 d544 27bd 790e 00be e3e7 9bbe
000003f0: 8166 4b3e 56bb 5fbe b649 063e 0712 94bd
-0.18566197 -0.27235708 -0.49266073 -0.7892192 0.0962982 -0.011750783 1.6750408 1.9214085
0.29188433 0.14958861 0.28949946 0.123777166 -2.9033604 -0.4704194 -0.030698441 -0.2651037
-0.10974991 0.2356988 0.23662832 0.22120073 0.12791254 0.07705482 0.17115569 0.27709317
0.21596545 0.28880054 -0.5251204 0.5881005 -0.08980972 0.2749277 -0.2300324 -0.056017473
-0.05318376 0.23751849 0.166203 0.2034302 0.14431287 -0.25025722 0.26067725 -0.011355207
-0.26378298 0.20542462 -0.25116107 -0.08266925 0.26207265 -0.094095156 -0.17976671 0.28462058
-0.26177964 -0.19028015 -0.6050488 0.61379695 -9.212609e-06 -3.7713686e-05 0.00017402394 0.0027194696
0.09323839 -0.039807264 -0.25684962 -0.2516805 -0.20634934 0.21519487 0.0004864498 -0.0012948177
2.1674888 -1.479807 0.0003570579 -0.0006845673 -0.24492131 -0.25181815 -0.3218192 -0.05836845
0.057729393 -0.26402465 0.011768833 -0.24430373 -0.1810966 -0.0037538959 -0.21966556 0.010180041
0.21225971 0.0449776 0.0003811808 0.003332239 -0.1538772 -0.29627642 0.24843737 0.058750384
-0.012144697 0.21474564 0.051788583 0.2728025 -0.7069511 -0.1579918 0.20322049 0.22416463
0.21952078 -0.13484514 0.2101792 0.262979 0.17257997 0.28383276 0.17444275 0.18225285
0.24665987 -0.15172859 0.28355968 0.075936094 -0.009385745 -0.17253742 0.9309646 1.3819537
-0.1759534 0.18151486 -0.20956053 0.2368852 0.24527456 0.25299057 -0.2547143 -0.1885649
-0.28439352 0.0874743 0.14999484 -0.25420368 -0.066895664 0.20186846 -0.2973966 -0.15058805
-0.14760067 0.124333665 0.31390998 0.056509517 -0.19424099 0.22936814 -0.26080722 -0.21289665
0.15475658 -0.2438199 0.27480656 0.16340347 0.23427463 -0.09156174 -0.16578953 -0.23923251
-0.090221 0.29731092 -7.659655e-05 0.0004444155 0.19897494 -0.20644006 -0.15672773 0.21653113
0.30061877 -0.02629408 -0.20752075 -0.12974094 -0.20802279 -0.24442412 -0.07642481 -0.2906667
-0.0012639117 -0.0011818506 -0.2405876 0.15676919 0.00048483614 -0.0021438466 -0.2718999 0.108359605
0.26495934 -0.15312204 -0.22034563 0.25719762 0.22521065 0.15430464 0.01457526 -0.31236213
0.0016238666 0.0022530807 -0.16015399 -0.16810542 0.028649187 -0.24954152 0.23211735 0.093528956
0.23068595 0.263423 0.0003365815 0.0010875642 0.08791039 -0.0038542673 -0.22819903 -0.0270889
0.107303455 0.29683942 0.19914788 0.27968994 -0.09551364 -0.062371023 0.0014529921 -0.0020721324
-0.05310717 -0.31223473 0.16932824 0.19547857 0.99668896 1.1766212 -0.16058417 0.25629058
-0.30044845 0.12100494 2.276995 -2.3962672 -0.1941025 -0.25653437 0.06454753 -0.25780147
0.2642987 -0.039859023 0.060200036 0.14375804 0.077020556 0.31223065 -0.26354137 0.012209377
0.0018161472 0.00867784 0.04012185 0.21151854 3.1019344 1.5158195 0.03268253 -0.11259799
-0.16390368 0.02056685 0.23814204 0.22527646 0.2582532 0.032776535 -1.2017376 -3.5937953
0.061889436 0.26149705 -0.2311949 -0.22806397 0.89468914 0.47305456 0.00034981384 0.001017336
0.00013213056 -0.040837128 -0.12505521 -0.30450353 0.19863321 -0.21848807 0.13114056 -0.07230001

conv_spatial.mlp.2.weight f4 [256, 256]
00000000: 1bb2 113e 0e8d bc3d c27b 09be b4ea 083e
00000010: dcbc 7abe 45fb 61be 7bac d1bd 9f81 e43d
00000020: 4faa eb3c 03b8 29be 0cf5 2fbe b909 4fbe
00000030: ed6a fdbd ac1f 14bd 1fcb 62bd 3c0c 663e
00000040: 2116 54bd 9c34 25be ab41 21bd 6305 03be
00000050: 9c4e 403d a878 953e c318 bebd 1c35 c6bc
00000060: 2328 4a3e 94c5 1fbd f473 f6bc 6f22 dc3c
00000070: e152 0cbe c449 293e 6dfe b33d 10ac 133d
00000080: dd73 103e 2f37 f0ba aef4 813e afb6 8d3e
00000090: 3226 6f3c 91f5 553d c25f 313e 9835 113e
000000a0: d91e 61be f436 053d f439 173e 97f2 7bbe
000000b0: c6ce a8bd b507 a4bd a3bf 9f3d 9e90 3ebe
000000c0: 5250 1ebd c714 04be 2194 02be 43b2 57be
000000d0: d149 f0bd 251f 7dbe d114 653c a2e5 063d
000000e0: a1a1 433d c48d a73d c444 7ebe f7ac 3b3e
000000f0: b58b 3e3e a4c7 d4bc 2e18 1cbd bd29 6d3e
00000100: 4880 b43d b3c5 9abe 8adb 973d 57e9 413e
00000110: 9212 a73c 9b55 6fbe 363b 6ebd 5d5e da3d
00000120: ddee 093d 0b34 fcbc 1754 86bc c308 5a3d
00000130: d187 4cbe d3d3 423e 2f0e 1b3e 3909 1c3e
00000140: 8bdf b53c f4dc fb3c 6747 79bd d2be 193e
00000150: b11a 14be 7c87 b93d d8db 0fbe 7e94 e93b
00000160: 18bf 26bd b9d8 683e 50bf 883d 8aee 46be
00000170: 142a 25be 0dad 7cbd d933 1abe b653 3e3e
00000180: 7307 cfbd 2010 44bd 6ff4 4d3e 8ddd 83bd
00000190: 77d4 d93d 5502 54be cc60 cfbd d584 7d3d
000001a0: df42 393e 4f54 653e dbea 3b3e 8fd7 03bb
000001b0: c77c 1bbe 832e 0bbe fd9d f0bd 69c8 263e
000001c0: 911d 20bb c4fe 2cbd 33b5 81bd 302c 8b3d
000001d0: 06b9 303e e336 65be 4f91 6abe 4d67 eabd
000001e0: eaf4 6bbd c695 083e eee8 41be 082f 3dbd
000001f0: fc8e d3bb 9984 963d cf4e bbbd 2657 01be
00000200: 778c d6bd e0c0 a9bd 5d9e e9bd 31b0 5fbd
00000210: 2d21 8d3e 29c5 2ebe 5490 7ebe 1f85 babd
00000220: 0b4d 5bbe b444 183e 931c 5ebd 677e 553e
00000230: 4590 0d3e 0c21 d93c 6bb4 debd 95db 153e
00000240: c6b3 9e3d 7e99 cd3c 1406 eabd bc46 8ebc
00000250: b0b1 10be 310d 9b3d 5e50 b33b fc76 86be
00000260: b73a 513d e282 0bbe 8c0e 3bbe aeb5 77bc
00000270: e8f5 823e 1b03 a6bc 431f 99bd e6b0 1a3e
00000280: 9b46 693d e4a6 f9bd 9bcb a43b 8dd9 563d
00000290: 74f0 85bc 4ee3 0e3c ad30 363e 0c18 a0bd
000002a0: 9d6a d8bb 6494 a1be 1076 0c3e 9b88 43bc
000002b0: 8d0a bc3d e6a2 833e 1189 6b3d 12e8 74be
000002c0: 5e5c c1bd 6d26 8abc 21b7 c13d 3438 11be
000002d0: 031e e53d 2687 4a3e c81b 15be 6903 8dbe
000002e0: f588 1dbd 7a56 24bd 3151 903d a608 a9bc
000002f0: 7b11 78be 2a44 4b3c 901f 0f3b 7fb9 4dbe
00000300: 540c 313e 21d5 a2bd 1771 6a3e 599d 05be
00000310: 8a81 133e cdea d6bd 426e 0ebc 879e 113e
00000320: baf2 15be 4774 043d 8a20 04be 965c e43b
00000330: b414 cdbd 2282 17bc d9c9 dc3d 3477 133d
00000340: ddcd c2bd 7f8f 3cbe ca9a 62be 1d0a 1ebe
00000350: a672 603b 02ab bdba 465f 073e 9803 863d
00000360: 685c 043e a35e dfbd 1ea0 0c3e c8f5 a6bd
00000370: 38c7 1fbb f84d 953d 9d94 ab3d 7ddb 6a3d
00000380: 728a 8bbe 98b5 1ebe e280 583e 0163 a4bd
00000390: d222 173e dd1e 1b3e b8d5 d03d 641c 853e
000003a0: f18b dfbd 1f6b f2bd f4f2 54be 153a 91be
000003b0: 378d 22be a35f 22be 9207 20be c143 43bd
000003c0: ef2e 8fbe 6d6c 2d3d 7a10 513d cf31 933e
000003d0: 1b93 66bd c93d 8c3d de61 10be d85a 41be
000003e0: 7748 f53d 4fae 11be f198 493e 6c80 88be
000003f0: 30da 46bc cbae 92bd 9a2f f6bb 0904 90bd
0.14228098 0.092065915 -0.13426116 0.13370782 -0.24486107 -0.22068508 -0.10237976 0.11157536
0.028767733 -0.16574101 -0.17183322 -0.20218553 -0.1237391 -0.036163017 -0.055369493 0.22465605
-0.051778916 -0.1613335 -0.039369266 -0.12795024 0.046949968 0.29193616 -0.09282067 -0.024195246
0.19741873 -0.039006785 -0.030084588 0.026871888 -0.13703491 0.16532046 0.08788762 0.036052763
0.14106698 -0.0018326993 0.25381988 0.2767844 0.014596509 0.052236143 0.17321685 0.141806
-0.21984424 0.03252311 0.14768201 -0.2460426 -0.08242564 -0.080092825 0.07800224 -0.18609855
-0.03865082 -0.12898551 -0.12751819 -0.21064095 -0.11732829 -0.24718912 0.013982014 0.03293384
0.047761563 0.081813365 -0.2483092 0.183277 0.18607982 -0.025974102 -0.038108997 0.23160453
0.0881353 -0.30228958 0.07414921 0.18936668 0.020394597 -0.233725 -0.058161937 0.106625296
0.033675063 -0.030786535 -0.016397519 0.053231012 -0.19973685 0.19026117 0.1514213 0.15237893
0.02220132 0.030745007 -0.06085911 0.15014198 -0.14463307 0.09059045 -0.14048707 0.0071282974
-0.040709585 0.22738923 0.06677115 -0.19426933 -0.16129333 -0.06168847 -0.15058841 0.1858662
-0.10108843 -0.04786694 0.20112775 -0.06438742 0.106362276 -0.20704015 -0.101258844 0.061894257
0.18091916 0.22395442 0.18351309 -0.0020117497 -0.15184318 -0.13591962 -0.11748884 0.16287388
-0.0024431685 -0.04223515 -0.06333389 0.067955375 0.17258081 -0.22384219 -0.22906993 -0.11445484
-0.057606615 0.13338384 -0.18936512 -0.04618743 -0.006456254 0.0734951 -0.09145891 -0.126309
-0.1047601 -0.08288741 -0.114071585 -0.05461139 0.27564374 -0.17067398 -0.24859744 -0.09107422
-0.21416108 0.14869958 -0.05422647 0.20849 0.13824566 0.026505016 -0.10874256 0.14634545
0.07749133 0.025097605 -0.114269406 -0.017367713 -0.14130282 0.075708754 0.005472227 -0.26262653
0.051081385 -0.13624147 -0.18267268 -0.015118999 0.25578237 -0.020265153 -0.07476666 0.15106544
0.0569521 -0.12190035 0.0050291545 0.052453566 -0.016350009 0.008721186 0.17792006 -0.078170866
-0.006604506 -0.31558526 0.13716912 -0.011934425 0.091817 0.2571022 0.057503764 -0.23916653
-0.09441446 -0.016864026 0.09458757 -0.14181596 0.11187365 0.19778118 -0.14561379 -0.27541664
-0.03846069 -0.040121533 0.07046736 -0.020634007 -0.24225418 0.012406388 0.002183888 -0.20090292
0.17289859 -0.07950807 0.22894703 -0.13048305 0.14404884 -0.104940034 -0.00869328 0.1422063
-0.14643374 0.032337453 -0.12903038 0.006969045 -0.100137144 -0.009247335 0.10780687 0.036002353
-0.095119216 -0.18414114 -0.2212936 -0.15433545 0.0034248023 -0.001447052 0.13219938 0.06543654
0.12925875 -0.109067224 0.13732955 -0.08152348 -0.0024380218 0.07290262 0.08377955 0.057338227
-0.27254063 -0.1549896 0.21142915 -0.08026696 0.14759377 0.15148492 0.101970136 0.25998223
-0.109153636 -0.11836838 -0.20795804 -0.28364626 -0.15874182 -0.15856795 -0.15627888 -0.047672037
-0.27965495 0.04233973 0.051041104 0.28748938 -0.056292634 0.06847722 -0.14099833 -0.1888231
0.11976712 -0.1422665 0.19687249 -0.26660478 -0.012136981 -0.07162245 -0.007512999 -0.0703202

conv_spatial.mlp.4.weight f4 [2, 256]
00000000: 1ad9 2dbe ae4d a6be 5c47 7e3e d235 4a3e
00000010: d33a a5be 2da9 813e 0659 603e eea3 2c3e
00000020: 0524 4b3a a985 473e 2838 11bd ec63 9d3e
00000030: 195c 19bd 8e1f 803c 0cce 53ba df76 ab3e
00000040: cfff c53e 84bb ccbc 3430 84be 949c ae3e
00000050: eeac df3e 788e 073e 2dfe 223a b900 963e
00000060: 1904 a9be ff7a 00be a915 c53e e4f8 e0bd
00000070: e8f3 ca3e 820a 373d bd2b bb3e e9a4 69be
00000080: 2a75 6bbc 097f 56be 4221 663e 2124 02be
00000090: a4ba b03d a3ce 16be 64d4 af3c 9368 e23d
000000a0: 779a 863e 0947 133d dcdb ec3d 8ca6 8f3d
000000b0: 8f7b 5d3e 5f76 aebe 782d 583e 1301 e13d
000000c0: caad b2bc 1a52 dfbb 5caf abbd abfd 9b3e
000000d0: 45a4 21be bf78 4eb9 0449 b93e 6ed2 b43e
000000e0: d680 173f c7f8 5c3a 92af d2be ff4b 9abe
000000f0: 013a 1a3e 0a67 013e 6050 a93e d058 903e
00000100: 34ee cfbd 5636 8abe ac5e 9cbc a5bf 29be
00000110: a58e ad3e 7998 b93e 2213 e637 6510 853e
00000120: 9de5 f23c 6a8d 513e 63b6 e43e 9bbb 133f
00000130: e831 013f 1fcd 07be a818 5abe d102 cf3e
00000140: 78a9 683e aefb 963e bbb8 21bd 8d2f 413d
00000150: 8dfc c03e eb9c d2be 7a1d babe 4992 70be
00000160: ba24 71bd db62 3a3f 3d50 8bbd 680d 93be
00000170: 087b cdbe 0082 1f3e c3b4 723e 4e7d f9be
00000180: 13eb 403e 5855 0bbc 58aa c939 1713 09be
00000190: 4199 6739 2a9c c5bd 4235 3dbe 7aed 9e3c
000001a0: 2068 d7be c435 723c 70e9 69be 361b d43e
000001b0: 77e4 e73e 6419 41bc fa6e 9abe 3379 a73e
000001c0: 7f24 bbbe 8cfe 54be 1e29 d4be 0796 1e3e
000001d0: f7e4 16bf 0c06 ad3e 191f 083f f499 cb3e
000001e0: 3a4b dd3d 8802 51be 7fa8 4d3e 3d29 76be
000001f0: 9cec 65be 257c 533c 4828 2abe b77d a53e
00000200: 28f3 b2bc dc89 aabe 3010 8bbe 0552 babf
00000210: e0ee c0be 2e9f ea3c 0b44 98be 24fe c13d
00000220: 4673 5c3e 965e a53e 73e3 5f3e e2d2 abbe
00000230: 683c 6cbf 8dde 85be 1423 c5be c834 2b3e
00000240: cf36 613e d7e6 2b3f c3a8 c8be 59f5 58be
00000250: 7349 763e d4d8 113e 1501 c6be 3865 0c3e
00000260: d0a2 383e 0fbc 0d3e f6ac 4abd b64c 333e
00000270: ff34 ffbe aff8 3a3e 6bb3 dbbd 0006 cfbd
00000280: c511 403e d654 4bbd 8e36 593e cc83 44be
00000290: 1769 0abd c490 643f e287 eebc a9e6 29ba
000002a0: 2190 bc3e ddbc c93d 392d e33e 8bb1 a9bd
000002b0: 4ca6 bb3d cac5 f73d 67bf 523d ac03 ffbe
000002c0: 935d 18be 3f97 91be 1b22 6539 0487 853e
000002d0: b480 98be bb46 8b3e e9b4 1dbf db36 7a3e
000002e0: fcef eabc 0642 8cb8 5871 3abe 72ed b63e
000002f0: e30f 0bbd 1a89 7b3e d8f6 1ebe 4d99 833e
00000300: 2386 1abe ffc0 23be 7291 87be 496f 163d
00000310: 953b 31be 5a14 e3bd 058d 3a3f 3915 c73d
00000320: 643b 2fbd 24a4 e8bc 04ad 403e d8ac 01be
00000330: b8a3 a73e 21ea 02bf d55a 3cbe 32a0 e63e
00000340: d16d 513e d25a fd3e d6d8 fabe 793f 9a3e
00000350: 2cf6 cb3d 3a01 033f c0aa 8ebe 9a72 583c
00000360: ca08 bd39 9355 6d3f 5597 70bf 74ba 203f
00000370: b1ca 833e 2567 57be 4a77 02be 3e3c 92be
00000380: 952e 2b3e 2a77 c6be 4ee9 ae3d c912 23bf
00000390: 19d4 d73e c3e8 1bbe e0d1 30ba 5a18 62be
000003a0: 42f0 6fbe 87d2 fabc 2578 5f3f 1a8d a239
000003b0: ecf9 58bf 618b 5b3e 0908 2dbf dc1c 91be
000003c0: 51a8 bb3d 2621 273e 4784 86be 61c6 8fbe
000003d0: b766 1e3e 2688 453d f8fe 113e 8337 2f3e
000003e0: 18f1 07bd f158 17bb 56f5 2e3f a596 4bbe
000003f0: 4a39 1b3f 6a47 4e3e 6dec 17bf 9506 90be
-0.16977349 -0.3248114 0.24831909 0.19747093 -0.32271442 0.25324383 0.2190896 0.16859409
0.0007749203 0.19484581 -0.035453945 0.30740297 -0.037441347 0.015640046 -0.00080797146 0.3348913
0.3867173 -0.024991758 -0.25818026 0.34103835 0.43686622 0.13237941 0.0006217685 0.29297426
-0.3301094 -0.1254692 0.38493088 -0.10984972 0.3963921 0.044687755 0.36556807 -0.22816814
-0.014371196 -0.20946898 0.22473624 -0.12709095 0.08629349 -0.14727263 0.02146358 0.11055102
0.26289722 0.035956416 0.11565372 0.07014188 0.21629165 -0.34074685 0.21111095 0.10986533
-0.021811385 -0.006815207 -0.083830565 0.3046697 -0.1578532 -0.00019690672 0.3618852 0.35316795
0.59180963 0.00084294047 -0.41149575 -0.30136105 0.15061189 0.12636963 0.33069134 0.2819276
-0.101528555 -0.2699458 -0.019088112 -0.16577013 0.33897892 0.3624914 2.7427046e-05 0.2598907
0.029650504 0.20464101 0.446704 0.5770814 0.50466776 -0.13261841 -0.21298468 0.40431836
0.22720897 0.2948889 -0.039482813 0.04716449 0.3769268 -0.41135344 -0.36350614 -0.23493303
-0.058872916 0.7280709 -0.068024136 -0.28721166 -0.40132928 0.15576935 0.23701768 -0.48728412
0.18839674 -0.008504234 0.00038464624 -0.13386188 0.00022086968 -0.096489266 -0.18477347 0.019400347
-0.4207163 0.014783327 -0.22842956 0.4142701 0.45291492 -0.011785839 -0.30162793 0.32709655
-0.36551282 -0.20800227 -0.4143762 0.15486918 -0.5894312 0.33793676 0.5317245 0.39765894
0.10805364 -0.20411122 0.20083807 -0.24039169 -0.2245354 0.012908016 -0.16616929 0.32322475
-0.021844462 -0.33308303 -0.27160788 -1.455628 -0.37682247 0.028640356 -0.29739413 0.094723016
0.21528348 0.32298726 0.21864109 -0.33559328 -0.9227967 -0.26146355 -0.38503325 0.16719353
0.21993564 0.6714911 -0.39191255 -0.21187343 0.24051456 0.1424287 -0.386727 0.13710487
0.18030858 0.1384127 -0.049481355 0.17509732 -0.4984512 0.18258928 -0.10727581 -0.10108566
0.18756779 -0.049641453 0.21212217 -0.19190902 -0.033791628 0.89283395 -0.029117528 -0.00064812094
0.36828712 0.09850476 0.4437044 -0.08285817 0.09162578 0.12098272 0.051452067 -0.4980749
-0.14879446 -0.28435704 0.00021851847 0.2607957 -0.29785693 0.272024 -0.6160417 0.24434988
-0.028678887 -6.688018e-05 -0.182073 0.3572803 -0.033950698 0.24564019 -0.15523851 0.25702897
-0.15090232 -0.15991591 -0.26478153 0.036727224 -0.17307885 -0.11087866 0.7287143 0.09720845
-0.04278125 -0.02839858 0.18816 -0.12663591 0.32742095 -0.511385 -0.18394025 0.45044094
0.20452048 0.49483353 -0.48993558 0.3012655 0.09959063 0.51173747 -0.27864647 0.013210917
0.00036055438 0.927087 -0.93980914 0.62784505 0.2574058 -0.2103544 -0.12740818 -0.28561586
0.16716988 -0.3876279 0.08540593 -0.6370054 0.42154005 -0.1522551 -0.0006745141 -0.22079602
-0.23431495 -0.030617965 0.872927 0.00031004177 -0.8475635 0.21439888 -0.67590386 -0.2834233
0.09162963 0.16321239 -0.26272795 -0.2808104 0.1546887 0.048225544 0.14257419 0.1711102
-0.03318891 -0.0023093785 0.683431 -0.19881685 0.6063429 0.2014443 -0.5934513 -0.28130022

tail.0.weight f4 [256, 256]
00000000: 9c65 443d 1c3a 2fbd d004 f8bc 40c1 d7bc
00000010: 441d 4cbd 8027 7bba 2cec 273d 7c54 c03c
00000020: d263 283d 64ba f83c 52f4 4abd bcc8 0d3d
00000030: f08f 963c 8800 563c 604a edbb 6056 c2bc
00000040: 1059 ad3b c8fd 523c 0010 dc3a 6496 ee3c
00000050: a0e9 87bb 34fd e43c e679 7dbd 044b c33c
00000060: e620 4bbd 20ab 043d 70f9 0cbd f861 0a3c
00000070: 1814 333c 94ce c43c 303b 813c 60a3 8fbb
00000080: 5051 7bbc c810 1c3c 0e1e 153d c6b1 5f3d
00000090: bca6 71bd 2056 06bc cc15 3d3d 26cf 18bd
000000a0: 54bf 5abd 40ef 213c 7457 903c acc5 6d3d
000000b0: a0e1 5bbc 7461 383d c83f f53c 1c3b fe3c
000000c0: 5850 76bc 30f7 343c 64f4 7bbd 408f 553c
000000d0: 747a 603d f4fe 833c c47b 88bc b2a0 123d
000000e0: 282b 423d f8a1 cdbc 883a 3bbd 1c5c 36bd
000000f0: e86d 163d bca8 f93c 6052 64bc 1247 2dbd
00000100: 38fc 183c 705d e7bc 582d 323d 1a8a 543d
00000110: f85d 683c c048 99bc 2029 90bb e0ea f03b
00000120: 724f 1bbd e833 033c 00e1 dc3a e6ad 4f3d
00000130: 4050 1a3d ba9c 3b3d 2486 6cbd 8cb7 8d3c
00000140: 00bf a23c d02d a33b a8f0 f3bc 80b1 03ba
00000150: 34c6 843c ec7a c5bc f859 77bc 465d 0bbd
00000160: 78f2 203d 002d 953a b4b2 d93c 184e a33c
00000170: acee 31bd 4085 5a3b e8d1 39bc 4c5c e3bc
00000180: 522f 1e3d 4868 0bbd 0098 74b9 24a0 223d
00000190: 36be 273d e4d3 3abd f073 af3c 103d d23b
000001a0: 4059 413c 60b8 053d f8a0 75bd 20cd bbbc
000001b0: d09e c63b fe4d 66bd 0c61 30bd c409 d4bc
000001c0: 4a23 423d b095 5b3d b878 d23c 5cc9 363d
000001d0: 96ff 1f3d 3663 673d e010 6e3b b843 2cbd
000001e0: 9408 1c3d 7892 02bc e6ff 203d 18c3 bebc
000001f0: d8f1 53bd d87b 723d 54d2 3dbd 8674 52bd
00000200: 32ce 79bd 18e9 4b3c a087 003c 2432 e43c
00000210: 3036 053c 5eee 603d e8bc 75bc b821 023d
00000220: 5413 2b3d 20c7 a8bc 4ea7 403d 4003 b53b
00000230: 6ecc 5cbd 2c9c d93c a4ac 75bd 409d 033d
00000240: 10a3 203d 0026 703a 8c8f cd3c 02d1 473d
00000250: 60c6 78bb 60eb 71bd 2caf 473d 12d4 193d
00000260: 44d5 083d b05b 6dbc 7a86 36bd d471 073d
00000270: 803b 47bb 58f5 523d b8d2 bf3c d02d 313c
00000280: 202f 323b 5019 2abc 0483 d7bc a486 3a3d
00000290: 80e9 32bb 60df 1bbc 7087 04bd 384e 8b3c
000002a0: de4b 3fbd 2848 66bc 6c23 bcbc 4aa0 7bbd
000002b0: 08e7 54bd 805b 3cbc 5041 4bbc c073 e33c
000002c0: 38cc 4ebc 505f 5d3c 7c71 b7bc f0e3 74bc
000002d0: 302d 4abc 3c13 debc 06be 47bd 6882 43bc
000002e0: f816 38bd b8cd 2d3c 2c3d 743d a885 66bc
000002f0: fac7 163d c027 3e3b cc8f e23c 00a4 2139
00000300: 9c54 a03c f072 fbbc f20c 0f3d c4e6 10bd
00000310: 749f 37bd d47f 9cbc 32c9 103d c03d 543d
00000320: e855 27bc 0899 3abd 36fe 0c3d 2830 abbc
00000330: a019 1c3d a630 633d 92ab 3abd c0a8 963c
00000340: 50c1 b3bc 60f2 56bb 7858 253d 8033 f13c
00000350: d4f3 79bd 90bf 723c 9ef6 0a3d 583a 24bd
00000360: 348f 813c 703d 033d 48cf 01bc 2834 a5bc
00000370: b872 2ebd 705d bb3b a028 9cbc 68db 44bc
00000380: 143c 15bd 80de 073d c89c c1bc 8e5d 193d
00000390: 6046 943b e00b e5bc 8857 033c 8a10 6dbd
000003a0: 10c1 703d 8022 3d3b 0224 6ebd c07b 083b
000003b0: f836 763c e898 903c d0ce e03c f6ac 403d
000003c0: e880 8abc 806c d43b 40aa 7f3d e66c 3b3d
000003d0: fc35 e93c 5477 17bd de12 3c3d 900b 813c
000003e0: b022 5ebd ac92 0a3d ee83 3cbd 54fa 17bd
000003f0: c0ee 223c 0ebd 23bd 943a 963c cec5 133d
0.047948465 -0.042780027 -0.030275732 -0.026337266 -0.049832597 -0.0009580776 0.040996715 0.023477785
0.04111082 0.030362315 -0.04954941 0.034615263 0.018379182 0.01306165 -0.007241532 -0.023722827
0.005290158 0.012877889 0.0016789436 0.029124446 -0.0041477233 0.027952768 -0.06188383 0.023839481
-0.04959192 0.03238976 -0.03441757 0.008446209 0.010930084 0.024024285 0.015775293 -0.0043834895
-0.015339211 0.009525485 0.036405616 0.054612897 -0.0589969 -0.008199245 0.046163365 -0.037306927
-0.05340512 0.009883702 0.017619826 0.058049843 -0.013420492 0.045014814 0.02993764 0.031034045
-0.015033804 0.011045262 -0.061512366 0.013034642 0.05480428 0.016112782 -0.016660579 0.035797782
0.04740444 -0.025101647 -0.045710117 -0.044521436 0.03672591 0.030475967 -0.013935655 -0.042304106
0.009337477 -0.028242797 0.043500274 0.051889516 0.01418256 -0.018711448 -0.0043994337 0.007352218
-0.03791756 0.008007981 0.0016851723 0.05070295 0.03767419 0.045803763 -0.057745114 0.017299436
0.019866467 0.0049798265 -0.02977784 -0.0005023703 0.016207792 -0.024106465 -0.015097134 -0.0340245
0.039293736 0.0011381209 0.02657447 0.019934699 -0.043440506 0.0033343583 -0.011341549 -0.027753972
0.038619347 -0.034034997 -0.00023326278 0.039703503 0.040952884 -0.04561223 0.021417588 0.0064159706
0.011801064 0.032646537 -0.059967965 -0.02292496 0.0060614124 -0.056226723 -0.0430613 -0.025883563
0.047396936 0.05360955 0.025692329 0.044625625 0.039062105 0.0564911 0.0036325976 -0.04205677
0.03809412 -0.007969491 0.039306544 -0.023286387 -0.051744312 0.059200138 -0.046343163 -0.051380657
-0.06098766 0.012445711 0.0078448355 0.02785594 0.008130595 0.054914825 -0.014998652 0.031770438
0.04176648 -0.020602763 0.047034554 0.005524069 -0.053905897 0.026563726 -0.059979096 0.032132387
0.03921801 0.0009160936 0.025092863 0.04878331 -0.0037960038 -0.05906236 0.04875104 0.03755576
0.03340651 -0.014487192 -0.04456184 0.03306754 -0.0030400455 0.05150351 0.023415908 0.010814145
0.0027188733 -0.0103820115 -0.02630759 0.04553856 -0.0027299821 -0.009513706 -0.032355726 0.017005071
-0.046703212 -0.014055289 -0.02296611 -0.06143216 -0.05197814 -0.011496425 -0.012405708 0.027765155
-0.012621932 0.013511494 -0.02239298 -0.014946923 -0.012339875 -0.027108781 -0.048765205 -0.011932947
-0.04494378 0.010608129 0.05962865 -0.014069952 0.036811806 0.0029015392 0.027656458 0.00015415251
0.019571595 -0.030694455 0.034924455 -0.035376325 -0.0448298 -0.019103922 0.035348125 0.051816702
-0.010213353 -0.0455561 0.034422122 -0.020896986 0.038110375 0.055466317 -0.04557378 0.018391013
-0.021942765 -0.0032798275 0.040367573 0.029443502 -0.06102355 0.01481618 0.0339266 -0.040094703
0.015815355 0.032041013 -0.007922955 -0.020166472 -0.042589873 0.0057179257 -0.01906234 -0.012015201
-0.036434248 0.033171177 -0.02363433 0.037442736 0.004524991 -0.027959764 0.008016475 -0.0578771
0.05877787 0.0028859675 -0.05813981 0.0020825714 0.015027754 0.017651036 0.027442366 0.04703995
-0.01690717 0.006482661 0.062418222 0.04575815 0.028468125 -0.036979035 0.04591643 0.015752584
-0.0542323 0.033831283 -0.046024255 -0.037103966 0.009944618 -0.03997522 0.01833848 0.036077313
